fw_flightcontrol/models/icinco/sac/actreg/caps/sac_bohn_caps_nohist_noatmo_6930_31-05_15:00:06.pt (torch, 853667 bytes, 20 tensors)

action_scale f4 [1, 2]
000000 00 00 80 3f 00 00 80 3f
       1.0 1.0

action_bias f4 [1, 2]
000000 00 00 00 00 00 00 00 00
       0.0 0.0

fc1.weight f4 [256, 14]
000000 46 fe 56 40 ec 99 ba bd 47 49 8f bc 38 dd c5 3f
       3.3592696 -0.091113895 -0.017490996 1.5458136
000010 b6 1d 4e bd 02 6f b2 3f 94 3f 4f 40 14 54 37 40
       -0.050321303 1.3940127 3.2382555 2.8645067
000020 97 c8 92 3f 8f a2 64 3f 9c 47 bd ba 37 93 75 bb
       1.1467465 0.89310545 -0.0014440897 -0.003747178
000030 8d a5 83 3e 31 f3 cd 3e 40 2a b4 be a6 83 c2 3f
       0.25712243 0.40224603 -0.35188484 1.5196426
000040 d6 73 d7 bc 28 8a 83 bf a4 ee 0b bd 72 24 59 bf
       -0.026300352 -1.0276537 -0.034163132 -0.84821236
000050 83 fb d6 3f df 59 b1 40 a6 23 a0 40 0a a0 92 c0
       1.6795505 5.5422206 5.0043516 -4.582036
000060 f4 86 1a bd bb 7a 0d bc 0b 09 7c be bd 51 14 bf
       -0.037726358 -0.008635218 -0.24612825 -0.5793722
000070 97 2d 16 bf bf 6f c4 3f ab 1f d4 bc 6a 24 19 c0
       -0.58663315 1.5346602 -0.025894007 -2.3928475
000080 f6 bc 8b bb df b7 08 c0 10 e2 06 bf 4c 37 e8 3f
       -0.0042644693 -2.1362226 -0.52688694 1.8141875
000090 d9 e1 4d 3d 4a 5a b5 c0 c6 d0 ce bb a9 9f 1a 3c
       0.050264213 -5.6672716 -0.006311509 0.00943748
0000a0 e7 91 d0 3d 57 f1 79 bd e8 fb 89 bf df 00 af 3f
       0.10184079 -0.061021175 -1.0780001 1.3672141
0000b0 77 52 b7 bb 36 fc 0e 40 de fd 67 3b 2a a2 02 40
       -0.0055945474 2.2341437 0.003539912 2.0411477
0000c0 05 27 f9 3f 33 09 a5 3f 42 98 1e 40 7a 28 a6 3f
       1.9465033 1.2893432 2.478043 1.2981102
0000d0 8c 61 64 bb ac 52 03 3b 92 cb 9c 3e c3 05 48 3c
       -0.0034848182 0.002003829 0.30624062 0.012208405
0000e0 85 fa 60 3f 31 0c 14 c0 b2 14 c8 3c 66 ce 05 bf
       0.8788226 -2.313244 0.02442393 -0.52268064
0000f0 d3 c3 4a 3e 6b b9 f4 be 71 81 22 be f9 fd 12 40
       0.19801264 -0.47797713 -0.1586969 2.2967513
000100 a7 dd 8e 40 3a fb 11 40 2b bb 1a bd 3e 5d 45 3c
       4.464557 2.2809587 -0.037776154 0.012046156
000110 60 36 b1 be 5d 98 ea bc 92 25 c8 3e 10 13 5d 3f
       -0.34611797 -0.028637106 0.39091164 0.8635721
000120 80 5a 28 be ce a0 39 3e 3a 42 2f 3d ca 6e 1d 3c
       -0.16440773 0.18127748 0.042787768 0.009608934
000130 50 3f 4a be 45 72 46 bf 93 ea 6e bf 69 46 68 3d
       -0.19750714 -0.7751811 -0.9332668 0.056707773
000140 62 4c dd 3c c0 8e 62 3c bc 70 b6 bc 10 b4 8b be
       0.027013961 0.01382798 -0.022270553 -0.27285814
000150 a1 ee 0c bd 9b c7 02 3e c0 6a 3c be 8b a8 3b be
       -0.03440726 0.12771456 -0.18400097 -0.18326013
000160 02 1b 40 bc 78 3e 51 be e2 df 5c be b2 8d cc bc
       -0.011725189 -0.20433986 -0.2156978 -0.02496991
000170 01 63 e4 bd b2 d6 d8 bb c7 b1 af 3d a3 ff 1c 3e
       -0.11151696 -0.0066173906 0.0857883 0.15331893
000180 69 9e 44 bd fd 5b 0f 3e 71 d6 c2 bf e3 84 19 be
       -0.048002634 0.13999934 -1.5221692 -0.14992099
000190 88 87 d0 bc bc c4 30 bf 6c f8 02 bc af d2 1a bf
       -0.025455251 -0.6905019 -0.007993799 -0.6047773
0001a0 f1 b5 9f 3f af cd cc 3f c0 c6 3e 3f 8c 3b 3f 3f
       1.2477399 1.600027 0.7452202 0.74700236
0001b0 af 12 27 3b b9 70 30 3c 60 45 d6 be 2b 36 e2 bf
       0.0025493314 0.010769063 -0.41849804 -1.7672781
0001c0 d5 24 5e bf 61 46 5c 3f 2c 0a a9 be 96 97 19 be
       -0.8677495 0.8604489 -0.33015573 -0.14999232
0001d0 a2 c4 9d 3e d1 f3 f3 be 44 55 3b 3e 1c 80 46 be
       0.3081408 -0.47646955 0.18294245 -0.19384807
0001e0 25 cc a6 3f d0 fc c0 bf db e8 51 3d ee 01 50 bd
       1.303105 -1.5077152 0.05124746 -0.05078309
0001f0 81 0d 9d 3e 8b 17 86 be 1f 01 1f 40 74 d6 64 c0
       0.30674365 -0.26189837 2.4844434 -3.5755892
000200 97 69 cf 3c ac bc ad bf 06 22 fd bd 91 d8 9b bf
       0.025318904 -1.3573203 -0.12360005 -1.2175466
000210 84 22 a4 bd f3 89 c6 3f 01 fe 8a 3f f7 31 0c c0
       -0.08014396 1.5510849 1.0858766 -2.1905496
000220 ae c7 1e 3c 2a 1b a0 3c 88 2a 52 bf e7 e6 55 3e
       0.009691162 0.019544203 -0.8209615 0.20888864
000230 7d c5 af 3f b9 d6 8b 3f 1c a5 32 bd 8e 8c 12 3f
       1.3732144 1.0924903 -0.04361449 0.5724572
000240 e8 11 62 3d 35 0f a5 3e 7b 74 80 bf a3 a3 b9 bf
       0.055192858 0.32238165 -1.0035547 -1.4503063
000250 2c b8 b8 bf 1e 24 a7 3e ff 78 a4 bc 92 df 8b bc
       -1.4431205 0.32644743 -0.020077227 -0.01707438
000260 03 cb ff 3e 53 ed e5 3e 8c 85 0a 3f 2e 10 14 3f
       0.49959573 0.44907627 0.54110026 0.5783719
000270 62 2e 6a bd a5 ce ab 3e dc 96 ed 3b a3 2e 33 3e
       -0.05717314 0.33556095 0.00725065 0.17498259
000280 f2 23 55 bf 3c f3 7f bf 4c 72 91 3f e6 1e 7c bf
       -0.83257973 -0.9998052 1.1363006 -0.9848465
000290 4e be ce bc 88 cb 5f bd f7 a1 c5 be 50 e9 7e bf
       -0.025237229 -0.054637462 -0.38600132 -0.99574757
0002a0 87 f7 42 be 22 70 67 3e 97 dc 32 be 61 94 5b 3e
       -0.19039737 0.22601369 -0.17466961 0.21443321
0002b0 3c 6f 74 3e 96 19 68 be 25 6f 40 3e 09 55 91 3c
       0.23870558 -0.2266601 0.18792398 0.017740743
0002c0 68 d6 e3 3d 23 21 17 be ae 7b 19 be f5 3a b2 3d
       0.11124879 -0.14758734 -0.14988586 0.087026514
0002d0 1b 4b 02 bd a9 28 31 bd 19 d1 03 be 5d 10 50 3e
       -0.031809907 -0.043251667 -0.12872733 0.20318742
0002e0 71 6e 60 be 0c 0d 73 3e af d1 7b 3e 0d c6 a7 bd
       -0.2191713 0.23735446 0.24591707 -0.08192072
0002f0 35 82 3c be 80 1e 92 3d 4b e6 4c 3b 59 86 64 be
       -0.18409045 0.07134724 0.0031265195 -0.22316875
000300 50 a1 02 3e 13 62 35 3e c3 b6 f1 bd 19 96 0e be
       0.12756848 0.17713194 -0.11802437 -0.13924445
000310 94 d2 b1 3d 8c 69 1e 3f ac 2e 30 be ad 19 cc bd
       0.08682743 0.618798 -0.17205304 -0.09965835
000320 b9 f8 ee bd 9b 95 0d bd 06 fa 95 3d 02 07 ac bd
       -0.11668534 -0.034566503 0.07323079 -0.08399774
000330 df f2 37 3e a3 13 98 3f e6 04 16 bd e6 6d 6e bd
       0.17963742 1.1880993 -0.036625765 -0.058210276
000340 68 70 a1 be 2c fb 80 3e bc a5 53 be 3c 48 e8 3f
       -0.31531072 0.2519163 -0.20668691 1.8147044
000350 39 ef 85 be 78 2c c6 3e a6 74 2d 3e 16 1c a6 3d
       -0.26159075 0.38705802 0.16939029 0.08110826
000360 f3 ec 84 bf 53 f5 ca bf 55 87 3e c0 85 02 12 c0
       -1.0384811 -1.5856117 -2.97701 -2.2814038
000370 70 16 5a bd c5 5c ee bb 64 87 16 be 8a 9f bd be
       -0.053244054 -0.0072742426 -0.14700085 -0.3703578
000380 f3 0f 86 bf 1d 8d 0d 40 f6 b4 b2 be 7a f2 53 bf
       -1.0473617 2.2117379 -0.34903687 -0.82791865
000390 40 c6 d2 be 0b 91 93 bc 74 3d e4 bd f5 bf c5 bf
       -0.41166878 -0.018013498 -0.11144534 -1.5449206
0003a0 66 3a b6 bc 32 50 08 be 1d 5b 18 be e0 60 78 3d
       -0.022244643 -0.13311842 -0.14878507 0.060639262
0003b0 84 3f 3e 3e a7 f4 79 3e 84 43 7c bf 65 3b 2b 40
       0.18578917 0.24409734 -0.9854052 2.6755002
0003c0 99 6f 25 bd 5b 80 41 bf 87 d8 0b bd 62 a9 01 bf
       -0.04038963 -0.7558648 -0.034142043 -0.5064908
0003d0 89 7a 98 3f 24 a1 f1 3f 4b 17 52 40 00 a2 30 40
       1.1912395 1.8877301 3.2826717 2.7598877
0003e0 c2 b5 71 bd d5 d9 38 bd b5 d5 0c 3f ea b4 70 3f
       -0.05901123 -0.045129616 0.5501359 0.9402605
0003f0 ac 98 be 3f ac 2b 93 bf 2c c9 14 bd 1a b8 34 3f
       1.4890342 -1.1497703 -0.036324665 0.70593417

fc1.bias f4 [256]
000000 bd 02 e9 be 48 2d cf 3d 80 75 04 3f 27 6e 4a 3e
       -0.45509902 0.101160586 0.5174179 0.19768582
000010 8c 0c 19 c0 e3 77 1f be c1 bd c6 3d 24 2c 10 be
       -2.3913908 -0.15573077 0.097041614 -0.14079338
000020 b6 f2 19 3f f3 23 e5 be fa e2 03 3e 65 2c 09 3e
       0.6013597 -0.4475399 0.12879553 0.13395841
000030 e1 02 60 bd f9 b6 85 3e 96 de 51 3e 59 af 76 be
       -0.054690246 0.2611616 0.20495066 -0.24090327
000040 c2 38 31 3f b4 7a 10 3f a4 f7 77 3e 53 53 c1 3e
       0.6922723 0.5643723 0.24215561 0.37758884
000050 d1 c7 08 3e f7 59 3a c0 51 3d bf 3e 2d ac 81 3e
       0.13357474 -2.911741 0.37351468 0.25326672
000060 12 4f e6 3e 82 79 0c bf 20 e3 39 3e d4 f1 82 be
       0.449822 -0.54872906 0.18153048 -0.25575125
000070 6a a8 8e be 97 bc d8 be 2e 41 af be a0 4a 08 3f
       -0.27862865 -0.42331383 -0.34229416 0.5323887
000080 4d 97 9c 3f bb e6 cd 3e 0c ed de 3d 36 47 47 be
       1.2233673 0.40215096 0.10885057 -0.19460759
000090 8c ad 7b 3e 05 6f 2b be 89 e1 82 3e a9 c3 15 3f
       0.24577922 -0.1674157 0.25562695 0.5850168
0000a0 09 a4 99 3c 5a eb 4b 3f 0e cf 62 3e 50 6b ca be
       0.018754976 0.79655993 0.22149298 -0.39534998
0000b0 bf 77 f0 3d 96 13 91 bf 81 38 bf 3e 78 72 e3 3d
       0.1174159 -1.1334102 0.37347797 0.111058176
0000c0 f7 be f6 bf 2e ba c1 3d 37 87 c7 3e ce b9 cd 3d
       -1.9277028 0.09459339 0.38970348 0.10045205
0000d0 7b 39 ce 3b d2 63 45 bf 13 2f 8d bb 42 8c 43 3e
       0.0062934733 -0.7710544 -0.00430859 0.19096473
0000e0 01 48 7b be c6 90 63 3f 6d af 1c 3f 3f fa 98 3e
       -0.24539186 0.8889278 0.6120518 0.29878423
0000f0 d3 63 5b bf 4a 6e 04 c0 93 e8 5b 3e 9b 2e 51 bf
       -0.85699195 -2.0692315 0.21475439 -0.8171174
000100 5d 8e 07 3e 3b d9 c5 be 06 40 12 3e ed 82 06 bf
       0.13237901 -0.38642296 0.14282236 -0.52543527
000110 62 16 35 be 27 59 e0 bd bd 79 ce 3e eb ed ee 3e
       -0.1768432 -0.109545045 0.40327254 0.46665892
000120 d8 4e 39 be ec 6e d4 be 29 e6 de 3e 1d e7 1d c0
       -0.18096483 -0.41490877 0.43534973 -2.467231
000130 62 7d b7 3d 5a df 52 3e d4 c8 1e bd 10 2d 17 be
       0.08959462 0.20593014 -0.038765743 -0.14763284
000140 35 cd 67 3e 31 3b 04 3f 85 82 6c 3f 24 2c 2d be
       0.22636874 0.5165282 0.92386657 -0.1691137
000150 7d f6 7a be 3e 93 2e 3e ee a5 27 3f 88 93 68 3e
       -0.2450809 0.17048356 0.65487564 0.22712529
000160 a5 1a 93 3d 3d 8c ab 3f 0d c5 84 be 4e 41 54 be
       0.071828164 1.3402172 -0.25931588 -0.20728037
000170 dc 3c fe 3e 4f fc 8f 3e f1 7a 3c 3d d4 f8 27 bf
       0.49655807 0.28122184 0.046015684 -0.65614057
000180 5b 52 54 3e 91 ac 41 3d 87 f0 84 3d 61 67 d8 3e
       0.20734541 0.047283713 0.064911895 0.42266372
000190 4c 44 4b 3e 1e 76 3b bf 6b eb 1d c0 cb c5 87 3c
       0.19850272 -0.7322711 -2.4674938 0.016573807
0001a0 86 df 4c bf 2e 7a 40 3f 29 f6 19 3e c1 91 e2 be
       -0.8002857 0.7518643 0.15035309 -0.44251826
0001b0 9d ec 48 be 99 ce 10 3e 49 34 3c 3f 83 a2 d8 bd
       -0.19621511 0.14141311 0.7351728 -0.10577872
0001c0 e7 f1 87 bf 4d ed 8a 3f 54 ad d6 3d b2 cb b6 bd
       -1.0620698 1.0853668 0.104822785 -0.089255705
0001d0 6e b3 2e be 78 09 d9 3e 07 49 1f 3f 15 65 03 3f
       -0.17060634 0.42390037 0.62220806 0.51326114
0001e0 f6 c3 b5 3e 7a 98 e9 3e 63 7f 92 be 59 72 cc be
       0.3550107 0.45624143 -0.28612813 -0.3993099
0001f0 24 07 1d 3f 7d 74 49 c0 cc 27 91 be 61 cf c9 be
       0.6133902 -3.1477349 -0.28350675 -0.3941603
000200 d6 7e c4 be a2 1e bb be 30 06 ed 3e 11 30 99 3f
       -0.38378018 -0.36546808 0.46293783 1.1967794
000210 30 0d 25 3e 95 c7 33 bd a0 45 80 3e 1d 44 15 3e
       0.16118312 -0.043891508 0.2505312 0.14576764
000220 e5 ee 34 3e 57 f4 c5 3e 8b 19 15 3f b3 c5 01 be
       0.17669256 0.3866298 0.582421 -0.12673073
000230 38 d2 75 3e ec 37 54 3f 18 86 61 3f 88 30 5e bf
       0.24005973 0.8289783 0.88095236 -0.867928
000240 09 0d dc 3e 33 fc 4c 3e c3 25 b1 3d a4 31 b0 3c
       0.42978695 0.20018081 0.086497806 0.021508045
000250 39 55 4b 3e 96 e3 31 bc 0c 49 18 be 0c d4 00 3e
       0.19856729 -0.010857483 -0.14871615 0.1258089
000260 55 e3 9f bd 52 d4 80 3e e5 ca 56 3e 0a 63 33 3c
       -0.07807032 0.25161988 0.20975836 0.010948906
000270 72 7b 0d 3f 91 46 7c 3e 82 bf 83 3e ad 41 c5 bb
       0.5526649 0.24636294 0.25732046 -0.006019792
000280 99 d5 09 3d 51 5d 0f 3e d7 87 69 be 3b d9 12 3e
       0.03365097 0.14000441 -0.22805725 0.1434068
000290 06 5b fd bd a1 6a 8f bf 7e 0b 78 3e 90 e4 85 be
       -0.12370877 -1.1204416 0.24223134 -0.26150942
0002a0 df b3 ac bd 0a 93 42 3d f6 96 38 3d 5a 0d 49 3e
       -0.08432745 0.04750351 0.045065843 0.19634
0002b0 e0 c5 aa 3d 1e 7f 17 bf 0b 47 16 3f e3 92 ba bf
       0.08338523 -0.5917834 0.5870215 -1.4576076
0002c0 3f 0d bc be be 00 c0 bd 81 16 cf be bc 6d 64 bf
       -0.36728856 -0.093751416 -0.40446857 -0.8922994
0002d0 4b ac 21 3e 18 80 3e 3f eb 92 5c be ab 26 61 3e
       0.15788381 0.74414206 -0.2154042 0.21987407
0002e0 78 5b 13 be b3 2a 3c 3d d7 9d a2 bf 66 d6 76 3d
       -0.14390361 0.04593916 -1.2704419 0.06026306
0002f0 ae d5 17 3f 2f ca c3 bf ae 4d 3d bc 31 35 f8 3e
       0.59310424 -1.5296077 -0.011554165 0.48478082
000300 2d ae c8 bd e9 ad 0e 3f f2 4f 7e bf 10 a4 c3 be
       -0.097988464 0.55734116 -0.99340737 -0.38211107
000310 e3 b7 30 bf b2 ff 71 3e 0a df fa 3d d4 21 65 bd
       -0.6903059 0.23632696 0.122495726 -0.055940464
000320 7d f9 d6 3e d0 19 20 3f 7e 6e b8 3d 32 78 4e 3e
       0.4198722 0.62539387 0.0900545 0.20163038
000330 ab 04 22 c0 e3 cf cd be f6 da 03 be d2 d6 50 3e
       -2.531535 -0.40197667 -0.12876496 0.20394447
000340 d7 a0 bc bd ba 37 3d be a7 8e 0c be b0 6f b9 3e
       -0.09210365 -0.18478289 -0.13726293 0.36218023
000350 4e e0 2f be 90 6a c7 3d 6b a5 d6 3e 40 70 e6 3d
       -0.17175409 0.09737122 0.4192308 0.11251879
000360 ff ca 5e bf 26 d1 c7 3d 8d ce 1b 3d 3d a5 9a 3d
       -0.870285 0.09756689 0.03803878 0.07551048
000370 44 48 e5 bf 29 de 8a bf 2d f2 98 be b9 0d 33 3e
       -1.7912679 -1.0849048 -0.29872265 0.17485704
000380 02 db 48 be 23 2a 7b 3e aa a6 df 3e 1c 72 5e 3f
       -0.19614795 0.24527793 0.43681842 0.8689287
000390 a4 90 89 be ac 62 5a 3f 6f 74 57 3f 97 1b 09 bf
       -0.26868165 0.8530681 0.8416204 -0.53557724
0003a0 ed cf 21 bf 24 fb 85 be 8d 88 b4 3e 19 ac ef bd
       -0.63207895 -0.26168168 0.3526043 -0.11702747
0003b0 2e 31 df 3d b4 31 5e 3e f1 55 02 bf 5d eb 36 3f
       0.10898052 0.21698648 -0.50912386 0.71452886
0003c0 4e 42 69 3e d3 19 6c 3e 2f 27 46 bd 8c db ab bc
       0.227792 0.23056726 -0.048377212 -0.020978712
0003d0 78 44 87 3f a7 b8 a2 bf 4c 22 2c bf 73 8f 84 be
       1.056777 -1.2712601 -0.6723983 -0.25890693
0003e0 42 ad 56 3f 90 04 5a 3f cd 61 09 be 6d a0 16 be
       0.8385812 0.8516321 -0.13416214 -0.14709635
0003f0 0e 94 20 3f 4b 22 9a be fd 1e 40 bf 81 55 26 be
       0.62725914 -0.30104288 -0.75047284 -0.16243555

fc2.weight f4 [256, 256]
000000 af a7 27 bc 12 97 20 bd 73 57 1f bc d7 19 18 3d
       -0.01023285 -0.039206572 -0.009725439 0.037134018
000010 73 ee 34 bd 3d 2b 8a bd 20 99 d1 3b b0 67 58 3c
       -0.044172715 -0.06746528 0.0063964278 0.013208315
000020 04 06 d2 bc 18 cd e9 bc 08 0c dc 3c 9b 11 24 bd
       -0.025637634 -0.02854018 0.026861206 -0.040055852
000030 f2 14 07 3d 56 ed 71 3d c0 bc b6 3b ac 18 36 3d
       0.03297896 0.05906423 0.0055767 0.044457123
000040 60 06 5c bb 94 22 47 bd 27 ad e9 bc de f8 0f bd
       -0.0033573136 -0.04861696 -0.028524948 -0.035149448
000050 04 1a 9e 3c 36 ec 5a bd 80 dc ec bc 00 ee 10 b9
       0.019299515 -0.053447925 -0.028913736 -0.00013821572
000060 a3 65 3f bd 65 e0 6c bd f4 76 5d 3d a0 f6 bd bc
       -0.046727788 -0.057831187 0.05406852 -0.023188889
000070 2b f1 c0 3c 8c 97 29 bd 8c b7 95 bc 34 c1 a0 bc
       0.023552498 -0.041404292 -0.018275999 -0.019623376
000080 b3 f8 b8 3b 04 a7 29 bd 01 ad 24 bd 61 d3 78 bc
       0.0056448816 -0.041419044 -0.040204052 -0.015187115
000090 80 d2 8c bc aa 11 04 3d be 5b 02 3d 45 ae 31 bc
       -0.017190218 0.03224341 0.031825773 -0.010844772
0000a0 dc 10 55 3d 2e 62 03 3d f2 7b 46 bd 42 1a 48 bd
       0.05201803 0.032076053 -0.048458047 -0.048853166
0000b0 80 38 5b 3b 9d 07 ad bc 30 9d 05 3d 58 a7 9d 3c
       0.0033450425 -0.021121794 0.03262061 0.019244835
0000c0 a7 bf ff bc ea 01 3c bd 87 13 2e bd 72 ac 59 bd
       -0.031219317 -0.045900263 -0.04249909 -0.053142972
0000d0 7e de 51 bd 11 6f 18 bd b8 d1 59 bd 30 e1 d3 3c
       -0.051237576 -0.037215296 -0.05317852 0.025864214
0000e0 b2 69 18 bd 1c 5a 80 bc c2 06 c0 3c 44 b5 b9 bd
       -0.037210174 -0.015667967 0.023440722 -0.09067777
0000f0 4a d6 49 3c 31 45 d4 3c c4 d2 1f 3d c4 7d 8c 3c
       0.012319157 0.0259119 0.03901936 0.017149813
000100 a0 3e c5 bc cf a8 50 3c 00 1b 22 3c 44 18 09 bb
       -0.024077713 0.01273556 0.009894133 -0.0020919004
000110 c0 4d 27 bd 86 52 58 bd e2 fb 10 bc 07 a1 3f bd
       -0.040845633 -0.052813075 -0.008849116 -0.046784427
000120 58 a7 82 bb 5b 8c 1a bd 18 71 4f bc 9d bd 07 3d
       -0.003987234 -0.03773151 -0.012661241 0.033139814
000130 b4 a6 5d bd 72 66 96 3c e8 29 3c 3d 84 28 a2 3c
       -0.05411406 0.018359397 0.045938402 0.01979471
000140 bc b5 01 3d 12 58 93 3c a7 e4 bf 3c 50 13 94 bb
       0.031667456 0.017986331 0.02342446 -0.004518904
000150 ca 9f 2f 3d 60 a3 d2 3c dc 55 4a bc 80 3a 68 bb
       0.042876996 0.025712669 -0.012349572 -0.003543526
000160 a8 70 22 bd 5c 32 20 3d b0 d0 b7 3c 42 ef b7 3c
       -0.03965822 0.039110526 0.022438377 0.022452954
000170 14 1d 5c bd c0 4d 4d 3b ec ab b5 3c c6 ec 7f bd
       -0.05373867 0.003132686 0.022176705 -0.062481664
000180 00 58 18 bd 86 23 79 3d 3e 60 49 bd f6 d9 35 3d
       -0.0371933 0.060824893 -0.04916405 0.044397317
000190 78 96 01 bc 70 d8 87 3c 37 da 0f bd b5 06 0b 3d
       -0.00790941 0.016582698 -0.035120215 0.033941943
0001a0 16 51 54 bd 73 51 e1 3c 9e 79 1c bd af cb 71 bd
       -0.051835142 0.027504658 -0.03820192 -0.05903214
0001b0 a7 ff df 3c 38 4f 09 3d 01 7f c4 bb 18 0c e9 bc
       0.027343584 0.033522815 -0.0059965854 -0.02844815
0001c0 7d 90 89 bd fb a9 d7 3b 90 8f 76 bd e0 3d 0c bd
       -0.06717012 0.0065815425 -0.060195506 -0.034238696
0001d0 a8 8e a0 3c 3e 8d 08 bd b6 69 0a bd 34 47 92 bc
       0.019599274 -0.033337824 -0.03379222 -0.017856218
0001e0 ce 98 b3 bc 65 c8 c4 bc 0a 3a 3e bd 86 c4 62 3d
       -0.021923449 -0.024021337 -0.04644207 0.0553632
0001f0 4b 34 e2 bc ad b2 36 bc b1 e8 1a bd 7a 01 97 bc
       -0.027612826 -0.011150998 -0.037819568 -0.018433321
000200 c4 a0 13 3d 19 4b 82 b9 8b 3f 7e 3c f6 f4 64 bd
       0.03604199 -0.00024851484 0.0155180795 -0.055897675
000210 81 90 1e bd 2e 31 20 3d 00 f4 ba b9 7e cf 58 bd
       -0.03871203 0.0391094 -0.0003565848 -0.052932255
000220 40 95 38 bb e6 7f 04 3d a0 2d 74 bb 52 04 36 bd
       -0.0028165132 0.032348536 -0.003725864 -0.044437714
000230 20 c8 dd bb 6a d8 5b bd b0 3a 90 bd 39 37 7a bc
       -0.0067682415 -0.053673185 -0.07042444 -0.015271955
000240 8d e4 5d 3c cf f1 20 bd 7f 13 ad bc ef 47 26 bd
       0.01354326 -0.039293107 -0.02112746 -0.040595945
000250 1d a6 8d 3c 70 ee 19 3c 08 e4 05 3c 06 4c 58 bd
       0.017291123 0.009395227 0.008172043 -0.052806877
000260 64 51 c7 bc f3 b6 9a bd 02 3c 06 3d 68 41 2a bc
       -0.024330802 -0.07554426 0.03277207 -0.010391571
000270 e0 3b cd 3b 9e a0 5e 3d 90 e3 e7 3c a0 b1 26 3b
       0.006263241 0.054352395 0.028306752 0.0025435463
000280 34 4f c7 3c f0 5f 2e bc 00 b9 22 bb 92 a7 6c bd
       0.02432976 -0.0106429905 -0.0024829507 -0.057776995
000290 52 ca 3d 3d 56 16 8b bd 08 d0 d1 3c be 86 7d bd
       0.046335526 -0.067913696 0.025611892 -0.06189608
0002a0 91 0f 8f bd b3 80 95 bd 80 15 c9 ba ca 87 3a 3d
       -0.06985391 -0.07299938 -0.001534149 0.045539655
0002b0 e0 64 04 bd 57 1e 46 bd 9c 44 db bc de 74 34 bd
       -0.032322764 -0.048368778 -0.026766114 -0.044056766
0002c0 74 b0 1a 3d 60 cf 7f bc f1 01 4e bd af bb 2f bd
       0.037765935 -0.015613407 -0.05029482 -0.0429036
0002d0 48 5a 60 bc b4 f3 99 bd 12 91 dc 3a d0 2f d5 bb
       -0.0136934 -0.07517186 0.0016827902 -0.006505944
0002e0 9e a1 6d bd f6 df 70 3d e9 20 e9 bc 0a db 3a 3d
       -0.05801546 0.058807336 -0.028458076 0.04561905
0002f0 99 14 9a bb 02 22 19 3c 07 a7 d4 bc ed 1d e7 3b
       -0.0047021625 0.009346487 -0.025958551 0.007053128
000300 ee 34 c4 3c cd 05 96 3c 29 18 2a bb cc b1 42 3d
       0.02395102 0.018313313 -0.0025954342 0.04753284
000310 63 3f 03 3d 71 16 b7 bc 31 0e b5 3c 34 e6 bd bc
       0.032042872 -0.022349568 0.022101494 -0.023181058
000320 b3 41 15 bd c9 4c 99 bc af ef 93 3c bc f1 b2 3c
       -0.03643961 -0.018713372 0.018058626 0.021843784
000330 2e 89 9a 3c 61 52 a9 3c 4a a7 39 bd 80 2a 16 3d
       0.01886424 0.020669164 -0.045325555 0.036661625
000340 fa 06 9e 3c 75 f9 1a bd 08 52 92 3c 9a dd 7b bd
       0.019290436 -0.037835557 0.017861381 -0.061490633
000350 d9 37 89 bd 3b b1 26 bd af 62 f0 3a b8 59 56 3d
       -0.06700105 -0.040696364 0.0018339957 0.052331656
000360 90 56 82 bb 96 b4 4e bd d0 1b 6c 3d 00 e0 5b 3c
       -0.003977604 -0.05046519 0.05764371 0.013420105
000370 41 a2 6b bc 13 1c a8 bd b1 5b f8 3c 70 0b 17 3d
       -0.014381946 -0.0820848 0.03031716 0.036876142
000380 ae fc 23 3d a0 64 9f bc 8c 25 5b 3c a8 03 1d bd
       0.040035896 -0.019457161 0.013375651 -0.038333565
000390 86 b8 a4 3c d0 8f bf bb 52 ac 9e 3b 92 b4 50 bd
       0.020107519 -0.005846001 0.0048423195 -0.050953455
0003a0 5a 7b 67 bc 25 99 7a bd 52 e9 28 3d d0 60 e7 3c
       -0.01412853 -0.061181206 0.041238137 0.028244406
0003b0 1c 13 17 3d d0 fe ba bb 0b 7a 00 3c a4 f8 8e 3c
       0.03688346 -0.0057066455 0.007841597 0.017452545
0003c0 92 b6 32 bc eb ad 0a 3d 88 17 b2 3c c3 2b a4 3c
       -0.010907786 0.033857267 0.021739736 0.020040398
0003d0 fa bb 08 3d 0b 78 0f 3b 49 99 ad 3c 00 76 6f 3c
       0.033382393 0.002189162 0.021191256 0.014615536
0003e0 b6 a3 eb 3c 79 77 26 bc 0c 01 10 bd e0 f9 51 3b
       0.028764587 -0.01016032 -0.03515725 0.0032039806
0003f0 ee 34 2b bd 7a a9 29 bd 7a ff d5 bc d3 0f 80 bd
       -0.041798525 -0.04142139 -0.026122797 -0.06253018

fc2.bias f4 [256]
000000 f3 6d e3 bc 6d 33 81 bd e2 8f 44 bd 53 22 9d 3d
       -0.027762389 -0.06308637 -0.04798878 0.076725625
000010 8f 5e c5 bd 74 37 19 bb 82 3c 5f 3f 5c dc 94 3f
       -0.09637176 -0.0023379 0.872017 1.1629748
000020 48 46 2e bf c0 d9 07 bd 0c 9f 2f bf ea a0 3a be
       -0.6807599 -0.033166647 -0.6860206 -0.18225446
000030 bf 0b 04 3f 72 1a 84 bd 06 a5 3d bd 34 81 c8 3e
       0.51580423 -0.064503565 -0.046299957 0.39161074
000040 bb 74 4f bd 89 6c 38 3f cd 9a 3d 3f c9 69 5d bd
       -0.050648432 0.7204061 0.7406433 -0.054055963
000050 6f f3 8e bd 5d d7 3b bd 83 59 a9 bd 27 9a 5c bd
       -0.06980025 -0.045859683 -0.08269026 -0.05385795
000060 bb 74 1f 3f 44 24 4f bd 45 f0 93 bd c3 fb 73 3f
       0.6228749 -0.050571695 -0.07223562 0.9530603
000070 b2 43 5d bd 13 bd 4e 3e 03 c3 9d bd 51 b8 35 be
       -0.054019637 0.20189314 -0.07703211 -0.17746092
000080 8f 20 83 bc 49 d5 b6 3e 3e cf 74 be 8e a4 6a 3e
       -0.016006736 0.357096 -0.23907182 0.22914335
000090 0f b1 6f 3e 72 d4 8a bc cd 94 b4 be ea 89 94 3b
       0.23407386 -0.016947005 -0.35269776 0.004533042
0000a0 21 df 9a 3e bd ef 7c bf 70 ff 79 bf fd be e0 bc
       0.3024836 -0.9880331 -0.9765539 -0.02743482
0000b0 bf 76 e5 bd 4b f3 df 3c 71 db 74 bd 27 54 f1 bc
       -0.1120429 0.02733769 -0.059779588 -0.029459072
0000c0 20 43 b3 bd 39 70 46 3c 78 1a fc bb 24 1d 4b 3f
       -0.087530375 0.012111717 -0.007693585 0.7934134
0000d0 a7 6d 54 3e 2a f6 28 3f 6b f9 6d bf 0e 49 15 be
       0.20744954 0.66000617 -0.92958707 -0.1457865
0000e0 a3 0c 91 bb 35 e0 6a 3f 2f 9d 3e bd 2c d2 e2 3c
       -0.0044265552 0.9174836 -0.04653662 0.027688108
0000f0 1d 0d 89 bd 31 22 95 bc 55 a2 31 3f 3b 3c 03 3f
       -0.06691954 -0.01820478 0.69388324 0.5126378
000100 46 2f 53 3f d9 8a 1c bd b1 a1 02 3f 6f ef f7 bb
       0.8249401 -0.038218353 0.5102797 -0.0075663845
000110 88 5c 36 be f0 ea 1e 3e ac 59 6f 3f b3 6d db bd
       -0.17808735 0.15519309 0.93496203 -0.10714283
000120 1e de 6e bd 89 03 c3 3c ff f5 5d bb 29 6c 77 be
       -0.058317296 0.023805397 -0.003386855 -0.24162354
000130 1f 96 60 3e e8 e6 0b be 9f 9a 61 bd f7 c4 30 bf
       0.21932267 -0.13662302 -0.0550791 -0.69050545
000140 30 88 dd 3e 8a 3d 4b 3d 83 27 db bc 90 36 c0 be
       0.43267965 0.049619235 -0.02675224 -0.37541628
000150 eb f4 21 3d ef 59 8e bf 9f 26 34 3d b6 52 00 be
       0.039540213 -1.1121196 0.043982144 -0.12531552
000160 8e be 49 3f 99 b7 58 bd 86 b2 40 bd 59 69 07 3f
       0.7880639 -0.052909467 -0.047045253 0.5289512
000170 92 87 c7 38 47 da 41 bd e7 5b 11 3f 2a 66 34 be
       9.5143114e-05 -0.047327306 0.56780857 -0.17617097
000180 b0 72 1d bd dd 74 2f bc 8d 70 3f 3e a5 9f 9a 3c
       -0.038439453 -0.010709015 0.18695278 0.018874953
000190 7e 66 c6 3e 9a fb 09 3e 1c 10 29 bd c4 ef 10 bf
       0.3875007 0.13474885 -0.04127513 -0.56615853
0001a0 4d 63 18 bd 97 0e 41 3f 78 d3 95 3d 9f dc c8 bd
       -0.037204076 0.7541289 0.07315725 -0.09807705
0001b0 e3 26 86 3e 23 e7 a4 3e 5c c1 31 bd 64 4b c1 3e
       0.26201543 0.32207593 -0.043397292 0.3775283
0001c0 b7 0d 96 3f d5 23 32 be f3 3c 26 3f 70 c8 a4 bc
       1.1722935 -0.17396481 0.6493675 -0.020115107
0001d0 f6 7a 0a 3d 37 9c a8 be 15 b0 0e bd c3 a6 14 be
       0.03380867 -0.32931682 -0.034835894 -0.1451674
0001e0 8a db 9a 3e d3 e3 17 be 0c 8b 9d bb 3e 5a ef 3e
       0.3024562 -0.14833002 -0.0048078354 0.46748537
0001f0 d4 c1 a9 3c b5 01 7b be 85 e5 c2 bc e0 e1 d2 bb
       0.020722307 -0.2451237 -0.023791084 -0.006435618
000200 17 a0 57 bc 42 04 b9 bd c9 24 a0 be 5e 88 81 bb
       -0.013160727 -0.09034015 -0.31278065 -0.003953024
000210 b6 09 0c 3f 10 50 46 3c 62 8c 79 3e 49 f0 64 bd
       0.5470232 0.012104049 0.24369958 -0.055893216
000220 4f e8 3a bb 36 fa 08 bd 08 7d f6 bd 37 8f 0d 3e
       -0.0028519814 -0.033441745 -0.120355666 0.13824163
000230 aa 6c cd 3d 71 95 3a be 63 15 ab 3d 9d 1a 4d 3c
       0.10030492 -0.1822107 0.083536886 0.012518552
000240 46 40 93 bd f0 02 01 bd 02 3a bc bc e7 4e a4 bb
       -0.071899936 -0.031496942 -0.022976879 -0.0050142887
000250 f9 d1 87 3f de 24 1e 3f 7f 92 50 be 75 2b 17 3f
       1.0610954 0.61775005 -0.20368384 0.59050685
000260 c1 6b 56 3f b6 de df 3e 78 69 e6 3d 51 4e 49 3f
       0.8375817 0.43724602 0.11250585 0.78635126
000270 53 82 09 3f 25 db 21 3e 2d 31 1c 3f 3a 6a 73 bd
       0.53714484 0.15806253 0.61012536 -0.059427477
000280 bb bf 79 be 6f ca 9e bd 30 42 fa 3b 8c eb 80 bd
       -0.24389546 -0.07753455 0.0076372847 -0.06294927
000290 8e 3d 8c bd 6d 9a 59 bc 44 b5 07 bc 89 0a 85 be
       -0.06847678 -0.013281447 -0.008282963 -0.259846
0002a0 b1 e1 cc bd c1 d0 a4 3b 94 c0 e1 bd ab de 20 bd
       -0.10003985 0.005029768 -0.110230595 -0.039274853
0002b0 d8 94 38 3e 68 0d cd bd 0d b4 9b 3f bb e9 21 3e
       0.1802553 -0.10012323 1.2164322 0.15811817
0002c0 fe 7d 89 3e f3 1d 77 bc 7b 0a 26 3f 5d 57 81 3e
       0.26853937 -0.015082824 0.6485974 0.25261965
0002d0 a0 cf 07 bd de bc 7e bd d4 23 be bd ee b0 9e bd
       -0.03315699 -0.062191837 -0.092841774 -0.077485904
0002e0 98 0a 35 3c 58 ad 03 3e fa af 09 bd c9 4f 9c 3c
       0.011049889 0.12859094 -0.03361509 0.019081013
0002f0 a2 bc c5 3b cf c1 51 be 1c 6d 4e 3b e7 20 29 3e
       0.0060344497 -0.20484088 0.003149814 0.16516457
000300 59 7e 2e 3f 59 81 28 3f 7f 2c 66 bd 24 94 17 3f
       0.6816154 0.6582237 -0.05619478 0.5921042
000310 c6 20 8d 3d 5b e0 1c 3f 9e d7 cf 3c 39 0a a9 bf
       0.06891017 0.6127984 0.025371369 -1.3206245
000320 38 09 02 bd eb bf 2e bd 5b d7 d2 bd f3 93 e5 3e
       -0.031747073 -0.042663496 -0.10294982 0.4483944
000330 ae 9c 08 be b8 42 5a 3f fc c8 24 3e 6b ab 35 bf
       -0.13341019 0.85258055 0.16092294 -0.7096469
000340 11 a7 3c bd 30 a5 96 3e ef ee 1f 3e dd 2f 64 bb
       -0.046057764 0.29422903 0.1561849 -0.0034818568
000350 fc 64 e1 bd 25 be a1 bc 3a 18 4a 3c a7 28 5e bd
       -0.11005589 -0.019743988 0.012334878 -0.054237988
000360 4b 2b 99 3e b9 bf 04 bd 67 cc 98 bd c3 d5 d3 bc
       0.29915842 -0.032409403 -0.07460862 -0.025858765
000370 cf d3 73 bd f3 e6 3d bf a0 af 96 bc d1 a0 4e be
       -0.05952817 -0.74180526 -0.018394291 -0.20178534
000380 b4 67 70 bf bd d0 2d be 93 ea d7 bd a8 80 ab bd
       -0.9390824 -0.16974159 -0.10542788 -0.083741486
000390 b3 33 5c 3f 8e 6e c1 bd 64 c9 01 be 45 45 0b 3f
       0.86016387 -0.09444915 -0.1267448 0.5440257
0003a0 a7 d3 69 3d 9c 46 d5 bc 0b e6 ad 3c 85 41 0b 3d
       0.057086613 -0.026034646 0.021227857 0.03399803
0003b0 45 83 13 bd 06 24 34 bf 2d c9 f7 bd 66 dc 49 bd
       -0.03601386 -0.7036747 -0.12098918 -0.049282454
0003c0 9d 67 75 bf 7e 92 19 3f ce 9f cb 3e 91 25 4d bd
       -0.95861226 0.59989154 0.3977036 -0.050084654
0003d0 6b 9d f3 bd 26 5a 3f be d4 a8 f8 bd d3 3a 83 bc
       -0.118952595 -0.18686733 -0.121415764 -0.01601926
0003e0 3c 49 a0 bd 34 88 84 bc 15 e4 c0 3c a8 7e 32 be
       -0.07826468 -0.016178228 0.023546258 -0.17431128
0003f0 db 9f 0c bf cd 48 3a bd 5f c3 a8 bc bb 20 61 3f
       -0.5493142 -0.045479584 -0.020600973 0.8794057

fc_mean.weight f4 [2, 256]
000000 1e 8f 7f bc 99 ed 58 3d 02 cd 39 bd 0c d2 63 be
       -0.015598087 0.052960966 -0.045361526 -0.22248095
000010 07 eb 19 bd a0 99 3f 3d 33 2f 0a be 34 95 a5 bd
       -0.037577655 0.046777368 -0.13494568 -0.08085099
000020 d0 00 88 bd 1d 17 34 bd 66 7c 63 3e 6f cf a8 bd
       -0.0664078 -0.043967355 0.22215423 -0.0824269
000030 c5 af bc be ae 6e 40 3d 3f d8 84 bc 02 f5 69 3c
       -0.36852852 0.046980552 -0.016216395 0.014279606
000040 39 c0 aa ba b8 6a 45 bf 5d ed 24 be 49 c4 69 3d
       -0.0013027258 -0.77115965 -0.16106172 0.057071958
000050 dc aa c5 ba 8e 9d 46 bb 46 2f 56 b9 e0 d6 c6 3d
       -0.0015080827 -0.0030306312 -0.00020426241 0.09708953
000060 9c 81 30 be 48 40 cb 3b 03 f4 8b bc 82 7f 44 3e
       -0.17236942 0.0062027313 -0.017084127 0.19189265
000070 17 c0 53 3c ef 5b 0a bd 43 25 3a 3c 98 9a 54 be
       0.012924216 -0.03377908 0.011361423 -0.20762098
000080 01 4c f2 bc b5 bc 0e bd 2e 8f 19 bd 05 bf cc 3d
       -0.029577257 -0.034847934 -0.037490062 0.099973716
000090 c5 94 26 3d c2 aa 03 bc c7 df 9e 3e 17 d8 37 ba
       0.04066922 -0.008036317 0.31030104 -0.0007013096
0000a0 13 7b 25 be aa cb 52 3e 56 95 43 bd 3d 3b 2b 3d
       -0.1616023 0.20585504 -0.04774984 0.04180454
0000b0 be 58 cb 3e 0b 08 59 bc a5 37 de 3c 71 5f 1c bd
       0.39716142 -0.0132465465 0.027126143 -0.038176958
0000c0 f0 70 89 bc 21 06 f6 bc 6a 5d 03 3d 54 23 40 be
       -0.016777486 -0.03003222 0.03207151 -0.18763477
0000d0 ef 94 53 3e 3c d7 e5 bd 95 15 01 be aa ea e9 3d
       0.20662282 -0.11222693 -0.12605889 0.11421712
0000e0 f8 32 2e bc 25 01 cc bc e9 e9 48 bb e5 4e d4 bb
       -0.010632269 -0.02490289 -0.0030657 -0.0064791315
0000f0 88 93 89 be d5 00 2a bd c0 3f 74 be 9f e2 f9 bd
       -0.2687037 -0.0415047 -0.23852444 -0.12201428
000100 7c e8 8a 3d aa 03 89 bd cd db bf 3e 98 a9 2a bc
       0.06782624 -0.06690152 0.37472382 -0.010416411
000110 c6 e8 21 bd c0 dd f2 3d 35 a0 10 3e be 1b 21 39
       -0.03952863 0.11858702 0.14123614 0.00015364491
000120 a0 7d 35 3d 5c a4 e0 bd 0b e9 f7 3b 0a d7 f1 bd
       0.04430926 -0.10968849 0.0075656227 -0.118085936
000130 71 a5 5d 3d 78 71 b2 bd 77 3b 20 bc 2f e3 3c 3e
       0.054112855 -0.08713049 -0.0097798025 0.18446039
000140 48 37 82 be fd b3 b7 bd 23 43 08 bc 63 f9 14 3f
       -0.254328 -0.08969877 -0.008316788 0.58193034
000150 c2 c5 0c 3d 8a f3 73 be f7 fb 28 3c 3b d4 db 3b
       0.034368284 -0.23823372 0.010313979 0.0067086495
000160 45 72 13 3d c3 7e cb bc 75 94 5e bc a2 f1 3d 3f
       0.035997648 -0.024840718 -0.0135852 0.7419683
000170 f7 1f 20 bd 23 ac 64 be 8f 2f d6 3d 71 af a3 3d
       -0.039092984 -0.2233129 0.1045829 0.07992447
000180 29 26 3c bd c0 60 f0 bc a4 05 33 3e 52 c9 06 3d
       -0.04593483 -0.029343009 0.1748262 0.032906838
000190 ce 12 ba be 0d d6 67 3d 8c f7 1d 3e 2f e7 0c be
       -0.36342472 0.05660062 0.15426463 -0.13760065
0001a0 d3 25 f6 bc bd e7 1b be aa 2d 20 be 52 10 41 3c
       -0.030047333 -0.1522512 -0.1564242 0.011783676
0001b0 15 80 87 3d 4f 25 b6 3d ff a0 0f bc b4 9e 60 bd
       0.066162266 0.08893835 -0.008766412 -0.05483885
0001c0 79 11 88 be 54 b9 3c 3e 65 a6 b4 be f9 fe d2 3c
       -0.2657583 0.18430072 -0.352832 0.025756346
0001d0 1d 7b 9b bd e9 53 22 3e 62 74 85 3e 86 dc 85 3e
       -0.07591841 0.15852322 0.26065356 0.2614481
0001e0 7a 2e cd 3e 2f 93 e3 3e 5b a0 60 bd 3b 73 a6 be
       0.4007452 0.4444823 -0.054840427 -0.3250979
0001f0 7b b7 19 bd 1c 3a 16 be 81 32 df 3c 41 a9 8f bd
       -0.037528496 -0.14670604 0.027245762 -0.070147045
000200 53 e8 20 bd 4a 9f 44 bd 01 da e3 3d cf 12 e7 bc
       -0.03928406 -0.048003472 0.11125565 -0.02820721
000210 e6 34 e8 bc 99 78 69 3c ca f6 9f be 5f ba 4f bd
       -0.028345536 0.014249944 -0.31242973 -0.050714847
000220 09 01 fa bc 10 aa 70 3e 4b 92 9e bd e1 65 40 bd
       -0.030518072 0.23502374 -0.07742747 -0.04697216
000230 13 87 e7 3b 10 56 9c be fe 57 b1 3b 70 89 30 bd
       0.0070656626 -0.3053441 0.005412101 -0.04309982
000240 b0 a6 3a b9 3c 2a 5d bd 73 2c a5 3c ff c4 57 3d
       -0.00017800438 -0.053995356 0.020162797 0.052678104
000250 86 69 0f 3d d0 5a b1 3e b4 11 f4 bd ed 8d 49 3d
       0.035012744 0.34639597 -0.11917439 0.049207617
000260 de ed 28 be 5b 53 3c 3f fe 9b 9e 3d 19 6d ad 3e
       -0.16496989 0.7356469 0.07744597 0.33872297
000270 d8 4d f8 3d ea 79 90 3e 4a cf 06 bd 7f 49 8a 3b
       0.121242225 0.28218013 -0.03291253 0.004220187
000280 5b 2c ff bc 3e 63 a0 3d 7b 9c 54 3c a7 c8 2f 3c
       -0.03114908 0.07831429 0.012976761 0.010728992
000290 a7 53 39 bd e0 f4 09 bd 3a e8 c3 bc 7a 70 c5 3e
       -0.045245793 -0.033680797 -0.023914445 0.38562375
0002a0 4a 48 d5 3d 9c e8 89 bd 0e c3 a8 bd 8f fc d6 be
       0.10414179 -0.0673382 -0.08240329 -0.41989562
0002b0 14 b0 b0 3d 89 ec 3e 3e c4 34 63 be fa c9 4d be
       0.08627334 0.18644919 -0.22188097 -0.20096579
0002c0 bb dd 28 be a2 cc 7c 3d 09 e9 b4 be 7a ff ad be
       -0.16490833 0.06171859 -0.35334042 -0.33983976
0002d0 cc 11 b8 3c cb 74 10 bc 53 09 f8 3c c1 e8 92 3c
       0.022469424 -0.008816908 0.030277884 0.017933251
0002e0 87 5b ec 3c 7d 8f 4d 3d 27 52 de 3c 52 34 01 ba
       0.028852237 0.05018567 0.027138783 -0.0004928756
0002f0 ea b5 7a bc 18 ea b0 3e 2a 2d 91 3b 86 2d 7d 3e
       -0.015302161 0.345536 0.004430433 0.24724397
000300 e8 75 ee 3c 32 e2 43 bf 3c 97 37 3e 49 f7 a9 3e
       0.029108956 -0.7651702 0.17928785 0.33196476
000310 06 a3 9e be f3 0c 9a be 62 f7 13 be 86 5c 8b be
       -0.30983752 -0.30088004 -0.14449838 -0.27219027
000320 ff a6 3a 3b 33 d7 eb bb 04 c0 49 3e 99 bf 57 be
       0.0028480885 -0.0071972846 0.19702154 -0.21069182
000330 8d 12 49 3a 78 2f 24 3d 63 32 a6 3d 4f cb ee bc
       0.0007670306 0.040084332 0.08115079 -0.02914968
000340 0a cb 83 3c 13 28 8a 3d 35 c6 82 3e 1c 25 b8 bc
       0.016088028 0.06745925 0.25541845 -0.022478633
000350 0b e2 81 bc 4a 0c 40 3d 5a fd 12 3a 1b 81 fa bc
       -0.015854856 0.04688672 0.00056072103 -0.03057914
000360 a8 bb 46 3d 3f 83 ba 3c e8 47 fc 3c 28 c0 05 bd
       0.048518807 0.022767661 0.030796006 -0.032653958
000370 d6 2c 5b 3e f8 a4 c4 bd 7e 40 64 3d ae da 22 be
       0.21403822 -0.09601778 0.055725567 -0.15903732
000380 d6 d3 27 bb 90 8f 91 3e 20 72 45 3e ea a2 21 3c
       -0.0025608442 0.28429842 0.19281816 0.009865502
000390 42 00 f3 bd 95 78 c7 3d 23 2e ce 3d 7f 07 86 3e
       -0.118652835 0.09739796 0.10067394 0.26177594
0003a0 25 74 71 3f 00 35 7f ba c0 79 43 bd 4f 7d 5b bd
       0.9431785 -0.00097353756 -0.04772353 -0.0535863
0003b0 e5 e2 1f 3d 6c 03 f0 ba 86 e7 7f be df c9 70 3e
       0.039034743 -0.0018311567 -0.24990663 0.23514508
0003c0 a0 9c 61 bd 14 4d b3 3d 55 a0 99 3d 3f 2c 97 3c
       -0.05508101 0.08754936 0.07501284 0.018453715
0003d0 a3 38 73 3d a6 d6 c2 bd aa ad a8 3d c9 80 84 bc
       0.059380185 -0.09513597 0.08236249 -0.01617469
0003e0 c4 f8 2d bb 7a 11 f1 3c 22 e4 25 3d 1e dd 7e 3c
       -0.002654598 0.029427279 0.040500768 0.015555648
0003f0 17 e0 2e be 05 a8 a5 3c d7 56 1f bd a5 21 e1 3d
       -0.17077671 0.02022172 -0.038901176 0.10992745

fc_mean.bias f4 [2]
000000 45 e6 0c be 7c 3f 85 3b
       -0.13759716 0.004066406

fc_logstd.weight f4 [2, 256]
000000 33 4d 37 bd e9 46 9d b9 f5 21 ce 3c 3b d5 89 3c
       -0.044751357 -0.00029998206 0.025162676 0.016825309
000010 2f 90 9c bc 5e b6 51 3d 59 16 e0 3b 90 c3 cb 3b
       -0.01911172 0.05119931 0.0068386015 0.006218381
000020 33 ee 20 3d bf 5a 14 3d d8 81 6f 3c 7f 9c 1d ba
       0.039289664 0.036219355 0.0146183595 -0.00060123944
000030 ec b7 60 bc 90 53 23 3d e4 8c 4f 3c 19 ac 0e bb
       -0.013715725 0.039874613 0.012667868 -0.0021770059
000040 c4 28 50 3c 3d e9 8b bc 55 e4 6b 3c e1 37 dd 3c
       0.012705032 -0.01707899 0.0143977 0.027004184
000050 22 9a 2f bd a9 ac 38 3c 2d 20 80 3c d4 98 aa ba
       -0.042871602 0.011271634 0.015640343 -0.0013015517
000060 f9 21 75 3c 53 19 ed 3c b8 5e 54 b9 92 68 6e 3b
       0.014961713 0.02894274 -0.00020253181 0.0036378247
000070 fc 0d b2 bc 87 b7 4b bb 2b 6b 04 3d 51 91 a9 bc
       -0.021735184 -0.0031084733 0.032328766 -0.020699175
000080 ea 7e 82 3d 75 4c ae 3c a6 f1 0b bc 18 a9 ba 3c
       0.06371863 0.021276692 -0.0085415 0.022785708
000090 db 1e bd 3a a7 76 8e 3c 2d e2 a1 3c 59 ec 83 3c
       0.0014428751 0.017390562 0.01976117 0.01610391
0000a0 8a 9f 20 3d b1 d8 28 3d 0c a0 04 3b 7d 15 3d bd
       0.03921465 0.041222278 0.0020236997 -0.04616307
0000b0 c9 52 5a 3d aa bb 0c bd dc 45 46 3c eb 1f 43 3c
       0.053301606 -0.034358658 0.012101617 0.011909465
0000c0 99 20 95 bd 24 99 32 3d a1 f5 93 bc 49 a0 42 bb
       -0.07281608 0.043603078 -0.01806146 -0.0029697588
0000d0 9f c0 9e 3c f7 8d fd bb 71 4b 82 3d ec be a6 3d
       0.019378958 -0.007737871 0.063620456 0.08141884
0000e0 c7 8e 48 bb e1 0e a4 38 12 ed 12 bd 5b 62 4a bd
       -0.003060268 7.822901e-05 -0.03587062 -0.049410205
0000f0 e6 05 98 bc 53 e9 9b bc 9d 76 cc 3b fd 96 57 3c
       -0.0185575 -0.019032156 0.0062397257 0.013158557
000100 15 09 95 3b 26 94 c5 3c b7 87 89 3c 47 03 b7 3c
       0.004548202 0.024118494 0.016788347 0.02234043
000110 67 bd a1 3b 65 0e 34 3c d4 d8 ab 3c f8 b5 cb bc
       0.0049359086 0.01098976 0.020977415 -0.024867043
000120 27 8e 92 3c 74 19 97 3d 08 6c 5e 3c 1f 3e a6 3b
       0.01789005 0.07377902 0.013575561 0.0050733234
000130 7d 9a 04 3b 0f e6 87 bc 4e 0e 62 bb c1 31 c8 3b
       0.0020233684 -0.016589193 -0.003449339 0.0061094468
000140 fa 73 8c 3c 7f 58 07 3d fc 6d 96 3b 68 28 a4 3a
       0.017145146 0.03304338 0.004590748 0.0012524249
000150 d6 cc ef 3b 09 a8 16 bb 46 75 6b 3c 70 45 a3 bc
       0.0073181195 -0.002298834 0.014371222 -0.019930571
000160 86 24 bb 3b 78 93 04 bd ec d0 47 3d 70 2c 9c 3b
       0.005711141 -0.0323672 0.048783228 0.0047660396
000170 5d c4 1f 3d 9f 14 1b 3c 3c 4c bb bb 06 07 0d 3c
       0.039005626 0.009465366 -0.005715875 0.008607632
000180 81 06 36 3c 05 2f d1 bc 5d 7c 4f bb 52 15 34 bb
       0.011109949 -0.025535116 -0.003165982 -0.0027478528
000190 21 c8 67 bc 5c 30 3e 3b 92 1e 01 bd ec 77 d7 3b
       -0.014146836 0.0029020524 -0.031523295 0.006575575
0001a0 73 e5 a1 3c 87 09 1c 3c 03 a4 8c 3b 70 4f 84 bb
       0.01976273 0.009523756 0.0042920127 -0.00403779
0001b0 89 bc 0e 3c 42 fe 87 3b 6a c2 da ba 45 aa 79 bc
       0.0087119425 0.004150183 -0.001669002 -0.015238349
0001c0 31 8a 65 3c 10 cb 22 3b 2c 12 e9 bb fb 22 02 bd
       0.014009998 0.0024840273 -0.007112762 -0.03177164
0001d0 20 c9 97 bb 57 04 df 3b 12 6a 05 3d 67 2b 7f 3d
       -0.0046321303 0.0068059373 0.03257186 0.06229725
0001e0 34 0a 02 bd fb 7c 18 bd 50 72 04 bc 45 97 ca bb
       -0.03174801 -0.037228566 -0.008083895 -0.0061825835
0001f0 ae ad 32 bd 95 09 5d bc a4 6d 42 3c e9 be 30 3c
       -0.043622665 -0.013491054 0.011866961 0.010787704
000200 48 d3 75 3c 80 72 a8 3c 6a 39 9f bb 9c e9 71 3c
       0.015003987 0.02056241 -0.004859139 0.0147651695
000210 a7 5a a8 3b 6c 99 60 3b aa fc 35 3a 3e be 00 bc
       0.0051377597 0.0034271134 0.0006942252 -0.007857857
000220 f1 9a ec 3a 64 8b 73 bc 84 46 18 bc 80 13 f8 3b
       0.0018051547 -0.014864776 -0.009294156 0.007570684
000230 91 56 15 3d 9d a3 9f 3b 6e 57 06 3c 28 d5 0d 3c
       0.03645951 0.004871799 0.008199556 0.008656777
000240 b6 4c 2e bb 6d 2f 61 ba a9 2b d7 3a 79 1c b0 3c
       -0.0026596016 -0.0008590136 0.001641621 0.021497952
000250 3d d1 26 3c 61 de 14 bc 10 6d 21 3d 68 2e f9 3a
       0.010181722 -0.009086222 0.03941065 0.0019011023
000260 04 6b c7 bb 3f 7c 33 bd ea b5 97 3c f8 69 b5 3c
       -0.0060857553 -0.043819662 0.01851936 0.022145256
000270 b0 c2 f9 3c b6 c8 51 bc 63 5f 10 bc af b2 57 bc
       0.030488342 -0.012804201 -0.0088118045 -0.01316516
000280 4c 3c f9 3d ad e5 da 3c 6c 9b c9 ba ca 90 4c bb
       0.12169704 0.026720846 -0.0015381402 -0.003121423
000290 34 a6 ad bc d1 38 73 bb 5f 97 97 bb 7e ac ab 3d
       -0.021197416 -0.0037112723 -0.004626199 0.0838251
0002a0 68 5c 62 3c 81 83 dd 3b 1f 75 d1 3b c1 b0 30 bc
       0.013815977 0.0067600613 0.0063921358 -0.010784329
0002b0 40 0b b1 3b 4d 0a 60 3d 49 61 c8 bb 43 66 46 39
       0.0054029524 0.054697324 -0.006115113 0.00018920847
0002c0 09 e8 8a 3c 3d 0f 2e 3d 76 4f de bb ed f5 45 3b
       0.016956346 0.042495 -0.006784375 0.0030206398
0002d0 00 35 08 3d 12 51 b3 bc a3 55 06 bc 02 70 1f 3d
       0.03325367 -0.021889243 -0.008199128 0.03892518
0002e0 ed 02 87 3c 02 48 15 3c 58 e8 e3 3c 6a 30 21 bb
       0.016480887 0.009111406 0.027820751 -0.0024595507
0002f0 f4 c9 8a bb e0 2f 9d 3c 55 6e 39 3c 7f 78 7f 3c
       -0.0042355005 0.019187868 0.011317809 0.015592693
000300 a4 34 ab b9 de c0 bd bc 18 15 53 3c f4 48 e9 bc
       -0.00032654882 -0.023163255 0.012883447 -0.02847717
000310 b0 48 2d bc ca d5 0f bc e9 cc 3f 3c 8e 87 be bb
       -0.010576412 -0.008778999 0.011706569 -0.005814499
000320 d8 8b a1 bc 5e f9 c6 3c fa 4c 1f 3d 91 83 9e 3b
       -0.019720003 0.02428883 0.03889177 0.0048374613
000330 e5 9e 9c 3b 2a 9d 13 3c 9f 22 42 3b e1 50 df 3a
       0.004779684 0.009009639 0.0029622687 0.0017037654
000340 ba db dd 3b 20 c2 40 3b 49 82 3a 3d ae 32 70 bc
       0.006770578 0.0029412583 0.045534406 -0.0146605205
000350 88 17 ab 3c 2f 38 5b 3c 47 32 24 3d 76 4d 2c bb
       0.020885244 0.013380094 0.04008701 -0.0026291288
000360 5c 22 76 b9 ed a6 08 3c 26 0f fe b8 14 e9 93 3c
       -0.00023473188 0.008340579 -0.000121144854 0.018055476
000370 49 16 7f bc 52 c5 5b bb 19 c9 95 3c 8e 32 1b 3d
       -0.015569278 -0.003353436 0.018284367 0.03789001
000380 b1 61 80 3c 7d 53 1d 3c 8a 4c 24 3d bb c4 55 bd
       0.015671583 0.009602425 0.040112056 -0.05218957
000390 d3 18 d8 3b b9 ee 87 bc 45 10 88 bd 03 11 0a 3d
       0.006594756 -0.016593324 -0.06643728 0.03370763
0003a0 35 27 57 bb 75 e3 ee bc 82 48 3c bd 00 e5 e5 bc
       -0.0032829766 -0.029161194 -0.045967586 -0.028063297
0003b0 1a ad 01 3d 35 64 d8 3b 4d 40 b4 bb 84 16 58 3c
       0.031659223 0.0066037425 -0.0055008293 0.013188962
0003c0 31 f6 25 3c 61 11 f4 ba 35 59 ac bb 20 21 51 3d
       0.010129497 -0.0018620902 -0.0052596577 0.05105698
0003d0 7e 26 02 3d 6a a9 86 3c 04 95 2c bb 1f 0e 10 3d
       0.03177499 0.016438205 -0.0026333937 0.035169717
0003e0 74 de 83 3c ed 67 2b 3d 75 8b 0c 3d 2e 06 3f 3b
       0.016097285 0.04184716 0.034312684 0.002914797
0003f0 a5 10 74 3b 49 21 56 3d 26 39 cd bb e6 41 80 bc
       0.0037241366 0.052277837 -0.006262916 -0.015656423

fc_logstd.bias f4 [2]
000000 2b 61 02 3e ec 0a f0 3d
       0.12732379 0.11720833

fc1.weight f4 [256, 16]
000000 d9 d3 ac bd 62 9b 07 bf 28 ab 5d bc 8c 67 f8 3d
       -0.08438844 -0.5297147 -0.013529576 0.12129125
000010 ce 36 3f be 35 af 72 3e 42 90 5b be 01 95 94 3d
       -0.1867325 0.23699649 -0.21441749 0.07254983
000020 d8 60 99 3e 51 68 84 be 93 a9 48 bd 85 d9 a2 3d
       0.29956698 -0.25860837 -0.048989844 0.07951645
000030 4a eb 05 bc d7 ee 78 3b 98 ad 9b bc 73 13 3a 3d
       -0.008173773 0.0037984157 -0.019003674 0.045428704
000040 fe 33 26 3f 2f a6 9e 3f f5 24 6e be c3 fc 31 be
       0.64923084 1.2394465 -0.23256285 -0.17381577
000050 f3 73 a6 3f a4 d0 5b 3f b8 65 4b bd 4c c8 de bd
       1.3004135 0.85865235 -0.049657553 -0.10878047
000060 b4 33 3c 3f 7e b6 6b 40 0a 21 8e be e6 0c 4c be
       0.7351639 3.6830134 -0.27759582 -0.19926795
000070 90 ef 8d bd e3 41 70 3d 10 a4 f9 be 60 27 77 be
       -0.069304585 0.058656584 -0.48757982 -0.24136114
000080 47 d2 01 c0 18 a4 6d 40 a9 da 87 be ce 44 3d bf
       -2.0284593 3.7131405 -0.26534012 -0.7393311
000090 06 8b cd 3f d2 ae 01 be 33 85 0e 40 1d 3b 90 bf
       1.6058052 -0.12664345 2.2268798 -1.126804
0000a0 f9 26 65 40 b8 ae 15 c1 9c 88 4b bc 02 47 13 be
       3.5805037 -9.355156 -0.012422707 -0.14382556
0000b0 2b a4 d7 3e 43 6d a7 3f 88 8a 0e be 13 81 f8 bd
       0.42117438 1.3080219 -0.13920033 -0.12133994
0000c0 8a 95 91 be b3 f3 94 ba a3 f7 1f bd b3 95 9d be
       -0.28434402 -0.0011364132 -0.039054524 -0.30778274
0000d0 d5 f8 92 3e 01 28 e0 bb 6a 80 e5 bd f9 f5 78 3e
       0.2870547 -0.0068407063 -0.11206134 0.24312581
0000e0 5a fc 11 3b 8e ac 66 3e f1 da 9b bd 60 34 2b bd
       0.0022275657 0.22526762 -0.07610119 -0.041797996
0000f0 db f5 15 bd 82 4a e3 3d e4 ce 3c bd ee bf 82 be
       -0.03661142 0.110981956 -0.046095744 -0.25537056
000100 b8 57 15 3e 1c 10 18 be 6c 73 57 be 70 6a df 3c
       0.14584243 -0.14849895 -0.21040124 0.027272433
000110 90 75 92 bd e8 7c 51 be 40 2c 96 3c 96 cd 7e be
       -0.071513295 -0.20457804 0.018331647 -0.24883112
000120 c4 a2 ef 3d 30 e6 cd 3d f4 04 b9 bd 68 10 c0 3d
       0.11700967 0.100536704 -0.09034148 0.09378129
000130 4c 74 d8 bd 76 b3 10 be fe 2e 74 be 00 15 4a 3e
       -0.10569057 -0.14130959 -0.23846051 0.19734573
000140 4e f9 72 be 12 c3 78 bf fb 0f 08 be 35 15 13 bf
       -0.23727915 -0.97172654 -0.13287346 -0.57454234
000150 3f 02 8b 3f 88 a7 0f bf 2c 9a 39 3f 0b a8 e5 3e
       1.086006 -0.5611501 0.7250087 0.4485477
000160 e2 2a 97 40 5a f0 5f 40 fc 8e 0d bf 2e f6 76 be
       4.7239847 3.499045 -0.552963 -0.24117348
000170 72 b0 46 3d f5 20 56 3e 11 cb cd be 4d 31 d9 be
       0.048508115 0.2091101 -0.4019399 -0.42420426
000180 03 64 6d 3e 94 7d 37 3e d4 77 90 be e6 36 a6 3e
       0.23182683 0.17918998 -0.28216422 0.3246376
000190 c7 be 82 3e 65 35 46 3e 3f 58 06 3d 1c 2f 16 be
       0.25536177 0.19356306 0.032799 -0.14666408
0001a0 8c 12 4b 40 82 3a 0a 40 09 a1 9c be 15 1d ef 3d
       3.173007 2.159821 -0.3059161 0.11675469
0001b0 3a 87 0d 3e d5 8a 27 be aa e0 c6 be fc f3 87 bd
       0.13821116 -0.16361554 -0.3884328 -0.06638333
0001c0 b9 1c 2d c0 20 bd 68 3e c9 7e 83 bc d2 c1 fb bd
       -2.704878 0.22728395 -0.016051667 -0.12292828
0001d0 45 0d d4 3d 68 04 74 bd 86 c5 b7 3e d9 fb b6 bf
       0.103540935 -0.059574515 0.35892886 -1.4295608
0001e0 8d c9 7b c0 ab 76 b0 3f 7e 12 24 bd 7b 85 29 bd
       -3.9341767 1.3786215 -0.040056698 -0.041387063
0001f0 18 36 ba 3e f0 79 8c bf ea df d4 bc d4 cb 1c bd
       0.36369395 -1.0974712 -0.025985677 -0.038280323
000200 3b 6d 39 bd 95 d6 1d 3e fd 26 4d be a8 81 1b be
       -0.045270186 0.15413888 -0.20034404 -0.15186179
000210 17 99 de bd 30 1f 50 be 96 aa a3 bd bb 6a 53 bd
       -0.10869043 -0.20324397 -0.07991521 -0.051615458
000220 d6 6c 88 be ad fd 80 bd 6e 6b a7 bd fd f3 21 be
       -0.26645535 -0.06298385 -0.081747875 -0.1581573
000230 06 95 21 3e 31 28 24 be af 56 0a bd 8a 63 bf bd
       0.15779504 -0.16030957 -0.033774074 -0.093451574
000240 68 e9 c4 bf d9 f9 84 c0 6a 02 3b be 9c 01 54 3f
       -1.538373 -4.155499 -0.1826264 0.82814956
000250 1f e2 ee bf 42 5f f7 be da 98 2c 3f b6 d6 21 40
       -1.8662757 -0.48314863 0.6742073 2.52873
000260 0a dc 80 3f c0 2c 1d bf ed 5d 80 3e 8f f3 2b 3f
       1.006715 -0.6139641 0.2507166 0.67168516
000270 92 79 9a bd f9 59 c0 3e 40 95 c3 3d cb 89 44 3f
       -0.07542719 0.37568644 0.095499516 0.76772755
000280 a4 f1 ca bd 71 d5 3c c0 9f ea ee bd bb 04 3f bd
       -0.099093705 -2.9505274 -0.11665844 -0.04663537
000290 8b da d2 bf 74 eb a0 be 76 4e 9c be c4 18 b3 3f
       -1.6472944 -0.31429636 -0.3052861 1.3991933
0002a0 90 20 3f bf 49 13 a4 bf 1a c3 29 3d 85 af a4 bd
       -0.7465906 -1.2818385 0.04144583 -0.0804129
0002b0 22 77 30 bd a9 42 d5 be 54 cf a5 bd cf 1f 27 be
       -0.043082364 -0.4165242 -0.08096185 -0.16320728
0002c0 e5 58 19 c0 32 4b ff 3f 9b 35 a9 3b 3f e5 0d c0
       -2.3960507 1.9944823 0.005163861 -2.217117
0002d0 be 90 18 3e 20 6b f8 bf 44 be 8a 3f 83 35 e4 bf
       0.14898965 -1.9407692 1.0839314 -1.782883
0002e0 1f fe 60 c0 be 11 83 3f 36 76 d9 bb ad f1 00 bc
       -3.5155103 1.023979 -0.0066364063 -0.00787012
0002f0 5c a3 2d 3f e8 ee 02 be b3 1b 94 bc 3e 04 d6 ba
       0.6782739 -0.12786448 -0.018079614 -0.0016328169
000300 ce 43 8a bf f0 d2 0d c0 e5 92 ff bd a2 55 37 3f
       -1.0801942 -2.2159996 -0.1247919 0.7161504
000310 f6 d1 3a 3f 65 00 49 bf 49 58 07 c0 86 a3 db 3f
       0.72976625 -0.78516227 -2.1147635 1.7159278
000320 10 90 03 c1 ef 40 1d 40 02 1d 91 3e 06 6b cb bd
       -8.2226715 2.4570882 0.28342444 -0.099325225
000330 12 d6 25 bc 6e d7 1d 3c 3e a2 09 3f 10 28 c1 3d
       -0.010121839 0.009633882 0.53763187 0.094314694
000340 94 b1 a5 3f 19 7d 0d c0 a2 cd 31 be 73 83 f1 be
       1.2944818 -2.2107604 -0.17363599 -0.471706
000350 db f1 ef bc 99 f0 e5 bf d2 1d 96 bf 3f e9 4e be
       -0.02929013 -1.796405 -1.172785 -0.20206164
000360 26 04 22 40 58 50 7b 40 41 07 c0 3e 3d 34 b5 bd
       2.5315032 3.9267788 0.37505534 -0.08847854
000370 e3 63 f0 bc 75 f7 16 3f 32 bc 08 3f 5f 53 81 ba
       -0.029344505 0.5897134 0.53412163 -0.0009866765
000380 a8 3a 35 bd 42 d9 1f be 2c 40 c2 bd de 67 22 3e
       -0.044245392 -0.15610221 -0.09484896 0.15859935
000390 c4 b7 e9 3d 76 88 2c be 4e 08 38 3e 40 39 0d 3d
       0.11412004 -0.1684893 0.17971918 0.034478426
0003a0 08 4b 24 bd fa b5 7b 3e d8 b4 7e be 30 02 94 3c
       -0.040110618 0.24581137 -0.24873674 0.01806745
0003b0 c0 77 14 be f0 78 ad bc f8 2a 7f bd 64 e3 db bd
       -0.14498806 -0.021175832 -0.062296838 -0.10736731
0003c0 81 c8 3b 3e 34 2d 18 3d 7c 6b 86 be 2e 89 11 bc
       0.18338205 0.037152484 -0.2625388 -0.008882804
0003d0 86 c3 f0 3d 03 19 5d 3d 51 ff 03 be d6 e8 dc bd
       0.11756043 0.05397893 -0.12890364 -0.107865974
0003e0 df 0d ed 3d 9e 34 62 be 32 e0 80 3c 71 75 5c 3e
       0.11574911 -0.22090384 0.015731905 0.21529175
0003f0 50 48 32 3e 19 c8 87 bd 0c c9 11 bd c8 22 30 be
       0.17410398 -0.066299625 -0.035592124 -0.17200768
