fw_flightcontrol/models/icinco/sac/actreg/caps/sac_bohn_caps_nohist_noatmo_4508_31-05_15:00:53.pt (torch, 853667 bytes, 20 tensors)

action_scale f4 [1, 2]
000000 00 00 80 3f 00 00 80 3f
       1.0 1.0

action_bias f4 [1, 2]
000000 00 00 00 00 00 00 00 00
       0.0 0.0

fc1.weight f4 [256, 14]
000000 d5 4f bc bd 1e 0c 8e be f9 27 27 be ac 36 6f be
       -0.09194914 -0.2774362 -0.16323842 -0.233607
000010 20 c3 ea 3d 6b 37 92 3e 7d 1c 84 be 07 c6 72 be
       0.114629984 0.28557906 -0.25802985 -0.23708354
000020 98 e2 50 3e 66 d1 c9 bd 13 2f 84 be f5 cd 59 3e
       0.20398939 -0.09854393 -0.25817165 0.21269973
000030 d4 26 12 be a9 ac 0d 3e d2 55 4a 3e 1a 06 49 bf
       -0.14272624 0.13835396 0.197593 -0.78524935
000040 55 80 ef bb ef f1 05 bf 84 97 8b be eb 5a 2a bf
       -0.0073089995 -0.52322286 -0.27264035 -0.6654498
000050 50 7b 92 3e de 9b ef bf 2b 68 11 40 8c b2 09 bf
       0.28609705 -1.8719442 2.271983 -0.53788066
000060 aa b4 f6 3c ee f5 36 3c 7a ad 51 be 8e e4 d5 bd
       0.030115444 0.011167033 -0.20476332 -0.10443984
000070 0c 3c c2 3f 2e 13 88 bd e2 6e c2 bc 8b 39 91 3f
       1.5174575 -0.06644283 -0.023734514 1.1345686
000080 64 0a 60 bc 73 28 85 3f ef 29 76 3f e9 12 04 40
       -0.013674352 1.0402969 0.96157736 2.0636542
000090 55 b8 4c 40 9b 65 40 3f f0 ce 1c 3c 5b 7d 1e 3c
       3.1987507 0.7515504 0.009570822 0.009673442
0000a0 1f 29 8b 3f b5 a2 45 bf f2 d6 87 be 5a a2 43 bc
       1.0871924 -0.77201396 -0.26531178 -0.011940563
0000b0 ee a7 2c be 3f 1b 1f 3d ae a9 ce 3d 43 cb e8 bd
       -0.16860935 0.038844343 0.100909576 -0.11366894
0000c0 20 f6 ff bd 6d 09 5a be 49 34 74 3e ba 18 31 3d
       -0.124981165 -0.21292658 0.2384807 0.04323647
0000d0 a5 6c 57 be c3 64 19 3e fc db 5c 3e ad c2 8a bd
       -0.21037538 0.14979844 0.21568292 -0.06775413
0000e0 2a 82 19 c0 8b b4 c6 3f e5 75 ef bc 17 2e 85 be
       -2.3985696 1.5523847 -0.029231021 -0.26011726
0000f0 16 db 18 3e 25 b3 b8 bd 60 ed d0 bf ef ba 16 c0
       0.14927325 -0.09018544 -1.6322441 -2.3551595
000100 05 7a 9c 40 62 6f a2 3e 2a 25 1f bd 72 6e e7 bb
       4.889895 0.31725603 -0.0388538 -0.0070627267
000110 7e 62 e0 be 11 41 21 bf 26 5c 7f bf c1 42 02 3f
       -0.43825144 -0.6298991 -0.9974998 0.5088311
000120 28 1b 7c bd de f2 2e be 0c d5 b9 bd 07 fc 5d be
       -0.061549336 -0.17084834 -0.090738386 -0.21678172
000130 22 1d a2 3e 63 03 ba 3d cb 54 09 3f 4f 7a 16 bf
       0.31662852 0.09082677 0.5364501 -0.5878038
000140 81 7a b9 3b ec 79 fd bc 30 c3 54 bf c0 7a 90 3f
       0.0056603556 -0.030941926 -0.8311033 1.128746
000150 15 14 60 bf d0 89 1a 40 be 73 aa bd 75 a0 d3 be
       -0.8753064 2.4146614 -0.08322857 -0.41333356
000160 51 bb 21 3d d0 7a 57 be 40 69 02 40 43 cc dd bf
       0.03948528 -0.21042943 2.037674 -1.7327961
000170 c9 91 d3 3f f6 b1 67 3e c3 11 d1 bc 2f b4 89 bb
       1.6528865 0.2262648 -0.025521165 -0.0042023878
000180 83 ea 4e 3f af 70 3e bf c9 d3 7a 3c 14 57 35 bd
       0.80826586 -0.7439069 0.015309283 -0.044272497
000190 c5 d1 84 be 08 18 27 3d ea 61 1a be 92 94 3e bd
       -0.2594129 0.040794402 -0.15076414 -0.046528406
0001a0 bf 56 c2 bd 65 10 7b be 0e 45 53 3e c3 b7 88 bd
       -0.09489202 -0.24517973 0.20631811 -0.06675675
0001b0 d7 c7 a8 bd c4 05 3c be 94 6a 5e be 1f fb 63 3e
       -0.082412414 -0.18361574 -0.21720344 0.22263764
0001c0 40 4a 39 be 20 2b fb bb 2b b3 8b be 97 c4 89 3e
       -0.1809473 -0.007665053 -0.27285132 0.269078
0001d0 d2 7f 08 bf 2c 7b 70 be b2 b5 f1 3e cd 58 35 be
       -0.5332004 -0.23484486 0.47208935 -0.17709656
0001e0 c6 c8 38 be 71 5a 8a 3e e2 f1 a3 3d 6d 65 be 3c
       -0.18045339 0.27022126 0.0800512 0.023241723
0001f0 3f d0 28 be ce c7 fd bd b0 0b 33 c0 13 01 f8 be
       -0.1648569 -0.12391625 -2.7975883 -0.4843832
000200 ba 8d 24 bd fa f3 c4 bf 29 bb 96 bd 2d 94 af bf
       -0.040174223 -1.5386956 -0.07359917 -1.3717095
000210 5f a4 25 c0 7e 1a c7 bf 59 0b 95 3f 7b 75 1b 40
       -2.5881574 -1.555496 1.1644088 2.4290454
000220 b4 a7 01 bc ba 77 9a 3b 46 59 85 bd 22 81 93 bf
       -0.007913519 0.0047139795 -0.06511168 -1.1523783
000230 d2 f0 27 be 68 62 0e be f4 f6 1c be 81 23 29 be
       -0.1640046 -0.13904727 -0.1532858 -0.1651745
000240 8f 7f 58 be 8a ef 35 3e db 19 5d be b1 f8 c8 bd
       -0.2114241 0.17767158 -0.21591894 -0.09813059
000250 0a 43 52 be 70 9d 65 bd a1 6f ae 3d 5d 56 e0 3c
       -0.20533386 -0.056058347 0.08517385 0.027384931
000260 fb 25 74 bc 6e cf c7 bd ca 09 3e 3e 33 74 c3 3d
       -0.014901633 -0.09756361 0.18558422 0.095436476
000270 80 4e 73 be d8 f5 66 be 24 3b 10 bd 75 e2 36 3e
       -0.23760414 -0.2255472 -0.03521265 0.17859824
000280 9c 5c 80 3e 07 ce 84 be ea 0e 08 be 7c c2 6e 3e
       0.25070655 -0.25938436 -0.1328694 0.23316377
000290 eb a5 00 be d8 a5 38 be 09 1d 62 3e 99 ca 08 be
       -0.12563293 -0.18032014 0.22081389 -0.13358535
0002a0 2b a8 ca 3d 00 33 37 3a 73 ed 66 bd 11 82 b9 3d
       0.09895357 0.00069884956 -0.056378793 0.09058011
0002b0 22 25 cc bc 25 b6 54 3d ad be 65 3d 76 19 a0 3d
       -0.02492005 0.05193152 0.056090046 0.07817356
0002c0 1c e1 c4 bd 58 38 cd bb f4 8f bb bd 57 6f 21 3d
       -0.09613249 -0.00626282 -0.09158316 0.039412823
0002d0 51 83 09 3e c3 e7 d7 3b 98 94 e6 bd 04 f0 2c 3f
       0.13429 0.0065889074 -0.11258811 0.67553735
0002e0 c4 12 ab bb 44 7e a3 3e 4f c2 dd be 88 22 bf 3e
       -0.005220743 0.3193227 -0.43312308 0.37331033
0002f0 bf 70 31 bf ab cd 34 41 4e fa 0e 41 f7 e0 ec bf
       -0.6931266 11.300212 8.93611 -1.8506154
000300 d1 68 af bc db 39 6e 3c 63 5e be 3e 74 1f 87 bf
       -0.021412285 0.014540161 0.37181386 -1.0556474
000310 69 ca 97 bf e8 81 10 3e d0 a4 eb bb 49 65 6f 3e
       -1.1858646 0.14112055 -0.007191278 0.23378481
000320 5c 7b 8e bd 6a ac ab 3d 7d f2 54 bf 65 2b e1 bf
       -0.06957123 0.08382495 -0.8318251 -1.7591368
000330 e8 4e 63 bf 46 4f 02 41 64 32 b9 3c eb 03 8d 3b
       -0.88792276 8.144354 0.022607036 0.0043034456
000340 48 4d b2 bd 86 64 2a be 5d 63 78 3d da 59 1e 3e
       -0.087061465 -0.16639909 0.060641635 0.15463963
000350 7f 5b 59 be 39 ac 2c be 57 1d 52 3e 2a 3b 40 3e
       -0.21226309 -0.16862573 0.20519005 0.1877257
000360 dd 01 5e 3e c5 7b 96 3d 38 3d 47 be e5 ea 0b be
       0.21680398 0.07347826 -0.19456947 -0.13663824
000370 76 7d 72 3e ed 04 dd 3d 6d dd 5b 3e a1 75 6d 3e
       0.23680672 0.10791955 0.21471186 0.23189403
000380 a1 f5 91 3e c1 0b 89 3e c8 ac 6a bc a7 8c 09 c0
       0.28507712 0.2676678 -0.014323421 -2.1492097
000390 cc f8 80 bd db f0 77 bf 33 4a e1 bf e9 b6 aa bf
       -0.06297454 -0.9685189 -1.7600769 -1.333707
0003a0 0b 28 f5 bf 66 7c 97 c0 94 0c 05 be ee f6 cb 3c
       -1.9152845 -4.7339354 -0.1299308 0.024898019
0003b0 58 25 70 3e 7f 4e a6 3e 79 a5 82 3e 67 b0 39 be
       0.23451746 0.32481763 0.2551687 -0.18133698
0003c0 ec 61 fd bd 4f 3e 88 bd 0e 75 96 bd f8 e4 b9 3d
       -0.12372193 -0.066525094 -0.07346545 0.090768754
0003d0 60 d8 76 be ba bb 58 3e 46 28 64 bd dc 85 5a 3e
       -0.24105978 0.21165362 -0.05570247 0.21340126
0003e0 c6 1b 3f 3b d3 0a fb bd 49 95 aa bd 1b 27 1e bd
       0.0029160841 -0.12257924 -0.08329255 -0.038611513
0003f0 d7 e1 71 3e 9d c9 57 3e 8b 5a 80 be 36 2b 64 bd
       0.23621307 0.21073003 -0.2506908 -0.05570527

fc1.bias f4 [256]
000000 d7 b8 e8 bd 7b d7 8b 3f de 51 13 3f 06 a6 42 3e
       -0.113633804 1.0925134 0.57546794 0.19008645
000010 8e ac 22 3f 39 b9 c2 3e 5c 5d 42 3d 2f 0b 73 be
       0.6354455 0.3803194 0.047452316 -0.23734735
000020 07 74 4c 3e cc a0 59 3e 0e 54 88 be dd ec d4 bc
       0.19966136 0.21252745 -0.2662663 -0.025991851
000030 1e 81 23 bc 9d 01 8f bf 07 fc cf 3e 09 ff cd 3d
       -0.009979514 -1.1172367 0.4062197 0.1005841
000040 4f 6a 1b 3c ba 81 54 3d ce a3 4f be a4 b6 60 be
       0.009485795 0.05188153 -0.2027733 -0.21944672
000050 5d 51 86 bc 3a 04 80 bf de 6e b7 bc 50 98 15 3f
       -0.016396219 -1.000129 -0.022391733 0.58435535
000060 f8 62 97 bf 00 53 f6 3e 1f e6 61 be b1 cc c2 3e
       -1.1827078 0.481102 -0.2206044 0.38046792
000070 de 41 93 3d 10 d9 33 3e 91 17 e5 bd e6 01 4d 3e
       0.071902975 0.17563272 -0.111861356 0.20020255
000080 2b 39 00 be bd ad fe 3d 4d 62 d9 be 94 e4 1e c0
       -0.12521808 0.12435482 -0.4245781 -2.4827013
000090 92 e2 5e be ec 17 e2 bf b2 f9 95 3d 5e b6 25 3e
       -0.21766117 -1.766355 0.07323016 0.16182849
0000a0 e5 06 4d 3e 71 cb 1b bf 13 a6 ae bd 91 d3 ca be
       0.20022161 -0.608573 -0.0852777 -0.39614537
0000b0 42 92 46 bf 56 12 e1 3d dd 50 84 3f be c7 fb be
       -0.7756692 0.109898254 1.0337178 -0.4917583
0000c0 dc 1a 9d 3e 3d 2e 78 3d 24 07 87 3d c1 18 16 3e
       0.30684555 0.06059097 0.06593159 0.1465788
0000d0 49 3c 65 bc 39 30 c7 3c bf 2a a4 be cc d5 87 be
       -0.013991424 0.024314987 -0.32063863 -0.26530302
0000e0 67 7a 94 bd 23 17 2d c0 ba 07 f2 be 36 dd c2 3d
       -0.07249909 -2.7045372 -0.4727152 0.09514849
0000f0 0f fb 98 bf 40 60 6c 3f 62 f9 12 c0 e9 2f 1f 3e
       -1.1951617 0.92334366 -2.296471 0.1554562
000100 3d d6 74 3e 06 c0 9b be 98 d7 f4 3d 9d 1e 5d 3f
       0.2390985 -0.3041994 0.11955184 0.8637484
000110 13 20 7a be c5 31 11 bf 8e 7d 40 3e 8e 01 ea bd
       -0.24426298 -0.5671657 0.18797895 -0.11426078
000120 4c 14 06 3f 6f b2 92 3e d9 7e 01 be e6 5f 49 3d
       0.5237472 0.2865176 -0.12646045 0.04916372
000130 26 44 b5 3d 68 0d 84 3e b8 82 dc bc 27 2e 25 bf
       0.08850889 0.25791478 -0.0269178 -0.6452355
000140 e2 e9 47 be 99 51 4e 3d 51 55 7f bd 91 e6 94 bd
       -0.19522813 0.050370786 -0.062337223 -0.072705396
000150 86 7e 2c bf 70 02 a7 3e 3d 3e 4f 3e 88 f4 42 bd
       -0.6738056 0.32619047 0.20238586 -0.047596484
000160 05 7e 77 3a ed 4f df 3d 16 d7 dc 3e 06 22 ad be
       0.00094410806 0.109039165 0.43132848 -0.3381502
000170 aa b5 b6 3c 81 6c f3 bd 3d b0 3f 3f 91 4f 29 be
       0.022303421 -0.1188593 0.74878293 -0.16534258
000180 1d af d8 bf bb 00 1d 3f 62 f0 60 be fe a0 67 be
       -1.692844 0.6132924 -0.21966699 -0.22620007
000190 d1 d7 9d 3e 7d 42 0c 3f e6 4d 07 be bb 00 97 3d
       0.30828717 0.54788953 -0.1321331 0.07373186
0001a0 a2 ba ef 3e 01 e6 ff 3b 7a 48 43 3e 10 04 14 c0
       0.46822077 0.007809401 0.19070616 -2.312748
0001b0 9f 96 d3 3e 1b c7 66 3e 27 03 b0 be 09 0b 9f be
       0.41325852 0.2253689 -0.34377405 -0.31063107
0001c0 c8 b0 37 bd ce 4d e2 bc e9 24 43 3e 5c 2f 00 bd
       -0.044846326 -0.02762499 0.19057049 -0.031295165
0001d0 1a f1 75 bd d3 f9 cb 3e eb 63 8b bb 69 6f 63 bf
       -0.060044385 0.39839038 -0.0042538545 -0.88841873
0001e0 63 75 66 3f 7a c0 8b bb 5d fc 18 be 9b 47 4d 3f
       0.9002287 -0.0042648884 -0.14940019 0.80187386
0001f0 94 a1 1f 3f c4 db b3 ba 6b 1b 28 3e 7a d1 60 3d
       0.62355924 -0.0013722111 0.16416709 0.054887272
000200 49 6f 92 3e 2c 67 1b 3f 5d 5b de be fe bd cf be
       0.2860053 0.607043 -0.4342908 -0.4057464
000210 cd 3c 12 be 85 52 9d be 3a 27 6c 3e b1 80 37 bf
       -0.14281006 -0.3072702 0.23061839 -0.7168074
000220 50 f2 4f be bb 72 f4 3f 83 45 43 3d 5e 94 50 3e
       -0.20307279 1.9097513 0.047673713 0.20369098
000230 a7 fc 94 be 2a c7 74 3e c5 6a cf 3e cb b0 5a be
       -0.29099008 0.239041 0.40511146 -0.21356504
000240 61 90 a7 3d 18 54 2b be 34 ee 03 3e db ad 4f be
       0.08181835 -0.16731298 0.12883836 -0.20281164
000250 55 e2 37 3f e2 32 ae bd a8 51 d7 bd 2a e2 47 3f
       0.7182973 -0.08505799 -0.105136216 0.78079474
000260 6e 94 89 3e 34 af 5a 3e 5c af b0 3f 0f 63 be be
       0.26871055 0.21355897 1.3803515 -0.3718495
000270 16 1e 1c c0 bf f5 38 bd e3 67 0b bf 9d 51 33 be
       -2.4393363 -0.045156237 -0.54455394 -0.17511602
000280 47 c6 87 3e 6e 59 8f be 1a 46 c7 3c bf 52 56 be
       0.2651846 -0.27997917 0.02432542 -0.20930003
000290 b4 d3 40 3f f2 f7 ba be c9 04 35 be 60 8a 00 bd
       0.75323033 -0.36517292 -0.17677607 -0.031381965
0002a0 a4 53 a2 be e5 f3 81 3e 3d fa 6e be 5b 5a 6b 3e
       -0.31704438 0.2538139 -0.23337646 0.22983687
0002b0 8f 32 11 bc 55 81 51 bf 3d e2 f0 bf cb cd 07 bf
       -0.008862152 -0.8183797 -1.8819042 -0.5304839
0002c0 8e 98 87 bf 59 93 85 3e a2 f4 ac 3e a6 1a ab 3e
       -1.0593431 0.2608898 0.3378039 0.3341877
0002d0 ba b7 eb 3d 16 b5 81 3e c0 34 8d bf 84 52 b0 be
       0.115096524 0.2533347 -1.1031723 -0.34437954
0002e0 9b e7 66 3d 24 3b 69 3e 8b fc 80 bd f9 f1 67 be
       0.05637322 0.22776467 -0.06298169 -0.22650899
0002f0 5c 7c 0f c0 11 01 66 be 73 0d 34 3e 5e 6f 6b bf
       -2.2419653 -0.22461344 0.17583255 -0.9196681
000300 57 43 0a bf 28 2c ee bd 4d 0a 45 be e7 a5 d2 bd
       -0.54009 -0.11629516 -0.1924221 -0.102855496
000310 98 ce c8 3e bc da 19 3c 4f 1a ba be ef aa c6 be
       0.3922012 0.009390529 -0.36348197 -0.38802287
000320 0f 4c 51 3e 8e 96 af be c4 30 6f be 3c 78 e2 be
       0.2043917 -0.34294552 -0.23358446 -0.44232357
000330 8d 64 84 be af 6d 1d 3e ef a5 ef bd b3 7b 4b 3e
       -0.25857964 0.15373872 -0.11701571 0.19871406
000340 d6 bc b5 b7 78 4f 04 bc 9c 30 12 3e ed 46 1f bf
       -2.1664815e-05 -0.008075587 0.14276356 -0.622176
000350 a3 61 ce 3e b2 38 4d 3e 7b 85 25 bf da a4 db be
       0.40308866 0.20041159 -0.646568 -0.4289921
000360 99 b1 74 3e 09 b9 f0 be 11 dc d0 3d 53 6d 11 3e
       0.23895873 -0.4701617 0.10198224 0.1420186
000370 35 34 b8 3f 83 d9 10 be 00 8c a6 3e 59 9d 9f be
       1.4390932 -0.14145474 0.32528687 -0.31174734
000380 7f 3a 69 bd 67 07 8e 3e 1a fd 77 be e3 c6 a0 3e
       -0.05694055 0.27740023 -0.24217644 0.3140174
000390 63 b5 1c 3f 33 1e 64 be 49 3f aa 3d 36 77 42 3e
       0.61214274 -0.22277145 0.08312852 0.18990788
0003a0 08 a5 0c bf 92 9f 1a be 46 31 7c be 48 7d 5f be
       -0.5493932 -0.15099934 -0.24628171 -0.21825135
0003b0 3c 11 c5 3e 2f 2e 09 3e bd 01 ba bd 00 ec af be
       0.3848971 0.13396524 -0.09082363 -0.3435974
0003c0 95 72 0a be fd 99 c5 be 86 a5 aa 3d 20 0c 14 3f
       -0.13520272 -0.38594046 0.08332352 0.57831
0003d0 a3 7b 4f 3f c4 1c a6 bd 89 7f 94 3f b9 4e 69 be
       0.8104803 -0.08110955 1.1601421 -0.22783937
0003e0 e6 78 93 bd 49 0e 0d be 7b 7e c6 3d 26 43 01 c0
       -0.07200794 -0.1377498 0.09692093 -2.0197234
0003f0 8a 41 27 3e 3d eb 4c bc d6 96 e8 3e 5d 60 b5 3c
       0.16333595 -0.012507257 0.4542758 0.022140676

fc2.weight f4 [256, 256]
000000 c3 56 9e 3b 14 0e a8 3d 33 d3 dd 3d ac 21 a8 bc
       0.00483212 0.0820581 0.10831299 -0.020523869
000010 f3 1d 40 3d 3e 47 54 be a4 78 cc bd c8 0b c1 bc
       0.04690356 -0.20730302 -0.09983948 -0.023565188
000020 f2 ab 86 bd 08 c8 ae be a6 96 36 bd 78 ee 1a 3d
       -0.06575765 -0.34136987 -0.044577263 0.037825078
000030 e8 f9 26 bc 50 95 43 be a9 f7 7b 3d b0 c2 d5 3b
       -0.010191418 -0.19099927 0.061515484 0.0065234527
000040 25 bc b9 bc 50 76 aa 3b c0 82 8d bc e3 56 49 3d
       -0.022672722 0.005202092 -0.01727426 0.049155127
000050 a4 97 a5 3c 74 ca 61 be 0c 38 70 3d 5a fa c5 be
       0.02021391 -0.22049886 0.0586472 -0.38667566
000060 a8 d2 53 bd a0 0e ee bb 80 cb 70 3c ed 76 ae bc
       -0.05171457 -0.007264927 0.014696956 -0.021296943
000070 b6 b2 0a bd 34 03 75 3d f0 ff f4 39 68 f8 f4 bc
       -0.03386184 0.059817508 0.00046729995 -0.029903606
000080 73 a4 2a bd bc 66 47 3e 75 8e 6d be 18 90 d1 be
       -0.041660737 0.19472784 -0.23198874 -0.40930247
000090 ca 79 4c 3d 35 40 41 bd 10 6b 88 bc 76 b3 3b 3d
       0.049920835 -0.047180373 -0.016652614 0.045825444
0000a0 d3 80 99 3c 5f 44 7e 3d 25 92 0c ba 38 ed 35 bd
       0.018738186 0.062076923 -0.00053623534 -0.044415683
0000b0 1b 19 67 be a8 88 dc bc de 39 1b be 10 cd e5 bc
       -0.2256817 -0.026920632 -0.15158793 -0.028051883
0000c0 7c a6 2e 3e 7a e3 b7 3c c6 d6 97 3c 94 84 9a bd
       0.17055696 0.022447336 0.01853503 -0.075448185
0000d0 69 0f 39 bd 34 d7 23 bd 5a 5b 11 ba f0 ee 0a 3d
       -0.045180712 -0.040000156 -0.00055449235 0.033919275
0000e0 03 4f 89 bb 24 cc 5a 3e e6 85 93 bd 9c dd 17 3d
       -0.004190327 0.21366936 -0.072032735 0.037076578
0000f0 59 7f 19 be e3 68 d2 3c 97 81 10 be 10 54 01 3c
       -0.14989986 0.02568478 -0.14111935 0.007893577
000100 60 00 d7 bb 82 0b 30 3d 64 fe 96 bc 57 4c a8 bd
       -0.006561324 0.042979725 -0.01843185 -0.08217686
000110 d4 1e c2 bc fc ec 8d bc 2f 79 44 bd 2c 72 f6 bc
       -0.02369634 -0.017324917 -0.047967132 -0.030083738
000120 23 7b 9f be 82 d7 98 bd e0 da 12 bd 03 0c a9 be
       -0.31148633 -0.0746298 -0.035853267 -0.33016977
000130 6a 19 f8 3d 58 16 33 3c 92 4c 4b 3d 0e 11 c0 3d
       0.12114222 0.01093062 0.04963357 0.09378253
000140 0a cc b1 bd 95 5a 2e bd 18 52 7a 3c 1a 98 5c 3e
       -0.086814955 -0.042566855 0.015278362 0.21542397
000150 eb 8e 9b 3d 16 1c 31 3d 20 db 29 3c 5e 91 01 bd
       0.07595619 0.043239675 0.010367185 -0.031632774
000160 9a 90 25 3d a2 79 d2 bc 93 32 36 be 13 89 31 bd
       0.040421106 -0.025692765 -0.1779273 -0.043343615
000170 56 23 84 3c 63 62 62 be 2d f6 91 bd aa db 3c bd
       0.01613013 -0.22107844 -0.071270324 -0.046107925
000180 ad bb 6d be ec be 52 be b0 a3 7d bc 48 c1 3b bd
       -0.23216124 -0.20580643 -0.015480921 -0.045838624
000190 5e a5 d6 3d 0c 06 2f 3d 50 8f 80 bc 10 67 18 bc
       0.1048076 0.042730376 -0.015693337 -0.009301916
0001a0 29 5c 2d bd 34 fd b4 3c 40 53 b2 3a 87 0e 9b bd
       -0.04232422 0.022093393 0.0013605133 -0.0757113
0001b0 bd a5 01 3e 68 99 4f bd a4 75 81 bd 36 04 35 3d
       0.1266088 -0.05068341 -0.06321266 0.04419347
0001c0 c2 2b 2f bd 7c 35 1d 3d 79 0c bf 3c b0 d9 62 bd
       -0.04276634 0.038381085 0.023321377 -0.055383384
0001d0 a4 61 86 3c 3b 35 69 bd c0 a6 9c 3c d8 c3 0e 3e
       0.01640398 -0.05693553 0.019122481 0.13941896
0001e0 9d e3 4f 3d 76 c2 11 bc 6c b8 73 bd 3a 86 c4 3d
       0.05075418 -0.008896461 -0.05950205 0.09595914
0001f0 d5 a3 02 be 84 c7 3c 3d 70 57 2e bc 04 fc c6 3d
       -0.1275781 0.04608871 -0.010640964 0.09716037
000200 58 05 52 be c9 de ee 3c 95 3e ae be 34 24 08 3c
       -0.20509851 0.029158967 -0.3403212 0.008309413
000210 7a 49 29 bd b4 54 bf bd 04 76 ac bc b0 38 4f bf
       -0.04132984 -0.09342328 -0.021052368 -0.80945873
000220 ec 88 d1 bc 0a 82 f3 bc f2 0b 48 3d c5 e3 bf bc
       -0.025577985 -0.029725093 0.048839517 -0.023424039
000230 6d db 34 3d 15 5a 15 be bc 79 b5 3d 20 34 f7 bb
       0.044154573 -0.14585145 0.088611096 -0.0075440556
000240 02 e9 8d 3e 3f 9f 30 3c 2c 48 39 3d d5 3c f9 bd
       0.27716833 0.010780155 0.045234844 -0.12169806
000250 85 53 3e 3d 9f 65 50 bd 51 6e 29 bd a7 e8 6b 3e
       0.04646637 -0.050878163 -0.04136497 0.23037969
000260 95 d7 e5 3d 28 ff fb 3c 68 0d 0d 3e 5f 08 97 3d
       0.1122276 0.030761316 0.13774645 0.073746435
000270 b8 e3 b2 be 46 fd 58 bd 38 5b be be f7 f0 20 be
       -0.3493936 -0.052975915 -0.3717897 -0.15716921
000280 bc 76 e4 bc 6c b2 6d bc 1b 25 13 be 31 95 21 3d
       -0.027888648 -0.014507871 -0.14369623 0.03944892
000290 0d 1c 65 bf 6a c8 84 3c 65 b1 49 be c7 bb 9f bc
       -0.8949593 0.016208846 -0.19696577 -0.019498719
0002a0 86 a6 9f bd 5c 0b c5 3c fa 4a 54 bd ab 26 1d be
       -0.07795434 0.024053268 -0.051829316 -0.15346782
0002b0 b0 4c 05 bc 17 86 1d 3d c5 60 31 be cb e8 60 be
       -0.0081359595 0.038457956 -0.17322071 -0.21963803
0002c0 8a 8d a8 3c 4b 7d c2 bc 12 32 97 be be 13 4a be
       0.020575304 -0.023741385 -0.29530388 -0.19734094
0002d0 0f d1 f8 3b 21 05 08 3e f7 fb 75 bd 9b 21 08 3e
       0.007593281 0.13283207 -0.060054746 0.1329407
0002e0 a4 70 eb bc d4 f5 0d bd 90 23 17 be c6 8a 23 3d
       -0.028740235 -0.034658268 -0.1475966 0.039927267
0002f0 41 4e 5b 3b 18 97 4a bc 96 40 a5 be b0 61 ce bc
       0.003346339 -0.012365125 -0.32275838 -0.025193065
000300 36 57 2e bf 7a a7 e0 bc 00 86 1a ba a8 f8 aa bc
       -0.68101823 -0.027423609 -0.00058946013 -0.020870522
000310 af 77 f9 bc 06 66 a6 bc c4 7a 5c bd 8a 3f 5b 3c
       -0.030452577 -0.02031232 -0.053828016 0.013381848
000320 18 ae 2c 3c de 06 11 be c0 8c 9d bc 4b 00 da be
       0.010539554 -0.14162776 -0.019232154 -0.4257835
000330 00 34 7f bb 80 b5 6c bc 2a db 6e 3d c6 a5 3b bd
       -0.0038940907 -0.01444757 0.05831448 -0.04581239
000340 a0 c1 27 3d d8 79 85 3e b8 a9 0c 3d 1c a2 66 bd
       0.04095614 0.26069522 0.034341544 -0.056306943
000350 c2 09 bb bd 6a f7 3a 3c 09 c8 4e be c0 b5 c3 3c
       -0.091327205 0.011411527 -0.20193495 0.023890376
000360 48 5c 53 bc 4b 16 41 3e 8c 38 6b 3d 4c f6 b0 3c
       -0.0129004195 0.1885616 0.057426974 0.021601819
000370 00 bc 54 be df fe b4 ba e6 d2 59 bd 5d ac f8 bd
       -0.20774841 -0.0013808868 -0.053179644 -0.12142251
000380 40 0a c4 bc 99 2c 9d be 0a 2f 3a 3d b5 f8 6c 3b
       -0.023930669 -0.30698088 0.045455016 0.0036158983
000390 94 96 3f be 2a db 84 bd e8 b7 40 3e c0 45 8c bc
       -0.18709785 -0.06487115 0.18820155 -0.017123103
0003a0 bf 50 b7 3c 5c a9 b4 bc c4 50 a3 bc cb 08 14 3c
       0.02237737 -0.022053413 -0.019935973 0.0090352995
0003b0 56 bb 56 be fc 13 cd bc 50 8a a9 be 7f b9 54 3c
       -0.209699 -0.025033943 -0.33113337 0.012983679
0003c0 9d 12 08 3c bc 4c 97 3e b9 97 7d be bc 69 2d 3c
       0.008305219 0.2955073 -0.24764909 0.010584291
0003d0 18 40 3c 3e a1 e9 50 be 9b 0c a5 3c 38 b9 7d bc
       0.18383825 -0.20401622 0.020147612 -0.015486054
0003e0 fd 64 b7 bc 60 c9 03 bd b4 36 5f bd e8 56 ae bc
       -0.022387022 -0.032174468 -0.05449553 -0.021281675
0003f0 40 27 aa 3b 38 7e 76 bd 57 ca 7f bd 00 f4 db 3b
       0.0051926672 -0.060178965 -0.062448826 0.0067124367

fc2.bias f4 [256]
000000 57 f4 02 3d d9 48 84 3f ce f4 a1 be 04 19 62 3d
       0.031971302 1.0334731 -0.31632084 0.055199638
000010 db 07 e3 3c 6b b8 bc bc 64 ff 6c 3f d4 02 da bd
       0.027713707 -0.023037156 0.92577195 -0.10645071
000020 1c 60 9f be 71 36 0d 3f d0 e3 95 bc e3 4a 3a bc
       -0.31128013 0.55161196 -0.018297106 -0.011370393
000030 b2 bd 08 bd 64 5b 4f bd d5 cd a1 3f 18 71 bc 3e
       -0.033384033 -0.050624266 1.264094 0.36805034
000040 7c ff a8 3f 7c 8d 01 3e 53 0c 1f bf 4c 3d d0 bc
       1.3202968 0.12651628 -0.6212818 -0.025419854
000050 ea 32 49 3e 47 8a 7f bc 49 12 0b be 47 03 16 bf
       0.19648328 -0.015596933 -0.13581194 -0.5859875
000060 53 56 1c 3e ad 8c b8 bd 56 6d 81 bd 48 c3 a2 bb
       0.15267305 -0.09011207 -0.06319682 -0.004967127
000070 77 bf b6 bb 66 40 8c 3e 99 55 4b 3e 3d 22 ed 3e
       -0.0055770236 0.27392882 0.19856872 0.46315184
000080 51 6d d0 be c5 f2 54 3e a0 b8 22 bf 0e 69 ff bc
       -0.40708402 0.20795734 -0.63562965 -0.031178024
000090 e1 06 ed bc 9c 1f a4 bd d3 66 1f 3e b1 c8 f7 bd
       -0.028933944 -0.080138415 0.15566568 -0.12098826
0000a0 ca 0a 83 3f b5 9a c6 bc 4b f5 39 3e 33 fa 8b bd
       1.0237668 -0.024243692 0.18159978 -0.06834831
0000b0 f9 2a c4 3e af 4f 6b bb aa 4f c2 be 5d 73 7f 3e
       0.38314036 -0.003590565 -0.37951404 0.24946351
0000c0 eb b4 08 3d 8f 5b cf bc 64 9f e1 bb 7c 4c 83 be
       0.03337566 -0.025312213 -0.006885456 -0.2564429
0000d0 6e 05 e3 bd 54 77 ae bd e7 7a 5f bf 6f aa c5 be
       -0.1108502 -0.08518854 -0.8729691 -0.38606593
0000e0 55 d4 68 bd bb c6 f4 bd 19 39 df bd ea 50 78 3c
       -0.05684312 -0.11951967 -0.108995624 0.01515601
0000f0 51 87 2b 3d bd 76 c7 be c7 8b a5 3e fe a0 11 be
       0.041877095 -0.38957778 0.32333204 -0.1422157
000100 2c 8c 73 bc 7b 8e d0 bd b4 ef 63 3f 8d fa da 3c
       -0.014864963 -0.10183426 0.8903763 0.0267308
000110 69 85 de 3d d8 79 f1 bc 8a 48 88 3e dc 51 c7 3e
       0.1086529 -0.029477045 0.26617843 0.3892964
000120 b2 9d 01 bd 5e a9 87 bd 57 4a f0 3c 49 da 48 3e
       -0.03164453 -0.06624101 0.029332323 0.19614519
000130 08 f6 fc bd 50 73 93 bd 1b 32 8a bd 2f ba 15 bf
       -0.12351614 -0.071997285 -0.06747838 -0.5848722
000140 49 75 49 3f 82 4e 43 bf 6a 87 98 3f d5 93 19 3b
       0.7869459 -0.7629167 1.1916325 0.0023434062
000150 09 ba 6c 3c a0 56 a4 bd 5f 37 80 3f 1b 9d 89 be
       0.014448651 -0.08024335 1.0016898 -0.26877674
000160 5e 15 8d bd 92 7d 78 bf b6 96 8b be c6 84 9d bd
       -0.06888841 -0.97066605 -0.2726342 -0.0769134
000170 fa 61 18 3e d0 9d 93 bb a6 0a 90 bd d7 79 a8 be
       0.14881125 -0.0045048967 -0.07033281 -0.32905456
000180 ef 0b 25 bf b5 13 4b bd 47 0c 55 bc 32 f9 bb bd
       -0.64471334 -0.04957934 -0.013003415 -0.091783896
000190 17 55 c8 3b 4d c9 06 be e2 fb b1 3c 85 47 b7 bd
       0.006113659 -0.13162728 0.021726552 -0.08949188
0001a0 49 a9 db be 25 d6 90 bc eb ca 0c 3d 58 bc 86 bd
       -0.42902592 -0.017680237 0.034373205 -0.065788925
0001b0 c4 f4 2d bd b5 b1 71 bf 78 35 af 3e ee 74 a8 be
       -0.042469755 -0.94411784 0.3422048 -0.3290171
0001c0 4d 9e 52 3e b5 1e 95 bd af 84 d8 be 91 6d 2c 3f
       0.205682 -0.072812475 -0.4228873 0.67354685
0001d0 13 ad f6 bc 25 bd 87 bd e2 d3 51 3f f7 21 05 bc
       -0.030111825 -0.06627873 0.8196393 -0.008125774
0001e0 7c 3b 99 bd c2 69 69 bd 19 09 dd 3e 2a b5 43 bd
       -0.07482049 -0.056985624 0.43171003 -0.047780193
0001f0 7d 3f 83 3f 58 ba ba 3e 94 21 ea 3d 7b fd 00 bc
       1.025375 0.36470294 0.11432186 -0.007872934
000200 bc 7d 72 be 2e a8 dd 3e c2 3a 0a be 63 4f 82 3a
       -0.23680776 0.43292373 -0.13498977 0.0009941872
000210 13 3b 8e bd c5 9d 22 bd a5 15 51 bd 3f e2 62 3f
       -0.06944861 -0.039701242 -0.051046032 0.88626474
000220 45 2f 06 bf 5f 43 d9 bb 7f a5 75 3c c4 2d 6f bd
       -0.5241588 -0.0066303457 0.014993071 -0.058393255
000230 d4 c5 0d 3f 87 8d 91 bd 78 25 d8 bb ab 0c 0d be
       0.55379987 -0.07107072 -0.0065962635 -0.13774364
000240 f5 49 98 bd 4b a0 a2 bd f7 d5 3d 3d fc 28 49 bd
       -0.07435981 -0.0794073 0.04634663 -0.04911135
000250 74 6e 85 bc 84 70 a0 be 35 45 64 bd 82 fb 25 be
       -0.01628802 -0.31335843 -0.055730063 -0.16209224
000260 d1 d7 1a 3f 26 4e 56 be e2 3f 83 3e 68 dc c6 bb
       0.6048556 -0.20928249 0.25634676 -0.006068755
000270 13 73 06 bd 6d c9 50 bd f7 15 e8 3d 74 7f 70 bd
       -0.032824587 -0.050973345 0.113323145 -0.0587153
000280 8c f0 8b 3f fe 4f 38 3f 6a 9f 18 be 51 02 a6 bf
       1.0932784 0.7199706 -0.14904562 -1.2969457
000290 02 04 2c be f4 de 7f bd fa 51 06 3f f3 ad b7 bd
       -0.16798404 -0.062468484 0.52468836 -0.08968725
0002a0 e2 a2 e9 3e e0 7a 83 3f f3 ab c6 bc 19 4e eb bc
       0.45632082 1.0271873 -0.024251914 -0.028723763
0002b0 5e c1 11 be 4a de 15 bf 8a 04 83 be 43 16 38 bc
       -0.1423392 -0.5854231 -0.255894 -0.011235776
0002c0 ab 95 df 3b e8 04 4d 3f fa 6e 80 be 51 36 a5 3c
       0.0068232617 0.8008561 -0.25084668 0.020167502
0002d0 e7 85 00 bb ae e4 b4 3c 56 23 e6 bc a9 36 72 bd
       -0.0019611062 0.0220817 -0.028093021 -0.05913416
0002e0 60 6d 08 be 5c 3b 97 3c a9 c7 94 bd 65 bf 93 bd
       -0.13322973 0.018460922 -0.07264645 -0.0721424
0002f0 e7 90 b4 bc de 97 7c 3d c9 27 8a 3f fc a3 8a 3f
       -0.022041751 0.06166827 1.0793391 1.0831294
000300 7b c0 d7 be a5 4d a4 3e 92 30 20 bd e9 93 23 3f
       -0.42139038 0.32090488 -0.03910882 0.6389757
000310 e7 2a 45 3f 66 e7 3f bc 5f 45 05 bd 1c de c2 bd
       0.7701859 -0.0117128845 -0.03253686 -0.0951502
000320 e4 60 57 3e b9 a4 1d bd 30 5b d3 3d 54 b9 84 bd
       0.21033055 -0.03848717 0.10320127 -0.06480661
000330 1f 06 18 bf de 4c 94 3e 7e 36 36 3e b2 13 a8 be
       -0.5938434 0.28964895 0.17794225 -0.32827526
000340 2d 81 61 be 8f 70 18 bd d3 28 df bc ee 75 04 be
       -0.22021933 -0.03721672 -0.027241146 -0.12935612
000350 a8 2a 8e bd 0d 4b 81 be 9e aa 7c 3f 96 65 b5 bf
       -0.0694173 -0.25252572 0.9869784 -1.4171627
000360 f1 04 05 bf 55 5b f1 bd d8 83 20 bd 51 07 b4 3c
       -0.51960665 -0.11784998 -0.039188236 0.021976145
000370 16 fb 89 3d 65 50 c7 be 6d 75 c4 bd fe ea 5b 3f
       0.06737344 -0.38928524 -0.0959271 0.85905445
000380 ac 36 96 bd fe b5 9a bd 93 e8 9b bf 75 b4 4e be
       -0.073346466 -0.075542435 -1.2180351 -0.20186026
000390 e4 e1 fa 3c bc c8 9f bd 14 c0 a4 bc 53 32 1d bd
       0.030625291 -0.07801959 -0.020111121 -0.03837807
0003a0 40 30 86 bd bc 56 34 bd 15 1b 9a bd e3 d5 5c bd
       -0.06552172 -0.04402803 -0.07524697 -0.053914916
0003b0 fb 71 4a 3f 27 f2 8b be f7 42 7e 3e ea d5 f2 be
       0.7908017 -0.27333185 0.24830233 -0.47428828
0003c0 49 1b 80 bd a0 0a 66 bd 9c f2 56 3d 73 4c 29 3f
       -0.06255204 -0.056162477 0.052477464 0.6613228
0003d0 cb 94 8e bd 9f 45 a4 bd f2 68 8f bd 2a 41 70 bd
       -0.06961974 -0.08021092 -0.070024386 -0.058655895
0003e0 77 7f 6a bd 02 0a 8e bd 1a d0 c1 bc a1 99 94 bd
       -0.057250466 -0.069355026 -0.0236588 -0.07255865
0003f0 71 7e aa 3d 46 19 6f be cb fd d8 3e 6b 9d 1b bd
       0.08324898 -0.23349485 0.4238113 -0.037991922

fc_mean.weight f4 [2, 256]
000000 fa 5c c1 3e 9f 20 1c 3e 9d fb 00 bf 42 38 2a 3e
       0.37766248 0.15246819 -0.5038393 0.16623023
000010 6f 86 1f bc e5 69 e4 3a ad ad a7 bd b8 84 7f 3f
       -0.009736641 0.0017426579 -0.08187423 0.9981189
000020 b0 a1 5e 3e cb c0 b1 3d ee 6d c7 bb 12 00 9a bd
       0.21741366 0.086793505 -0.0060861027 -0.07519545
000030 47 31 c2 3c f2 a7 9d 3c 1d 63 4e be 88 c3 ca be
       0.023705138 0.019245122 -0.20154996 -0.39602304
000040 b9 0b 53 be cc 79 ba 3c 25 7d c9 be c1 b2 a3 bc
       -0.2060994 0.022763155 -0.3935329 -0.019982697
000050 6d 7e ad 3e de f3 5d 3d c2 d2 9e 3e 0b 13 f6 3e
       0.33885518 0.054187648 0.3102017 0.48061404
000060 c2 24 37 3d 9b 48 d7 3c 8f 22 82 bb 28 e1 33 3d
       0.04471279 0.026279738 -0.003971405 0.043915898
000070 26 44 ac bc 2d 97 51 3e dc db fe be 7c d1 fb 3e
       -0.02102859 0.20467825 -0.49777114 0.4918326
000080 66 ac 41 3d bf f1 78 3e 18 b0 53 bb bf a5 96 bc
       0.047283553 0.24310969 -0.0032301005 -0.01838958
000090 e1 30 94 bd 28 65 fc 3b d6 4b 2f be 59 e1 04 bf
       -0.072358854 0.0077024885 -0.17118773 -0.51906353
0000a0 3e 5a dd bd a5 13 f6 3c 0e 8c 81 be ad ea 03 3c
       -0.10808228 0.030038664 -0.25302166 0.008051557
0000b0 cf e2 31 3e f4 3d 94 3d c8 54 7d bd d7 76 a8 3e
       0.17371677 0.07238379 -0.06184843 0.32903168
0000c0 78 cf 42 3b a9 1d 6e bd 7f e2 7f be b5 4e 39 3e
       0.0029725712 -0.058133755 -0.24988745 0.1809643
0000d0 0b ef b4 3b 8c a1 9f 3c 50 ef 73 3b 2c bd c7 3e
       0.00552166 0.019486211 0.0037221499 0.39011514
0000e0 6b d3 1a bd c5 d9 36 3e 03 b3 9b bd 0d 37 b6 bd
       -0.03779928 0.1785651 -0.07602503 -0.08897219
0000f0 a7 d8 15 be 8f 92 7d be 87 70 cf 3c 3b 2f 87 3e
       -0.14633428 -0.24762939 0.025322212 0.2640322
000100 99 25 f5 3b 66 65 12 bd c7 64 16 3e ee 68 bb bd
       0.0074812886 -0.035741232 0.14686881 -0.09150873
000110 9a 58 d0 3d 19 bc 77 bd 61 fa 64 3e 6a 02 41 bd
       0.101731494 -0.06048212 0.22361137 -0.047121443
000120 96 e0 9c bd 0b c9 d4 3c ef 7f 8b bd bb 29 a2 bd
       -0.07660024 0.025974771 -0.06811511 -0.07918116
000130 61 81 a8 ba 38 5a 83 bd dc 25 48 bd 5b 53 24 3d
       -0.0012855941 -0.06413692 -0.04886423 0.040118556
000140 d6 2a 33 bd 8c 16 c0 3d 8e a6 a2 be 93 c6 ce 3a
       -0.043742023 0.093793005 -0.31767696 0.0015775732
000150 48 b0 26 3d fd 51 44 3d 79 86 bf be 00 f8 7c 3f
       0.04069546 0.047929753 -0.37407282 0.9881592
000160 38 06 37 bd 3e 5d b6 3d 2c 9f f5 bd ff e2 8d 3c
       -0.044683665 0.08904503 -0.1199325 0.017320154
000170 28 72 da bd 24 43 67 3c f3 b3 72 3e 7a c2 ba be
       -0.10666305 0.014115129 0.23701458 -0.364765
000180 58 5a ae 3d a0 e9 1e be 8e f8 94 bc 6e 5e 00 3d
       0.085133255 -0.15518808 -0.018184926 0.031340055
000190 fd 85 27 3d 43 50 cf bd 9e c2 6f bd 33 1b 93 3c
       0.040899266 -0.101227306 -0.05853521 0.017957306
0001a0 10 ed 7f be c7 6f 2e 3b ca a4 81 3d d9 45 42 bc
       -0.24992776 0.0026616917 0.06330259 -0.011857473
0001b0 43 1c a4 38 4a 61 2c 3c d9 a4 4a 3e 24 9b b8 bd
       7.8253935e-05 0.010521242 0.19789447 -0.09013966
0001c0 c7 24 ed bc bf 77 3b bd cd a4 42 3e d4 e7 b0 bc
       -0.0289482 -0.045768496 0.19008179 -0.02159492
0001d0 3f 6b e2 bc 56 84 f7 3c 1c 8a 01 bd 09 8b a6 3c
       -0.02763903 0.03021447 -0.031625852 0.020329969
0001e0 95 76 8b b9 aa b6 7e bd 75 88 81 3e 0a fc 85 bc
       -0.00026600496 -0.06218592 0.2529942 -0.016355533
0001f0 54 55 f1 bd 42 8c 18 3f 1e 9b 8d 3e ac ce 1a 3e
       -0.11783853 0.59589016 0.27657408 0.15117902
000200 dc 69 8c be 1f 61 d8 bc 41 7e 09 3b 05 58 8b 3d
       -0.27424514 -0.026413498 0.0020979794 0.06803898
000210 4d cb 36 3d 0c 7d 61 3b d2 62 0c 3d 6a b6 28 bd
       0.044627476 0.003440681 0.03427393 -0.04118959
000220 fc 6a 18 be 7e 2f 5e bb 12 0f df bc fc 04 08 3c
       -0.14884561 -0.003390282 -0.027228866 0.00830197
000230 cc 28 d3 be c1 e7 5e bd 71 3d 94 bb d8 04 b0 bd
       -0.41242063 -0.054420236 -0.004523926 -0.08594674
000240 db 2f 17 3c df 44 40 3d da c3 89 be bf ff bb bd
       0.009227718 0.04694068 -0.26907235 -0.09179639
000250 7d f6 b4 bc d7 f3 ea 3c ae a5 0d bd f2 c4 5e 3e
       -0.022090191 0.028680725 -0.034581833 0.21754816
000260 ad c1 2f be aa 72 9c 3e 01 9c cd be 2f 64 c8 bc
       -0.17163725 0.30556232 -0.40158084 -0.024461834
000270 40 57 e3 bc 1d 58 48 3d 2c 80 a7 be d6 dd 49 bd
       -0.027751565 0.048912156 -0.32714975 -0.049283825
000280 cc ba dc be 07 77 b8 3d 46 a3 ac 3c 12 1f 00 3e
       -0.43111265 0.09007078 0.021073949 0.12511852
000290 66 dd 01 bd 21 18 04 bd e7 88 9e be 3c 22 53 be
       -0.031705283 -0.032249574 -0.30963823 -0.20618528
0002a0 78 42 22 3d e8 c4 4d bd 38 6f 27 bd 78 8f 00 3d
       0.03961417 -0.050236613 -0.04087755 0.031386822
0002b0 04 a5 a8 bb cd cb 4b 3e e5 ba e4 3d 9e 27 81 3a
       -0.0051466245 0.19901963 0.1116846 0.0009853726
0002c0 ba 3b d7 be bc f4 4a be 5a 52 86 bd 6f 6c 73 3d
       -0.42037755 -0.19819921 -0.06558676 0.059429582
0002d0 29 c2 d3 bc d4 31 4f bd 45 58 03 bd c7 af 64 bd
       -0.025849419 -0.05058463 -0.032066602 -0.055831697
0002e0 62 3e f4 3d 44 85 48 bd f5 ac ef 3b 43 ef 13 bd
       0.11925961 -0.048955217 0.0073143193 -0.03611685
0002f0 1d 2d e2 3b ba 10 95 bd 59 db 41 be 9c 46 03 bf
       0.0069023506 -0.07278581 -0.1893133 -0.51279616
000300 22 38 7e be 7f 68 46 3d d1 0e 8a bc 1f dc bd 3e
       -0.248261 0.0484395 -0.016852768 0.37082002
000310 9c b1 89 be 2b 1d 08 3d 8c 3c 09 bd 20 b7 21 3d
       -0.26893318 0.03323094 -0.033505008 0.039481282
000320 58 46 63 be 2e c5 1b 3e ea 02 b4 bd 45 d0 85 bb
       -0.22194803 0.15211937 -0.08789618 -0.0040836656
000330 df 55 e9 3e 45 ac 57 3e 7f c7 04 3f 18 0e 85 be
       0.45573327 0.2106181 0.51866907 -0.25987315
000340 a6 fa cf bd a2 2a 90 bd 0a 82 c0 bb 16 17 7f bd
       -0.10155229 -0.070393816 -0.005874877 -0.062277876
000350 25 7c 2e bd 3c 67 cb be 2f ef ab 3e a7 f2 4d 3e
       -0.042598862 -0.397272 0.3358092 0.20112096
000360 ae 4f f1 3e b8 5c 19 3e fe 3a 62 3c 79 ea cd 3c
       0.47131103 0.14976776 0.01380801 0.02513622
000370 b5 98 cc 3d 82 f6 7f bd cf d0 73 3d 4b 8b 93 bc
       0.09990064 -0.062490948 0.059525307 -0.018010756
000380 b8 68 57 3d b5 db ed bc 0c 2d a7 be c7 80 47 3e
       0.052590102 -0.029035429 -0.32651556 0.19482718
000390 03 14 89 bc aa cc 0f bd a9 cb df bc bc a1 f4 3c
       -0.016733175 -0.035107292 -0.027318792 0.029862277
0003a0 9a e9 25 3c 59 53 0c 3c cc a3 3c 3d f1 f1 0f bc
       0.010126496 0.0085647935 0.046054646 -0.008785711
0003b0 cf 01 05 be 17 f2 71 bd 46 9f d1 3e d7 d2 20 3e
       -0.12988971 -0.059068765 0.40941828 0.15705429
0003c0 1f b1 6e 3d 0b 11 7b bd fd f6 91 3d a5 c4 c4 bb
       0.058274385 -0.06129555 0.071271874 -0.006004887
0003d0 12 e5 4f bd 6a e3 e3 3c fc 6d d5 3c 14 d5 50 3d
       -0.050755568 0.0278184 0.026053421 0.050984457
0003e0 b6 36 34 ba 0d fc da 3e 83 6a 43 bd fa 4b 10 be
       -0.00068746076 0.42770424 -0.047709 -0.14091483
0003f0 0b 34 0f 3e 9a d8 40 3e 50 35 b3 bc ce 9b fa 3c
       0.13984697 0.18832627 -0.021876007 0.030591872

fc_mean.bias f4 [2]
000000 c9 95 10 be 09 15 fb 3d
       -0.14119639 0.122598715

fc_logstd.weight f4 [2, 256]
000000 e5 8c e4 3b 3e de 05 bc 54 27 5a 3b 9a 2c d9 3c
       0.0069748037 -0.008170662 0.0033287602 0.026510525
000010 a8 2b 3a bd 08 65 1f 3d 4d 31 80 3c 2d 49 11 3d
       -0.04545179 0.03891471 0.015648508 0.035470176
000020 24 b9 c3 bc 83 ea 01 3c 5b f2 6d bd a5 c6 71 3c
       -0.023891993 0.007929447 -0.058092456 0.014756833
000030 6b 23 b4 3b fb 05 55 bc 1e e3 c4 3b 1f c0 ff bb
       0.005497386 -0.013001914 0.00600852 -0.007804885
000040 b9 50 39 3b ab b5 a1 3b e0 7e 20 bc 44 61 de bc
       0.0028276874 0.0049349866 -0.009795874 -0.02714599
000050 00 4e 72 3c 38 b0 a8 3c fe ef cc bc af 55 e3 3c
       0.014789104 0.02059184 -0.025016781 0.027750818
000060 0c a2 00 3c 16 93 3f 3b 74 85 9a bc 63 5f 03 3d
       0.007851135 0.0029231957 -0.018862464 0.03207339
000070 24 cd e9 3b d4 21 67 3c 27 09 71 bd 0a 01 c4 bc
       0.0071350504 0.014107186 -0.05884662 -0.023926277
000080 e6 92 49 bc 34 91 31 3b 1d f9 95 3b 03 d1 ea bb
       -0.01230309 0.0027094604 0.0045768158 -0.0071660294
000090 60 09 e0 bc 12 17 96 39 7a 7f e6 bb f0 45 52 3d
       -0.02734822 0.00028627418 -0.0070342394 0.05133623
0000a0 7d 43 9b 3b 1e cf 47 bc 2b 96 a2 3c 75 bd 1d bc
       0.00473827 -0.012195377 0.019846996 -0.00962769
0000b0 e8 9e c2 ba 92 92 ce 3b 3e 26 8b 3b 7d 45 87 bc
       -0.0014848383 0.0063040936 0.004246502 -0.016512627
0000c0 4b a0 1a bc 1c 9a 24 3c 1d 02 01 3d 71 9c 00 3d
       -0.009437631 0.010046508 0.031496156 0.031399194
0000d0 3b c7 8e bb 8b 25 03 bc 78 3c dd b9 b9 c9 64 3c
       -0.004357246 -0.008004556 -0.00042197458 0.01396411
0000e0 a7 15 87 bc 8a d0 9d 3c 4b e8 64 3d 36 07 18 bb
       -0.016489817 0.019264478 0.055885594 -0.0023197657
0000f0 0e 56 81 3c c3 04 bc 3c 91 29 80 bc 93 26 b8 bc
       0.015788104 0.02295149 -0.01564482 -0.022479331
000100 9f ff 77 3c e7 02 90 3c 63 33 5f 3b 20 82 82 3c
       0.015136628 0.017579509 0.0034057728 0.015931189
000110 3a a6 71 3c 7c a9 e0 bc 1f 80 43 3c 6e 91 86 3c
       0.014749104 -0.027424566 0.011932402 0.016426768
000120 b5 6a bf bb e2 53 93 3c 09 6a 92 3b 01 58 b9 3b
       -0.005841578 0.017984334 0.004468207 0.005656243
000130 bd 3a 6f 3c 9a 07 03 bd 1e a2 05 bd 24 e2 4a bc
       0.014601407 -0.03198967 -0.03262531 -0.012383018
000140 19 ec 9b 3a 4c c5 1b bc 79 82 dd 3b e7 7d 44 bc
       0.0011895924 -0.009507488 0.0067599383 -0.011992908
000150 66 75 d3 3a f8 0a 20 3c 89 f8 fc 3b c8 4f 09 3b
       0.001613301 0.00976824 0.0077200574 0.0020952094
000160 4b 7e 00 3c c7 42 3b 3c fb 3f 99 bc d6 79 09 3d
       0.007842611 0.011429495 -0.018707266 0.033563457
000170 95 9a a4 3b 53 81 b8 bc cb 1c da 3d 12 d3 bb 3c
       0.0050233104 -0.022522604 0.10650023 0.022927795
000180 a9 71 87 3b 8a 8f 86 3d 3d d7 33 bd 1f 26 04 3d
       0.0041334224 0.06570347 -0.04390644 0.032262918
000190 fc 5c e1 3b fe d3 4b 3c 2a 0d 87 bb 73 46 eb bc
       0.0068775397 0.01244068 -0.0041214423 -0.028720116
0001a0 39 a0 8b 3c 50 92 52 3c 5c 86 02 3c af d8 b1 3c
       0.017044174 0.012852266 0.007966604 0.021709768
0001b0 f9 57 2b 3d 78 a3 15 3c b2 1a 31 3c e0 e5 70 bc
       0.041831944 0.009133212 0.010809587 -0.014703244
0001c0 ae 0b aa 3b 8d 5a 70 3d 2f ad 71 bc d2 e0 24 bc
       0.0051893806 0.058680106 -0.014750763 -0.010063367
0001d0 c9 7d c3 3b 42 1e 77 bc 11 5d 80 bb 5c 1a 0a bc
       0.0059659225 -0.015082898 -0.0039173444 -0.008429136
0001e0 05 c6 2c 3d 08 66 16 3d 87 90 89 bc 22 24 0c 3c
       0.042181034 0.0367184 -0.016792549 0.008553537
0001f0 7b b5 65 3b 57 51 7e 3c 23 3d b5 bb 6b 4a d9 bc
       0.0035050798 0.015522323 -0.0055309697 -0.026524743
000200 ff 8b 1e bc 4a 0e 22 3a db 96 15 3d 1c ac d6 3c
       -0.009676932 0.0006181939 0.03652082 0.026205115
000210 27 d1 04 3d 1a 42 42 3d 96 c3 c0 3c 6e 4f be bc
       0.032426026 0.04742632 0.023530763 -0.023231234
000220 c5 0a 51 bc bb 70 99 3c c0 d7 4a 3d 63 ce 74 bd
       -0.012758915 0.018730512 0.04952216 -0.05976714
000230 73 70 3c bc c5 2e dc bc ec 9a 9f bc 40 dc 3d 3c
       -0.011501419 -0.02687777 -0.019483052 0.011588156
000240 fd 6d eb bc 48 d5 c8 bc b0 c1 13 3e 10 f7 57 3c
       -0.02873897 -0.024515763 0.14429355 0.013181463
000250 3e 5b dd bc 19 85 f0 3d 05 1e 32 3c e4 d3 b9 bc
       -0.027021047 0.11744136 0.010871415 -0.022684045
000260 69 03 b8 3c 47 26 8d bb 47 5d 07 bd 4c 5c 91 bb
       0.022462564 -0.0043075415 -0.03304794 -0.0044360515
000270 35 7a 21 3c 02 64 48 bb 7c 2e 86 3c db 8f e7 3c
       0.009855797 -0.0030577187 0.016379587 0.028266838
000280 4e 53 97 3c d5 57 37 b9 9c ec 5f bb 50 5d 54 3c
       0.01847234 -0.0001748496 -0.003416813 0.012961701
000290 8f 08 fa 3b a8 92 e9 bc 18 84 6d bc d9 fd d3 3c
       0.007630415 -0.028512314 -0.014496826 0.02587788
0002a0 69 f2 63 bb f4 80 53 3c 80 ab 84 3c 43 e7 82 3c
       -0.003478194 0.012909163 0.016195059 0.015979415
0002b0 f1 0d 22 bb 57 97 ab 3c cb 38 12 3c 24 ec c6 bb
       -0.0024727548 0.020946188 0.008924673 -0.0060706306
0002c0 3e a1 66 3d 53 ba 7f 3c 61 a3 39 ba c1 7b 51 bd
       0.056306116 0.015608388 -0.00070815353 -0.05114341
0002d0 c4 ba 37 3c 50 73 08 bd 3d 32 f4 3c d1 07 3d 3c
       0.011213962 -0.033313096 0.029809112 0.011537508
0002e0 d3 76 db 3c 2f 86 b5 39 23 3c 13 3b 2a bf 36 3d
       0.026790058 0.00034622985 0.0022466264 0.044615902
0002f0 82 e9 37 3d 2c cf 4a 3b a0 c6 9b 3c 7a 03 7c 3c
       0.044900425 0.0030946238 0.01901561 0.015381688
000300 cc a0 a2 3b 5b 1d f9 3a 19 3c b6 3a a2 ac df bb
       0.004963016 0.0019005941 0.0013903409 -0.0068259994
000310 e2 e2 59 3c b7 df 2d bc 31 95 a2 bc 0b ec 2b 3d
       0.013298722 -0.01061242 -0.01984653 0.041973155
000320 44 77 af 3c 7c ca bc 3c 4a 0f 38 3c 0e 3f e2 3b
       0.021419175 0.02304577 0.011234114 0.0069044894
000330 9a 15 d1 bb f8 7b 15 bd 1a 34 82 3a 9c 8c 34 3d
       -0.006380749 -0.03649518 0.000993374 0.044079408
000340 cb 0e 2c 3c 3a d8 f8 bc 2d 24 42 3c fa 8b 4e 3c
       0.010501574 -0.030376542 0.011849445 0.012606615
000350 6d f8 87 3c 55 6d 17 3d d6 2f 16 bd 2d 65 ec 3b
       0.01659795 0.0369695 -0.036666714 0.0072142095
000360 29 bc f2 bc f9 11 fc bb 27 87 ac 3c bc 99 13 3c
       -0.029630737 -0.007692572 0.02106054 0.009008821
000370 1e 7a 1f 3d fd ab f6 bc b8 b8 c4 3b 5b c6 cb 39
       0.03893482 -0.030111307 0.0060034655 0.00038866964
000380 75 42 20 3d 51 11 23 bc ea bd fd bb d7 47 3f 3d
       0.03912588 -0.009952859 -0.007743587 0.04669937
000390 c6 67 e8 3c c6 56 3a bd f1 82 42 3c 8f 4d bd 3b
       0.028369796 -0.04549291 0.011872039 0.005777068
0003a0 25 06 b5 3c 82 82 a7 bb 6f 1b f3 3a 4e 9a 0d 3d
       0.022097657 -0.0051119933 0.0018547605 0.034570985
0003b0 73 e8 70 bc ea 31 2a bc 85 d6 98 3c 6c 07 6c 3c
       -0.014703858 -0.010387877 0.018656978 0.014406066
0003c0 7e 49 09 3c b4 e0 69 bd a0 f1 ce 39 cb 85 52 bd
       0.008379338 -0.05709906 0.00039471406 -0.051397126
0003d0 0f aa 20 bd 14 6a 30 bd 0a 7e 18 bb d8 a6 24 3d
       -0.03922468 -0.043069914 -0.0023268485 0.040198177
0003e0 47 56 c7 3c bd bc 65 3c 68 22 88 bb c5 21 a6 bb
       0.024333132 0.0140220495 -0.004154492 -0.0050699436
0003f0 78 62 44 3c 5f 7f 61 3c 59 db a5 3b 10 44 05 3d
       0.011986367 0.013763278 0.0050615487 0.032535613

fc_logstd.bias f4 [2]
000000 98 fa 12 3d 8c 62 a9 3d
       0.035883516 0.082707494

fc1.weight f4 [256, 16]
000000 d4 db 1f be 93 3a 80 be 5f 0a 00 be 68 d3 73 3e
       -0.15611202 -0.2504469 -0.12503956 0.23811114
000010 ef a0 9d ba 52 80 6e 3d 32 07 fa 3d a1 85 14 be
       -0.0012026111 0.058227845 0.12208404 -0.145041
000020 dc 66 30 bd 6f 32 9f 3c fd c0 2d be c0 ec 0f be
       -0.043066844 0.019433228 -0.1696815 -0.14055157
000030 74 5d a2 bd de fb 19 3e 8b 87 33 3d fb 8e 5b 3e
       -0.07927981 0.15037486 0.043830436 0.21441261
000040 a0 45 ca 3c 08 d9 a5 3d 38 3d 70 bd 18 cc ea bd
       0.024691403 0.08098036 -0.058652133 -0.11464709
000050 98 a4 57 be 90 f1 1e be d0 4c a5 bc a6 7f 6b be
       -0.21058881 -0.15521836 -0.020178229 -0.22997913
000060 f0 58 4d 3e a8 7a 4b 3e f0 b6 03 3d 94 9c 5f 3e
       0.20053458 0.19871008 0.032156885 0.21837074
000070 d0 f1 27 3d 54 a4 3e 3e 7c 46 66 be 8c 7b 8e 3d
       0.041002095 0.18617374 -0.22487825 0.069571584
000080 ac b7 58 c0 e9 7e 56 c0 cf 5e 09 bd ef 87 cb bf
       -3.3862104 -3.351496 -0.033537682 -1.5900859
000090 f3 92 f8 bd 9e 4f a7 bf 9e c6 1e c0 72 4c 55 3f
       -0.12137403 -1.3071172 -2.4808726 0.8331977
0000a0 66 09 38 40 f1 c7 4f 40 03 ce 65 bd a5 c7 06 bc
       2.8755736 3.2465785 -0.05610467 -0.00822631
0000b0 69 c9 6f 3e b2 8e 48 3f 60 06 bd ba cb bc 85 3c
       0.23416676 0.78342736 -0.0014421456 0.016325375
0000c0 ee 90 3b 40 cf 9c 1b bf 0c b9 eb bd 00 1b dd 3f
       2.9307208 -0.60786146 -0.11509904 1.7273865
0000d0 42 65 95 3e 8a 80 bd 3f ad 44 63 3f e4 fc de 3f
       0.29178816 1.4804852 0.88776666 1.7420926
0000e0 3f 2c f5 bf 69 8d 80 c0 a6 e0 91 3e 43 da 09 be
       -1.9154128 -4.017262 0.28491706 -0.13462166
0000f0 86 35 74 bd 4d a5 88 3f 36 a7 2a 3e 25 eb 28 be
       -0.059621356 1.0675446 0.16665348 -0.1649595
000100 58 6d 34 bd d0 3f 77 bd ec 3d 39 be c0 9b a9 bc
       -0.04404959 -0.06036359 -0.18090028 -0.02070415
000110 10 1a 72 3e b0 30 55 bd 54 a4 0e 3e 20 f6 6e 3c
       0.23642755 -0.052048385 0.13929874 0.014585048
000120 e0 58 25 bd bc 45 8c bd 4c d3 2a be 02 b3 3c 3e
       -0.04036796 -0.06849238 -0.16682166 0.18427661
000130 6c e8 16 3e 38 b4 d6 bd 28 f1 de 3d dc 72 e9 bd
       0.147371 -0.10483593 0.10885841 -0.11398861
000140 12 00 79 c0 6e 1d c9 3e 72 f9 85 bc 68 9d 9d be
       -3.8906293 0.39280266 -0.016354296 -0.30784154
000150 3b 5c e1 3d ee 3b 6e be f1 c1 2b c0 cb 8f 38 c0
       0.1100392 -0.23265049 -2.6837122 -2.8837764
000160 9f 52 99 c0 65 17 65 be 03 aa 0e bc 2d ab 0d bd
       -4.7913356 -0.22372206 -0.008707526 -0.034587074
000170 fc 3e e3 3e ca 19 90 bf a0 af 51 bc 22 02 f9 3b
       0.4438399 -1.125787 -0.01279822 0.007599131
000180 61 ae 39 3f 5f 73 ec bf bb 87 97 3d 30 9d 98 bf
       0.72531706 -1.8472708 0.073989354 -1.192297
000190 b8 79 82 be 68 0e 8f bf ce 39 b5 3f 74 f7 93 bd
       -0.2548349 -1.1176271 1.4158266 -0.07224932
0001a0 13 2e 25 40 43 86 d5 3f 79 8c fc bc d0 80 0b 3c
       2.5809371 1.6681598 -0.030828701 0.008514598
0001b0 b7 2b 85 3f a7 38 0b 3f 51 1f 09 bd da 73 3b 3c
       1.0403966 0.5438332 -0.03347713 0.011441195
0001c0 76 7b 72 bf 6d 31 d5 c0 ea f3 68 3c 7a 20 59 bf
       -0.94719636 -6.6622834 0.01421831 -0.8481518
0001d0 fc c0 06 bf b6 ce c4 be bc 20 41 c0 3b e7 57 c0
       -0.5263822 -0.38438958 -3.017623 -3.3734882
0001e0 8b 24 04 41 57 42 15 c0 70 49 75 3c be 36 0e 3d
       8.258922 -2.332174 0.014971122 0.034720175
0001f0 02 bc f1 3e ca 34 ca be 04 bb 92 bd 8e 74 1c 3e
       0.4721375 -0.394934 -0.07164577 0.15278837
000200 e8 49 87 3e 59 6e 2e 3d 4b 21 8d be a1 ed 1c 3d
       0.26423573 0.042585704 -0.27564463 0.038312558
000210 4e a2 40 be a4 76 82 3e c0 9d 08 be f0 88 c9 bc
       -0.18811914 0.2548114 -0.13341427 -0.02460143
000220 da ba 8a bd 82 24 14 be 83 f1 72 be d3 a5 ac 3d
       -0.0677392 -0.14467052 -0.23724942 0.08430066
000230 c6 a8 47 be 27 86 91 3c 0b f4 35 be e7 3c 80 3e
       -0.19497976 0.017764164 -0.17768876 0.25046465
000240 14 f7 17 be 46 ad 58 3e 10 0d a8 3b 06 67 d7 3e
       -0.14840347 0.21159849 0.0051285103 0.42070788
000250 9d 06 97 be a5 7e d4 3e a4 ac 81 be 95 f0 ca 40
       -0.29497233 0.41502872 -0.25327027 6.341868
000260 fc 70 cb 40 8f 35 1a bf 5a 59 25 3c 95 da f2 3a
       6.357542 -0.60237974 0.010092104 0.0018528277
000270 3c 42 cc 3d 5e cc 19 bf f2 5c 90 3c 85 95 fd 3c
       0.09973571 -0.60077465 0.017622445 0.030955086
000280 1e e3 c6 be a0 b5 79 3d f9 08 42 3d d7 d4 46 3f
       -0.38845152 0.060964227 0.04737184 0.7766852
000290 eb e4 a9 bd 54 08 56 3f fb 9b dd bf 0f 3d 84 be
       -0.08295616 0.8360646 -1.7313226 -0.25827834
0002a0 9e a8 eb 3d a5 fc 08 c0 09 da 40 bb 71 96 f3 bb
       0.115067706 -2.1404202 -0.0029426834 -0.0074337055
0002b0 fa fe 05 bf ee 36 80 be a7 26 c1 bc d6 a7 34 3c
       -0.5234219 -0.25041908 -0.023578001 0.011026343
0002c0 9c e8 74 bd 15 b9 f4 bf 3c 63 b2 bd 73 ec d8 bd
       -0.059792146 -1.9118983 -0.08710334 -0.10591974
0002d0 c0 8c 90 3f 74 e7 12 3d ee 7e 7b bf 97 46 da bd
       1.1292953 0.035865262 -0.98240554 -0.10657995
0002e0 81 87 a0 c0 55 32 3c 3f 2f fe 0d 3e 12 fa 7a bd
       -5.016541 0.735143 0.13866495 -0.061273642
0002f0 03 7a 5a 3e 8e 6a 8c be 1b d4 af 3c cc 0d 04 3c
       0.21335606 -0.27425045 0.021463444 0.00805993
000300 40 ee 49 3c 36 11 7a 3f dc a3 07 be 8c 12 29 3f
       0.01232487 0.9768251 -0.13246101 0.66043925
000310 f9 03 f0 bd 5f 03 32 3f 93 84 ee 3f f9 b3 5c 40
       -0.11719508 0.69536394 1.8634208 3.4484847
000320 00 59 4b c0 ab 5f a4 40 70 e7 8a bd 0c ec 98 3e
       -3.1773071 5.136678 -0.067824244 0.2986759
000330 ac 78 11 be 76 5e 00 be 74 45 f3 bd bf d3 50 3e
       -0.14206189 -0.12536034 -0.118784815 0.20393275
000340 24 31 a1 3d 30 4e 69 3e 18 6c dd bd 08 c0 0b 3e
       0.07870701 0.22783732 -0.10811633 0.13647473
000350 28 2f 34 bd ba 05 66 3e 18 3c 90 3d 08 16 22 bd
       -0.043990284 0.22463122 0.07042712 -0.039571792
000360 12 a9 3d be 7c 7c 05 3e 2c eb e9 bd f0 cd 7e bd
       -0.18521526 0.13035768 -0.114218086 -0.062208116
000370 28 c0 d0 3d 86 4a 7a be f0 2f 17 3e da 9f 3b 3e
       0.10192901 -0.24442491 0.1476438 0.18322697
000380 7d b2 22 3e 9e f6 5d bf b3 13 ab bd 54 a1 17 bf
       0.158884 -0.8670443 -0.08353367 -0.5923054
000390 b4 38 14 be 03 b0 fa be de 35 26 3f 2b 43 d9 3d
       -0.14474756 -0.4896241 0.64925945 0.106085144
0003a0 20 ef 86 3f ac 09 15 bf 13 ae d0 bc af 68 b9 3c
       1.0541725 -0.58217883 -0.02547363 0.022632925
0003b0 a9 da cb bd af 2a 08 3e eb f5 cb bd e1 53 21 bd
       -0.099538155 0.13297532 -0.099590145 -0.039386634
0003c0 8e c1 cb 3f df f5 d4 bf ac 6a c0 bd 00 f6 d1 bf
       1.5918443 -1.6637534 -0.09395346 -1.6403198
0003d0 4b 75 68 be fe bf d5 bf 7e 70 13 40 e4 24 7e be
       -0.22700994 -1.6699216 2.303741 -0.2481876
0003e0 3d 31 ee 3f 0b 33 5c c0 58 dc d8 bd be bb 5a bd
       1.8608776 -3.4406154 -0.10588902 -0.0534017
0003f0 f4 41 b6 bd 34 08 4d 3e 0b ab 36 be a7 a4 63 3e
       -0.08899298 0.2002266 -0.17838685 0.22230779
