fw_flightcontrol/models/icinco/sac/actreg/caps/sac_bohn_caps_nohist_noatmo_1_31-05_14:59:32.pt (torch, 853595 bytes, 20 tensors)

action_scale f4 [1, 2]
000000 00 00 80 3f 00 00 80 3f
       1.0 1.0

action_bias f4 [1, 2]
000000 00 00 00 00 00 00 00 00
       0.0 0.0

fc1.weight f4 [256, 14]
000000 d2 03 0d 3e bd 96 f1 bd 77 38 54 bd 6d 74 00 3e
       0.13770989 -0.11796329 -0.05181166 0.12544413
000010 f9 d2 80 be c0 20 24 3e 3a 35 61 bd 12 3b 0b 3e
       -0.2516096 0.16028118 -0.0549824 0.13596752
000020 a3 2e 18 3d 34 0a 06 bd 54 d0 97 3d b1 03 58 3c
       0.03715385 -0.032724574 0.07412782 0.013184474
000030 73 e8 c7 3d a1 4d d5 bd ca f1 3a 3f 1d e5 f1 bf
       0.09761133 -0.10415197 0.7302519 -1.8898045
000040 9b cc b9 3b 95 5b 6a be df a0 11 3d 39 b1 47 be
       0.005670143 -0.22886498 0.03555381 -0.19501199
000050 24 e3 b6 40 04 23 d5 bf 30 8b 06 c0 19 ad 88 40
       5.715227 -1.6651311 -2.1022453 4.27113
000060 66 97 d2 bc f0 97 35 bc 7d 7c 4d 3f 5a b3 5b 3f
       -0.025706958 -0.011083588 0.8026808 0.85820544
000070 dd 12 ba 3d 8b 8e ec 3e 39 8f fa 3c cd c7 18 3e
       0.09085629 0.46202502 0.030585872 0.14919968
000080 19 5c c3 3e 74 a6 2d 3d b7 32 e7 be b7 ed 0c c1
       0.38156202 0.04239507 -0.4515588 -8.808036
000090 0e 2f c7 c0 e9 0d d7 3e 21 a0 8c 3c bb 6b ee bc
       -6.224494 0.420028 0.0171662 -0.029104104
0000a0 01 23 18 be 71 de 87 3e 6d 3c 4d 3e ca 68 4f 3b
       -0.14857103 0.26536897 0.20042582 0.0031648153
0000b0 52 2d 10 be 5c ac 0c 3e c0 45 11 be 7f fa a0 3d
       -0.14079788 0.13737625 -0.14186764 0.07860278
0000c0 32 0d 9e bd b4 08 f0 bc df 8d 83 be c5 7b 02 be
       -0.077173606 -0.029301025 -0.25694177 -0.12742527
0000d0 71 81 14 3e 71 0c 85 bd 14 4c 88 3e 08 60 5b 3e
       0.14502503 -0.06496514 0.26620543 0.21423352
0000e0 cd fb 83 bf 12 a6 cc 3f 75 ae 8f bc 73 46 1c 3f
       -1.0311219 1.5988181 -0.017539242 0.61044997
0000f0 56 a5 5d bd 2a 2e 50 3f 40 ef d8 3e 6c 7e b3 3f
       -0.054112755 0.8132044 0.42370033 1.4022956
000100 ad 79 bd c0 d2 90 74 c0 a2 b4 ce bc 25 d1 28 3c
       -5.921103 -3.8213391 -0.025232617 0.01030377
000110 66 38 84 be d4 39 e6 3e 5b 17 b1 3e c0 9a 5a bf
       -0.2582428 0.44965994 0.3458813 -0.8539238
000120 94 a8 d9 bb 48 1d 09 3f 60 c9 2d bc 35 3e 04 3d
       -0.0066424105 0.53560305 -0.010607094 0.032285888
000130 13 89 c1 bf 16 40 3e 3f 4a d3 03 3f eb 5c bb 3e
       -1.5119957 0.7431654 0.51494277 0.36594328
000140 d9 e3 82 3d 58 81 68 3c 26 b1 03 be d1 47 3d be
       0.06391115 0.014190994 -0.12860546 -0.18484427
000150 78 bc 20 3e c8 7e 1e be e7 4a 73 be 28 2c 47 3e
       0.15696895 -0.1547805 -0.23759042 0.19450438
000160 0c 53 22 bd 46 ee 19 3e 04 f7 af 3d f6 38 4d be
       -0.03962998 0.150323 0.08592036 -0.2004126
000170 7c ec 5b 3d cb 78 83 3d e7 3d 37 be f8 d9 01 be
       0.053692326 0.06419524 -0.17894708 -0.12680805
000180 24 a2 ba 3d f9 15 44 3d dd 84 16 bf 91 ac b6 bf
       0.09112957 0.047872517 -0.58796483 -1.4271413
000190 e7 12 9a ba a7 4b 5b bd 1b bc db bb a3 d8 f8 bd
       -0.0011754901 -0.053538945 -0.0067057735 -0.12150695
0001a0 ca 7d 72 c0 b2 f6 3a c0 f2 95 73 3f 5b bb 54 bf
       -3.7889276 -2.921307 0.95150673 -0.8309838
0001b0 72 37 43 3b f0 32 46 3a d4 74 ef 3e 7c b6 07 be
       0.0029787687 0.0007560691 0.4676882 -0.13253206
0001c0 af 0a af 40 63 cc 04 bf f5 cf 24 3c 08 8c 49 3e
       5.470054 -0.5187437 0.010059346 0.19682324
0001d0 0a 0a 04 bd 7a 24 17 3e 33 d6 b8 3f f0 2c 60 bf
       -0.032236136 0.14760008 1.4440368 -0.8756857
0001e0 c1 29 8e be bc 18 e9 bf d9 c5 60 3c ce fa 1b 3c
       -0.2776623 -1.8210673 0.013719046 0.009520246
0001f0 89 d0 40 3e f8 e3 05 bf 53 61 9f bf 01 c1 da 3f
       0.1882955 -0.5230098 -1.2451576 1.709015
000200 77 9e bd bd 6d 1f 9c 3f b8 5b a0 3e d6 33 60 3f
       -0.092587404 1.219709 0.31319976 0.87579095
000210 c6 d3 8f 3e e4 c2 6a be ac 28 ad bf ab 8f 24 40
       0.28091258 -0.22925907 -1.3528037 2.5712688
000220 29 48 04 3d ec a4 3e bc c9 37 76 bf 1a 0a 4d 3e
       0.03229538 -0.011636 -0.9617887 0.20023385
000230 b9 ce fa bd 77 f2 fe bc 01 c0 27 be 19 40 c8 3d
       -0.122464605 -0.031121476 -0.16381837 0.09777851
000240 02 66 a9 3d 12 e1 77 bd 8b 5e d2 3d 3f e5 b0 3d
       0.082714096 -0.06051738 0.10271939 0.08637475
000250 ed 16 27 3e 17 4e 38 3e a6 5c b9 bd a9 b1 85 3e
       0.16317339 0.17998539 -0.090508744 0.26112106
000260 af 1c fd bc 36 70 16 bc 8f 28 81 be 59 24 30 be
       -0.030897466 -0.009182027 -0.25226256 -0.17201366
000270 d7 e1 1f be 55 1d ea bd 30 93 42 3e 2b dd b2 bd
       -0.15613495 -0.11431376 0.1900146 -0.08733591
000280 37 83 4c be df 97 d2 3d c1 3e af 3d cf 41 31 3e
       -0.1997193 0.10282873 0.08556891 0.1731026
000290 94 9e 0d be 0a 59 6d 3d 73 43 c7 bd ad f3 75 bd
       -0.13830024 0.057946242 -0.09729662 -0.06004684
0002a0 d8 18 5a be 13 76 f9 bd 67 a1 a7 bd 0e 11 ea 3d
       -0.2129854 -0.12180724 -0.08185082 0.11429034
0002b0 91 fd 47 3d 67 34 87 3d 17 94 88 3e a7 5d 85 3e
       0.048825804 0.06601792 0.26675484 0.26048014
0002c0 db a8 3a 3e d0 6f 0b 3c 8d 53 3d be 4b e1 55 3e
       0.18228476 0.008510545 -0.18488903 0.20886724
0002d0 5a df 88 bd ce 00 b1 bc 6b c5 6b be 26 3c 58 bd
       -0.06683226 -0.021606829 -0.23024528 -0.052791737
0002e0 72 84 30 be 68 7b 7b 3e 26 99 6c be 49 53 55 be
       -0.17238024 0.24558794 -0.23105296 -0.20832552
0002f0 26 b0 14 bc 07 fb 13 be 3d d9 c3 3d 7e b0 d2 bd
       -0.0090752 -0.14451228 0.09562919 -0.102875695
000300 c0 8a 00 be 60 01 78 3c f6 1c 46 3e 85 82 40 be
       -0.12552929 0.015137047 0.19346985 -0.18799789
000310 c7 15 b8 bf d1 4d a4 be 37 3a 17 3c 37 fc e0 bb
       -1.4381646 -0.3209062 0.009230188 -0.006866004
000320 93 2c bd 3d 8d 5e e9 3d 8d 8a d9 3f e5 9d f6 bf
       0.092370175 0.11394987 1.6995407 -1.9266936
000330 80 cc cb c0 67 fd 48 40 a5 68 0c bc 68 5a bc bb
       -6.3687134 3.1404665 -0.008569871 -0.005748082
000340 b4 40 24 bf 06 72 10 bf 75 91 2f 3d dc f8 a6 3d
       -0.6416123 -0.56423986 0.042863328 0.08152935
000350 89 2d 76 be 03 62 47 3e 9a 9b 6e 3e c5 38 62 3e
       -0.24040808 0.19470982 0.23301545 0.22091968
000360 a0 4e 4a 3e 2b 7e 45 be 2c e7 ca bd 7f 4e 71 3e
       0.19756556 -0.1928641 -0.09907374 0.235651
000370 82 72 50 be c3 48 78 3e a5 3e 57 be 84 c7 40 be
       -0.20356181 0.24246506 -0.2101999 -0.18826109
000380 c5 6b ec 3d 90 88 3b be c0 37 a1 bd 5a b2 44 3e
       0.11543993 -0.18313813 -0.078719616 0.1920866
000390 cd d5 4c 3e e8 ea 6c 3e 9d 95 22 bd e4 27 60 be
       0.20003434 0.23136485 -0.039693464 -0.21890217
0003a0 23 ab 83 3e e9 ac 5e bd 39 79 da bd e9 f7 53 3d
       0.25716504 -0.05436412 -0.10667653 0.051750097
0003b0 92 45 2f be d6 af 23 3e 7a 85 2b 3e 08 28 59 be
       -0.17116383 0.15985045 0.16750136 -0.21206677
0003c0 1d ca 60 be b1 c8 bf bc c0 e6 e5 3d a7 a3 fd bb
       -0.219521 -0.023411127 0.11225653 -0.007740456
0003d0 54 c6 0a be 6e 38 c8 3b 43 9e 80 be 55 6c 41 be
       -0.13552219 0.0061102426 -0.25120744 -0.18888982
0003e0 d1 2e 36 be 4d 61 61 3e 1f 3f 71 3e bc ea b9 bd
       -0.17791297 0.22009774 0.23559235 -0.09077975
0003f0 dc a6 0e bf f4 b8 a0 bf 1b 49 27 be 24 67 2e bc
       -0.5572336 -1.2556443 -0.16336481 -0.010644708

fc1.bias f4 [256]
000000 20 10 54 be 23 f7 8d bf f4 38 f8 3d 21 41 70 3d
       -0.20709276 -1.1091045 0.12120238 0.05865586
000010 cd 57 83 3f e2 5f b6 3f 21 b3 ba bc d1 1b 7b bd
       1.026117 1.4248011 -0.022790493 -0.061305825
000020 b5 5d 51 bf 6b 69 83 3d 9f fc 5b 3d 56 31 9b 3d
       -0.8178361 0.06416591 0.053707715 0.075777695
000030 37 df b6 bd e3 bd f5 3c bf 91 bd be d9 c6 83 bc
       -0.089292936 0.029997772 -0.37025258 -0.016086029
000040 17 a4 cd bd 60 da 78 be 0a bf c9 be 13 6f a6 bf
       -0.10041063 -0.24302053 -0.39403564 -1.3002647
000050 e9 25 a4 3e 47 a4 59 be 79 f2 f5 bd f2 90 6b 3f
       0.32060173 -0.21254073 -0.120091386 0.92018044
000060 55 3b ec bf 5b 09 36 3e 6a ff e2 bb 52 a1 13 be
       -1.8455607 0.17777006 -0.0069274204 -0.14417008
000070 69 6c ad 3d 18 fb 14 3e 64 8f e7 3d a2 45 d7 3c
       0.08467943 0.1454891 0.113066465 0.02627832
000080 87 9f 98 3d 63 57 b8 3d 96 45 1e 3f fc aa 2e bd
       0.074523024 0.09001043 0.6182493 -0.042643532
000090 d8 d5 5b 3e b6 28 25 be 5c 7f a7 bd e7 33 10 3e
       0.21468294 -0.16128811 -0.08178589 0.14082299
0000a0 80 af 17 be f7 b9 6c 3e 27 5f 3a 3d 94 76 40 3d
       -0.14813042 0.23117815 0.0455009 0.046988085
0000b0 83 0a 47 3f 22 a2 2f 3f 82 6b 8d 3d 2f a9 20 be
       0.77750415 0.6860677 0.06905271 -0.15689538
0000c0 bd 37 5a 3f db f8 f1 bd 67 bb c8 3c 49 22 88 be
       0.852413 -0.118150435 0.024503423 -0.26588657
0000d0 d1 fa f0 be e7 59 47 3e dd 36 03 3d 8d bd c5 3c
       -0.47066358 0.19467889 0.032034744 0.024138236
0000e0 d8 2a d2 bd 24 17 8b bf bf 1f 4d 3e 2b f5 3a be
       -0.10262078 -1.0866437 0.20031641 -0.18257587
0000f0 e9 f5 45 3e 54 03 1d be 59 6c 60 3e e6 11 a8 be
       0.19332089 -0.15333301 0.21916331 -0.32826155
000100 42 84 16 be a3 fb f5 3e 84 b1 a6 3e 76 ae 11 be
       -0.1469889 0.48043546 0.3255731 -0.14226708
000110 da f3 1e be ae 19 09 bc d4 29 85 bd 4d a6 27 3e
       -0.1552271 -0.008367939 -0.06502119 0.16372032
000120 df 79 40 bf 3d 16 86 bd a0 0a 73 3e d5 b5 0a 3e
       -0.7518596 -0.0654721 0.23734522 0.13545926
000130 29 22 fb bd 88 79 ed 3e c7 89 75 bf 62 3c 95 bd
       -0.12262375 0.46381783 -0.95913357 -0.07286908
000140 eb eb ed 3c 8f a2 f6 bd 0a 27 86 be 8c 1f c5 3d
       0.029043159 -0.12042724 -0.2620166 0.09625158
000150 8e 08 10 3f 00 5e e4 bd 9f b1 d6 bd 30 63 55 be
       0.56263053 -0.111507416 -0.10483097 -0.20838618
000160 45 a7 8f 3f 11 16 61 be 37 e7 0f 3e 57 38 8b bd
       1.1222922 -0.21981074 0.14053045 -0.06797855
000170 41 b9 2c be 53 1f 60 be db 6c c0 be 26 8e 80 3e
       -0.16867544 -0.21886949 -0.3758305 0.2510845
000180 29 d9 28 be 2f a9 c0 3e 6f 45 53 3d 74 76 62 bf
       -0.1648909 0.37629077 0.05157989 -0.88461995
000190 a9 2e 2b be fe 9f 1e 3e be 41 91 3e cb 8b 63 3d
       -0.16717018 0.1549072 0.2837047 0.05555324
0001a0 34 b7 97 3d e6 36 e2 be a1 9e 1b bc 11 d0 8e 3d
       0.0740799 -0.4418251 -0.009498269 0.06973279
0001b0 7c ad 01 3c e8 cb a3 be b9 4f 6e 3e 18 7c 6d 3e
       0.007914897 -0.31991506 0.232726 0.2319187
0001c0 6f 98 76 3e d1 c7 ce be 5d 1c 79 3f e1 b4 f6 be
       0.24081586 -0.40386823 0.97308904 -0.48184875
0001d0 63 5a 89 be 39 62 d4 3c 4a 24 42 3f ca 16 1c 3f
       -0.26826772 0.025925742 0.7583662 0.60972273
0001e0 2b ee 4d 3d a5 0b 38 bf cc a6 0a 3e 80 6b 36 be
       0.050275963 -0.7189277 0.1354019 -0.17814445
0001f0 c7 40 89 3f 07 a9 bb be a8 59 35 3e 3c de 3a 3f
       1.0722893 -0.36652395 0.17709982 0.7299535
000200 d3 e9 de 3e 45 36 3f 3e bc a9 0e 3e a4 b7 89 bf
       0.4353777 0.18673046 0.13931936 -1.0759168
000210 63 3b 1e bf e9 48 9f 3e 45 79 2d be 50 45 a7 bd
       -0.61809367 0.31110314 -0.16940792 -0.08167517
000220 5d 9a 99 bd 63 18 6c be 9c 67 62 bc 05 8c 29 bf
       -0.075001456 -0.23056178 -0.013818648 -0.6622928
000230 02 01 32 bd 5f 59 46 bf d9 df 44 bd 5d 40 0f 3d
       -0.043457992 -0.7748012 -0.04806504 0.03497349
000240 0e 7b 26 3f 4c 5c 7b be 39 43 3b be e3 a2 67 bd
       0.65031517 -0.24546927 -0.18287362 -0.056551825
000250 69 3d 1e be fd fc 46 c0 c3 3d 09 c0 cf 22 59 3e
       -0.15453114 -3.1091912 -2.1443946 0.21204685
000260 b3 b9 88 bd 00 b9 4f 3e 2f 08 a5 be 7d d4 9d bc
       -0.06676044 0.20285416 -0.32232806 -0.019266361
000270 84 89 21 bf 79 99 3b 3e 3b b6 21 bf b1 fc 0f bd
       -0.6310046 0.18320264 -0.63168687 -0.035153095
000280 95 e6 21 3f aa 02 96 be a1 e1 01 3e e1 2b 92 3d
       0.63242465 -0.29298908 0.12683727 0.071372755
000290 0e cb 9b 3e dc 6d 03 be 0a 63 b3 3e 65 1e 0a 3c
       0.30428356 -0.12834877 0.35036498 0.008430098
0002a0 76 3f ee bd f1 00 d9 bb c7 2b 7c bd 9d f1 22 3f
       -0.11633198 -0.0066224267 -0.061565187 0.6364992
0002b0 0a fe 6c 3f 74 9c da bd 93 3d b6 bd b1 3b 79 3e
       0.9257513 -0.10674372 -0.08898463 0.24339177
0002c0 56 46 ce bc 6d e1 47 3e 9d 97 58 3e 84 cc 33 be
       -0.025180023 0.19519587 0.21151586 -0.17558485
0002d0 5f a4 94 bd 1c b7 48 be 9a d0 c1 bd 5c cc 0e 3e
       -0.07257914 -0.196011 -0.09463616 0.13945144
0002e0 2e 96 7f 3e 8f cd 43 bf ba f9 2e 3f eb 6d 01 be
       0.24959633 -0.7648553 0.683498 -0.12639587
0002f0 7d 2e 59 3e 03 49 5d 3d 69 ee 0a bf 05 14 52 3e
       0.2120914 0.054024708 -0.54270035 0.2051545
000300 5a 59 ec bf 7f c3 26 3f 5f 22 0a be f9 71 95 3e
       -1.8464768 0.65142053 -0.13489674 0.29188517
000310 9d 6a 8e bf a9 83 57 be f8 41 23 be a2 37 e5 3e
       -1.1126286 -0.21046318 -0.15943134 0.44769007
000320 9f c0 0e 3e 90 e7 37 be 0d 6a 5e be 7c 11 ba 3d
       0.13940667 -0.17959428 -0.21720143 0.09085366
000330 bd c5 1b bf 3a 9b 51 be c6 50 ad bc a7 b9 a6 be
       -0.608486 -0.2046937 -0.02115668 -0.32563516
000340 53 06 df 3e 60 fc ab bf c2 d2 08 be c3 3f 0a be
       0.43559512 -1.3436394 -0.13361648 -0.13500886
000350 94 87 0f 3e cf 6f 9b 3d 93 bd 6b 3f 96 63 de bc
       0.14016563 0.07589685 0.9208614 -0.027147096
000360 3c bb be 3d 5e 33 d4 bd 2f 0d 89 3e 26 c2 81 3d
       0.09313056 -0.1036136 0.2676787 0.06335859
000370 ce c8 f9 bd a2 09 29 3f d4 e2 72 bd 9f b4 78 be
       -0.121965036 0.66030324 -0.05929835 -0.24287651
000380 4f 09 67 be 9d 74 4e 3f 02 6b 65 be 82 bf 87 3e
       -0.22562145 0.8064669 -0.22404101 0.26513296
000390 d0 fb 62 3e de 9f 22 be 83 b6 f2 3d 6f fa 0a bf
       0.22166371 -0.15881297 0.118512176 -0.5428838
0003a0 b7 29 8d 3c b1 dc c7 bf aa c2 31 be 89 83 a1 3d
       0.017231805 -1.5614225 -0.17359415 0.078864165
0003b0 fa b4 47 bd 8d 40 37 3b 27 4f cc 3c 71 35 ec bd
       -0.048756577 0.002796206 0.024940087 -0.11533631
0003c0 e5 0b 83 be c6 ad 2b 3c 4d a7 e8 be 90 d6 77 bb
       -0.25595012 0.010478443 -0.4544014 -0.0037817098
0003d0 f7 92 d1 3e 4d 17 d0 be f8 49 f1 bd 28 2b a0 3e
       0.40932438 -0.40642777 -0.117816865 0.31282926
0003e0 0d db 84 3e b2 36 c4 3d fe 45 53 be ef 55 83 be
       0.25948372 0.09580745 -0.20632169 -0.256515
0003f0 60 bd 5c 3e 2d 87 83 be 62 36 18 3e ab d1 13 bf
       0.21556616 -0.25689068 0.14864495 -0.577418

fc2.weight f4 [256, 256]
000000 26 16 41 bd 03 fa ee bc 4d f5 3f bc a6 52 7d bd
       -0.047140263 -0.02917195 -0.011716199 -0.061846398
000010 60 d2 66 bd 46 bb 92 bd b8 ea 53 bc 64 00 4e bd
       -0.056352973 -0.07164626 -0.012934379 -0.05029334
000020 65 d5 b7 b9 ab f4 14 bc c0 f0 04 bc 84 c7 5f bd
       -0.0003506347 -0.0090915365 -0.00811404 -0.054633632
000030 80 e2 eb 3a c6 40 78 bd d7 f2 a2 bd 94 4a d1 3c
       0.0017996579 -0.060608648 -0.07956474 0.025548257
000040 3e a3 7e bd a0 4d 40 3b 01 c1 e2 3b 7e 35 d2 bc
       -0.0621674 0.0029343143 0.0069199805 -0.025660273
000050 1b 06 6d 3c 50 3e 5f bc 9a fc 31 3d b3 42 5f bd
       0.014466788 -0.013625696 0.04345379 -0.05450697
000060 59 2b 90 bd 6e 82 28 bd 88 c3 0b 3d c0 26 b9 3b
       -0.07039518 -0.041140012 0.03412202 0.0056503713
000070 5a df e4 bc 82 b6 98 bc 36 9e 1a bd 84 3a 0b bc
       -0.027938534 -0.018641714 -0.037748538 -0.008497838
000080 00 ec 84 bb a5 72 b5 bc 42 ad 0c bd c1 a3 4f bd
       -0.0040564537 -0.022149393 -0.03434492 -0.050693277
000090 00 e1 03 3c a0 3b 72 3b e4 d0 61 bd 3c 60 5e 3d
       0.00804925 0.0036961809 -0.055130854 0.054290995
0000a0 98 d6 e7 3c 62 de b8 3c aa 20 d0 bb a4 54 89 bc
       0.028300568 0.022566978 -0.00635155 -0.016763993
0000b0 d9 a8 44 bb b3 66 85 3c 00 0e c9 3c 6c f5 a5 bc
       -0.0030007868 0.016284322 0.024542809 -0.020258628
0000c0 45 b4 26 bd 00 c3 14 bb 54 41 4a 3d 86 b3 0b bd
       -0.040699262 -0.0022699237 0.049378708 -0.034106754
0000d0 55 7b 1d bd 00 3a fd bc a6 06 56 bd 48 79 c5 3c
       -0.038447697 -0.030911446 -0.052252434 0.024105683
0000e0 10 41 13 bc 2d 42 90 3b 8c ae 79 3d 00 7f 22 3c
       -0.00898768 0.00440242 0.060957476 0.0099179745
0000f0 e2 81 47 3d a8 59 25 3c 90 e8 d9 bb 2c 1b 77 3c
       0.04870785 0.0100921765 -0.006650038 0.015082162
000100 7d 95 54 3c fb f0 2e bd 65 6c e9 bc 64 0b f9 bc
       0.012975094 -0.042710286 -0.02849407 -0.03040094
000110 80 8e a3 bb 66 f7 8b 3c b8 ef 58 3d 46 4f 4e 3d
       -0.0049913526 0.017085742 0.05296299 0.05036857
000120 0b 78 8d bd b7 a0 83 bc 74 60 cd 3c fa 51 e0 3b
       -0.06907662 -0.016067846 0.025070406 0.00684571
000130 51 61 2f bd 62 50 87 bd df 56 f3 bb 17 17 3f bd
       -0.042817418 -0.06607129 -0.0074261273 -0.04665288
000140 ca d2 c3 3c ac 94 2f bd 3c 1d fc 3c e4 b5 9d bc
       0.023904223 -0.042866394 0.030775659 -0.019251771
000150 4b 84 8c bd 4c e7 91 bd 60 60 de 3c 34 23 9c bc
       -0.068611704 -0.071241945 0.027145565 -0.019059755
000160 bc 26 4e bd b6 a2 7c 3d e6 24 16 3d 96 8e 28 3d
       -0.05032991 0.06167861 0.036656283 0.041151606
000170 2f f0 30 bd 15 2b b6 bc e8 8d 62 3c 80 ad eb bb
       -0.043197807 -0.02223734 0.013827778 -0.0071923137
000180 30 fc f5 3c 1f bc ac bc 63 9d 17 bd b0 24 66 bc
       0.030027479 -0.021085797 -0.03701533 -0.014046833
000190 00 82 c9 bc 98 ff 6c bd 6f eb 99 bc c0 2d b7 bc
       -0.024598122 -0.05786094 -0.018789021 -0.022360682
0001a0 24 cc a1 bc 1a e2 f7 bc 44 16 ed 3c 28 6a 26 bc
       -0.019750662 -0.03025918 0.028941281 -0.010157146
0001b0 bd 3a a2 3c 40 20 86 3b 24 68 aa bc c4 9d 65 3d
       0.0198034 0.0040932 -0.020801611 0.05605866
0001c0 6c f7 9f bc 70 e4 57 bd 30 65 f1 3b 86 f3 2e bd
       -0.01952716 -0.05270809 0.007366799 -0.04271271
0001d0 04 42 0c 3d 4e 31 44 3d 1e 40 28 bd 31 c2 41 bd
       0.034242645 0.047898583 -0.041076772 -0.047304336
0001e0 44 01 7a 3c f7 f7 b9 3c 68 98 04 3d 49 f6 94 bc
       0.015259091 0.022701247 0.03237191 -0.018183844
0001f0 c0 12 d7 bc 05 97 17 3d 80 c9 6c 3c 99 e0 91 bd
       -0.026254058 0.037009258 0.014452338 -0.07122917
000200 6f 2c b1 bc 00 3e 70 bb ec 2a ae 3c 2d cf 82 bd
       -0.021627633 -0.0036658049 0.021260701 -0.06387172
000210 5a 81 98 bd a7 75 38 bd b0 b9 6b bc aa af 2d 3d
       -0.07446547 -0.045034077 -0.014387533 0.042403854
000220 a0 41 55 bd 44 30 d4 3c c0 dc 55 3b e3 2c 17 3d
       -0.052064538 0.025901921 0.0032632798 0.03690804
000230 a0 e7 0e bd 7c c3 df bc 08 8f 20 bc 14 d8 92 bd
       -0.034888864 -0.027314894 -0.009799726 -0.0717012
000240 8b d3 a7 3c 0c 24 d1 bc 10 b6 48 3c 1a b6 1f bd
       0.020486614 -0.025529884 0.012250438 -0.038992025
000250 ac 63 4d 3d a5 b2 38 ba d1 99 3c 3b a3 39 32 bd
       0.050143883 -0.0007045663 0.0028778205 -0.043511998
000260 64 08 3a bd 20 6e a2 3b 71 58 87 bd 60 b1 2b bb
       -0.04541816 0.0049569756 -0.06608666 -0.0026198253
000270 0d 27 55 3d ec 05 90 3c 6e 5d 21 bd 11 f1 e9 bc
       0.052039195 0.017580949 -0.039395742 -0.028557332
000280 9c 97 95 3c ad f6 66 bd 36 0c 4d bd b0 28 a7 bb
       0.01826077 -0.056387592 -0.050060473 -0.005101286
000290 9b 9b 04 3d b8 d5 0f bd 97 02 cc bc f4 e9 e7 bc
       0.03237496 -0.035115927 -0.024903579 -0.0283098
0002a0 c2 77 82 3c 5d 38 1a bd 68 18 13 bc 31 c4 d7 3b
       0.015926246 -0.03765141 -0.008977987 0.006584667
0002b0 69 a9 6f bd 60 53 75 3d fa ca 09 bd a0 9a af bc
       -0.05851117 0.059893966 -0.03364084 -0.021436036
0002c0 43 d6 c3 bc c0 e3 f0 bc 7a f1 af bd 82 19 42 bd
       -0.023905879 -0.029405475 -0.0859098 -0.047387607
0002d0 54 8f 66 bd 2a 18 65 3d 3f 5b 82 bc 7c 67 fc bc
       -0.056289032 0.055931248 -0.01591265 -0.030811064
0002e0 78 d5 bf 3c 5f ec bc bc b4 5d 09 bd 4c a9 27 3d
       0.02341722 -0.02306193 -0.033536628 0.04093294
0002f0 72 73 26 bd 36 4f 33 bd 07 f9 b0 3c 69 98 0e 3c
       -0.04063744 -0.043776713 0.02160312 0.00870333
000300 93 e0 57 3c 1f ad e3 3b d0 13 d7 bc 2d 4f 8c bd
       0.013176101 0.006948128 -0.026254565 -0.06851039
000310 2f 8e ad bc 04 c4 ff 3c 5c 7c 27 3d 69 d1 02 bd
       -0.021185962 0.031221397 0.040890083 -0.03193799
000320 9e e5 0c bd b0 2c 21 bc ba 91 48 3d 40 e6 52 bb
       -0.034398668 -0.0098373145 0.0489671 -0.0032180697
000330 8f 18 41 3d f1 ab e5 bc d0 99 70 3c 22 d7 80 bd
       0.04714256 -0.02803609 0.014685109 -0.06291033
000340 bc 3c 65 bc 04 dd 8d 3c e6 9c 72 bd 3c 2c 60 3d
       -0.013991531 0.017317303 -0.05923166 0.054729685
000350 05 62 28 3d c0 bd 43 3d 59 d0 44 bd 0c 83 2f 3d
       0.041109104 0.04778838 -0.04805026 0.042849585
000360 2f 7c 91 3b 2a 19 21 bd 44 12 94 3c 6c 41 7f bd
       0.0044398527 -0.03933064 0.018075116 -0.06231825
000370 46 a0 62 3d 96 35 d1 ba 92 14 27 3d ea 37 81 3c
       0.05532863 -0.0015961404 0.0407911 0.015773732
000380 31 49 75 bd f7 09 8e 3c 3b b6 81 bd 74 78 c5 bc
       -0.059884254 0.017338736 -0.06333586 -0.024105288
000390 e8 e9 6f bc 9e e1 0c bd 18 be 28 bc 38 5a 89 3c
       -0.01464317 -0.034394853 -0.010299228 0.016766652
0003a0 c4 39 04 3d 45 9e 64 bd aa 9b 26 3d b8 d6 50 3c
       0.032281652 -0.055815 0.040675797 0.012746505
0003b0 f8 9f 40 39 13 48 05 3b c4 c1 54 bd 61 9a 87 bd
       0.0001837014 0.002033715 -0.0519426 -0.06621242
0003c0 a8 b8 6a 3c 2a 87 5d 3d b6 18 a5 bd 21 d5 18 3d
       0.014326252 0.05408398 -0.08061354 0.03731263
0003d0 c7 6b 23 3c f3 37 95 3c 04 57 1c 3d 34 44 de 3c
       0.009974427 0.018215155 0.038168922 0.027132131
0003e0 40 05 03 3c 68 48 f6 bc 0c b9 13 bd 61 91 7b bd
       0.007996857 -0.030063823 -0.036065146 -0.06141794
0003f0 60 a5 40 3b 98 d2 05 3c 2d 2c c4 3b 7c 4f 27 bd
       0.0029395446 0.008167885 0.0059867115 -0.040847287

fc2.bias f4 [256]
000000 28 32 25 bd be 08 94 3c 0c 5f c8 bd 12 30 b8 bd
       -0.040331036 0.018070575 -0.09783754 -0.08993544
000010 c5 20 f1 bd 81 7e 11 bf 6d d2 5a bd 87 0d 18 bf
       -0.117738284 -0.56833655 -0.053423334 -0.5939564
000020 65 bd ab bd 38 c3 8e bd 46 c8 81 3b 4d 30 b6 3e
       -0.083857335 -0.06970829 0.003960642 0.35583726
000030 0b 48 39 3f 9d f8 b8 be 31 eb 02 3f aa 73 95 bc
       0.72375554 -0.36127177 0.51140124 -0.01824363
000040 c8 d7 38 3f fa 7c 1e bd 68 37 4f be de b9 84 be
       0.72204256 -0.038693406 -0.2023598 -0.25923055
000050 2a 97 cb bd e4 d9 03 bf b0 fd e4 ba 38 59 21 bc
       -0.09940942 -0.5150435 -0.0017470624 -0.009847932
000060 17 b9 c8 be 66 fe 62 be 15 aa fa 3e 41 89 8f bc
       -0.39203712 -0.22167358 0.48957887 -0.017521502
000070 64 0a b3 bd 02 4f 17 3d f9 8d 81 3e 5e 74 80 3d
       -0.08742216 0.036940582 0.2530363 0.06272195
000080 6c 37 fb bd 7b 1d 23 3e c7 11 24 be 0f e2 20 be
       -0.1226643 0.15929215 -0.16022407 -0.15711235
000090 0f 2e 92 3f 23 b8 67 bd e1 5f 58 bc ef 95 43 3f
       1.1420306 -0.05657209 -0.013206453 0.76400656
0000a0 01 ad c4 bc db 9c d9 3e fa e9 6c bd f1 85 ba 3c
       -0.024008276 0.42502484 -0.057840325 0.022768946
0000b0 19 a2 5b bd 68 f6 bf bd 83 b4 9b 3c 0c 68 ea bb
       -0.053621385 -0.0937317 0.019006973 -0.0071535166
0000c0 55 44 ba be 09 7f 32 be c4 88 88 be c4 c7 0e bf
       -0.36380258 -0.17431273 -0.26666844 -0.5577357
0000d0 11 3b ae bd 1a 23 9e 3b 2d ee ae ba 27 62 59 be
       -0.0850736 0.004825962 -0.0013346128 -0.21228848
0000e0 cc 51 1a bf b3 fe 07 bd da 71 8c 3f 7a 41 22 3f
       -0.6028106 -0.033201884 1.0972245 0.6338116
0000f0 01 92 f4 bc 96 8d 34 bb 95 f8 a0 bc d8 6d 80 be
       -0.029854776 -0.0027550212 -0.019649783 -0.25083804
000100 72 f9 42 3c 30 84 20 bb fd 80 1b 3f 8f 88 44 3e
       0.011900293 -0.0024492852 0.60743695 0.19192718
000110 cd 28 9f 3d 42 bb 0f 3d 54 71 b4 bc 2f 47 8a bd
       0.07771454 0.035090692 -0.022026695 -0.067518584
000120 e9 ea 90 bd f6 46 0f 3f 84 04 b0 3d 5b f8 ab bd
       -0.070760556 0.5596765 0.08594611 -0.083969794
000130 0a be c1 3b eb c2 03 bb 3c 3b e2 bd 35 1b 9c 3e
       0.005912547 -0.0020105194 -0.11046454 0.30489507
000140 99 5f 61 3f 5d 4d e7 bd 45 5f ad bd 91 d6 81 3f
       0.88036495 -0.11294053 -0.08465437 1.0143605
000150 ef a2 f4 3e 62 ad 09 bd 2b 09 b1 bd 33 4d 09 3e
       0.47780558 -0.033612616 -0.08644327 0.13408355
000160 c3 49 07 3f 0e 7a 30 3f ef a8 fa 3e e2 1c 72 3f
       0.52846926 0.6893624 0.4895701 0.9457532
000170 2b 35 93 3e 79 e4 e0 be 42 1b e2 3d a1 b0 2c 3f
       0.287515 -0.4392431 0.11040355 0.67457014
000180 fc 08 f6 3e 99 b7 19 3d 7e 5c 30 3d 68 a1 68 3c
       0.4805373 0.037528608 0.043056957 0.0141986385
000190 95 5f 05 3f 1d ed 35 3e 60 39 b1 3e e9 cf aa be
       0.5209897 0.17766233 0.34614086 -0.33361748
0001a0 f5 90 8d 3e 84 85 1d be ec 8b d4 bd c7 53 37 3f
       0.27649656 -0.15382963 -0.103782505 0.7161221
0001b0 8e 55 0b be 78 cd 5f 3f 2a 8b 81 3e 0b 89 97 bd
       -0.13606855 0.87422895 0.25301486 -0.07399186
0001c0 e7 6a c9 3d 17 4b a6 3f ef 29 a2 be 19 d9 e7 3e
       0.09834843 1.2991666 -0.31672618 0.4528282
0001d0 da c6 a4 bd 94 7b 23 bb b2 e8 23 3d bc ba 05 3e
       -0.080457404 -0.0024945484 0.040016837 0.13059515
0001e0 18 29 2b bd 05 9a c1 3c fc 22 a5 bd 19 07 09 bd
       -0.041787237 0.023633013 -0.08063313 -0.033454034
0001f0 c8 87 95 bd d9 0d 61 3f a4 8b 98 be 48 42 11 3f
       -0.07301289 0.87911755 -0.29794037 0.5674176
000200 f7 54 89 bd 73 d6 33 bd 11 6f cf bc 66 b9 81 3d
       -0.06705659 -0.043905687 -0.025321515 0.0633419
000210 0b 0a 83 bf bd e3 73 3c f9 a7 6f bc 94 61 ae 3c
       -1.023744 0.01488584 -0.01462745 0.021286763
000220 72 53 23 bf a4 68 74 bd 29 eb 2a bd 40 d2 e5 3e
       -0.637992 -0.059670106 -0.041728172 0.4488697
000230 ae 53 96 bd e1 64 cf 3e 2c f1 b4 3e 97 0f ce bc
       -0.073401794 0.40506652 0.3534025 -0.025153918
000240 84 cc 8f 3d 3e bd d6 be 92 da da bd fd 4f 8b bc
       0.0702143 -0.41941255 -0.1068622 -0.017005915
000250 a2 e6 c6 3c 60 17 e5 3e e0 fc 8d bc a3 42 85 3d
       0.024279896 0.44744396 -0.017332494 0.065068506
000260 68 26 97 bd 38 bb c7 3b f4 a0 96 bd 2e ea 6d 3f
       -0.07380372 0.0060953163 -0.07354918 0.92935455
000270 12 6b aa 3c e7 70 00 3f a8 e2 17 3d a9 cd b1 bd
       0.020803008 0.50172275 0.03708139 -0.08681805
000280 a8 26 bb 3c 24 f2 94 bd e5 1b 83 be 96 d6 04 3d
       0.022845581 -0.07272747 -0.2560722 0.032431208
000290 6b 73 f1 bd ae 06 5b bd d8 d3 5a bd a5 f6 6c 3f
       -0.11789592 -0.053473167 -0.053424686 0.9256385
0002a0 e1 64 13 bd df 45 21 3f d8 5b 1f 3c 66 b6 1c bd
       -0.035984877 0.6299724 0.009726487 -0.038259886
0002b0 3e ac 15 bd a9 cf 11 bf 50 3f 91 3b d8 de 03 3d
       -0.036541216 -0.5695749 0.0044325963 0.032194942
0002c0 ec 24 89 bd 54 80 5f bd ec c4 63 3f 32 29 02 bd
       -0.066964954 -0.054565743 0.88972354 -0.03177757
0002d0 7c d2 e0 3d e0 a7 a2 be 40 38 7b bf ca ef b1 bd
       0.10977647 -0.31768703 -0.98132706 -0.08688314
0002e0 1f bb e8 bc 78 9c a6 3e eb 83 2f bd db 2e 8d 3f
       -0.028409539 0.3254125 -0.042850416 1.1029924
0002f0 c5 b7 fa bc 5a 16 38 bd 6d 79 f5 3c 2c 4c 9f bd
       -0.030605206 -0.04494319 0.029965127 -0.077782005
000300 d2 6f bb 3e 3f 8d b1 3e ed a6 8b bb 17 00 7d be
       0.3660875 0.34678075 -0.0042618425 -0.24707066
000310 74 cc 90 be f1 95 a5 bd 66 1a 28 3f 05 e2 a2 bb
       -0.28280985 -0.0808524 0.6566528 -0.0049707913
000320 d7 3a c0 bc 09 f5 3b 3f 73 5a de 3b 47 06 9a 3e
       -0.023465557 0.7342077 0.0067856847 0.30082914
000330 49 2c 93 3d 62 3e 9c bc d3 1e bf bd ee 5a d4 bd
       0.07186181 -0.019072715 -0.09332051 -0.10368906
000340 ea a9 e9 bc b5 f5 3e bc e8 db 43 bd 96 4d 94 bc
       -0.028523404 -0.011655261 -0.04781714 -0.018103402
000350 80 80 0e 3f b6 a8 aa 3e 8d b2 66 3d 86 50 3e bd
       0.55664825 0.3333184 0.056322623 -0.046463512
000360 51 cf b0 bc df 3d 8f bd eb 14 92 bd 3f ec eb bc
       -0.021583231 -0.06994223 -0.07132896 -0.028799174
000370 71 45 e8 3b 89 5f a0 3b 73 9e d2 bd 3b 73 f0 3e
       0.007088356 0.004894201 -0.10284128 0.46962914
000380 2e 50 09 bd 26 f8 82 bc ab 1f 10 bd 8d 09 0e bd
       -0.03352373 -0.015987467 -0.03518645 -0.034677077
000390 f9 fd fa 3e 5f 5d 64 3c a1 af 4b bd 45 0a 92 bd
       0.4902189 0.013938277 -0.04972804 -0.07130865
0003a0 92 24 12 bd c6 d4 c4 be 5b a0 51 bd 8e b9 2a 3c
       -0.035679407 -0.38443583 -0.051178318 0.010420216
0003b0 2a 11 e8 be ec 15 97 bd 67 fc 89 3c 81 2d e6 bd
       -0.45325595 -0.07377228 0.016843988 -0.11239148
0003c0 e2 19 4f bd e0 01 9c bf 95 1c 3e 3f e2 f2 93 3b
       -0.050561793 -1.2188072 0.7426236 0.004515038
0003d0 2b 2a 8d bd 64 a7 20 3f 0a b9 8a 3e 41 db 35 bf
       -0.068928085 0.6275542 0.270943 -0.7103768
0003e0 3d c6 77 bd 75 6b 45 bd 3e 10 9b bc 02 7e a0 be
       -0.06049179 -0.048198182 -0.018928643 -0.31346136
0003f0 25 0f d7 bc 80 ce 57 3d 79 c2 17 3f e2 d7 16 bd
       -0.026252339 0.052687168 0.59281117 -0.036826976

fc_mean.weight f4 [2, 256]
000000 e8 3c 12 3d f2 6d d3 3d c1 6e b0 bc bf 27 38 bd
       0.035702616 0.10323705 -0.021537187 -0.04495978
000010 da fd d2 3c 66 5a e7 3d 59 60 ed 3c e2 1d 9a 3d
       0.025755811 0.11296539 0.028976606 0.07525231
000020 47 68 ba 3c c7 5d 59 be dd 39 42 bd 3c b7 22 be
       0.022754801 -0.2122718 -0.047418464 -0.15890211
000030 b3 c9 73 3d a7 e9 60 be 87 93 11 be fb 81 87 3d
       0.059518527 -0.21964131 -0.14216433 0.06616589
000040 0f e5 06 be ce 96 a3 3b dd 27 af 3e 2d 24 3c 3e
       -0.13173316 0.0049923426 0.342101 0.18373175
000050 10 d6 b1 3e bf 90 62 3e ff eb 23 bc c9 c9 9c 3b
       0.3473363 0.22125529 -0.010004996 0.004784797
000060 a4 00 8d 3e cf 74 02 3f 57 a8 f7 3b 31 ff c7 3c
       0.2753955 0.50959486 0.0075579095 0.024413677
000070 9f 14 df be 79 45 34 3c a9 74 f0 3d d3 32 34 3d
       -0.4357042 0.011002892 0.11741001 0.043993782
000080 7c 35 89 bd c2 12 1e be 38 de 2a 3e 12 6d 43 3f
       -0.066996545 -0.15436843 0.16686332 0.76338303
000090 19 86 71 be e7 41 28 3d 54 dc 27 bd ee a3 b8 3d
       -0.2358631 0.041078474 -0.040981606 0.09015642
0000a0 54 77 39 3e 1c 34 9e 3e 9a 0a 1c 3d 17 75 20 3d
       0.18111926 0.3089913 0.038096048 0.039174166
0000b0 29 51 f5 bd 1a 8c a1 bc 3e 2b 7a be 50 af 95 3d
       -0.11978371 -0.019720126 -0.24430558 0.07308829
0000c0 f8 6c d0 bd 64 da 14 3f 63 13 80 3e af b2 f7 bc
       -0.10177034 0.5814574 0.2501479 -0.03023657
0000d0 77 7e 5d 3f 3e 26 ee bc a9 e2 8d 3d 2a 15 06 be
       0.86521095 -0.02907097 0.069279976 -0.13094011
0000e0 c1 7c a2 bd c1 bc 21 bc df a6 cc bc 43 7a 39 3f
       -0.07933951 -0.009871663 -0.024981914 0.7245218
0000f0 4d db 56 3e 08 c8 cd bc fa 0a 1b 3d 99 14 4b be
       0.20982094 -0.025119796 0.037852265 -0.19832076
000100 e7 f1 84 3e 4d 08 0d 3c 20 61 3b bf 24 27 20 bd
       0.25965807 0.008607936 -0.73195076 -0.039099827
000110 c9 9c 2b bf 40 ea 00 3d 51 c5 e3 3c 3f c0 54 3b
       -0.6703611 0.0314734 0.027804049 0.003246322
000120 1f fb 02 bd c5 bd b6 be 6f b0 6b 3e c5 bc 30 3e
       -0.03197777 -0.35691658 0.23016523 0.1725951
000130 ad 48 cf bc 45 1b 79 3d 4d 26 f3 3e 06 ad 31 bd
       -0.02530321 0.060817022 0.4749016 -0.0433779
000140 bb 8a ab be ee f7 f0 3a 97 8a 54 3d 02 47 c2 3d
       -0.3350428 0.0018384436 0.051889982 0.094862
000150 3f 24 4e 3f f4 57 2a be e2 30 f3 3c 15 0c 61 bc
       0.8052406 -0.16635114 0.029686395 -0.013735791
000160 64 94 3c 3e c4 9e 74 3e 29 45 47 be 8a fb 1e bf
       0.18415982 0.2388869 -0.19459976 -0.6210257
000170 c1 b8 55 3e 37 3e d8 3d 8a 74 2b 3e 90 7d 5c bf
       0.2087126 0.105587415 0.16743675 -0.86129093
000180 ab 2d 09 3c 0e 5c 83 bc 93 1a 51 3d 5a 2b f4 3c
       0.0083727045 -0.016035106 0.051050734 0.029805828
000190 20 02 ae bd d0 48 4e bc 9a f3 5f bf 9e 65 08 bd
       -0.08496499 -0.012590602 -0.8748108 -0.033300035
0001a0 b0 20 e0 bc 01 fe 03 3d 08 48 12 3d c5 6e 7a 3e
       -0.027359337 0.03222466 0.035713226 0.24456318
0001b0 1b 7f d1 be ac 95 f0 bc 1f 31 65 be 0e 09 ca 3c
       -0.40917286 -0.029368244 -0.2238202 0.02466252
0001c0 8c 84 f6 be 7e e9 c6 bd 44 9b 8d 3d 40 c3 aa 3e
       -0.48148 -0.09712504 0.0691438 0.3335209
0001d0 d6 ee 36 bd 82 e9 f3 3c b2 83 2f be 11 07 b4 bd
       -0.044661365 0.029774431 -0.17140082 -0.0879041
0001e0 49 3a 0c 3d bd fd 43 3e 8e 25 72 bc 2e 4b 8c 3d
       0.034235273 0.19139762 -0.014779462 0.06850277
0001f0 d0 76 09 3f 86 e6 98 be c9 3f 97 3e 7d 0b f2 be
       0.5369692 -0.29863375 0.29540852 -0.4727439
000200 22 36 89 3d cc fb b0 bc 84 1e ea 3c 28 f0 5d 3d
       0.06699778 -0.021604441 0.028579004 0.05418411
000210 8a 33 bb 3d e8 ce 64 bd 79 43 44 3d d1 2f ec bc
       0.0914069 -0.055861384 0.04791591 -0.028831394
000220 6d dc 05 3e 3e 6e 59 3d 4a 6e 03 bd de e2 3f be
       0.13072367 0.05308365 -0.0320876 -0.18738887
000230 23 8d 95 bd 3d 69 8b bc f1 af 39 3f bb 01 fc 3b
       -0.0730231 -0.017017955 0.7253409 0.007690636
000240 48 c5 df bd bd b1 c7 3d e9 76 34 be bd 84 af 3c
       -0.109263 0.09750698 -0.17623486 0.0214256
000250 f6 ab 68 bc 68 ae e7 3d 41 aa 75 3d 8c cd e5 be
       -0.014201155 0.11312562 0.05997682 -0.44883382
000260 f1 e7 03 3d c3 80 44 bd aa ab c6 3c ab f1 bc 3c
       0.03220362 -0.04797436 0.024251778 0.023064455
000270 e8 5c bd bd 7f 98 0e be e6 79 48 3e e8 21 57 be
       -0.09246236 -0.1392536 0.1957775 -0.21009028
000280 c7 44 1a bd 01 f2 5d bd c7 05 25 be 81 5c 77 bd
       -0.037663247 -0.05418587 -0.16115485 -0.060390953
000290 c5 9f c2 3c 37 4f 30 be 20 03 87 3c a5 6a 35 be
       0.023757825 -0.17217718 0.016480982 -0.17716463
0002a0 9f f4 a1 3b 87 81 b3 bd 6a d6 7e bd 5d 38 20 bd
       0.004942491 -0.0876494 -0.0622162 -0.039116252
0002b0 44 8a 80 3d 17 fa 83 be 08 bd 87 bc a6 91 83 bd
       0.06276372 -0.2577674 -0.01656963 -0.064242646
0002c0 51 3a 21 3d f1 5d d5 3c 2d 3a 3f be 00 d5 2e bd
       0.039362255 0.026045771 -0.18674536 -0.0426836
0002d0 bf d3 79 bc 84 a1 3a bd cb 3e c7 be af cd 62 3d
       -0.015248238 -0.04556419 -0.38915095 0.055371936
0002e0 2f 0c 75 bd f6 b4 d9 bb fa 2e 1e be d5 43 d8 bd
       -0.059826072 -0.0066438867 -0.15447608 -0.10559813
0002f0 52 5d da 3c 84 5c aa bd 8d b7 d9 3d b9 0a 66 be
       0.026655827 -0.08318427 0.10630713 -0.22465028
000300 83 95 1b 3b e0 ab 04 3e 9d 53 6e bd 6f 85 de 3e
       0.002374024 0.1295619 -0.05818521 0.43461177
000310 21 08 18 be 09 bc 28 3e 24 0c 0f be a5 e7 00 3d
       -0.14846851 0.1647798 -0.13969475 0.031470913
000320 77 0d ba bc 88 a4 cb 3e f0 73 3b bd 99 db 55 3e
       -0.022711499 0.39773965 -0.045764863 0.20884551
000330 6d 4a a6 bc 88 36 13 3c 09 2a 08 3f 75 c1 0b 3c
       -0.02029916 0.008985169 0.5318914 0.0085300105
000340 5d 8b f2 bc 31 3f a2 bb f9 51 e0 bd db 08 ca 3c
       -0.02960747 -0.0049513807 -0.10953135 0.024662426
000350 7b df a6 be 28 e2 c6 3e e6 90 05 3c 87 17 a1 3d
       -0.32592377 0.3884442 0.008152222 0.078658156
000360 77 58 0f bb 1d ae 47 3d 6b 6f 56 bd 59 e1 4d 3d
       -0.0021872798 0.04875003 -0.05235235 0.050263736
000370 04 e7 7f 3c d7 21 35 3d 65 ad bb bd 27 f3 f5 3d
       0.015619043 0.044221725 -0.09163932 0.12009268
000380 a4 20 5b bb 5e c3 75 3b ec 40 18 bd 25 c6 af 3d
       -0.0033436203 0.003750048 -0.03717129 0.08582715
000390 50 75 86 3e 5a 10 30 3c c5 f9 1e 3e b7 80 43 bd
       0.26261377 0.010746086 0.15524967 -0.047730174
0003a0 47 10 27 3d 8b d5 bb be 5e e0 35 bd 7c c3 06 bc
       0.040787008 -0.36686358 -0.044403426 -0.008225318
0003b0 20 b7 79 be 1a 3d 1d bd 30 ef a0 3a 05 8f eb bb
       -0.24386263 -0.03838835 0.0012278315 -0.00718868
0003c0 23 c0 27 bc fd ca b9 3e e6 b2 0a 3e 19 ac 9f bc
       -0.01023868 0.3628768 0.13544807 -0.019491242
0003d0 d8 f1 e6 be f5 f5 9a bd 3b 41 9b be 6b 86 d0 be
       -0.45106387 -0.07566444 -0.30323204 -0.40727553
0003e0 52 b6 05 bd 99 12 a0 3d 4f cc 66 3d b6 d3 87 3f
       -0.032644577 0.07816047 0.056347188 1.0611484
0003f0 66 48 fd ba bb c7 ac 3c ec 4b 11 be a3 e0 f1 bd
       -0.0019323945 0.021091333 -0.14189118 -0.11810424

fc_mean.bias f4 [2]
000000 ff 30 0f be f1 59 e6 3d
       -0.13983534 0.11247624

fc_logstd.weight f4 [2, 256]
000000 91 e2 45 3b 94 17 e3 3d eb 47 2c bc 27 93 a2 3c
       0.0030194859 0.110884815 -0.010515193 0.019845558
000010 87 23 d1 3c c5 7a 73 3c 77 8d f3 3c 32 76 1c 3c
       0.025529636 0.0148608135 0.029730542 0.009549664
000020 bf 3e 13 bc 5a d2 b8 3c f0 ca 06 3d 8c 9c dd b9
       -0.008987128 0.022561241 0.03290838 -0.0004226904
000030 fd 51 43 bb 91 79 5d bc 05 05 81 bb 2c 16 14 bc
       -0.0029803507 -0.013517753 -0.003937366 -0.009038489
000040 59 07 46 3b 63 f5 02 3d bf 94 c7 3d d5 50 f0 3c
       0.0030216782 0.0319723 0.09745168 0.029335419
000050 2e e6 12 bd 56 d8 d7 bb 3d 6e fe 3c eb a9 f9 3b
       -0.035864048 -0.0065870686 0.031058425 0.0076191328
000060 b3 68 c8 3c fc 2b 85 3b 22 94 8f 3c dc ee d1 3b
       0.024463987 0.0040640812 0.01752669 0.006406648
000070 81 e8 e6 bc 9a a5 7f 3d 14 2e 86 3c 7e df f2 3c
       -0.028187038 0.06241379 0.016379394 0.029647585
000080 03 e4 0e bc 49 57 b5 bb c9 41 b2 3c 8d cc a0 3c
       -0.008721354 -0.005534087 0.021759884 0.019628787
000090 7b 8d 35 3c 64 0c ef 3c f1 5b c9 3c 5a 78 38 bc
       0.011081095 0.029180713 0.024579974 -0.011259163
0000a0 e8 f9 57 3c 6b 4f 03 bd d1 97 ef bc 9a 10 3b 3c
       0.013182141 -0.03205816 -0.029247196 0.011417532
0000b0 56 94 ac bc be 01 6a 3b dd 8d 93 3c e7 39 c8 3c
       -0.021066826 0.0035706605 0.018011982 0.024441672
0000c0 90 cf ee 3c a6 70 b6 3d 2e fa 6d 3d 25 48 fc 3b
       0.029151708 0.08908205 0.058099918 0.00769903
0000d0 c4 b0 8e 3d 06 97 2a 3d 9f 8b 48 3b b7 a7 70 3b
       0.06967309 0.041647933 0.0030600799 0.003672106
0000e0 cf 58 99 bc be 55 b2 3c 9f fa 1f 39 30 aa d8 bd
       -0.018719105 0.0217694 0.00015256785 -0.10579336
0000f0 22 e7 f2 3c 06 1a 94 3c 2e 6d 86 bc ab bb 6d 3d
       0.029651228 0.018078815 -0.016409483 0.058040302
000100 8a 57 0d 3d 67 0d a9 3c dd d2 ff bb 79 60 07 bc
       0.034507312 0.020636274 -0.0078071193 -0.008262747
000110 c3 55 91 bd cb c1 27 bc 6c 41 00 bd d9 f8 f6 3c
       -0.07096436 -0.010239075 -0.03131239 0.030147957
000120 c9 fe bd 3c 41 00 95 3b fa ee 2c bc fd cc 18 3d
       0.02319278 0.0045471494 -0.010555023 0.037304867
000130 3d ed 62 3d 7c 17 ae 3c d1 a1 c4 3c eb 7f ab 3b
       0.05540203 0.021251433 0.024002941 0.005233755
000140 06 4e 15 3e 8d 4b b2 bc 5d 46 28 3d d1 0c 54 3b
       0.14580545 -0.021764541 0.04108273 0.0032356272
000150 45 2f 70 bd 54 e8 aa 3c 6e d8 28 3c 69 dc 9b bb
       -0.05863883 0.020862736 0.010305507 -0.0047564995
000160 8b b0 b1 bb d3 eb 2e 3c 0b f1 bc 3b a4 2f 1e bd
       -0.005422657 0.010676342 0.0057660392 -0.038619652
000170 80 12 29 bc eb 21 b0 bb f6 50 02 3b 93 87 a7 3d
       -0.010319352 -0.005375137 0.0019884682 0.081801556
000180 d5 41 5a 3d 3a ba 98 bc 1b f1 ba 3b 17 aa 25 bb
       0.05328544 -0.018643487 0.0057050115 -0.0025278383
000190 28 17 0e bc 66 94 4b 3c 3b bd 4b ba 25 e1 55 bc
       -0.008672513 0.012425518 -0.0007772033 -0.013054167
0001a0 08 3e 9d 3b 47 52 c5 bc 30 d2 d8 bc aa 64 c8 3c
       0.0047986545 -0.024087084 -0.026467413 0.024462063
0001b0 70 4e 8e 3c 72 64 02 3c 28 ed d1 bc 05 a7 a1 bc
       0.017371386 0.007958518 -0.02562578 -0.019732961
0001c0 c6 4a 18 bd 29 d4 08 3c a5 66 20 3c b5 a6 57 bc
       -0.037180685 0.008351364 0.009790097 -0.013162305
0001d0 84 17 9f 3b 65 3e fe 3c ab c0 b4 3c 5f 57 8d 3c
       0.004855098 0.031035611 0.022064527 0.017253576
0001e0 bb 35 e3 b7 2a 90 2a 3a 34 7a 18 3b a2 b4 7f 3c
       -2.7085529e-05 0.00065064675 0.0023266198 0.015607031
0001f0 d0 84 3c 3d c6 82 06 3a 45 15 59 bb b4 bd ad bc
       0.046025097 0.0005131181 -0.003312425 -0.021208622
000200 ed e7 2c 3c 42 85 c3 3d 0f 02 b4 3c e7 dd ba 3b
       0.010553342 0.09546901 0.021973638 0.0057027224
000210 8c bd 8e 3b a9 b8 fb 3c 1e 1b d9 3c e3 97 de bc
       0.004356092 0.030727701 0.026502188 -0.027172035
000220 f8 fd 2f 3c fc 34 1a bc b2 e8 ee 3a f4 42 83 ba
       0.010741703 -0.0094120465 0.0018227308 -0.001001446
000230 18 61 9b 3b 76 f9 c5 bb 47 6a 4b 3b 0f 90 18 bc
       0.004741799 -0.006041701 0.0031038688 -0.00931169
000240 0d 15 36 bc ed 42 83 3c 06 07 98 3c 62 5d cf bc
       -0.011113417 0.016023124 0.018558037 -0.025313083
000250 c9 67 11 3c 77 af 1d 3d c9 77 62 bc 0f 50 48 3a
       0.008874842 0.038497414 -0.013822504 0.0007641324
000260 10 18 c0 bc 84 71 6a bc 54 06 4f bd a4 3e 0a bb
       -0.023448974 -0.014309291 -0.050543144 -0.0021094466
000270 14 63 fd 3b 9f 86 52 3b 7b 9c 36 ba e3 d0 69 3c
       0.0077327583 0.0032123697 -0.00069660664 0.014270994
000280 30 82 6c 3c 17 56 21 3d e2 de 3b bd 22 9e 57 3c
       0.014435336 0.039388742 -0.045866854 0.01316026
000290 cf 74 75 3c 6d 15 e1 3c 6c 27 15 bc 28 08 1d 3c
       0.014981463 0.027476037 -0.009103637 0.009584464
0002a0 dd df 12 3b c6 7a e0 bb da 76 da 3c 72 63 17 bd
       0.0022411265 -0.0068505732 0.026668001 -0.036960073
0002b0 1e 41 ff bb 6c b0 8d 3b 0a ea 7e bd 20 bb 9e bb
       -0.007789745 0.0043240096 -0.062234916 -0.0048440844
0002c0 30 c5 00 bd 2c 3c 16 3d 19 ad 85 3c bb 7e 64 bb
       -0.031438053 0.036678478 0.016317891 -0.0034865576
0002d0 45 d3 b6 3a 89 55 12 bc cb 94 98 bc c4 97 45 bc
       0.0013948461 -0.008931526 -0.018625638 -0.0120601095
0002e0 4a d8 7b 3c ea 18 d5 3b 39 16 ea 39 2b e0 07 bc
       0.015371392 0.006503214 0.00044648515 -0.008293192
0002f0 a0 b9 2b 3d 18 8a 00 3d df b7 01 bc e6 e0 55 bc
       0.041925073 0.031381696 -0.007917373 -0.013054108
000300 ae 06 0f bb d6 42 6b 3b a0 7a 7b bc 31 45 e1 3c
       -0.002182405 0.0035897992 -0.01534906 0.027498813
000310 c3 ec 8f 3d 67 a9 3d 3b c7 90 87 bc 9e 4d cc 3c
       0.070275806 0.0028940083 -0.016548527 0.024939355
000320 41 35 8a 3b e5 6b a4 3c e3 5a a4 3c 90 94 cc 3c
       0.004217774 0.02007098 0.02006287 0.024973184
000330 b8 4f f2 3c 51 98 4c 3c a9 55 6e bc f9 05 dc bb
       0.029579028 0.012487487 -0.01454679 -0.006714579
000340 6c e7 1b bb 81 aa cd 3c 8d e3 58 3b 25 8c 25 3c
       -0.0023789061 0.025105717 0.0033094615 0.010104214
000350 4a c5 a7 3c e8 74 a3 3b e9 14 d3 3c 75 8d 7d 3c
       0.020479817 0.0049883015 0.025766807 0.0154756205
000360 83 d6 4e 3c 52 20 5c bd 89 be 1f 3c e6 f6 46 3d
       0.012624386 -0.05374176 0.009750017 0.048575304
000370 08 03 0f bd 09 8a ab 3c c0 df 0d bd f0 b3 36 bd
       -0.034915 0.020939844 -0.034637213 -0.044605196
000380 ff af 4c bd 43 eb ba 3c e5 26 96 3c 21 2a 0f 3c
       -0.04997253 0.02281726 0.018329093 0.008738072
000390 68 42 0c 3c 84 9b f4 bc 7d 57 cb 39 3d 2d 43 3c
       0.008560754 -0.029859312 0.0003878436 0.011912641
0003a0 13 fd bc 3c 3d b9 66 bb f9 04 cc bc 4e 41 bf bc
       0.023069894 -0.0035205625 -0.024904715 -0.02334657
0003b0 32 e8 e4 3b 0f e0 0b 3d b3 03 22 bd 1e 05 dc 3c
       0.0069856877 0.034149226 -0.03955431 0.026857909
0003c0 4e af 09 bd 4c af a8 bc 07 18 1c 3c 8e b9 9b bc
       -0.03361445 -0.0205914 0.009527213 -0.019009378
0003d0 20 af 76 bd 76 11 b7 bb d7 a3 61 bb 22 1d a6 3d
       -0.060225606 -0.0055867983 -0.0034429932 0.081110254
0003e0 e7 8d e3 bb 1a 5a ec bb e2 d8 84 3a f5 20 9a 3d
       -0.0069444063 -0.0072128894 0.0010135437 0.07525817
0003f0 11 bc 41 bc 02 d5 d1 3b 8f 3a 22 3c 7a bd ec 3a
       -0.011824624 0.0064035663 0.009901657 0.001806184

fc_logstd.bias f4 [2]
000000 c7 ee 14 3d 1b 50 fe 3b
       0.03636053 0.007761014

fc1.weight f4 [256, 16]
000000 aa 1b 70 be f6 18 78 be 44 50 67 be 9c 98 7e 3e
       -0.23448053 -0.24228272 -0.22589213 0.24862903
000010 b8 b9 0c bd be be 74 be a2 eb 0f 3e 58 ad 7c 3d
       -0.034356803 -0.23900887 0.1405473 0.06168875
000020 7e af 46 3e 5c 09 8f bd f8 b7 a7 3d 08 ca 6c bd
       0.19402882 -0.06984207 0.08189386 -0.05780986
000030 20 e6 02 be 76 63 22 be 80 85 d0 3c d4 32 f4 3d
       -0.12783098 -0.15858254 0.025454283 0.11923757
000040 80 39 3a 3b 10 be 47 be 1e 96 6b be 98 d0 7a bd
       0.002841562 -0.19506097 -0.23006484 -0.061234087
000050 80 62 3c be 92 b1 71 be 88 a5 92 bd 00 00 3b 39
       -0.1839695 -0.23602894 -0.07160479 0.0001783371
000060 70 df f6 3d 4a da 79 3e 50 a2 56 bd 90 97 8a 3d
       0.12054336 0.24399677 -0.052400887 0.067671895
000070 fa 31 74 be 4a af 45 be e6 aa 0b 3e 52 1e 55 be
       -0.2384719 -0.19305149 0.13639411 -0.20812348
000080 70 f6 25 3d a9 ac 84 3e 9d d1 0b be d8 17 b5 be
       0.040518224 0.2591298 -0.1365418 -0.35369754
000090 cc 37 11 3d 3b 1e 83 3e ea cb b1 3d ee d3 b8 bd
       0.035453603 0.25609002 0.08681472 -0.090247974
0000a0 72 7e c5 bf 2f 14 89 bd 3e 1d ae be ad 37 a7 be
       -1.5429213 -0.06693303 -0.34006685 -0.32659665
0000b0 a3 62 70 be 52 c4 80 bd cf 32 09 bf 5f e2 f0 be
       -0.23475127 -0.06287445 -0.5359315 -0.47047707
0000c0 aa fb 1d 3e d8 57 d2 3d 3a b3 72 be c0 39 ce 3b
       0.15428033 0.10270661 -0.23701182 0.0062935054
0000d0 c8 5a 91 3d 74 4e 4b 3e 68 07 b8 3d 80 5e 3e be
       0.07097393 0.19854146 0.08985788 -0.18590736
0000e0 00 d0 b0 39 28 02 10 bd e8 46 ec 3d 48 c5 a5 bd
       0.00033724308 -0.035158306 0.11536962 -0.08094269
0000f0 b0 d3 f3 3c b4 e7 66 3e 00 a5 a9 bb 28 53 6e bd
       0.029764026 0.22549325 -0.0051771402 -0.058184773
000100 90 9d 92 3c 70 a6 22 be 84 0a cd bd 7c 2a 7d 3e
       0.017897397 -0.15883803 -0.10011771 0.24723238
000110 94 1e 4d be 80 47 d6 bb 92 a9 31 3e d0 c3 66 be
       -0.20031196 -0.006539285 0.17349842 -0.22535634
000120 d0 74 3e 3d da a2 31 be 80 bf 23 3d 22 97 6e be
       0.04649812 -0.17347279 0.03997755 -0.2329984
000130 74 d7 34 be 20 67 bd bc 98 0f 82 bd 74 97 04 3e
       -0.17660314 -0.023120463 -0.063506305 0.129484
000140 11 7a cf 3f 87 3b 91 3f b7 59 7c be 44 51 00 c0
       1.6209127 1.1346291 -0.24643598 -2.00496
000150 43 12 d7 be 39 11 51 bf 61 61 fc 3f c3 23 1f bf
       -0.4200612 -0.81666905 1.9717218 -0.62163943
000160 2b 40 1f c0 95 c2 67 3f 58 e4 b9 be 2b bd 93 3d
       -2.4882915 0.90531284 -0.36307025 0.07213815
000170 4f 40 73 bf 69 93 0e 3f b4 87 19 be 05 0e 86 3b
       -0.9502 0.5569368 -0.14993173 0.0040910267
000180 43 54 9a 3d ce 54 53 3e 54 3b 2a bd ee d8 51 bd
       0.07535603 0.20637819 -0.041560486 -0.05123227
000190 3c 92 f7 bb 86 8e 67 bc d4 f5 69 bd 16 91 26 3e
       -0.0075552743 -0.014133101 -0.057119206 0.16266283
0001a0 56 97 0f 3e 4f 2e 77 3e 10 66 01 bd f7 2e 64 3e
       0.14022574 0.24138759 -0.031591475 0.2228354
0001b0 9a 10 25 3c bf f3 20 3e 6a d0 28 bd c1 01 b3 bd
       0.010074759 0.15717982 -0.041214384 -0.08740569
0001c0 30 d1 91 3c 90 d6 88 3d d2 16 5a be e2 e3 5d be
       0.017799944 0.066815495 -0.21297768 -0.21668962
0001d0 76 24 63 3e 44 d3 4e be 24 36 2d 3e ca 21 03 be
       0.22181877 -0.20197779 0.16915184 -0.12805858
0001e0 00 01 c5 3c ea 1e 71 3e 3c 88 98 bd e8 5f 44 3d
       0.024048328 0.23546949 -0.0744786 0.047943026
0001f0 ac a0 f4 bd c4 74 49 3e 60 19 84 3d c0 66 5f bc
       -0.11944708 0.19673449 0.064501524 -0.013635337
000200 7d f3 8c bf 55 7a a4 3d 82 ff 07 be 08 cf a8 bf
       -1.1011807 0.080311455 -0.13281062 -1.3188181
000210 f5 6d b2 3e 68 f7 57 be 5f 44 09 bf 10 34 67 be
       0.34849516 -0.21090472 -0.5361995 -0.22578454
000220 ed 23 95 c0 40 c1 87 40 f5 4a 8a 3e 18 b4 ea be
       -4.6606355 4.24234 0.27010313 -0.45840526
000230 3c eb 99 3d 21 4c da 3e 10 39 22 bc 40 09 00 bf
       0.075155705 0.42636207 -0.0099013 -0.50014114
000240 04 2b 8a 3d 6c d1 81 bd e0 f0 cb bd 70 c0 bd 3d
       0.06746486 -0.06338772 -0.09958053 0.0926522
000250 76 dd 48 be a8 dc 6c be 34 a9 95 bd 9e 31 15 3e
       -0.1961573 -0.23131049 -0.073076636 0.14569709
000260 12 a1 67 be 80 5b 0e 3d f6 0a 28 be e0 fc 7f 3c
       -0.22620037 0.03475523 -0.16410431 0.015624255
000270 30 33 37 3e 34 db 2d 3e a0 5e 14 bc a8 ca d3 bd
       0.1789062 0.1697815 -0.0090557635 -0.10341388
000280 6f e7 34 3e 8f 88 3b be 1c ca 9a bd ca ba 79 3e
       0.1766641 -0.18313812 -0.075580806 0.2438766
000290 f1 5a bb bd 31 37 d9 3c 68 39 58 be f0 b0 08 be
       -0.09148205 0.026515575 -0.21115649 -0.13348746
0002a0 4c fb 88 bd 82 87 5e 3e 13 06 99 3d 39 41 17 3e
       -0.06688556 0.2173138 0.07471862 0.14770974
0002b0 1c ef 43 3e 2c c9 d6 3c 36 a5 49 3e e7 b8 25 3e
       0.19134182 0.026218973 0.19691929 0.16183816
0002c0 9b 7b 2d 3f 8f 05 90 3f e9 c1 8e bb 3e aa 06 bf
       0.6776673 1.1251696 -0.004356612 -0.5260352
0002d0 c8 df 24 3f bd 46 51 be aa b8 53 3e 73 7b fe bf
       0.64403963 -0.20437141 0.20675912 -1.9881424
0002e0 f0 43 15 c1 57 a8 f4 c0 ad 84 54 bd fb 8e 27 be
       -9.329086 -7.6455493 -0.051884342 -0.16363136
0002f0 52 d9 1a 3e 64 9d e9 3e 73 f8 21 be f5 b3 2c be
       0.15121964 0.45627892 -0.15817432 -0.16865523
000300 14 c2 f3 bd 4c 6d c8 3d f8 98 18 be b2 56 23 be
       -0.11902252 0.09786472 -0.14902103 -0.1595104
000310 90 1f 3c bd 60 76 0e 3d 4e c9 08 3e 50 f1 f4 bc
       -0.045928538 0.03478086 0.13358042 -0.029900223
000320 80 5b 45 3d 94 cf d4 3d b0 09 c7 3c 8e 62 26 be
       0.048182964 0.10391155 0.024296612 -0.16248533
000330 80 f5 20 bd ea 1c 54 3e e8 a8 71 be aa 43 74 be
       -0.039296627 0.20714155 -0.23599589 -0.23853937
000340 5a 0e ae be 6d 14 12 c0 aa 1e 66 be 53 a9 a4 3f
       -0.33995324 -2.2824967 -0.22472635 1.2864174
000350 6b a6 d3 be 95 3e 09 3f 45 90 8a be 2f 4a 0f 40
       -0.41337904 0.5361112 -0.27063194 2.2389028
000360 44 2b 8b c0 ad da 25 c0 f9 19 7d bd b9 1e a6 3e
       -4.3490314 -2.591472 -0.061792348 0.32445315
000370 f0 b7 06 3f 72 d7 a8 be 76 69 c2 3e 97 b9 61 3e
       0.52624416 -0.32976872 0.37971085 0.22043453
000380 da 1b 3d be 86 bd 0f be dc 86 02 be 30 30 58 be
       -0.18467656 -0.14037141 -0.12746757 -0.21112132
000390 8a bd 48 be bc 41 ec bd 18 19 2d 3d c4 a0 ca 3d
       -0.19603553 -0.11535975 0.04226026 0.09893945
0003a0 f0 3d bb bc fc fb 73 3e 70 cc 33 bd e2 e4 1c 3e
       -0.022856683 0.23826593 -0.04389614 0.15321687
0003b0 de 8d 6d 3e 10 3a 95 3c fc e6 df 3d 20 60 40 bc
       0.2319865 0.018216163 0.10932729 -0.011741668
0003c0 b0 86 18 bd 16 d0 51 be 30 72 07 be d0 f3 2f be
       -0.037237823 -0.20489535 -0.13227153 -0.17182851
0003d0 74 59 4e 3e 9c 42 89 3d 20 24 b6 bc 26 42 0c 3e
       0.20151311 0.06702158 -0.022234023 0.13697109
0003e0 54 56 93 3d 00 de 41 3d 1e 5c 2d be f6 21 74 3e
       0.071942 0.047330856 -0.16929671 0.2384108
0003f0 60 d6 bd 3c e8 8d 51 3e b0 e7 e4 3c 30 24 ca bd
       0.023173511 0.20464289 0.027942508 -0.098701835
