fw_flightcontrol/models/icinco/sac/gustonly/sac_bohn_caps_nohist_easymedrefs_gustsonly_2989_06-06_14:47:39.pt (torch, 854027 bytes, 20 tensors)

action_scale f4 [1, 2]
00000000: 0000 803f 0000 803f
1.0 1.0

action_bias f4 [1, 2]
00000000: 0000 0000 0000 0000
0.0 0.0

fc1.weight f4 [256, 14]
00000000: 7a86 35be 57c5 5440 4c56 89bd 7b33 b7bf
00000010: ddfa a2bd e37e 88bf 4879 153f 1a0f 293f
00000020: 3c1b 1c3d 524c 04bf ee74 02bd fdbe dc3b
00000030: 06ba 3b3f e29c 803d 43c0 39bf 861d 473f
00000040: 5773 51bd d07e aebf a3a5 80bd 4acb 8cbf
00000050: 9ae0 b43e 4fed 1640 6b75 853f 0b10 80c0
00000060: d8d7 7f3c 0436 923c 96fb 29bf eb58 fa3b
00000070: 6598 6ebd fa71 5a3f 8c39 61bc f2f7 21bf
00000080: ef45 123f 6e24 8a3e 296d debe e6bd 2cbf
00000090: f19e 943e d0a6 e53f 9d37 b1bd 9cd8 69bd
000000a0: bfe4 11bf 0270 64bd 2072 283f 3dbe f63f
000000b0: ff50 48bc bcf0 453f 7b04 0cbe 42fe 143f
000000c0: d824 43c0 84bb a440 df5b 8540 ada4 d23e
000000d0: a892 b63c 7a96 d0b9 4228 723e 48b8 45be
000000e0: ceff b73e 5973 fcbe f72e 6dbd d2cd 923e
000000f0: 197a 103d 59f1 e2be d41f 97be 6a4e a23f
00000100: cc77 bfbe be6f cbbf 701e 8c3e 207c 573c
00000110: cc42 75bf 1725 a8be 5be7 49be 5a54 143e
00000120: 6bd8 5abe a507 763e aa55 c3bd 5c85 c53c
00000130: 1c9c ffbd d91b 7fbe f616 273e 0b71 2d3d
00000140: eff5 11be 0080 603e fcc0 9a3d 0e06 613d
00000150: acc8 22be f3d6 173e eec5 32be 7fa9 28be
00000160: 253f 03be 413c 2b3e efc7 6dbd f3fa 7abd
00000170: 06ae 8c3e 674d 35be 0796 053e 941f efbd
00000180: 344d 653e ffbc a5bd ce10 1f40 fefa 0fbf
00000190: f1c1 d0b9 4e21 ed3e 1a81 20bd 658a 973e
000001a0: d3f0 4a40 db06 37c0 67bc 323f dc1c 07c0
000001b0: 4be9 dc3c 4bfe 02bc 8da2 c6be 1d99 61be
000001c0: 4d91 d53e 0715 f5bd 5b72 d5bc 118b f2be
000001d0: f131 313e 0d16 6dbf 49ed 01c0 e3fd 37c0
000001e0: f581 543f 637f 6240 c5d3 933d 4af1 dc3c
000001f0: 1224 a6be 79c0 7bbe 8553 773f 1e11 693f
00000200: 7f51 4abd 7730 cabe ff4e 633d 7be5 52be
00000210: 3098 90bf f642 8dbf 4f40 d33e b77c 9c3f
00000220: 7124 0f3d 6d8a 563c a877 9ebf 5de6 2f3e
00000230: c427 83bf 9a15 2f3f 46d1 09be 389d c13e
00000240: e97c 53bf eba9 abbe b66f 953f d5bd f0bd
00000250: f33b c73f c7c7 82bf 1dcc 693e 1395 ddbc
00000260: 3149 2e3e e439 72be 0f79 04be 79f9 733d
00000270: 9db5 80be 20f1 4fbd 275d 483e e1d6 39be
00000280: 07cf 67bd 47a4 81be 2e76 05be 9ba1 4f3d
00000290: 8944 4a3e 40aa 6b3e c36e 873d 4c0c a9be
000002a0: 6fdb 77bc 2537 e1bf 9f5f dfbc d8f1 f8be
000002b0: b0df 8cbe 0de1 d2be 0c6c 6240 1bb6 c03f
000002c0: f91e dbbe b536 1340 20ec 03bc 51e8 1a3d
000002d0: ed93 103f c0f4 8ebe a970 053f 52c2 85bf
000002e0: 7338 633c fe5b c43c c31d 4cbf 3cfb e33d
000002f0: 997d 133e 6538 803e de6e b8c0 ee13 73c0
00000300: d38a 4bbc 45bc 913d c0e9 eabc 94f0 e53e
00000310: 99c6 b8be 5afc e63c 80f2 d13b 2414 1640
00000320: d44a c23d c65d 0a40 8fc9 61bf 2653 1e3f
00000330: 1c9a 35c0 c6a7 95c0 2f2c eabc 1bb1 06bb
00000340: fa75 30bc be16 223e f137 17bf 7626 d33f
00000350: 1bcf 66bd 6537 ab3e 467a 723e c592 383e
00000360: c183 c43e c11f febf 22c8 d3bd 496a 503f
00000370: d4ea 9b3c d7e1 8c3b ecd7 79bf 7be6 c2bf
00000380: 48cb 693c 1b44 173e c284 77be 5f21 223d
00000390: 468b 5dbd 78d8 9fbd 6120 4cbe 8e8d 783b
000003a0: acdd 8b3d 240e e1bd a6be 233e 1b09 65bd
000003b0: e39f 38be fb2d 56bc f1b0 343d ae30 233e
000003c0: cd4e 79be 7311 04be 84fd dfbd c00b 49be
000003d0: 8b50 f4bd e370 0d3e a402 133e 5303 06be
000003e0: 550b 66be 2371 c1bd a7a2 323e b38b 603e
000003f0: 1518 68be 7068 49bf 0880 5ebe 5b14 45bf
-0.1772708 3.3245447 -0.06705913 -1.4312586 -0.079580046 -1.0663723 0.58388186 0.6603867
0.03811191 -0.51678956 -0.031849794 0.0067366348 0.73330724 0.06279923 -0.72558993 0.77779424
-0.051135387 -1.363245 -0.06281593 -1.0999539 0.35327607 2.3582342 1.0426458 -4.0019584
0.015615426 0.017848022 -0.66399515 0.0076399944 -0.058250804 0.85330164 -0.01374663 -0.6326896
0.5713796 0.2698092 -0.43442658 -0.6747726 0.29027513 1.7941532 -0.086531855 -0.05709134
-0.56989664 -0.05577088 0.6579914 1.9276806 -0.012226342 0.77320457 -0.13673584 0.58200467
-3.0491238 5.14789 4.1674647 0.41141263 0.022286728 -0.00039784965 0.2364817 -0.19308579
0.3593735 -0.49306753 -0.057906117 0.28672653 0.03527269 -0.4432476 -0.2951647 1.268018
-0.37396085 -1.5893476 0.27366972 0.013152152 -0.9580505 -0.32840797 -0.19717161 0.14485303
-0.2137162 0.24026354 -0.095378235 0.024111442 -0.124809474 -0.24912967 0.16317353 0.042344134
-0.14253972 0.21923828 0.0755634 0.054937415 -0.15896863 0.1482809 -0.17458317 -0.16470908
-0.12817056 0.16722204 -0.058052 -0.06127448 0.2747652 -0.17705308 0.13045512 -0.11675945
0.22392732 -0.08092689 2.4854007 -0.5624236 -0.0003981735 0.46314472 -0.03918562 0.29597774
3.1709487 -2.8597934 0.6981873 -2.1111364 0.026966712 -0.0079951985 -0.3879589 -0.22031064
0.41712418 -0.11966901 -0.026055505 -0.47371724 0.17304207 -0.9261177 -2.0301077 -2.874871
0.830108 3.539025 0.07218126 0.026970524 -0.32449394 -0.24585141 0.96611816 0.91041744
-0.049394127 -0.394901 0.05549526 -0.20595352 -1.1296444 -1.103606 0.4126 1.222556
0.034946863 0.013094527 -1.2380266 0.1717772 -1.024651 0.68392336 -0.13458738 0.3781526
-0.8261247 -0.33528075 1.1674716 -0.117549576 1.556517 -1.0217217 0.2283177 -0.027048623
0.17020108 -0.23654896 -0.12936805 0.059564088 -0.2513856 -0.050767064 0.19566785 -0.18148376
-0.05659392 -0.25320646 -0.13033363 0.05069123 0.19752707 0.23014164 0.06612923 -0.33017194
-0.015128001 -1.7594954 -0.027267275 -0.48622012 -0.2751441 -0.41187325 3.5378447 1.5055574
-0.42797068 2.300214 -0.008051902 0.03781921 0.56475717 -0.27921104 0.5212503 -1.0449927
0.013868439 0.023969647 -0.7973291 0.111319035 0.1440338 0.25043026 -5.7635336 -3.7980914
-0.012423235 0.07115988 -0.028675914 0.4491011 -0.36089018 0.028196502 0.006407082 2.3449793
0.094869286 2.1619735 -0.8819818 0.61845624 -2.837531 -4.67673 -0.028585522 -0.002055234
-0.010770315 0.15828988 -0.59069735 1.6496112 -0.056349855 0.334407 0.23679456 0.18024738
0.3838177 -1.985344 -0.10340907 0.8141218 0.019032873 0.004299383 -0.97595096 -1.5226587
0.014269657 0.14772074 -0.24171737 0.039582606 -0.0540879 -0.0780496 -0.19934227 0.003792617
0.0682939 -0.10989025 0.15990695 -0.055916887 -0.18029742 -0.013072486 0.044114057 0.15936539
-0.24346466 -0.12897281 -0.10937026 -0.19633389 -0.11929425 0.13812594 0.14356476 -0.13087206
-0.2246526 -0.09445407 0.1744486 0.21928291 -0.22665437 -0.78674984 -0.21728528 -0.76984185

fc1.bias f4 [256]
00000000: 6754 6b3f eafa 883f 76d2 303f 3b94 4e3f
00000010: 91e5 43be f00b 73be 6695 f73d 4c0f ae3c
00000020: 7b29 a53f 48ec 5d3f b399 5b3f 3e0c 55bc
00000030: ce23 2a3f 5312 a03f 2bdd 08bf 0515 8f3e
00000040: cc80 283d b23d 353e 752d a1bd ca54 9f3f
00000050: 00ff 423e 96ae 043f 864a 403d 3323 2cbe
00000060: 46cf 563f da81 363e f5da 113f 3ad2 1d3e
00000070: d276 52c0 d3f4 633e edd4 0abe 10f0 ecbf
00000080: 0c94 843e 8776 3abf deb3 5c3e a4b9 7f3e
00000090: cbb8 0e3f 5d27 793f d3e8 37c0 e925 c7be
000000a0: 99b1 5b3f 106d 933d cb85 b93f ad42 42be
000000b0: d1d7 783f 03cb 73bd bb6a fabd 21ed 843e
000000c0: 1e3c 3e3f d887 50be ee88 443f 8797 6bbf
000000d0: 324e 3cbc 1638 743e 8e53 8cbe 7fd2 87be
000000e0: ec61 493f 1756 873f 6432 e9bf c9d2 8f3e
000000f0: f13a 673f 6a11 593f 1892 81be 6da7 5dbe
00000100: 7005 333f edc4 bdbf 51d3 a13e c3a6 19bf
00000110: 9dcb 8b3f 597b a0bf c1a0 873e 55bb f6bd
00000120: 3a99 aa3d d174 08c0 4de4 663e 70bc ad3e
00000130: 762e 883b 3ba3 77bf e4c5 0a3f a43a 9c3e
00000140: 6b4a 14bf c134 3d3f b82c 773e 258b 89be
00000150: 08af 283d b84e 88be 1979 9f3f d2e3 333e
00000160: 46c3 aebe 6a39 023f 4efc 313e e198 853f
00000170: 5a34 023f a1cc f2bd 22ea aa3d 8fed d93e
00000180: 9a3c c63f 7b17 dc3b eee9 cabe 21f6 2cbf
00000190: d30c ddbd 9fcb 7aba b568 e03e fe64 9a3f
000001a0: 3222 12c0 866b 60be ead7 19bf 0a60 c3bd
000001b0: afe4 a3bf 60d0 3fc0 97e1 5b3f 2257 c73e
000001c0: f461 113e 585a 2dc0 3034 45be 4c6f 32be
000001d0: ab90 653e 1a0f f13f 9e2d 26be 078e b73d
000001e0: 6dda a1ba fc37 82bf c28a 1e3f beaf 87be
000001f0: a0c6 f73e 8b0f 33be 974f f33e 17fa 823f
00000200: c981 523f 61dd d1bd 6a88 07bf 2133 5d3e
00000210: 67d9 2cbe b5c4 8ebe 28c5 8b3f 85e6 db3d
00000220: 83d7 90bd d2fd e93e d8f6 d0bf 889f bfbe
00000230: d4ce 81be 9005 48bf 5158 12be 586d 263f
00000240: 3218 febd a81d 813f 3786 27bf f1dd 6fb9
00000250: c744 733e 35ab 73be bef6 5c3f 81f2 b63c
00000260: 3a26 babf e65d b43c 8e7d f4be 89b5 e13e
00000270: aa70 8bbd e3ae 0b3d b6d7 69be f1ba efbe
00000280: a55e fd3d b8db 4d3f 0e4a 693e ac73 603f
00000290: 901a 9d3f 46cd f83e ecd0 db3c 3f45 b7bf
000002a0: 6137 233e 6eee 58be fd24 8ebf 4899 813e
000002b0: 7b1c 3fbe 711d 803f 2b2f 923f bcdf f63f
000002c0: adcc 90be e1a5 95bf b149 33be 51c2 033f
000002d0: 392e b2be 52ae 9e3f ab13 283f bdeb f9bc
000002e0: 4acd 48bf aab0 803e dec4 1b3e a3f6 77be
000002f0: 8e7a 7a3d dba6 823f db44 d83d e155 fcbd
00000300: 8d91 6f3f 3f25 62bf 742c 11be c3cd 773f
00000310: 79d5 223e badb 113f d275 813f 5fee d03d
00000320: d40b e23d e3c1 863f b197 433e 8e97 9f3e
00000330: 9456 1ebe e621 67be cc4d 07be 07f0 42bf
00000340: 8d85 8ebf 3db3 bc3f 8706 963f 9ddb 1c3f
00000350: d5a9 313d 157e 04bd 8981 afbe f637 4b3f
00000360: 1005 e43d f31f 023f e6d7 72bf c443 1d3f
00000370: ff5e 123e e3ad 133f ea92 7bbf 0515 a23e
00000380: 346d 0fc0 4870 06bd 4da2 60be 7d7f 48bd
00000390: cfa7 513f c9fa 873d 2d4a 3cbe f166 c4bd
000003a0: 9bfd 1abf cc6b e3be 5732 16bc b2d1 76bf
000003b0: 25a3 0c3f 3761 793e f59c c33f 81d5 863d
000003c0: e92f 063f d05e 123f 8d3c f5bd 3a5a e13d
000003d0: 11a2 22bf 98f6 513d 2160 88be 6fe4 f3bd
000003e0: c13c 6d3f 5823 4fbe 4b3f 933f 3f0e 343e
000003f0: 072d 683f acae a73e 0bd0 6e3e df32 3fc0
0.9192566 1.0701573 0.6907114 0.8069493 -0.19130541 -0.23735023 0.12089042 0.021247528
1.2903284 0.8668866 0.857814 -0.013003407 0.66460884 1.2505592 -0.53462476 0.27945724
0.041138455 0.17699316 -0.07869998 1.244775 0.19042587 0.51828897 0.04694607 -0.16810302
0.83910024 0.17822972 0.56974727 0.15412226 -3.2885022 0.22261362 -0.13557787 -1.8510761
0.258942 -0.7283711 0.21552989 0.2497316 0.5575072 0.9732569 -2.8735855 -0.3889611
0.8581787 0.071985364 1.4493955 -0.18970747 0.9720431 -0.05951978 -0.122273885 0.25962165
0.7431048 -0.2036432 0.7677144 -0.9202809 -0.011493253 0.2384952 -0.27407497 -0.26527783
0.7866504 1.0573148 -1.8218503 0.28090504 0.9032431 0.84792197 -0.25306773 -0.21645899
0.6993017 -1.4825722 0.31606534 -0.60020083 1.0921513 -1.2537643 0.26489833 -0.120474495
0.08330007 -2.13213 0.22548027 0.3393283 0.004155929 -0.96733445 0.5420821 0.3051349
-0.5792605 0.7390862 0.24138153 -0.2686397 0.041182548 -0.26622558 1.2458831 0.17567375
-0.34133357 0.50868857 0.17381403 1.043728 0.5086113 -0.11855436 0.083454385 0.42564055
1.5487244 0.0067166663 -0.396316 -0.6756306 -0.10793462 -0.0009567085 0.43829885 1.206207
-2.283337 -0.21916017 -0.60095084 -0.09539802 -1.2804164 -2.9970932 0.858911 0.38933665
0.14197522 -2.7086391 -0.19258189 -0.17425269 0.22418468 1.8832734 -0.16228339 0.089626364
-0.0012348421 -1.0173335 0.6193048 -0.26501268 0.48393726 -0.17486398 0.4752166 1.0232571
0.82229286 -0.10247303 -0.52942526 0.21601535 -0.16879807 -0.2788445 1.0919542 0.107373275
-0.070723556 0.45701462 -1.6325331 -0.374264 -0.2535311 -0.7813349 -0.14291503 0.65010595
-0.12406959 1.0087175 -0.6543917 -0.00022875496 0.23756705 -0.23795779 0.86314 0.022332432
-1.4542916 0.02201743 -0.4775204 0.44083813 -0.06808598 0.03410233 -0.22836193 -0.46822312
0.12371568 0.8041339 0.22782156 0.876765 1.2273731 0.4859411 0.02683302 -1.4318007
0.15939094 -0.21184704 -1.1105038 0.25312257 -0.18663208 1.0008985 1.1420645 1.9287028
-0.28281155 -1.1691247 -0.1750858 0.5146838 -0.3480089 1.2396948 0.6565501 -0.030507917
-0.78438246 0.25134784 0.15211818 -0.24215178 0.061152034 1.020717 0.10560008 -0.123210676
0.9358147 -0.88338083 -0.14177114 0.9679834 0.15901746 0.569759 1.0114081 0.10201716
0.11037412 1.052792 0.19100834 0.31170315 -0.15462714 -0.22571525 -0.13213271 -0.761475
-1.1134506 1.4742199 1.1720742 0.61272603 0.043374855 -0.032346804 -0.34278515 0.79382265
0.11133778 0.5083 -0.94860685 0.6143153 0.1429405 0.57687205 -0.9827105 0.31656662
-2.2410402 -0.032821923 -0.21936913 -0.048949707 0.8189668 0.0663963 -0.18387671 -0.09589947
-0.6054322 -0.4441818 -0.009167275 -0.9641372 0.5493644 0.24353491 1.5282274 0.065836914
0.52416855 0.5717592 -0.1197444 0.110035375 -0.63528544 0.05126056 -0.2663584 -0.119088046
0.9267083 -0.20228326 1.150369 0.1758356 0.90693706 0.32750452 0.2332155 -2.98748

fc2.weight f4 [256, 256]
00000000: d811 8fbe 31c0 893d 65be b53d 3b59 9c3e
00000010: d688 63bf f081 13bd 92b3 16bd 51dd 823d
00000020: 4667 dc3e 799e 83be 51f7 03bf 4d36 353d
00000030: ce84 14bf ef48 8abe 816b ccbe 05b2 d6be
00000040: 28b2 01bd 46c6 683d a2d3 a0be a546 f83e
00000050: 8ba5 96be f798 aa3e 50a4 ebbd f72d cdbe
00000060: 6334 713e 2ec9 a3be 8b92 89be 0832 35bf
00000070: 1d51 afbe 28b0 a63c bd08 393d 9405 e9bd
00000080: c20c 1bbf ac23 88be a47b 7b3d 18d3 43bf
00000090: aa29 14bd 1085 4d3e b184 c7bf 050d 8f3e
000000a0: 7af3 423d 2098 bc3c b0a1 073d c6d4 26be
000000b0: ab77 e13d 80b0 9aba 6604 253d 4ada d6bb
000000c0: 5f2c a6be 54df b13c 08e8 2fbe 7800 58be
000000d0: 5fe6 ae3e 38f8 de3c 6886 073d 04e9 9bbc
000000e0: 912a 3bbe 223e babc 6ed5 11bf 4027 2abe
000000f0: 2fdd 273d 3d02 43be a75d 86be 780e b03c
00000100: 4d17 2ebd c0de e2be 33a1 0cbf 10c0 26be
00000110: a452 03be 4b75 24be 6650 40bf f679 88be
00000120: b052 e5bb 672c 2cbe d5c6 2abe ea0d cfbd
00000130: c482 133f 382d 8dbc 71e7 65be a949 6cbf
00000140: 2442 fe3e adc5 c1be 380b 59bc 44cc 9abc
00000150: 9178 193f 1858 4b3d e73b 633e b7b3 4b3d
00000160: cd55 13be c7a0 d53c 18b7 1f3c 6e1b 20bc
00000170: 30a0 f5be f4f1 cc3d b430 663d ec0c 60be
00000180: 0620 dbbd 4e26 30bd bec0 283f 2275 9bbe
00000190: 2405 0bbd 88c7 9ebc 61c0 2bbf 8bc9 573e
000001a0: 6764 52be ac47 883e fb9a d5bd 037d a7be
000001b0: 6e25 8bbf 8c19 15bf eab5 05be bd4a 0abf
000001c0: 00cb 68ba ee67 f83e b41c c03c 2b7e f23d
000001d0: cb85 273e 917c 12be 58bd f3bc 5d46 d73c
000001e0: 644c a9bc 3ddf c2bd 7af9 27be 485e 273e
000001f0: 5e2b 11be ed86 9bbe ea78 4cbe ed6c 193f
00000200: 54c0 8bbf fd62 4fbd 6809 babe f7d6 adbe
00000210: ce45 283d 5306 803d dea1 00be eabe 66bd
00000220: 4c55 87bc 439e b03e 8e13 2c3e 4ab6 89bf
00000230: 02ac 083d 04de dabe 9ced e73d 1d39 e7be
00000240: cc28 f2bc 9bfe 86be ddff b0be b4b6 443d
00000250: b076 7f3c 9ce7 82bc 6ed6 a33e fac0 5f3d
00000260: 4643 a43e acca f6be 7482 a7be 2f48 9fbe
00000270: 900d c23b 0841 8e3c 80d0 193c d8b1 49be
00000280: 10a8 c73d 1596 1f3d 905a 723d 23a2 8abf
00000290: 8fef 663e ff28 a43e e8ae 8dbc 07fd 613e
000002a0: 5c3e f03c 406c 4b3b 90f3 ca3e 1dd7 c9bd
000002b0: bbff 23be ab6c 033d c8ff 203f 4337 e93d
000002c0: 3ae0 53bf b2af 1cbf 006e c5bc 15dc d6be
000002d0: ffff 0abf 37d4 033e 1aac 83be 6494 babc
000002e0: f2cd aa3e b698 9cbe 5335 f73e 8446 acbc
000002f0: 3845 39be 58a9 f43e fe00 31be 086b 4abd
00000300: 8a6f 1cbd 48fb 35bd e8c5 a23e da5c a93e
00000310: b1e5 a0be ec42 a1bd bb8a 1bbf 5167 c33c
00000320: d652 3abd 1438 c8be 626f 1dbf b136 f9bc
00000330: 65e9 023e b640 193e e3a8 8c3e f546 6a3e
00000340: 0bab bbbe efd8 a93e c4a5 9fbe 1c25 e53d
00000350: c8d9 07bd 85c0 033d 7a34 1dbe 0679 823e
00000360: 0436 35bd 3c0c 423e 6a30 713e 67fe a9bd
00000370: e4be 72bd d696 c83d df08 4fbf 16d5 92bd
00000380: a019 12bf e91f cbbe 405c cd3b 8045 e8ba
00000390: a643 97bc 4291 5bbd a48f d83c 5511 23be
000003a0: 7b25 bdbe 3d98 20bf 542f 673d d9d7 13bf
000003b0: 76b3 06bf c42f d7be 5217 593e 7dcc 96ba
000003c0: 2ac9 30be d178 21bf 468a b93c 5592 893e
000003d0: 7a27 15be 0c7a 7f3d d954 6c3d 16b8 20bd
000003e0: 173f 32bd 7490 cf3c ef67 fbbe 0969 a9bd
000003f0: 4f64 a43e 7bda 0cbe 64f4 e9bc 0c15 10bf
-0.279433 0.06726111 0.088742055 0.30536827 -0.8888067 -0.03601259 -0.036792345 0.06389869
0.4304754 -0.25706843 -0.5154925 0.04424124 -0.58015144 -0.2700877 -0.3992577 -0.41932693
-0.031664044 0.056829713 -0.31411463 0.48491398 -0.29423174 0.33319828 -0.115059495 -0.4007413
0.2355514 -0.31989425 -0.26869616 -0.70779467 -0.34241572 0.02034767 0.04517435 -0.11378017
-0.6056634 -0.26589715 0.06139721 -0.7649398 -0.036172546 0.2007029 -1.5587369 0.2793962
0.04759548 0.023021758 0.03311318 -0.16292104 0.11009153 -0.0011801869 0.040287398 -0.006556784
-0.32455727 0.021712936 -0.17178357 -0.21093929 0.34160134 0.02721797 0.033087164 -0.019032009
-0.18277957 -0.022734705 -0.5696629 -0.16616535 0.04098242 -0.19043823 -0.26243326 0.021491274
-0.04250269 -0.4431057 -0.5493347 -0.16284204 -0.12824494 -0.16060369 -0.7512268 -0.2665555
-0.0069983825 -0.16813813 -0.16677411 -0.10110076 0.5762141 -0.017233476 -0.22451569 -0.92299896
0.49659836 -0.37846127 -0.013247304 -0.01889623 0.59949595 0.04964456 0.2219082 0.049731936
-0.14388199 0.026077641 0.009748243 -0.009772165 -0.47973776 0.100070864 0.05619879 -0.2187993
-0.10699467 -0.04300528 0.659191 -0.30362803 -0.03394045 -0.019382253 -0.6709042 0.21072976
-0.20546113 0.2661718 -0.10429951 -0.32712564 -1.0870798 -0.58242106 -0.13057676 -0.5402029
-0.0008880347 0.48516792 0.023451187 0.11840471 0.16359632 -0.14305331 -0.029753372 0.026278669
-0.020666309 -0.095152356 -0.16403762 0.16344559 -0.141767 -0.30376378 -0.19968 0.5993183
-1.0918069 -0.050631512 -0.363353 -0.33953068 0.041082196 0.06251206 -0.12561747 -0.056334414
-0.016520165 0.34495744 0.16804335 -1.0758755 0.033367164 -0.4274751 0.11324617 -0.4516076
-0.02956047 -0.26366124 -0.34570208 0.0480258 0.015592262 -0.01597958 0.31999534 0.054627396
0.32082576 -0.482015 -0.32716715 -0.3110976 0.005922027 0.017364994 0.009388089 -0.19696748
0.09748852 0.03896149 0.0591684 -1.083073 0.22552322 0.32062528 -0.017295316 0.22069179
0.02932661 0.0031039864 0.39638948 -0.09855483 -0.16015522 0.032086056 0.6289029 0.113874935
-0.8276402 -0.6120559 -0.024100304 -0.41964784 -0.5429687 0.12873922 -0.2571724 -0.022775836
0.3336025 -0.3058526 0.4828287 -0.021029718 -0.18092811 0.4778545 -0.17285535 -0.04941848
-0.03819231 -0.044429094 0.31791615 0.33078653 -0.3142524 -0.078740925 -0.6075856 0.023852976
-0.045489155 -0.39105284 -0.6149808 -0.030421587 0.12784345 0.14966092 0.274726 0.2287863
-0.36653933 0.3317332 -0.31181157 0.11188719 -0.033166677 0.032166023 -0.1535205 0.2548296
-0.044240966 0.1894998 0.23553625 -0.083004765 -0.05926408 0.09794395 -0.8087291 -0.07169549
-0.5707035 -0.39672783 0.0062671006 -0.0017720908 -0.018464874 -0.053605326 0.02643568 -0.1592458
-0.36942658 -0.627323 0.05644162 -0.5775123 -0.52617586 -0.4202863 0.21200302 -0.0011505034
-0.17264238 -0.63074976 0.022648942 0.26869455 -0.1456584 0.062372252 0.057698105 -0.039238058
-0.0435172 0.025337435 -0.49102733 -0.08271987 0.3210778 -0.13755219 -0.028558917 -0.56282115

fc2.bias f4 [256]
00000000: 8df8 81be a40b 123f e2a6 5d3c f922 86be
00000010: 1c3f 433e 2613 ac3e 432c bd3c 2fbf 1c3e
00000020: 96a6 c1be bf51 203e 52a1 0b3d a4c1 6a3c
00000030: 64fe 0e3f 8efe 2c3e 21ee 633d 8469 213e
00000040: 6312 4a3c 7789 923d f0e2 b9bd bc56 0fbf
00000050: 9ab6 433e 7fed 63be 0d58 83be fdd8 8fbd
00000060: 88e8 123c df6f bf3e 8872 c33c d211 bfbd
00000070: 30d5 903d 86a6 fa3e da2a f93b 363a dc3e
00000080: 577f 1abe 76a0 1ebe 8b11 9abb 1b20 103e
00000090: 0ea1 a63e cf70 5cbd 5bbf 52bd 8b67 313d
000000a0: f228 50bf e216 8a3b 4bf3 94bd 4119 083f
000000b0: 3ab3 cabc bab5 1a3f 695d 9fbd 9925 a3bd
000000c0: 4a09 8f3b f835 d0bd 014c 3ebd a698 573f
000000d0: 02b1 61be db4c 2b3f 8ec3 a4bd 307d 053f
000000e0: 2128 5cbd 42b3 fa3d e1ee 153f 40fd 943e
000000f0: f4e8 d4bd 5117 b03e 59b1 603e eafd 95bc
00000100: 4800 40ba cfc2 883e 8395 8f3e 3060 6dbe
00000110: eb79 a1bd 0419 acbd 9baa 9a3e 3b71 20be
00000120: f503 5cbe 2f59 bc3e 8652 2a3f 6502 80be
00000130: 4d4a c0bd 0bec 993c 675d f63b 473d 023f
00000140: e576 77bf 25cd 16bd 5ec5 2e3e 88db 35bd
00000150: 1a2a 14be 8b0d 23bb 53d1 67be ef4e eebd
00000160: 77c4 55bd 98aa 043e 93a0 043f 03a9 86bd
00000170: 07ba fabc 4530 3e3e 7d2e b3bd ae62 083f
00000180: e215 20bd 2a93 7ebc 205e ab3c a3b9 35bd
00000190: da6d 043f 8020 b4bd ea43 01ba 0723 0ebf
000001a0: 5077 9dbe b9fb a63c 01a2 1d3f 0d3e a7bd
000001b0: 218c 803c 8066 a8be 9683 63be eb48 0cbd
000001c0: 56c1 80bd 4adb ccbd 6221 7439 0a4b 83be
000001d0: 312e 2cbf 0fee ccbd a483 0f3c 83d6 343f
000001e0: 01db 05be 6036 56be d558 e7bd 58f1 053e
000001f0: 16ab 713f 5ee5 983d bd9a 143f dc95 8cbd
00000200: cd13 a6be f551 b93e f920 0abd d473 993c
00000210: 2849 733e 480b 7abd 82a1 1c3b c5b1 5abf
00000220: 005a 803e 48ab 223f c76a 4bbd d7ba e53e
00000230: 2da5 483e 9864 b2be 45ea 253f 447c e5bb
00000240: 31d9 a53c bf04 20bf be1c 0ebf 0263 d4be
00000250: 5433 8dbd 31ac cbbe b2c0 8a3c a348 643e
00000260: 6a68 55bd 8bd0 453b 39a3 bc3f 6a71 493f
00000270: 8635 d7be 062d 71bd 5878 37bc b2e4 83bd
00000280: f766 263f 1c70 f63d b3cf 1dbd f758 9c3e
00000290: f12a 1fbd 2c20 60bc 70e5 86be a920 eb3e
000002a0: 3e27 e93e 1e98 0e3e d247 58bd aaf9 9e3e
000002b0: b915 8ebd 8229 ed3e b801 243f 9c0b 1d3f
000002c0: 7346 52be bb42 bdbd d24f 3bbd b932 073f
000002d0: 8d45 293f e90c 69bb 9ff2 adbe c38e d4bd
000002e0: 4b96 56bd 4cd5 0f3f a7a7 8cbd e073 32bd
000002f0: 96ff 133e a24c 9dbc 7220 683f e673 503f
00000300: 6786 ec3e 5a37 39be a366 033e e1d8 203e
00000310: 2769 99bd 9dff 833f f341 02bd d834 e83e
00000320: 1ea8 0dbd 3551 c9bd 9b95 a1bd 462d d8be
00000330: 5f8b 0a3f 3fd7 cfbe 3d0e 9e3e ab6d cebd
00000340: b5d0 8abd be7d acbd ed9a 98bd c8f8 9b3e
00000350: c17a 8c3e 8414 66bd 70af 37bd 368c 78bc
00000360: 609a 05bd e8e6 7d3e 5498 9dbe 4dd0 15bd
00000370: db22 bdbd c616 d8bc 9037 90be 4d21 313e
00000380: de3f af3e 25e4 9cbe 454d 9dbe 2214 c0bb
00000390: 4b9f 323f 6f19 b1bc 97ac 04bf 8f19 89bd
000003a0: 65a8 3fbd fa98 5bbd 18ec 143f 859b 663e
000003b0: 9663 3abe 3694 02bf 5a57 8e3d 2ffb 7e3e
000003c0: e87a 9fbf 3ebf a73e 6238 3c3f 6fe5 363f
000003d0: 7c53 70bd a4fe c6bd 3248 493c 8ede 3dbd
000003e0: f722 773c 880f 0a3c b966 9dbe 4446 5b3d
000003f0: 0d6c b5bc 6edd 6fbd ec87 0f3e 323f 013f
-0.25384942 0.5704901 0.0135285575 -0.26198557 0.19067043 0.3360836 0.023092395 0.15307306
-0.37822407 0.15656184 0.034089394 0.014328394 0.5585692 0.1689398 0.05564702 0.15762907
0.012333485 0.071551256 -0.09076488 -0.5599172 0.19112626 -0.22258566 -0.25653115 -0.07023809
0.008966573 0.37390038 0.023858324 -0.09329571 0.07071912 0.48955172 0.0076039853 0.4301316
-0.15087639 -0.15490898 -0.0047017983 0.14074747 0.3254475 -0.05381852 -0.051452022 0.043311637
-0.8131248 0.0042141536 -0.07272967 0.53163534 -0.024743665 0.6043354 -0.077814884 -0.079661556
0.004365121 -0.10166544 -0.0464592 0.842173 -0.2204018 0.6691415 -0.080451116 0.52144146
-0.053749207 0.12241222 0.58567625 0.29099464 -0.10395995 0.3439279 0.21942653 -0.018309552
-0.00073242607 0.26711127 0.28043756 -0.23181224 -0.07884582 -0.08403209 0.30208287 -0.15668194
-0.21485884 0.36786792 0.6653217 -0.25001827 -0.09389172 0.018789312 0.0075184586 0.5087475
-0.96665794 -0.036816735 0.17067477 -0.044398814 -0.14469185 -0.0024879898 -0.22638445 -0.11636149
-0.052189317 0.12955701 0.51807517 -0.06575205 -0.030606283 0.18573101 -0.08749101 0.53275573
-0.03908337 -0.015538016 0.020918906 -0.04436649 0.5173012 -0.087952614 -0.00049310795 -0.555222
-0.3075509 0.020383703 0.61575323 -0.08166132 0.015691819 -0.328907 -0.22218165 -0.034249227
-0.06286876 -0.100027636 0.0002328209 -0.25643188 -0.6725798 -0.100063436 0.008759413 0.7063982
-0.13071825 -0.2091918 -0.1129624 0.13080347 0.9440168 0.07465623 0.5804861 -0.06864521
-0.32436982 0.3619534 -0.03372285 0.018731989 0.23758376 -0.061045915 0.0023899977 -0.85427505
0.25068665 0.63542604 -0.049662378 0.4486911 0.1959426 -0.34842372 0.6481059 -0.007003339
0.020245166 -0.6250724 -0.5551261 -0.41481787 -0.06894556 -0.3977981 0.016937587 0.22293334
-0.05210153 0.0030184116 1.4737312 0.7868868 -0.42033023 -0.05888083 -0.011198126 -0.064401045
0.6500086 0.12033102 -0.038528156 0.30536625 -0.03885931 -0.013679545 -0.26346922 0.45923355
0.45537752 0.13925216 -0.05280287 0.31049854 -0.06937737 0.4632073 0.6406512 0.6134584
-0.20534687 -0.092412435 -0.04573042 0.5281177 0.6612175 -0.0035560674 -0.33974168 -0.10378792
-0.052389424 0.5618484 -0.06867915 -0.04356754 0.14452967 -0.01920158 0.9067451 0.81426847
0.4619629 -0.18087521 0.12832122 0.15707733 -0.07490759 1.0312382 -0.031801175 0.45352817
-0.034584157 -0.09829942 -0.07889863 -0.4222204 0.54118913 -0.40593907 0.30870238 -0.10079511
-0.06778089 -0.08422421 -0.07451425 0.30463243 0.27437404 -0.05617191 -0.044845045 -0.015170148
-0.032617927 0.24795115 -0.3078028 -0.036575604 -0.09235164 -0.026378047 -0.2816739 0.1729786
0.34228414 -0.3064281 -0.30723014 -0.005861775 0.6977431 -0.021618573 -0.5182585 -0.06694328
-0.046791453 -0.053612687 0.5817275 0.22520263 -0.18202052 -0.510074 0.06950255 0.24900506
-1.2459383 0.32763094 0.73523533 0.7144384 -0.058673367 -0.097165376 0.012285279 -0.046354823
0.01508402 0.0084265545 -0.30742434 0.053533807 -0.02214625 -0.05856078 0.14016694 0.50487053

fc_mean.weight f4 [2, 256]
00000000: fbc9 833e 4993 013e 5393 303d a6ad 24bf
00000010: 9802 dcbd 0955 133f 7166 903e 264a 5abe
00000020: 6dc3 05be 0f72 e53b 2851 34bd a2d6 0dbd
00000030: 5f9a d33e bbf0 84be 62df 17be a620 c73e
00000040: 1a5b 653c 370e e73d b529 cb3c c3d1 53be
00000050: 2cb2 ab3d b4b7 0f3f 6928 f1be c37d 84bc
00000060: b648 f93c 8ea1 cb3e ee60 c73c f73b 523d
00000070: 03f8 9abd 6ca5 933d 03ea 09bd 16b0 84bd
00000080: 89ae 06be 0e0b 89bd 9c62 f33c 5f48 10be
00000090: 8b0a fabe 0631 063d 57aa e0bc 88f1 cebd
000000a0: 5612 c03e 17e6 253c 2dc3 393d fec4 23bd
000000b0: aa86 1bbd 278b 9dbc 4227 5b3a e925 65be
000000c0: 0a25 83be 8f3f fd3d 123b 55bd 786c e1be
000000d0: 880d 8ebe 451d 1c3e 070d 93bc 0f46 af3e
000000e0: 561b cfbc 78d1 e43e 5a9a 3b3e 1f37 253e
000000f0: f956 533d 20dc a03d 6186 183e 2ceb 1c3c
00000100: 1226 2ebc ff80 a2be 6a2f 60be 72f5 a7be
00000110: 8429 d3bc 44cc c0bc 865b f9bd 6e09 853c
00000120: 994e bc3d d5a9 dd3e dcc6 03bf 7c29 e9bd
00000130: d55a 163f e6b2 d2bd eada 34be c256 55bf
00000140: fc16 663e 03ef 023e ed6a 09bd 9c7f c0bd
00000150: 3632 e23e fc09 2b3c ace5 a73e 558b e63d
00000160: dfd5 1e3a 73be 6d3d 5dcc eb3c 6489 b63c
00000170: 6aba 2dbd 2117 1c3e 20e2 84bd f7c8 c5bd
00000180: 7dc7 2abc f7e6 9cbb 3306 063f feab 2dbd
00000190: 8261 a0bd 0516 40bd 388f a03d 3922 f9be
000001a0: ddd1 07be 220a 37bd 33dc 673e 9803 f33a
000001b0: bef4 e4bc 37ca 823e 9c0c ed3e e65d 26bd
000001c0: b827 c5bc f781 af3b b983 33bd 51f4 ef3e
000001d0: 23ea f93e 87bc b4bc 47a6 fd3b 28d4 d13d
000001e0: 2741 75be 83a6 41be 7cd5 203d c4c9 253d
000001f0: 2e16 5c3d c4c5 973e 02a4 763d 78e7 98ba
00000200: a85d 6b3e abc7 c43d 6e15 de3b 5bc1 e5bc
00000210: 9a62 1e3f fac9 31bc 88a7 2fbd 85e7 16be
00000220: c2e1 5ebe c6cf 04bf 8b6c 863c e348 9d3d
00000230: e4b9 aa3c 09ca 293f c251 cebd 5ea4 41bc
00000240: 7d00 83be 59dd fe3d 8dc5 9bbe b9c0 11be
00000250: d10f eb3c 9e5a e4bd 0e03 21be b1a8 6ebe
00000260: 685e 4a3d 58b9 72bd 4ea6 fa3d b04b a03e
00000270: 3c50 893e b301 e1bc f467 02bd 7c9c 1e3d
00000280: 06fe 71bd e565 a9bd 7f46 abbe 3ac6 9f3e
00000290: 94e1 01bb d880 963c 5fe4 033d 8f34 f73b
000002a0: 8acd 483e bd40 e4bc bd05 4cbc 9304 f23e
000002b0: 1257 cabd d322 97bd 1620 9d3f 2a7e 3fbe
000002c0: 6714 3f3e 24b9 61be cecd e0bc 86db 98be
000002d0: dee3 b9bd 22b1 9f3b 838d 42bf 3802 8b3e
000002e0: 0b10 ff3d 5bee 13be 8f42 743c 9e69 403d
000002f0: ddc7 05bf 9190 c3be 09da 8dbf 2d3a 173c
00000300: c759 753e 4235 5a3e c0cf 2cbe c71e cabd
00000310: 2bc0 eabc 6e5d aa3e 619b c6ba 4b17 4f3f
00000320: c851 15bd 2c8d 2b3e 5748 debd 13b0 cfbd
00000330: 58eb 06bf 23fa 343c a1a6 963d 60a8 adbc
00000340: ed5d 3cbd 6f52 fcbc c941 693d f082 37bc
00000350: 3a79 8a3c 7125 57ba 4f0c 803b d739 21bc
00000360: d6cf eb3c b789 0d3f 1498 9fbf 996d 133c
00000370: d27a 043d 52d6 02bc f3a4 11be 9264 e4be
00000380: 4403 1b3e d50d 6d3e 364a 8c3e 42a0 933d
00000390: 295c f2bc 0fcd 2fbb f3e2 8cbe 8a28 ecbc
000003a0: 674a 5abb ab37 c2bc 3d04 cb3e 7cfe cdbd
000003b0: 4fc1 b43e 7fa6 e83e 88ae a93e 6a65 99be
000003c0: 4b57 c4bd cd61 3b3c 8d87 553e 0523 293f
000003d0: b721 92bb dc95 11bc 6007 353c 7c27 70bd
000003e0: ba20 8d3d 60ae 933a 89e1 e1bd 5e72 7f3e
000003f0: 62a6 34be e023 e1be 177e 50bd 6c7f 1f3e
0.25740036 0.12653841 0.04310925 -0.64327466 -0.10742682 0.5755163 0.28203157 -0.21317348
-0.1306283 0.0070021222 -0.04402271 -0.034628518 0.41328713 -0.25964913 -0.14831308 0.38892096
0.013998771 0.11282008 0.02480016 -0.20685486 0.08383593 0.56139684 -0.47101143 -0.01617325
0.03043018 0.39771694 0.024338212 0.05132672 -0.07566836 0.07209286 -0.033670437 -0.06478898
-0.13152517 -0.06691562 0.029710107 -0.14090107 -0.4883617 0.032761596 -0.027424974 -0.10104662
0.3751399 0.0101256585 0.04535215 -0.03998279 -0.037970223 -0.019231392 0.0008360037 -0.22377743
-0.25614196 0.123656385 -0.052058287 -0.44028068 -0.277447 0.1524554 -0.017950548 0.34233138
-0.02528159 0.44691062 0.18320599 0.16134308 0.051596615 0.078544855 0.14895011 0.009577554
-0.010629194 -0.3173904 -0.21893087 -0.32804447 -0.025776632 -0.023534901 -0.1217566 0.016239848
0.09194679 0.43293634 -0.5147531 -0.11384866 0.5873235 -0.102880284 -0.17661634 -0.83335507
0.22469705 0.12786488 -0.033549238 -0.093993396 0.44178933 0.010439392 0.32792413 0.11257044
0.0006059091 0.058042955 0.028783971 0.02228231 -0.042414106 0.15243198 -0.064884424 -0.096574716
-0.010423538 -0.0047882753 0.5235321 -0.042400353 -0.07831098 -0.046896 0.07839817 -0.48658922
-0.1326365 -0.044687398 0.22642593 0.00185405 -0.027948733 0.25544903 0.46298683 -0.040616892
-0.024066791 0.005356069 -0.043826792 0.46866086 0.48811445 -0.022062553 0.007740769 0.10245544
-0.23950635 -0.18911175 0.039266095 0.04047562 0.05373209 0.2964307 0.060215004 -0.0011665663
0.22984946 0.09608396 0.006777457 -0.0280463 0.61869204 -0.010851378 -0.04288438 -0.14736755
-0.21765807 -0.5187954 0.01640918 0.07679918 0.020840593 0.66323906 -0.10074188 -0.011818973
-0.2558631 0.124445625 -0.30424157 -0.14233674 0.028694065 -0.11150096 -0.15723822 -0.23306538
0.04940644 -0.05925879 0.12238751 0.31307745 0.26819026 -0.02746663 -0.03183742 0.038723454
-0.059080146 -0.08271388 -0.33452222 0.31205922 -0.0019818293 0.018371984 0.032200214 0.0075441073
0.19609657 -0.0278629 -0.01245254 0.47269115 -0.098798886 -0.07379689 1.2275417 -0.18700472
0.18660127 -0.22043282 -0.027441885 -0.29854983 -0.09076665 0.004873411 -0.7599718 0.2715013
0.12454232 -0.14446394 0.014908447 0.046975724 -0.5225809 -0.38196233 -1.1082164 0.009230179
0.23960029 0.21309379 -0.16876125 -0.098691516 -0.028656086 0.33274406 -0.0015152508 0.8089492
-0.036454946 0.16753072 -0.108536415 -0.10141005 -0.52702856 0.011045965 0.07356001 -0.021198452
-0.045988012 -0.030801026 0.056947503 -0.0112006515 0.016903508 -0.00082071783 0.0039077173 -0.00984045
0.028785627 0.5528826 -1.2468286 0.008998298 0.032343693 -0.007985668 -0.1422308 -0.4460798
0.15137964 0.23149808 0.27400368 0.07208301 -0.029584961 -0.0026825105 -0.275169 -0.028827924
-0.0033308507 -0.023708185 0.3965167 -0.10058305 0.35303733 0.45439526 0.3314097 -0.29960185
-0.09586962 0.011436892 0.2085249 0.6606906 -0.0044595855 -0.008885827 0.011049122 -0.058631405
0.06891008 0.0011267178 -0.110293455 0.24945971 -0.17641595 -0.43972683 -0.0509015 0.15575951

fc_mean.bias f4 [2]
00000000: 9325 f1bd 6c29 203c
-0.11774745 0.009775501

fc_logstd.weight f4 [2, 256]
00000000: 042b ca3c 3050 c4bd 3e04 01bd e6c1 413d
00000010: c759 0dbc 478a 933d 19b5 b83d 2f24 f23c
00000020: 0d13 a5b9 a59a 813b 96a8 4dba d66e 2b3b
00000030: 13e8 f03c a0ae 463c 7122 d43a 6432 183d
00000040: 35be 5e3d 4dee bc3c aa06 fb3c 7a29 963d
00000050: 845d 59bc bd96 843d 6780 20bc 57c6 d83c
00000060: 83f2 df3c 3403 22bc f8dc 33bc 1073 b63c
00000070: 9a37 5a3c 8367 cfbc 5361 f8bb 0d1d 6bbc
00000080: 01ea 933d 2809 c0bc 3792 ea3c 7534 913b
00000090: 5db9 79bd c2a0 ab3c e0db 4f3d 9eb3 a13c
000000a0: 9a4e 5fbb 0919 8bbb 1770 62bc 3708 12bc
000000b0: d90c 5f3d ad9d c63a 8c67 af3b 5a43 783d
000000c0: 12fd 0a3c e829 d83b 22bc eabc 2e91 d7bd
000000d0: 63eb 493c 06fa e0bc 6eec fe3b 50b3 9c3c
000000e0: 0414 2f3c 9732 fd3e 3e90 88bb c76e 81bc
000000f0: f643 f4bc 1900 1b3c 1892 28ba 13c4 e9bc
00000100: 1ac3 8cbc 49dd 91bd 38ad 41bd 7ad9 ad3d
00000110: 0ea3 173c 1a79 80bc c6d8 41bc 5561 783c
00000120: f169 7d3b d418 1a3d 5382 4bbd bd86 97ba
00000130: 42ae 733d 2558 6e3d 395f 2dbc a9d6 feb8
00000140: d703 5e3a adf9 c6bc 567c 90bc 493f a2bc
00000150: 2c05 ad3c b02b 563b 32db bc3c 3a94 f73d
00000160: 0970 463d eca6 523c 0cc9 9dbb 89a1 383a
00000170: 07b5 7a3c e174 3a3c 0471 133d 4b08 a2ba
00000180: 8231 fdb9 f666 2f3d 5139 d13b 806e 143d
00000190: 92bc 713c 87ad fc39 59b6 f33c 59e1 353d
000001a0: b40a 973d f007 f5bc c305 d83c be30 c2bc
000001b0: 142d ec3c b0e3 e1bc ffeb 443d f819 13bd
000001c0: 98be 313c f5b3 6b39 6ad4 223d df05 febb
000001d0: efd0 423d d796 413d c574 4e3d 58f5 54bb
000001e0: 1ab8 573c 69c3 e3bb df8f aabc 50ac e2bc
000001f0: 5fda 303c 73a9 3dbc 76f2 c1bb e9d3 093d
00000200: 7d0e 5e3c 5cee 0b3a cb48 6a3d eccc 17bd
00000210: 5b12 3d3d 3c62 c2bc 1c4d e8bc 56a4 17ba
00000220: 78b0 b0bb 1ae6 edbc baa5 0b3d f102 99bc
00000230: 91dd bd3b 62a2 bfbb a157 053c df29 443d
00000240: efdf ff3b 3cdd 7ebc 1d4f 0e3d e4af a73c
00000250: 2cae 84bc 1e2a 293d fba0 b13c a1b1 e1bc
00000260: 8f79 a43d c364 463d e64d 8b3c 9e28 1e3d
00000270: 635a 3abc fdde 46bd bbee 8b3c cdad 413d
00000280: 2f3a 75bb 1af7 60bc 14d6 80bb ae1a 563e
00000290: b4f1 173c 4a79 6bbc 3210 18bc bd39 8d3c
000002a0: e60b 2b3c ac98 0c3c b4b4 f9bc 837d 83bc
000002b0: 7694 93bc 861a 353b c7d3 9cbc d4bf e438
000002c0: c1ba 5ebb 3fe6 41bd 26bd 3ebd 4c68 af3b
000002d0: 7fe1 c33a 5082 9cbc 915c 81bd 6247 c8bb
000002e0: c10d 53bc 93cf fd3c 87eb 8dbc be23 433c
000002f0: 5ff7 8ebd 0127 3cbc 8d0c a4bd 4f9b ffba
00000300: ce3a 253c 9246 6ab8 1cd7 9a3c 29fe 79bc
00000310: 3118 1f3b 021e 1b3c 1589 123d 8356 493d
00000320: 9d36 aebb 1ba6 4e3b 4a71 283c 47f9 743c
00000330: b601 d1bc cb2a 24bc f500 55bb d982 ddbb
00000340: 8497 383c e9a1 a53d 751e 563c c333 9abb
00000350: d7f6 923b 20c0 12bc ccd4 c8bb dc36 e1bb
00000360: b2b0 eebc 7798 80bd 41ed 9abd baef 1d3d
00000370: dd4e 843c f12b dfbc 00de c93c 6be5 89bd
00000380: a608 aabb 418f 413c 348e 973c 97a2 08bd
00000390: 5789 4b3c 753a 493d 8607 6cbc 00b6 6c3b
000003a0: ff29 f23b 3abe d93c cd1c 813d b98b 003b
000003b0: 7f15 583c aab5 293b f230 183e d4dd ca3c
000003c0: f65b cb3b 6f2c 403b d121 973c 0daf 05bb
000003d0: fb65 22bb ae56 95bc a0aa 683d f375 973b
000003e0: 8a00 6e3d 319f 443c 79bf 013c eb11 5d3c
000003f0: 8fb1 723c 428d 143b f217 b4bb b360 723c
0.024678715 -0.09585607 -0.031498186 0.047304057 -0.008627362 0.07204109 0.09018917 0.02955827
-0.00031485446 0.0039552026 -0.00078452507 0.0026158593 0.029407537 0.012126595 0.0016184581 0.03715743
0.054380614 0.02306285 0.030642826 0.0733213 -0.013266925 0.064740635 -0.0097962385 0.026461763
0.027337318 -0.009888459 -0.010977976 0.022271663 0.0133189205 -0.025317913 -0.0075799613 -0.014350188
0.07222367 -0.023441866 0.028634174 0.004431302 -0.06096779 0.020950679 0.0507468 0.019738968
-0.003407395 -0.004244928 -0.01382067 -0.008913091 0.05445561 0.0015153192 0.00535292 0.060611106
0.008483188 0.0065967925 -0.028654162 -0.10525738 0.012324187 -0.02746297 0.0077796495 0.019128472
0.010685924 0.4945266 -0.0041675856 -0.015799893 -0.029817563 0.0094604725 -0.0006430461 -0.028535878
-0.017182875 -0.07122285 -0.047284335 0.08488746 0.009255184 -0.015682746 -0.011831468 0.0151599245
0.0038667882 0.037621334 -0.049684834 -0.0011560541 0.059492357 0.05818953 -0.010581785 -0.000121516474
0.00084692 -0.024288977 -0.017637413 -0.019805567 0.02112063 0.0032679848 0.02305374 0.12088819
0.04844669 0.01285718 -0.0048152264 0.00070431136 0.015301949 0.011380405 0.035996452 -0.0012362091
-0.00048292807 0.0428228 0.0063850065 0.036238194 0.014754431 0.00048194473 0.029750036 0.04440436
0.07375088 -0.029911011 0.026369935 -0.023704883 0.028830089 -0.02757439 0.048076626 -0.035913438
0.010848664 0.00022478386 0.039753355 -0.0077521647 0.047562536 0.047262993 0.05040433 -0.003249487
0.013166452 -0.006950785 -0.020820556 -0.027670056 0.010794251 -0.011576044 -0.005918796 0.03364936
0.013553259 0.00053379475 0.057198327 -0.037060663 0.046160083 -0.023728482 -0.028357081 -0.0005784681
-0.0053921305 -0.029040385 0.034093596 -0.01867816 0.005794235 -0.005848215 0.008138568 0.047891494
0.0078086774 -0.015555676 0.034743417 0.020469613 -0.016196333 0.04129993 0.021683207 -0.02755052
0.08030998 0.048435938 0.017004918 0.038612954 -0.011374089 -0.048552502 0.017081609 0.04728489
-0.0037418713 -0.013730789 -0.00393177 0.20908615 0.009273935 -0.014372179 -0.009281205 0.017239446
0.0104398485 0.008581322 -0.030481674 -0.01605106 -0.018015128 0.0027634217 -0.019143952 0.00010907618
-0.0033985826 -0.04733872 -0.046567105 0.0053530093 0.0014944522 -0.019105107 -0.06316484 -0.006112025
-0.012881697 0.030982768 -0.017324222 0.011910377 -0.06980776 -0.011483909 -0.08010206 -0.0019501242
0.010084821 -5.585567e-05 0.0189014 -0.01525835 0.0024275894 0.009467604 0.035775263 0.04915477
-0.005316569 0.0031532112 0.0102809165 0.0149520105 -0.025513511 -0.010019968 -0.003250179 -0.006759983
0.011266593 0.080875225 0.013068785 -0.0047058775 0.004484992 -0.008956939 -0.006128883 -0.006872995
-0.02913699 -0.0627908 -0.07564784 0.0385587 0.016150886 -0.027242633 0.02464199 -0.06733211
-0.0051890193 0.01181394 0.018500425 -0.033358183 0.012422881 0.049128015 -0.014406091 0.0036119223
0.00739026 0.026579965 0.063043214 0.0019614531 0.013188719 0.0025895634 0.14862421 0.024763979
0.006206031 0.002932336 0.018448742 -0.0020398528 -0.0024780023 -0.018229809 0.056803346 0.004622215
0.058105983 0.012000845 0.007919186 0.0134930415 0.014812841 0.0022667204 -0.0054960186 0.014793563

fc_logstd.bias f4 [2]
00000000: ba02 79bc 60b3 e5ba
-0.015198404 -0.0017524771

fc1.weight f4 [256, 16]
00000000: 5d50 98bf 0f44 5b3f b85b 36bd 9a66 8a3f
00000010: 76c7 8b3e ca27 8c3e 6dce 1ebf a494 85c0
00000020: d63e e140 0f16 96c0 3c51 a13e f78d 663d
00000030: 62a8 0a3f a9cf 25bf 2bfa 8e3e 4408 7b3e
00000040: 595b b1bd d3e5 00c0 b948 15bc 7b75 6f3f
00000050: 5bed fa3c 27a0 553f 7364 07bf 3d21 86bf
00000060: 2609 1740 17cb 5ac0 b49e 6fbd 930d f3bc
00000070: 2a05 8abe 911f d63d 2890 00bd 1ed9 4cbd
00000080: c707 70bf 1577 3040 3ad0 2abe 14c2 e63f
00000090: 424e 193d e3b1 9b3f 1f1f 103e 4a26 393e
000000a0: c273 2e40 4941 c2c0 113b f3bd 54d9 6c3c
000000b0: f69b 2ebf 75be 323e 837c 5c3e ab69 9e3c
000000c0: d605 d3bc 6b31 e03d f151 8ebe 67ef 253e
000000d0: 5403 003d 206c 30be 891c 8bbe 3438 7d3e
000000e0: 5895 4cbe ae46 edbc 3cdd 583e 564e 453e
000000f0: 30a5 56be 6899 43be b870 32bd 7943 6dbe
00000100: 0b5f 1a3e 77d3 bc3d c53a 19be 4a19 8ebc
00000110: 2ec5 86be fba0 1f3e af93 46be 449d 4d3d
00000120: e7be 813e 9dca 3f3e 84a0 bd3d 485d 6fbe
00000130: b496 003e 9368 833d 1432 ebbd b4c0 fd3d
00000140: 7e6c cf3c b3c7 223e 5cd7 25be 9c3d 5bbe
00000150: 2ba3 2fbe b3e1 09be 5c92 27be 84ce 773d
00000160: 0982 0dbe 5b96 403e 3c39 56be fa03 e3bd
00000170: e4bc 8abc 41c9 ea3b ef7e 513d 4056 343d
00000180: 295a 1340 922d a53f 7674 28be 1314 bebf
00000190: 3d8a fabe 33ba 193f afd4 a3be b54c ebbf
000001a0: e2f7 9bc0 7362 cbc0 fa41 00bf 2e78 193e
000001b0: adc9 a03d 334c 623f 6848 d2be 456c dfbe
000001c0: 0fc9 61be a0ad 16be b0cb 05be 1a1b 393c
000001d0: df84 f13d 9534 313e b10c 1dbe 7df4 a8bc
000001e0: 8179 0d3e c393 2f3e dfa7 513c 5ce7 bfbd
000001f0: 7906 c5bd c04d ecbc 74c4 c73c c525 00be
00000200: 0d39 81be ade3 e1bc bc1b 36be 1f20 583e
00000210: 55da 903b 6089 793e 4c12 f63d 8ed5 9cbd
00000220: 6009 3ebb 5afd de3d aa36 ed3c 67fb a0bd
00000230: f89e 243c 69c2 97bd b52d 443e 5585 c4bd
00000240: 4373 1a3e 62f3 59be 625e 0abe 3123 46be
00000250: fea5 18bd 009d 2ebe 8d32 593e dd00 26be
00000260: 2409 02be c57a 3ebe 678c 1fbc 1ac8 21bc
00000270: 2974 39be bcc0 4dbe 0f98 9fbc 7277 fc3c
00000280: 2c06 3440 e34b 0240 3961 0cbe eff7 6240
00000290: 320b b0bd 8ed4 4040 f6e6 a0bf 64ea 2040
000002a0: 76a2 1abf 0f0f 3ec0 6ac2 7a3d da10 b5bc
000002b0: 531f ebbc 1248 8fbf a234 debc 8bb2 c7bb
000002c0: 005f 5f3d 96ae 2bbe b48c 5abe 60b4 d33c
000002d0: 462d 7dbe 2419 17be e850 2abd 805d 463e
000002e0: 3a7a 4f3e 0461 8dbd ea5f 38be 3a05 07be
000002f0: 72ef 1e3e 4806 58be 18a8 573e 7001 413d
00000300: 91f1 5f3f 322d 12c0 1f76 aabd 935f 94bf
00000310: d8d6 24bf 73b4 94bf 046e bc40 1373 dabf
00000320: 4b48 4a3f 3374 5540 a2c2 aebd 97e8 b5bc
00000330: 204f 043e 28a9 913f 1f31 92bd 162b 05bd
00000340: 29c5 b33f e282 a23f f016 0b3d 3568 9c3f
00000350: f9ec a73e 8586 523f 16f5 d73f 5146 c3c0
00000360: 9c47 0fc1 9261 10c0 f023 963c 3546 7cbd
00000370: d1ac 44be d3ab 50bd 6dc1 23bc 3a34 a0bb
00000380: e6a2 efbf 02b9 bd3f ab6a 30bd 07eb e83f
00000390: 3528 bb3e c36e be3f 523c e53f 2d29 e140
000003a0: 4a5b ff40 a152 8fc0 92a0 a13d d692 53ba
000003b0: cba1 cebc 9b6b a0bf 21a2 0c3d 20d7 6f3c
000003c0: f717 863f 068c 1240 4d05 a13c 824e 1bc0
000003d0: 5685 b1be 81b6 35c0 a00d 203e 24f2 8740
000003e0: 8b8b 3abf 1cc5 3740 6bfa 253d 3e66 59bc
000003f0: 2485 c23d c696 19c0 6b1f 913c 3ba1 293d
-1.1899525 0.85650724 -0.044521064 1.0812562 0.27300614 0.27374107 -0.6203373 -4.1743946
7.0389204 -4.6901927 0.3150729 0.056287732 0.5416318 -0.6476999 0.27925238 0.24514872
-0.08660001 -2.0140274 -0.009111577 0.93538636 0.030630758 0.834475 -0.5288765 -1.0478894
2.3599334 -3.4186456 -0.05850096 -0.029669559 -0.26957065 0.104552396 -0.031387478 -0.050011747
-0.9376187 2.7572682 -0.16680995 1.8027978 0.037428148 1.2163662 0.14074372 0.18081012
2.7258153 -6.0704694 -0.118765004 0.014456112 -0.6820673 0.17455466 0.21531872 0.019337496
-0.025759619 0.10946926 -0.2779689 0.16204606 0.031253174 -0.17228746 -0.27170208 0.24728471
-0.19978845 -0.028964367 0.21178144 0.19268164 -0.20961452 -0.19101489 -0.04356453 -0.2317027
0.15075319 0.09220021 -0.14963825 -0.017346043 -0.2632231 0.15588753 -0.19392274 0.05019881
0.2534096 0.18729635 0.092591316 -0.23375428 0.12557489 0.0641643 -0.11484161 0.12390271
0.025320288 0.15896492 -0.16195434 -0.21410221 -0.17152087 -0.13465004 -0.16364425 0.060499683
-0.13819136 0.18807356 -0.2092027 -0.11084743 -0.016935773 0.0071651046 0.051146444 0.044027567
2.302378 1.2904532 -0.16450676 -1.4849876 -0.48933592 0.6004974 -0.31998202 -1.8382784
-4.874009 -6.3557677 -0.5010067 0.14987251 0.078509666 0.8839752 -0.41070867 -0.4363729
-0.22049354 -0.1471467 -0.13065982 0.011297965 0.11792921 0.17305215 -0.15336873 -0.020624394
0.13815881 0.1714621 0.012796371 -0.093703 -0.09620375 -0.028845668 0.024385668 -0.12514408
-0.2523884 -0.027574385 -0.17784017 0.21106003 0.0044205585 0.2436881 0.120152086 -0.0765792
-0.0028997287 0.10888167 0.02895673 -0.07860451 0.010047667 -0.07410128 0.19158061 -0.095957436
0.15083031 -0.2128425 -0.13512567 -0.19349362 -0.037267677 -0.17052078 0.2121069 -0.16211267
-0.126988 -0.1860152 -0.009738064 -0.009874368 -0.18110718 -0.20093054 -0.019481687 0.030818675
2.8128767 2.0358818 -0.13708963 3.5463827 -0.08595885 3.0129733 -1.2570484 2.514306
-0.60404146 -2.969669 0.061220564 -0.022102762 -0.02870146 -1.1193869 -0.027124707 -0.006094282
0.05453396 -0.16765818 -0.21342736 0.025842845 -0.24724302 -0.14755684 -0.041581064 0.19371605
0.2026147 -0.0690327 -0.18005338 -0.13185588 0.15521029 -0.21096146 0.21060216 0.04712051
0.87477976 -2.2840085 -0.08323311 -1.1591667 -0.64390326 -1.1617569 5.8884296 -1.7066368
0.7901656 3.3352172 -0.08533217 -0.022205634 0.12920809 1.1379747 -0.07138275 -0.032511793
1.4044544 1.2696192 0.03395742 1.2219301 0.32797983 0.8223651 1.6871669 -6.1023335
-8.954983 -2.2559552 0.018327683 -0.061590392 -0.19206549 -0.050945114 -0.009994847 -0.0048890384
-1.8721588 1.4822085 -0.043070477 1.8196725 0.36554113 1.4877552 1.7909033 7.0362763
7.9798937 -4.4788365 0.078919545 -0.00080708915 -0.025223633 -1.2532839 0.034334306 0.014638692
1.0476063 2.2897964 0.019655848 -2.4266667 -0.3467204 -2.8392642 0.15630198 4.248308
-0.72869176 2.8714056 0.04052202 -0.013269005 0.09498051 -2.3998275 0.017715177 0.041413527

fc1.bias f4 [256]
00000000: 5f81 1d40 e5bc 1540 b7ea 97bf ddac 8dbe
00000010: 4d51 84bc 2f35 1a3e ec47 533f c404 18be
00000020: 0466 55bd afa3 193e d002 3240 c87e 473d
00000030: 9e53 cc3e 8179 2dbf f0f7 afbf dcbc 33bf
00000040: 931c a6bb 0a62 af3f c720 6cbe 08f3 d2bd
00000050: 3445 053f e2cb 71be 571f 59be 48ed 0cbd
00000060: 4888 643e d826 92be 94a0 debd 5b97 63bc
00000070: 4f16 1dbe 49b9 14be 4f26 3240 6a7d 13be
00000080: 7566 fdbf daee f7bf a9e2 15c0 9697 2140
00000090: b8e6 0c3e e086 8abc 4ec8 f93f 1788 1dbe
000000a0: c88e 12be aa88 3f3f ffd5 623d 209d 14be
000000b0: 5824 333e 0371 703f 4d5b 0940 8e3a 9540
000000c0: 78c3 ea3f b5e1 ca3f 7cb1 2640 e832 3240
000000d0: 2dee b13f 1cc9 1ebc e7a6 89c0 506d 3c3e
000000e0: f486 3440 ff95 143e 3ad8 a83d 3a1d 94bd
000000f0: 0347 2cc0 de1c 6e3e a257 b53e 191d f43f
00000100: 44dc 0dc0 6f36 89bf 123c 243f 7162 133f
00000110: d585 00bf 348c 1a40 a447 aebe e12b 78bf
00000120: da08 183f e6d7 43c0 4fee 3fbe e423 52c0
00000130: 2c25 653e 4c9f 3ebe f06a 95be 10cd 84bd
00000140: 2a48 b040 8e39 1140 023a 0b3c 8039 f9bc
00000150: b17a 3c3e ae4a 253f 565e 27c0 79d5 acbf
00000160: 6226 b93d 313d 45c0 165f b33c cd22 1cbf
00000170: e3d7 593e 9456 c83d 26c0 8c3f a43c 32be
00000180: 941e b03d 4cc3 113e 1db4 243e d11f fe3e
00000190: e820 dc3f 1f2b 4dbe 0ee9 3c40 c8bc c3bf
000001a0: 19e4 d3bf 4ba1 4f40 80df 9d3b 6f1d a5bc
000001b0: ba84 9dbf 5b84 41bf 2ff5 25be 9e92 8540
000001c0: 7a86 1c40 9709 efbf 38b0 4240 3fd4 893f
000001d0: 77a3 74bf cda6 5abd dd81 ebbf 605e 503c
000001e0: c1cd 443d 1b13 19c0 50dd 4c40 0f0e 4040
000001f0: 5472 a93f 0185 a9be 1d51 e3bf 0b78 92bf
00000200: 9a5d 01c0 ee0e 723e 270d 14be 8b7c 87be
00000210: a0f0 883f 1996 08be 8046 77be beab 40be
00000220: dc9c ae3d 2f9f ebbd 1ae7 b23f 6e0f 133f
00000230: 2dc0 2540 0b59 1ec0 65b9 2fbb 1b35 09c0
00000240: 7a21 733e e601 e7bf f953 ef3f de05 533f
00000250: 0c01 ac3d 85de 333f baaa 3fbe 8c19 953f
00000260: c2ba b6bf 0544 f63f 0d2c 8cbd 1894 a43f
00000270: 56f0 5a3e ab41 303f dada 2e3d ac6a 193e
00000280: f6e6 19bf 3586 e43d 516c cb3e a11f 6f3f
00000290: 5c2b c6bf 7b87 3fbf 3950 36bf 553d 9bbf
000002a0: 871f 1d3e 7292 75be 236e 87be 35b6 e1bd
000002b0: 9dc5 c23f 2b7e 333e bd26 433f 700e 383f
000002c0: b081 b9bd f813 34bd 6476 813d e6d7 78bf
000002d0: ddaf 25c0 928d fa3e ab68 52c0 4c1e 17c0
000002e0: 53a0 22bd be41 6e3e c644 62be 342b 42c0
000002f0: dc5d 62be 6da2 d6bd 228d db3e f112 0a40
00000300: c8ba 1a3d 346b 5d3e 513a 25bf b005 9cbd
00000310: d325 993f e892 80bd 907d a9bf 4673 ae39
00000320: 2a33 6140 2af6 d5bf 5d32 bd3d 90b9 44be
00000330: e8d7 dbbd 4635 acbf 01ae 073f d3c1 773d
00000340: 40a0 4b3f 5984 30c0 7b5b 99bd b106 5bc0
00000350: dafe 8f3e 3531 853e bd92 44bd bbcb 1f40
00000360: 6244 853d 6efa 1d3e 40ed 33be fdca 7fbe
00000370: bf07 00c0 9f73 4bbf 0c8c 2dbe ddc1 893f
00000380: 6a8f 7c3e 56d8 7fbe b706 8d40 e3e0 6f3f
00000390: ad0d 80bf 2f92 6cbf d75c c3be 23c5 b5bf
000003a0: 103d e93d f4ea 8cbf 8841 9e3d 984f 11bd
000003b0: b846 87bd 032d 653d 4c35 91bf 51ea 403e
000003c0: 9829 64bd 1382 6b3f 6b53 26bd c699 06be
000003d0: c162 603e d4b6 42be d863 7b3e 40bd 04bd
000003e0: c0c4 f43c 4b58 a3bf d4fc 57bf 743f 8b3f
000003f0: 57f5 d73f 15a8 ed3d d925 7f3d 8837 0f40
2.4610212 2.3396542 -1.1868504 -0.27670947 -0.016152048 0.1505935 0.8253162 -0.14845568
-0.052099243 0.15003847 2.7814217 0.048704892 0.39907545 -0.67763525 -1.374754 -0.7021005
-0.0050693243 1.3701794 -0.23059379 -0.10300261 0.5205872 -0.23612931 -0.21203361 -0.034405977
0.22317612 -0.2854526 -0.108704716 -0.013891066 -0.15340541 -0.14523806 2.7835882 -0.1440331
-1.9796892 -1.9369767 -2.3419592 2.524877 0.13759887 -0.016910017 1.9514253 -0.15383945
-0.14312279 0.7481791 0.055379864 -0.14513063 0.17494333 0.9392244 2.1461976 4.663398
1.8340902 1.585013 2.6045828 2.784357 1.390081 -0.009691503 -4.301624 0.18401074
2.820737 0.14510344 0.08244367 -0.07232137 -2.6918342 0.232532 0.3541842 1.907138
-2.216569 -1.0719737 0.6415416 0.57572085 -0.5020421 2.4148073 -0.34039032 -0.96941954
0.59388506 -3.0600524 -0.18743251 -3.2834406 0.22377461 -0.18615454 -0.2918315 -0.06484425
5.508809 2.2691379 0.008497717 -0.030422926 0.18406178 0.6456708 -2.6151328 -1.3502647
0.09040524 -3.0818598 0.021895926 -0.609906 0.2127376 0.097821385 1.0996139 -0.17405945
0.08599582 0.14234656 0.16084333 0.4963365 1.7197542 -0.2003598 2.9517245 -1.5291986
-1.6553985 3.2442195 0.004817903 -0.020155637 -1.230613 -0.75592583 -0.16206811 4.1741476
2.4457078 -1.8674802 3.0420055 1.0767897 -0.9556193 -0.05338173 -1.8399006 0.012717813
0.048047785 -2.391791 3.2010078 3.000858 1.3238015 -0.33109286 -1.7759129 -1.1442884
-2.021338 0.23638508 -0.14458142 -0.26462206 1.0698433 -0.13338508 -0.24147987 -0.18815514
0.08526012 -0.11504971 1.3976777 0.5744542 2.5898545 -2.4741848 -0.0026813385 -2.1438663
0.23743239 -1.8047454 1.8697501 0.8243083 0.08398637 0.7026141 -0.18717471 1.1648421
-1.4275744 1.9239508 -0.068443395 1.2857695 0.21380743 0.688502 0.042689182 0.14982098
-0.60118043 0.111584105 0.39731076 0.93407637 -1.5481982 -0.748161 -0.7121616 -1.2128092
0.15344058 -0.23981646 -0.26451215 -0.11021081 1.5216557 0.17528598 0.76230985 0.7189703
-0.09057939 -0.043964356 0.06321409 -0.97204435 -2.5888588 0.48936135 -3.2876384 -2.3612242
-0.03970368 0.23267266 -0.22096547 -3.033887 -0.22106117 -0.10480199 0.42881113 2.157406
0.037775785 0.21622926 -0.6454211 -0.07618272 1.1964668 -0.0627802 -1.3241444 0.00033273752
3.5187478 -1.6715748 0.09238122 -0.19211411 -0.1073454 -1.3453758 0.52999884 0.06048758
0.795414 -2.7580779 -0.07488152 -3.4222834 0.28124124 0.26014104 -0.047991503 2.4968097
0.065071836 0.15427563 -0.17570972 -0.24979778 -2.0004728 -0.794733 -0.16947955 1.0762287
0.24664083 -0.2498487 4.4070697 0.93702525 -1.0004174 -0.9241056 -0.3815677 -1.4200786
0.113886 -1.1009202 0.07727343 -0.035476297 -0.066052854 0.05595113 -1.134439 0.18839385
-0.05570373 0.9199535 -0.040606897 -0.13144597 0.21912672 -0.19015056 0.24549806 -0.032407045
0.029878974 -1.276132 -0.8437016 1.0878739 1.6871747 0.11604325 0.062291954 2.2377644
