fw_flightcontrol/models/icinco/sac/gustonly/sac_bohn_caps_nohist_easymedrefs_gustsonly_4508_06-06_14:47:31.pt (torch, 854027 bytes, 20 tensors)

action_scale f4 [1, 2]
00000000: 0000 803f 0000 803f
1.0 1.0

action_bias f4 [1, 2]
00000000: 0000 0000 0000 0000
0.0 0.0

fc1.weight f4 [256, 14]
00000000: 0a87 f03d 30a7 f3be 4185 b0bc 4ff2 94be
00000010: 15da 723f f28a f23e 0741 c7be 953c 623f
00000020: bfc4 973e 9eac a43c 36a9 25be 04d9 3fbe
00000030: 0219 d3be 44fa 273f 554d 46bf 7451 02c0
00000040: d9b0 933a 9f79 223f 1d24 b73e 9f54 b13f
00000050: 5566 7dbf 96f3 523d 1352 0cc0 19a0 853f
00000060: 1757 2ebd a608 babd 241b 093d 6d45 f63d
00000070: 23a5 9c3f 22d2 8d3e b51e 16bd 810b 81bf
00000080: 0dd0 7fbc b8ae 7dbf adf5 203f 6265 e23f
00000090: 4ed6 b43f 7105 f9bf 4004 8f3d 0c46 a7bd
000000a0: 418c ba3f d15b 363d f2d6 87be 5aa2 43bc
000000b0: eea7 2cbe 3f1b 1f3d aea9 ce3d 43cb e8bd
000000c0: 20f6 ffbd 6d09 5abe 4934 743e ba18 313d
000000d0: a56c 57be c364 193e fcdb 5c3e adc2 8abd
000000e0: 1b67 1fc0 dd8d 14bf dcde 11bd ed27 b7bf
000000f0: d445 d23c 7ec8 a2bf 131c ec3f 9674 64bf
00000100: 2423 a13f 25d6 0340 047d 383d 8359 573d
00000110: dc9b a73e 4f02 8bbf 243a 5c3d 120e 96bc
00000120: 3d0f bebd 265d 41be 18dc 543c df0c e6bd
00000130: 96c2 8f3e 47c0 513c bc6d 45bd 6ebd 53be
00000140: d7e2 653d 2a8f a5bd 25a3 9abd e04a 3b3e
00000150: d584 4ebf 71f0 b3bd 12b2 fa3c 6d4a 16c0
00000160: 6a52 56be 8b0b e8bf 1207 9240 0d1f 90bf
00000170: 4fe7 36c0 6abc df3e a149 19be 44c9 3d3d
00000180: a127 43be 54f1 21bf c9d3 7a3c 1457 35bd
00000190: c5d1 84be 0818 273d ea61 1abe 9294 3ebd
000001a0: bf56 c2bd 6510 7bbe 0e45 533e c3b7 88bd
000001b0: d7c7 a8bd c405 3cbe 946a 5ebe 1ffb 633e
000001c0: 8eec dcbd c03d 573d ae21 1dbe 9e93 94bd
000001d0: f24f 01be 456d dcbb c504 7e3e 013a 75be
000001e0: 63d4 113d 9afb 013e c90a 5f3e 910a 10bc
000001f0: 3193 49be 241d dbbd 511a a9bf 3ddb ea3f
00000200: 261b 1abd 15c4 df3e 25fe bfbd 2d58 1e3f
00000210: 0698 3c3e 5db6 c13f 8c06 7cbf c1d9 6c40
00000220: 6d8c 2cbb 2b49 5d3d 8596 103e f52d d6be
00000230: d2f0 27be 6862 0ebe f4f6 1cbe 8123 29be
00000240: 8f7f 58be 8aef 353e db19 5dbe b1f8 c8bd
00000250: 0a43 52be 709d 65bd a16f ae3d 5d56 e03c
00000260: fb25 74bc 6ecf c7bd ca09 3e3e 3374 c33d
00000270: 804e 73be d8f5 66be 243b 10bd 75e2 363e
00000280: 9c5c 803e 07ce 84be ea0e 08be 7cc2 6e3e
00000290: eba5 00be d8a5 38be 091d 623e 99ca 08be
000002a0: 2ba8 ca3d 0033 373a 73ed 66bd 1182 b93d
000002b0: 2225 ccbc 25b6 543d adbe 653d 7619 a03d
000002c0: 1ce1 c4bd 5838 cdbb f48f bbbd 576f 213d
000002d0: 5183 093e c3e7 d73b 4835 273f 1da5 853c
000002e0: e3f8 8abe 698e 923c a500 fe3e 9fdc 3f3e
000002f0: 969e 473e 2af9 fa3e 3201 f3be 8155 a6bf
00000300: bea8 78bd 29fa 12bd e931 d0bd 69fc 0d3f
00000310: 9f3f e63e 5870 89be 8789 e4bc cefe e73e
00000320: 677d dbbe 3391 55be 0fc8 52bf 1e0a 83bf
00000330: 8195 6540 4722 4440 b292 4c3e 8572 263d
00000340: 94fb 1e3e de9d 873e 5d63 783d da59 1e3e
00000350: 7f5b 59be 39ac 2cbe 571d 523e 2a3b 403e
00000360: dd01 5e3e c57b 963d 383d 47be e5ea 0bbe
00000370: 767d 723e ed04 dd3d 6ddd 5b3e a175 6d3e
00000380: c555 c23f 8adb 94bf 72f4 0b3d 8e9a 28bf
00000390: 0636 adbd e784 37bf e284 15c0 c3b2 c5bf
000003a0: 9ab0 7740 ff7e 92c0 6e67 2c3c 9e70 7dbc
000003b0: c7f1 8abe 79ca b93e 79a5 823e 67b0 39be
000003c0: ec61 fdbd 4f3e 88bd 0e75 96bd f8e4 b93d
000003d0: 60d8 76be babb 583e 4628 64bd dc85 5a3e
000003e0: c61b 3f3b d30a fbbd 4995 aabd 1b27 1ebd
000003f0: d7e1 713e 9dc9 573e 8b5a 80be 362b 64bd
0.11744507 -0.4758849 -0.021547915 -0.29091117 0.94864017 0.47371632 -0.389168 0.8837369
0.29642293 0.020101842 -0.1617783 -0.18735129 -0.41230017 0.6561625 -0.7746175 -2.0362215
0.0011267915 0.6346683 0.3576974 1.3853949 -0.9898427 0.051501833 -2.1925094 1.0439483
-0.042563524 -0.09083681 0.03347315 0.12024961 1.2237896 0.2769938 -0.03665038 -1.0081636
-0.015613568 -0.99094725 0.6287487 1.768719 1.4127901 -1.9454786 0.069832325 -0.08167657
1.4574052 0.044521157 -0.26531178 -0.011940563 -0.16860935 0.038844343 0.100909576 -0.11366894
-0.124981165 -0.21292658 0.2384807 0.04323647 -0.21037538 0.14979844 0.21568292 -0.06775413
-2.490668 -0.58028966 -0.035612926 -1.4309059 0.025668062 -1.2717435 1.8446068 -0.89240396
1.2588849 2.0599453 0.0450411 0.0525756 0.327361 -1.086008 0.053766385 -0.018317256
-0.0928025 -0.1888319 0.012991928 -0.11232924 0.28078145 0.01280219 -0.048200354 -0.2067773
0.056124534 -0.08083947 -0.075506486 0.18290281 -0.80671436 -0.08786095 0.030602489 -2.3482926
-0.20929876 -1.8128523 4.563363 -1.1259476 -2.857868 0.43698436 -0.14969493 0.04633452
-0.19058086 -0.6325886 0.015309283 -0.044272497 -0.2594129 0.040794402 -0.15076414 -0.046528406
-0.09489202 -0.24517973 0.20631811 -0.06675675 -0.082412414 -0.18361574 -0.21720344 0.22263764
-0.10787307 0.052549124 -0.15344879 -0.07254718 -0.12628153 -0.006726893 0.24806507 -0.23947908
0.03560294 0.12693635 0.21781458 -0.008791582 -0.19685055 -0.106989175 -1.3211156 1.8348156
-0.037623547 0.43704286 -0.09374646 0.61853296 0.18417367 1.5133778 -0.9844749 3.7007906
-0.0026328817 0.054024857 0.14119919 -0.41831937 -0.1640046 -0.13904727 -0.1532858 -0.1651745
-0.2114241 0.17767158 -0.21591894 -0.09813059 -0.20533386 -0.056058347 0.08517385 0.027384931
-0.014901633 -0.09756361 0.18558422 0.095436476 -0.23760414 -0.2255472 -0.03521265 0.17859824
0.25070655 -0.25938436 -0.1328694 0.23316377 -0.12563293 -0.18032014 0.22081389 -0.13358535
0.09895357 0.00069884956 -0.056378793 0.09058011 -0.02492005 0.05193152 0.056090046 0.07817356
-0.09613249 -0.00626282 -0.09158316 0.039412823 0.13429 0.0065889074 0.65315676 0.016314084
-0.2714301 0.017890172 0.49609867 0.18736504 0.1949409 0.49018222 -0.4746185 -1.2994844
-0.0607078 -0.035883103 -0.101657696 0.5546327 0.44970414 -0.26843524 -0.02789761 0.45311588
-0.42869112 -0.2085617 -0.82336515 -1.0237463 3.58725 3.0645921 0.19977835 0.040636558
0.15525657 0.2648763 0.060641635 0.15463963 -0.21226309 -0.16862573 0.20519005 0.1877257
0.21680398 0.07347826 -0.19456947 -0.13663824 0.23680672 0.10791955 0.21471186 0.23189403
1.5182425 -1.1629498 0.034168668 -0.6586083 -0.0845757 -0.7168717 -2.3362355 -1.5445179
3.870154 -4.5780025 0.010522706 -0.015468745 -0.27137586 0.36287287 0.2551687 -0.18133698
-0.12372193 -0.066525094 -0.07346545 0.090768754 -0.24105978 0.21165362 -0.05570247 0.21340126
0.0029160841 -0.12257924 -0.08329255 -0.038611513 0.23621307 0.21073003 -0.2506908 -0.05570527

fc1.bias f4 [256]
00000000: 3e62 c23c 56e9 353f a4bf 0b3f 06a6 423e
00000010: 93bd 1abe f24b 80bd 9899 70bf 2f0b 73be
00000020: 3699 743e 3980 a43f 0e54 88be ddec d4bc
00000030: 1e81 23bc dc7b d1be 1171 203f 09ff cd3d
00000040: 5a1f 0bc0 ba81 543d cea3 4fbe e2cf c33e
00000050: 5d51 86bc 1b40 b1bf de6e b7bc b620 203f
00000060: fb3a 77be b1f8 a43e 1fe6 61be 487d 0e3f
00000070: de41 933d 3568 503f 5cdf c0bd e601 4d3e
00000080: 5584 0bc0 a883 edbf 0789 91be c8e3 eabd
00000090: 92e2 5ebe c72b e6bf b2f9 953d 5eb6 253e
000000a0: f33c fd3e d0d1 9cbf be82 5a3f ec32 c13e
000000b0: 483b 80bf 58f9 8fbe d03c c2be 1a5c 403f
000000c0: b8af a83e 0cbd b83d 17c2 e53c 33c1 2fbe
000000d0: 52e5 6c3f a4c7 cfbe dacb bfbe ccd5 87be
000000e0: bdef fb3d 39de f7bf dacc c4bf 36dd c23d
000000f0: 45cc 4fbf b666 653e 7951 e8bb e92f 1f3e
00000100: 3dd6 743e fd30 653f e397 e43e 6d0c 973f
00000110: 1320 7abe ddcf 38be 898a 02bf 8e01 eabd
00000120: 7a86 fc3e eb06 6c3f 23d7 13be 675f 313f
00000130: 42ff ce3d 680d 843e b882 dcbc c31c cb3d
00000140: 8f23 cb3c fc78 a33d 5155 7fbd 5789 363d
00000150: 32f4 333f 21f1 093f 69e3 2f3f 88f4 42bd
00000160: 057e 773a 0cc5 acbd 8f17 9e3f 8d7a 403f
00000170: 9798 523f 838c c9be bf0e 6fbf 914f 29be
00000180: e55c 273e c332 b7bf 62f0 60be 13a7 30be
00000190: 311e 43be 52af 0bbf 2450 13bd bb00 973d
000001a0: 4a8d 123e 01e6 ff3b 7a48 433e 2f1f 04c0
000001b0: 7949 ac3e 1bc7 663e e8dc e03e 9198 1a3f
000001c0: c8b0 37bd e745 20be 3efa 013e 7a5a 3e3f
000001d0: 1bbe ba3e 74f7 323f eb63 8bbb 8dda 11bf
000001e0: 6f93 263f 8a70 203d 5dfc 18be 5d9e 973f
000001f0: 2a16 4c3e c4db b3ba 2824 5b3e a54e 393f
00000200: ac5a 6f3d 7376 4c3f 2ab9 49be c980 dfbd
00000210: cd3c 12be b4f4 833e 3a27 6c3e 3ee7 59bf
00000220: 50f2 4fbe 52b6 e63d 14ef 0e3d 9da3 9f3f
00000230: 2989 e73d 6c48 a5be 2116 2f3f 6bc6 42be
00000240: eab9 1cbf 9a21 de3e 34ee 033e 1c3c b2be
00000250: dfa2 72bf 4f6d 543e c58b acbf 73cc 493f
00000260: be6b b33e 34af 5a3e d8e5 5b3f 6226 693b
00000270: df13 b0be 6123 a33f 8e57 10c0 df5c 72be
00000280: 47c6 873e e2f3 5fbf 47f0 f5be d935 60be
00000290: 4cc3 3b3f 30ff d0bf 6a8c ccbf c267 babf
000002a0: b505 1a3e 4ce3 823e 104a a93f c719 743e
000002b0: 8f32 11bc 5adb 3bbe 2f2b 85bf 8b0a a5bd
000002c0: 3758 68be 8005 da3c 20f8 073f 275d efbe
000002d0: af01 1b3e 8de4 3a3f a54c e8bf f4a7 ad3e
000002e0: 9be7 663d 8176 623f 4ff9 80be f9f1 67be
000002f0: 5263 763d 1101 66be d28b 063f dd1c d0bf
00000300: eb7c 5e3f 99c2 8e3e 4d0a 45be e7a5 d2bd
00000310: 2ce2 0abe 9b8a a33c 9817 57be cc41 f3bd
00000320: 0f4c 513e fbbb 3abf c430 6fbe 7a98 57bf
00000330: 8d64 84be af6d 1d3e efa5 efbd 4f18 2d3f
00000340: d6bc b5b7 a18a 8abe d4b0 113f 1422 83bf
00000350: c2b1 123f 1f23 02bf 78ff c13d 58f4 c23e
00000360: 99b1 743e 1ab0 153f 4876 c73d 536d 113e
00000370: bffa 9a3f 1846 30bf fb52 303f 403a 6e3f
00000380: 7f3a 69bd e52c 72bf 1afd 77be c887 303f
00000390: c537 153f 7192 7f3f 0fd2 dfbe 3677 423e
000003a0: 6820 ddbc 929f 1abe dcb8 6dbe 1e8a 5cbe
000003b0: dec0 983e 2f2e 093e 77e7 923e 5e43 25be
000003c0: d83b 95be 9c99 cbbd 0df6 363f e791 6f3f
000003d0: 7715 86be 8163 b73e 89e4 203f b94e 69be
000003e0: 6c7b 863f 490e 0dbe 7b7e c63d 90b3 fc3d
000003f0: 8a41 273e 3deb 4cbc ff8c 123d 5d60 b53c
0.023728486 0.7105917 0.54589295 0.19008645 -0.1511138 -0.062644854 -0.93984365 -0.23734735
0.2388657 1.285163 -0.2662663 -0.025991851 -0.009979514 -0.4091481 0.62672526 0.1005841
-2.1737885 0.05188153 -0.2027733 0.3824454 -0.016396219 -1.3847688 -0.022391733 0.6254991
-0.24143593 0.32220986 -0.2206044 0.55659914 0.071902975 0.8140901 -0.094176024 0.20020255
-2.179952 -1.8555803 -0.28424856 -0.11469227 -0.21766117 -1.798211 0.07323016 0.16182849
0.49460563 -1.225153 0.85355747 0.37734163 -1.0018091 -0.28119922 -0.3793702 0.75140536
0.32946563 0.09020433 0.02804665 -0.17163543 0.92537415 -0.40582 -0.37460214 -0.26530302
0.12301586 -1.9364692 -1.5375016 0.09514849 -0.81171066 0.22402462 -0.0070897904 0.1554562
0.2390985 0.89527875 0.4464713 1.1800667 -0.24426298 -0.18048044 -0.5099264 -0.11426078
0.49321347 0.92198056 -0.14437537 0.692862 0.1010728 0.25791478 -0.0269178 0.09917595
0.02479723 0.0798206 -0.062337223 0.04456457 0.7029449 0.5388356 0.68706375 -0.047596484
0.00094410806 -0.08436021 1.235094 0.75187 0.82264084 -0.39365014 -0.93381876 -0.16534258
0.1634403 -1.4312366 -0.21966699 -0.17251234 -0.19054486 -0.5456439 -0.0359651 0.07373186
0.1431171 0.007809401 0.19070616 -2.0644033 0.33649805 0.2253689 0.43918538 0.6038905
-0.044846326 -0.15651666 0.12693116 0.74356806 0.36473164 0.69908834 -0.0042538545 -0.5697411
0.65068716 0.039169826 -0.14940019 1.1845204 0.1993033 -0.0013722111 0.21400511 0.7238563
0.05843608 0.7986824 -0.1969954 -0.10913236 -0.14281006 0.2577263 0.23061839 -0.8511847
-0.20307279 0.112652436 0.03489597 1.2471806 0.11305458 -0.32281816 0.6839314 -0.19021003
-0.6122118 0.4338501 0.12883836 -0.34811485 -0.9477977 0.20744823 -1.3480154 0.7882759
0.35043138 0.21355897 0.8589759 0.0035575856 -0.3439016 1.2745172 -2.255344 -0.2366824
0.2651846 -0.8748151 -0.4803488 -0.21895541 0.73344874 -1.6327877 -1.5980351 -1.4562914
0.1504124 0.2556404 1.3225727 0.23837958 -0.008862152 -0.18345395 -1.0403804 -0.080586515
-0.22689901 0.02661395 0.53112984 -0.46750757 0.15137361 0.7300499 -1.814839 0.339172
0.05637322 0.8846207 -0.25190207 -0.22650899 0.060153313 -0.22461344 0.525571 -1.6258808
0.8690936 0.2788284 -0.1924221 -0.102855496 -0.1356284 0.019963553 -0.21005094 -0.11877784
0.2043917 -0.72943085 -0.23358446 -0.84217036 -0.25857964 0.15373872 -0.11701571 0.67615217
-2.1664815e-05 -0.2705889 0.56910443 -1.0244775 0.57302487 -0.5083484 0.09472555 0.38077044
0.23895873 0.58471835 0.09739357 0.1420186 1.2107772 -0.68856955 0.6887662 0.9305763
-0.05694055 -0.94599754 -0.24217644 0.68957186 0.5828822 0.99832827 -0.4371495 0.18990788
-0.026992992 -0.15099934 -0.2321505 -0.21537063 0.29834646 0.13396524 0.2869222 -0.1613898
-0.2914722 -0.09941408 0.71469194 0.93582004 -0.2618825 0.35818103 0.62848717 -0.22783937
1.0506415 -0.1377498 0.09692093 0.12338936 0.16333595 -0.012507257 0.035778996 0.022140676

fc2.weight f4 [256, 256]
00000000: a9b4 09be 4213 893e 2b2b 773e ac21 a8bc
00000010: 5059 3fbf 963f a5bb 7a3f d43d c80b c1bc
00000020: 96ab 7abd 1922 963e a696 36bd 78ee 1a3d
00000030: e8f9 26bc 4e66 1dbd 5237 443e b0c2 d53b
00000040: 553a f0bd 5076 aa3b c082 8dbc a662 80bf
00000050: a497 a53c ea8d 05be 0c38 703d 5b0b 2ebf
00000060: 5c99 16be 7b76 f23e 80cb 703c 54c5 593c
00000070: b6b2 0abd c41c 95be 68df 593c 68f8 f4bc
00000080: 3ade c7bd ad35 b3be ec67 19be 6213 943e
00000090: ca79 4c3d a5a2 be3d 106b 88bc 76b3 3b3d
000000a0: 7d71 86be 82b6 3d3e e567 773e 271d aebd
000000b0: 2c84 15be 4f39 1cbf 8738 d1be 4b83 1d3e
000000c0: 510e 773e 104a c23c a474 7a3d f2a2 26bd
000000d0: a617 fcbe 9721 7dbd f90f ca3d f0ee 0a3d
000000e0: dcdb 5cbe 3f0e a73e adf3 bdbf 9cdd 173d
000000f0: f6fb 063f 5e12 083d 8d4d a8bc 1054 013c
00000100: 6000 d7bb 8f4d cf3d 6f10 cabe 2cdc 54bd
00000110: d41e c2bc f448 803e f832 093e 2c72 f6bc
00000120: 8d4b 36be 4f0d 52be 0611 ddbc 5964 5f3e
00000130: bab8 98be 5816 333c 924c 4b3d 26b9 75be
00000140: 08ff babc fee2 4dbd 1852 7a3c 94e8 c0bd
00000150: 1a6b 04bf dad3 af3d c86d 07be 5e91 01bd
00000160: 9a90 253d 48ce 1abd df55 28bf 64ab a6bd
00000170: 2e8c abbd 1ed8 b6be f24f 0a3f aadb 3cbd
00000180: 3cbd 253f 7525 b3bd b0a3 7dbc e0d9 19bd
00000190: b83a 29bf 0abd 893e a71f 5c3e 1067 18bc
000001a0: 2fb0 2bbe 34fd b43c 4053 b23a 13fe 85be
000001b0: 84bd dfbd 6899 4fbd 266c da3b 01ab 12bf
000001c0: c22b 2fbd d05d 423c 903a c6bb 6353 80be
000001d0: 8dc4 3cbe 06d7 25bd c0a6 9c3c edb5 c4be
000001e0: 491e 943d beb2 fdbe 6cb8 73bd 6ad7 c5bd
000001f0: 81eb 123d 84c7 3c3d dc57 95bc d3c3 bd3d
00000200: e4f8 8bbe b59f ff3e 469c 46be d360 f5bd
00000210: 7a49 29bd 0a57 73be 0476 acbc 8414 b73e
00000220: ec88 d1bc eccf 87bf b02d 783d 5a3e f43d
00000230: 8770 163f 028e 0a3e 9147 8abd 80f6 edbb
00000240: 8da5 1abe e527 833e 2c48 393d 66c8 eebe
00000250: 1556 0dbe 8b3d b93e 61bb 90be 4355 3abf
00000260: a548 b23d 28ff fb3c 1d79 91bd 2c0e b63c
00000270: d693 b4be bd99 ed3d 5e16 febc c520 64be
00000280: bc76 e4bc 817f 1ebe a5c8 873e 9fde e33c
00000290: 3ebc 32be c117 0ebf 8541 33bd d162 cabe
000002a0: d487 113e a133 9abb 5631 1dbf 0220 09bd
000002b0: b04c 05bc d5b1 ba3e 5648 d83e 0cc5 b7be
000002c0: 33ba cdbe 00a0 0bb8 a1ef 673e 60e8 c03d
000002d0: c0da e7ba 5fe2 bfbe 1fcf 3bbf cbaa c6be
000002e0: a470 ebbc 2597 bf3c bdd4 cfbd c68a 233d
000002f0: 4818 37bd 1897 4abc 8bc7 07bf d08e 7ebf
00000300: f17a 95bd 9359 913e 0086 1aba a8f8 aabc
00000310: 8a41 05bd 38c2 c8bc 9633 d03e 81cb 563f
00000320: 18ae 2c3c 4249 1a3d c08c 9dbc 2d8c 5cbf
00000330: 0034 7fbb 80b5 6cbc 2adb 6e3d c6b7 49be
00000340: a0c1 273d cf1d 703e a164 8cbe deb0 653e
00000350: 8d5e 0e3c 0912 4ebf 0b7a 1ebf b3e8 833e
00000360: 485c 53bc 96e2 5f3d 8c38 6b3d 4cf6 b03c
00000370: 2806 963d 1476 073e aa03 853d c41e 273e
00000380: 400a c4bc 5682 1cbf 0a2f 3a3d c457 9dbd
00000390: 87ec c83d 4610 6ebe 4055 e43e c045 8cbc
000003a0: 2542 7fbd 5ca9 b4bc 1014 ccbc d894 7e3c
000003b0: f9bc 29be fc13 cdbc b68b cc3d e9cc 57bd
000003c0: 816d 48be 6b45 903c 8f28 c2bf 50b4 74bf
000003d0: 8e1a 5a3e 398c 94bd f12e 253e 38b9 7dbc
000003e0: 6628 54bd 60c9 03bd b436 5fbd aa1c 133f
000003f0: 4027 aa3b 387e 76bd f253 3e3d 00f4 db3b
-0.13447823 0.26772505 0.24137561 -0.020523869 -0.74745655 -0.0050429804 0.1036367 -0.023565188
-0.061198793 0.2932289 -0.044577263 0.037825078 -0.010191418 -0.038427643 0.19161728 0.0065234527
-0.11729876 0.005202092 -0.01727426 -1.0030105 0.02021391 -0.13042417 0.0586472 -0.6798608
-0.1470694 0.47356018 0.014696956 0.013291676 -0.03386184 -0.2912351 0.013297893 -0.029903606
-0.09759183 -0.3500189 -0.1498105 0.28921038 0.049920835 0.09308366 -0.016652614 0.045825444
-0.2625846 0.18526652 0.24160726 -0.08501654 -0.14601201 -0.61024946 -0.4086344 0.15382116
0.24126555 0.023716956 0.061146393 -0.04068274 -0.49236792 -0.061799612 0.09866328 0.033919275
-0.21568245 0.32628056 -1.4839989 0.037076578 0.5272821 0.03322064 -0.020544792 0.007893577
-0.006561324 0.10122215 -0.39465663 -0.051967785 -0.02369634 0.2505566 0.1339835 -0.030083738
-0.17802258 -0.2051289 -0.026985656 0.21815623 -0.29828435 0.01093062 0.04963357 -0.2399641
-0.022826687 -0.050265305 0.015278362 -0.09419361 -0.51725924 0.08585329 -0.13225472 -0.031632774
0.040421106 -0.03779438 -0.6575603 -0.08138159 -0.083763465 -0.3571176 0.54028237 -0.046107925
0.64741874 -0.08747379 -0.015480921 -0.037561297 -0.6610522 0.26902038 0.2149645 -0.009301916
-0.16766427 0.022093393 0.0013605133 -0.26170406 -0.10924819 -0.05068341 0.0066657243 -0.5729218
-0.04276634 0.011863187 -0.0060494617 -0.2506362 -0.18434353 -0.040488265 0.019122481 -0.38420048
0.07232339 -0.49550432 -0.05950205 -0.096602276 0.035869125 0.04608871 -0.018230371 0.09265866
-0.27338326 0.49926534 -0.19395551 -0.119813584 -0.04132984 -0.23763672 -0.021052368 0.3575784
-0.025577985 -1.0610328 0.060590446 0.11925955 0.58765453 0.13530734 -0.067519315 -0.007262051
-0.15102215 0.25616375 0.045234844 -0.46637267 -0.13802369 0.36179766 -0.2826796 -0.7278635
0.08705262 0.030761316 -0.07103179 0.022223555 -0.3526904 0.11601589 -0.031016525 -0.22278126
-0.027888648 -0.15478326 0.26520267 0.027816115 -0.17454621 -0.55504996 -0.043763656 -0.39528516
0.1421197 -0.0047058617 -0.61403406 -0.03347779 -0.0081359595 0.364638 0.42242688 -0.35892522
-0.4018112 -3.3289194e-05 0.22650005 0.09419322 -0.0017689094 -0.37477395 -0.73362917 -0.3880218
-0.028740235 0.023387501 -0.101479985 0.039927267 -0.04470089 -0.012365125 -0.53038853 -0.99436665
-0.0729884 0.28388652 -0.00058946013 -0.020870522 -0.032533206 -0.024506673 0.40664357 0.8390427
0.010539554 0.03766752 -0.019232154 -0.8615139 -0.0038940907 -0.01444757 0.05831448 -0.1969901
0.04095614 0.23448871 -0.27420524 0.2243075 0.008689535 -0.8049627 -0.6190497 0.25763473
-0.0129004195 0.05465945 0.057426974 0.021601819 0.07325393 0.13228637 0.064948395 0.1632033
-0.023930669 -0.61136377 0.045455016 -0.076827556 0.09810739 -0.23248395 0.4459629 -0.017123103
-0.06231894 -0.022053413 -0.02491191 0.015538417 -0.16575994 -0.025033943 0.09987585 -0.052685652
-0.19573022 0.017611226 -1.5168628 -0.95587635 0.21299192 -0.07253308 0.16131188 -0.015486054
-0.05179634 -0.032174468 -0.05449553 0.5746561 0.0051926672 -0.060178965 0.046466775 0.0067124367

fc2.bias f4 [256]
00000000: fa44 453e e77c 07bd b809 d63e 9f1b e4bd
00000010: 3331 573c d066 ff3e 57b7 64bc 5cd1 7ebd
00000020: 46d8 9dbc 76e5 aabe d914 8a3e 7b75 7dbd
00000030: 2ef5 0f3f b93a eb3e 4019 89be 4ccf d13d
00000040: 9640 94be d3cc 733c e353 143f 08e2 2d3e
00000050: d275 32bf f92f 2a3d 97bd 3ebd 75a4 143f
00000060: 546c 86be e0f2 79bd b736 e93d 5f66 033b
00000070: 3b77 10bd f9ad 15bf 40ef a63c dfab 713e
00000080: fe9a febd 727b fa3e 51c3 3ebd 60c4 e83e
00000090: 0c83 a83e 2519 5cbd e603 10be 88d7 b7be
000000a0: 5379 e43d 15ff 1ebf 9bff d23e 56ab 46be
000000b0: d7c8 72bd 5fce 09bc 6a60 d0bc 0993 303e
000000c0: 0e80 08bd 243d cdbc 73a3 94bc 3be1 443f
000000d0: e169 723e c79f 063f 09a9 89bd c3aa 4abe
000000e0: d2b6 07be 050d 40bd 30df 3fbd d0e2 d2be
000000f0: f85e d4bc 039f 953e e879 1c3f de5e 5fbe
00000100: de43 a9bc b123 9a3e a691 fe3d db32 183f
00000110: d934 bd3c b0e3 13bd ad0e a2be 07e3 7ebe
00000120: c498 6c3d 736c 95bd f392 ba3e c7e1 22be
00000130: c424 74bd b0ff a03d ddd5 0d3f 0edc f43e
00000140: 3609 643c fcda b03e ba73 093f cb13 f5be
00000150: 1cb7 033c ab3b 1d3f 7bef 283e a4db 63be
00000160: e7f5 9bbd b11c ee3c e2ef 89bd 8044 df3e
00000170: aa7a 5e3f 167b 91ba 2728 4cbc 2e21 42bb
00000180: b893 3fb9 bc56 fd3d 4da3 12bc cf24 b9bd
00000190: 27bd bdbc a194 243f f222 18bd 0c29 4c3f
000001a0: c436 543c 3763 f5bc d8c3 c6bb 83be 14bf
000001b0: 7e8f 043e 609a a2bd 8973 0ebf 4f45 cdbe
000001c0: 7823 0a3f b116 ec3e a5ac 453e df83 3e3d
000001d0: 1c49 cb3e 84ec 6bbe 0202 0d3e 7e32 14bf
000001e0: bc17 01be 9d22 fb3d 2491 2b3e ab1b e8be
000001f0: 7f7c f5be e7f5 d43c 5b13 b23c 8e77 9cbd
00000200: 441a 6fbe 050b 63bd a4c7 3cbe 3d1b 6fbe
00000210: 6a66 7abd 5739 0dbf 03a2 03bd a1d0 7ebe
00000220: e742 f6bd c366 8ebe 2f8c d63c df26 a43e
00000230: 8785 bc3e a2ff c1be af02 c33b c1cd 96bd
00000240: f613 e9bd 1c51 8bbe e50d 653d e35d fc3d
00000250: 19d4 29bd 813f ed3e 8b46 a5bd 9bcb 933e
00000260: dc13 2d3f 7b75 b33e 83f0 263f a4bf 48be
00000270: ebf4 a13d 6243 edbd 1f78 2cbd abd8 83bd
00000280: 09a9 35bc b3a5 e43e 73a2 a7bd 8c1a 563e
00000290: 5800 ee3d 9237 8cbd f360 443e ef1d a83c
000002a0: bc90 a63e b085 363d 80be 6abe 4e7a 1bbd
000002b0: bf73 843e 1126 acbd 260a 7dbd 8db5 443e
000002c0: 0a3d bcbe 5258 7e3f e152 7f3e a992 b63c
000002d0: 13ed 513e 0fe5 7dbc 0577 c23d 32e2 b0bd
000002e0: 0756 7abe 819f e93c 884d 83bd c3b1 7dbd
000002f0: 203a c7bd d028 683f 6dfb 053f 00de 9a3e
00000300: 1656 1d3f 418f a6bd ce4c 6f3f 273e 923e
00000310: 8f20 57bd bd20 60bf 2da2 24bd edfa bcbd
00000320: 6858 02bd dc38 de3a 0a03 cebc e2bf a1bf
00000330: 4a8b cbbd 7443 9f3e c147 5d3e b50f 0a3f
00000340: b154 9cbe 39bf ddbc 0df9 9a3e 472a 30be
00000350: a4fe a5bd 469f 393f 845a 723f 2ec6 273e
00000360: 2bd0 b83e 9984 82bd c1ac b7be ee70 693e
00000370: bfc1 0abd d48e a43e c35b 6b3e cd72 adbd
00000380: 3d6e 7bbe 1122 b4bd 712b 03bf bfca 8d3e
00000390: ee72 723e 1536 a9bd 0d2f a53e f460 70be
000003a0: fcd1 163e 3442 9fbc 3bb6 a0bd 4316 24bd
000003b0: 6909 ad3e 94ce 57bf a863 babd 4f58 a3be
000003c0: 4d06 3cbf 063d 9dbd fbe6 03bf 9cbf 6b3e
000003d0: 5232 d4be 86d1 29bd 7af2 70be 3012 6fbd
000003e0: f0ab 99bd 180b e23e c917 513e b767 31be
000003f0: e92f 4abc a69d 2abe 2bde 753e 7e76 753d
0.19264594 -0.0330781 0.4180429 -0.11138081 0.013134289 0.49883127 -0.013959727 -0.06221138
-0.019268166 -0.3337819 0.2696903 -0.061879616 0.5623349 0.4594324 -0.26777077 0.10244617
-0.28955525 0.014880377 0.579405 0.16980755 -0.6971103 0.041549657 -0.046567526 0.5806344
-0.26254523 -0.06102264 0.11387389 0.0020050032 -0.035269957 -0.58468586 0.020377755 0.2360072
-0.12431906 0.48922306 -0.046572987 0.45462322 0.3291248 -0.053734917 -0.14063987 -0.35906625
0.11155953 -0.62107974 0.41210636 -0.19401297 -0.059273567 -0.008411019 -0.025436599 0.1724359
-0.033325247 -0.025053568 -0.018144345 0.76906174 0.23673202 0.5258755 -0.06721694 -0.19791703
-0.13253334 -0.046887416 -0.046843708 -0.4118867 -0.02592419 0.2922288 0.61123514 -0.21813533
-0.020662244 0.30105355 0.12430124 0.594526 0.023096489 -0.03610581 -0.31651822 -0.24891292
0.057762876 -0.07296076 0.36440238 -0.1590644 -0.059605375 0.078612685 0.55404454 0.47824138
0.013918212 0.34542072 0.5369221 -0.47866663 0.008039262 0.6141917 0.16497605 -0.22251755
-0.076152615 0.029066416 -0.06735207 0.4360695 0.8690592 -0.0011099305 -0.012460745 -0.0029621827
-0.00018270209 0.12370059 -0.008950067 -0.09040224 -0.023161484 0.6428929 -0.0371427 0.7975013
0.01295251 -0.029954536 -0.006065827 -0.581032 0.12945363 -0.07939601 -0.5564504 -0.4009194
0.5396037 0.46111062 0.1930414 0.04651248 0.39704216 -0.23039442 0.13770297 -0.57889545
-0.1260671 0.12262461 0.16754586 -0.4533361 -0.47946545 0.025996162 0.021737745 -0.07639991
-0.23349863 -0.05543043 -0.18435532 -0.23350234 -0.061132826 -0.5516562 -0.03213693 -0.24884273
-0.12024479 -0.27812776 0.026189892 0.32060906 0.36820623 -0.37890345 0.0059512476 -0.07363463
-0.1138076 -0.2721032 0.055921454 0.12322595 -0.041462038 0.46337512 -0.08070096 0.28866276
0.6760843 0.35050568 0.6521074 -0.19604355 0.079080425 -0.11585118 -0.042106744 -0.064378105
-0.011087664 0.44657668 -0.081852816 0.20908564 0.11621159 -0.06846537 0.19177608 0.020522086
0.325323 0.044561088 -0.22924232 -0.037958436 0.25869557 -0.08405698 -0.061777256 0.19209881
-0.3676532 0.99353516 0.2493396 0.02228673 0.20500593 -0.015496506 0.094953574 -0.08636893
-0.2444688 0.02851844 -0.06411272 -0.061937105 -0.09727883 0.90687275 0.5233677 0.30247498
0.6145948 -0.08132792 0.9347657 0.28563043 -0.052521285 -0.87549955 -0.040193725 -0.09227548
-0.031822592 0.0016954201 -0.025147934 -1.2636683 -0.09938677 0.3110615 0.21609403 0.5393022
-0.30533364 -0.027068721 0.30268136 -0.17203628 -0.081052095 0.72508657 0.94669366 0.16384193
0.3609632 -0.06372947 -0.35873988 0.22796986 -0.033876177 0.3214022 0.22984223 -0.08469162
-0.24553771 -0.0879556 -0.5123816 0.27693745 0.23676655 -0.082622685 0.3226246 -0.23474485
0.1472854 -0.019440748 -0.07847258 -0.040060293 0.33796242 -0.8429959 -0.09101039 -0.31903312
-0.73447114 -0.07677655 -0.51524323 0.23022312 -0.4144464 -0.041459583 -0.23529997 -0.058366954
-0.075034976 0.4414909 0.2041923 -0.1732472 -0.012340524 -0.166617 0.24010532 0.059927456

fc_mean.weight f4 [2, 256]
00000000: 6a12 803d 0b39 443e 9de7 fbbd 63c8 1ebe
00000010: 9514 99bc 3a94 38bf 2c35 50bd 8ac4 1b3d
00000020: 127e 2c3d 026c 4d3e 7b24 3bbe c76a 26be
00000030: 0689 533f acfd 6abe 42bb 59be 4f2c a63e
00000040: ae65 03be 6328 cebd 5a8d 12be f4d0 2cbf
00000050: 7a35 e63d 6d04 2e3d f4b8 f7bc a591 e83d
00000060: 33a1 203e 1bc4 ee3c 3bbf 963e 71c1 c63c
00000070: 3a8f 033c 105a 0d3f 6676 4f3e efca 743e
00000080: 931c 863e 795c 6abd 4dee 273d be1f 50bc
00000090: f86a c93d 0c61 3b3d 55ee 58bc bbb9 103e
000000a0: 0d6a 95be f178 023e 3ec6 113e 28a3 aabe
000000b0: 9bab 5a3d 1bb0 5f3d ba9c 1d3d 3439 ccbd
000000c0: 1ffd 523c 57c7 0bbd 6176 00bf a0ac cb3e
000000d0: 95f4 913d 63b0 443e 65e2 2d3d 6847 893e
000000e0: 1172 45be 7f03 11bd e648 d13c 603a 68be
000000f0: d677 cabb 9348 173f c2b1 c4bd 361c 0cbf
00000100: 5438 34bd 241b 82be 0ca3 4e3f c025 773e
00000110: dff5 f1bc 6ca0 9cbd d7f2 b63e 7319 f03d
00000120: 9e21 93bf 3411 6c3e 87e7 30bf 2c19 85be
00000130: 6cde 8d3e c33f ec3c 6153 62be 01fd 8fbe
00000140: 8b96 4bbd b116 fe3d 7e73 0ebe b87d 0a3e
00000150: e828 fd3b 0733 f2bc 87a3 ca3d 9f89 363e
00000160: b329 5bbd d2d9 883d 0390 c4bb 725d c43e
00000170: ef79 aa3f 911f b73c a69e 5abc e6c5 89bd
00000180: 828f 943e 8ab6 d73e 7625 88bc 45bd a33d
00000190: 9905 27bc 8c3f 2fbe e7dd 7dbd 4c26 d63d
000001a0: e47e 2a3e dd7c 6abc c31a 253c 178b 063e
000001b0: 6a13 2abf ad11 5a3d ce2b 013f 9116 8cbe
000001c0: d00d acbe 761e dfbe d24f 94bd 150e d1bd
000001d0: 1a8c 9fbe 0f89 373e 3a18 8c3e 9072 cbbe
000001e0: 1e10 e5be 0153 81be 6e0a 06bf e740 e53d
000001f0: 4777 88be bf31 d53b dc0f 70bd 1d8f 43bc
00000200: 0009 243f 1a6a 75bc 0a96 903c bcf5 813d
00000210: 9176 193d 84ee bb3e 16ec 21bb fbba 17bc
00000220: 368f 383d db6b 06bf eaec 63bc 7e9d cd3e
00000230: 4f6f 993c a78a 81be 0a14 6c3c d48b 7cbc
00000240: 8789 263c c288 123f 2122 48bd e1ac 1abf
00000250: 18c9 4cbe 0dcc d9bd efbf 10bd a1b3 bfbe
00000260: d677 b2be dcd7 26bd 0e7d 0ebf dbfc b5bc
00000270: 076e 4fbe ec59 063b 1715 0dbd f144 a2bd
00000280: db72 33bb 7df3 0a3e 6181 5dbc f1eb 5fbf
00000290: 80c1 153e c9ac 02bd d987 acbd 7ec7 42be
000002a0: 4ef1 35be 4664 dbba f510 563e adb2 243d
000002b0: 9064 63bd 19a2 d63d 384c 853c 60d8 38be
000002c0: c0fd dabd 43c1 50be 0f26 83be 6571 053e
000002d0: 7f66 c5bd c1da 78bd 650a 07be be35 15be
000002e0: ce9d 90be f036 503d 283d 2bbe aa83 e3bc
000002f0: 53d8 fcbd ee27 d9b9 c3aa 57be 63ed a93e
00000300: 2c53 933d 7589 913b 1904 62bd 681d 123e
00000310: c665 243e a149 7a3e 3794 da38 2105 033d
00000320: 2518 11bc 35d9 383d faab de3e 43fc bebe
00000330: 72fd 9ebc 6e36 393e d6e0 8f3d 9120 f33d
00000340: d15e 833e 1537 f0bc 3841 cabe 4bc5 2b3b
00000350: 39ed 22bd a86f 96bd e43f 27be a62c 25be
00000360: 6d0e 93be 6ca7 203d 819c 073f a000 483f
00000370: 83d5 143e 364e adbe 15f1 413b f23d e73d
00000380: 51cf d93e 7eca 00bc 90a8 2c3e e456 2abe
00000390: 58af debc eebb 21bf bb26 0ebf 4dd7 83be
000003a0: 518c f63e af03 8fbc e03d 75be 4a85 653d
000003b0: 595b d6be d79f 043f 728a 5f3d f679 af3e
000003c0: f89d 4f3e 750c 9dbb 938c 4b3e 577a 3abe
000003d0: 01dd 283d 849a cdbe 0fcb d43e 6d53 393c
000003e0: d1d4 95be 6105 4f3e 6dda 0ebc 5f81 1b3e
000003f0: a1b5 eb3c e556 03bf c144 00bf 643f 9dbd
0.06253512 0.19162385 -0.12300036 -0.15506129 -0.018686572 -0.72101176 -0.05083196 0.03802923
0.042112418 0.20060733 -0.18275635 -0.1625167 0.82630956 -0.2294833 -0.2126284 0.3245568
-0.12831756 -0.10066297 -0.14311734 -0.6750634 0.112406686 0.04248469 -0.03023956 0.113559045
0.15686493 0.029146245 0.29442772 0.024262162 0.008029753 0.5521555 0.20260009 0.23905538
0.26193675 -0.057217095 0.040998746 -0.01270288 0.09834856 0.045746848 -0.0132404165 0.1413335
-0.29182473 0.12741448 0.1423578 -0.33327603 0.053386312 0.054611307 0.038479544 -0.09971848
0.012877732 -0.034125652 -0.5018063 0.3978014 0.071267284 0.19207911 0.042452235 0.2681229
-0.19281794 -0.035403725 0.025547456 -0.22678518 -0.0061788363 0.59095114 -0.09604217 -0.54730546
-0.04399903 -0.25411332 0.8071754 0.24135494 -0.029536186 -0.076477855 0.35732147 0.11723604
-1.1494634 0.23053437 -0.6910328 -0.25995767 0.27708757 0.028838998 -0.22102119 -0.28122714
-0.049704116 0.12406672 -0.13911244 0.1352452 0.0077258237 -0.029565347 0.098944716 0.17825936
-0.053506564 0.06682171 -0.005998613 0.38352543 1.3318461 0.02235392 -0.013343489 -0.06727199
0.29015738 0.42131454 -0.016619425 0.07995085 -0.010194206 -0.17114085 -0.0619792 0.10456523
0.16649967 -0.014311996 0.010077181 0.13138996 -0.66435874 0.053239513 0.50457466 -0.27360967
-0.33604288 -0.43577927 -0.07241787 -0.10207764 -0.31161577 0.17923377 0.27362233 -0.39735842
-0.4473886 -0.2525864 -0.52359664 0.1119402 -0.266535 0.0065061743 -0.058608875 -0.011935976
0.6407623 -0.01497891 0.01764967 0.06345698 0.03746659 0.3670541 -0.0024707369 -0.009260888
0.04505845 -0.52508324 -0.013911465 0.4015922 0.018729834 -0.25301096 0.014409075 -0.015414197
0.010164625 0.57239926 -0.048860673 -0.6042004 -0.19998586 -0.10634623 -0.035339292 -0.37441733
-0.34857053 -0.040733203 -0.5565957 -0.022215297 -0.20256816 0.0020500375 -0.03444394 -0.07923306
-0.0027381692 0.13569446 -0.013519616 -0.87469393 0.14624596 -0.031903062 -0.084243484 -0.19021413
-0.17767832 -0.0016738258 0.20904906 0.04020946 -0.055515826 0.104801364 0.016271695 -0.1805129
-0.1069293 -0.20386223 -0.25614974 0.13031538 -0.0963869 -0.060755495 -0.13187559 -0.14571282
-0.28245395 0.050833642 -0.16722548 -0.027772743 -0.12345948 -0.00041419215 -0.21061234 0.33188924
0.07193598 0.004441435 -0.05517969 0.1426903 0.16054448 0.2444215 0.00010422657 0.031987313
-0.008855854 0.04512902 0.43490583 -0.37301835 -0.019407962 0.1808717 0.07025306 0.11871446
0.25658277 -0.02932314 -0.39502883 0.0026210125 -0.039777014 -0.073455155 -0.16332966 -0.16130313
-0.28721943 0.039222166 0.5297318 0.78125954 0.14534573 -0.33848733 0.002959316 0.11291112
0.42540982 -0.007860778 0.16861176 -0.16634709 -0.02718322 -0.6317738 -0.5552785 -0.257502
0.48153928 -0.017457811 -0.23949385 0.056035317 -0.41866568 0.51806396 0.05457539 0.34272736
0.20275104 -0.0047927448 0.19877844 -0.18210731 0.04122639 -0.4015695 0.4156117 0.011311394
-0.2926393 0.20216896 -0.008719069 0.1518607 0.02877313 -0.51304466 -0.5010491 -0.076781064

fc_mean.bias f4 [2]
00000000: 3c58 81bd 0723 e03d
-0.063156575 0.10944181

fc_logstd.weight f4 [2, 256]
00000000: ebbe 093b ee64 0ebb 6a39 a33b 36e9 903c
00000010: 2d1a 12bd e821 d2bb 02bc dcba 552e 073d
00000020: cd06 db3a 5d98 9c3c eb9f b73b 20b3 1a3c
00000030: 3917 3bbd 5a60 f03c f223 4e3c d3a8 ff3b
00000040: 549d 6bbc 99cc e13c 8456 143b daab 323d
00000050: c653 e63c 2f14 47bc 7331 303d e8c3 2e3c
00000060: f3ab debc b6a8 37bc 8df2 e03c 1384 8e3d
00000070: 82ba e6bc 519d 9dbb a671 c03b eea7 9b3c
00000080: 4258 8ebc 7155 1b3c 5809 6e3a 57c9 40b9
00000090: 0428 4cbc c2ed 31bc 6a4a abbc c85e 753b
000000a0: 0cfb eb3c fa48 353b 4700 a739 ac5a d03b
000000b0: f4bc 533b e82c c5bb 9e58 0dbd 1071 6bbc
000000c0: 5e94 833b 06fb 05bd 2419 0d3d ca75 76bd
000000d0: 0744 41bc f6ee 74bc c158 3fbb 0d4d fa3c
000000e0: 4eae b0b9 07f5 fc3c bbe4 0bbd 9813 ad3c
000000f0: afaf 8ebb 90f9 7bbd fb96 c13c 4182 4b3d
00000100: d7b1 d63c e9c1 8abc 588a 9e3d 6f11 28bd
00000110: e0ab c33c f0db 9e3b abb4 793c 130c 12bc
00000120: 6232 823d e7c6 37bc 661b ca3d cf53 bf3d
00000130: 2e77 9b3c 7389 76bb 3e66 b83c c45b b6bb
00000140: a087 f63b 8fb5 3dbb 5372 adbc 9fcc 933c
00000150: eee8 bf3a ac63 3c3c f48d 04bb 72d5 173c
00000160: 0eb9 9738 b8da 5ebc b6da ebbc 4577 9ebd
00000170: 3fff 4f3d f30c 9abc 7e77 be3c 2578 4d3c
00000180: 54cf d53c 7aef 353b be88 e2bc 4216 013d
00000190: 96a9 5c3b a97d 9c3c 21ce 043d 3e5e a33b
000001a0: f589 4bbc 1313 383d 267d e9bb 141a a4bc
000001b0: b53a 2bbc aa00 8c3b 5726 b73b eb6d 903c
000001c0: 89c2 303c 40b5 9c3d 7d7c 653a a64b 41bc
000001d0: 6b58 b3bd 0c9f 833c 6d20 84bc a17d b23c
000001e0: 859a 673a 7365 643c e0ed 873c f0e4 963c
000001f0: de19 133e 0a7a 0fbb 4711 003c 17a7 193d
00000200: b949 c0bc 0d39 343d 4bde 57bd 3388 c9bb
00000210: 008e 623d f5b3 813d 6932 573d ba86 073c
00000220: 2667 f13b 7b93 333d 298f 933c 3e0d 97bd
00000230: f0c6 bebd 8c48 0a3d 5dd7 55bc e5f1 f43c
00000240: 30e4 11bd 681c b13c 5fee 093d de01 383d
00000250: 9d18 c93b 7250 863b 0176 3e3b cb8b 173d
00000260: 20f4 b13c 5fac 06bb 1205 c8bd b12d 8d3d
00000270: 8177 cf3b f405 48b9 fcf8 373b ca99 deba
00000280: 4e18 f53a fd30 82bd e19e e83a bfa3 8a3d
00000290: a7f7 d2bb 416a bdbc fece d3b9 60e4 293c
000002a0: 5464 693c e25f 4a3a 5411 0abc 7e05 f53c
000002b0: 13af a43b 8e20 b43d a705 59bc 3d21 66bc
000002c0: fba3 753c abd8 8b3c 2c46 17bc 61b2 abbb
000002d0: b1b9 c63a 3bff 9e3a b0de 0c3d 551d b4bb
000002e0: c06a 3b3d 4b27 1b3d b07a f43c dfbd fc3c
000002f0: 9e61 3dbb 2fb9 90bb bca3 303c f93a eabc
00000300: dcca 0e3b 8dc9 0b3d a2f9 cabc f440 77bb
00000310: 73ee 873c 0b84 a73c 4fbd dd3c df7a bc3b
00000320: c755 c43b 4678 383d cf4e e93b af7c 20bc
00000330: a0cb 09bc c046 fa3c 713e 3b3b bda2 56bd
00000340: d876 1d3e 822d a3bc 797d a43d a802 3fbc
00000350: 0f52 203c 5b96 22bc 7a5f 683b 5ef0 2d3c
00000360: 9d64 c93b 9655 34bc 1d95 2fbc 15de e83d
00000370: 3ad1 493c 2a0c 23bd e4ea 973a c8af a53b
00000380: cf69 b1bc 04c5 bd3a c22e 413c 3b56 c13c
00000390: a8fd a3bb 2bb8 1f3e 3a3b 9cbd 2530 caba
000003a0: a241 bebd 5205 b7ba 7050 543c 575d 5c3c
000003b0: d466 133c 953a 153d a458 b2bc 70de 0ebc
000003c0: f313 9f3c ea4e acbc 8354 0e3c 77c3 a43c
000003d0: 18d2 b63d 805d 4b3d c1db 54bd d2e0 5bbc
000003e0: 5897 103d dabd 0b3c 1da9 a43b a8aa 283c
000003f0: 14c8 00ba cc87 12bc 919a 393d 90a1 b3bc
0.0021018337 -0.002172764 0.0049812095 0.017689329 -0.035669494 -0.0064127333 -0.0016840699 0.03300317
0.0016710401 0.019115621 0.0056037805 0.009442121 -0.045676444 0.029342819 0.012581812 0.007802108
-0.014380772 0.02756338 0.0022634575 0.04362092 0.028116118 -0.012150808 0.04301591 0.010666825
-0.027181601 -0.011209657 0.027459407 0.06958785 -0.028165106 -0.0048100133 0.005872923 0.019000974
-0.017376069 0.00948082 0.0009080372 -0.00018385552 -0.012460712 -0.010859909 -0.020909507 0.0037440527
0.028806232 0.0027661906 0.0003185293 0.006358465 0.003230867 -0.006017316 -0.03450834 -0.014370218
0.0040154895 -0.032710098 0.034447804 -0.060170926 -0.011796004 -0.014949551 -0.0029197189 0.030554319
-0.00033699203 0.030878557 -0.03415368 0.021127507 -0.004354439 -0.0615173 0.023631563 0.049684767
0.026207848 -0.016938167 0.07741231 -0.04103225 0.023885667 0.004847996 0.0152408285 -0.0089140115
0.06357266 -0.011216856 0.09868507 0.09342157 0.018977728 -0.0037618547 0.02250969 -0.0055651385
0.007523492 -0.0028947329 -0.021172678 0.018041907 0.0014641562 0.011498373 -0.0020226212 0.009267198
7.23471e-05 -0.013601951 -0.028790813 -0.077375926 0.05078053 -0.018805003 0.023250338 0.012540852
0.026099838 0.0027761147 -0.027653094 0.031515367 0.0033670417 0.019102888 0.032423142 0.0049856
-0.012423028 0.044940066 -0.0071255146 -0.020031966 -0.010451009 0.00427254 0.0055892873 0.017630538
0.010788568 0.07651758 0.0008754207 -0.011797821 -0.08757099 0.01606705 -0.016128743 0.02178842
0.0008834976 0.013940203 0.01659292 0.018419713 0.14365336 -0.002189281 0.007816619 0.037512865
-0.023472654 0.04399972 -0.05270223 -0.0061502694 0.055311203 0.06333152 0.05253831 0.008271867
0.0073670326 0.04384182 0.0180126 -0.073755726 -0.09315288 0.033760592 -0.013051835 0.0299005
-0.035618007 0.02161999 0.033674594 0.044923656 0.0061369673 0.0040989453 0.0029062035 0.03699855
0.021722853 -0.0020549519 -0.09766592 0.068934806 0.0063313846 -0.00019075704 0.002807199 -0.0016983089
0.001869926 -0.06357 0.0017747545 0.06769513 -0.006438214 -0.023121955 -0.00040399277 0.01036939
0.0142451115 0.0007719976 -0.008426983 0.029909845 0.0050257533 0.08795272 -0.0132459765 -0.014046011
0.014992709 0.017071089 -0.009233039 -0.0052397703 0.0015161542 0.0012130508 0.03439206 -0.0054966607
0.0457561 0.03787927 0.029843658 0.030852256 -0.0028897296 -0.004416607 0.010781225 -0.028592573
0.0021788394 0.03412776 -0.024777237 -0.0037727924 0.016593194 0.020448705 0.027067808 0.005751952
0.005991671 0.045036577 0.0071199904 -0.009795352 -0.008410364 0.030551314 0.0028571154 -0.052401293
0.15377367 -0.01991916 0.080317445 -0.011658348 0.009785189 -0.009923543 0.00354573 0.01061639
0.0061460272 -0.011006733 -0.010716704 0.11370484 0.01231795 -0.039806522 0.0011590389 0.005056355
-0.021656899 0.0014478271 0.011790933 0.023600688 -0.0050046034 0.15597598 -0.07628484 -0.0015425725
-0.09289862 -0.0013963378 0.012958631 0.013449988 0.008996684 0.03643282 -0.021770783 -0.008720025
0.019418692 -0.021033723 0.008687141 0.020112736 0.08926791 0.049649715 -0.051967386 -0.013420301
0.035300583 0.008529151 0.0050250427 0.010294594 -0.00049126265 -0.008943509 0.04531342 -0.021927625

fc_logstd.bias f4 [2]
00000000: fd58 26bc 7849 48bc
-0.010153052 -0.012224548

fc1.weight f4 [256, 16]
00000000: 85a8 51be b3c3 65be dc78 00be c8d9 613e
00000010: 5436 0bbc 5b9d 2ebc 0293 2f3e bddd 2ebe
00000020: d0ea d1bc f3a9 5d3c e504 1dbe 173e 3ebe
00000030: 30d7 c0bd ee34 8b3d b93f 0e3e e707 223e
00000040: 6968 e13e 07f5 0b3d 6cc1 49bc e5df 81be
00000050: 7b5b ba3d 821c a8be 0d85 2bbd 29e1 a2be
00000060: 19f9 a7bf 9fb9 e53d fc70 033e 8d15 0d3e
00000070: f837 963e 4486 ba3e fe41 e43d b719 6f3c
00000080: ef5f a9bf 177f c23f a315 8fbe 46f4 40bf
00000090: 9929 693f b20b 2c3f a630 1140 27a9 92bf
000000a0: 81b5 edc0 2a1f 71c0 64d7 91bd aba0 81be
000000b0: 2246 483e 57a9 a6bd 2417 33be ba4f 7fbe
000000c0: e39a 9fbd 0511 e43f 49aa f5bd 8e91 aebf
000000d0: 5fc8 403e 2ca8 2dbf 3b2e 09bf ddb3 3cbf
000000e0: 3e62 3dc1 72e9 1c40 d2a7 7ebb 7c04 bf3d
000000f0: 869f 103c 901b 353e 770e 6dbe 2be8 0b3e
00000100: 586d 34bd d03f 77bd ec3d 39be c09b a9bc
00000110: 101a 723e b030 55bd 54a4 0e3e 20f6 6e3c
00000120: e058 25bd bc45 8cbd 4cd3 2abe 02b3 3c3e
00000130: 6ce8 163e 38b4 d6bd 28f1 de3d dc72 e9bd
00000140: 50b5 4c3f 787d dbbf c11a 43be 9e4a 9abc
00000150: 7aba 0b3e fa56 8d3d 408e 7c3e 98ad 28bf
00000160: 8afb 13c0 37ed c03f cebc ebbc 728f 443d
00000170: 218d 31c0 46dd efbe 5cff cfbd 2cc1 8f3d
00000180: c312 a43f 9e07 3d40 108a 3fbe a139 493f
00000190: b304 1740 583c 45bf 3aff 7d3f d797 0ec0
000001a0: 2dfb cb3f 089e 4e40 8ffe ad3d 5002 99be
000001b0: 8274 d83e 5c4b 77be 3ddb 243e c925 ccbe
000001c0: 730c 26c0 6c82 4b40 4bce 083d c595 df3f
000001d0: 1a0c 873f b179 d93f d015 6740 a856 57c0
000001e0: 3668 cac0 b903 1841 2591 6fbb 3d0b 71be
000001f0: 241f 46be a722 0dbf 0c5c d43d 3bc5 91bd
00000200: 4abf 683e e87b a23d 9e5a 74be 1881 5f3d
00000210: ba32 31be 6cad 5f3e 08ea c6bd d803 7bbd
00000220: 8879 46bd 9ce3 f6bd 867e 76be 68f2 053d
00000230: 7224 6dbe 50a8 9bbc 209a 3fbe dc94 793e
00000240: 3571 5440 b009 c43f 9787 e13c 7c14 f1bf
00000250: a6d4 9b3d 474e dbbf 021e abc0 d694 6ebe
00000260: 4ea2 1fc0 4693 a5c0 37c1 74bb 1324 143d
00000270: 9e0f 76bf 1d69 04bd 90f0 10bd a860 1c3d
00000280: 20eb 223f 3e18 0b40 473f 9dbd 9656 54bf
00000290: 13e9 853f 6b0e 39bf 861b 8ec0 6b6c cfc0
000002a0: dce1 9f3f b4fe af3f 3ebd 933d 030f 16bf
000002b0: 07d3 32be 6326 0b3f 3f8d 7a3c bad7 32bf
000002c0: 02b3 683b f431 a5c0 f95c 13ba 5ee8 cf3e
000002d0: eaf3 83bd c7c8 aa3e 4059 e1c0 3ba7 3f3f
000002e0: c42c 2e3f 7d8f 08c1 6b9e 1c3d 2e79 0abc
000002f0: 6572 9f3e 6307 61bf 2792 c53d d1b0 d8bb
00000300: 30f3 063f 6e94 b53f 2da8 103c f4a2 86bf
00000310: 8d05 bd3e d017 79bf 6fb3 6fbf c111 20c0
00000320: ffe5 5a41 25a2 78c0 8a56 9e3c bef0 9b3c
00000330: a471 f13d b05f 8dbe 8ec7 3a3d 094a 7ebd
00000340: bc63 983d 4963 503e cdd8 0ebe 46c2 fa3d
00000350: e430 69bd 3aa6 733e 9a68 7f3d 3b8c 5fbc
00000360: 8bab 41be 8e0a 033e 375b bcbd 6d18 a3bd
00000370: 0b7d b53d 5993 5abe 8ab5 003e 1979 243e
00000380: e198 96c0 7c6e 0a40 72d8 62bd 4fe7 f7bd
00000390: 563d d33d c647 f4be b676 89c0 8a16 06bf
000003a0: 55a5 ebc0 12bd f4be c34d 353d 28af 9f3d
000003b0: 7382 d3bf 6143 d3be 21d4 963e a295 4b3d
000003c0: a892 8040 6b83 00c0 2690 39bc 9bfa d5bd
000003d0: 3c23 9e3e 3041 69bd b11a bf40 e990 63c0
000003e0: e656 d9c0 07a9 59bf 55fe b2bd 9c53 9fbd
000003f0: 1f80 fabf 7682 033f 3ee4 afbd e2a8 12bd
-0.20474441 -0.22437935 -0.12546104 0.22055733 -0.00849684 -0.010657634 0.17145923 -0.17076774
-0.025624663 0.013529289 -0.15333898 -0.18578373 -0.09416044 0.06797205 0.13891496 0.15823327
0.4402497 0.034169223 -0.012314182 -0.2536613 0.0909948 -0.3283425 -0.041874934 -0.3181241
-1.3122894 0.11217045 0.12836069 0.13777752 0.29339576 0.36430562 0.111453995 0.014593533
-1.3232402 1.5195035 -0.27946195 -0.7537273 0.910791 0.67205346 2.2685943 -1.1457871
-7.4284062 -3.767527 -0.071211606 -0.25317892 0.19558004 -0.08137768 -0.17489296 -0.24932757
-0.07793214 1.7817694 -0.1199537 -1.363817 0.18826436 -0.67834735 -0.5358617 -0.7371195
-11.836485 2.4517484 -0.0038857353 0.09327027 0.008827096 0.17686296 -0.23150049 0.13662784
-0.04404959 -0.06036359 -0.18090028 -0.02070415 0.23642755 -0.052048385 0.13929874 0.014585048
-0.04036796 -0.06849238 -0.16682166 0.18427661 0.147371 -0.10483593 0.10885841 -0.11398861
0.7996416 -1.7147665 -0.19053175 -0.018834408 0.13645354 0.06901355 0.24663639 -0.65889883
-2.3122277 1.5072392 -0.028776553 0.047988363 -2.7742388 -0.46848506 -0.10156128 0.070192665
1.2818226 2.95359 -0.1870501 0.7860356 2.3596618 -0.770452 0.9921757 -2.2280176
1.5936028 3.2283955 0.08495819 -0.29884577 0.42276388 -0.24149841 0.16099258 -0.39872578
-2.5945098 3.1798353 0.03339986 1.7467581 1.0550568 1.6990262 3.6107063 -3.364664
-6.325221 9.500909 -0.0036555019 -0.23539443 -0.19347817 -0.55131 0.10369119 -0.07117697
0.22729221 0.079337895 -0.23862693 0.054566473 -0.17304507 0.21843499 -0.09712607 -0.061282963
-0.048455745 -0.12055132 -0.24071702 0.03270188 -0.23158434 -0.019001156 -0.18711138 0.24373192
3.3194096 1.5315456 0.027530475 -1.8834376 0.07608919 -1.7133263 -5.347413 -0.23298964
-2.4942813 -5.1742277 -0.003734661 0.036167216 -0.9611758 -0.032326806 -0.03538567 0.038178116
0.6364002 2.1733546 -0.07678085 -0.8294462 1.0461754 -0.72287625 -4.44086 -6.4819846
1.2490802 1.3749604 0.072138295 -0.58616656 -0.17463313 0.5435545 0.015292465 -0.6986042
0.0035507088 -5.162348 -0.0005621459 0.4060697 -0.06443007 0.33356306 -7.042145 0.7486455
0.68037057 -8.535031 0.038237017 -0.008451743 0.31141964 -0.87901896 0.09647017 -0.006612875
0.52714825 1.4185922 0.008829159 -1.0518479 0.36918297 -0.9730196 -0.9363317 -2.5010836
13.681151 -3.8848965 0.019328374 0.019035693 0.11789253 -0.27612066 0.045600466 -0.062082324
0.07440898 0.20350374 -0.1394989 0.12244086 -0.05693139 0.23793879 0.062355615 -0.013644273
-0.18913095 0.12796995 -0.09197085 -0.07963643 0.08861741 -0.21345271 0.12569252 0.1606182
-4.706162 2.1629934 -0.0553822 -0.121046655 0.10314433 -0.4771101 -4.295741 -0.5237814
-7.363932 -0.478005 0.044263612 0.0779708 -1.6524185 -0.41262344 0.29458717 0.049703248
4.0179024 -2.008021 -0.011325872 -0.1044819 0.30886257 -0.056946933 5.972008 -3.5557196
-6.7918577 -0.8502354 -0.08739916 -0.07779619 -1.957035 0.5137094 -0.085884556 -0.03580559

fc1.bias f4 [256]
00000000: 95fe 533e ea72 6c40 9749 943f ccf0 473f
00000010: eedb 02be 8152 f63f e8a2 ba3f 57ca 1dc0
00000020: d43f b5bd 614e 5bc0 608a 363f e82d 20c0
00000030: 8d48 0ac0 d5de fcbd 08a1 5a3f e749 d23e
00000040: 90fa a8bc 3414 34be 48b9 1a3d a4b3 86be
00000050: c421 83c0 0591 a43f f38d b7bf 3ce2 aa3f
00000060: 92e8 4bbe c0b0 dabb c420 91be d00c cd3f
00000070: 80b0 c83d 71f4 133f 499a 1540 496b 253e
00000080: 6df2 5b3f 978f b63f a08c 413c ac8c 24c0
00000090: 9771 c7bf acfb 023e f932 80be 5813 a73e
000000a0: 2397 4dbf fb5b c83f 6299 f83d 9ebe 163e
000000b0: bba2 f53f a498 963d cf8d 4e3d 38dd 3dbf
000000c0: ac1f 86bd d550 4abe 6f24 c53f 78fe 773d
000000d0: 8a17 303f c6aa 51be 421e 343e c0e3 abbd
000000e0: 5e58 20c0 471f f23e 5dfc a73e bc04 a03f
000000f0: 3c4a 183f 1bd5 1240 f996 9f3c 75f1 2cbf
00000100: 2782 3b3d 326a 3b3d 3c9c 10c0 1bc3 da3d
00000110: 18a9 db3d 88ac 023e b9fb 283d 34bf cfbe
00000120: 04ba db3d 821d 703e 4f41 563f a856 3cbe
00000130: ea39 223e 1f8c 5a40 052b 46c0 5b75 47bf
00000140: 4d9b 8a3d 6883 ec3f 8279 78bf ab8c 5a40
00000150: d084 033e 5f1f 97bf d03c 43bd 7381 5ebf
00000160: bcc4 febf be0c aebf 057d 98be 9eea 88bf
00000170: 7310 23c0 e8c3 aebd c4b9 7c3e ee5d 0dc0
00000180: d03a 74be 563a 52c0 530e 0f40 809e 463b
00000190: c444 a4bf 68a1 323d b9c6 fb3f 90a4 863c
000001a0: 5371 cb3c 9f7f 63be 4813 673d b857 723e
000001b0: 5073 cfbd 01fd 00be dce5 e5bd 6e9c 1d3e
000001c0: f71c 0f40 1c29 bdbf 5a8e aa3f 4b16 3540
000001d0: 553b 4d3e 4065 833d eaba 63be 21c4 583f
000001e0: 1af0 34c0 55f8 813e f7d3 83bd cdba f8bf
000001f0: 7e99 b43c 439e d1bf 7e69 acbe 70a5 f73e
00000200: c273 0740 e460 d43e 30e8 8dbf 4988 2b40
00000210: 3ad5 54be 5e91 163e fc4e b7bd c19c dbbe
00000220: ee7d a7be 2661 b93f b09c c7bc 4161 0940
00000230: cbfc e63f d82b 99bd 3c66 903f d355 843f
00000240: 3b2b fc3d 9098 90bd f256 c2bc f872 583e
00000250: d857 03be d2a9 14be c73a d53e c284 b0bf
00000260: fdea 4ebf 0988 1f40 2d6c 83bf b45c 25be
00000270: fab6 4dc0 e7ce e23f 20eb 08be 68a3 b8be
00000280: 388e 713e b080 37bd f134 a43f e6b6 9a3d
00000290: a5db 03be 803e d73c 6ca2 8c3f 10b5 ad3c
000002a0: 5bfe 1bc0 342e 4d3e 89c7 09bb 291a 4e40
000002b0: 6ee8 473d 3f22 343e 8d25 87bf 1af5 3dbe
000002c0: 1b79 0b40 f552 5740 55a9 f3bf 8834 793e
000002d0: a0b1 e2bc 0266 2e40 926d 33c0 3c84 81bd
000002e0: ec68 06c0 66fd 2dbe 5ae9 7abe 16d2 5d3e
000002f0: 9c86 ccbf 9636 4a3e 741e 19be ba17 5540
00000300: de3f 6f3e 0852 583e 2050 f6bc 3ccd 2fbe
00000310: 3ec9 09be 51e1 e5be c606 1f3f a8ff c13d
00000320: 1f80 01c0 db19 1d40 bc73 cb3d b868 7a3d
00000330: ebc4 28bf ef3e f9be 6007 173c 0005 7e3c
00000340: 85c1 edbc ecb4 e9bf b1a1 ccbf 8839 523d
00000350: ab0b aa3f 9f56 ecbf dae4 7f3e 4d1f dc3e
00000360: 3023 083f c400 d03f 1e60 7b3f 0c30 48be
00000370: 65a9 513e 9650 783f d6ca dabe 2244 8bbf
00000380: 762b af3d 644c 443f 3091 c73f 58da 71bd
00000390: 7873 a2bf f4a1 db3e 478b 5f3f 3e1e 78be
000003a0: 40f4 193c 5ca2 013e aff7 39bf 1047 e3bd
000003b0: 8ef9 9ebf 75f1 28bf 8c02 0840 df94 2340
000003c0: 987b dbbd c064 6f3d ff8c a7bd 1c21 e1bf
000003d0: 851a 4740 2089 c53d 407d 2f3f 364b b1bf
000003e0: 97ad cd3e ea66 63be 1cc5 5c3e c874 d3be
000003f0: 6acb 0c40 8095 a93b d2c0 b03e 6809 493d
0.20702584 3.6945138 1.1584958 0.781018 -0.12779209 1.9243928 1.4580965 -2.4654748
-0.08850065 -3.4266589 0.71304893 -2.502802 -2.1606781 -0.12347189 0.85401964 0.41072008
-0.02062729 -0.17585832 0.037774354 -0.2630893 -4.097872 1.2856756 -1.4340194 1.3350291
-0.19912937 -0.0066739023 -0.2834531 1.6019535 0.0979929 0.57794863 2.3375418 0.16154207
0.8591679 1.426257 0.011813313 -2.571086 -1.558154 0.12791318 -0.2503889 0.32631946
-0.8030874 1.565307 0.121386304 0.14721152 1.9190286 0.07353333 0.050428208 -0.7416568
-0.0654901 -0.19757397 1.5401744 0.060545415 0.6878592 -0.20475301 0.17589667 -0.08393049
-2.5053935 0.47289488 0.32809725 1.2501445 0.5948827 2.294257 0.019481169 -0.67555934
0.04577842 0.045755573 -2.2595358 0.10681745 0.107256114 0.12761128 0.041255686 -0.40575564
0.10728839 0.23448756 0.83693403 -0.18392432 0.15842405 3.4148023 -3.0963757 -0.77913445
0.067679025 1.8477602 -0.97060406 3.4148357 0.12843633 -1.1806449 -0.047665417 -0.86916274
-1.9903789 -1.3597639 -0.29782882 -1.06966 -2.547879 -0.0853346 0.24680239 -2.208858
-0.2385056 -3.2848105 2.2352493 0.0030306876 -1.2833486 0.04361096 1.967002 0.016435891
0.02483431 -0.22216652 0.056414872 0.23666275 -0.10129416 -0.12596513 -0.11225483 0.15391704
2.2361429 -1.477817 1.3324692 2.8294857 0.20042165 0.06415796 -0.22239271 0.8467427
-2.8271546 0.25384775 -0.064369135 -1.9432007 0.022045847 -1.6376423 -0.33674234 0.48368406
2.1164403 0.41480172 -1.1086483 2.6801932 -0.20784464 0.1470389 -0.08950612 -0.4289303
-0.32713264 1.4482772 -0.024366707 2.146561 1.8045896 -0.07479066 1.12812 1.0338691
0.12312933 -0.07060349 -0.0237231 0.21137607 -0.12826478 -0.14517906 0.41646406 -1.3790514
-0.80827314 2.492678 -1.0267388 -0.16148645 -3.214293 1.7719392 -0.13370943 -0.3606217
0.23589408 -0.04480046 1.2828656 0.07554416 -0.12876756 0.02627492 1.0987067 0.021204501
-2.4373996 0.20037156 -0.0021023473 3.2203467 0.048805647 0.17591189 -1.0558335 -0.1855053
2.1792667 3.3644383 -1.9036051 0.24336445 -0.027672589 2.724976 -2.8035626 -0.0632405
-2.100154 -0.16991195 -0.24503079 0.21662173 -1.597858 0.19747385 -0.14953023 3.3295732
0.23364207 0.21125042 -0.030067503 -0.17168134 -0.13455674 -0.44898465 0.6211971 0.09472591
-2.023445 2.454703 0.09934184 0.061135024 -0.6592547 -0.48680827 0.009218067 0.015504122
-0.029022941 -1.8258338 -1.5986844 0.051324397 1.3284811 -1.8463935 0.24989644 0.4299263
0.5317869 1.6250234 0.9819354 -0.19549578 0.20474775 0.96997964 -0.42732877 -1.0880167
0.085532114 0.7667906 1.5591183 -0.05904612 -1.2691488 0.42896998 0.87321895 -0.24230286
0.009396613 0.12659591 -0.7264356 -0.110975385 -1.2419908 -0.65993434 2.1251554 2.5559614
-0.10716933 0.058445692 -0.0818119 -1.7588229 3.1109936 0.09645295 0.6855049 -1.3851078
0.401715 -0.22207227 0.21559566 -0.41300035 2.1999154 0.0051752925 0.3452211 0.049081236
