fw_flightcontrol/models/icinco/ppo/turbonly/ppo_bohn_caps_nohist_easymedrefs_turbonly_2989_04-06_22:42:32.pt (torch, 47144 bytes, 12 tensors)

actor_logstd f4 [1, 2]
0	0x3d268d14	0.040661886
1	0x3d9ab408	0.075538695

actor_mean.0.weight f4 [64, 14]
0	0x3cff166a	0.031138618
1	0x3e562941	0.20914175
2	0x3b41af59	0.0029553978
3	0x3e1a7fb6	0.1508778
4	0xbd5aa213	-0.053377222
5	0x3e2442dd	0.16041131
6	0xbf35f08a	-0.7107016
7	0xbf28563a	-0.6575657
8	0xbe91803e	-0.28418154
9	0x3cd709e8	0.02624984
10	0x3e24022e	0.16016456
11	0x3c7dd851	0.015493468
12	0x3dd2f32e	0.10300289
13	0x39996377	0.0002925654
14	0x3e64c9e4	0.2234264
15	0x3dc2c596	0.09510343
16	0x3e2f69d4	0.17130214
17	0xbe1bc3bc	-0.15211385
18	0xbd58022f	-0.052736457
19	0xbe9b36fc	-0.30315387
20	0x3e0d9271	0.13825394
21	0x3df0dc0a	0.11760719
22	0xbe0acddc	-0.13555092
23	0x3dc7e2d7	0.09760063
24	0x3e18df4e	0.14928934
25	0xbee0086e	-0.4375643
26	0x3e35d10f	0.17755531
27	0xbc07cf93	-0.008289236
28	0xbec557fd	-0.38543692
29	0x3d9a421f	0.07532143
30	0x3aee705a	0.0018191442
31	0x3e088aba	0.1333417
32	0x3ef1500c	0.47131383
33	0x3d47f719	0.048819635
34	0x3e8a0ebe	0.26964372
35	0xbf1d64db	-0.6148202
36	0xbcca7b0c	-0.024716876
37	0x3d93f213	0.07223906
38	0xbdb64ed7	-0.08901756
39	0xbe1591d3	-0.14606409
40	0xbe4fba5e	-0.20285937
41	0xbe83a7d6	-0.25713986
42	0x3de4cb99	0.11171646
43	0xbe287df7	-0.16454302
44	0x3e3e978d	0.186125
45	0x3dc4f76f	0.09617507
46	0xbd9a9bbc	-0.07549235
47	0xbdb8e397	-0.09027784
48	0xbe66e127	-0.22546826
49	0xbdb835ad	-0.08994613
50	0xbdbcec4e	-0.09224759
51	0xbdb7d1c4	-0.089755565
52	0xbe25d685	-0.16195114
53	0x3da147d9	0.07875032
54	0x3dbcadb5	0.092128195
55	0xbdabfd8e	-0.08397971
56	0xbd1f3024	-0.03886427
57	0xbe3f81e8	-0.18701899
58	0x3d956fe5	0.07296733
59	0x3d8a3f79	0.06750388
60	0xbe3ee921	-0.18643619
61	0x3dfcfa15	0.12352387
62	0xbe56feb0	-0.20995593
63	0x3e237dcb	0.15965955
64	0x3e82165c	0.25407684
65	0xbe54d4bd	-0.20784278
66	0x3df73e45	0.12072424
67	0x3d3e86a3	0.04651512
68	0xbe8e43e4	-0.2778617
69	0x3d6bdc90	0.05758339
70	0xbd2b2970	-0.041787565
71	0x3e06c61a	0.13161507
72	0xbe8fef2f	-0.2811217
73	0x3e27dccd	0.16392823
74	0xbe6d1ee4	-0.23156315
75	0xbea2d5be	-0.31803697
76	0xbe2f8abd	-0.17142768
77	0xbb1e0c91	-0.0024116377
78	0x3b942676	0.0045211865
79	0x3da8c543	0.0824075
80	0x3cbe4f7b	0.023231259
81	0x3c925aaf	0.017865507
82	0xbd7033ac	-0.05864303
83	0xbe22b839	-0.15890588
84	0x3c2793e7	0.010228134
85	0x3e75c7c2	0.24001983
86	0xbecd2384	-0.4006616
87	0xbdf64a86	-0.12025933
88	0x3dfb5845	0.122726955
89	0xbd99c28f	-0.07507812
90	0xbd3aeddd	-0.045637
91	0x3db4af07	0.08822446
92	0x3dd9deb6	0.10638182
93	0x3ec2de11	0.38060048
94	0x3df7f142	0.12106563
95	0xbdc656ee	-0.09684549
96	0xbe16cb6f	-0.14726041
97	0x3d5d91a2	0.054093964
98	0xbd85094b	-0.06495913
99	0x3e151f81	0.14562799
100	0xbd86b41a	-0.065773204
101	0xbe5f06cf	-0.21779941
102	0xbe0124f0	-0.12611747
103	0x3de12b55	0.10994593
104	0xbe37cb72	-0.17948702
105	0xbd82b415	-0.06382004
106	0xbd87f2d9	-0.066381164
107	0xbea4f4a8	-0.32217908
108	0x3dbd007b	0.09228607
109	0x3bfa65cb	0.007641529
110	0xbe36f225	-0.17865808
111	0x3efdac5b	0.4954556
112	0xbe5d022e	-0.21582863
113	0x3d3e9106	0.046525024
114	0x3ded2caa	0.115807846
115	0x3eac3f2d	0.3364195
116	0x3e352655	0.17690404
117	0x3e8db3d0	0.2767625
118	0xbdb355cd	-0.087565996
119	0x3cd534fa	0.026026238
120	0x3cc4367e	0.023951765
121	0x3e0735ac	0.13204068
122	0x3e3f39f3	0.1867445
123	0x3d794819	0.060859773
124	0xbd8747d2	-0.066054955
125	0xbe7a5f30	-0.24450374
126	0xbd10a44a	-0.03531293
127	0x3daa67fc	0.08320615
128	0xbe8d7d94	-0.2763487
129	0xbe38d086	-0.18048295
130	0x3e83f4f3	0.2577282
131	0x3e2db262	0.16962579
132	0x3d9d3541	0.07676173
133	0xbea6e703	-0.32598123
134	0x3e59989f	0.21249627
135	0xbcce3a1c	-0.025174193
136	0x3e7c225a	0.24622479
137	0xbe46c15b	-0.19409697
138	0xbcea1de5	-0.028578708
139	0x3dd1c3a9	0.10242397
140	0xbdbd1c06	-0.09233861
141	0xbe02cada	-0.12772694
142	0xbe01cb97	-0.1267532
143	0xbddd4d84	-0.108058006
144	0xbe750e74	-0.23931295
145	0x3ea622f7	0.3244855
146	0xbefad281	-0.48988727
147	0x3c3e4779	0.01161372
148	0x3e5fdd9b	0.2186188
149	0x3d95a584	0.0730696
150	0xbb92838d	-0.0044712485
151	0xbe554071	-0.20825364
152	0x3d924b07	0.071432166
153	0x3e44ef7b	0.1923198
154	0xbda45f73	-0.08026018
155	0xbe3a8d32	-0.18217924
156	0xbe1fbe13	-0.15599851
157	0xbd551f6b	-0.052031916
158	0xbe749c35	-0.23887713
159	0xbdc7a8f2	-0.09749021
160	0x3ebdddfd	0.37083426
161	0x3e9b0cf7	0.3028333
162	0x3e160410	0.14649987
163	0x3e2ec4c7	0.17067252
164	0xbde5976c	-0.11210522
165	0x3cd50d5e	0.02600735
166	0x3e1a7540	0.1508379
167	0x3d03a747	0.03214195
168	0xbe7cc01e	-0.24682662
169	0x3dc46bbf	0.095908634
170	0x3e158b6f	0.14603971
171	0xbee7a142	-0.45240217
172	0xbeb87a42	-0.36030775
173	0x3b0402c9	0.0020143262
174	0xbda3efd9	-0.08004732
175	0xbe54ff5e	-0.2080054
176	0xbd69757b	-0.056996804
177	0x3e5c3c70	0.2150743
178	0xbcfad0ee	-0.030617204
179	0xbca7c6a9	-0.02048047
180	0xbdbe591f	-0.09294342
181	0x3e3fa3a7	0.18714772
182	0x3e9ac2bd	0.302267
183	0xbcfaf2e8	-0.030633405
184	0xbcc1a38d	-0.023637557
185	0xbdfba457	-0.12287205
186	0xbeadc492	-0.33939034
187	0x3de5db79	0.11223502
188	0xbd9c16a7	-0.07621508
189	0xbe371664	-0.17879635
190	0xbdb6530e	-0.0890256
191	0xbc44c01c	-0.012008693
192	0xbc904fa3	-0.017616099
193	0x3e260a90	0.16214967
194	0x3d62018b	0.055177253
195	0xbeb2c4d2	-0.34915787
196	0xbd1592f7	-0.03651711
197	0x3e1cbf77	0.15307413
198	0xbde039eb	-0.10948547
199	0x3ea624bd	0.32449904
200	0x3df6700f	0.12033092
201	0x3eaafce0	0.33396053
202	0xbe2c12b9	-0.16804017
203	0x3d089983	0.033349525
204	0x3e8b2441	0.27176097
205	0xbe5c5c7e	-0.21519658
206	0xbda042c8	-0.078252375
207	0xbe2daa96	-0.16959605
208	0x3e040ba3	0.12895064
209	0x3e550ff6	0.2080687
210	0xbe900a51	-0.2813287
211	0xbe7f5360	-0.24934149
212	0xbdd4c083	-0.10388281
213	0xbd65fb65	-0.05614795
214	0x3d69c0e5	0.057068724
215	0xbdb53270	-0.08847511
216	0xbe1da491	-0.15394808
217	0xbd3b9916	-0.04580029
218	0xbe14fbb8	-0.14549148
219	0x3ce4307f	0.027855156
220	0xbddbdd2d	-0.10735545
221	0x3e621870	0.22079635
222	0x3e994906	0.29938525
223	0x3def0311	0.11670507
224	0x3e17b831	0.14816357
225	0x3dbaf02c	0.091278404
226	0x3e5c553b	0.21516888
227	0x3eaf9ea5	0.34300724
228	0xbdd2900c	-0.10281381
229	0x3d70aa66	0.058756255
230	0xbd25cafb	-0.04047678
231	0xbeb38ec4	-0.3506986
232	0x3dda1939	0.10649342
233	0xbdba2cd0	-0.090905786
234	0xbdeadc62	-0.11467816
235	0xbe6ebfad	-0.23315306
236	0x3e514f6f	0.20440458
237	0xbc02d458	-0.007985197
238	0xbf0d5c42	-0.552189
239	0xbef49f23	-0.47777662
240	0xbb559051	-0.003258724
241	0xbdb5216f	-0.088442676
242	0x3e09be46	0.1345149
243	0x3bf1725b	0.0073683686
244	0x3ee9ffba	0.45702916
245	0x3ef86f6a	0.48522502
246	0x3e72bd38	0.23704994
247	0x3e45ee1c	0.19329113
248	0xbdc51426	-0.09622984
249	0xbc1ce86e	-0.0095769
250	0x3e907af2	0.282188
251	0xbc8c737d	-0.017144913
252	0x3e76f2d4	0.24116069
253	0x3e1d4264	0.15357357
254	0xbd81a2fc	-0.06329915
255	0xbd41cf53	-0.04731686

actor_mean.0.bias f4 [64]
0	0xbcf1dfac	-0.0295256
1	0x3c99a0be	0.018753406
2	0xbdb5301e	-0.08847068
3	0xbb992837	-0.0046739834
4	0x3c74c607	0.0149397915
5	0xba4ebb5d	-0.00078861957
6	0xb753c83b	-1.26232e-05
7	0xbc84d265	-0.016213605
8	0xbc3faf58	-0.01169952
9	0x3a0a304b	0.00052714784
10	0x3bb968f3	0.005658263
11	0x3c28cc09	0.010302552
12	0x3b212e47	0.0024594234
13	0x3c85a65b	0.016314676
14	0x3c64d9d7	0.013967953
15	0x3cb34380	0.021882772
16	0x3bc5e56b	0.0060393116
17	0x3d918e51	0.07107223
18	0xbcffd937	-0.031231506
19	0xbcf9d0b2	-0.030495021
20	0x377e222b	1.5147535e-05
21	0xbc107aba	-0.008818323
22	0x3b933849	0.0044927937
23	0xbced6ea8	-0.02898343
24	0xbafae934	-0.0019142986
25	0x3b51dcb9	0.003202243
26	0xbadfe649	-0.001708218
27	0x3baa694b	0.00520054
28	0x3b610952	0.003433783
29	0xbc6931dc	-0.014233079
30	0xbc001b2f	-0.007818981
31	0x3b8c8afe	0.00428903
32	0xbd4ad3f2	-0.049518533
33	0x3ce453b1	0.027871938
34	0x3dc4136a	0.095740154
35	0x3dc017f8	0.09379572
36	0xba1bb0c7	-0.00059391226
37	0x3a49e78b	0.0007702044
38	0x3c61b869	0.013776877
39	0xb9905c30	-0.00027534505
40	0xbcf82b33	-0.030294036
41	0xbd00353a	-0.03130076
42	0xb9dc71f1	-0.00042046563
43	0x394e35cf	0.00019665736
44	0xbd3e693e	-0.046487086
45	0xbd2658a4	-0.040611878
46	0xbd21af95	-0.03947409
47	0x3c78ef6e	0.015193803
48	0x3c5dce26	0.013537919
49	0xba3c7360	-0.0007188823
50	0x3d6063dd	0.054782737
51	0xbb91f89e	-0.0044546863
52	0xbbf45168	-0.0074559934
53	0xbbb99d7b	-0.005664525
54	0xbbfe13cd	-0.0077538253
55	0xb87a68ab	-5.9702124e-05
56	0xbb0e8a67	-0.0021749975
57	0xbc86a023	-0.016433781
58	0x3c583679	0.013196581
59	0xbc7ea8f8	-0.015543215
60	0xba6ce73a	-0.0009037141
61	0x3aac6699	0.0013153135
62	0xbc7c48af	-0.0153981885
63	0xbaa6f756	-0.0012738507

actor_mean.2.weight f4 [64, 64]
0	0x3e835d98	0.25657344
1	0x3e2b2656	0.16713843
2	0xbdb7a8f6	-0.089677736
3	0x3d25bf76	0.040465795
4	0xbe1c8939	-0.15286721
5	0x3abe7874	0.0014531747
6	0xbe4a9fb5	-0.19787486
7	0x3d47b80f	0.048759516
8	0x3ca3e5ce	0.02000704
9	0xbe5ce86a	-0.21573034
10	0x3e867ff1	0.26269487
11	0xbebd23a0	-0.36941242
12	0xbd95c52c	-0.07312998
13	0xbe84805b	-0.25879177
14	0x3e15b8e7	0.14621316
15	0x3d7ae8fc	0.061257347
16	0x3dd9fd9d	0.10644076
17	0xbeebf6d0	-0.4608674
18	0x3e941394	0.28921187
19	0xbf00534f	-0.5012712
20	0x3d8ac37b	0.06775566
21	0xbc6b4fe0	-0.014362305
22	0x3cefb330	0.029260248
23	0x3c1636ff	0.0091683855
24	0xbd2e6050	-0.04257232
25	0xbdf1d109	-0.118074484
26	0x3e805000	0.25061035
27	0x3e612946	0.21988401
28	0xbe59796a	-0.21237722
29	0x3ea6bb47	0.32564756
30	0x3d89b919	0.06724758
31	0xbcfd1b6a	-0.030896861
32	0x3db1e056	0.08685367
33	0x3e48d1ac	0.19611233
34	0xbd8b18ab	-0.067918144
35	0x3dab573b	0.08366247
36	0x3dfa686c	0.12226948
37	0xbe0a0381	-0.13477899
38	0xbef9ab97	-0.48763725
39	0x3dbe3fbd	0.09289501
40	0x3db956df	0.090497725
41	0x3cfb7eac	0.03070005
42	0x3cf40244	0.029786237
43	0x3eac132d	0.3360838
44	0x3e6de63b	0.23232357
45	0x3e01d3f4	0.1267851
46	0xbe1105f6	-0.1416243
47	0xbd3c44ad	-0.04596393
48	0x3e93d0fd	0.28870383
49	0xbd869187	-0.06570726
50	0xbe45e15c	-0.19324249
51	0xbe0e3bdd	-0.13890024
52	0x3ec25f10	0.37963152
53	0x3df24ad5	0.11830679
54	0x3d5425cd	0.051793862
55	0xbd57016b	-0.052491587
56	0x3c505ea2	0.012717875
57	0x3c937591	0.018000396
58	0x3e5ec200	0.21753693
59	0x3e191524	0.14949471
60	0xbcd0fe0f	-0.02551177
61	0xbdb9e1d2	-0.09076275
62	0xbe54364a	-0.20723835
63	0x3e702bcc	0.23454207
64	0x3df01f3a	0.11724706
65	0x3edbe6da	0.42949563
66	0x3e84e1b5	0.2595345
67	0x3da0307b	0.07821747
68	0xbe1a88d3	-0.15091257
69	0xbea3b663	-0.31975088
70	0xbc5f0b5a	-0.013613546
71	0x3df8ad38	0.12142414
72	0xbe2cb2a5	-0.16865022
73	0xbe9cb0cd	-0.30603638
74	0xbe3412a7	-0.1758524
75	0xbda2a221	-0.0794108
76	0x3eef3c94	0.46725905
77	0xbd589bc8	-0.05288294
78	0x3e67d313	0.22639112
79	0x3e34b4eb	0.1764714
80	0xbe672530	-0.2257278
81	0xbe30bdca	-0.17259899
82	0x3c9035c0	0.017603755
83	0xbe3cf018	-0.18450963
84	0xbdd6d18a	-0.10489185
85	0x3c8f32a0	0.017480195
86	0x3e72bec9	0.23705591
87	0x3df7c6e4	0.12098482
88	0x3ebb0f80	0.36535263
89	0x3e681ff6	0.22668442
90	0xbe00994d	-0.1255848
91	0xbe6546fb	-0.22390358
92	0x3c208fed	0.00979994
93	0xbead161d	-0.33805934
94	0xbdcf8501	-0.1013279
95	0x3d953e8e	0.07287322
96	0x3e8e7723	0.2782527
97	0x3cdc82dc	0.026917867
98	0xbde0e30d	-0.109808065
99	0x3ad2f689	0.0016095202
100	0x3c24ec74	0.01006614
101	0x3e0a07af	0.13479494
102	0x3e8d64d6	0.27615994
103	0x3d7ed73b	0.06221698
104	0xbe2801a9	-0.16406883
105	0xbe1ea68d	-0.15493222
106	0x3e46084c	0.19339103
107	0xbe980f7e	-0.2969932
108	0x3e37de03	0.17955784
109	0x3d5f7d3f	0.054562803
110	0x3f0bb8f7	0.5457911
111	0xbe468047	-0.19384871
112	0xbc89b678	-0.01681064
113	0xbd1e01f8	-0.038576096
114	0xbe37df95	-0.17956384
115	0xbe3c4c69	-0.18388523
116	0xbe00065d	-0.12502427
117	0xbdefca88	-0.11708552
118	0xbea91e6a	-0.33031017
119	0x3db06695	0.08613316
120	0x3d6983ad	0.05701034
121	0xbc96501c	-0.018348746
122	0x3bfb7323	0.0076736375
123	0xbd89f6d9	-0.067365356
124	0xbdc5c58a	-0.09656818
125	0x3e05cde1	0.13066818
126	0xbe998068	-0.2998078
127	0x3e0ae1c2	0.13562682
128	0x3e01e0f3	0.12683468
129	0xbd2f0725	-0.042731423
130	0xbd23d137	-0.039994445
131	0xbdd26292	-0.10272707
132	0x3dc6259d	0.09675143
133	0xbdc5457a	-0.09632392
134	0x3e93651c	0.28788078
135	0xbdb41e1b	-0.08794805
136	0xbd0bb5ee	-0.03410905
137	0xbb3f7037	-0.0029211172
138	0x3ea4ebd5	0.32211176
139	0xbdb0245a	-0.086006835
140	0x3cae9f41	0.021316173
141	0x3c9f37d5	0.019435802
142	0xbd488207	-0.04895213
143	0xbe65329a	-0.22382584
144	0xbd6a915b	-0.057267528
145	0xbd85790f	-0.06517231
146	0x3e6cc1f2	0.2312086
147	0x3e18745b	0.14888136
148	0xbe4ac90d	-0.19803257
149	0x3df08497	0.117440395
150	0xbe0d6f22	-0.13811925
151	0x3ddf0c1e	0.10890983
152	0x3dc05764	0.093916684
153	0xbe83d45e	-0.2574796
154	0xbe87fb88	-0.2655909
155	0xbdd16652	-0.10224594
156	0x3d8a773d	0.06761024
157	0xbde2e8d5	-0.110795654
158	0x3d84ad4a	0.06478365
159	0x3d946bfc	0.07247159
160	0x3e0e27bb	0.13882343
161	0xbe8beeb4	-0.27330554
162	0xbdcde31f	-0.100530855
163	0xbd897856	-0.067124054
164	0xbdfb2c1c	-0.122642726
165	0x3ec7589a	0.38934785
166	0xbe80081d	-0.2500619
167	0xbdc455de	-0.0958669
168	0x3c772d5d	0.015086499
169	0xbd3cf837	-0.046135154
170	0x3e8eb840	0.27874947
171	0x3e59e948	0.21280396
172	0x3f062941	0.524067
173	0xbdb6ebdd	-0.08931706
174	0x3ec42d58	0.38315845
175	0x3e01f6e5	0.12691839
176	0xbca54796	-0.020175736
177	0x3ef87568	0.48527074
178	0xbdd5a4d6	-0.104318306
179	0xbde4736e	-0.11154829
180	0xbc1b41a3	-0.009476098
181	0x3d96f58f	0.07371055
182	0x3e70c7ac	0.23513669
183	0x3d55e8d3	0.05222399
184	0x3deb2981	0.114825256
185	0x3dd75bc2	0.10515548
186	0xbe858dd5	-0.26084772
187	0x3df4e9fd	0.11958692
188	0xbc2b6341	-0.010460676
189	0xbe8c771b	-0.2743462
190	0xbefd01e8	-0.49415517
191	0x3e2f5247	0.1712123
192	0x3ce468ee	0.027882066
193	0xbd0cd837	-0.034385886
194	0x3e79fca7	0.24412785
195	0xbde1d491	-0.11026872
196	0xbdf7e05d	-0.12103341
197	0x3e1252f4	0.14289457
198	0x3df74d0e	0.12075244
199	0x3e6bc07c	0.23022646
200	0x3d8731a9	0.06601269
201	0xb9bac299	-0.0003562167
202	0x3e5933ab	0.21211116
203	0xbe20f772	-0.15719393
204	0x3d21d07a	0.03950546
205	0x3dc7faf2	0.09764661
206	0xbd01b715	-0.03166874
207	0x3e704504	0.23463827
208	0x3d680ff4	0.05665584
209	0xbec2c1c1	-0.38038447
210	0x3da8d48d	0.08243666
211	0xbc826927	-0.015919281
212	0xbdf57e50	-0.11986983
213	0x3d50abfb	0.050945263
214	0xbc568833	-0.013093996
215	0xbe640067	-0.22265778
216	0xbe476e4f	-0.19475673
217	0x3eb1a7fd	0.34698477
218	0x3dd0858f	0.10181724
219	0xbe5ac2a4	-0.21363312
220	0xbe1d6ec6	-0.15374288
221	0x3e3ed418	0.18635595
222	0xbdbb73c9	-0.09152944
223	0xbe23a412	-0.15980557
224	0xbe78a84b	-0.24282949
225	0xbe105429	-0.14094605
226	0xbd810fb3	-0.063018225
227	0x3e8bb1a4	0.27283967
228	0xbd8b73ee	-0.06809221
229	0x3db43f1b	0.08801099
230	0x3e4701c4	0.19434267
231	0x3e00e6a4	0.12587982
232	0xbe3e0144	-0.1855517
233	0x3e03e743	0.12881188
234	0x3e02b145	0.12762935
235	0x3ec9e7b4	0.39434588
236	0x3e93fb45	0.2890264
237	0xbe8311c8	-0.25599504
238	0xbd002085	-0.031281013
239	0x3dd09080	0.10183811
240	0xbbc1ea83	-0.0059178486
241	0xbe5e11de	-0.21686503
242	0x3e2ba32f	0.16761468
243	0xbe8300b8	-0.25586486
244	0xbe1b5021	-0.15167286
245	0x3dea741f	0.114479296
246	0x3d7e939d	0.062152494
247	0x3ed18fb9	0.40929964
248	0x3d684054	0.056701973
249	0xbd8e5d66	-0.06951408
250	0x3de55a4a	0.11198862
251	0x3e21f43c	0.15815824
252	0xbe7c637a	-0.24647322
253	0xbe78291d	-0.24234433
254	0xbed0f5de	-0.40812582
255	0xbef08ae0	-0.46980953

actor_mean.2.bias f4 [64]
0	0x3ce8b3fc	0.028406136
1	0xbcca9d98	-0.02473335
2	0xbd1dd0a0	-0.03852904
3	0xbc22ac57	-0.009928784
4	0xbc27d16f	-0.010242804
5	0x3ccca1d8	0.024979517
6	0x3c60c1aa	0.013718048
7	0x3c93d87d	0.018047566
8	0xbcc9dab4	-0.024640419
9	0xbc0497a4	-0.008092795
10	0xbc06a974	-0.008219112
11	0x3d211e77	0.039335694
12	0x3ce62993	0.028095996
13	0x3d35a3f9	0.04434583
14	0xbcffdc26	-0.031232905
15	0x3d6a02f1	0.05713171
16	0xbd0f6605	-0.035009403
17	0x3bb9957a	0.005663571
18	0x3c5b7d72	0.013396608
19	0x3bc657f4	0.0060529653
20	0xba3ee638	-0.000728223
21	0xbc766efe	-0.015041111
22	0x3c8b2816	0.016986888
23	0x3c57a0a6	0.01316086
24	0xbb2904de	-0.0025790255
25	0x3b9d38ab	0.004798015
26	0x3c6ad06c	0.014331918
27	0x3c3ee798	0.011651896
28	0x3c7b2f16	0.01533105
29	0xbca37f11	-0.01995805
30	0x3c4a6e82	0.012355449
31	0xbc8e0c9c	-0.017339997
32	0xbb95f800	-0.004576683
33	0xbd018fe7	-0.031631377
34	0xbc867909	-0.016415136
35	0x3c14d34d	0.009083581
36	0xbacaf960	-0.0015485696
37	0x3d843329	0.064550705
38	0x3d264eec	0.04060261
39	0xbd0abeae	-0.033873253
40	0xbd14b8d9	-0.036309097
41	0xbc8007c4	-0.015628703
42	0xbc8cc4e7	-0.017183734
43	0xbd153902	-0.03643132
44	0x3d110623	0.035406243
45	0x3bf27aae	0.0073998785
46	0xbc9b6cb5	-0.018972734
47	0xbc731e0e	-0.014838709
48	0xbc6b1c79	-0.01435005
49	0xbc18eec0	-0.009334266
50	0x3c3d6048	0.0115586
51	0x3d11cac7	0.035593774
52	0xbce49ef6	-0.02790783
53	0xba357c9f	-0.0006923172
54	0xbd20733d	-0.0391724
55	0xbb31f893	-0.0027156218
56	0xbcb8eac9	-0.022572892
57	0xbc922f87	-0.017844928
58	0xbae445ac	-0.0017415783
59	0xbc00fa07	-0.007872111
60	0x3cb71fde	0.022354063
61	0xbd02dceb	-0.031948965
62	0xbcd9946a	-0.026560027
63	0x3cd0eeb7	0.025504453

actor_mean.4.weight f4 [2, 64]
0	0xbe39955e	-0.18123385
1	0x3dbaad30	0.09115064
2	0xbd059787	-0.03261521
3	0xbe1088aa	-0.14114633
4	0xbd0261d1	-0.031831566
5	0xbdd00022	-0.10156275
6	0xbd963d81	-0.0733595
7	0xbc1ee4f1	-0.009698139
8	0xbdc909dc	-0.09816334
9	0x3c55bb6b	0.013045172
10	0xbdb19a97	-0.08672064
11	0xbd65c03b	-0.05609153
12	0xbe4d879f	-0.20071267
13	0xbc6acdf4	-0.01433133
14	0x3d89c188	0.06726366
15	0x3d143283	0.036180984
16	0xbb813987	-0.0039436254
17	0x3debdd13	0.11516776
18	0x3dcc0e90	0.09963715
19	0xbacafec5	-0.0015487304
20	0x3e0f5e6b	0.14000861
21	0x3d988542	0.07447292
22	0x3e1f1034	0.15533525
23	0xbcd0c6ae	-0.025485363
24	0x3d92552f	0.07145154
25	0xbdfd6930	-0.123735785
26	0xbd594b4e	-0.05305033
27	0xbce509ba	-0.02795874
28	0xbe23010c	-0.15918368
29	0x3dde82c3	0.108647846
30	0xbe105ff8	-0.14099109
31	0xbd90f9ef	-0.07078921
32	0xbcb47cc8	-0.022032157
33	0x3d37102a	0.04469315
34	0xbd87e667	-0.06635743
35	0x3d44b5d0	0.048024952
36	0x3de840d7	0.11340492
37	0x3befe1ca	0.0073206173
38	0x3abf0674	0.0014574067
39	0xbc3281df	-0.0108952215
40	0xbdd5d2f9	-0.104406305
41	0x3d6d6bc8	0.057964116
42	0xbd32a79f	-0.043616887
43	0xbe153e54	-0.14574558
44	0xbd75c5ec	-0.060003206
45	0xbe53fabd	-0.20701118
46	0x3e45621f	0.19275711
47	0xbdd205f7	-0.10255044
48	0xbdb2501f	-0.08706688
49	0xbdefe1ff	-0.11713027
50	0xbe3c8ca2	-0.18413022
51	0x3e402074	0.1876238
52	0xbd3a7604	-0.045522705
53	0x3dccdd08	0.10003096
54	0x3d65574e	0.055991463
55	0xbcefbb8f	-0.02926424
56	0x3d5b7a75	0.05358358
57	0xbe2f4069	-0.17114414
58	0xbd457bca	-0.048213758
59	0xbcbd43c2	-0.023103599
60	0x3d6e5e36	0.058195315
61	0xbde6be59	-0.11266775
62	0x3e00cbe0	0.12577772
63	0x3dbe306a	0.09286578
64	0x3cda24a0	0.026628792
65	0x3e586490	0.21132112
66	0x3e06fb56	0.13181815
67	0x3df100c5	0.11767725
68	0xbe848334	-0.2588135
69	0xbd8a4118	-0.06750697
70	0x3dd271de	0.10275625
71	0x3d0fc370	0.035098493
72	0x3e234b2d	0.15946646
73	0x3cd83514	0.026392497
74	0xbdd15c35	-0.10222665
75	0xbd389dd3	-0.045072388
76	0xbcec8341	-0.02887118
77	0xbe13adde	-0.14421794
78	0xbdcddbfb	-0.100517236
79	0xbcc9e46a	-0.02464505
80	0x3e0169b7	0.12637983
81	0x3dcad9ec	0.099048465
82	0xbdb63919	-0.08897609
83	0x3e7bc4b9	0.24586762
84	0x3ce85432	0.02836046
85	0x3e8dcdf0	0.2769618
86	0xbd806448	-0.06269127
87	0x3e05ce6a	0.13067022
88	0xbb2dfc8e	-0.002654824
89	0xbd71d864	-0.059044257
90	0x3df6001c	0.120117396
91	0x3e1949c6	0.14969549
92	0xbc9aadfd	-0.018881792
93	0x3e3d2071	0.18469407
94	0x3dfed0b5	0.124421515
95	0xbdaa03c0	-0.083014965
96	0xbc87459b	-0.016512683
97	0x3ce87f81	0.028381111
98	0x3e12e26a	0.14344183
99	0xbdaad78a	-0.08341892
100	0xbe2a44da	-0.16627827
101	0xbd8a9983	-0.06767561
102	0x3deed16c	0.11661038
103	0x3d3e09cf	0.046396073
104	0xbe39586e	-0.1810014
105	0x3e24bb38	0.16087043
106	0x3d9e5bb2	0.07732333
107	0xbd4338c6	-0.047661565
108	0x3daab7bd	0.083358265
109	0x3def24ab	0.11676916
110	0xbc96b63a	-0.01839744
111	0xbd97d675	-0.07413951
112	0xbe1582c1	-0.1460066
113	0x3ded901c	0.11599752
114	0xbd8100be	-0.0629897
115	0xbc29bef9	-0.010360473
116	0x3e0a8fc3	0.13531403
117	0x3dbca477	0.09211057
118	0xbd06c2e1	-0.032900695
119	0x3e315519	0.17317618
120	0xbdafe049	-0.08587701
121	0xbe2f452b	-0.17116229
122	0x3dfbfc1b	0.12303945
123	0xbe158a2e	-0.14603493
124	0x3d8347f9	0.06410212
125	0x3df54081	0.11975194
126	0xbd9a5c16	-0.07537095
127	0xbdeec844	-0.116592914

actor_mean.4.bias f4 [2]
0	0xbaf80d97	-0.0018924949
1	0x3c75dcc1	0.015006245

critic.0.weight f4 [64, 14]
0	0xbae86c59	-0.0017732485
1	0xbd4b3d6e	-0.04961913
2	0xbab98eb4	-0.0014156909
3	0xbe0ae7ef	-0.13565038
4	0xbd204f79	-0.03913829
5	0xbe2ab36e	-0.1667001
6	0x3f28ccd4	0.6593754
7	0xbe765cae	-0.24058792
8	0x3e1a6c4a	0.15080371
9	0x3e8b2388	0.27175546
10	0xbdd03c27	-0.10167723
11	0xb9f2e1c5	-0.00046326048
12	0x3c85d849	0.016338484
13	0xbe32bae8	-0.17454112
14	0xbe09c3bb	-0.13453571
15	0x3eb4a77d	0.35284033
16	0x3c2c61b2	0.010521339
17	0x3e27ebd6	0.16398558
18	0x3d3b4bdd	0.045726646
19	0x3e02f18e	0.12787458
20	0x3d6b57c6	0.057456754
21	0xbd238eb3	-0.03993101
22	0xbcb116e8	-0.021617368
23	0xbe18a6ca	-0.14907375
24	0xbd1454c8	-0.036213666
25	0x3d199d79	0.037503693
26	0xbe445ef8	-0.19176853
27	0x3d862c33	0.06551399
28	0xbe81ea70	-0.25374174
29	0xbe69bae9	-0.22825207
30	0xbe66c34d	-0.22535439
31	0xbd418d8c	-0.04725413
32	0x3ce67c6f	0.028135506
33	0xbe0a2677	-0.13491236
34	0x3e1ac892	0.15115574
35	0xbeb207e2	-0.3477164
36	0x3e54f59c	0.20796818
37	0x3d6da061	0.058014277
38	0x3d60f9cc	0.054925725
39	0xbc095eae	-0.00838439
40	0xbe023920	-0.12717104
41	0x3e8d1dd6	0.27561826
42	0x3de0c7ab	0.10975584
43	0xbeb1a2af	-0.3469443
44	0xbe0fb2d5	-0.14033063
45	0xbe15e72f	-0.14638971
46	0xbdb5065f	-0.08839106
47	0x3de7923c	0.11307189
48	0xbe4149f7	-0.18875872
49	0x3e75e6f8	0.24013889
50	0xbe3a1a2e	-0.1817405
51	0xbe49da3e	-0.19712159
52	0x3eafde0c	0.34349096
53	0xbcc93933	-0.024563408
54	0xbd4beb44	-0.049784914
55	0x3d2c0e57	0.042005863
56	0xbdbd439f	-0.09241413
57	0xbd9361a9	-0.071963616
58	0xbddb8c89	-0.10720164
59	0x3d4466fa	0.04794977
60	0xbe4ab215	-0.19794495
61	0xbdec61de	-0.11542104
62	0xbe15cef4	-0.14629728
63	0x3d19e00a	0.037567176
64	0x3dc6582b	0.096847855
65	0x3e6d34fb	0.23164742
66	0xbcc1359b	-0.023585131
67	0x3d052264	0.0325035
68	0x3eb5da64	0.3551818
69	0x3b81b2cc	0.003958082
70	0xbe89394b	-0.26801524
71	0xbeeb5834	-0.4596573
72	0xbbd31bed	-0.006442538
73	0xbd035b44	-0.03206946
74	0xbc946fbb	-0.018119683
75	0xbd76b926	-0.060235165
76	0x3f22ac31	0.63543993
77	0x3f4ae8dd	0.7926157
78	0x3f09cd5f	0.53828996
79	0x3f22e0a3	0.6362402
80	0xbbdd9f97	-0.0067634094
81	0xbcd22b10	-0.0256553
82	0x3e44819f	0.19190072
83	0xbd327ff0	-0.043579042
84	0xbe19addf	-0.15007733
85	0x3ee18322	0.4404536
86	0xbc546cc4	-0.012965385
87	0xbd54a5eb	-0.051916044
88	0x3d2b77f8	0.041862458
89	0xbd7e79cc	-0.062127873
90	0xbc05372c	-0.00813083
91	0xbe102839	-0.14077844
92	0xbdbc2946	-0.0918756
93	0x3da2c3e2	0.07947518
94	0x3bf9adb6	0.007619585
95	0x3d5e4e00	0.054273605
96	0xbdfe3f1e	-0.124143824
97	0x3ed32316	0.41237706
98	0x3e14dbd4	0.14536983
99	0x3d1feb61	0.039042834
100	0xbbc20902	-0.005921484
101	0x3dbe69dd	0.092975356
102	0xbad68b29	-0.0016368377
103	0x3d8fef22	0.07028033
104	0xbe1292dc	-0.14313835
105	0xbe1323c9	-0.1436912
106	0xbe88a401	-0.26687625
107	0x3ead80d9	0.33887365
108	0x3c0a2a37	0.008432916
109	0xbcde6b35	-0.02715073
110	0x3e8556c7	0.26042768
111	0x3e8ba1f7	0.27272007
112	0xbe10dd87	-0.14147006
113	0xbd8d7c0c	-0.06908426
114	0xbd7af866	-0.061272047
115	0xbc8f00df	-0.01745647
116	0xbe28f884	-0.16501051
117	0x3b53c358	0.003231248
118	0xbc62ce48	-0.013843127
119	0x3d4b9c46	0.04970958
120	0x3d9e21d5	0.07721297
121	0x3d4bc3df	0.049747344
122	0x3eed1b08	0.46309686
123	0x3e852413	0.26004085
124	0xbe3f09e1	-0.18656112
125	0xbe0b4f4c	-0.13604468
126	0x3df690c5	0.12039331
127	0x3e5aa666	0.21352538
128	0x3ec729a3	0.38898954
129	0xbcc2a325	-0.023759434
130	0x3dd97594	0.106181294
131	0x3dd551a8	0.10415965
132	0xbe412030	-0.18859935
133	0xbe03777d	-0.1283855
134	0x3cd3fb3a	0.02587663
135	0x3d85b8bd	0.06529377
136	0xbe5ea111	-0.2174113
137	0xbe43e781	-0.1913128
138	0x3dc2514a	0.09488161
139	0xbe35b0d1	-0.17743231
140	0xbe250c6e	-0.16118023
141	0xbde1aeea	-0.1101969
142	0xbe2fedae	-0.17180511
143	0xbd8009da	-0.06251879
144	0x3ef2794b	0.47358164
145	0xbd80df0e	-0.06292544
146	0xbe10e89f	-0.14151238
147	0x3dc6da69	0.09709627
148	0x3d1b0ed8	0.037855953
149	0x3e25250c	0.16127414
150	0x3a4b9019	0.00077653077
151	0xbd9b3b13	-0.07579627
152	0x3e5050a0	0.20343256
153	0xbde669a9	-0.11250622
154	0xbd4bfcd2	-0.049801655
155	0xbef27a17	-0.47358772
156	0xbc984841	-0.01858914
157	0x3d4117b4	0.047141746
158	0xbe67c84b	-0.22635
159	0x3d21d1a6	0.039506577
160	0x3f0830d0	0.5319948
161	0x3ee39b23	0.44454297
162	0x3efc3be5	0.49264446
163	0x3e016607	0.12636577
164	0x3d500e33	0.05079479
165	0xbd6082c7	-0.05481222
166	0x3e3a0d2c	0.18169087
167	0x3dd7b153	0.10531869
168	0x3da00f62	0.07815434
169	0xbe128a2e	-0.14310524
170	0x3d185ede	0.037199847
171	0x3e7bd35c	0.24592346
172	0x3e68c2b0	0.22730517
173	0xbea05806	-0.31317157
174	0x3e608989	0.21927465
175	0x3d97fe26	0.07421522
176	0xbd25a987	-0.040444877
177	0x3e5b1e46	0.21398267
178	0x3db44413	0.088020466
179	0xbd3e9d8a	-0.04653696
180	0xbeaf47f2	-0.34234577
181	0x3dd566f0	0.104200244
182	0x3e5af886	0.21383867
183	0x3dc090ad	0.09402595
184	0x3ec7db3e	0.39034456
185	0xbdb32fad	-0.08749328
186	0x3b30834a	0.0026933723
187	0xbda01b84	-0.07817748
188	0x3dfd94db	0.123819076
189	0xbe4bc3c8	-0.19898903
190	0x3e36cdeb	0.17851989
191	0xbe8f6dcf	-0.28013465
192	0x3e9c6e6d	0.30552998
193	0x3cc5263d	0.024066085
194	0x3e455e6c	0.192743
195	0x3dae5836	0.08512919
196	0xbcb9b30c	-0.022668384
197	0x3e669e1a	0.22521248
198	0xbe383903	-0.17990498
199	0x3d6a9b2e	0.057276897
200	0xbe092889	-0.13394369
201	0x3dc8b73d	0.09800575
202	0x3b580a4d	0.0032965124
203	0x3d84cd3c	0.06484458
204	0xbd9264ce	-0.07148133
205	0x3d94cf08	0.072660506
206	0xba8a0745	-0.0010530731
207	0xbd20577b	-0.039145928
208	0xbdb7e70a	-0.08979614
209	0x3e865439	0.26236132
210	0xbe08506d	-0.1331193
211	0x3ecafcc8	0.39645982
212	0xbc6808ad	-0.014162225
213	0x3c7aa7e7	0.01529882
214	0x3d9b055a	0.0756938
215	0x3dbe8028	0.093017876
216	0x3f7771ad	0.9665783
217	0xbe18cd21	-0.14922
218	0xbec3c13d	-0.38233367
219	0x3e2e29c6	0.17008123
220	0x3da899fb	0.082324944
221	0x3c2ce752	0.010553198
222	0x3ecf8821	0.40533546
223	0xbe180555	-0.14845784
224	0x3defce63	0.11709287
225	0xbd0b0c56	-0.03394731
226	0x3e84453c	0.25834072
227	0xbe3942ea	-0.18091932
228	0x3e996b6d	0.29964772
229	0x3e9be2ee	0.3044657
230	0x3d7910f2	0.060807176
231	0x3debf2ed	0.11520944
232	0xbd9e47c0	-0.07728529
233	0x3df072c3	0.11740639
234	0xbe42a1fe	-0.19007108
235	0x3e24f780	0.16110039
236	0xbdc44ef7	-0.09585374
237	0x3ebfaa87	0.3743479
238	0x3dfcdbb4	0.123465925
239	0x3d960117	0.073244266
240	0xbe724fd5	-0.23663266
241	0x3d9bb240	0.07602358
242	0x3da87515	0.082254566
243	0xbe7ca2f6	-0.2467154
244	0xbca5ea92	-0.020253453
245	0x3d8dcca4	0.06923798
246	0xbda16dc3	-0.078822635
247	0xbe28c6e7	-0.16482125
248	0xbea128ad	-0.31476346
249	0x3e8d94d5	0.27652612
250	0x3dc3179e	0.09525989
251	0xbd02bdc3	-0.031919252
252	0xbe2023af	-0.15638612
253	0xbdec59fe	-0.11540602
254	0x3a3ba025	0.0007157347
255	0xbd5c790a	-0.05382637

critic.0.bias f4 [64]
0	0x3d786282	0.06064082
1	0xbcfdb73a	-0.030971158
2	0xbb564f66	-0.0032701134
3	0xba9ee92d	-0.0012123935
4	0x3af9f3da	0.0019069866
5	0xbca5bfd1	-0.020233067
6	0x3dc11733	0.09428253
7	0x3df0d7c3	0.11759903
8	0x3d1a9046	0.037735246
9	0x38e560df	0.000109376146
10	0xbb5612df	-0.0032665057
11	0xbd536bbd	-0.05161642
12	0xbc50cbfe	-0.012743948
13	0xb58f2c51	-1.0667228e-06
14	0x39355321	0.00017292473
15	0xbc9ff8da	-0.019527841
16	0xb998086b	-0.0002899797
17	0xb92ee502	-0.00016679245
18	0x3d199d96	0.0375038
19	0x3d382875	0.044960458
20	0x3904282f	0.0001260347
21	0x3cfe0bbb	0.031011453
22	0x3c06a11d	0.008217123
23	0xbdc75d94	-0.097346455
24	0x3c6f029b	0.014588024
25	0x3d403c73	0.04693265
26	0xbbd1ead1	-0.006406166
27	0x39fcc99d	0.000482154
28	0xb9edba8a	-0.00045343145
29	0x3bbf89ce	0.005845285
30	0x3dcf2fd0	0.101165414
31	0x3c210669	0.009828188
32	0x3e189306	0.14899835
33	0x3bbe18fb	0.0058013177
34	0x3b0fd852	0.0021949005
35	0xbc651147	-0.01398117
36	0xbd8d8245	-0.069096126
37	0x3ba1771d	0.0049275295
38	0xb9f05154	-0.0004583696
39	0x395501d3	0.00020313943
40	0x3c8398ed	0.016064132
41	0x3d23d3ae	0.039996795
42	0xb75da061	-1.3209968e-05
43	0x3d1ec5b1	0.038762752
44	0xbc9198b4	-0.01777301
45	0xbc521081	-0.012821318
46	0xbd5f3233	-0.054491233
47	0xbbd8bf8b	-0.0066146306
48	0xb870d1ae	-5.741574e-05
49	0x371cac46	9.338435e-06
50	0x3b1060a0	0.002203025
51	0x3ba6362f	0.005072377
52	0xbb92ff81	-0.004486025
53	0x3c009037	0.0078468835
54	0xbabe14a3	-0.0014502
55	0x3afdb17f	0.0019355266
56	0x3d6abb05	0.057307262
57	0xb557f580	-8.045099e-07
58	0xbbe982dc	-0.0071261954
59	0xbcf56b58	-0.029958412
60	0x34595be9	2.0243137e-07
61	0xb9b00072	-0.00033569668
62	0xb7856aaf	-1.5904514e-05
63	0x39496655	0.00019206975

critic.2.weight f4 [64, 64]
0	0xbe4df4d6	-0.20112929
1	0x3d840108	0.06445509
2	0x3ec38c65	0.3819305
3	0xbe851062	-0.25989062
4	0x3cf986d9	0.030459808
5	0xbe4ff3af	-0.20307802
6	0x3e61fe1c	0.22069591
7	0xbe628686	-0.22121629
8	0xbb880150	-0.004150547
9	0xbeb829e5	-0.35969463
10	0x3e11e5fa	0.14247885
11	0xbe62a16e	-0.22131893
12	0x3e51e36f	0.20496915
13	0x3d6548da	0.05597768
14	0x3a9da8d6	0.0012028466
15	0xbd8798ff	-0.066209786
16	0x3d1352cb	0.03596763
17	0xbe015aad	-0.12632246
18	0xbde3a6a0	-0.111157656
19	0x3eb1697d	0.34650794
20	0xbdd1eedd	-0.10250638
21	0xbd3355a8	-0.04378286
22	0xbddc9829	-0.1077121
23	0xbc7972b5	-0.015225102
24	0x3e82ba74	0.25532877
25	0xbe8735af	-0.26408145
26	0x3d01b950	0.03167087
27	0xbd899952	-0.06718697
28	0xbe36bdac	-0.17845792
29	0x3e4c63d5	0.19959958
30	0xbde5c6c6	-0.11219554
31	0x3e7018fd	0.23447032
32	0x3e417150	0.18890882
33	0xbeaf6e4b	-0.34263834
34	0x3e8f3911	0.27973226
35	0xbe7975d7	-0.24361359
36	0xbdb506b8	-0.08839172
37	0x3d911b78	0.070853174
38	0x3dafb2e8	0.085790455
39	0x3d63e6bd	0.05563997
40	0x3d22e573	0.0397696
41	0xbc76ac2e	-0.015055699
42	0x3cac2be8	0.02101703
43	0xbddd2184	-0.10797408
44	0x3df0bda3	0.1175492
45	0xbd91fb76	-0.071280405
46	0xbd462aef	-0.04838079
47	0x3e9a4a1f	0.30134675
48	0xbe7ecf5f	-0.24883793
49	0xbd2ae8a1	-0.04172576
50	0xbd6ac663	-0.057318103
51	0xbb969635	-0.004595543
52	0xbe34093a	-0.17581645
53	0x3e9125c2	0.2834912
54	0x3df16031	0.11785925
55	0x3cbe2434	0.023210622
56	0xbe4195d7	-0.18904816
57	0xbedc9c66	-0.43088073
58	0xbe0c0951	-0.13675429
59	0x3dc585ac	0.096446365
60	0x3e223caa	0.15843454
61	0x3e2e041b	0.16993754
62	0xbda7b66d	-0.08189092
63	0x3e10e853	0.14151125
64	0xbea84865	-0.32867733
65	0x3eacc772	0.33745915
66	0xbd8ab4c0	-0.067727566
67	0x3dea264d	0.114330865
68	0x3e48feeb	0.19628493
69	0x3ed7183f	0.42010686
70	0x3e269ba2	0.16270307
71	0xbe350aa4	-0.1767984
72	0xbcc77631	-0.02434835
73	0x3d23b658	0.03996882
74	0x3e589446	0.21150312
75	0xbdb4b091	-0.0882274
76	0xbe424abc	-0.18973821
77	0x3d75ce45	0.060011167
78	0xbe2fd163	-0.17169718
79	0xbe4dd510	-0.20100808
80	0xbe10dc59	-0.14146556
81	0x3c678230	0.01413016
82	0xbe02e2ac	-0.12781781
83	0xbe1008e5	-0.14065893
84	0xbdebf2cf	-0.115209214
85	0x3e7d1ac3	0.2471724
86	0xbdc1da8a	-0.09465511
87	0x3e30e8e5	0.17276342
88	0xbe0a2535	-0.13490756
89	0xbe4d5945	-0.20053585
90	0xbe0b42f5	-0.13599761
91	0xbd2c78f8	-0.042107552
92	0xbd1fc6e0	-0.03900802
93	0x3e6f619e	0.23377082
94	0xbd3440e4	-0.044007197
95	0x3d7f4be6	0.06232824
96	0x3d7525af	0.05985039
97	0x3cad6013	0.021163976
98	0xbe827a20	-0.254838
99	0x3dba8595	0.0910751
100	0xbe9b9e96	-0.3039443
101	0x3e42d077	0.19024836
102	0xbe40eaa5	-0.1883951
103	0x3ea317dc	0.3185414
104	0x3e563efc	0.20922464
105	0xbd5212a7	-0.05128732
106	0xbe7cf3d1	-0.24702384
107	0xbe2c04b7	-0.16798674
108	0x3e35e87c	0.17764467
109	0xbdf00f4e	-0.11721669
110	0x3e25d4bf	0.16194437
111	0xbe29bca5	-0.16575868
112	0xbdbc55b3	-0.09196033
113	0x3d118622	0.03552831
114	0x3d9d5787	0.0768271
115	0xbcc4fe78	-0.024047121
116	0xbda72a4c	-0.08162364
117	0x3cafe80a	0.02147295
118	0x3e17e6e0	0.14834166
119	0xbdecb284	-0.11557487
120	0x3d3a53af	0.045489963
121	0x3e96236a	0.29323894
122	0xbea957e3	-0.33074865
123	0x3ea0faca	0.31441337
124	0xbe1cffa0	-0.15331888
125	0xbe8fa682	-0.28056723
126	0xbdd2aade	-0.102864966
127	0x3d1b18e5	0.03786554
128	0x3d1facf4	0.0389833
129	0x3d1c538f	0.038165625
130	0x3e70cb45	0.23515041
131	0x3e1567b0	0.14590335
132	0xbe6874bd	-0.22700782
133	0x3d385c69	0.045010004
134	0x3d343ce6	0.04400339
135	0x3e9e5765	0.30926052
136	0x3e46a323	0.19398169
137	0x3e6264e3	0.22108798
138	0xbe8e4c27	-0.27792475
139	0xbd8ec6d1	-0.06971515
140	0x3c1c44e2	0.009537907
141	0xbe7838d9	-0.24240436
142	0x3e5db015	0.21649201
143	0x3d2d5a93	0.042322706
144	0x3ddb85f8	0.10718912
145	0xbc2b60c4	-0.010460082
146	0x3e39ef61	0.18157722
147	0xbde0ffa9	-0.10986263
148	0xbe0fc722	-0.14040807
149	0x3e2bcc31	0.16777112
150	0xbca5d21b	-0.020241788
151	0xbd67ecb0	-0.056622207
152	0x3e535a6d	0.20639963
153	0x3cbd4cbf	0.023107884
154	0xbda8aaa7	-0.08235674
155	0x3eb95458	0.36197162
156	0x3dece361	0.115668066
157	0xbccb775f	-0.024837194
158	0x3e87d316	0.26528233
159	0x3e4ae9d4	0.19815761
160	0x3e4aff73	0.19824009
161	0x3dff0cdf	0.12453627
162	0x3e34970e	0.17635748
163	0xbe09570a	-0.13412109
164	0x3d0cf4b8	0.03441307
165	0x3e40ac1c	0.18815655
166	0x3dc5431b	0.0963194
167	0x3e146971	0.14493348
168	0xbe3bf53a	-0.18355265
169	0xbc8637c5	-0.016384015
170	0xbe0accbb	-0.13554661
171	0x3d25c999	0.04047546
172	0x3e74ac96	0.23893961
173	0x3e62aa37	0.22135244
174	0xbe98c9f4	-0.29841578
175	0x3d762e34	0.060102656
176	0x3daf88a0	0.08570981
177	0xbe25a3b1	-0.16175725
178	0x3dbbe8d7	0.0917527
179	0x3df17811	0.11790479
180	0xbcd22792	-0.025653634
181	0x3e9418be	0.28925127
182	0x3eb9f67d	0.36320868
183	0xbe883a59	-0.26607016
184	0x3e4d4b66	0.20048293
185	0xbe203216	-0.15644106
186	0xbd0ac023	-0.033874642
187	0x3e9ca6f3	0.30596122
188	0xbdc0dcd3	-0.09417119
189	0xbe3f66b3	-0.1869152
190	0x3d649311	0.055804316
191	0xbea24d9d	-0.3169984
192	0x3be1fded	0.0068967254
193	0xbc2296d4	-0.009923656
194	0xbdb1b58e	-0.08677207
195	0xbe19611e	-0.14978454
196	0x3df57050	0.119843125
197	0xbec49079	-0.38391474
198	0x3db9e22b	0.09076341
199	0x3c654ee4	0.01399586
200	0xbc35f3e5	-0.011105512
201	0xbeb5869e	-0.35454267
202	0xbed22db6	-0.410505
203	0xbf0032db	-0.500776
204	0xbcb1bfdf	-0.021697937
205	0x3b04fef5	0.0020293568
206	0x3e828f50	0.25499964
207	0xbd3cf50a	-0.046132125
208	0x3eda3dd8	0.42625308
209	0xbd9e845f	-0.077400915
210	0x3d95c1a8	0.073123276
211	0xbe5b0abd	-0.21390815
212	0xbe046fe7	-0.12933312
213	0xbdc29a34	-0.09502068
214	0x3c16b0fe	0.009197472
215	0x3e3b5471	0.1829393
216	0x3d89e339	0.067327924
217	0xbe846a89	-0.2586253
218	0xbc9f5609	-0.019450204
219	0xbc888f58	-0.016669914
220	0x3e56b60f	0.20967887
221	0x3eb242ed	0.34816685
222	0x3e2a0b1d	0.16605802
223	0x3b6b589d	0.0035910972
224	0xbc6f3fe1	-0.014602632
225	0x3ddda3de	0.10822271
226	0xbea15cce	-0.31516117
227	0xbe6ef741	-0.23336507
228	0xbe1ef27e	-0.15522191
229	0x3d0cda6d	0.034387995
230	0x3be225ef	0.0069014947
231	0xbdc4792c	-0.09593424
232	0xbe76e251	-0.2410977
233	0xbb328b3d	-0.0027243637
234	0x3d4d1993	0.050073218
235	0x3d504f74	0.050857022
236	0xbcea7a25	-0.028622696
237	0x3e7d1052	0.24713257
238	0x3e970759	0.29497793
239	0xbdc57c59	-0.09642858
240	0xbd59883f	-0.05310845
241	0xbda81313	-0.08206763
242	0xbd31bf99	-0.043395612
243	0x3e228dc4	0.15874392
244	0x3eb49a0e	0.35273784
245	0xbe9d4a91	-0.30720952
246	0x3d880733	0.06641998
247	0xbe6c0865	-0.23050077
248	0xbe459390	-0.19294572
249	0xbcd947ab	-0.026523432
250	0xbe01d716	-0.12679705
251	0x3c58b459	0.013226592
252	0xbe299735	-0.16561587
253	0xba4c2bdd	-0.00077885186
254	0xbd4ea268	-0.05044785
255	0x3e6d0c60	0.23149252

critic.2.bias f4 [64]
0	0x3c509c2c	0.012732547
1	0x3aac0634	0.0013124407
2	0xbbfd675b	-0.007733268
3	0xbd102c8b	-0.03519873
4	0xbc2941bf	-0.0103306165
5	0x3c2074bb	0.009793456
6	0xbc52adad	-0.01285879
7	0xbc0dfefd	-0.008666751
8	0x3c01adda	0.007914985
9	0x3ce83f80	0.028350592
10	0x3cb9af6c	0.022666655
11	0x3b590530	0.0033114664
12	0x3c4f3bef	0.012648567
13	0xbcbbf734	-0.022945024
14	0x3ca9cf45	0.020728717
15	0x3c1950ff	0.00935769
16	0xbb12b3b6	-0.0022384948
17	0x3c3f0098	0.011657856
18	0x3b17075c	0.0023045158
19	0xbc98e5ec	-0.018664323
20	0x3b90f1a4	0.004423337
21	0xbcd6afec	-0.026206933
22	0xbca7f24d	-0.02050128
23	0xbc077065	-0.008266543
24	0x3c974076	0.018463355
25	0x3d2b8b35	0.041880805
26	0x3c0de4fe	0.008660553
27	0x3b58ef88	0.0033101756
28	0x3bb7549e	0.005594804
29	0x3c043a1a	0.008070493
30	0x3cc06865	0.02348728
31	0xbd0d9d19	-0.034573648
32	0xbb39b987	-0.0028339343
33	0xbc666a2e	-0.014063401
34	0xbc3f8b01	-0.011690856
35	0xbca5d341	-0.020242335
36	0xbcf4b7af	-0.029872743
37	0x3b084417	0.0020792538
38	0x3cc6cbb1	0.02426705
39	0xbb936a7a	-0.004498777
40	0xbc9d6b84	-0.019216307
41	0xbc119c3a	-0.008887345
42	0xbc152721	-0.009103567
43	0xbc256ec3	-0.010097208
44	0x3c346536	0.011010459
45	0x3c10fe7f	0.008849739
46	0xbc845bb1	-0.016157003
47	0xbbf7db64	-0.007563995
48	0xbc85d9af	-0.016339151
49	0xbca30868	-0.01990147
50	0xba6330f9	-0.000866666
51	0xbc916e1c	-0.0177527
52	0xbcea4c0a	-0.028600711
53	0xbb0f61d7	-0.0021878385
54	0x3cd0bab7	0.025479658
55	0xbcefca91	-0.029271396
56	0xb9f0ef94	-0.00045954867
57	0x3c051d6d	0.008124691
58	0x3c2be730	0.010492131
59	0xbc2865c7	-0.010278172
60	0xbbce0538	-0.006287243
61	0xbc13d176	-0.009022107
62	0xbbb87d2a	-0.005630155
63	0x3c8e3c96	0.017362874

critic.4.weight f4 [1, 64]
0	0x3d01c471	0.03168148
1	0xbe053c01	-0.13011171
2	0x3defd024	0.117096215
3	0x3e2f0e4b	0.17095296
4	0x3d9985d1	0.074962266
5	0x3dab8ebf	0.08376836
6	0x3e39fe2e	0.18163368
7	0x3d144c95	0.036205847
8	0xbdc0e153	-0.09417977
9	0xbdfb84fd	-0.12281225
10	0xbe023cbb	-0.1271848
11	0x3d86513d	0.06558464
12	0xbd1f07df	-0.038825866
13	0x3e32b99b	0.17453615
14	0xbd7a95f3	-0.06117816
15	0x3dd5dc0a	0.1044236
16	0x3cb278b6	0.021786075
17	0xbceb5218	-0.028725669
18	0x3eb097c7	0.34490797
19	0x3e41c4d2	0.18922737
20	0x3dc0546f	0.093911044
21	0x3e1af079	0.15130796
22	0x3d92bb93	0.07164683
23	0xbe96767c	-0.2938727
24	0xbdd40f9c	-0.1035454
25	0xbe1552d6	-0.1458238
26	0xbd02200a	-0.031768836
27	0x3d5ae85e	0.05344426
28	0xbdafe88e	-0.08589278
29	0xbdc5d2c4	-0.09659341
30	0xbe89bf22	-0.26903635
31	0x3dc8b8ba	0.09800859
32	0x3e4eadd2	0.20183495
33	0x3e6463ad	0.22303648
34	0x3d8005d5	0.06251112
35	0x3db8ed44	0.0902963
36	0x3c3774f6	0.011197319
37	0x3cad3d15	0.02114729
38	0xbe122e42	-0.14275458
39	0xbe400a6e	-0.18753979
40	0xbec5c003	-0.38623056
41	0xbd974e6a	-0.07388003
42	0x3e14eed4	0.1454423
43	0x3ca97efa	0.02069043
44	0x3c828536	0.01593266
45	0x3e0c1d39	0.13683023
46	0x3e930e9e	0.2872209
47	0xbe61312a	-0.21991411
48	0x3e1d408a	0.15356651
49	0xbd8436f9	-0.06455798
50	0x3dc6740b	0.09690102
51	0x3e5dfad6	0.21677718
52	0x3dac70a3	0.08419921
53	0x3c76f2f0	0.015072569
54	0xbe0f2ac9	-0.13981165
55	0xbdecbefc	-0.11559865
56	0xbd37e3c2	-0.04489494
57	0xbcebb90b	-0.028774759
58	0xbe137593	-0.1440032
59	0xbe2d9629	-0.16951813
60	0xbb5ba185	-0.0033513021
61	0xbe7ab654	-0.24483615
62	0x3deac777	0.11463826
63	0x3dcb35da	0.09922381
