fw_flightcontrol/models/icinco/ppo/turbonly/ppo_bohn_caps_nohist_easymedrefs_turbonly_4508_04-06_22:42:32.pt (torch, 47144 bytes, 12 tensors)

actor_logstd f4 [1, 2]
0.05638474 -0.01298352
00000000: aff3 663d d4b8 54bc

actor_mean.0.weight f4 [64, 14]
-0.11440921 0.063862614 -0.2841093 0.074730605 -0.16798995 -0.21792182 -0.10439786 0.16401786
0.048434895 0.10237571 -0.03791672 -0.29445338 -0.26186213 -0.25879377 -0.053517003 0.07495618
0.15711148 -0.054980416 -0.093656056 -0.2482696 -0.44927257 -0.013513546 -0.073140405 0.15067719
-0.1725087 0.1485416 0.113943286 0.07819432 -0.0027025684 0.11063259 0.20107798 -0.15518801
0.101254284 0.15971223 0.09497346 0.22899123 -0.003905566 0.056720614 -0.22070658 -0.26163045
0.22090228 0.2983754 -0.04453908 0.009292557 -0.09083979 -0.136582 -0.15265968 -0.25777516
-0.24956329 0.31354854 0.09788396 -0.095639355 -0.0008653379 0.20420694 0.0784222 -0.10581147
0.056388523 0.047082864 -0.2229541 -0.0049239676 0.24074456 0.34657636 -0.15961371 -0.009631252
-0.13304491 -0.056671277 -0.5069367 -0.09945721 0.07399212 0.063626304 -0.1628087 0.20391916
-0.5317693 0.22829512 0.35977963 -0.030791575 0.17509489 -0.059143946 -0.016065272 0.2646722
-0.088719465 -0.2185346 0.081816785 0.10564805 0.04130203 0.021773664 0.17348184 -0.25723633
0.13265222 0.085411415 -0.051311858 -0.13921489 -0.39029017 0.118879355 -0.1505924 -0.23853454
0.22076748 -0.22046342 0.16398253 -0.09592716 -0.2010049 -0.033030793 -0.12280024 0.21061455
0.23617978 -0.037389588 0.035316978 -0.054842804 0.032095432 0.16596167 -0.1296773 0.23893593
0.11249274 0.08630822 -0.2264069 -0.051441982 0.07453886 -0.14339444 0.12682813 -0.05668102
0.19514218 0.06353671 -0.10761342 -0.21989262 -0.27936453 -0.107266515 -0.10188899 0.431383
0.0050764265 -0.1493775 -0.19995959 -0.15800337 -0.16971882 -0.811087 0.08041353 -0.025464239
-0.023473969 -0.31925252 0.12001487 0.017870026 -0.16794631 0.022916151 0.13250084 -0.23940928
-0.009503605 0.0042158104 -0.015824286 0.14770389 0.29513445 0.44944957 -0.051791996 0.110682935
0.14180468 0.14124095 0.13902977 -0.24391146 -0.25713417 0.014598153 0.20667487 -0.07995144
-0.13689812 0.14745237 0.024774106 0.10168392 0.29673183 0.10995897 -0.10506281 0.022686128
-0.1783411 -0.086948864 0.14783439 0.14162165 0.113282375 0.16588262 0.008605603 -0.24750869
-0.032752156 -0.15783092 0.32076228 -0.15702084 0.07515742 0.21015719 0.00710637 0.25176254
0.0013529161 0.18897663 0.20138277 -0.33023134 0.08701886 -0.41464248 0.21184616 -0.05493781
-0.03076477 -0.19820082 0.36043215 -0.09516878 -0.10029338 0.16457005 -0.00047880624 0.104496196
-0.1544526 -0.093736894 0.48736185 0.1695788 -0.1391754 0.30430093 0.23097911 0.1846269
0.22838163 0.17454031 0.10432919 0.10677586 -0.00032285502 0.1570791 -0.09135445 -0.2154592
-0.28786147 0.019732563 -0.3709339 -0.06443989 0.26443124 -0.22310825 -0.1259698 0.452533
-0.018647159 -0.4472941 -0.057329237 0.103237964 0.030408692 -0.047503877 -0.036138173 -0.112218864
0.20106143 -0.06432535 -0.12545349 -0.21518323 0.007817657 0.12082831 0.18125579 -0.17778765
0.3062948 0.23970316 -0.19351831 0.045441665 -0.11187316 0.0902797 0.09844556 -0.0027315882
-0.06886225 0.076074585 0.16610639 0.06296395 -0.14152469 -0.44740784 -0.0031596795 -0.13073236
00000000: 604f eabd 67ca 823d c676 91be 5c0c 993d
00000010: 8f05 2cbe e626 5fbe 8cce d5bd 4cf4 273e
00000020: ab63 463d 5baa d13d 904e 1bbd 98c2 96be
00000030: cb12 86be 9e80 84be a534 5bbd a082 993d
00000040: d5e1 203e 2533 61bd bfce bfbd 633a 7ebe
00000050: 0e07 e6be ec67 5dbc a3ca 95bd 1f4b 1a3e
00000060: 1fa6 30be 4a1b 183e 195b e93d 5824 a03d
00000070: 931d 31bb 5793 e23d 63e7 4d3e 9be9 1ebe
00000080: 685e cf3d 9a8b 233e 7281 c23d ad7c 6a3e
00000090: 86f4 7fbb e053 683d e800 62be 6df4 85be
000000a0: 3534 623e a9c4 983e 9c6e 36bd cf3f 183c
000000b0: 360a babd 27dc 0bbe d252 1cbe 1bfb 83be
000000c0: 858d 7fbe 6f89 a03e 6377 c83d 91de c3bd
000000d0: d8d7 62ba a01b 513e d29b a03d afb3 d8bd
000000e0: a7f7 663d f6d9 403d 144e 64be 3c59 a1bb
000000f0: be85 763e 7572 b13e c771 23be 66cc 1dbc
00000100: ed3c 08be 2420 68bd 9bc6 01bf 39b0 cbbd
00000110: 2e89 973d 824e 823d 53b7 26be 2fd0 503e
00000120: 0822 08bf 32c6 693e 0935 b83e 9d3e fcbc
00000130: 134c 333e ec40 72bd 519b 83bc 1d83 873e
00000140: 8db2 b5bd 89c7 5fbe 8f8f a73d 015e d83d
00000150: 512c 293d af5e b23c 39a5 313e 7bb4 83be
00000160: fcd5 073e 2eec ae3d 622c 52bd 598e 0ebe
00000170: 1dd4 c7be 0577 f33d e534 1abe 6642 74be
00000180: df10 623e 2ac1 61be 09eb 273e 7575 c4bd
00000190: 3ad4 4dbe 4c4b 07bd b17e fbbd 57ab 573e
000001a0: 1dd9 713e d325 19bd 89a8 103d d9a2 60bd
000001b0: 8076 033d dbf1 293e 20ca 04be 9fab 743e
000001c0: 9862 e63d 5dc2 b03d 36d7 67be d4b4 52bd
000001d0: d4a7 983d fed5 12be 3cdf 013e 5b2a 68bd
000001e0: 5ad3 473e 891f 823d 6d64 dcbd 882b 61be
000001f0: de08 8fbe 8cae dbbd 2dab d0bd 3cde dc3e
00000200: 2758 a63b 6af6 18be 35c2 4cbe a3cb 21be
00000210: c5ca 2dbe 66a3 4fbf d9af a43d 619a d0bc
00000220: 7b4c c0bc 1175 a3be 5bca f53d 2964 923c
00000230: 1efa 2bbe a7ba bb3c 4dae 073e b527 75be
00000240: 02b5 1bbc c824 8a3b efa1 81bc b03f 173e
00000250: dd1b 973e 411e e63e d823 54bd bcad e23d
00000260: 3f35 113e 78a1 103e d25d 0e3e edc3 79be
00000270: 17a7 83be 172d 6f3c 94a2 533e 95bd a3bd
00000280: 052f 0cbe c1fd 163e 11f3 ca3c a93f d03d
00000290: 3ced 973e 2b32 e13d 2c2b d7bd 42d8 b93c
000002a0: 0d9f 36be 3f12 b2bd e661 173e 4405 113e
000002b0: 9700 e83d 22dd 293e 84fe 0c3c eb72 7dbe
000002c0: 2027 06bd 6e9e 21be f43a a43e 12ca 20be
000002d0: 22ec 993d 7233 573e 8ddc e83b 05e7 803e
000002e0: 5554 b13a 1783 413e 4937 4e3e 1514 a9be
000002f0: f236 b23d 054c d4be 33ee 583e 7806 61bd
00000300: 6606 fcbc 28f5 4abe 908a b83e d9e7 c2bd
00000310: 9e66 cdbd 0d85 283e 4908 fbb9 1a02 d63d
00000320: d328 1ebe 21f9 bfbd 7e87 f93e 11a6 2d3e
00000330: ff83 0ebe 55cd 9b3e ca85 6c3e d60e 3d3e
00000340: e0dc 693e b2ba 323e 8baa d53d 4dad da3d
00000350: de44 a9b9 58d9 203e 0b18 bbbd 56a1 5cbe
00000360: 9462 93be 2fa6 a13c 0ceb bdbe 10f9 83bd
00000370: 8863 873e 7d76 64be 3afe 00be 68b2 e73e
00000380: edc1 98bc bb03 e5be 10d2 6abd 6d6e d33d
00000390: a61b f93c 6d93 42bd 9f05 14bd 01d3 e5bd
000003a0: 0ce3 4d3e 02bd 83bd e176 00be fe58 5cbe
000003b0: a115 003c d574 f73d 1e9b 393e f70d 36be
000003c0: acd2 9c3e bf74 753e aa29 46be 0a21 3a3d
000003d0: c11d e5bd 90e4 b83d d39d c93d 7204 33bb
000003e0: a707 8dbd fecc 9b3d cb17 2a3e 3ef3 803d
000003f0: d9eb 10be a412 e5be a012 4fbb b4de 05be

actor_mean.0.bias f4 [64]
-8.787309e-06 -0.00093490334 -0.0011470744 -0.007510786 1.2855608e-05 7.442965e-08 0.0009815653 -0.00033887685
0.00023477526 -0.06413425 -0.0019014156 -0.00023293338 0.00095631636 -0.072113 -0.032800347 0.01204765
-0.013560292 -1.1615511e-05 0.024928475 -0.05902582 -0.00030843797 -0.0027069259 -0.029735897 0.00825074
0.02372659 2.3904246e-05 -0.001694206 -0.02497224 1.4113751e-06 -0.023249319 0.015700122 7.020055e-06
2.839633e-05 -0.06550237 -0.0046779946 0.021402203 0.0026960985 0.008556938 -0.0050231237 -6.097728e-06
-0.0015401341 0.0011242125 0.010227464 -0.0009738931 0.03747927 0.0018777227 0.011788788 0.0020577551
-0.0068924995 0.02642245 -0.026661614 0.007314547 0.01688238 -0.0006944082 0.007230682 1.1635952e-06
-0.01816616 0.007591441 0.002822042 0.0002822651 0.022175355 0.0007648126 0.009357911 6.3233536e-05
00000000: 346d 13b7 4d14 75ba 6e59 96ba 0a1d f6bb
00000010: 6aae 5737 22d6 9f33 dea7 803a 48ab b1b9
00000020: 012e 7639 d158 83bd ec38 f9ba 943f 74b9
00000030: 4eb1 7a3a fbaf 93bd a859 06bd 8263 453c
00000040: fd2b 5ebc 3de0 42b7 cd36 cc3c 0fc5 71bd
00000050: d8b5 a1b9 ae66 31bb b298 f3bc 1d2e 073c
00000060: 445e c23c fa85 c837 1f10 deba 9592 ccbc
00000070: 7b6e bd35 5b75 bebc 8b9d 803c d08d eb36
00000080: a834 ee37 1b26 86bd dd49 99bb ac53 af3c
00000090: 07b1 303b 6632 0c3c 0499 a4bb 169b ccb6
000000a0: 53de c9ba 505a 933a 1891 273c dc4c 7fba
000000b0: dd83 193d eb1d f63a c325 413c 67db 063b
000000c0: 7ada e1bb e573 d83c 7569 dabc deae ef3b
000000d0: eb4c 8a3c f208 36ba 5bef ec3b d42c 9c35
000000e0: 33d1 94bc 9fc1 f83b 02f2 383b fbfc 9339
000000f0: 17a9 b53c b47d 483a ec51 193c 3f9c 8438

actor_mean.2.weight f4 [64, 64]
0.23462248 0.021942608 0.22672836 -0.02650263 -0.24742328 0.009732199 -0.040891323 0.10719224
0.4100069 -0.12534611 0.23764823 -0.035952516 -0.10370359 -0.026833905 -0.036385927 0.3334835
-0.37626755 -0.110761024 0.20236427 -0.33267412 -0.031703576 -0.098413765 0.17687252 -0.06216429
0.44123453 0.017540699 0.26162964 -0.029238177 -0.019596888 -0.085806414 -0.0024641475 -0.26150814
0.22867875 -0.08060161 0.03264086 -0.109064415 -0.07388456 0.1602501 -0.03916625 -0.059329156
-0.124393776 -0.12257308 0.25170037 -0.26102743 0.09120138 -0.2126868 -0.04475245 -0.11227005
-0.20687331 -0.10225704 -0.28874427 -0.065945245 0.36965638 -0.28525394 0.090533696 0.12300356
0.014665624 -0.043376476 0.45850977 -0.06862987 0.220795 0.092489466 -0.26292625 -0.014243124
0.19314216 0.121013895 0.37290668 0.04953019 0.3343679 0.15455733 0.16353457 -0.19705713
0.022625234 -0.09647987 0.14153469 -0.14399938 0.08307009 0.25716767 0.05520606 -0.045920137
-0.1625267 -0.05757092 0.22633259 -0.04167376 0.05507457 0.0351378 0.056310117 -0.12727503
-0.30371457 0.22299796 -0.052220136 -0.2467344 0.25199172 -0.020307302 -0.10573862 -0.46452639
-0.005424534 0.32228884 -0.30682343 -0.20551734 -0.08693919 -0.2283792 -0.10677025 -0.13530132
0.2341876 0.0180234 0.092418075 -0.17134991 0.20117049 0.10244945 -0.10077037 -0.37717417
0.087955706 0.0058699655 0.30402565 0.048681926 -0.53455293 0.26478994 0.17977408 -0.017596807
-0.14823201 -0.08766729 -0.284453 0.049469512 -0.18808608 0.029936325 0.13547209 -0.1349614
-0.054975905 -0.4028627 0.073606044 0.19337016 0.2864566 -0.10222623 0.07401957 0.24960484
0.019766157 -0.19059473 0.16758752 -0.10940061 -0.037940573 -0.054626234 0.3373234 0.039411295
-0.068628035 0.26459214 0.2228209 -0.11663588 -0.08344936 -0.24958573 -0.26390693 -0.15185922
0.2818329 0.313221 0.16188294 0.07743418 0.1572911 0.40155402 0.2099793 -0.31815466
-0.12377542 -0.26323193 0.20633425 0.042426657 -0.019087333 0.0539705 0.089719 0.219376
0.027179485 0.28732052 -0.0050268117 0.36574608 0.27954832 -0.0024648693 -0.119148836 -0.018692203
-0.25086758 0.032841764 0.31539822 0.21657622 -0.044146832 0.051907696 -0.2027159 0.004238596
0.121267006 -0.28080997 0.06943024 -0.06372148 -0.16703902 -0.036474463 0.34520525 0.14761098
-0.19125438 -0.10094306 0.07678276 0.1754682 0.16292134 0.024534509 0.06556892 0.18527491
-0.08251281 -0.349729 -0.027430218 0.012221734 -0.17871381 0.100923255 -0.18252498 0.015300871
-0.29677787 -0.13846193 0.18824363 0.034113105 0.14581548 0.33131185 -0.19443594 0.21155512
-0.36684698 -0.008190261 -0.10753303 0.115417056 -0.18860418 -0.295614 -0.078811176 -0.17424347
-0.21715643 -0.28857234 -0.17002597 0.08268845 -0.039264817 0.17182033 -0.45252377 -0.06746395
-0.41865858 0.1944296 0.17870821 0.074856 0.4190163 0.3076605 0.10103813 0.10298267
-0.20865151 -0.050150458 0.05933024 0.088703535 0.2073679 -0.11357834 -0.15396476 0.29302168
0.122912 -0.3284983 -0.09683767 -0.20882803 -0.04547396 -0.06764977 -0.0028683925 -0.117634475
00000000: e040 703e fcc0 b33c 7b2b 683e 0b1c d9bc
00000010: 875c 7dbe cd73 1f3c a97d 27bd 9b87 db3d
00000020: 6dec d13e bb5a 00be 0f5a 733e f242 13bd
00000030: 8c62 d4bd c7d2 dbbc 6909 15bd 59be aa3e
00000040: 24a6 c0be add6 e2bd 9438 4f3e 4354 aabe
00000050: 9cdb 01bd 288d c9bd 121e 353e fc9f 7ebd
00000060: 7ee9 e13e 83b1 8f3c 52f4 853e e784 efbc
00000070: a789 a0bc 46bb afbd 897d 21bb 65e4 85be
00000080: c32a 6a3e 7512 a5bd 6cb2 053d 2a5d dfbd
00000090: ca50 97bd 9a18 243e ca6c 20bd 2103 73bd
000000a0: 2ac2 febd 9807 fbbd dfde 803e 63a5 85be
000000b0: cac7 ba3d 92ca 59be 584e 37bd d7ed e5bd
000000c0: 99d6 53be 246c d1bd 4ad6 93be 4d0e 87bd
000000d0: 9a43 bd3e ce0c 92be bb69 b93d 4ae9 fb3d
000000e0: 1648 703c 88ab 31bd cbc1 ea3e d18d 8cbd
000000f0: 1618 623e 1e6b bd3d 459e 86be fe5b 69bc
00000100: 0fc7 453e 22d6 f73d a0ed be3e 2be0 4a3d
00000110: 4532 ab3e 4744 1e3e 9b75 273e 58c9 49be
00000120: 8e58 b93c 3d97 c5bd 78ee 103e 9374 13be
00000130: a720 aa3d 7bab 833e c01f 623d c116 3cbd
00000140: 666d 26be 7ccf 6bbd bbc3 673e 1bb2 2abd
00000150: df95 613d a7ec 0f3d 70a5 663d 6354 02be
00000160: 7a80 9bbe 9459 643e c8e4 55bd f1a7 7cbe
00000170: 0f05 813e 805b a6bc 7d8d d8bd 67d6 edbe
00000180: 4ac0 b1bb 0b03 a53e f617 9dbe 2373 52be
00000190: 2d0d b2bd 3ddc 69be 5caa dabd 6e8c 0abe
000001a0: e0ce 6f3e cfa5 933c b045 bd3d 5a76 2fbe
000001b0: a3ff 4d3e 04d1 d13d b260 cebd f91c c1be
000001c0: 1f22 b43d d758 c03b 40a9 9b3e b366 473d
000001d0: 76d8 08bf 8c92 873e b216 383e 2e27 90bc
000001e0: 22ca 17be e88a b3bd d3a3 91be 8ba0 4a3d
000001f0: a399 40be 063d f53c 32b9 0a3e 5233 0abe
00000200: 6a2e 61bd 0544 cebe c4be 963d d402 463e
00000210: 71aa 923e fc5b d1bd 9397 973d 6998 7f3e
00000220: a3ec a13c 442b 43be 109c 2b3e 6d0d e0bd
00000230: 9367 1bbd c2bf 5fbd a7b5 ac3e bd6d 213d
00000240: db8c 8cbd 9f78 873e 292b 643e cbde eebd
00000250: 80e7 aabd 6793 7fbe cf1e 87be fc80 1bbe
00000260: 674c 903e 815e a03e a4c4 253e d095 9e3d
00000270: eb10 213e 7d98 cd3e d004 573e 2be5 a2be
00000280: f87d fdbd 56c6 86be 4949 533e 93c7 2d3d
00000290: 0a5d 9cbc 2c10 5d3d 98be b73d 1aa4 603e
000002a0: 83a7 de3c ad1b 933e f4b7 a4bb 1243 bb3e
000002b0: f520 8f3e a589 21bb 4e04 f4bd 6420 99bc
000002c0: b771 80be 1685 063d e07b a13e 28c6 5d3e
000002d0: 4fd3 34bd 2a9d 543d c294 4fbe ece3 8a3b
000002e0: d65a f83d 53c6 8fbe 7131 8e3d 6880 82bd
000002f0: 470c 2bbe 3f66 15bd bebe b03e 5527 173e
00000300: 30d8 43be 3cbb cebd 4840 9d3d f0ad 333e
00000310: dad4 263e 98fc c83c ff48 863d b5b8 3d3e
00000320: 7afc a8bd ae0f b3be 56b5 e0bc ab3d 483c
00000330: c100 37be dab0 ce3d d4e7 3abe 81b0 7a3c
00000340: 45f3 97be f7c8 0dbe f0c2 403e 2fba 0b3d
00000350: a750 153e b5a1 a93e 371a 47be e8a1 583e
00000360: 5ed3 bbbe 7230 06bc 473a dcbd c75f ec3d
00000370: 7421 41be b85a 97be c167 a1bd e16c 32be
00000380: 415e 5ebe c1bf 93be 4a1b 2ebe 9058 a93d
00000390: 25d4 20bd abf1 2f3e 32b1 e7be 8a2a 8abd
000003a0: 6b5a d6be 8e18 473e 49ff 363e 1a4e 993d
000003b0: 4e89 d63e ad85 9d3e 14ed ce3d 94e8 d23d
000003c0: bea8 55be 916a 4dbd 4404 733d 33aa b53d
000003d0: 4058 543e c39b e8bd f0a8 1dbe f006 963e
000003e0: 49b9 fb3d ee30 a8be d452 c6bd 04d7 55be
000003f0: e742 3abd f68b 8abd a4fb 3bbb 58ea f0bd

actor_mean.2.bias f4 [64]
-0.0054338323 0.037369784 0.011572023 0.010151401 -0.015088074 0.010295434 -0.021311587 -0.0076858453
0.0019134231 -0.011184554 0.027568212 0.009638276 -0.0127622755 0.019098215 -0.01756866 -0.026839301
0.011652969 -0.008216989 -0.025117619 -0.014282107 -0.006028553 0.009823031 -0.015938437 0.006199057
0.0021210485 -0.014239947 -0.056701843 -0.004640525 0.01684448 0.016158262 0.0049958443 -0.0022890675
0.031501826 0.0070300866 -0.0017798081 0.018963952 0.023918658 0.02670365 -0.00028152048 -0.020137046
-0.0031962602 0.041944157 -0.006064029 -0.02101636 -0.016401866 -0.007960959 0.0041951677 -0.0067834714
-0.0073723868 0.054617036 0.017306456 0.02385793 -0.0011097911 -0.0093637435 -0.012772732 0.0068131424
0.015653018 -0.006278725 -0.043034755 0.051958814 0.039667897 -0.0100222435 -0.0158659 0.0073722107
00000000: 4a0e b2bb 0f11 193d 9598 3d3c 1052 263c
00000010: f833 77bc 2eae 283c a395 aebc 8bd9 fbbb
00000020: d3cb fa3a 6b3f 37bc bbd6 e13c dce9 1d3c
00000030: dd18 51bc dc73 9c3c 27ec 8fbc 18de dbbc
00000040: 18ec 3e3c 8da0 06bc 77c3 cdbc 80ff 69bc
00000050: 2b8b c5bb c7f0 203c 5391 82bc 7621 cb3b
00000060: 4a01 0b3b ab4e 69bc 3140 68bd 8c0f 98bb
00000070: 6ffd 893c 555e 843c 2eb4 a33b 2e04 16bb
00000080: 0f08 013d a45c e63b 7348 e9ba 4a5a 9b3c
00000090: 10f1 c33c 9dc1 da3c 0a99 93b9 72f6 a4bc
000000a0: 5978 51bb a3cd 2b3d c3b4 c6bb 802a acbc
000000b0: 355d 86bc af6e 02bc 9e77 893b e247 debb
000000c0: 1094 f1bb 1db6 5f3d 45c6 8d3c b571 c33c
000000d0: 6976 91ba 636a 19bc b944 51bc c840 df3b
000000e0: c23a 803c c3bd cdbb 3645 30bd c4d2 543d
000000f0: ce7a 223d 5634 24bc 34f9 81bc 9692 f13b

actor_mean.4.weight f4 [2, 64]
-0.19133174 0.17375629 0.09334799 -0.04188515 -0.13308315 -0.02327693 0.1375548 0.11724464
-0.018465195 -0.019310907 0.040871184 -0.0037107924 0.06605071 0.16101831 -0.12326453 0.0034637686
-0.025537482 -0.08543923 0.11153226 0.04382209 0.11466084 -0.12616736 0.007045831 0.03611696
-0.056222897 0.012916659 -0.09257333 -0.0060017128 0.00067022827 0.09697479 -0.2129728 0.102427535
0.022559328 -0.026601251 0.0061768475 -0.06757282 0.100555 0.2986003 0.0029253126 0.037574314
-0.16503662 0.07093097 0.037380084 -0.22646773 -0.045536235 -0.109787904 -0.008001628 0.022001937
-0.002930569 0.11341647 0.0154615715 -0.0016660001 0.0016840718 -0.22009191 -0.10701174 0.11003966
-0.12321247 0.21596651 -0.13570121 0.019991174 0.072286494 0.27771997 -0.017528346 -0.20146878
-0.04669823 -0.029395789 -0.23485799 -0.21052195 -0.04117993 0.13400163 0.02512023 0.090085894
0.12678838 -0.2018757 0.057954136 0.018770972 -0.043449756 -0.06774325 0.01979281 0.0027949521
-0.015082038 -0.18919013 0.06984227 -0.060667522 -0.14957456 -0.12032921 0.0022651586 0.024189921
-0.049233913 -0.15167393 0.15677096 0.117816724 0.113455474 -0.08526694 0.10398524 0.10837053
-0.16186391 -0.24659155 0.0044449936 -0.011802404 0.061818745 0.0787296 0.033125155 0.066491365
0.18224461 0.08228668 0.11120709 -0.06858639 0.22418202 -0.0063474434 0.0032428165 -0.009098347
-0.0018366128 -0.06441834 -0.21079248 -0.00040521738 0.0016005408 -0.024641655 0.12956384 0.09665396
-0.07459397 0.06643532 -0.042416748 -0.051574733 -0.04840525 -0.038902275 0.11087031 -0.020931318
00000000: 78ec 43be 2bed 313e 3b2d bf3d c38f 2bbd
00000010: f346 08be 43af bebc 2adb 0c3e f51d f03d
00000020: 5244 97bc e831 9ebc 8b68 273d c430 73bb
00000030: 9845 873d fce1 243e 1d72 fcbd 6500 633b
00000040: fb33 d1bc c3fa aebd 076b e43d cb7e 333d
00000050: 4dd3 ea3d 0432 01be b7e0 e63b 61ef 133d
00000060: fb49 66bd 65a0 533c 1697 bdbd 04aa c4bb
00000070: 42b2 2f3a b89a c63d 8b15 5abe 87c5 d13d
00000080: 57ce b83c deea d9bc 2767 ca3b 9e63 8abd
00000090: c8ef cd3d 23e2 983e 9ab6 3f3b 86e7 193d
000000a0: 5cff 28be 4244 913d dc1b 193d 28e7 67be
000000b0: 3484 3abd 7bd8 e0bd 4319 03bc 683d b43c
000000c0: ca0e 40bb e546 e83d 8852 7d3c b05d daba
000000d0: 13bc dc3a c65f 61be f928 dbbd 795c e13d
000000e0: d256 fcbd 5326 5d3e 42f5 0abe 88c4 a33c
000000f0: f10a 943d 5031 8e3e 9b97 8fbc d54d 4ebe
00000100: a546 3fbd 70cf f0bc 9d7e 70be 1193 57be
00000110: 49ac 28bd b937 093e f1c8 cd3c f47e b83d
00000120: d0d4 013e 81b8 4ebe 5161 6d3d 95c5 993c
00000130: 5ff8 31bd f9bc 8abd 8824 a23c 842b 373b
00000140: a71a 77bc 0fbb 41be 7709 8f3d 827e 78bd
00000150: 132a 19be 296f f6bd 0e73 143b f129 c63c
00000160: 80a9 49bd 6950 1bbe 9188 203e e549 f13d
00000170: 585b e83d 6fa0 aebd 37f6 d43d 5ef1 dd3d
00000180: a7bf 25be 7f82 7cbe 4fa7 913b df5e 41bc
00000190: a735 7d3d fc3c a13d 3eae 073d a02c 883d
000001a0: 559e 3a3e eb85 a83d 8bc0 e33d 0577 8cbd
000001b0: f98f 653e 37fe cfbb 6f85 543b 3c11 15bc
000001c0: 80ba f0ba c3ed 83bd fcd9 57be 5b73 d4b9
000001d0: 3dc9 d13a 4cdd c9bc 62ac 043e 83f2 c53d
000001e0: b9c4 98bd 3e0f 883d 2fbd 2dbd 0740 53bd
000001f0: 9544 46bd fe57 1fbd f90f e33d 2878 abbc

actor_mean.4.bias f4 [2]
-0.0057638767 -0.002233984
00000000: e7de bcbb 0868 12bb

critic.0.weight f4 [64, 14]
-0.16786635 -0.103322044 0.049567673 -0.054118033 0.121383116 -0.11761123 -0.035543013 0.036976784
-0.19212277 0.20911442 -0.2005993 -0.08661291 0.012402732 0.10400745 0.36892402 -0.079069205
0.15865804 0.19399223 -0.15433899 0.22931 0.17343172 0.18259333 -0.20048645 0.09113447
0.122156665 0.0049613365 -0.19913721 0.17555025 0.06787932 0.25985578 0.3429887 -0.31031236
-0.2082931 0.014059229 -0.0028336968 -0.19110677 0.34149495 0.3741264 -0.11891461 -0.31654525
-0.17432226 -0.2827906 0.08666325 0.16016185 0.0065460824 0.13172126 -0.06252495 0.11878731
0.12870614 -0.14280586 -0.015889239 -0.015734758 -0.099512264 -0.0711336 0.08303822 0.2709101
0.12515447 -0.33100003 -0.23412992 -0.115885474 0.13995539 0.2434673 -0.15368953 -0.09567499
-0.023618665 -0.04598905 -0.1132134 0.19041495 -0.06819281 -0.25975668 0.22730348 0.18970951
0.06081963 -0.07747573 0.09360494 0.007254493 -0.26752448 0.1678107 0.13210852 -0.17959689
0.013083356 0.020786421 -0.062641606 0.31014374 -0.016659293 -0.10493696 -0.3644734 -0.13641927
0.16944869 -0.11322589 0.1575708 0.041901752 -0.019093817 0.14391659 -0.117263086 -0.1407031
-0.1857237 0.089313395 0.0534435 -0.31045938 -0.012556714 -0.31070095 -0.1022067 -0.16214275
-0.0878418 -0.033388633 0.06784267 0.1545997 0.07647081 0.10493538 0.07393143 -0.06413041
-0.31891716 -0.22579868 0.07191296 -0.26812452 -0.18003505 -0.4270976 0.17224039 -0.19585222
-0.2675826 -0.12160589 0.16597599 -0.02296154 -0.23146506 -0.07839375 0.19309439 0.19051895
-0.29016238 -0.45362324 0.31928656 0.08603098 0.15032251 0.09548643 0.08953176 -0.2136696
0.17257924 -0.07854605 -0.041633643 0.060576588 0.33818418 0.18618546 0.10231465 0.1167892
0.2438961 -0.028804336 0.08646925 0.077807255 -0.40150738 -0.22310351 -0.12462831 -0.087967165
-0.35776702 -0.30171645 0.049293026 0.28479624 -0.13054462 0.09061029 -0.018516066 -0.02446307
-0.3231758 0.19215935 0.37272882 0.065615736 -0.24972461 0.2877533 0.10559735 -0.26721233
0.270083 0.1348786 0.20649299 -0.16415887 0.111889616 0.024759352 0.30434534 0.00015838575
0.17389564 -0.32579637 0.052855793 0.033897135 -0.054260816 0.16743083 0.31808558 0.24385156
-0.22483155 -0.033603515 0.036527593 0.050889347 0.14855061 -0.02922421 -0.29656494 0.09465323
0.13685288 -0.006813758 0.1984112 -0.15865752 0.032565217 0.04503138 0.27223948 -0.35202855
0.01441542 0.25535446 -0.1933016 0.3194168 -0.39024243 0.010312014 0.06570073 0.08563483
-0.21965273 -0.034557525 0.0578549 0.08521166 0.13676482 0.04353871 -0.21481127 0.13938043
-0.03977169 0.29342481 0.09225585 0.071728 -0.025981294 0.19255452 -0.12206063 -0.23110305
0.09458628 -0.046759278 -0.42433557 -0.10411152 -0.28929743 0.22057357 0.20906077 0.011680484
0.054675344 0.086653516 -0.059242483 -0.13569075 0.14447768 0.06644658 0.28733483 0.1423091
-0.060381822 0.1639368 -0.18291911 0.17123875 -0.113415785 0.13912228 -0.076851666 0.11055107
-0.21143982 -0.013142299 -0.1344551 0.28827697 0.048396453 -0.0094516445 -0.30730614 0.04681412
00000000: 28e5 2bbe 829a d3bd 7907 4b3d dfaa 5dbd
00000010: b697 f83d 28de f0bd 8d95 11bd f874 173d
00000020: d5bb 44be 1722 563e e769 4dbe 1c62 b1bd
00000030: d434 4b3c dc01 d53d 9ce3 bc3e 09ef a1bd
00000040: 4177 223e e6a5 463e 0a0b 1ebe 3ed0 6a3e
00000050: 1698 313e bff9 3a3e 524c 4dbe b6a4 ba3d
00000060: 462d fa3d b592 a23b a0ea 4bbe 72c3 333e
00000070: 5004 8b3d d10b 853e 379c af3e 43e1 9ebe
00000080: c94a 55be ae58 663c 8bb5 39bb 7eb1 43be
00000090: 6dd8 ae3e 7f8d bf3e 8189 f3bd 3812 a2be
000000a0: 8981 32be eec9 90be 817c b13d 7801 243e
000000b0: 8580 d63b f0e1 063e 150d 80bd c346 f33d
000000c0: 8bcb 033e b33b 12be 262a 82bc 2ee6 80bc
000000d0: 16cd cbbd 7eae 91bd f10f aa3d bbb4 8a3e
000000e0: 7e28 003e d678 a9be c1bf 6fbe 5d55 edbd
000000f0: 7750 0f3e 7e4f 793e ca60 1dbe 40f1 c3bd
00000100: ee7b c1bc 045f 3cbd 6ddc e7bd 23fc 423e
00000110: aca8 8bbd d4fe 84be 3ec2 683e 3643 423e
00000120: 011e 793d 98ab 9ebd f2b3 bf3d 19b7 ed3b
00000130: f8f8 88be 91d6 2b3e 7547 073e 3fe8 37be
00000140: 935b 563c 4948 aa3c 3e4a 80bd 29cb 9e3e
00000150: 1279 88bc 30e9 d6bd 429c babe 7eb1 0bbe
00000160: f583 2d3e fae2 e7bd 3d5a 213e 2ca1 2b3d
00000170: a36a 9cbc df5e 133e a127 f0bd 7914 10be
00000180: 5b2e 3ebe f1e9 b63d 92e7 5a3d 88f4 9ebe
00000190: adba 4dbc 3214 9fbe bf51 d1bd c008 26be
000001a0: 67e6 b3bd 85c2 08bd 19f1 8a3d 624f 1e3e
000001b0: ba9c 9c3d 5ce8 d63d 5d69 973d ce56 83bd
000001c0: 1c49 a3be c537 67be 1a47 933d 9e47 89be
000001d0: 1c5b 38be 89ac dabe c95f 303e 7c8d 48be
000001e0: 9600 89be 820c f9bd 9cf5 293e d719 bcbc
000001f0: 2d05 6dbe e78c a0bd 89ba 453e 6617 433e
00000200: 2a90 94be 4e41 e8be 8779 a33e 0331 b03d
00000210: 25ee 193e 648e c33d 6d5c b73d 34cc 5abe
00000220: 9db8 303e c0dc a0bd 0a88 2abd 281f 783d
00000230: 7a26 ad3e 67a7 3e3e 588a d13d 2d2f ef3d
00000240: e6bf 793e 12f7 ebbc ca16 b13d 6959 9f3d
00000250: 6092 cdbe 3f75 64be 213d ffbd 2128 b4bd
00000260: 3d2d b7be 947a 9abe 7ce7 493d d0d0 913e
00000270: 7dad 05be e391 b93d 01af 97bc c766 c8bc
00000280: 4c77 a5be 6cc5 443e 50d6 be3e 8b61 863d
00000290: cfb7 7fbe 6754 933e 6c43 d83d 0ed0 88be
000002a0: 5248 8a3e 9e1d 0a3e e672 533e 4319 28be
000002b0: 6226 e53d 20d4 ca3c 27d3 9b3e 5a14 2639
000002c0: b311 323e c8ce a6be 517f 583d b9d7 0a3d
000002d0: 9740 5ebd fd72 2b3e 1ddc a23e 39b4 793e
000002e0: 3e3a 66be d7a3 09bd f59d 153d 5971 503d
000002f0: a71d 183e 9c67 efbc 5cd7 97be 8dd9 c13d
00000300: 2923 0c3e f245 dfbb 4e2c 4b3e 1e77 22be
00000310: 1b63 053d d372 383d f962 8b3e 163d b4be
00000320: a72e 6c3c d2bd 823e dbf0 45be 998a a33e
00000330: dbcd c7be b9f3 283c 1b8e 863d 5061 af3d
00000340: a5ec 60be 318c 0dbd 42f9 6c3d 7383 ae3d
00000350: 140c 0c3e a555 323d 7cf7 5bbe beb9 0e3e
00000360: a4e7 22bd c73b 963e a3f0 bc3d 21e6 923d
00000370: b9d6 d4bc 032d 453e ecfa f9bd 47a6 6cbe
00000380: 74b6 c13d a886 3fbd 8342 d9be 6c38 d5bd
00000390: cb1e 94be 0ade 613e 0714 563e 805f 3f3c
000003a0: 41f3 5f3d 6677 b13d 3fa8 72bd 84f2 0abe
000003b0: f5f1 133e 2515 883d 8d1d 933e 7ab9 113e
000003c0: ee52 77bd 0cdf 273e 264f 3bbe 3659 2f3e
000003d0: 8946 e8bd 1276 0e3e 6864 9dbd 9968 e23d
000003e0: ae83 58be cc52 57bc 99ae 09be 0a99 933e
000003f0: 5c3b 463d 12db 1abc 3b57 9dbe 2ac0 3f3d

critic.0.bias f4 [64]
0.016039373 -2.1238031e-05 -5.458101e-07 -0.07747608 1.4414177e-06 0.008622393 -5.669323e-07 0.040346503
0.024999948 1.7327391e-06 0.038178798 -0.0028410945 1.1630423e-05 1.3876149e-05 -1.7618917e-05 0.0120360525
1.7732814e-08 -0.013995918 1.3959822e-08 -1.642673e-06 9.455614e-06 -2.468315e-07 -0.001171275 -6.7235815e-05
-0.057422917 -0.11312474 -4.6970606e-05 0.00011697852 0.06522714 0.00013061383 0.0128456745 0.07310411
-0.062008496 7.680813e-06 -0.00015238277 0.029268343 2.67886e-06 0.0019901253 -0.037747603 -3.1923853e-05
0.008256958 0.011984426 -0.008253683 -7.451682e-05 0.019165935 -0.00927206 0.051107194 -1.8051669e-06
0.067242734 -0.046946865 0.05271962 -1.9460509e-05 -0.02169902 0.0025611059 -8.62748e-08 1.0284401e-05
0.0009229025 0.0031129112 -0.08990529 2.784061e-06 -0.00207945 -0.011892801 0.03241015 0.06752465
00000000: 0165 833c 5328 b2b7 c983 12b5 c7ab 9ebd
00000010: bc76 c135 f044 0d3c 4a2f 18b5 6042 253d
00000020: b1cc cc3c 7690 e835 5f61 1c3d a831 3abb
00000030: 4920 4337 9bcd 6837 56cc 93b7 dd32 453c
00000040: df52 9832 234f 65bc f2d3 6f32 d179 dcb5
00000050: 8ea3 1e37 4384 84b4 7885 99ba f400 8db8
00000060: 4b34 6bbd f2ad e7bd 4e02 45b8 5d52 f538
00000070: cf95 853d 62f5 0839 aa76 523c 9cb7 953d
00000080: 9ffc 7dbd d7dc 0037 f0c8 1fb9 2ac4 ef3c
00000090: 77c6 3336 c36c 023b 3b9d 1abd fae5 05b8
000000a0: 3148 073c 535a 443c 753a 07bc ea45 9cb8
000000b0: e101 9d3c d7e9 17bc c755 513d 1049 f2b5
000000c0: 8fb6 893d 5b4b 40bd 87f0 573d 203f a3b7
000000d0: 25c2 b1bc 3ad8 273b 1346 b9b3 2a8b 2c37
000000e0: f0ee 713a fc01 4c3b 4420 b8bd ced5 3a36
000000f0: 6247 08bb 06da 42bc 81c0 043d 5d4a 8a3d

critic.2.weight f4 [64, 64]
0.026066417 0.06637479 -0.23140766 -0.38175413 0.030811103 0.21233763 -0.040746383 -0.20907092
0.44116497 0.011536632 -0.23787054 0.04370575 -0.26387173 -0.05977298 -0.0073533747 -0.028348397
-0.067307375 -0.1264526 -0.19892478 0.19215724 0.22921975 -0.09881054 -0.10134959 -0.3131839
-0.19153069 0.097719684 0.2834013 0.2527034 0.10045737 -0.13060097 0.03054947 0.14124975
0.014152923 -0.008585909 0.11415131 0.26365742 0.19021408 -0.037498027 0.11252972 -0.0042084428
-0.13357191 -0.10208568 0.082989134 0.08648805 0.19997667 0.43068144 -0.015272865 0.19023295
-0.016923148 0.1929883 0.18575881 0.00010145645 -0.01621 -0.2185183 0.3226648 0.20178688
-0.016164958 -0.07869703 -0.11930087 -0.2463428 -0.26665303 -0.020803532 -0.17632405 0.17655979
0.15535441 -0.10268251 0.53316504 0.1251939 -0.12461323 0.045622468 0.060058996 -0.0846157
0.26042843 -0.016842477 0.11394043 0.10386568 -0.40498734 -0.01115737 0.022564508 -0.044096116
0.046171326 -0.1345256 -0.13835081 -0.39395773 -0.09637726 0.06820113 0.1337566 0.19661914
0.17415641 0.23701757 0.21411654 -0.0034178696 -0.044390317 0.13655865 -0.007907058 -0.040086538
-0.023520444 -0.20095524 -0.10893594 -0.089615524 0.30773455 -0.11874627 0.16682477 0.16057026
-0.13007551 -0.30028886 -0.019877505 -0.34118643 0.25144312 -0.16193311 0.2644205 -0.02901412
-0.10634044 0.013732941 0.007066108 0.16274059 -0.0014658693 0.09908192 -0.063691266 0.13202733
0.2852487 0.3986607 -0.20770743 0.14529689 -0.18509091 0.15722771 -0.07783767 -0.019747738
0.34865543 0.07091853 -0.096773446 -0.0041808537 0.078119464 0.3082648 -0.011062562 0.14449632
-0.14629069 -0.26344964 -0.1651601 0.25021514 0.19091678 -0.12736979 0.13750753 -0.13504982
0.13277295 -0.05408447 -0.21863607 -0.19317563 0.07178007 -0.020834953 -0.17039806 -0.08407583
0.2034524 0.20038818 0.2527747 -0.28645137 -0.2619696 -0.12431772 -0.048649676 -0.18884186
0.22692987 0.10664598 -0.25163612 -0.046226222 0.07016713 0.4686599 -0.06646066 -0.06517632
0.04552501 0.08833522 0.045958888 0.07633037 0.10265093 0.0659941 0.17079267 0.26853797
-0.046159707 -0.078989916 -0.016484186 -0.009293037 -0.20702644 -0.12293663 -0.021112645 0.067736946
0.076282784 -0.07001081 -0.20671931 0.04193874 0.4393167 0.37059107 -0.008549266 -0.02642468
-0.06758092 -0.25746298 0.20127308 0.13312943 -0.013286078 0.084125616 -0.069401585 0.13095613
-0.3584903 -0.3032477 -0.27928838 0.026790684 -0.41511235 0.20117892 0.008671806 0.072004184
-0.07015599 -0.14993736 -0.1510247 0.17902821 0.055706073 -0.0063206283 0.10967912 -0.07994273
-0.103545904 0.30206954 -0.24015573 0.15012911 0.0023334285 -0.013503647 0.029872447 0.22407576
-0.049406927 -0.10620133 -0.23977812 0.14534876 -0.2861817 0.20073463 -0.25825608 0.16403314
0.17053574 0.07536021 -0.03391859 -0.11922633 -0.028726008 -0.033109594 -0.08868313 -0.11947148
0.3790788 -0.351939 -0.046689067 0.010911772 0.13763912 0.05358766 0.2770648 0.36468157
0.17523555 -0.15733093 0.03740719 -0.12124042 0.032503206 0.08258174 0.062810466 -0.27146253
00000000: 3d89 d53c 82ef 873d 21f6 6cbe 4775 c3be
00000010: 9167 fc3c 096f 593e aee5 26bd b016 56be
00000020: 60e0 e13e 2404 3d3c 5694 73be cd04 333d
00000030: 321a 87be 83d4 74bd 94f4 f0bb e63a e8bc
00000040: 73d8 89bd ca7c 01be f0b2 4bbe dec4 443e
00000050: 95b8 6a3e 2e5d cabd 6090 cfbd a459 a0be
00000060: 9f20 44be 4221 c83d fa19 913e 5762 813e
00000070: 98bc cd3d 43bc 05be e242 fa3c c6a3 103e
00000080: a9e1 673c eaab 0cbc 29c8 e93d 1bfe 863e
00000090: 7bc7 423e 8897 19bd fb75 e63d fae6 89bb
000000a0: 13c7 08be 4c12 d1bd 35f6 a93d a620 b13d
000000b0: afc6 4c3e 4782 dc3e 0a3b 7abc 6dcc 423e
000000c0: 6aa2 8abc ba9e 453e 8f37 3e3e 04c5 d438
000000d0: d5ca 84bc 43c3 5fbe 5234 a53e 38a1 4e3e
000000e0: 606c 84bc e92b a1bd 0454 f4bd 4941 7cbe
000000f0: bf86 88be 2b6c aabc 4b8e 34be 17cc 343e
00000100: 3a15 1f3e 354b d2bd 817d 083f d432 003e
00000110: 3935 ffbd a0de 3a3d 6c00 763d ff4a adbd
00000120: e056 853e 3cf9 89bc 9a59 e93d 88b7 d43d
00000130: 805a cfbe 67cd 36bc 34d9 b83c 219e 34bd
00000140: 251e 3d3d 14c1 09be d6ab 0dbe d4b4 c9be
00000150: 7161 c5bd 09ad 8b3d 7df7 083e 8756 493e
00000160: 0f56 323e bcb4 723e 5e41 5b3e 56fe 5fbb
00000170: 9fd2 35bd 08d6 0b3e 9b8c 01bc c831 24bd
00000180: f2ad c0bc 36c7 4dbe ce19 dfbd 5888 b7bd
00000190: 628f 9d3e 3f31 f3bd 1dd4 2a3e 886c 243e
000001a0: 8432 05be 76bf 99be 26d6 a2bc fdaf aebe
000001b0: 27bd 803e cbd1 25be 2062 873e 05af edbc
000001c0: 04c9 d9bd 2100 613c cf8a e73b 78a5 263e
000001d0: 6922 c0ba 76eb ca3d 9170 82bd 2c32 073e
000001e0: 1e0c 923e 411d cc3e 42b1 54be b5c8 143e
000001f0: 7988 3dbe 4d00 213e 5b69 9fbd 02c6 a1bc
00000200: f782 b23e bc3d 913d 2831 c6bd 8bff 88bb
00000210: 19fd 9f3d e2d4 9d3e bf3f 35bc d8f6 133e
00000220: 3acd 15be dfe2 86be bb1f 29be 331c 803e
00000230: b07f 433e 3a6d 02be c6ce 0c3e 804a 0abe
00000240: a2f5 073e ad87 5dbd 22e2 5fbe d5cf 45be
00000250: 6e01 933d 10ae aabc d47c 2ebe f32f acbd
00000260: d355 503e 8f32 4d3e af6b 813e c1a9 92be
00000270: e120 86be 4a9a febd e244 47bd c35f 41be
00000280: 4e60 683e 3569 da3d 73d6 80be b557 3dbd
00000290: c9b3 8f3d 31f4 ef3e 871c 88bd 2a7b 85bd
000002a0: 6f78 3a3d 19e9 b43d 633f 3c3d 1953 9c3d
000002b0: a73a d23d ea27 873d 46e4 2e3e cf7d 893e
000002c0: f611 3dbd 77c5 a1bd d809 87bc d241 18bc
000002d0: bdfe 53be 33c6 fbbd 6df4 acbc abb9 8a3d
000002e0: 263a 9c3d d461 8fbd 3aae 53be f5c7 2b3d
000002f0: 1eee e03e 1dbe bd3e 3812 0cbc 9278 d8bc
00000300: de67 8abd 30d2 83be 881a 4e3e 1553 083e
00000310: daad 59bc 0d4a ac3d 6b22 8ebd 5d19 063e
00000320: 0a8c b7be 4843 9bbe e3fe 8ebe 2378 db3c
00000330: 9b89 d4be d901 4e3e 3114 0e3c ee76 933d
00000340: f2ad 8fbd 2e89 19be 38a6 1abe 2c53 373e
00000350: 0d2c 643d 461d cfbb 729f e03d 04b9 a3bd
00000360: e00f d4bd dca8 9a3e 62eb 75be 72bb 193e
00000370: 6fec 183b 673e 5dbc 10b7 f43c 1e74 653e
00000380: eb5e 4abd 1580 d9bd 6588 75be 4ed6 143e
00000390: 6886 92be 618d 4d3e 243a 84be 4ef8 273e
000003a0: eca0 2e3e 7456 9a3d 38ee 0abd ef2c f4bd
000003b0: ce52 ebbc ed9d 07bd 809f b5bd 77ad f4bd
000003c0: 9e16 c23e 5931 b4be 093d 3fbd 4ac7 323c
000003d0: 45f1 0c3e bc7e 5b3d 70db 8d3e 8bb7 ba3e
000003e0: f370 333e 5c1b 21be 4838 193d e64c f8bd
000003f0: 1522 053d 9e20 a93d c6a2 803d 23fd 8abe

critic.2.bias f4 [64]
0.0008433883 0.029052952 0.011134863 0.033451658 -0.014077845 -0.00948249 -0.027773282 -0.013321997
-0.038671166 -0.039284937 -0.0061127455 -0.0025274032 0.007583891 -0.010063266 -0.0074741533 -0.0076521267
-0.0070648394 0.007005093 -0.00967365 0.00087471586 -0.0049026744 -0.021874305 0.020946056 -0.007999731
0.028237699 0.033685073 -0.010625583 -0.0038032758 -0.011994678 -0.012934639 0.006367706 0.01685391
-0.004092346 -0.010899262 0.00073675055 -0.034401413 0.018068328 -0.0019796656 -0.00088586455 0.007624682
0.010651403 -0.0155185005 -0.016348362 -0.016173836 -0.0050653103 -0.007340638 0.0038907253 0.0010238746
0.012229862 -0.02877831 -0.02475738 0.0009879295 0.009168509 0.0060363836 0.00283888 -0.00095214916
-0.024442649 0.013501263 -0.014871815 0.0136772925 -0.032252476 -0.015066836 -0.02494787 0.008508724
00000000: d516 5d3a 7500 ee3c 006f 363c 9b04 093d
00000010: c3a6 66bc 725c 1bbc cb84 e3bc 8144 5abc
00000020: a865 1ebd 3ee9 20bd 6d4d c8bb caa2 25bb
00000030: 4a82 f83b 66e0 24bc bee9 f4bb b1be fabb
00000040: 2b80 e7bb fb8a e53b 3b7e 1ebc 304d 653a
00000050: 9da6 a0bb be31 b3bc 1097 ab3c 4e11 03bc
00000060: bf52 e73c 5cf9 093d ed16 2ebc 6140 79bb
00000070: 5385 44bc cfeb 53bc 31a8 d03b 3611 8a3c
00000080: 1619 86bb d192 32bc 7e22 413a 7fe8 0cbd
00000090: 0804 943c 47bd 01bb 5d39 68ba 78d8 f93b
000000a0: 3983 2e3c 4f41 7ebc 00ed 85bc fe7e 84bc
000000b0: e7fa a5bb bc89 f0bb 8afb 7e3b 8833 863a
000000c0: c25f 483c 7ec0 ebbc fdcf cabc 6a7d 813a
000000d0: 8437 163c dbcc c53b 810c 3a3b a699 79ba
000000e0: f33b c8bc 6734 5d3c eaa8 73bc b916 603c
000000f0: 2c1b 04bd e4da 76bc 7a5f ccbc 2d68 0b3c

critic.4.weight f4 [1, 64]
0.11260629 -0.04835894 0.06650295 0.20301592 0.09536519 0.15757701 0.21597417 0.2712687
0.11341556 0.1508037 0.19587842 -0.045193437 -0.21955839 0.06289846 0.112054236 0.11901751
-0.045177184 0.039949857 0.24160628 0.103114694 0.20677401 0.15591867 -0.008069442 0.099058256
-0.16178444 -0.110479474 0.1005203 0.0023778642 -0.10750534 0.10353946 -0.014387853 -0.16874582
0.105464295 -0.06399904 -0.059135225 0.044643894 -0.035952177 -0.099779 0.06974812 0.08848189
-0.105650835 0.2995114 0.060520247 0.04842066 0.21967088 0.31436676 0.08860657 -0.03720987
-0.05817368 0.13720842 0.13866535 -0.06422521 -0.04193932 -0.185247 -0.06986887 0.11378771
0.0829684 0.069903396 0.17322463 0.11871634 0.042660534 0.013435768 0.12736107 -0.08932892
00000000: 209e e63d 0614 46bd b332 883d 68e3 4f3e
00000010: d34e c33d de5b 213e 5528 5d3e bbe3 8a3e
00000020: 6b46 e83d 496c 1a3e 5a94 483e c11c 39bd
00000030: ead3 60be e8d0 803d b17c e53d 74bf f33d
00000040: b60b 39bd 76a2 233d a367 773e cc2d d33d
00000050: 91bc 533e 25a9 1f3e b135 04bc 0edf ca3d
00000060: d2aa 25be 1043 e2bd 96dd cd3d f1d5 1b3b
00000070: c22b dcbd 7f0c d43d 08bb 6bbc b4cb 2cbe
00000080: aafd d73d ee11 83bd c737 72bd 84dc 363d
00000090: 9742 13bd ef58 ccbd 1ad8 8e3d fe35 b53d
000000a0: 775f d8bd 8f59 993e 14e4 773d be54 463d
000000b0: 67f1 603e aef4 a03e 5d77 b53d 6069 18bd
000000c0: 8647 6ebd 5d80 0c3e 4afe 0d3e 8288 83bd
000000d0: 90c8 2bbd 64b1 3dbe 6917 8fbd 8809 e93d
000000e0: 56eb a93d 8329 8f3d cc61 313e 8d21 f33d
000000f0: d0bc 2e3d b221 5c3c f16a 023e 15f2 b6bd
