fw_flightcontrol/models/icinco/ppo/turbonly/ppo_bohn_caps_nohist_easymedrefs_turbonly_2164_04-06_22:42:29.pt (torch, 47144 bytes, 12 tensors)

actor_logstd f4 [1, 2]
0	0x3cc2ed91	0.023794921
1	0x3d81fefe	0.06347464

actor_mean.0.weight f4 [64, 14]
0	0xbc0ba968	-0.008524276
1	0x3d8076fa	0.06272693
2	0xbd0eedc1	-0.03489471
3	0xbd12e10b	-0.03585915
4	0x3dc1ae96	0.09457128
5	0x3e4749e3	0.1946178
6	0xbc9edacb	-0.019391438
7	0xbcb3b357	-0.021936102
8	0xbdb2c9d5	-0.08729903
9	0xbd3f2451	-0.046665493
10	0x3f23e46d	0.64020425
11	0x3ed4023b	0.41407952
12	0xbe9576f4	-0.29192317
13	0xbd19b2ee	-0.037524156
14	0xbd60f04c	-0.054916665
15	0x3e29c6ea	0.16579786
16	0xb95d7553	-0.00021119909
17	0x3d85855c	0.06519577
18	0xbb28532a	-0.0025684335
19	0xbcfda0ec	-0.030960523
20	0x3f0d64e4	0.5523207
21	0xbef9a828	-0.48761106
22	0xbddea257	-0.108708076
23	0x3dcdd205	0.10049824
24	0x3e7ce2d4	0.24695903
25	0xbda89186	-0.082308814
26	0x3de356ab	0.11100515
27	0x3e1b0084	0.15136915
28	0xbdffa688	-0.12482935
29	0xbe318306	-0.17335138
30	0xbea5a495	-0.3235213
31	0xbddbedcf	-0.10738718
32	0x3d2ce1f6	0.04220768
33	0xbd63e6b0	-0.055639923
34	0x3d9af005	0.07565311
35	0xbd5b3f40	-0.053527117
36	0x3dda2143	0.106508754
37	0xbe5c976c	-0.21542138
38	0xbea8fa17	-0.33003303
39	0xbd0be99b	-0.03415833
40	0x3e5a9c5d	0.2134871
41	0xbe194c8a	-0.14970604
42	0xbea719c1	-0.32636836
43	0x3e45bc6e	0.19310161
44	0x391c8255	0.00014925872
45	0xbd9bd9dc	-0.07609913
46	0x3c2f9731	0.010717199
47	0xbd8af263	-0.06784513
48	0x3f3564c5	0.7085689
49	0x3d459218	0.04823503
50	0x3db5f6fa	0.08884998
51	0x3e3cde64	0.1844421
52	0xbe1f833b	-0.15577404
53	0xbe274670	-0.16335464
54	0x3e066bb2	0.1312702
55	0xbdd5babf	-0.104360096
56	0x3dc5062a	0.09620316
57	0xbd55824e	-0.05212622
58	0x3e453755	0.19259389
59	0xbc82376a	-0.015895564
60	0x3db0e082	0.086365715
61	0xbe84cfb5	-0.25939718
62	0xbc1026b3	-0.008798289
63	0x3bb36a72	0.0054753358
64	0xbd643eb2	-0.055723853
65	0xbc9396c9	-0.018016236
66	0xbc9a321a	-0.018822718
67	0x3e7cca27	0.2468649
68	0x3da6f7ae	0.0815271
69	0xbe304f3d	-0.17217727
70	0x3ed573d6	0.41689938
71	0x3e4e10f8	0.2012366
72	0xbdfb61e0	-0.122745275
73	0x3e81b367	0.25332186
74	0x3d0ada72	0.033899732
75	0x3f13820f	0.5762033
76	0x3de6c81a	0.11268635
77	0xbdc4dc49	-0.096123286
78	0xbd897d0b	-0.06713303
79	0x3d41d0d5	0.0473183
80	0x3db7a083	0.08966162
81	0x3c332498	0.010934018
82	0x3e664e1d	0.22490735
83	0x3e0e480e	0.13894674
84	0xbdb04cdb	-0.08608409
85	0xbca744d6	-0.020418566
86	0x3e93f2b0	0.28896093
87	0x3e8f53c2	0.2799359
88	0x3ea76cc8	0.3270018
89	0x3d78cba8	0.060741097
90	0x3e8e5b6f	0.27804133
91	0x3d84ee7c	0.064908
92	0x3d9151d2	0.07095684
93	0x3ddea3e1	0.10871101
94	0x3e3200b8	0.17383087
95	0xbd8175fe	-0.06321333
96	0x3d6d6204	0.057954803
97	0xbe7b836c	-0.24561852
98	0x3d6633c6	0.05620172
99	0xbe3e07d1	-0.18557669
100	0x3d8ad5bd	0.067790486
101	0x3e95a7c2	0.29229552
102	0x3d6a9f84	0.057281032
103	0x3d80c505	0.062875785
104	0x3dda3b35	0.10655824
105	0xbc6d4c85	-0.014483576
106	0xbe99374c	-0.29925
107	0x3d8d9229	0.069126435
108	0x3c30fe90	0.01080288
109	0x3e06cbd4	0.13163692
110	0xbd93b48a	-0.072121695
111	0x3c8f9692	0.017527852
112	0xbd98bcda	-0.074578956
113	0x3c9f8755	0.019473711
114	0xbdf892d0	-0.12137377
115	0x3e0be971	0.1366327
116	0xbd769a55	-0.060205776
117	0x3dbb2b99	0.09139175
118	0x3ea3f24d	0.32020798
119	0xbe40fa9c	-0.188456
120	0xbdc2b873	-0.09507837
121	0x3dafc4cb	0.08582457
122	0xbe8b9cfd	-0.2726821
123	0x3e4c1929	0.19931473
124	0x3dc40a6c	0.095723
125	0xbe153494	-0.14570838
126	0xbe8644d7	-0.26224396
127	0x3e65e8d8	0.22452104
128	0xbd82c71f	-0.063856356
129	0xbe172c54	-0.14763004
130	0xbe2b0f29	-0.16705002
131	0xbdd9cc0c	-0.10634622
132	0x3ea676fd	0.32512656
133	0xbe0b4c5b	-0.13603346
134	0x3c27f299	0.010250711
135	0xbc580853	-0.013185578
136	0x3d54a31f	0.051913377
137	0x3eab3eca	0.33446342
138	0x3da32830	0.079666495
139	0xbe6829a3	-0.22672133
140	0x3e072da0	0.13200998
141	0xbd836289	-0.064152785
142	0x3e79baa1	0.243876
143	0x3e8101e8	0.25196767
144	0xbe940db7	-0.28916714
145	0x3e36c328	0.17847884
146	0x3e2f09a9	0.17093529
147	0xbd940b15	-0.07228676
148	0xbe678863	-0.22610621
149	0x3e140826	0.14456233
150	0x3e1da78d	0.15395947
151	0xbe61a5f6	-0.22035965
152	0x3e085232	0.13312605
153	0xbe08089f	-0.13284539
154	0xbbbf0bcf	-0.005830265
155	0xbe4016d6	-0.18758711
156	0xbdf9cb73	-0.12197008
157	0x3dd9cfb5	0.1063532
158	0x3e4722f6	0.1944693
159	0x3dbd037d	0.09229181
160	0xbdcf5e16	-0.10125367
161	0xbd8db781	-0.06919766
162	0xbda1a1e0	-0.07892203
163	0x3e17ba23	0.148171
164	0xbd72e02d	-0.059295822
165	0xbdd0d9ca	-0.1019779
166	0x3d2d0e00	0.04224968
167	0x3e39208e	0.18078825
168	0x3e699f3b	0.22814648
169	0x3d8a121a	0.06741734
170	0xbe854fcd	-0.26037446
171	0xbde3a9df	-0.11116385
172	0xbe8e62a4	-0.27809632
173	0x3d4939d0	0.0491274
174	0xbe698a70	-0.22806716
175	0xbe811d8e	-0.2521786
176	0x3c90c269	0.017670827
177	0xbe927899	-0.28607634
178	0xbdf7541e	-0.12076591
179	0xbcf8e100	-0.030380726
180	0x3e660fc4	0.22466952
181	0x3d00cdfc	0.031446442
182	0xbd2b29d1	-0.041787926
183	0xbe83238b	-0.25613055
184	0xbe81aed2	-0.2532869
185	0x3e05334e	0.13007852
186	0x3e6507f4	0.22366315
187	0xbe1bc2db	-0.1521105
188	0xbc9fa42d	-0.019487465
189	0x3d70638f	0.058688696
190	0x3e4d08b3	0.2002285
191	0xbdf2aa64	-0.11848906
192	0x3ce16eea	0.027518708
193	0xbe01815a	-0.12647
194	0x3ef27c13	0.47360286
195	0xbdff627e	-0.12469958
196	0x3ed7ef72	0.4217487
197	0x3cf84946	0.030308377
198	0x3da61b60	0.0811069
199	0xbec2294a	-0.37922126
200	0x3e917dd6	0.28416318
201	0xbdc5a777	-0.09651082
202	0x3c000d6a	0.007815698
203	0x3e5c8b49	0.21537508
204	0x3de89ff1	0.113586314
205	0xbe12d545	-0.14339168
206	0x3e923af2	0.28560597
207	0xbe073563	-0.13203959
208	0xbe12a8d3	-0.14322214
209	0x3da8ae7d	0.08236406
210	0x3e2e0fb0	0.16998172
211	0x3d6eca46	0.05829837
212	0xbe8fb044	-0.28064167
213	0xbd7bde82	-0.061491497
214	0x3df667bb	0.12031504
215	0x3e130bc1	0.14359953
216	0x3ddcf365	0.10788611
217	0x3dbd15a6	0.09232645
218	0xbea51c98	-0.32248378
219	0x3d03b5b3	0.032155704
220	0xbe1ed23f	-0.1550989
221	0x3de361b1	0.111026175
222	0xbc40a8cb	-0.011758993
223	0xbe46efb2	-0.19427374
224	0xbde48073	-0.11157312
225	0x3e877199	0.26453856
226	0x3c00a3bb	0.007851536
227	0xbe9352f5	-0.2877423
228	0x3ce8c2e1	0.028413238
229	0xbcef74ec	-0.029230557
230	0xbe794b7f	-0.24345206
231	0xbea62f69	-0.32458046
232	0xbe98b3e5	-0.2982475
233	0x3dbe803c	0.093018025
234	0xbcdf928e	-0.027291562
235	0x3d1f6c89	0.038921867
236	0xbe18f3de	-0.14936778
237	0x3e78e540	0.24306202
238	0x3e36ecf7	0.17863832
239	0x3b816f4f	0.0039500366
240	0x3e9e7945	0.30951896
241	0x3ccc215b	0.024918249
242	0x3d76cad7	0.060252037
243	0x3e77c7ee	0.24197361
244	0x3d1d735c	0.038440093
245	0x3e03bfe4	0.12866169
246	0x3ea0d57a	0.3141287
247	0x3d2d5111	0.04231364
248	0xbec000b9	-0.3750055
249	0x3e2bf4c3	0.16792588
250	0xbea8bf7a	-0.32958585
251	0xbe7f9003	-0.2495728
252	0x3d2d8ccd	0.042370606
253	0xbcd99a36	-0.026562791
254	0xbe7b349d	-0.24531789
255	0x3dbb9dbc	0.09160945

actor_mean.0.bias f4 [64]
0	0x3d591a45	0.05300357
1	0x3d1c8d71	0.038220827
2	0x3b2ae958	0.0026079025
3	0x3ce095a0	0.027415097
4	0x38973800	7.210672e-05
5	0x3caab3b5	0.020837644
6	0xb697bb39	-4.5219463e-06
7	0xbccae21b	-0.024766019
8	0x3d11e09b	0.03561459
9	0xbcae2c43	-0.02126134
10	0xb5a689ee	-1.2408107e-06
11	0x3b37a03f	0.0028019098
12	0xbcaff97f	-0.021481274
13	0x3c41c548	0.011826821
14	0xbd177ea3	-0.036986005
15	0x3814714a	3.539146e-05
16	0xbcee21b8	-0.029068813
17	0x3c6754b5	0.014119317
18	0xbae51fe4	-0.0017480818
19	0x3c42e484	0.011895303
20	0xbd0ae3cc	-0.03390865
21	0x3cd71b83	0.026258236
22	0xbb1d77b2	-0.0024027643
23	0x3b9bdb05	0.004756334
24	0x392ebbeb	0.00016663938
25	0x3c7edb1a	0.015555168
26	0xbbae70f2	-0.0053235227
27	0xbc66e4e2	-0.014092656
28	0xbbc18241	-0.00590542
29	0x366f553a	3.5663384e-06
30	0xbb541f9b	-0.003236747
31	0x3d4405ed	0.047857214
32	0x37624174	1.3485889e-05
33	0xbb844ecb	-0.004037713
34	0xb83b76bb	-4.469485e-05
35	0xb837518b	-4.3706543e-05
36	0x3c1ad06f	0.0094491085
37	0x3bd1f829	0.006407757
38	0xbcac87ca	-0.021060843
39	0x375494ef	1.2670861e-05
40	0x349f5590	2.9678313e-07
41	0xbc18acb1	-0.009318517
42	0x3cc02411	0.023454698
43	0xb59e6bb9	-1.1803269e-06
44	0xbc2e3313	-0.010632294
45	0x3c22ebc8	0.00994391
46	0xba9145a0	-0.0011083372
47	0x38c87c7b	9.5599295e-05
48	0x3d4ac420	0.049503446
49	0x37b3eb03	2.1447899e-05
50	0x3d3f9ae0	0.04677856
51	0x3b8975d6	0.0041949553
52	0xb886bc9b	-6.4247484e-05
53	0x3bbd1d18	0.0057712905
54	0x3d0098d6	0.031395756
55	0xbcd04510	-0.025423557
56	0xbad8f802	-0.0016553404
57	0x3b21c370	0.002468314
58	0xbbf5aa2e	-0.0074970936
59	0xba3def7a	-0.00072454626
60	0x3ce2fa18	0.027707145
61	0xbb012f5f	-0.0019712073
62	0x3b82cc4d	0.0039916397
63	0x3c708956	0.014681181

actor_mean.2.weight f4 [64, 64]
0	0x3dc825e6	0.097728536
1	0xbd4b42ec	-0.04962437
2	0xbe0eae42	-0.13933662
3	0x3edf6870	0.43634367
4	0xbcfb67c4	-0.030689128
5	0xbd89413b	-0.06701895
6	0xbdcc594d	-0.0997797
7	0x3d896eb7	0.0671057
8	0xbb7a728e	-0.0038215253
9	0x3d92778c	0.07151708
10	0xbea147f4	-0.31500208
11	0xbdc6a14f	-0.09698736
12	0x3db7d064	0.08975294
13	0x3e4d970e	0.20077154
14	0x3e34e0b9	0.1766385
15	0x3e58d21e	0.21173903
16	0x3e3cb80e	0.18429586
17	0xbd807e5a	-0.062741
18	0xbed15eb4	-0.40892565
19	0x3ed9a0d5	0.42505518
20	0xbc82c9ca	-0.015965361
21	0xbe4e230a	-0.20130554
22	0xbe46e03b	-0.19421475
23	0x3e8122b2	0.25221783
24	0xbe70b902	-0.23508075
25	0x3dc52b80	0.096274376
26	0xbdbec66d	-0.093151905
27	0xbe4b20b6	-0.19836697
28	0x3c85e747	0.016345633
29	0x3d30f802	0.04320527
30	0x3e5d97fb	0.21640007
31	0x3e0dfa10	0.13864923
32	0x3dff42d1	0.12463916
33	0xbc404612	-0.011735456
34	0x3e3a4423	0.18190055
35	0x3dbc327e	0.09189318
36	0xbdeb0fd4	-0.11477628
37	0x3dce461c	0.10071966
38	0xbde249fd	-0.110492684
39	0xbdcbb43a	-0.09946485
40	0x3e010d1c	0.12602657
41	0x3dde76c9	0.108625
42	0xbedc0d8a	-0.4297908
43	0x3d6c71f1	0.05772585
44	0xbe07e301	-0.13270189
45	0xbde80f1f	-0.11331009
46	0x3d52962c	0.051412746
47	0xbbbc3995	-0.005744169
48	0xbd243a96	-0.040094934
49	0xbe9dfb95	-0.30856004
50	0xbe43f909	-0.19137968
51	0x3e6f54d8	0.23372209
52	0xbe4d82f7	-0.2006949
53	0x3e17e347	0.14832793
54	0xbea7a350	-0.32741785
55	0xbdadefdf	-0.084930174
56	0xbe165cf8	-0.14683902
57	0xbd885527	-0.066568665
58	0xbcff8a50	-0.031193882
59	0xbe4c84e6	-0.19972572
60	0x3ea94b46	0.33065242
61	0xbc6dfc0f	-0.0145254275
62	0xbaf99cca	-0.0019043919
63	0x3e4085e7	0.1880108
64	0xbd8b6499	-0.06806297
65	0xbdb16ef3	-0.0866374
66	0xbcc20d45	-0.023687968
67	0xbcad83b3	-0.021180963
68	0x3d8c388a	0.068467215
69	0xbdb0324b	-0.086033426
70	0xbd98c3b7	-0.07459205
71	0xbd6f67c0	-0.058448553
72	0xbde1bd95	-0.11022488
73	0xbdff40cf	-0.12463533
74	0x3ed12948	0.40851808
75	0x3dab6b0b	0.08370026
76	0x3d5e9f70	0.05435127
77	0xbe502cf9	-0.20329656
78	0x3e1a4c00	0.15068054
79	0x3ed9fd24	0.42575943
80	0xbd89588b	-0.06706341
81	0xbd81702f	-0.063202254
82	0xbd0b4e87	-0.034010436
83	0x3e09eba7	0.134688
84	0xbe88d20d	-0.26722756
85	0xbed62f56	-0.4183299
86	0xbe0e752c	-0.13911885
87	0x3cfd8adf	0.030950008
88	0x3d004a1f	0.031320687
89	0x3ed263e0	0.41091824
90	0xbde7b692	-0.113141194
91	0x3eb892ff	0.3604965
92	0xbc908493	-0.017641341
93	0xbe108df6	-0.14116654
94	0xbe9134b0	-0.2836051
95	0x3e582bec	0.21110505
96	0xbd1b2371	-0.037875596
97	0x3ea979bf	0.33100697
98	0x3ce78bf9	0.028264986
99	0xbca77b03	-0.020444399
100	0x3db93079	0.090424486
101	0x3df1a8fd	0.1179981
102	0x3d478b19	0.04871664
103	0xbe055211	-0.13019587
104	0xbd5babee	-0.05363076
105	0x3d9006d3	0.070325516
106	0xbd716911	-0.05893809
107	0xbc20a27e	-0.009804366
108	0x3e2d9fd1	0.16955496
109	0xbe96e5b8	-0.29472136
110	0x3b9705d4	0.004608849
111	0xbcf9fcbd	-0.030516023
112	0xbd8ae9a5	-0.067828454
113	0x3c9baf6b	0.019004544
114	0x3e4871ed	0.19574709
115	0xbea6d209	-0.3258212
116	0x3e97d8b2	0.29657513
117	0xbe5c2f15	-0.21502335
118	0x3e0ffe7a	0.14061919
119	0x3e93dba2	0.28878504
120	0xbea9c50f	-0.33158156
121	0xbe574ee2	-0.21026185
122	0xbdae44f5	-0.08509246
123	0xbdd9dc27	-0.10637694
124	0x3e6cbb14	0.2311824
125	0xbe1ad6d3	-0.15121011
126	0x3e88c73e	0.2671451
127	0x3df9f469	0.12204821
128	0x3da7b22f	0.08188283
129	0x3e7bafee	0.2457883
130	0x3e838dbe	0.25694078
131	0xbcda1354	-0.026620544
132	0xbe01903b	-0.12652676
133	0xbe2451e2	-0.16046861
134	0x3e1a1963	0.15048747
135	0x3eeb1465	0.45913997
136	0x3d45bff8	0.04827878
137	0x3ec22d8d	0.37925377
138	0xbe211df6	-0.15734085
139	0xbdaac384	-0.08338073
140	0x3dad5b5e	0.084646925
141	0xbdb32282	-0.08746816
142	0x3e874433	0.2641922
143	0xbe57dacf	-0.21079563
144	0x3c927e52	0.0178825
145	0xbd7de36b	-0.06198446
146	0xbdf675a4	-0.12034157
147	0x3d93e4b1	0.07221354
148	0xbcbd1375	-0.023080567
149	0x3db68abf	0.089131825
150	0xbdfdbfb3	-0.12390079
151	0xbe556482	-0.20839122
152	0x3e3163f9	0.17323293
153	0xbd4fff84	-0.050780788
154	0x3ea23976	0.31684464
155	0x3d8168a3	0.06318786
156	0xbe0da8cb	-0.1383392
157	0xbd2ea553	-0.042638134
158	0x3e5e28e0	0.2169528
159	0x3e8eec9b	0.2791489
160	0xbcec5ddb	-0.028853348
161	0xbe030c1d	-0.1279759
162	0x3c8d1dc2	0.017226104
163	0x3d9e118d	0.07718191
164	0xbdd074a4	-0.101784974
165	0xbe75bad6	-0.23997054
166	0x3e0c5e2a	0.13707796
167	0xbcff101a	-0.031135608
168	0x3e54ad56	0.20769247
169	0xbeae9c33	-0.34103546
170	0xbe2b5b39	-0.16734017
171	0x3e7d7cec	0.24754685
172	0x3e82e870	0.2556796
173	0xbe8ce63d	-0.27519408
174	0xbe652ea1	-0.22381069
175	0xbe3a3aa9	-0.1818644
176	0x3e4f2b85	0.20231445
177	0xbb2bd3a9	-0.0026218689
178	0xbe609333	-0.21931152
179	0xbdaa90b1	-0.08328379
180	0x3ea13bad	0.31490842
181	0xbe2cb257	-0.16864906
182	0x3e2d11b8	0.1690129
183	0xbe66959d	-0.2251801
184	0xbdd40066	-0.103516385
185	0x3d54b76e	0.051932745
186	0x3d16939a	0.036761858
187	0xbe3884f1	-0.18019463
188	0xbe600a4f	-0.21878932
189	0xbe34263c	-0.1759271
190	0xbe5bec9c	-0.21476978
191	0xbea60880	-0.3242836
192	0xbdaa4642	-0.08314182
193	0xbe7fcd25	-0.249806
194	0x3e0efb82	0.1396313
195	0x3d7497e4	0.059715167
196	0xbd9c61fb	-0.07635876
197	0xbe939896	-0.2882735
198	0x3e73e1fe	0.23816678
199	0xbe3013d9	-0.17195071
200	0xbd3af9e9	-0.04564849
201	0xbe2feefb	-0.17181008
202	0x3dffa06d	0.12481771
203	0xbe057a21	-0.1303487
204	0x3ed32d3e	0.41245455
205	0xbe07d7ae	-0.13265869
206	0x3e1b0d78	0.15141857
207	0x3d664d13	0.056225847
208	0xbe88b347	-0.26699278
209	0xbd7e9db9	-0.062162135
210	0xbc50dbd0	-0.01274772
211	0x3d9d7520	0.076883554
212	0xbda81f8d	-0.08209143
213	0x3d8b7003	0.06808474
214	0x3decd9ab	0.11564954
215	0x3e6d0457	0.23146187
216	0xb8360e83	-4.3405696e-05
217	0xbe363037	-0.1779183
218	0xbd824888	-0.063614905
219	0x3e79f396	0.24409327
220	0x3d86084b	0.065445505
221	0xbd9fe55c	-0.07807419
222	0x3ebad0f5	0.36487547
223	0x3e19ebc4	0.15031344
224	0x3dae04f1	0.08497036
225	0xbee07905	-0.4384233
226	0xbe0abe94	-0.13549262
227	0xbe072f17	-0.13201557
228	0x3d898795	0.06715313
229	0x3df51978	0.119677484
230	0xbddcbaf4	-0.10777846
231	0x3d8ddbde	0.06926702
232	0x3d085d74	0.03329225
233	0x3e335bbb	0.17515461
234	0x3e26f75d	0.16305299
235	0x3e80707b	0.25085816
236	0x3e4f5de4	0.2025066
237	0xbdf7bee6	-0.12096958
238	0xbe09466a	-0.13405767
239	0x3dbefe45	0.09325842
240	0x3cd8806a	0.02642842
241	0xbe082fe2	-0.13299516
242	0xbd12736a	-0.0357546
243	0x3e5187e3	0.20461993
244	0x3e70cf73	0.23516636
245	0x3e6a728b	0.22895257
246	0x3e574c3b	0.21025173
247	0x3e03b0d6	0.12860426
248	0xbd79dc07	-0.06100085
249	0x3e823310	0.25429583
250	0x3e8eebda	0.27914315
251	0x3e6e128b	0.23249261
252	0xbbb5853e	-0.0055395653
253	0x3dbfc56c	0.09363827
254	0xbea72034	-0.32641757
255	0x3e857668	0.260669

actor_mean.2.bias f4 [64]
0	0xbd3e82dc	-0.046511516
1	0x3ccce936	0.025013547
2	0xbc38c38f	-0.011277094
3	0xbbb0fb8f	-0.005401082
4	0x3a44c19a	0.00075056555
5	0xbae0361a	-0.0017105967
6	0x3cc40918	0.023930117
7	0xbc65093d	-0.013979253
8	0xbba00155	-0.0048829713
9	0xbc6f9143	-0.014622035
10	0xbc19373b	-0.009351547
11	0xbc505348	-0.012715168
12	0x3c63ec27	0.013911284
13	0x3b9d0325	0.0047916346
14	0xbba5b461	-0.005056903
15	0xbc839923	-0.016064232
16	0x3cec46e0	0.02884239
17	0x3cdb796a	0.026791293
18	0xbcaab0ae	-0.0208362
19	0xbc829cf4	-0.015943982
20	0xbc5fc9eb	-0.013658981
21	0xbd0b96f1	-0.034079496
22	0xbcce1038	-0.025154218
23	0xbb8d30f9	-0.0043088165
24	0xbc88d59a	-0.016703416
25	0xbc1d5eb8	-0.009605102
26	0x3cbf2928	0.023335055
27	0x3ca542f1	0.020173522
28	0x3bd9c213	0.00664545
29	0xbc0a18e4	-0.008428786
30	0x3c6c7969	0.014433243
31	0x3cb282ba	0.02179085
32	0xbc8682e9	-0.016419845
33	0x3cb12058	0.021621868
34	0x3a5e6958	0.00084843254
35	0xbadb90d6	-0.0016751538
36	0x3bdd454b	0.006752645
37	0xbb8061bd	-0.0039179013
38	0xbc5fdbba	-0.013663227
39	0x3ba31b33	0.0049776076
40	0x3c3ab86a	0.011396507
41	0x3d077495	0.033070166
42	0x3c8ae51b	0.01695495
43	0x3c226a5a	0.0099130515
44	0x3d19eb85	0.037578125
45	0xbc1ae350	-0.00945361
46	0xbc3aa224	-0.011391196
47	0x3a9441f3	0.0011311158
48	0xbc0e2770	-0.008676395
49	0xbbcc5750	-0.0062359944
50	0xba79fbd3	-0.0009536121
51	0xbd176eeb	-0.036971014
52	0xbc961a30	-0.018323034
53	0xbacd4326	-0.0015660271
54	0x3cb82d7c	0.022482626
55	0x3d0482d9	0.03235135
56	0xbc911610	-0.017710716
57	0xbd2c94d9	-0.04213414
58	0x3d273487	0.04082158
59	0xbc507e23	-0.012725386
60	0xbd547a2f	-0.051874336
61	0x3b764237	0.0037576088
62	0xbc308cb8	-0.010775737
63	0xbcb08055	-0.021545568

actor_mean.4.weight f4 [2, 64]
0	0x3d949bb8	0.072562635
1	0xbd864706	-0.065565154
2	0xbad6c56c	-0.0016385741
3	0xbb583738	-0.0032991897
4	0x3d1ed851	0.038780514
5	0xbd6b8011	-0.05749518
6	0xbd191112	-0.037369795
7	0xbd50df11	-0.050993983
8	0xbe954e5a	-0.2916134
9	0xbe1304a0	-0.14357233
10	0xbe2e8f40	-0.17046833
11	0xbe4a9e3a	-0.19786921
12	0xbc32898f	-0.010897054
13	0x3c055f90	0.00814046
14	0x3cb48cac	0.022039734
15	0x3c799737	0.015233806
16	0x3c54c19e	0.012985615
17	0x3e34b72d	0.17648001
18	0xbd2b5e97	-0.041838255
19	0xb99c0e21	-0.00029765166
20	0x3d44c742	0.04804159
21	0x3e0153cc	0.12629622
22	0xbd5f8ea4	-0.054579392
23	0xbdf8e93c	-0.12153861
24	0xbe2b8b1d	-0.16752286
25	0x3d5e82fc	0.054324135
26	0x3cd8a059	0.026443647
27	0xbd84678b	-0.06465062
28	0x39b76de1	0.00034986346
29	0xbcc5f0c7	-0.024162663
30	0xbda2118e	-0.079135045
31	0xbe112ec8	-0.14178002
32	0x3d55def4	0.052214578
33	0xbd92af54	-0.071623474
34	0x3b17dd71	0.002317276
35	0xbe177e52	-0.14794281
36	0x3da6e249	0.08148629
37	0x3da70888	0.08155924
38	0xbd39c73c	-0.04535602
39	0xbc75abbe	-0.01499456
40	0xbe0c4b09	-0.13700499
41	0xbd7dc40d	-0.061954547
42	0x3d09529a	0.03352604
43	0x3e73eef2	0.23821619
44	0x3bf7c8f7	0.0075617987
45	0xbda0bb46	-0.078482196
46	0xbd9389e6	-0.072040364
47	0xbe39a4fc	-0.18129343
48	0xbdf716e0	-0.1206491
49	0x3e1eeddc	0.15520424
50	0xbe20b4e3	-0.15694003
51	0x3dd00c2a	0.1015857
52	0x3e3ae7fe	0.1825256
53	0x3e0a408b	0.13501184
54	0xbdb3deb1	-0.087827094
55	0xbdb35a16	-0.08757417
56	0x3d97aa6e	0.07405554
57	0x3df54826	0.11976652
58	0x3daadaa4	0.08342484
59	0xbd61ae83	-0.055098068
60	0xbda36a77	-0.07979291
61	0xbc81f6d4	-0.015864767
62	0x3e52b548	0.20576966
63	0xba0cc1c0	-0.0005369447
64	0x3cb2e4bd	0.021837587
65	0x3da926c7	0.08259349
66	0xbe0a8c01	-0.1352997
67	0xbd0cb218	-0.03434953
68	0xbc9ad4ea	-0.018900353
69	0x3b0f2311	0.002184097
70	0xbdb0e677	-0.08637708
71	0xbe288bc1	-0.16459562
72	0xbe0151c6	-0.1262885
73	0x3d6043d3	0.054752182
74	0x3db337bd	0.087508656
75	0x3e15cb9a	0.14628449
76	0x3dbcfb43	0.09227612
77	0xbd103447	-0.035206106
78	0x3e6d2fb9	0.23162736
79	0x3e577d52	0.210439
80	0xbb2fc7ee	-0.0026822048
81	0x3ddb51ec	0.10708985
82	0xbd124aea	-0.035715975
83	0xbbb7d7b1	-0.005610429
84	0xbdf34484	-0.11878303
85	0xbd08213e	-0.033234827
86	0x3e39d945	0.18149288
87	0x3e0bef50	0.13665509
88	0x3d92cd5f	0.07168078
89	0xbe06b759	-0.13155879
90	0xbe1228f9	-0.14273442
91	0x3d8cc8fe	0.06874274
92	0x3b2ef079	0.0026693626
93	0xbe386e06	-0.1801072
94	0x3e090ed1	0.13384558
95	0xbd365a5d	-0.04451977
96	0x3d88a00e	0.06671153
97	0xbdd48ee2	-0.10378815
98	0x3b836a2a	0.0040104585
99	0xbe7a6291	-0.24451663
100	0xbdcb8a52	-0.09938492
101	0x3daa3c60	0.08312297
102	0xbdf6dc53	-0.12053742
103	0xbe385695	-0.18001778
104	0x3d548f60	0.051894546
105	0xbd0aa916	-0.03385266
106	0x3e1bd5ab	0.15218227
107	0xbd3f260b	-0.04666714
108	0xbd2bb2af	-0.041918453
109	0x3e39a119	0.1812786
110	0x3e668a5f	0.22513722
111	0x3cea223a	0.028580774
112	0x3dd4f8b4	0.10398999
113	0xbe1780c8	-0.1479522
114	0xbe3b37cc	-0.18283004
115	0x3d38d6d7	0.045126762
116	0x3db6e109	0.08929641
117	0xbe4be37a	-0.19910994
118	0xbdfb1c16	-0.12261216
119	0xbe173c45	-0.14769085
120	0xbe05f3b9	-0.13081254
121	0x3dab54ff	0.08365821
122	0x3d59ace5	0.0531434
123	0x3d9c5422	0.076332346
124	0xbdb714ad	-0.089394905
125	0x3e257572	0.16158083
126	0x3da86052	0.08221497
127	0xba84705c	-0.0010104286

actor_mean.4.bias f4 [2]
0	0xbaf31a85	-0.0018547332
1	0xbb53ef10	-0.0032338537

critic.0.weight f4 [64, 14]
0	0xbc7538cd	-0.014967156
1	0xbd84646a	-0.06464465
2	0x3db811f9	0.08987803
3	0xbc6474e9	-0.013943889
4	0x3e2e7f0a	0.17040649
5	0xbdc69b06	-0.09697537
6	0xbe0b0abe	-0.13578317
7	0xbdd64a1c	-0.10463354
8	0x3e86ce0e	0.26329082
9	0xbc7e374c	-0.0155161135
10	0xbdca176b	-0.09867748
11	0xbe064139	-0.13110818
12	0x3d8b5cbf	0.06804799
13	0xbcd22029	-0.0256501
14	0x3e938cea	0.28818446
15	0x3e6e2266	0.2325531
16	0xbe04b29d	-0.1295876
17	0x3eb7284c	0.35772932
18	0x3d25980a	0.0404282
19	0x3e75545d	0.23957963
20	0x3d53313e	0.051560633
21	0xbd57d9c7	-0.052697923
22	0xbe601cf9	-0.21886052
23	0x3dbd4c63	0.09243085
24	0xbe1f46ab	-0.15554301
25	0xbe8000d5	-0.25000635
26	0xbe019b30	-0.12656856
27	0xbe6aeb3f	-0.22941302
28	0x3e136311	0.1439326
29	0xbd539285	-0.051653404
30	0x3e6a2b4c	0.22868079
31	0x3d06d1d7	0.032914963
32	0x3d8bc081	0.068238266
33	0x3a11967e	0.0005553736
34	0x3da12f31	0.07870329
35	0x3e7ab01c	0.24481243
36	0xbdd6aa98	-0.10481757
37	0xbdc47e1a	-0.095943645
38	0xbd22f229	-0.039781723
39	0xbd79203a	-0.06082175
40	0xbd997cf9	-0.0749454
41	0xbe8a067d	-0.26958075
42	0x3ded7f6f	0.11596572
43	0xbe945066	-0.2896759
44	0xbe8f4b10	-0.27986956
45	0xbc9f9a8e	-0.019482877
46	0x3ea137fe	0.3148803
47	0xbdfbcbda	-0.12294741
48	0x3ded374d	0.115828134
49	0xbe14aee7	-0.14519845
50	0x3dc2840a	0.09497841
51	0xbe07a40b	-0.13246171
52	0x3d44e0b1	0.048065845
53	0x3e47048a	0.19435325
54	0x3cd6d620	0.02622515
55	0x3de81412	0.11331953
56	0x3e32c0d7	0.17456375
57	0xbeb96f9b	-0.3621796
58	0xbb964bb4	-0.0045866612
59	0x3d989da3	0.07451942
60	0x3d8375e5	0.06418971
61	0x3dc00939	0.09376759
62	0x3e628c8b	0.22123925
63	0x3f264811	0.64953715
64	0x3d0f5a05	0.03499796
65	0x3c1654fa	0.009175533
66	0x3d5478bb	0.05187295
67	0x3cdbe24d	0.026841307
68	0x3e9edfb3	0.31030044
69	0xbdc489f0	-0.09596622
70	0xbe1b9312	-0.15192822
71	0xbe81165d	-0.25212374
72	0xbba1559a	-0.0049235346
73	0xbcedf7fd	-0.029048914
74	0xbd283fe0	-0.04107654
75	0xbbdd25a9	-0.006748874
76	0x3dbf1a42	0.0933118
77	0x3f431614	0.76205564
78	0xbd142986	-0.036172412
79	0x3c4897d8	0.012243234
80	0xbbc8bd69	-0.006126095
81	0xbd79ed3f	-0.06101727
82	0x3d76d8dc	0.060265407
83	0x3ef7e4d0	0.48416758
84	0xbc6edfdf	-0.014579742
85	0xbde268a4	-0.11055115
86	0xbd700b3f	-0.058604475
87	0x3d947bfb	0.0725021
88	0xbe5ba1a6	-0.21448383
89	0xbe0770cd	-0.13226624
90	0x3c8c959f	0.017161189
91	0xbe9f89f8	-0.3115995
92	0xbd984794	-0.074355274
93	0xbe1d4afb	-0.15360634
94	0xbe4b2791	-0.19839312
95	0x3e3d400e	0.18481466
96	0x3d58688a	0.05283407
97	0xbecfd405	-0.40591446
98	0x3da8b91d	0.082384326
99	0x3e681085	0.22662552
100	0x3e19c087	0.1501485
101	0x3e452206	0.1925126
102	0x3da9846c	0.082772106
103	0xbe66fe8e	-0.22558042
104	0x3e049e0f	0.1295092
105	0xbe29b2ac	-0.16572064
106	0xbd50b7fc	-0.05095671
107	0xbe801fb6	-0.25024194
108	0x3e9474d3	0.2899538
109	0x3e489caa	0.19591013
110	0xbeaff6fe	-0.34368128
111	0xbd774a3d	-0.060373534
112	0xbe00b062	-0.12567285
113	0x3e35620f	0.17713188
114	0x3e32df41	0.17467977
115	0x3cf0c21e	0.029389437
116	0xbd9e2482	-0.07721807
117	0xbc5de0f3	-0.013542402
118	0xbe070602	-0.13185886
119	0x3d2550b2	0.04036016
120	0x3e3a0ab6	0.18168148
121	0xbd4428a3	-0.047890317
122	0xbd89ed31	-0.06734694
123	0x3da5fcc9	0.081048556
124	0x3e393ed9	0.1809038
125	0xbdd16100	-0.102235794
126	0x3d5f3dd0	0.05450231
127	0x3e26b9ba	0.16281787
128	0x3dca34d2	0.09873356
129	0xbe9745e2	-0.29545504
130	0xbd08cd7b	-0.033399086
131	0x3dc8d01b	0.09805318
132	0x3db1eaa9	0.08687336
133	0xbdf27cf1	-0.11840237
134	0xbe1f0e0b	-0.155327
135	0xbe026f7d	-0.12737842
136	0xbe537e2d	-0.20653601
137	0x3df26753	0.11836114
138	0xbcff8c4b	-0.031194827
139	0x3e2b2f11	0.16717173
140	0xbe0b0311	-0.13575388
141	0x3ed8c982	0.42341238
142	0xbc82f60b	-0.015986463
143	0x3e1c0b7f	0.1523876
144	0xbcb6a6b2	-0.022296283
145	0x3e07e577	0.13271128
146	0xbd49ea59	-0.049295757
147	0xbec3e06a	-0.38257152
148	0xbe1882a8	-0.14893591
149	0x3da1e879	0.07905669
150	0x3bbf7613	0.005842933
151	0xbd1cc5c7	-0.038274553
152	0xbdf292b1	-0.118443854
153	0x3f0e35d4	0.55550885
154	0xbd6c6791	-0.057715956
155	0x3ed7315b	0.42029843
156	0xbc55f385	-0.013058548
157	0x3d471542	0.048604257
158	0x3dfa138d	0.1221076
159	0x3da460bf	0.08026265
160	0x3ea612b2	0.32436138
161	0xbf5343a9	-0.82525116
162	0xbd4f9168	-0.05067578
163	0xbd0f7433	-0.035022926
164	0xbd59193d	-0.053002585
165	0x3db1d3a4	0.08682945
166	0x3e0325b5	0.12807353
167	0xbce92a55	-0.028462568
168	0xbe7f983b	-0.24960415
169	0x3e8f8b47	0.28035948
170	0xbc4e838c	-0.012604605
171	0xbe2dfefd	-0.16991802
172	0xbda118cc	-0.07866058
173	0xbe55c34a	-0.20875278
174	0x3f71c531	0.94441515
175	0x3da999ab	0.08281263
176	0x3d24298b	0.04007868
177	0x3e72e2b2	0.2371929
178	0x3dc50a0f	0.09621059
179	0xbd2e3601	-0.04253197
180	0x3dfc40b9	0.12317032
181	0x3d6f01ae	0.05835121
182	0x3e0a4f37	0.1350678
183	0x3e10a00b	0.14123552
184	0x3e4fa719	0.20278586
185	0xbe99f279	-0.30067804
186	0x3e0c0a50	0.13675809
187	0x3d2f7c59	0.042843197
188	0xbe715110	-0.23566079
189	0xbe5763dd	-0.21034189
190	0xbe08be25	-0.13353784
191	0xbe87c78f	-0.2651944
192	0x3e005eaf	0.12536119
193	0xbe48fa1e	-0.19626662
194	0xbda69a8d	-0.08134947
195	0xbe749e5a	-0.23888531
196	0x3ce73750	0.028224617
197	0x3e204242	0.15650275
198	0x3e5dfa35	0.21677478
199	0x3e2b9bcc	0.1675865
200	0xbdcf919c	-0.10135195
201	0x3d4b98c6	0.049706243
202	0x3e716f0c	0.23577517
203	0xbd639697	-0.055563536
204	0xbba43aac	-0.005011877
205	0xbd213131	-0.039353553
206	0xbe59f9df	-0.21286725
207	0x3dabf15c	0.08395645
208	0xbed945dc	-0.4243611
209	0x3e1456ea	0.1448628
210	0x3be79cd6	0.007068257
211	0xbe272c78	-0.16325557
212	0x3d97ede5	0.07418422
213	0x3e74bc3d	0.23899932
214	0x3e1bc1e8	0.15210688
215	0x3e65fe40	0.2246027
216	0x3dec77ea	0.11546309
217	0x3d1c76a9	0.0381991
218	0xbdc839a6	-0.097766206
219	0x3e33f0b8	0.17572296
220	0x3ba42a30	0.005009912
221	0xbdce3b23	-0.10069873
222	0xbe0a0dce	-0.13481829
223	0xbe6a36dd	-0.22872491
224	0xbe8a2bb2	-0.26986462
225	0x3df6766a	0.120343044
226	0xbde8391d	-0.113390185
227	0xbc7c2e44	-0.01539189
228	0x3eef641d	0.46756068
229	0xbe20c5ae	-0.15700409
230	0x3db6bacd	0.08922348
231	0x3ebb85e9	0.36625603
232	0x3d925feb	0.07147201
233	0x3c9cab3e	0.019124623
234	0xbc307a52	-0.010771351
235	0x3e098616	0.13430056
236	0xbe8b8370	-0.27248716
237	0xbd43fcb1	-0.047848407
238	0x3e5b5a59	0.21421184
239	0xbe2298ff	-0.15878676
240	0x3bfcd4b3	0.0077157854
241	0x3dba3fcf	0.09094202
242	0xbe003919	-0.12521781
243	0x3c3e6103	0.011619809
244	0x3f4af3fb	0.79278535
245	0x3e963f3d	0.29345122
246	0x3e1089f6	0.14115128
247	0xbe1d1a1b	-0.1534199
248	0xbd238f37	-0.039931502
249	0xbd9bf173	-0.07614412
250	0xbdce1240	-0.10062075
251	0xbe57d251	-0.21076323
252	0xbce7dd9f	-0.02830392
253	0xbeaa7d1d	-0.3329858
254	0xbda181ae	-0.078860626
255	0x3df27f86	0.118407294

critic.0.bias f4 [64]
0	0x3c10244b	0.008797715
1	0xb97c1dc4	-0.00024043681
2	0xb817097e	-3.6010046e-05
3	0x357bbafd	9.377689e-07
4	0x3db1badf	0.08678221
5	0xbd267360	-0.040637374
6	0x3c24393d	0.010023412
7	0xbbb02a2d	-0.0053761215
8	0x38b40654	8.5842476e-05
9	0xbc13ca86	-0.009020453
10	0x3d6f2a3d	0.05838989
11	0xbd246024	-0.04013075
12	0xbd514e5f	-0.05110013
13	0x37d85984	2.579089e-05
14	0x3c538590	0.012910262
15	0x3c992597	0.018694682
16	0x3aa2cd1d	0.0012420748
17	0xbbc7da43	-0.006099017
18	0xbb143614	-0.002261524
19	0x361f4ca3	2.3737455e-06
20	0xbc05a8fe	-0.008157967
21	0x3a28da74	0.00064412435
22	0xbdbb1263	-0.09134366
23	0x390043a2	0.00012232226
24	0xba2ada0a	-0.00065174757
25	0xb9fa8eb1	-0.0004779003
26	0xbc08eb52	-0.008356886
27	0x360875c6	2.0334132e-06
28	0xb7d5846d	-2.5453244e-05
29	0x3c0111c9	0.0078777755
30	0xb60efe20	-2.130757e-06
31	0x3974b30d	0.00023336355
32	0xb9c59add	-0.0003769015
33	0xbbd93a2a	-0.006629248
34	0xbd4be6ef	-0.049780782
35	0x36847666	3.94769e-06
36	0xb8babaf9	-8.9039975e-05
37	0xbddbb36b	-0.10727581
38	0xb9ff81f4	-0.00048734213
39	0xbcc602b5	-0.024171213
40	0xbbdee14a	-0.006801759
41	0x3dc9643c	0.09833571
42	0x39ec64de	0.0004508858
43	0xb48cf268	-2.6253406e-07
44	0x2fe02813	4.0773837e-10
45	0x3df20859	0.118179984
46	0x38d24024	0.000100255274
47	0x3b0a01dc	0.0021058237
48	0x3c368587	0.011140234
49	0x3dd9d61a	0.1063654
50	0xbb9fbb13	-0.004874596
51	0xbaa8b528	-0.0012871372
52	0xba36fe07	-0.0006980602
53	0x3bb3043f	0.0054631527
54	0x37e0f223	2.6815635e-05
55	0xbd7ef1d0	-0.06224233
56	0x3dabed0f	0.08394825
57	0xb961bed6	-0.00021528764
58	0x3b5d446f	0.0033762713
59	0xbca8b008	-0.02059175
60	0xbc93246d	-0.017961705
61	0x3d86b91b	0.06578275
62	0x3b857ef7	0.0040739733
63	0x3897748d	7.22195e-05

critic.2.weight f4 [64, 64]
0	0x3e61fb3c	0.22068495
1	0x3e5277a1	0.20553447
2	0x3d9d6145	0.07684568
3	0x3ea44fc6	0.32092112
4	0xbea231ae	-0.31678528
5	0x3ed681a2	0.41895777
6	0xbe9abf8b	-0.3022426
7	0x3dbbef2b	0.09176477
8	0x3eaafe9b	0.33397374
9	0xbe67a451	-0.22621275
10	0xbe736ba4	-0.2377153
11	0xbd750cc0	-0.059826612
12	0x3d90bd51	0.07067359
13	0x3e062ad2	0.13102272
14	0xbd1b94d1	-0.03798372
15	0xbec0299e	-0.3753175
16	0xbc01693d	-0.007898626
17	0xbd621cea	-0.055203356
18	0x3e1fab05	0.15592583
19	0xbd5ce861	-0.05393255
20	0xbe137f5d	-0.14404054
21	0xbd38ff97	-0.045165624
22	0xbd2f5574	-0.042806104
23	0x3df0e530	0.11762464
24	0xbd89eb37	-0.06734317
25	0x3e03c20f	0.12866996
26	0x3e181bd5	0.14854367
27	0x3e6217a7	0.22079335
28	0x3d05dff2	0.032684274
29	0x3df6c0a9	0.12048466
30	0xbdd65ee4	-0.10467318
31	0xbe6c1750	-0.23055768
32	0x3e70bbbd	0.23509116
33	0x3d1b1bdb	0.037868362
34	0xbe8b0b8d	-0.2715725
35	0x3e80fcee	0.2519297
36	0x3d8b3b9e	0.067984805
37	0x3c6ad3b6	0.014332702
38	0xbe37f4ce	-0.1796448
39	0xbcb20f07	-0.021735681
40	0x3c71652c	0.014733594
41	0xbe81e8d0	-0.25372934
42	0xbd813ef1	-0.06310833
43	0x3e2b1cff	0.1671028
44	0xbe8d479e	-0.27593702
45	0xbd37c50f	-0.044865664
46	0x3e81ded6	0.25365323
47	0x3dffb664	0.1248596
48	0x3de806c7	0.11329418
49	0xbe1baf2b	-0.1520354
50	0xb7ff96ff	-3.0468682e-05
51	0xbd926cbc	-0.07149646
52	0x3e49d851	0.19711424
53	0xbe88ece6	-0.2674324
54	0x3dad06ec	0.08448586
55	0x3de06dc5	0.10958437
56	0xbdd94436	-0.10608713
57	0xbd972ce3	-0.07381608
58	0xbea7bafc	-0.32759845
59	0x3e4a1acd	0.19736786
60	0xbd9a562e	-0.07535969
61	0xbda41a35	-0.08012811
62	0x3e31d755	0.17367299
63	0x3e251e47	0.16124831
64	0xbdb853ac	-0.09000334
65	0x3d9eb9fa	0.07750316
66	0x3ead65b4	0.33866656
67	0x3c6c36f5	0.0144174
68	0x3e9b74b4	0.30362475
69	0xbcbf58e1	-0.02335781
70	0xbd6558e5	-0.05599298
71	0xbe065c3f	-0.13121127
72	0xbd16a2c6	-0.036776327
73	0xbddaad82	-0.10677625
74	0xbc3564b3	-0.011071372
75	0xbe04886f	-0.1294267
76	0xbe21159c	-0.157309
77	0xbe4330f0	-0.19061637
78	0x3e52752a	0.20552507
79	0xbddb6dcb	-0.10714301
80	0x3e4756cc	0.19466704
81	0x3e8e01b5	0.27735677
82	0xbc4631e4	-0.012096856
83	0x3d727b1b	0.059199434
84	0xbdd12308	-0.1021176
85	0xbe82ef96	-0.25573415
86	0x3e954a87	0.29158422
87	0xbdfe39bb	-0.12413355
88	0xbe1f109e	-0.15533683
89	0xbc8fccff	-0.017553804
90	0x3d2f1d33	0.042752456
91	0x3d2ab6d1	0.041678254
92	0x3e467cef	0.19383596
93	0xbd0bf90b	-0.034173053
94	0x3e1af91f	0.15134095
95	0xbec7be80	-0.39012527
96	0x3ededa62	0.43525988
97	0x3e014065	0.12622221
98	0x3e9728e4	0.29523385
99	0xbd989fcb	-0.07452353
100	0xbe4b12e3	-0.19831423
101	0xbe46c2eb	-0.19410293
102	0x3e20a92e	0.15689537
103	0x3eaf0d4d	0.34189835
104	0xbc4c1c57	-0.012457929
105	0x3e0ed202	0.13947299
106	0x3de18a3b	0.110126935
107	0xbdf8bc01	-0.12145234
108	0xbe2075ed	-0.15669985
109	0xbc9297f0	-0.017894715
110	0x3d8afb6f	0.067862384
111	0xbe3150b5	-0.17315944
112	0xbe885d17	-0.26633522
113	0xbd4eb3e4	-0.050464526
114	0xbe01859b	-0.12648623
115	0x3e88d9b9	0.2672861
116	0x3c446066	0.011985874
117	0xbe030935	-0.12796481
118	0x3c7e234f	0.015511348
119	0xbdd25a75	-0.102711596
120	0xbd015750	-0.03157741
121	0x3e2b2314	0.167126
122	0x3d25d122	0.040482648
123	0xbe0a4993	-0.13504629
124	0x3e96cd71	0.29453614
125	0xbea5c52d	-0.32376996
126	0x3cf37105	0.029716978
127	0x3e3eec56	0.18644843
128	0x3d557f68	0.052123457
129	0x3eb19fb4	0.34692156
130	0xbe2b9c7b	-0.16758911
131	0x3e6d9fe6	0.23205528
132	0x3dc3185b	0.0952613
133	0xbe7bf0b3	-0.24603538
134	0x3e84fa37	0.2597215
135	0xbdc35d2d	-0.09539256
136	0xbc9fce89	-0.019507663
137	0xbc9f0bc4	-0.01941479
138	0xbe46a21b	-0.19397776
139	0x3e5c5254	0.2151578
140	0x3ebbc43a	0.36673146
141	0xbee49a0c	-0.44648778
142	0xbe1a2134	-0.15051728
143	0xbe190402	-0.14942935
144	0xbd7ea7d8	-0.062171787
145	0x3e2a79ff	0.166481
146	0xbe354f7e	-0.17706105
147	0x3d1ca690	0.038244784
148	0x3cd75ad3	0.026288426
149	0x3e904c0c	0.2818302
150	0xbc380b59	-0.011233174
151	0x3d599fe3	0.053130995
152	0xbe3469bd	-0.17618461
153	0xbece4ae6	-0.40291518
154	0x3dba4f22	0.09097125
155	0xbe0b6a5d	-0.13614793
156	0x3d76328d	0.060106803
157	0xbd320085	-0.043457527
158	0x3e0e682c	0.13906926
159	0xbe84ce9b	-0.25938877
160	0xbd4497ef	-0.047996458
161	0xbcd9bf0d	-0.026580358
162	0xbdebf8a7	-0.11522036
163	0x3dc91c17	0.09819811
164	0xbe549414	-0.20759612
165	0xbe6cb8a7	-0.23117314
166	0xbdb5d851	-0.0887915
167	0x3bc5f927	0.006041664
168	0xbbc7f991	-0.0061027487
169	0x3d6d098e	0.05787044
170	0x3c1a133d	0.009404001
171	0xbde228fc	-0.110429734
172	0x3bb85a05	0.0056259655
173	0xbd7a6d70	-0.061139524
174	0x3b3a13d1	0.002839316
175	0xbcbe2ded	-0.023215258
176	0xbdeb15fb	-0.11478802
177	0x3e83a6da	0.25713235
178	0x3e37eae0	0.17960691
179	0xbe360254	-0.17774326
180	0x3d42e226	0.047578953
181	0xbe4fac66	-0.20280609
182	0x3dddbd52	0.108271256
183	0x3eecccf8	0.4625013
184	0xbc836413	-0.01603893
185	0xbe94e5bf	-0.29081532
186	0x3cdb4cee	0.026770081
187	0x3d061f00	0.032744408
188	0xbe0b5eed	-0.1361043
189	0x3df41243	0.11917546
190	0xbe10475b	-0.1408972
191	0x3e513a31	0.20432355
192	0xbe7bd223	-0.2459188
193	0x3e1c1b78	0.15244853
194	0x3e349d11	0.17638041
195	0x3def19cd	0.11674843
196	0x3dd2f8f2	0.10301389
197	0x3e7f41f1	0.24927498
198	0x3d748fb6	0.059707366
199	0x3ce75f59	0.028243707
200	0x3e080c5f	0.13285969
201	0x3e22a1c9	0.15882029
202	0xbdc7589b	-0.09733697
203	0x3e49b5d7	0.19698273
204	0x3f15ee1c	0.5856645
205	0x3e129c93	0.14317541
206	0xbda460cc	-0.08026275
207	0x3e41ced8	0.18926561
208	0x3e89025e	0.2675962
209	0xbecc26d7	-0.39873382
210	0x3c8aaf20	0.01692921
211	0xbdbc8090	-0.09204209
212	0xbd57debb	-0.052702647
213	0xbd8b1e97	-0.06792944
214	0xbe688add	-0.22709222
215	0x3dca79c2	0.09886505
216	0x3e055fd1	0.13024832
217	0x3c175c6b	0.009238343
218	0xbeb618de	-0.35565847
219	0x3e71ba79	0.2360629
220	0xbde9b720	-0.114118814
221	0xbe4621c9	-0.19348826
222	0xbe66fb1c	-0.22556728
223	0x3dde9b84	0.10869506
224	0x3e0d9034	0.1382454
225	0x3d717e78	0.0589585
226	0xbad7d51b	-0.0016466709
227	0xbe5929ad	-0.21207304
228	0xbeb5362f	-0.353929
229	0xbe1c0438	-0.15235984
230	0xbdde9f15	-0.10870186
231	0xbc8678eb	-0.01641508
232	0x3de8c80d	0.11366282
233	0xbe946b6b	-0.28988203
234	0x3ea2d515	0.31803194
235	0x3e23c60c	0.15993518
236	0xbe123633	-0.14278488
237	0xbd038d26	-0.03211703
238	0xbcf0caa4	-0.029393502
239	0xbc4df354	-0.012570221
240	0xbe220d79	-0.15825452
241	0x3dc883c3	0.097907566
242	0x3e5a73ed	0.21333285
243	0x3eb675c4	0.35636723
244	0x3d6032ba	0.054735877
245	0x3e0aaf63	0.13543467
246	0x3de5a8a8	0.11213809
247	0x3dc1dcf5	0.09465972
248	0x3e260db1	0.1621616
249	0xbe43e12d	-0.19128866
250	0x3ce30ba6	0.027715515
251	0xbe1f85f5	-0.15578444
252	0xbdb9b487	-0.09067636
253	0xbe9d28bc	-0.3069514
254	0xbda8f653	-0.082501076
255	0xbdb42f3a	-0.0879807

critic.2.bias f4 [64]
0	0x3b3e4776	0.0029034293
1	0xbc21ca3b	-0.009874876
2	0xbcaa5534	-0.020792581
3	0xbbb87b7a	-0.005629954
4	0xbc9bee3e	-0.019034501
5	0x3bbd1378	0.005770143
6	0xbbf6af68	-0.0075282343
7	0x3c256688	0.010095246
8	0xbc08c572	-0.008347856
9	0x3b6518ac	0.0034957333
10	0xbc2f95b4	-0.010716844
11	0x3baa4fed	0.005197516
12	0x3c0f9340	0.0087631345
13	0xbbbe0e81	-0.005800069
14	0xbbcd3874	-0.0062628333
15	0xbbcb54c6	-0.006205174
16	0x3a8ccaa3	0.0010741543
17	0x3c17fad1	0.009276108
18	0x3c5b5bde	0.013388602
19	0x3c134dde	0.008990733
20	0x3c8ccf34	0.017188646
21	0x3ac72482	0.0015193375
22	0xbb1a40c4	-0.0023537138
23	0xbc1b08dc	-0.009462561
24	0xbc4f86db	-0.012666429
25	0xbc93bb6d	-0.018033708
26	0x3ccc2f9e	0.02492505
27	0x3c8c1bda	0.017103124
28	0x3bda2043	0.006656678
29	0xbc57ee19	-0.0131793255
30	0x3ba69cbd	0.0050846026
31	0xbba433fc	-0.00501108
32	0xbcdbbe50	-0.026824147
33	0xbbca1160	-0.006166622
34	0xbb0d8af3	-0.0021597713
35	0x3b92a033	0.0044746636
36	0x3c7a275a	0.015268171
37	0x3b4afb0e	0.0030972394
38	0x3a1b6b2c	0.00059287506
39	0xbbaf568d	-0.005350894
40	0x3c3e5e54	0.011619169
41	0x3c1fb6ce	0.009748174
42	0xbd2a87a9	-0.04163328
43	0x3c39a2eb	0.011330347
44	0x3c7e3f87	0.015518076
45	0x3c382ffa	0.011241907
46	0xbc08cb6d	-0.008349282
47	0xbb436e06	-0.0029820218
48	0xbc122123	-0.008919033
49	0x3c8e1cae	0.01734766
50	0xbcefea11	-0.029286416
51	0xbcb3e9ef	-0.021962134
52	0x37eedf7c	2.8475879e-05
53	0x3c8bf355	0.017083803
54	0x3c703c2d	0.0146627845
55	0x3c9d87cf	0.019229798
56	0x3c714660	0.014726251
57	0x3bbedcb0	0.005824648
58	0x3ba182d1	0.0049289246
59	0xbc4fe6fc	-0.012689348
60	0x3cc44023	0.023956364
61	0xbc4966f6	-0.012292614
62	0x3c4cc8a3	0.012499007
63	0xbbbe4892	-0.005806991

critic.4.weight f4 [1, 64]
0	0xbea6ee61	-0.32603744
1	0x3d1c628c	0.03817992
2	0x3d29dbcf	0.04146939
3	0xbe8120e3	-0.25220403
4	0x3e352ddf	0.1769328
5	0xbcaa5b7f	-0.020795582
6	0xbec364fe	-0.38162988
7	0xbe1d410b	-0.15356843
8	0x3d81fcd5	0.06347052
9	0x3ddb5012	0.107086316
10	0x3d3dd942	0.04634977
11	0x3e1575b0	0.14595675
12	0xbd4523a3	-0.04812969
13	0x3ea87cfb	0.32907853
14	0x3e58471b	0.21120875
15	0x3dce0a43	0.10060551
16	0x3d29c44d	0.041446973
17	0xbd6372bd	-0.055529345
18	0xbc90f891	-0.01769665
19	0x3d6d6b1d	0.05796348
20	0xbcfaa1c2	-0.03059471
21	0x3e6dafa7	0.23211537
22	0x3da71e95	0.0816013
23	0xbd24cc80	-0.04023409
24	0x3d0792b1	0.03309888
25	0x3ddb23ac	0.10700163
26	0xbd72b437	-0.059253898
27	0xbcadd966	-0.021221828
28	0xbe1840f3	-0.14868526
29	0x3d9cbd6b	0.07653316
30	0x3e895a94	0.26826918
31	0x3e5b6ae9	0.21427502
32	0x3e13d8f0	0.14438224
33	0x3de03180	0.109469414
34	0xb91b3260	-0.00014800718
35	0xbdd3dec6	-0.10345225
36	0xbd948bc8	-0.07253224
37	0xbe1fe421	-0.15614368
38	0xbe10be2a	-0.14135042
39	0xbdc4cfeb	-0.0960997
40	0xbda74670	-0.08167732
41	0x3e21ec22	0.15812734
42	0x3e2de489	0.1698171
43	0xbd3a8f15	-0.04554661
44	0xbcbae83f	-0.022815822
45	0x3d902d47	0.07039886
46	0x3cd0ce3e	0.025488969
47	0xbeda0869	-0.4258454
48	0x3d91c096	0.07116811
49	0xbdc7bb55	-0.097525276
50	0x3e236767	0.15957414
51	0x3e11d153	0.14240007
52	0x3e7dd01e	0.24786422
53	0xbe30fb1c	-0.1728329
54	0xbc164b38	-0.009173207
55	0xbdbffb99	-0.0937416
56	0xbdc4e057	-0.09613102
57	0xbd88e1f1	-0.0668372
58	0xbd90a8c8	-0.070634425
59	0x3d2a7445	0.04161479
60	0xbdf8dd6c	-0.12151608
61	0x3d488654	0.04895623
62	0xbe077d87	-0.13231479
63	0x3e65eb46	0.22453031
