fw_flightcontrol/models/icinco/ppo/turbonly/ppo_bohn_caps_nohist_easymedrefs_turbonly_6930_04-06_22:42:30.pt (torch, 47144 bytes, 12 tensors)

actor_logstd f4 [1, 2]
0	0xbce4cbea	-0.027929265
1	0xbcebaa52	-0.028767738

actor_mean.0.weight f4 [64, 14]
0	0x3dad7e2f	0.08471333
1	0x3e3144b1	0.1731136
2	0x3d941bde	0.07231878
3	0xbe1f81fb	-0.15576927
4	0x3dee11aa	0.11624463
5	0xbe6609f2	-0.22464731
6	0x3e733f48	0.23754609
7	0x3e2894fe	0.16463086
8	0x3e7b7da8	0.24559653
9	0x3e522c6e	0.20524761
10	0xbe9df5c0	-0.30851555
11	0xbe49968a	-0.19686332
12	0x3e2f06a9	0.17092384
13	0x3e560128	0.20898879
14	0x3d81f35a	0.06345244
15	0x3d69870c	0.057013556
16	0xbea8c763	-0.3296462
17	0xbdee19fb	-0.11626049
18	0xbe32fdfe	-0.17479703
19	0xbdfd4d3d	-0.12368248
20	0x3d49bd7f	0.049252983
21	0x3e0493a2	0.12946942
22	0x3d99dc1f	0.07512688
23	0x3d838dac	0.06423506
24	0xbdef2c07	-0.116783194
25	0xbda22b05	-0.079183616
26	0xbdc99147	-0.098421626
27	0xbdf52b0d	-0.11971102
28	0xbe19e438	-0.15028465
29	0xbdf94089	-0.12170512
30	0x3e703845	0.23458965
31	0xbd13192b	-0.035912674
32	0x3c26352b	0.010144512
33	0xbacdcd32	-0.0015701412
34	0x3ebb8fbe	0.36633104
35	0x3e430f0c	0.19048709
36	0x3dd065ac	0.10175642
37	0xbe4b24a7	-0.198382
38	0xbdad49a6	-0.08461313
39	0xbcb54780	-0.02212882
40	0x3d800bf5	0.062522806
41	0x3c98c2b7	0.018647535
42	0x3d95bf54	0.073118836
43	0xbea97653	-0.33098087
44	0x3cdc795b	0.026913336
45	0x3dd21c81	0.10259343
46	0xbebf2455	-0.37332407
47	0x3d0076ac	0.031363174
48	0xbe35b3f1	-0.17744423
49	0xbdc5118f	-0.0962249
50	0x3ecf5468	0.40494084
51	0x3df3361c	0.11875555
52	0x3e54b7b5	0.20773204
53	0xbf00290a	-0.5006262
54	0x3dac3b05	0.084096946
55	0xbe9555ff	-0.29167172
56	0xbe8e4e90	-0.27794313
57	0x3dfe9a07	0.12431722
58	0x3e694899	0.227816
59	0x3ea2413c	0.31690395
60	0xbe0f41e6	-0.13989982
61	0x3e342ccf	0.17595218
62	0xbca1e905	-0.019764433
63	0xbe5c994b	-0.21542852
64	0xbdac7653	-0.08421006
65	0x3bc27269	0.005934049
66	0x3e6dc806	0.23220834
67	0xbbaa47e6	-0.0051965592
68	0x3de2b71a	0.1107008
69	0xbdbde4be	-0.09272145
70	0xbd87eed1	-0.066373475
71	0x3e583c67	0.21116792
72	0x3e5bcabe	0.21464059
73	0xbe75bb01	-0.23997118
74	0x3ecaeccd	0.3963379
75	0xbdd2906a	-0.10281451
76	0xbc4b0325	-0.012390886
77	0x3dcc505e	0.09976266
78	0x3e9d0087	0.30664465
79	0x3e9ef651	0.310473
80	0x3e837e42	0.25682265
81	0x3c374fae	0.011188431
82	0x3e63434d	0.22193642
83	0xbd7cfc86	-0.061764263
84	0x3d76296d	0.0600981
85	0x3e11cd71	0.14238526
86	0x3cd2d1f3	0.025734877
87	0x3e46998f	0.19394515
88	0xbeb29b69	-0.34884194
89	0xbe22eb02	-0.15909961
90	0xbe401844	-0.18759257
91	0x3ec1830b	0.3779529
92	0x3c363628	0.01112131
93	0x3e390def	0.18071721
94	0xbe95316a	-0.29139262
95	0xbdcc8bee	-0.09987627
96	0x3ec15a70	0.3776431
97	0x3ec1b688	0.37834573
98	0x3dbffd86	0.09374528
99	0xbe9f9a10	-0.31172228
100	0x3e537ab8	0.20652282
101	0xbdc74c74	-0.09731379
102	0x3cb5f100	0.022209644
103	0x3d314159	0.04327521
104	0x3d58a8e7	0.052895453
105	0xbe533d5c	-0.20628875
106	0x3cb162a6	0.021653485
107	0xbda57f9c	-0.0808098
108	0xbc940077	-0.018066628
109	0x3dd28c16	0.102806255
110	0xbdf05264	-0.11734465
111	0x3ea8af36	0.32946175
112	0x3cd9aa16	0.026570361
113	0x3e6a5ead	0.22887678
114	0xbd773a6c	-0.06035845
115	0xbeb42315	-0.35183015
116	0xbb3dff15	-0.0028991152
117	0xbd9fb698	-0.07798499
118	0xbdce51d6	-0.10074203
119	0xbe106a85	-0.14103134
120	0xbd0696a4	-0.032858506
121	0xbde6ff53	-0.11279168
122	0x3d1b23d4	0.037875965
123	0x3ea64d2e	0.32480758
124	0x3e8c18ae	0.2736258
125	0xbe8b3473	-0.27188453
126	0x3e974d55	0.29551187
127	0xbde985f9	-0.114025064
128	0xbdf6d317	-0.12051981
129	0x3e8d81b7	0.27638027
130	0x3e439e1c	0.19103283
131	0x3e634108	0.22192776
132	0xbd0623b3	-0.03274889
133	0xbd54ece1	-0.051983718
134	0x3db8af5c	0.09017822
135	0xbeb8c045	-0.3608419
136	0xbe88ab1f	-0.26693055
137	0xbe471a5c	-0.19443649
138	0x3dfd946a	0.12381823
139	0x3e5730e8	0.2101475
140	0x3c2ff955	0.010740598
141	0x3c984113	0.018585717
142	0x3e13db97	0.14439236
143	0x3dcd2faf	0.100188605
144	0xbe0fe1f8	-0.14051044
145	0x3e66072f	0.22463678
146	0x3e66e7f8	0.22549427
147	0xbdc246c9	-0.094861574
148	0x3ea7453f	0.32670018
149	0xbe095444	-0.13411051
150	0xb93b5abb	-0.0001786751
151	0xbe78f0ba	-0.2431058
152	0xbc77b531	-0.015118883
153	0xbd0f590d	-0.034997035
154	0x3c9639e9	0.01833816
155	0xbde38d29	-0.111109085
156	0x3e38f502	0.18062213
157	0xbe1fede9	-0.156181
158	0xbe979450	-0.2960534
159	0x3e319db9	0.17345323
160	0xbdb49608	-0.08817679
161	0x3e08b69f	0.13350914
162	0x3ddf5db4	0.10906544
163	0xbe8b8067	-0.272464
164	0xbe4868f3	-0.19571285
165	0xbd2ba260	-0.0419029
166	0x3cc422bf	0.02394235
167	0xbe8f837b	-0.2803
168	0x3d1452a0	0.03621161
169	0x3ddd7690	0.108136296
170	0x3ce84a66	0.028355788
171	0xbe1af19a	-0.15131226
172	0xba335363	-0.00068407337
173	0x3978196b	0.00023660592
174	0x3d4b0dd5	0.049573738
175	0xbb3a345b	-0.0028412554
176	0xbe722067	-0.23645173
177	0xbe1b7ac7	-0.15183555
178	0x3e5ab067	0.21356355
179	0xbec39b72	-0.38204533
180	0xbe3db9c1	-0.1852789
181	0x3dff5559	0.12467451
182	0x3e7a3d58	0.24437463
183	0xbb786c10	-0.0037906207
184	0x3e7e2834	0.24820024
185	0xbea972cb	-0.33095393
186	0xbe05310e	-0.13006994
187	0x3ddbd79e	0.10734485
188	0xbd515d88	-0.05111459
189	0xbd12cf95	-0.035842497
190	0xbdb82206	-0.089908645
191	0x3cba6ce4	0.022757001
192	0x3e00aad7	0.1256517
193	0xbe977cf8	-0.2958753
194	0x3e6fa6fc	0.23403543
195	0xbd5f402e	-0.054504566
196	0x3e491083	0.19635205
197	0x3d4a7828	0.049430996
198	0xbe436568	-0.19081652
199	0xbba81daf	-0.0051304917
200	0x3b6a5d34	0.003576112
201	0x3e621284	0.22077376
202	0xbe5da4ca	-0.21644893
203	0x3c4de025	0.012565647
204	0x3ea993ca	0.33120567
205	0x3d021143	0.031754743
206	0x3e978f9d	0.29601756
207	0xbd9b866d	-0.07593999
208	0xbe6c3714	-0.23067886
209	0xbd50e98d	-0.05100398
210	0x3e773f0f	0.24145149
211	0x3ce3bb81	0.02779937
212	0xbcf422ae	-0.029801693
213	0x3ce3b52e	0.027796354
214	0x3e65bcb2	0.22435263
215	0xbd4a869f	-0.04944479
216	0x3e1bf4e5	0.15230139
217	0xbdda7e76	-0.10668652
218	0xbed3c728	-0.41362882
219	0x3dfa7140	0.12228632
220	0x3e08d0bf	0.1336088
221	0xbdb487cd	-0.088149644
222	0x3e168b85	0.1470166
223	0xbec0a4a8	-0.37625623
224	0xbc899350	-0.016793877
225	0xbe910cbc	-0.28330028
226	0x3e6890bd	0.22711463
227	0x3d00e3a9	0.031467114
228	0xbe3a549e	-0.18196341
229	0xbe7c158d	-0.24617596
230	0xbe15df81	-0.14636041
231	0xbe02f00d	-0.12786885
232	0x3dee9314	0.11649147
233	0xbcc5b9bc	-0.024136417
234	0xbde6cefd	-0.11269949
235	0x3e69e0ff	0.22839735
236	0xbe570c56	-0.210008
237	0x3c0f058e	0.008729352
238	0xbc458240	-0.01205498
239	0x3dd22b7b	0.102621995
240	0x3e073102	0.13202289
241	0x3e5fe5a4	0.21864945
242	0x3e3774fa	0.17915717
243	0x3dd3d7a3	0.10343864
244	0xbeec1760	-0.46111584
245	0x3cf0d8ba	0.029400218
246	0x3e024efc	0.12725443
247	0xbd6d706e	-0.05796855
248	0x3990d56f	0.0002762484
249	0x3e64b1a7	0.22333394
250	0xbccf9a06	-0.025341999
251	0xbd601b7f	-0.054713722
252	0xbd87126d	-0.06595311
253	0xbd13f773	-0.036124658
254	0x3eb043df	0.34426782
255	0x3d293bf0	0.041316926

actor_mean.0.bias f4 [64]
0	0x3d298cd1	0.04139406
1	0x38340836	4.292299e-05
2	0x3b5ac76e	0.003338303
3	0xbd96153d	-0.0732827
4	0xba405001	-0.000733614
5	0xbb1fb1ef	-0.0024367531
6	0xbcd76105	-0.02629138
7	0xbb0cd2b2	-0.002148789
8	0x3c5cfca7	0.013487971
9	0x3b704670	0.0036663078
10	0xbacd8ee9	-0.0015682849
11	0xbc27953a	-0.0102284495
12	0x3d1bd792	0.03804738
13	0x3b5917d3	0.0033125773
14	0xbba328a5	-0.0049792104
15	0x3cf8b195	0.030358115
16	0x3c26139e	0.010136513
17	0xba0a8935	-0.00052847277
18	0xbb065bdf	-0.0020501537
19	0xb8ae951e	-8.324742e-05
20	0x3bcfce63	0.006341742
21	0x3a4df6ad	0.0007856887
22	0x3a45c0fa	0.00075437094
23	0xbc8ea092	-0.01741055
24	0xbab8c83f	-0.0014097764
25	0xbc86a4b0	-0.016435951
26	0xbd3ed22b	-0.04658715
27	0x3a9ba9bd	0.0011876147
28	0x3c99cf60	0.018775642
29	0x3bb7d643	0.005610259
30	0x3b21daca	0.0024697059
31	0xbc183899	-0.009290838
32	0xbb2c7dd6	-0.0026320121
33	0x3c0a9b08	0.008459814
34	0xbb63f38a	-0.0034782612
35	0x373ceadf	1.1260358e-05
36	0x3af152de	0.0018411537
37	0xbb3d16b2	-0.0028852639
38	0x3cb4bbac	0.022062145
39	0x3d58ebaf	0.05295914
40	0x3b91e40f	0.0044522355
41	0x3b2d3daf	0.0026434471
42	0xbcc05bbc	-0.023481242
43	0xbb7cf6ca	-0.0038599246
44	0xbc10585e	-0.008810131
45	0x3a2d6597	0.00066145643
46	0x3a3b9295	0.00071553263
47	0xbd5eb550	-0.05437213
48	0x3c966246	0.018357407
49	0x3ac40757	0.0014955801
50	0xb9d4c0f2	-0.00040579546
51	0xbc50fbe6	-0.01275537
52	0x3a8a65c7	0.0010558896
53	0xbc990632	-0.018679712
54	0xba458228	-0.00075343484
55	0x3d016d19	0.031598184
56	0xbc320282	-0.010864856
57	0xb9c25e4d	-0.00037072823
58	0x3cccf9e5	0.025021503
59	0xbd20ee14	-0.03928955
60	0x3b4502b5	0.0030061428
61	0x3cf97d0c	0.030455135
62	0x36f3c7d0	7.2652256e-06
63	0x3d4d7871	0.05016369

actor_mean.2.weight f4 [64, 64]
0	0xbccac0c2	-0.024750117
1	0x3e01c163	0.12671427
2	0xbdb524a9	-0.08844883
3	0x3eb325a5	0.34989658
4	0xbe9b5f99	-0.30346373
5	0xbd77a2a0	-0.060457826
6	0x3ba1d08b	0.0049381903
7	0x3eb8383c	0.35980403
8	0xbcc5e59f	-0.024157343
9	0x3d58ef93	0.05296285
10	0x3dfc6d61	0.1232555
11	0x3d1dcb61	0.038524035
12	0x3e3dcbe8	0.18534815
13	0xbe10df72	-0.14147738
14	0x3e098a37	0.13431631
15	0x3d398f29	0.045302544
16	0x3e29caa9	0.16581215
17	0xbc864371	-0.01638958
18	0x3e446859	0.1918043
19	0x3ca956a7	0.020671202
20	0x3ed0c6c0	0.40776634
21	0xbe2115f5	-0.15731032
22	0xbe401279	-0.18757047
23	0x3cee4b5b	0.029088667
24	0x3eb02b9f	0.3440828
25	0xbe9bc634	-0.30424654
26	0x3df2d0a8	0.11856204
27	0xbe8d6bee	-0.27621406
28	0x3e099fcc	0.13439864
29	0xbc1d598d	-0.00960387
30	0xbcd2c25d	-0.025727445
31	0x3e49b651	0.19698454
32	0x3e99f951	0.30073026
33	0x3e5e3ba9	0.21702446
34	0x3daee305	0.08539394
35	0x3c2d8045	0.010589664
36	0x3d9a4b25	0.07533864
37	0x3bf4db5e	0.0074724397
38	0x3d509a68	0.050928503
39	0xbe38339e	-0.1798844
40	0xbe4aca99	-0.19803847
41	0xbd85df96	-0.06536786
42	0xbcfd7f3b	-0.030944457
43	0x3e06003c	0.13086027
44	0xbdb0c208	-0.086307585
45	0xbd707009	-0.058700595
46	0x3da883db	0.082282744
47	0x3d2ea977	0.042642083
48	0x3dc54567	0.09632378
49	0xbed90254	-0.4238459
50	0x3e9e114d	0.30872574
51	0xbe69d785	-0.2283612
52	0x3da86d12	0.082239285
53	0x3dffab0b	0.12483796
54	0x3d54b099	0.05192623
55	0xbe48dbf0	-0.1961515
56	0x3e817171	0.2528186
57	0x3e04be94	0.12963325
58	0xbdfd4f0b	-0.12368592
59	0x3eab90d7	0.33508942
60	0x3e01a730	0.12661433
61	0xbd83576e	-0.0641316
62	0x3ca8a9c0	0.020588756
63	0xbdddbccf	-0.10827028
64	0xbdde536f	-0.108557574
65	0x3e686de1	0.22698165
66	0x3cb8a371	0.022538872
67	0xbdfa4aa6	-0.12221269
68	0xbdc0c86f	-0.0941323
69	0xbe317476	-0.17329583
70	0x3da1ba4d	0.07896862
71	0xbdbb48fe	-0.091447815
72	0x3d3c40a8	0.0459601
73	0x3d97fc6c	0.074211925
74	0xbe51b8eb	-0.20480697
75	0x3b938087	0.0045014056
76	0x3dcb77f5	0.09934989
77	0x3e387646	0.18013868
78	0xbd304c7e	-0.0430417
79	0x3e76ae93	0.24090032
80	0xbdcab3c2	-0.09897567
81	0xbf0922ce	-0.5356873
82	0xbc8368f7	-0.016041262
83	0x3d287c68	0.041134268
84	0x3e820840	0.2539692
85	0x3ea84a6e	0.32869285
86	0x3dee0a56	0.11623065
87	0xbebee1cf	-0.37281653
88	0x3d03e7ca	0.032203473
89	0x3e49b4ea	0.1969792
90	0x3eccfef4	0.40038264
91	0x3dc41f6c	0.09576306
92	0xbdfd851b	-0.123789035
93	0xbe004f89	-0.1253034
94	0x3e263f07	0.1623498
95	0xbe635eb7	-0.222041
96	0xbdcda140	-0.100405216
97	0x3d9b1769	0.075728245
98	0xbd770d0f	-0.060315188
99	0xbe72547f	-0.23665045
100	0x3d4ab60e	0.049490027
101	0x3dcc1201	0.099643715
102	0x3e5dcd64	0.21660382
103	0xbd62b48a	-0.055347957
104	0x3d4cd203	0.05000497
105	0x3d8df52c	0.069315284
106	0xbd6cf9b7	-0.057855334
107	0x3d435c4b	0.04769544
108	0xbd2a5a77	-0.04159018
109	0xbca87bc7	-0.020566834
110	0x3b0fe873	0.002195862
111	0x3d4022f2	0.046908326
112	0x3e7f6541	0.24940969
113	0x3cb8d461	0.022562208
114	0xbcc921b1	-0.024552198
115	0x3e7583de	0.23976085
116	0x3bfd36cf	0.007727481
117	0x3dd9ea0e	0.106403455
118	0xbd6d9532	-0.058003612
119	0xbefaa767	-0.48955843
120	0x3c152695	0.009103437
121	0xbe469f91	-0.19396807
122	0x3e0f59bb	0.13999073
123	0x3e9ce40e	0.30642742
124	0x3de9e11a	0.11419888
125	0xbdb4a279	-0.08820052
126	0xbe9fd250	-0.31215143
127	0xba6eb479	-0.0009105872
128	0xbdbb89db	-0.09157153
129	0xbeac23e2	-0.33621126
130	0x3e1c51db	0.152656
131	0xbe7029a7	-0.23453389
132	0xbe825604	-0.2545625
133	0xbd8e8556	-0.069590256
134	0x3d387a48	0.04503849
135	0x3d4cb83d	0.04998039
136	0xbde8e721	-0.11372209
137	0xbe660762	-0.22463754
138	0xbceea17f	-0.029129742
139	0x3df6de87	0.120541625
140	0xbe507c07	-0.20359813
141	0xbe12f275	-0.14350303
142	0x3da3655d	0.07978318
143	0xbdd9ba5a	-0.10631247
144	0x3dfb6398	0.122748554
145	0x3dfb57e7	0.122726254
146	0x3db0cd4a	0.08632906
147	0xbf0f9be2	-0.56097233
148	0xbd02fce2	-0.03197945
149	0xbdaa6734	-0.08320466
150	0xbe8fe357	-0.28103134
151	0xbe2ad4d9	-0.16682757
152	0x3e0a8340	0.1352663
153	0xbdf1906b	-0.11795124
154	0x3e3d0558	0.1845907
155	0xbb997205	-0.0046827816
156	0xbea8f136	-0.3299653
157	0xbe385cc7	-0.18004142
158	0xbdd85d25	-0.10564641
159	0xbe21df36	-0.15807804
160	0x3e173c92	0.147692
161	0x3dc413d5	0.09574095
162	0xbe2f8b37	-0.1714295
163	0x3e49201a	0.19641152
164	0xbdd93901	-0.10606576
165	0x3cec9612	0.028880153
166	0x3e774989	0.24149145
167	0x3e3b1056	0.1826795
168	0xbd8fab31	-0.07015074
169	0xbe9789f4	-0.29597437
170	0xbe845a57	-0.25850174
171	0x3e87d8eb	0.26532683
172	0x3e1a068d	0.15041561
173	0x3cc86ad5	0.024465004
174	0xbe85da81	-0.26143268
175	0xbca1a150	-0.01973024
176	0xbddeec0e	-0.108848676
177	0xbcfc07ba	-0.030765403
178	0xbe5d8893	-0.2163413
179	0x3e1568b1	0.14590718
180	0x3e735c52	0.23765686
181	0x3e58a7cd	0.21157761
182	0x3e32dc0c	0.17466754
183	0x3e1606c0	0.14651012
184	0x3e4bb840	0.19894505
185	0xbec9af43	-0.39391527
186	0x3d81ce34	0.06338158
187	0x3d9eb74d	0.077498056
188	0xbdd6d6c7	-0.10490184
189	0x3da21573	0.07914247
190	0x3e8dcdb8	0.27696013
191	0xbcefd0d5	-0.029274384
192	0x3e3267d8	0.17422426
193	0x3e4fd7fe	0.20297238
194	0x3d944fd9	0.07241792
195	0x3d24a39d	0.040195096
196	0xbdcc8edc	-0.09988186
197	0xbde9ea43	-0.11421635
198	0xbd227f4a	-0.039672174
199	0xbe0d2393	-0.13783102
200	0xbde28570	-0.110606074
201	0xbc7ee2bf	-0.01555699
202	0x3de50ac0	0.11183691
203	0x3e612f43	0.21990685
204	0x3e91a2ec	0.28444612
205	0xbe9ce5a4	-0.30643952
206	0xbe5c545c	-0.21516556
207	0x3e8fcd84	0.28086483
208	0xbe2a9f38	-0.166623
209	0x3dad6cc4	0.08468011
210	0x3d98df48	0.074644625
211	0xbe69630d	-0.22791691
212	0xbe9fad00	-0.31186676
213	0x3e55eb98	0.20890653
214	0xbd50a327	-0.050936844
215	0xbec37ab5	-0.38179556
216	0x3d0a38a2	0.033745416
217	0xbe8c741a	-0.27432328
218	0xbdeb0fc2	-0.11477615
219	0x3e390932	0.18069914
220	0x3eb187e5	0.34673992
221	0x3e303ca0	0.17210627
222	0xbea42fe3	-0.32067785
223	0xbd260ec7	-0.040541437
224	0x3d2c599f	0.042077657
225	0xbd588c0c	-0.052867934
226	0xbe0cb0e1	-0.13739349
227	0xbd92ce43	-0.071682476
228	0xbcfe6367	-0.031053258
229	0x3c39d3ce	0.011342002
230	0x3dc98eba	0.09841676
231	0x3dab6e4d	0.083706476
232	0x3e47cd77	0.19511972
233	0xbe5a879d	-0.21340795
234	0xbdfcae84	-0.12337974
235	0x3c6e4c9a	0.01454463
236	0xbd974373	-0.07385912
237	0x3e9da1a6	0.3078739
238	0x3e1c97b9	0.15292253
239	0x3e65c922	0.22440007
240	0xbeaa7f61	-0.33300307
241	0x3d57a7f3	0.052650403
242	0xbe739f40	-0.23791218
243	0xbdfe72a0	-0.12424207
244	0x3d18cc38	0.037304133
245	0xbe1da9d6	-0.15396819
246	0x3e4999e5	0.19687612
247	0x3ce65a53	0.028119242
248	0x3ddf4047	0.10900932
249	0xbdbd3d9b	-0.09240266
250	0xbd4753ba	-0.048663832
251	0x3d44e7ea	0.048072733
252	0x3f07a1f6	0.5298151
253	0xbd8bafeb	-0.06820663
254	0x3dfcad72	0.123377696
255	0x3cca2b62	0.02467889

actor_mean.2.bias f4 [64]
0	0x3c9300ee	0.01794478
1	0x3cd902bd	0.026490564
2	0x3d1ab0e1	0.03776634
3	0x3c8a3862	0.016872589
4	0xbd14264f	-0.036169346
5	0x3c9a771c	0.018855624
6	0x3d2e5cb1	0.042568866
7	0xbcf33f9f	-0.029693423
8	0xbbf83320	-0.007574454
9	0x3d1e5b7c	0.038661465
10	0xbbf49383	-0.007463874
11	0xbbe8f493	-0.0071092336
12	0x3c321cea	0.010871151
13	0x3cc587b6	0.024112564
14	0x3bd68b84	0.0065473933
15	0x3d1a5575	0.037679154
16	0x3c684e5d	0.0141788395
17	0x3c15240c	0.0091028325
18	0xbbe9e93a	-0.0071383985
19	0xbcbf26b3	-0.023333883
20	0xbc378bf0	-0.011202797
21	0x3c06b239	0.0082212025
22	0x3bc42b1f	0.0059865857
23	0xbcb8a7a5	-0.022540877
24	0x3c0e1ce9	0.008673885
25	0xbd35fe7f	-0.04443216
26	0x3a423ba7	0.00074094016
27	0xbd6c0ea9	-0.05763117
28	0xbd0842ea	-0.03326694
29	0xbce7e6d7	-0.028308315
30	0x3d0f0334	0.034915164
31	0xbafaa9af	-0.0019124056
32	0x3d46ddc8	0.04855135
33	0x3be6b2d2	0.00704036
34	0xbd1223e1	-0.035678748
35	0xbcea5e58	-0.02860944
36	0x3d4dea26	0.05027213
37	0x3c300ea4	0.010745678
38	0x3b4c5088	0.003117593
39	0x3cd11baa	0.025525887
40	0xbc84788e	-0.016170766
41	0xbbdd4c4d	-0.0067534805
42	0xbc434600	-0.011918545
43	0xbc9677e6	-0.018367719
44	0xbc067eca	-0.00820894
45	0xbbad2c25	-0.0052848035
46	0xbc8a9c0e	-0.016920116
47	0x3cee526e	0.02909204
48	0x3d0b716c	0.034043714
49	0x3bdda735	0.0067643174
50	0x3c5b39ad	0.01338045
51	0x3ccfcdc4	0.025366671
52	0xbd3a175b	-0.04543243
53	0x3c4129fb	0.011789794
54	0xbd01d8c7	-0.031700876
55	0xbb1e86b3	-0.0024189174
56	0xbca4e552	-0.02012888
57	0xbbdb1cc6	-0.0066867797
58	0xbc9d08e6	-0.019169282
59	0x3c7a1cc5	0.015265648
60	0x3cf0dfe1	0.029403629
61	0x3b7df546	0.003875093
62	0x3c1a062a	0.009400884
63	0xbcec8d46	-0.028875958

actor_mean.4.weight f4 [2, 64]
0	0x3c4def05	0.012569194
1	0x3cb11563	0.021616643
2	0xbd1c4d0a	-0.038159408
3	0xbceaa35d	-0.02864235
4	0xbdcb88bb	-0.09938189
5	0x3e278f8a	0.1636335
6	0xbdb07495	-0.08615986
7	0x3bfa7238	0.0076430105
8	0x3e34a9ed	0.17642947
9	0xbac3113b	-0.0014882454
10	0x3db33485	0.08750252
11	0x3d4a3c23	0.049373757
12	0xb98b11ab	-0.0002652531
13	0xbd98d5dc	-0.074626654
14	0xbe1515e7	-0.14559136
15	0x3d5b09bb	0.053476077
16	0x3df1de7e	0.11810015
17	0xbe5f8763	-0.2182899
18	0x3af824d7	0.0018931878
19	0x3e141bd8	0.14463747
20	0x3d20371f	0.039115068
21	0x3d99b852	0.075058594
22	0xbc8fb683	-0.017543083
23	0xbdd08347	-0.10181289
24	0xbd5ded80	-0.054181576
25	0x3e079048	0.13238633
26	0x3df9ba62	0.12193753
27	0xbb4af8e5	-0.0030971107
28	0xbbefc451	-0.007317104
29	0xbbf92581	-0.0076033478
30	0x3d6e7e5d	0.05822598
31	0x3d878c60	0.06618571
32	0x3e8afe93	0.2714735
33	0x3d28add7	0.04118141
34	0x3d274b64	0.040843382
35	0xbe1255e4	-0.14290577
36	0x3e1920dc	0.14953941
37	0x3dee4ba8	0.11635524
38	0x3af9ffcb	0.0019073425
39	0xbd9effa3	-0.077636026
40	0xbb1655f3	-0.0022939413
41	0xbe496bfc	-0.19670099
42	0xbd6dc297	-0.058046903
43	0xbe49f6e6	-0.1972309
44	0x3d078563	0.033086192
45	0xbd14e363	-0.036349665
46	0xbcad361e	-0.02114397
47	0xbe26a740	-0.16274738
48	0xbd27b33e	-0.040942423
49	0xbe45f600	-0.19332123
50	0x3df7095b	0.12062331
51	0xbd0380eb	-0.032105368
52	0xbd9ff115	-0.078096546
53	0x3e6b8870	0.23001266
54	0x3ce16be1	0.027517261
55	0x3e0871ac	0.13324612
56	0xbdf8147a	-0.121132806
57	0x3b1abcd8	0.0023611095
58	0x3d5ea631	0.05435771
59	0x3cb69462	0.022287551
60	0x3e053f42	0.13012412
61	0xbd298c62	-0.041393645
62	0x3c695e24	0.014243636
63	0xbd0950b8	-0.033524245
64	0xbbf91a69	-0.0076020253
65	0x3c1573d4	0.009121854
66	0xbdbf4227	-0.093387894
67	0xbdac946e	-0.08426748
68	0x3d015ee1	0.031584624
69	0x3d78b120	0.060715795
70	0xbd670910	-0.056405127
71	0x3cf52da8	0.029928997
72	0x3b1ac0e9	0.0023613519
73	0xbc83a4f9	-0.016069876
74	0x3e75b605	0.23995216
75	0xbe3b280c	-0.18276995
76	0x3d5d4919	0.05402479
77	0x3e3aadf4	0.1823042
78	0xbd197910	-0.03746897
79	0xbd2c3307	-0.04204085
80	0xbe195e8a	-0.1497747
81	0x3daff683	0.0859194
82	0xbb0ce4b8	-0.0021498632
83	0x3dcfdaf9	0.101491876
84	0xbe6162e1	-0.22010376
85	0x3e11bad1	0.14231421
86	0x3ceb400c	0.028717063
87	0x3e1f446d	0.15553446
88	0x3be8aa0e	0.00710035
89	0x3ca523c8	0.020158663
90	0xbd7a4a44	-0.06110598
91	0x3d5e449d	0.054264653
92	0x3e431691	0.19051577
93	0x3e26c9e8	0.16287959
94	0xba946eba	-0.0011324503
95	0xbdbc2e0d	-0.09188471
96	0xbd7cef3f	-0.0617516
97	0xbe165c2e	-0.14683601
98	0xbd583d64	-0.05279292
99	0x3e0357b7	0.1282643
100	0x3d40a010	0.047027647
101	0x3d974c73	0.073876284
102	0x3b526e2d	0.0032109127
103	0xbdcccd05	-0.10000042
104	0x3d1b5425	0.037922043
105	0xbb1b9141	-0.00237377
106	0x3e432ed0	0.19060826
107	0xbc885d8b	-0.016646167
108	0x3e35ce88	0.17754567
109	0x3cf36021	0.029708924
110	0xbe450079	-0.19238462
111	0x3e1043c0	0.14088345
112	0x3d4532a4	0.048143998
113	0xbe447395	-0.19184716
114	0xbdc53040	-0.096283436
115	0xbe643f18	-0.22289693
116	0xbd9ea075	-0.077454485
117	0x3d73394f	0.059380826
118	0x3e635b78	0.22202861
119	0x3da3cc1b	0.079979144
120	0x3dac2653	0.08405747
121	0xbc7a5923	-0.015280041
122	0x3e200696	0.15627512
123	0x3e04bb54	0.12962085
124	0xbd5265f4	-0.05136676
125	0xbbfa4ce3	-0.00763856
126	0xbe38b00f	-0.18035911
127	0x3b863375	0.0040954896

actor_mean.4.bias f4 [2]
0	0x383a859c	4.447029e-05
1	0xbb01f4a8	-0.0019829664

critic.0.weight f4 [64, 14]
0	0x3e4e3a81	0.20139505
1	0xbe8077b3	-0.25091323
2	0x3c6c5264	0.01442394
3	0x3d547324	0.05186762
4	0xbe5bd90b	-0.21469514
5	0x3e05c437	0.13063131
6	0xbddc2832	-0.10749854
7	0x3f8c5654	1.0963845
8	0xbcc896c8	-0.02448596
9	0x3cc7a906	0.024372589
10	0xbb31160e	-0.0027021202
11	0x3d7a6e4d	0.061140347
12	0xbdb369f3	-0.087604426
13	0xbd65c07c	-0.05609177
14	0xbdc048a2	-0.093888536
15	0x3dc12de8	0.09432584
16	0x3e0f60f8	0.14001834
17	0xbd8a9293	-0.06766238
18	0x3da79067	0.081818394
19	0xbe1b7824	-0.15182549
20	0xbe034d1e	-0.12822387
21	0x3d7f2ea3	0.062300336
22	0xbd55ad10	-0.052167
23	0x3d9d1799	0.076705165
24	0x3e59cf21	0.2127042
25	0x3d182acf	0.0371502
26	0x3e4a8824	0.19778496
27	0x3e5a9957	0.21347557
28	0x3df2f668	0.118634045
29	0xbd5e659b	-0.054296117
30	0xbeb5bc32	-0.35495144
31	0x3dff7b62	0.12474705
32	0xbc5b2a6d	-0.013376814
33	0xbc9b1b00	-0.018933773
34	0x3ea9baec	0.33150423
35	0xbd802630	-0.06257284
36	0x3d4451ff	0.04792976
37	0x3e983018	0.29724193
38	0x3d4d9254	0.050188377
39	0x3e3a246a	0.18177953
40	0x3d6d02a7	0.057863858
41	0xba857f48	-0.0010185027
42	0xbec3dbca	-0.38253623
43	0x3e62e832	0.22158888
44	0xbd5414ec	-0.051777765
45	0x3d0664fa	0.032811143
46	0x3e1fa319	0.1558956
47	0xbdf06f61	-0.11739994
48	0x3d8a1dd0	0.067439675
49	0x3e0824f2	0.13295344
50	0xbddf8ce0	-0.10915542
51	0xbd2b807d	-0.041870583
52	0xbdff94de	-0.12479566
53	0x3de03bc7	0.109489016
54	0x3e4f25e5	0.202293
55	0x3d2af50e	0.04173761
56	0xbcf99f54	-0.030471481
57	0xbcf7bead	-0.030242288
58	0x3d253627	0.040334847
59	0xbe16d6ff	-0.14730452
60	0xbd7bdadc	-0.061488017
61	0xbe6760bb	-0.22595493
62	0x3dd5ee2d	0.10445819
63	0x3e8393d2	0.25698715
64	0x3d88d39c	0.06680986
65	0x3e1a760d	0.15084095
66	0xbda6c940	-0.08143854
67	0x3d523352	0.051318474
68	0xbed1b6bf	-0.40959737
69	0x3eab51f4	0.33460963
70	0xbedbbd82	-0.4291802
71	0x3e2cf12d	0.16888876
72	0xbb20be26	-0.00245274
73	0x3e0d05c7	0.13771735
74	0xbdf3b0cd	-0.118989564
75	0x3e6f1c5a	0.23350659
76	0x3ef5942c	0.4796461
77	0x3e0de9b0	0.13858676
78	0x3df8b278	0.12143415
79	0x3e001065	0.12506254
80	0x3d714679	0.0589051
81	0x3d107bc0	0.035274267
82	0x3d519ef7	0.05117699
83	0x3e59553a	0.21223918
84	0xbe609eee	-0.21935627
85	0xbe82cc9c	-0.2554673
86	0xbc456d4e	-0.012049986
87	0x3dad2094	0.084534794
88	0x3e0c635f	0.13709782
89	0x3d48b9f2	0.049005456
90	0x3d4df2f7	0.050280537
91	0x3de2246d	0.11042104
92	0x3e337350	0.17524457
93	0xbdbe2f3c	-0.09286353
94	0xbcb6a862	-0.022297088
95	0xbd3a1d7b	-0.04543827
96	0x3e84e55d	0.2595624
97	0xbd6b5748	-0.057456285
98	0xbea3f98a	-0.3202632
99	0x3e93499c	0.28767097
100	0x3c5c1df1	0.013434873
101	0xbe54abcd	-0.20768662
102	0xbde84183	-0.1134062
103	0xbe3ec21a	-0.18628731
104	0x3f093e01	0.53610235
105	0xbf437b69	-0.76360184
106	0xbc8b5279	-0.0170071
107	0x3e9fdb8b	0.31222185
108	0x3d000c08	0.031261474
109	0x3da3e0b7	0.08001845
110	0x3e70c0c3	0.23511033
111	0xbd28a5f0	-0.041173875
112	0x3eaad286	0.33363742
113	0x3e20f73e	0.15719315
114	0xbd9415ed	-0.072307445
115	0x3e6cbf24	0.2311979
116	0xbe5f024d	-0.21778221
117	0x3e3675f0	0.17818427
118	0xbe68b883	-0.22726636
119	0xbe841efb	-0.25804886
120	0xbe0e6136	-0.1390427
121	0x3e73d29e	0.23810813
122	0xbdf39c8e	-0.11895095
123	0x3d8fe7f2	0.07026662
124	0x3d5369b3	0.051614475
125	0x3d986bb4	0.07442418
126	0xbdec8026	-0.1154788
127	0x3e29e529	0.16591324
128	0x3ccc929f	0.024972258
129	0xbe1196fc	-0.14217752
130	0x3d3012fc	0.042986855
131	0xbdaead85	-0.0852919
132	0x3ec2ecdd	0.38071337
133	0xbe0e1df5	-0.13878615
134	0x3e920a8d	0.28523675
135	0x3d70c619	0.05878267
136	0x3d8925a6	0.06696634
137	0xbd8000cb	-0.06250151
138	0xbe52bcee	-0.20579883
139	0xbd0c715c	-0.034287795
140	0xbde089b9	-0.109637685
141	0xbe72b522	-0.23701909
142	0xbd968a2d	-0.07350574
143	0xbe3d5df7	-0.18492876
144	0xbd4a0d79	-0.049329255
145	0x3ddc580e	0.107589826
146	0xbe257b0b	-0.16160218
147	0x3cde240e	0.027116802
148	0xbe9edf4f	-0.31029746
149	0x3ec69c88	0.387913
150	0x3d3e88c4	0.04651715
151	0xbeafcfc8	-0.34338212
152	0xbd33c4d3	-0.043888878
153	0xbe4d674b	-0.20058934
154	0x3e5b6462	0.21425012
155	0x3cc66c42	0.024221543
156	0xbdfec335	-0.124395765
157	0x3e7e88ab	0.24856822
158	0xbc8b7223	-0.017022198
159	0xbe0c53dd	-0.13703866
160	0xbeeb912f	-0.46009204
161	0x3da1017c	0.07861611
162	0x3e3065f4	0.17226392
163	0xbdcb4607	-0.09925466
164	0xbdbe95ab	-0.09305891
165	0xbe4b9ca3	-0.19883971
166	0xba9f32c9	-0.0012145872
167	0x3d195dfd	0.03744315
168	0xbcd1414a	-0.025543828
169	0x3d016a01	0.031595234
170	0x3ae2ea9b	0.001731235
171	0x3e1b3bc4	0.15159518
172	0xbd8511c6	-0.06497531
173	0x3e0c754b	0.13716619
174	0xbed7c37e	-0.42141336
175	0xbd03d1bc	-0.03218244
176	0x3d78c3f4	0.06073375
177	0xbe873ee7	-0.26415178
178	0xbbf84ad1	-0.007577278
179	0xbdb64a59	-0.089008994
180	0x3cbc8a7e	0.023015257
181	0x3e1657a2	0.14681867
182	0x3dcedfed	0.10101304
183	0x3d8d5277	0.069004945
184	0xbe4129b3	-0.18863563
185	0x3c772a16	0.015085718
186	0xbda8cb76	-0.08241932
187	0x3e996e5d	0.29967013
188	0x3e60084b	0.21878164
189	0x3e6d53e4	0.23176533
190	0x3b69df15	0.0035685946
191	0xbdef150e	-0.11673938
192	0xbea697a9	-0.32537583
193	0x3b2f57c7	0.00267552
194	0xbdaaf994	-0.083483845
195	0x3b812ffc	0.0039424878
196	0xbe593586	-0.21211824
197	0x3d628891	0.05530602
198	0x3e4da9aa	0.20084253
199	0x3f0851be	0.5324973
200	0xbd879571	-0.066203006
201	0x3b48c464	0.0030634636
202	0xbd910589	-0.07081134
203	0x3db8557e	0.09000681
204	0x3e806a98	0.25081325
205	0x3d0984da	0.033573963
206	0x3dfb5a8b	0.12273129
207	0x3e1149d2	0.14188316
208	0x3ea2f673	0.3182865
209	0xbd7682e0	-0.060183406
210	0x3e17fee1	0.14843322
211	0x3d9360e4	0.07196215
212	0x3ec99a50	0.39375544
213	0x3e06e572	0.13173464
214	0xbebb50ff	-0.36585233
215	0x3e4802dc	0.19532341
216	0xbe428e70	-0.18999648
217	0xbe55bc5e	-0.20872638
218	0x3c82fbe2	0.015989248
219	0x3deb00b0	0.114747405
220	0x3e0a0d8e	0.13481733
221	0x3c910e33	0.017706966
222	0x3e1c131e	0.15241668
223	0xbe9a22bb	-0.30104622
224	0x3e75b460	0.23994589
225	0xbcaffb8b	-0.02148225
226	0xbe41ffd0	-0.18945241
227	0xbe06807d	-0.13134952
228	0xbe390bc0	-0.18070889
229	0x3dc88a83	0.09792044
230	0xbb0ea449	-0.0021765402
231	0xbe91478a	-0.28374892
232	0x3df09420	0.117470026
233	0xbe85a7c9	-0.26104572
234	0xbe5c2b93	-0.21500997
235	0xbd7e34c5	-0.062062044
236	0x3dc2fe43	0.09521153
237	0x3dd3a4c2	0.103341594
238	0xbd9cd4a1	-0.07657743
239	0x3ddbef05	0.10738949
240	0x3e120e08	0.14263165
241	0xbe7b5dc5	-0.24547489
242	0x3c332689	0.0109344805
243	0x3cf9da1b	0.030499509
244	0x3dce8c8b	0.100854
245	0xbe8f3466	-0.27969664
246	0xbea00e5c	-0.31260955
247	0xbcfc21dd	-0.030777866
248	0xbdcad064	-0.099030286
249	0x3d961957	0.07329052
250	0x3e61aef8	0.22039402
251	0x3e08b51f	0.13350342
252	0xbe8d7f8e	-0.2763638
253	0xbe0e34dd	-0.13887353
254	0xbc272d50	-0.010203674
255	0x3c773ac2	0.015089693

critic.0.bias f4 [64]
0	0x3c8f8b4a	0.017522473
1	0xbb419fb0	-0.0029544644
2	0xb9a27d3e	-0.0003099236
3	0x3ce50eae	0.027961101
4	0xbc5e4946	-0.013567274
5	0xbce299f4	-0.027661301
6	0x3ce801fd	0.02832126
7	0xbb5994d2	-0.0033200276
8	0xbc009a30	-0.007849261
9	0xbd2dcaa3	-0.042429578
10	0xbb51cc0d	-0.0032012493
11	0xbc983b75	-0.018583039
12	0xbdc23860	-0.09483409
13	0x3b558104	0.003257812
14	0xbb9889aa	-0.0046550827
15	0x3a1ce58f	0.00059851346
16	0x3bc93049	0.0061397892
17	0x3c16eda7	0.009211934
18	0xbd42761f	-0.04747593
19	0xbb99e9eb	-0.0046970746
20	0x3acb528e	0.0015512274
21	0x3c1aa9c0	0.009439886
22	0x3ad492a4	0.0016218019
23	0x3d009e38	0.03140089
24	0x3dd171f7	0.10226815
25	0xbb932f7c	-0.0044917446
26	0x39fc0981	0.00048072267
27	0xbc751373	-0.01495825
28	0xbd04b5c0	-0.032399893
29	0xbbb70be2	-0.0055861333
30	0x3b75a4e2	0.003748231
31	0x3b8ec4b4	0.004356945
32	0xbb80a48c	-0.0039258655
33	0xbc2d5105	-0.010578399
34	0x35e65c61	1.7163221e-06
35	0xbd834c1c	-0.06411001
36	0xbb1f0cf6	-0.00242692
37	0x3b54c0bc	0.0032463511
38	0x3c71df58	0.014762722
39	0xbd73e068	-0.059540182
40	0xbb405e49	-0.0029353073
41	0x3de8096b	0.11329921
42	0x3cb8894a	0.022526402
43	0xbb199dad	-0.002343993
44	0xbd0931cc	-0.033494756
45	0xbc8cf2b3	-0.017205572
46	0x3a836f43	0.0010027665
47	0x3ad33e0a	0.0016116512
48	0x3cb7030b	0.022340318
49	0xbb116b81	-0.0022189321
50	0x3c192bae	0.009348793
51	0x3b8e4c63	0.004342602
52	0xbb197eb7	-0.0023421475
53	0x3df0e517	0.117624454
54	0x39844e9e	0.00025235576
55	0xbb04dc6c	-0.0020272983
56	0x3cc28e6d	0.023749555
57	0x3d763ce3	0.06011666
58	0x3be6b1d9	0.007040244
59	0xbb881ceb	-0.004153838
60	0x38b5d5cc	8.670575e-05
61	0xbdead5bd	-0.114665486
62	0xbc1f0d8e	-0.0097078215
63	0x3c469942	0.0121215

critic.2.weight f4 [64, 64]
0	0xbda888c5	-0.08229212
1	0xbd62ef26	-0.05540385
2	0xbd13fa54	-0.036127403
3	0xbdc72f8d	-0.097258665
4	0xbe1d5ab0	-0.15366626
5	0xbbe68680	-0.0070350766
6	0xbe952faa	-0.29137927
7	0x3e0c654a	0.13710514
8	0xbe3bcaf1	-0.18339135
9	0xbe139350	-0.14411664
10	0xbd8e423d	-0.06946228
11	0xbe8a3cef	-0.26999614
12	0xbec3ad52	-0.3821817
13	0x3e2b30f5	0.16717894
14	0xbee639f3	-0.44966087
15	0xbe5582e7	-0.20850717
16	0xbe1c99ae	-0.15292999
17	0x3d54c2c0	0.05194354
18	0xbe3b0260	-0.18262625
19	0x3ebbdc6b	0.36691603
20	0xbcc00f56	-0.023444813
21	0x3e22d476	0.1590136
22	0x3df38be2	0.11891915
23	0x3dd2309a	0.10263176
24	0x3e6408b8	0.22268951
25	0x3cb48d3e	0.022040006
26	0x3e2876f6	0.1645163
27	0x3d49da3e	0.049280398
28	0x3e9b153c	0.30289638
29	0xbeaa1c8f	-0.33224913
30	0xbd6f115c	-0.058366165
31	0x3ea78d94	0.32725203
32	0x3de5e654	0.11225572
33	0xbddc9357	-0.1077029
34	0xbde083cb	-0.109626375
35	0xbd690b0f	-0.056895312
36	0x3d63c983	0.0556121
37	0xbac1fa35	-0.0014799299
38	0x3e00f155	0.12592061
39	0x3e1668ed	0.14688464
40	0xbe05b285	-0.13056381
41	0xbd97d3ca	-0.074134424
42	0xbdef4130	-0.116823554
43	0xbe364fa3	-0.17803816
44	0xbdacc30c	-0.0843564
45	0x3bec68c3	0.007214637
46	0xbe2f953a	-0.17146769
47	0xbce9b784	-0.02852989
48	0x3d6efe19	0.058347795
49	0xbe0a77f9	-0.13522328
50	0x3ba1b961	0.004935429
51	0x3e72c5ed	0.23708315
52	0x3e293df6	0.16527542
53	0xbdd5590d	-0.10417376
54	0x3da9f956	0.0829951
55	0xbe060bb3	-0.130904
56	0xbc774093	-0.015091079
57	0x3e0d101f	0.13775681
58	0x3e91035e	0.2832288
59	0xbd8dba52	-0.069203034
60	0xbe92f5cb	-0.2870315
61	0xbeda4221	-0.42628577
62	0x3c266fe2	0.010158511
63	0x3e782288	0.24231923
64	0x3cc1fccb	0.023680111
65	0x3cf7b302	0.030236725
66	0x3e84e8f8	0.2595899
67	0xbc97f6b2	-0.01855025
68	0xbe2baff0	-0.16766334
69	0xbdc9edc2	-0.09859802
70	0x3c056033	0.008140611
71	0xbeffa8fb	-0.4993361
72	0x3e33e098	0.17566144
73	0x3dfccfde	0.12344335
74	0xbdb0afbf	-0.08627271
75	0x3bb83332	0.0056213373
76	0x3d8ea18a	0.06964405
77	0xbe71f182	-0.23627284
78	0x3c5817d5	0.013189276
79	0x3de01e24	0.10943249
80	0x3ca212b1	0.019784303
81	0x3db8af01	0.09017754
82	0x3d81dae3	0.063405775
83	0xbe0bfc06	-0.13670358
84	0x3ea44d1f	0.3209009
85	0x3dffe6d5	0.124951996
86	0x3df8c413	0.12146773
87	0x3c97f564	0.018549629
88	0xbdb789d5	-0.08961836
89	0xbe079da3	-0.13243727
90	0xbe88433d	-0.266138
91	0x3e5cdd2e	0.21568748
92	0x3e276895	0.16348489
93	0x3e871583	0.263836
94	0xbe75b042	-0.23993018
95	0x3b4d502f	0.003132831
96	0x3e2a2ce7	0.16618691
97	0xbe5de6b4	-0.21670038
98	0x3e142378	0.14466655
99	0xbd100eaa	-0.035170235
100	0x3d7728b7	0.060341563
101	0x3dc3f8d1	0.09568942
102	0x3e460b4c	0.19340247
103	0xbe6b7589	-0.22994055
104	0xbe46ad62	-0.19402078
105	0xbef0f87f	-0.47064587
106	0x3ca55224	0.02018077
107	0xbeafc720	-0.34331608
108	0xbd2dd246	-0.04243686
109	0xbe845063	-0.2584258
110	0xbeb3c1d4	-0.35108817
111	0xbe6fe697	-0.23427807
112	0x3ddb5385	0.107092895
113	0xbe1ae5af	-0.1512668
114	0x3d9d0390	0.07666695
115	0x3e29bc8e	0.16575834
116	0x3b59ec58	0.0033252444
117	0x3ea91561	0.33024123
118	0xbd28bd97	-0.041196432
119	0xbc32a9ea	-0.0109047685
120	0x3e5d0297	0.21583019
121	0x3ddbe119	0.10736293
122	0x3d2b6d23	0.041852128
123	0xbdb584eb	-0.08863243
124	0xbd1e00d4	-0.03857501
125	0x3c021c99	0.0079413885
126	0xbe7168a3	-0.23575072
127	0xbe3f3d87	-0.18675815
128	0xbe805b48	-0.25069642
129	0x3c16e61b	0.009210135
130	0x3dd227c1	0.10261489
131	0xbe7d5f7f	-0.2474346
132	0x3e562860	0.2091384
133	0x3e411420	0.18855333
134	0x3e882d60	0.26597118
135	0x3dec04bf	0.11524343
136	0x3b1b91cb	0.0023738022
137	0xbe6e90c2	-0.23297408
138	0xbde34a07	-0.11098104
139	0xbc6e054f	-0.014527633
140	0x3e931675	0.2872807
141	0xbdec886c	-0.11549458
142	0xbaf718b0	-0.0018851962
143	0x3d25d121	0.040482644
144	0xbd8ecfb4	-0.0697321
145	0x3ebb75d5	0.36613336
146	0xbd9ea9e4	-0.07747248
147	0x3cb0ea84	0.0215962
148	0xbd5bb34b	-0.053637784
149	0x3e887ea9	0.26659134
150	0x3e38abfa	0.18034354
151	0x3d423d04	0.04742147
152	0xbe9a72f0	-0.30165815
153	0xbda32d55	-0.07967631
154	0xbe270549	-0.1631061
155	0xbe41e3f3	-0.18934612
156	0x3e9aab23	0.30208692
157	0xbe9ac289	-0.30226544
158	0xbdb50f68	-0.08840829
159	0x3b9533e6	0.004553306
160	0xbd1e1250	-0.038591683
161	0x3dc524d2	0.096261635
162	0xbdef7b66	-0.11693458
163	0xbe155c2f	-0.14585947
164	0xbeaabf49	-0.33349064
165	0x3e627842	0.22116187
166	0xbe9c326a	-0.30507213
167	0x3c2c3da3	0.010512742
168	0xbe086005	-0.13317879
169	0x3d57b610	0.052663863
170	0x3eaab294	0.3333937
171	0x3cf640da	0.03006022
172	0x3c91ed43	0.01781333
173	0x3db60099	0.08886833
174	0x3dd7e030	0.10540807
175	0xbe9dffe5	-0.30859295
176	0x3eaeb009	0.3411868
177	0x3e3a712d	0.18207236
178	0xbe08f14e	-0.133733
179	0x3e032416	0.12806734
180	0x3e5e1d3d	0.21690841
181	0xbdd769e8	-0.10518247
182	0xbdc2bc3d	-0.0950856
183	0xbdd8b949	-0.10582215
184	0xbd628dab	-0.055310886
185	0x3d7a38f4	0.06108947
186	0xbc81a0f8	-0.015823826
187	0xbe8ef6fe	-0.27922815
188	0x3e326a43	0.17423348
189	0x3d9abe1d	0.075557925
190	0xbe66e909	-0.22549833
191	0xbcf7d5e2	-0.030253354
192	0x3e8cfa0c	0.2753452
193	0xbd72fe04	-0.05932428
194	0x3db2c891	0.08729661
195	0xbd99a1ef	-0.075015895
196	0x3e52612d	0.20544882
197	0xbe478fcb	-0.19488446
198	0xbbf5d0d9	-0.007501703
199	0x3a62e65c	0.0008655542
200	0x3d0b4222	0.033998616
201	0x3d925f81	0.07147122
202	0xbcea7957	-0.028622312
203	0xbd984149	-0.07434327
204	0x3dadfd2d	0.08495555
205	0x3e345eaf	0.17614244
206	0xbdec1db9	-0.11529107
207	0x3e2282fd	0.1587028
208	0x3e04776f	0.12936185
209	0xbc9e98f6	-0.019360047
210	0x3e62c1bb	0.22144215
211	0x3ee97398	0.45596004
212	0x3e99fcce	0.30075687
213	0xbd2839b7	-0.041070666
214	0xbe0f5586	-0.13997468
215	0xbe5c6e6f	-0.21526502
216	0x3e95e912	0.2927938
217	0x3d71bbb3	0.059016895
218	0xbdee6214	-0.11639801
219	0xbe415352	-0.1887944
220	0xbd99ca34	-0.0750927
221	0x3d886a4b	0.06660899
222	0xbe960782	-0.29302603
223	0x3d30d234	0.043169215
224	0x3da23f65	0.07922248
225	0x3e333c49	0.17503466
226	0x3d403f1c	0.046935186
227	0xbe253c05	-0.16136177
228	0xbb6e76fa	-0.0036386834
229	0xbe09b53e	-0.13448045
230	0x3d91f729	0.0712722
231	0x3dd95d66	0.106135175
232	0x3ee2e7b4	0.443174
233	0x3e9d90d5	0.3077456
234	0x3c776216	0.015099069
235	0xbc3f2110	-0.011665598
236	0x3e4b1234	0.19831163
237	0xbdb031f8	-0.08603281
238	0xbcf5f7f2	-0.030025456
239	0xbdeb2106	-0.11480908
240	0x3e3a299c	0.18179935
241	0x3d14351e	0.03618347
242	0xbe9a3426	-0.3011791
243	0x3e22a52b	0.15883319
244	0xbe409c23	-0.18809561
245	0x3e7b9994	0.24570304
246	0xbe0bb804	-0.13644415
247	0x3e66660a	0.22499862
248	0xbe7e4118	-0.24829519
249	0x3e444834	0.19168168
250	0x3d70a57d	0.058751572
251	0xbeb4c0b3	-0.35303268
252	0x3e286bf6	0.16447434
253	0xbe479717	-0.1949123
254	0xbdb05c0a	-0.08611305
255	0x3c8c9aa0	0.017163575

critic.2.bias f4 [64]
0	0x3aefcee1	0.0018295908
1	0x3c22e8dd	0.009943214
2	0x3c7dab58	0.015482746
3	0x3a13a979	0.00056328584
4	0x3b9593a1	0.004564718
5	0xbc813409	-0.015771883
6	0xbbe9ac8a	-0.007131164
7	0xba8e3616	-0.0010849859
8	0xbceaf09a	-0.02867918
9	0xbc747648	-0.014920779
10	0x3b498193	0.0030747398
11	0x3a18b171	0.00058247807
12	0xbb9b4f58	-0.004739683
13	0xb70c49c5	-8.361826e-06
14	0x3bb02648	0.005375657
15	0x3c98f2d2	0.018670473
16	0x3c2dde29	0.010612049
17	0x3c2894fc	0.010289427
18	0xbc4a8408	-0.01236058
19	0xbbc55910	-0.00602258
20	0xbc9d0443	-0.019167071
21	0xbcaa769e	-0.020808514
22	0x3c4439b0	0.011976644
23	0xbc57ea7a	-0.013178462
24	0x3c9c6e4e	0.019095566
25	0xbc530999	-0.012880706
26	0x3bbc8111	0.0057526906
27	0x3c364fff	0.011127471
28	0xbc81c33d	-0.015840167
29	0xbc55e281	-0.013054491
30	0x3ca77773	0.0204427
31	0x3ca66c9b	0.020315459
32	0x3bcbb914	0.0062171314
33	0xbc7e55eb	-0.015523414
34	0xbc1bfa49	-0.009520122
35	0x3c4af7a0	0.01238814
36	0xbc833a86	-0.016019117
37	0x3bf72f73	0.007543498
38	0xbc066272	-0.008202182
39	0xbc5eb5d3	-0.013593155
40	0x3b844d95	0.004037569
41	0x3d00e630	0.031469524
42	0x3927e42e	0.00016011365
43	0x3c66bea5	0.014083539
44	0xbbf6bff1	-0.0075302054
45	0xbc0dcfaa	-0.008655468
46	0xbb893daf	-0.0041882615
47	0x3a2d0a8b	0.00066009973
48	0x3a8bf4e6	0.0010677844
49	0xba85a1e9	-0.0010195348
50	0xbccce86d	-0.025013173
51	0x3c25c216	0.0101170745
52	0xbcddabe4	-0.027059503
53	0x3c5989c9	0.013277479
54	0xbb300a5a	-0.0026861639
55	0xbb452934	-0.0030084373
56	0x3c2382f0	0.009979948
57	0xbc0e4f6d	-0.008685929
58	0x3c56443e	0.013077794
59	0xbbaace95	-0.005212615
60	0x3c44afe7	0.012004829
61	0xb8c1c6b1	-9.239966e-05
62	0x3b23b063	0.002497696
63	0x3c0fef89	0.008785137

critic.4.weight f4 [1, 64]
0	0x3e528db9	0.20561875
1	0xbe4e0693	-0.20119695
2	0xbec541b9	-0.38526705
3	0x3d833c20	0.06407952
4	0x3de03cdf	0.1094911
5	0x3ce3aa86	0.027791273
6	0x3cebe09d	0.028793627
7	0xbdab2f7c	-0.08358666
8	0x3e50549a	0.20344773
9	0x3d35ed89	0.044415984
10	0xbd922286	-0.07135491
11	0x3d51f077	0.051254716
12	0x3df0e18c	0.1176177
13	0xbdc22315	-0.094793476
14	0x3dd72823	0.10505702
15	0xbce52976	-0.027973872
16	0x3e8b231b	0.2717522
17	0xbd47fbae	-0.048824005
18	0xbdc1933f	-0.09451913
19	0x3d1fef70	0.039046705
20	0x3df45c06	0.119316146
21	0x3e6f9fad	0.23400755
22	0x3c7c7ca8	0.01541058
23	0x3e7e3a85	0.24827011
24	0xbe232a85	-0.15934189
25	0xbdb3e182	-0.087832466
26	0xbe09e5f1	-0.13466622
27	0xbdc67678	-0.09690565
28	0x3e5ef5cf	0.21773456
29	0xbd5e4769	-0.05426732
30	0xbd3d1dbe	-0.046170942
31	0x3dd653d6	0.10465209
32	0xbca226b4	-0.019793846
33	0x3e27edb1	0.16399266
34	0x3e1ad4f3	0.15120296
35	0xbe0a05a1	-0.1347871
36	0x3e319a3b	0.1734399
37	0xbe3a63a2	-0.1820207
38	0x3d8237f6	0.0635833
39	0x3e0f97f3	0.14022808
40	0xbbfa3df8	-0.007636782
41	0xbc151d26	-0.009101188
42	0x3db08419	0.08618946
43	0xbda190ac	-0.07888922
44	0xbcceb098	-0.02523069
45	0xbd90310f	-0.07040607
46	0x3c4c0ed3	0.012454706
47	0x3d912f0c	0.070890516
48	0xbe39afdf	-0.18133496
49	0x3e02735f	0.12739323
50	0x3db92ca3	0.09041717
51	0xbdc7a1cf	-0.097476594
52	0x3d915e66	0.07098083
53	0xbdffc733	-0.12489166
54	0x3e093faf	0.134032
55	0x3e8a4d81	0.27012256
56	0xbd3fe23e	-0.04684662
57	0x3e741905	0.23837669
58	0x3da2937e	0.07938288
59	0x3df4ce72	0.11953439
60	0xbe7cb6f5	-0.24679168
61	0x3db8396b	0.089953266
62	0xbd310a54	-0.04322274
63	0xbe04233e	-0.12904069
