fw_flightcontrol/models/icinco/ppo/actreg/actvar/ppo_bohn_actvarR2_nohist_noatmo_2989_03-06_14:51:48.pt (torch, 46930 bytes, 12 tensors)

actor_logstd f4 [1, 2]
0.12173719 0.09454614
00000000: 5951 f93d 68a1 c13d

actor_mean.0.weight f4 [64, 14]
0.03337158 0.1175838 0.0048852046 0.0994612 -0.075243905 0.23285493 -0.6106281 -0.4924843
-0.15791973 0.02689608 0.18117326 0.10927484 0.13369702 0.06629801 0.2727014 0.10810686
0.18447247 -0.16553909 -0.042026944 -0.28193665 0.09869697 0.10546564 -0.13980801 0.10236373
0.14710173 -0.43100166 0.1747922 -0.0004596946 -0.31912145 -0.33853906 0.0014281376 0.049252443
0.28873202 0.08699292 0.7807947 0.23985247 0.119934715 0.10064304 0.039673604 -0.12192942
-0.081237294 -0.1897514 0.10859217 -0.17082413 0.20405811 0.098230995 -0.083406374 -0.092784174
-0.22499551 -0.08272328 -0.08927541 -0.0963972 -0.1642793 0.08232512 0.10193276 -0.06811989
-0.043321703 -0.16300236 0.078342795 0.111829996 -0.19761592 0.077767104 -0.20305067 0.1389306
0.23823637 -0.20159565 0.12988555 0.10057923 -0.29423055 0.023451084 -0.042044114 0.1313725
-0.27532744 0.1637217 -0.23349397 -0.31786528 -0.17159154 -0.0019670818 0.0045101335 0.08196618
0.022817077 0.018648451 -0.056849495 -0.15464653 0.01022936 0.24003199 -0.40057135 -0.1202715
0.12268728 -0.07506578 -0.04564472 0.08821577 0.10638101 0.38060573 0.12107563 -0.09684501
-0.147221 0.054168426 -0.12783591 0.13614328 -0.029776614 -0.2929189 -0.08527437 0.15730217
-0.053315528 -0.059571818 -0.023030816 -0.29200992 0.25433373 -0.07394024 -0.2673949 0.5763858
-0.21268952 0.046265192 0.12842414 0.33313635 0.15611953 0.2775352 -0.104543 0.029410757
0.04055069 0.13242362 0.22635505 0.016212307 -0.049259473 -0.22638547 -0.035249215 0.08304955
-0.27855083 -0.18010367 0.25922117 0.1692573 0.0769941 -0.32597482 0.21275927 -0.025185099
0.24638684 -0.19507176 -0.030153818 0.09952469 -0.089519225 -0.107065454 -0.12543397 -0.12236679
-0.23426431 0.3368731 -0.49245152 -0.007271269 0.21422291 0.09351143 -0.03193877 -0.1970948
0.06390181 0.18430221 -0.069866374 -0.16599523 -0.15198842 -0.051375292 -0.22745486 -0.09750127
0.36517096 0.2871989 0.16417572 0.19322987 -0.06027754 -0.010436724 0.14180602 0.015019091
-0.24702819 0.092317075 0.12208607 -0.45513257 -0.36004955 0.006044114 -0.0800606 -0.20387077
-0.057460427 0.21615435 -0.034042526 -0.019528506 -0.091722175 0.20189027 0.41105965 0.012937759
-0.0535943 0.05248301 -0.34332865 -0.011226225 -0.18637034 -0.179353 -0.0430591 -0.00920761
0.03164029 0.11936763 0.034390282 -0.2922369 -0.024558773 0.1728613 -0.12272069 0.31704885
0.16075598 0.34378177 -0.16787592 0.009137744 0.25071946 -0.18716073 -0.055645734 -0.13742036
0.10148904 0.1752989 -0.24970713 -0.24278675 -0.14579538 -0.056326393 0.091808476 -0.08149125
-0.17747699 -0.05796148 -0.1463405 0.028399289 -0.0781602 0.20500308 0.2614259 0.08812423
0.15559754 0.08995688 0.20526715 0.34136227 -0.100824885 0.06252404 -0.043864384 -0.34895453
0.10446961 -0.088931166 -0.11311763 -0.23710427 0.21600677 0.004026794 -0.4517227 -0.29614237
-0.0347731 -0.04505875 0.23759907 0.06553729 -0.02392142 0.041529696 0.082102194 0.09949238
-0.2520215 -0.01843885 0.15491304 -0.020505922 0.3251497 0.35139018 -0.00020584257 -0.0082139345
00000000: a3b0 083d c6cf f03d 1114 a03b 50b2 cb3d
00000010: 7a19 9abd 8671 6e3e 2052 1cbf e726 fcbe
00000020: b6b5 21be 2b55 dc3c 7c85 393e 7dcb df3d
00000030: dfe7 083e 40c7 873d 859f 8b3e 2167 dd3d
00000040: 5ae6 3c3e 1483 29be 7224 2cbd 005a 90be
00000050: a321 ca3d 5ffe d73d d529 0fbe 13a4 d13d
00000060: d6a1 163e 40ac dcbe bafc 323e 2a03 f1b9
00000070: e363 a3be fe54 adbe 5930 bb3a eebc 493d
00000080: afd4 933e 5829 b23d 29e2 473f e39b 753e
00000090: 55a0 f53d f01d ce3d ca80 223d 22b6 f9bd
000000a0: bd5f a6bd 314e 42be 9265 de3d 85ec 2ebe
000000b0: 9cf4 503e 552d c93d f6d0 aabd a105 bebd
000000c0: 3965 66be d36a a9bd 07d6 b6bd e56b c5bd
000000d0: d538 28be 139a a83d 1fc2 d03d 7182 8bbd
000000e0: 1972 31bd 17ea 26be 3072 a03d 2007 e53d
000000f0: d45b 4abe 5c44 9f3d 84ec 4fbe d343 0e3e
00000100: 3cf4 733e 176f 4ebe b800 053e 7cfc cd3d
00000110: 63a5 96be 7d1c c03c 7336 2cbd 8386 063e
00000120: b8f7 8cbe a9a6 273e 0b19 6fbe 3dbf a2be
00000130: b1b5 2fbe 28ea 00bb bec9 933b e2dd a73d
00000140: e1ea ba3c a3c4 983c 04db 68bd a95b 1ebe
00000150: 0c99 273c f2ca 753e b017 cdbe e750 f6bd
00000160: 7843 fb3d 16bc 99bd f5f5 3abd 78aa b43d
00000170: 49de d93d c1de c23e 80f6 f73d ad56 c6bd
00000180: 1ac1 16be b6df 5d3d 6be7 02be 2569 0b3e
00000190: 16ee f3bc 77f9 95be 54a4 aebd d213 213e
000001a0: 6261 5abd 9401 74bd 1fab bcbc 5382 95be
000001b0: 0838 823e fb6d 97bd fce7 88be 058e 133f
000001c0: 48cb 59be 9280 3d3d 9e81 033e d990 aa3e
000001d0: ccdd 1f3e 1819 8e3e a41a d6bd d4ee f03c
000001e0: 7b18 263d 0f9a 073e 9ec9 673e accf 843c
000001f0: 4dc4 49bd 98d1 67be 7b61 10bd e215 aa3d
00000200: 379e 8ebe 196d 38be a3b8 843e c951 2d3e
00000210: 15af 9d3d 2ce6 a6be 91dd 593e fb50 cebc
00000220: d54c 7c3e e4c0 47be 2405 f7bc 9ad3 cb3d
00000230: db55 b7bd 2245 dbbd c371 00be 719b fabd
00000240: fce2 6fbe a27a ac3e 9b22 fcbe d343 eebb
00000250: 405d 5b3e ec82 bf3d 3ad2 02bd 38d3 49be
00000260: f4de 823d b8b9 3c3e 1a16 8fbd a7fa 29be
00000270: daa2 1bbe e66e 52bd ede9 68be bfae c7bd
00000280: b0f7 ba3e bc0b 933e ae1d 283e 0dde 453e
00000290: 95e5 76bd cbfe 2abc 9935 113e a212 763c
000002a0: f5f4 7cbe bc10 bd3d 4308 fa3d 2307 e9be
000002b0: 6a58 b8be b40d c63b d0f6 a3bd 80c3 50be
000002c0: a05b 6bbd 9157 5d3e 2d70 0bbd 3ffa 9fbc
000002d0: d6d8 bbbd 53bc 4e3e 6976 d23e e5f8 533c
000002e0: b285 5bbd 6df8 563d c6c8 afbe 33ee 37bc
000002f0: ded7 3ebe 50a8 37be bd5e 30bd 84db 16bc
00000300: 4099 013d 0477 f43d d3dc 0c3d 13a0 95be
00000310: 7b2f c9bc 8d02 313e fc54 fbbd 3a54 a23e
00000320: 379d 243e 2a04 b03e aae7 2bbe 7ab6 153c
00000330: 4d5e 803e 10a7 3fbe c8ec 63bd ecb7 0cbe
00000340: 7cd9 cf3d 8e81 333e 3ab3 7fbe 179d 78be
00000350: 624b 15be 81b6 66bd 1506 bc3d e2e4 a6bd
00000360: 87bc 35be 0469 6dbd 49da 15be a0a5 e83c
00000370: 7412 a0bd 54ec 513e 9ed9 853e 7a7a b43d
00000380: f654 1f3e 503b b83d 8d31 523e 09c7 ae3e
00000390: 477d cebd 9b0c 803d 24ab 33bd 2baa b2be
000003a0: 2af4 d53d 8b21 b6bd 37aa e7bd 76cb 72be
000003b0: e130 5d3e 32f3 833b 3348 e7be f99f 97be
000003c0: 3d6e 0ebd 868f 38bd 2c4d 733e 6a38 863d
000003d0: dbf6 c3bc 0b1b 2a3d 3225 a83d a9c2 cb3d
000003e0: f608 81be 120d 97bc 86a1 1e3e 09fc a7bc
000003f0: 057a a63e 6ae9 b33e 72d7 57b9 bd93 06bc

actor_mean.0.bias f4 [64]
-0.0030561537 0.023413083 -0.060819786 -2.3915352e-06 0.009246778 4.819269e-07 0.0 0.031062
-1.8339573e-05 1.7689931e-08 0.00020391922 0.00059101253 0.0009588066 0.005023072 -0.0005803505 -0.007826081
0.0008145669 0.018277293 0.03645861 0.0015016268 -4.6989697e-08 0.0030070355 0.00021689312 -0.044816352
-0.017084518 -2.7360857e-08 -0.03020547 -0.00046419335 0.027202724 -0.009540097 -7.063582e-05 3.8135267e-06
-0.048094388 -0.01587252 0.0038007128 -0.00095468154 5.9830474e-09 -1.0574607e-09 0.014738971 0.0
-0.024869924 -0.034551743 0.00011922623 0.013520829 -0.0035214373 -0.042072065 0.0008170934 0.024095008
0.0020057638 -1.9600773e-08 0.02751646 5.4609192e-08 0.001559333 0.0038006986 3.167235e-05 -1.1246989e-05
-0.018402709 -0.010160468 0.00025940943 -0.009168724 0.0038504854 1.20495415e-05 -0.08035136 4.6489517e-06
00000000: c049 48bb cbcc bf3c 2b1e 79bd 437e 20b6
00000010: cc7f 173c c45d 0135 0000 0000 bc75 fe3c
00000020: efd7 99b7 92f4 9732 26d3 5539 2eee 1a3a
00000030: 6c58 7b3a 9598 a43b aa22 18ba f638 00bc
00000040: a988 553a 43ba 953c a055 153d 3cd2 c43a
00000050: b8d1 49b3 af11 453b ce6d 6339 5a91 37bd
00000060: d5f4 8bbc 2907 ebb2 7671 f7bc fa5e f3b9
00000070: 3fd8 de3c 114e 1cbc 5122 94b8 e4eb 7f36
00000080: 9ffe 44bd 1607 82bc 6115 793b 9843 7aba
00000090: 7193 cd31 1756 91b0 ba7b 713c 0000 0000
000000a0: 03bc cbbc 2186 0dbd 1809 fa38 7886 5d3c
000000b0: eac7 66bb c253 2cbd 3632 563a e562 c53c
000000c0: 2273 033b 8e5e a8b2 336a e13c 718b 6a33
000000d0: 8862 cc3a 2415 793b edd7 0438 73b1 3cb7
000000e0: 47c1 96bc 1778 26bc 5801 8839 6a38 16bc
000000f0: 6d58 7c3b 6328 4a37 418f a4bd 31fe 9b36

actor_mean.2.weight f4 [64, 64]
0.079247326 0.1543957 -0.01962269 0.026956754 -0.16738991 0.014968166 -0.18435854 0.120220676
0.0056052725 -0.20221458 0.2774274 -0.35614327 -0.086539306 -0.23719299 0.1598868 0.07361694
0.09288549 -0.3149344 0.42157614 -0.5376521 0.05424022 -0.02752548 0.043309517 0.21133049
-0.022915538 -0.10456652 0.25513896 0.23328905 -0.22173436 0.19784544 0.080418214 -0.017392205
0.2427666 0.2535544 0.01775668 -0.03150661 0.13578478 -0.12126514 -0.33731604 0.10641025
0.07120184 -0.01000906 0.01627173 0.33032966 0.18732105 0.09466211 0.21265785 -0.02457515
0.27585614 -0.052193347 -0.21005335 -0.12540033 0.39307952 -0.13911144 0.038899813 -0.066007204
-0.0028753618 0.008960875 0.2304096 0.17440115 -0.037096344 -0.104208 -0.09553419 0.2480478
0.039854027 0.42917073 0.23595718 0.07990552 -0.14503828 -0.3214588 -0.015324812 0.14126454
-0.16668694 -0.3077435 -0.17730433 -0.08062911 0.46889934 -0.059914295 0.22533575 0.17568444
-0.22413364 -0.09434211 0.120270446 -0.19597343 -0.1031803 0.015841303 0.23512816 0.33030558
0.3795253 0.22497784 -0.075206384 -0.22546577 0.0077118827 -0.23407738 -0.10206273 0.07118038
0.19445379 0.034446858 -0.069640756 0.13307557 0.008355151 0.13308445 0.14789638 0.06050584
-0.17865588 -0.14194973 0.19510269 -0.29503554 0.10459466 0.042553876 0.44310266 -0.18059556
-0.0141048925 -0.040285274 -0.2716772 -0.18557929 -0.12668666 -0.12933707 -0.32908463 0.08784512
0.055127364 -0.012681849 0.0061307442 -0.04625706 -0.08978374 0.13228504 -0.20785402 0.1339241
-0.047682047 -0.057344597 -0.19286326 -0.11768701 0.0800055 -0.08138541 0.30282032 -0.09837667
-0.04839151 0.012019564 0.33843514 -0.0710034 0.0064139613 0.064894 -0.032926045 -0.20951916
-0.07208793 0.13152744 0.33536017 0.14489704 -0.21297231 0.09181078 -0.12311595 -0.034725145
0.109329246 -0.24255146 -0.23183355 -0.087404855 0.05888397 -0.16674563 0.080064625 0.087394714
0.15920931 -0.22287588 0.02605202 -0.004303345 -0.107705265 0.40428168 -0.24443345 -0.08092974
0.00036683193 -0.098208554 0.26380926 0.19291978 0.5715655 -0.18028687 0.37491825 0.14272402
-0.03569057 0.5002079 -0.10122725 -0.09661804 0.0053994837 -0.09029918 0.22062835 0.03728473
0.09842357 0.08710877 -0.24359375 0.09361452 -0.024669027 -0.28929603 -0.39166802 0.1861361
-0.08961869 -0.029300325 0.09892505 -0.10457428 -0.11779161 0.13725087 0.115111016 0.21792348
0.07456156 -0.00600152 0.20513736 -0.16549361 0.04557002 0.13252985 -0.039443303 0.22457017
0.062086295 -0.23152664 0.08228169 -0.014543001 -0.114228666 0.04110749 -0.019674247 -0.47589415
-0.20695998 0.34130394 0.10156004 -0.21969278 -0.14506419 -0.010787685 -0.10072404 -0.16550413
-0.15496063 -0.13420163 0.013392415 0.22624744 -0.07373633 0.08235364 0.28409034 0.12023603
-0.1567373 0.09773278 0.13327107 0.39788067 0.2485094 -0.3172548 -0.04280479 0.10609272
0.0017816658 -0.22251295 0.22175579 -0.26157948 -0.15746453 0.04795835 0.06994677 0.41494155
0.06313025 -0.060867514 0.10439325 0.12242406 -0.24308468 -0.23641254 -0.35655132 -0.47550806
00000000: 6c4c a23d e819 1e3e c3bf a0bc 69d4 dc3c
00000010: 4368 2bbe 0a3d 753c 7cc8 3cbe 4236 f63d
00000020: 6fac b73b 5711 4fbe f70a 8e3e 6958 b6be
00000030: 853b b1bd b8e2 72be 5eb9 233e 7ac4 963d
00000040: bf3a be3d 153f a1be d4d8 d73e 91a3 09bf
00000050: fe2a 5e3d 1e7d e1bc 5265 313d 0567 583e
00000060: 5eb9 bbbc f926 d6bd 93a1 823e 53e3 6e3e
00000070: 550e 63be ff97 4a3e 4eb2 a43d 197a 8ebc
00000080: cf97 783e e2d1 813e 7576 913c 130d 01bd
00000090: 2a0b 0b3e dc59 f8bd b0b4 acbe 9eed d93d
000000a0: 45d2 913d 0afd 23bc 4b4c 853c f820 a93e
000000b0: 17d1 3f3e 35de c13d fbc2 593e d351 c9bc
000000c0: 043d 8d3e b1c8 55bd 3a18 57be f268 00be
000000d0: b841 c93e 3b73 0ebe 6955 1f3d c92e 87bd
000000e0: 9170 3cbb a2d0 123c 7ff0 6b3e 3796 323e
000000f0: 56f2 17bd 016b d5bd 6ea7 c3bd 3e00 7e3e
00000100: fa3d 233d 44bc db3e c29e 713e 81a5 a33d
00000110: ea84 14be 3f96 a4be ec14 7bbc a7a7 103e
00000120: fbaf 2abe 8e90 9dbe 448f 35be e020 a5bd
00000130: 9313 f03e b168 75bd 6abe 663e 9fe6 333e
00000140: 4a83 65be 7036 c1bd 5a50 f63d 42ad 48be
00000150: 3150 d3bd 9fc5 813c 70c5 703e d01d a93e
00000160: 2451 c23e 9760 663e ce05 9abd 80e0 66be
00000170: f6b3 fc3b fbb1 6fbe 4406 d1bd 05c7 913d
00000180: e51e 473e 2618 0d3d d09f 8ebd f644 083e
00000190: 0be4 083c 4a47 083e 2672 173e f9d4 773d
000001a0: 91f1 36be 455b 11be 00c9 473e e60e 97be
000001b0: ba35 d63d f94c 2e3d 5ade e23e 0bee 38be
000001c0: 3518 67bc 2c02 25bd 4619 8bbe 7f08 3ebe
000001d0: 26ba 01be f070 04be c87d a8be 24e8 b33d
000001e0: 3bcd 613d 88c7 4fbc 69e4 c83b 0b78 3dbd
000001f0: 8ae0 b7bd bb75 073e afd7 54be 6623 093e
00000200: 404e 43bd 2be2 6abd f27d 45be e305 f1bd
00000210: ecd9 a33d 65ad a6bd 440b 9b3e b579 c9bd
00000220: 2d36 46bd b5ed 443c 5f47 ad3e 3b6a 91bd
00000230: 352c d23b 25e7 843d 76dd 06bd 318c 56be
00000240: d6a2 93bd 21af 063e 54b4 ab3e e45f 143e
00000250: 6a15 5abe 4a07 bc3d 3724 fcbd f43b 0ebd
00000260: 03e8 df3d 695f 78be c665 6dbe 5101 b3bd
00000270: 5130 713d 5ebf 2abe ecf8 a33d 00fc b23d
00000280: c407 233e 9339 64be 0c6b d53c 1303 8dbb
00000290: 9494 dcbd 02fe ce3e c34c 7abe 7ebe a5bd
000002a0: 5953 c039 9121 c9bd 0212 873e c38c 453e
000002b0: 1e52 123f 1f9d 38be 49f5 bf3e 3f26 123e
000002c0: 4630 12bd a00d 003f 3c50 cfbd aedf c5bd
000002d0: 27ee b03b c7ee b8bd 66ec 613e dfb7 183d
000002e0: 4c92 c93d 1566 b23d a470 79be f8b8 bf3d
000002f0: b316 cabc 9c1e 94be b688 c8be 769a 3e3e
00000300: 018a b7bd 3c07 f0bc 3799 ca3d 0a2b d6bd
00000310: ba3c f1bd 7e8b 0c3e 53bf eb3d 5527 5f3e
00000320: bbb3 983d 66a8 c4bb 870f 523e 2877 29be
00000330: a1a7 3a3d e8b5 073e 4d8f 21bd b9f5 653e
00000340: 334e 7e3d 5215 6dbe 4d83 a83d c445 6ebc
00000350: b8f0 e9bd 5460 283d e32b a1bc 66a8 f3be
00000360: 51ed 53be 64bf ae3e b6fe cf3d 25f7 60be
00000370: b58b 14be d5be 30bc 6848 cebd ea79 29be
00000380: 00ae 1ebe 276c 09be dc6b 5b3c 69ad 673e
00000390: 1303 97bd 06a9 a83d 4a74 913e 4f3e f63d
000003a0: be7f 20be 2028 c83d 3678 083e 04b7 cb3e
000003b0: 4079 7e3e 396f a2be 1354 2fbd 2447 d93d
000003c0: c986 e93a 6fda 63be f313 633e bfed 85be
000003d0: 623e 21be fa6f 443d 4140 8f3d 3873 d43e
000003e0: 6f4a 813d 3750 79bd 21cc d53d 77b9 fa3d
000003f0: 31eb 78be 2116 72be e58d b6be cb75 f3be

actor_mean.2.bias f4 [64]
0.014890563 -0.023021918 -0.05346824 -0.004287757 -0.00083176355 0.020462409 0.018937359 -0.02617726
-0.036672562 -0.029321926 0.0032857694 0.035724595 0.012669687 0.050663125 -0.035460286 0.050940175
-0.022378149 0.0064978986 0.029975418 0.014617431 0.0009437643 -0.00968377 0.02533487 0.021052117
-0.0082847085 0.01688543 0.028102875 0.0029348575 0.009873584 -0.015838085 0.0074485866 -0.022120858
-0.007854766 -0.030131526 -0.010063545 0.0026440942 -0.0067184493 0.06134549 0.04655158 -0.036010932
-0.02918219 -0.030934006 -0.017188568 -0.024374902 0.030393621 0.011656881 -0.016156113 -0.0068263197
-0.015108228 -0.0030357144 0.008172123 0.02856191 -0.01875518 -0.003712062 -0.026956657 -0.019812664
-0.0405524 0.0016328937 0.012088293 0.01499594 0.02621438 -0.03884148 -0.03842855 0.025957804
00000000: 8cf7 733c 7698 bcbc 8301 5bbd 5080 8cbb
00000010: b50a 5aba c8a0 a73c 8522 9b3c b171 d6bc
00000020: f835 16bd 8934 f0bc 1056 573b f453 123d
00000030: 8594 4f3c 2384 4f3d ce3e 11bd a5a6 503d
00000040: 6152 b7bc 53ec d43b 028f f53c f37d 6f3c
00000050: f366 773a ada8 1ebc 138b cf3c 7d75 ac3c
00000060: 96bc 07bc 5053 8a3c 0038 e63c bd56 403b
00000070: d0c4 213c dfbe 81bc 4613 f43b cd36 b5bc
00000080: 47b1 00bc 64d6 f6bc 91e1 24bc 8a48 2d3b
00000090: 7026 dcbb 6945 7b3d dfac 3e3d 3380 13bd
000000a0: 7d0f efbc 5069 fdbc 0acf 8cbc e0ad c7bc
000000b0: 0bfc f83c 81fc 3e3c d359 84bc 52af dfbb
000000c0: 8088 77bc d6f2 46bb 5ee4 053c abfa e93c
000000d0: 77a4 99bc 1146 73bb 35d4 dcbc 2b4e a2bc
000000e0: 461a 26bd d206 d63a fa0d 463c 88b1 753c
000000f0: 8abf d63c 3e18 1fbd 4167 1dbd 76a5 d43c

actor_mean.4.weight f4 [2, 64]
0.13865694 0.18687473 -0.02466387 -0.1668277 -0.33190736 -0.17947602 -0.18947358 0.102754176
-0.095122136 -0.13748609 -0.07450779 -0.061507035 -0.09218691 -0.08996833 0.029660769 -0.059272416
0.10378545 -0.036993373 -0.08027967 0.20887639 0.0030049724 -0.03971406 0.22995317 -0.039430518
0.0072313445 0.014726075 -0.14538804 0.09031061 -0.020540114 0.08441113 -0.04166467 -0.042625647
-0.2314371 0.18092504 -0.08447775 -0.0060119987 0.1317077 0.00956427 0.2396642 0.10725894
-0.21396893 -0.16620848 -0.0055922437 -0.009743124 -0.020879464 0.15947925 0.09700829 0.22718786
0.053051587 -0.066737056 -0.045071904 -0.019985165 0.030461797 0.21854217 0.17281492 0.021158904
-0.09253947 -0.013126238 0.104322076 0.009597837 0.051289182 -0.21575844 -0.009243882 0.19923855
0.12764457 0.16591763 0.19456016 0.13840137 -0.06897949 0.040074483 0.025349198 -0.19691548
0.13783702 -0.022567198 0.06473462 -0.0598512 -0.043184634 -0.22159275 0.077954054 0.10974332
0.012404331 0.017883377 0.013410963 0.09499877 -0.0005470028 0.26883474 -0.009900802 0.063294075
-0.109089814 -0.01915552 0.055826616 0.2521145 -0.061293494 0.1106102 0.05766135 0.22866397
-0.0110797845 0.06889299 0.17290843 0.10738996 -0.2031059 -0.020146832 -0.0116086425 -0.048524167
-0.21384977 0.04463866 0.09727922 -0.05911738 0.114418894 -0.08288657 0.1317037 -0.12578104
-0.0733584 -0.13919254 -0.11786101 0.007990602 0.08890883 0.05027266 -0.085979424 0.12592831
0.029619345 -0.19800182 0.12303336 0.008978376 0.0244429 0.1225287 -0.052192487 -0.049426742
00000000: 16fc 0d3e 175c 3f3e e20b cabc e1d4 2abe
00000010: c3ef a9be 90c8 37be 5d05 42be c870 d23d
00000020: 65cf c2bd 27c9 0cbe 8a97 98bd cdee 7bbd
00000030: 7ecc bcbd 5141 b8bd 24fb f23c a2c7 72bd
00000040: 778d d43d 5d86 17bd ab69 a4bd b1e3 553e
00000050: 12ef 443b 36ab 22bd d878 6b3e e581 21bd
00000060: eaf4 ec3b a345 713c 9ae0 14be c5f4 b83d
00000070: be43 a8bc bedf ac3d 93a8 2abd 3b98 2ebd
00000080: d9fd 6cbe 6a44 393e ac02 adbd 4d00 c5bb
00000090: 62de 063e 75b3 1c3c 886a 753e 93aa db3d
000000a0: ac1a 5bbe 8e32 2abe 243f b7bb a0a1 1fbc
000000b0: 690b abbc 874e 233e 48ac c63d efa3 683e
000000c0: 9f4c 593d 70ad 88bd 519d 38bd eeb7 a3bc
000000d0: 058b f93c 85c9 5f3e 65f6 303e 7055 ad3c
000000e0: 5585 bdbd 6f0f 57bc d0a6 d53d 3f40 1d3c
000000f0: 9b14 523d c8ef 5cbe a773 17bc 3105 4c3e
00000100: 42b5 023e 50e6 293e c73a 473e 17b9 0d3e
00000110: 1e45 8dbd 2425 243d 1fa9 cf3c 36a4 49be
00000120: 2625 0d3e d8de b8bc 9693 843d 8826 75bd
00000130: 5fe2 30bd 36e9 62be 60a6 9f3d 1bc1 e03d
00000140: 893b 4b3c 2980 923c a8b9 5b3c b78e c23d
00000150: bd64 0fba b5a4 893e f936 22bc 53a0 813d
00000160: 7b6a dfbd 09ec 9cbc 73aa 643d 2715 813e
00000170: e30e 7bbd 9a87 e23d 4f2e 6c3d e326 6a3e
00000180: fc87 35bc c517 8d3d e80e 313e 44ef db3d
00000190: fefa 4fbe f80a a5bc 2d32 3ebc 47c1 46bd
000001a0: 6ffb 5abe 07d7 363d 543a c73d 1125 72bd
000001b0: 7454 ea3d 6fc0 a9bd 56dd 063e bfcc 00be
000001c0: ee3c 96bd 7d88 0ebe 1d61 f1bd 04eb 023c
000001d0: d515 b63d b4ea 4d3d fb15 b0bd 5af3 003e
000001e0: 45a4 f23c fdc0 4abe eaf8 fb3d 0a1a 133c
000001f0: 7a3c c83c 54f0 fa3d cac7 55bd b273 4abd

actor_mean.4.bias f4 [2]
0.00011105283 -0.0020198568
00000000: 09e5 e838 935f 04bb

critic.0.weight f4 [64, 14]
0.16367558 0.21711269 0.0127529185 -0.04809043 -0.00430689 -0.050431162 0.4687721 -0.92402244
0.047655296 0.23904523 -0.0333815 -0.0054216282 -0.099643454 -0.12581612 -0.168876 0.09017004
0.012053269 0.19206625 0.049544007 0.16128173 0.07751696 0.18355983 0.007851126 -0.12045478
-0.011815882 -0.006698314 -0.16293445 0.016150089 -0.25537568 -0.23045951 -0.21131788 -0.04717149
0.021551924 -0.13522078 0.15093686 -0.34473905 0.2096232 0.056235265 0.055711523 -0.00772088
-0.11959201 0.28703842 0.10842099 -0.3498806 -0.14142537 -0.14552975 -0.090967804 0.1121571
-0.18807857 0.2433213 -0.18057974 -0.19845244 0.34400636 -0.025004301 -0.043462586 0.048603635
-0.117276415 -0.02060736 -0.10984974 0.053088278 -0.17045948 -0.12320687 -0.13426104 -0.004286191
0.10771343 0.22384441 -0.061735228 0.0019959358 0.34591982 0.032132693 -0.2326864 -0.2552806
-0.012061655 0.18659832 -0.035559125 -0.010172656 0.29598534 0.038143877 0.17160825 0.49007598
-0.060822017 0.022514455 0.116580985 0.04312289 -0.16401193 0.19540766 -0.0046972483 -0.0102066975
0.12640657 -0.03216529 0.031330805 0.036875308 -0.12171915 0.12088347 0.037961088 0.024091857
-0.105355404 0.26620236 0.092175245 -0.044578005 -0.07290589 0.21107253 0.0074493405 -0.093979314
-0.19572145 0.098348856 -0.3876259 0.40612528 -0.06325327 -0.05628832 0.16255675 0.17352648
-0.07427036 -0.053438738 -0.0806289 -0.07675965 -0.12945542 -0.0009826042 -0.1235546 0.036425762
0.04016541 0.061145127 0.4922575 0.29663858 -0.17714807 -0.23110138 0.12043518 0.21357551
0.38783944 -0.023750905 0.10646193 0.10415695 -0.18858445 -0.12846506 0.025840743 0.065348655
-0.21745072 -0.19136831 0.09454863 -0.17812876 -0.16185203 -0.11039662 -0.14525522 -0.061970506
0.472606 -0.06262279 -0.141006 0.096860014 0.037062317 0.16145083 -0.0028763358 -0.075096235
0.21456397 -0.12211489 -0.07617248 -0.62826985 0.005652496 -0.033579137 -0.10737851 -0.019089349
0.53793854 0.67760086 0.355292 0.078780375 -0.019919 0.053247314 0.1507264 -0.08015397
0.12462062 -0.16486928 0.053593166 0.25565484 0.20975947 -0.2971369 0.18181704 0.09912244
-0.027858535 0.22206025 0.10184929 -0.0011394215 -0.33209816 0.113050625 0.21383834 0.094026454
0.3903812 -0.08749328 0.0026940734 -0.07817835 0.123819076 -0.19898924 0.17851989 -0.28013465
0.30552998 0.024063757 0.19271109 0.085113876 -0.022905372 0.22377695 -0.1857331 0.05764848
-0.1340389 0.097690925 0.0036216707 0.06620127 -0.07144844 0.07185153 0.00030014841 -0.039584227
-0.09012626 0.2618589 0.057144184 0.4240982 -0.0126075335 0.03419758 -0.020632343 0.07059376
0.97673434 -0.16468567 -0.19839868 0.23604493 0.01419316 0.0057495805 0.43110833 -0.26756293
0.116743065 -0.03357343 0.26328748 -0.18092427 0.29957557 0.30437565 0.061350558 0.11473197
-0.077216335 0.117338635 -0.1900316 0.16096842 -0.0957941 0.3711517 0.12339654 0.0731458
-0.23488165 0.07602127 0.081836134 -0.24672264 -0.020272207 0.06938126 -0.07874456 -0.16491719
-0.31480357 0.27665034 0.09575339 -0.030850904 -0.22880144 -0.1653517 0.010040713 -0.13977559
00000000: 929a 273e ca52 5e3e 9ef1 503c 79fa 44bd
00000010: d020 8dbb e890 4ebd e602 f03e bc8c 6cbf
00000020: 3332 433d 46c8 743e 0abb 08bd eaa7 b1bb
00000030: de11 ccbd f1d5 00be d5ed 2cbe 12ab b83d
00000040: 137b 453c 04ad 443e a8ee 4a3d 0a27 253e
00000050: 36c1 9e3d 1cf7 3b3e 02a2 003c ffb0 f6bd
00000060: 6797 41bc 887d dbbb 4ad8 26be 314d 843c
00000070: 9ac0 82be 94fd 6bbe b763 58be e436 41bd
00000080: a98d b03c 5177 0abe 318f 1a3e a381 b0be
00000090: 77a7 563e f356 663d c431 643d 70ff fcbb
000000a0: a8ec f4bd b3f6 923e d30b de3d 8d23 b3be
000000b0: d0d1 10be c005 15be 544d babd 9fb2 e53d
000000c0: ab97 40be 3829 793e e5e9 38be 1e37 4bbe
000000d0: 9a21 b03e d2d5 ccbc d305 32bd 9b14 473d
000000e0: 9e2e f0bd c4d0 a8bc e7f8 e0bd 1873 593d
000000f0: ee8c 2ebe e253 fcbd ba7b 09be 2d73 8cbb
00000100: dc98 dc3d 7837 653e 14de 7cbd 3fce 023b
00000110: 671c b13e 929d 033d 5845 6ebe 24b4 82be
00000120: 3f9e 45bc a113 3f3e 72a6 11bd 36ab 26bc
00000130: 648b 973e c13c 1c3d 13ba 2f3e 3deb fa3e
00000140: 8220 79bd 3c70 b83c 03c2 ee3d a1a1 303d
00000150: bef2 27be f218 483e 60eb 99bb fe39 27bc
00000160: b970 013e c0bf 03bd bb54 003d 900a 173d
00000170: e447 f9bd c191 f73d 167d 1b3d 495c c53c
00000180: 93c4 d7bd ad4b 883e 60c6 bc3d 6d97 36bd
00000190: af4f 95bd 6623 583e 9919 f43b 3a78 c0bd
000001a0: 346b 48be 206b c93d e776 c6be a7ef cf3e
000001b0: ee8a 81bd 958e 66bd 4775 263e edb0 313e
000001c0: 0f1b 98bd 94e2 5abd c420 a5bd 2a34 9dbd
000001d0: f68f 04be baca 80ba 320a fdbd 2e33 153d
000001e0: 7c84 243d 5073 7a3d 2d09 fc3e 03e1 973e
000001f0: 4e66 35be d7a5 6cbe b8a6 f63d 8ab3 5a3e
00000200: e492 c63e 4291 c2bc b608 da3d 3d50 d53d
00000210: 481c 41be 588c 03be f7af d33c 84d5 853d
00000220: 67ab 5ebe 0ef6 43be b6a2 c13d 6367 36be
00000230: 8abc 25be a017 e2bd c9bd 14be c9d4 7dbd
00000240: 6af9 f13e 6140 80bd e063 10be 8b5e c63d
00000250: a8ce 173d 5e53 253e e880 3cbb 0ecc 99bd
00000260: a8b6 5b3e 5f17 fabd 5100 9cbd 4bd6 20bf
00000270: 9338 b93b 478a 09bd 44e9 dbbd 4461 9cbc
00000280: 57b6 093f 4077 2d3f d5e8 b53e 9b57 a13d
00000290: 2c2d a3bc db19 5a3d 0558 1a3e c427 a4bd
000002a0: 1839 ff3d 7ed3 28be 8284 5b3d 31e5 823e
000002b0: 30cb 563e 5422 98be 3f2e 3a3e b500 cb3d
000002c0: 9537 e4bc c363 633e 5c96 d03d a458 95ba
000002d0: c508 aabe 1687 e73d 70f8 5a3e f190 c03d
000002e0: 0be0 c73e ad2f b3bd 0d8f 303b f91b a0bd
000002f0: db94 fd3d d6c3 4bbe ebcd 363e cf6d 8fbe
00000300: 6d6e 9c3e 5b21 c53c 0e56 453e 2f50 ae3d
00000310: 0ca4 bbbc c925 653e d130 3ebe d020 6c3d
00000320: 7e41 09be 2e12 c83d 8d59 6d3b 8894 873d
00000330: 8f53 92bd e526 933d 3d5d 9d39 1223 22bd
00000340: 1e94 b8bd 5f12 863e 0510 6a3d 6623 d93e
00000350: d48f 4ebc c312 0c3d 2905 a9bc 7693 903d
00000360: 430b 7a3f 5ca3 28be 0629 4bbe c3b5 713e
00000370: 6e8a 683c fa66 bc3b 3bba dc3e 02fe 88be
00000380: fd16 ef3d 4b84 09bd 9ecd 863e 3644 39be
00000390: f861 993e 20d7 9b3e b94a 7b3d 98f8 ea3d
000003a0: 9923 9ebd 3d4f f03d a597 42be e8d4 243e
000003b0: b22f c4bd 9807 be3e 53b7 fc3d 77cd 953d
000003c0: d184 70be 0ab1 9b3d b499 a73d dca4 7cbe
000003d0: e611 a6bc c317 8e3d d444 a1bd 0de0 28be
000003e0: ef2d a1be 1da5 8d3e 5a1a c43d 09bb fcbc
000003f0: ed4a 6abe f551 29be cd81 243c 5521 0fbe

critic.0.bias f4 [64]
0.057088472 -0.037853803 -5.019686e-07 2.818559e-05 -0.0051356335 0.05352417 0.086571276 -0.0042071356
-0.0071384157 0.0 -0.002665748 -0.030396445 0.012493232 9.097654e-10 2.2792654e-05 0.011830752
2.5622003e-06 1.3602676e-06 0.030697076 0.003999472 -2.9514196e-08 0.006419426 -0.005698104 -0.12473681
0.0034394173 0.032031894 0.000109120956 -1.3873567e-05 -3.1059e-05 -0.008202127 0.052951913 -0.003343761
0.02591955 2.6100011e-05 -1.6492862e-06 0.0029154683 -0.07357448 -0.0068285055 -0.00032746137 5.886655e-05
0.006057173 0.06644203 6.7759295e-08 0.041183833 0.0077021364 -0.03400323 0.019194143 0.00042209882
-2.9463672e-06 0.0 0.012086257 -0.017494911 0.0078123813 0.0010495366 -0.0013083452 0.0026197184
0.019256238 -4.839528e-06 5.7832294e-06 -0.025920035 0.0 0.011233128 -0.00029009717 2.0923812e-08
00000000: 9ad5 693d 970c 1bbd 05bf 06b5 1870 ec37
00000010: d148 a8bb 293c 5b3d 484c b13d 03dc 89bb
00000020: 5fe9 e9bb 0000 0000 d4b3 2ebb f701 f9bc
00000030: 6ab0 4c3c 0c13 7a30 da32 bf37 c5d5 413c
00000040: 44f2 2b36 7092 b635 6f78 fb3c 010e 833b
00000050: 6786 fdb2 0c5a d23b 29b7 babb 0376 ffbd
00000060: d967 613b e033 033d ded7 e438 84c2 68b7
00000070: 5945 02b8 3762 06bc 1be4 583d 0023 5bbb
00000080: 3c55 d43c 59f1 da37 0b5d ddb5 7111 3f3b
00000090: 38ae 96bd a8c1 dfbb 1faf abb9 7ae7 7638
000000a0: 407b c63b c212 883d 1183 9133 61b0 283d
000000b0: 3462 fc3b f946 0bbd 093d 9d3c 254d dd39
000000c0: 34ba 45b6 0000 0000 7005 463c 7d51 8fbc
000000d0: 01ff ff3b 9b90 893a c87c abba 95af 2b3b
000000e0: 42bf 9d3c 3b63 a2b6 900d c236 4156 d4bc
000000f0: 0000 0000 270b 383c 2f18 98b9 f3bb b332

critic.2.weight f4 [64, 64]
-0.2924671 0.082390726 0.3914024 -0.25046796 0.03984604 -0.14520344 0.21181937 -0.23679487
0.004872725 -0.36921668 0.15200847 -0.08538865 0.19251291 0.04645525 0.010640856 -0.018878244
0.026445795 -0.11680137 -0.14381513 0.33466396 -0.092984304 -0.034552623 -0.11775571 -0.007340344
0.2466331 -0.26792732 0.041145053 -0.057665814 -0.16893753 0.16530289 -0.1660896 0.24679856
0.27008155 -0.33312878 0.28923526 -0.25300533 -0.09712598 0.08051193 0.09530883 0.04621504
0.059614982 -0.0618867 0.03053947 -0.22196004 0.1077308 -0.039730538 -0.025807144 0.29185256
-0.23931764 -0.03220331 -0.066095494 0.005948084 -0.18537495 0.27410933 0.12738617 0.013561725
-0.21044901 -0.44040442 -0.12735526 0.09377307 0.16795725 0.16049291 -0.072372474 0.13199091
-0.45585498 0.3283597 -0.056158245 0.12586756 0.20735095 0.38260958 0.18722163 -0.14611104
-0.013544148 0.028370049 0.22310342 -0.0201725 -0.20618325 0.04841133 -0.16016173 -0.16917741
-0.15306057 0.025727961 -0.16240008 -0.12551624 -0.10360938 0.25782815 -0.10691148 0.18848017
-0.14650157 -0.22224183 -0.124430366 -0.030511519 -0.027409917 0.247978 -0.07066192 0.07549687
0.12824379 0.032752097 -0.24325538 0.0797263 -0.31886894 0.20199335 -0.17680757 0.30701146
0.22435595 -0.048855636 -0.23542506 -0.26233643 0.1661712 -0.12169762 0.11948787 -0.17748512
-0.08037099 0.04712809 0.06768619 -0.009448991 -0.09330935 0.010616481 0.15994945 -0.12685251
0.024594776 0.28163514 -0.31922114 0.3100568 -0.1417204 -0.2922778 -0.091322325 0.026267273
0.1970454 0.0450462 0.22325136 0.13411684 -0.2389235 0.14458029 0.049578357 0.29023722
0.18054752 0.23308687 -0.2899259 -0.120476946 0.028739944 -0.23040202 0.20463866 0.008353537
0.11918767 -0.022458464 0.25737196 -0.052319985 -0.15240984 0.15662935 -0.007959143 -0.060753845
0.21885811 0.059736326 -0.0942691 0.3499707 0.10367312 -0.048616778 0.29224902 0.18252271
0.22716787 0.11256257 0.16440035 -0.12243732 0.049093384 0.17528597 0.08433218 0.1567665
-0.20234045 -0.06297197 -0.14754851 0.117004625 0.25140244 0.1527074 -0.26233163 0.07164262
0.073722176 -0.1737595 0.1008372 0.10508483 -0.013877313 0.3006333 0.35118946 -0.2545525
0.24497496 -0.14443891 -0.045620188 0.3220645 -0.10617415 -0.17542927 0.043866992 -0.30499813
0.07157261 -0.05581327 -0.108321264 -0.17127818 0.09862035 -0.1383084 0.08198087 0.021860711
-0.02320515 -0.33294466 -0.4321153 -0.34564072 -0.0012893489 0.023627192 0.23348428 -0.08818339
0.44785047 -0.09899576 0.076065704 -0.12202455 -0.15093191 -0.11555315 0.030970596 0.13549086
0.0872975 -0.21296173 -0.040999174 -0.038260806 0.18809292 0.16367465 0.085424185 -0.015978381
0.103491805 0.08664214 -0.3367335 -0.21213654 -0.13595667 0.012813538 -0.014688385 -0.074456096
-0.21308136 0.05493574 0.028475426 0.22762807 -0.0069955974 0.32414094 0.39006478 -0.07572358
-0.074696295 -0.10366531 -0.023782337 0.12624538 0.37437993 -0.285878 0.04478454 -0.2092639
-0.07650615 -0.0049249292 -0.14828378 0.0042621167 -0.187215 0.019917006 -0.071983725 0.2530895
00000000: 3fbe 95be 78bc a83d e565 c83e 563d 80be
00000010: 9a35 233d 36b0 14be 2de7 583e 5b7a 72be
00000020: 61ab 9f3b f809 bdbe 1ca8 1b3e 3fe0 aebd
00000030: 1b22 453e dc47 3e3d fc56 2e3c 8ca6 9abc
00000040: daa4 d83c 8f35 efbd 4644 13be 1359 ab3e
00000050: 8e6e bebd 0d87 0dbd e829 f1bd 4587 f0bb
00000060: 638d 7c3e c52d 89be b787 283d fd32 6cbd
00000070: f6fd 2cbe 2945 293e 6413 2abe c3b8 7c3e
00000080: 2148 8a3e db8f aabe a516 943e ea89 81be
00000090: fce9 c6bd 70e3 a43d 4731 c33d fb4b 3d3d
000000a0: d72e 743d e97c 7dbd e92d fa3c 7e49 63be
000000b0: f7a1 dc3d 7dbc 22bd 8169 d3bc b36d 953e
000000c0: af0f 75be 9ee7 03bd 135d 87bd 25e8 c23b
000000d0: eed2 3dbe 0f58 8c3e 8571 023e ff31 5e3c
000000e0: f27f 57be b07c e1be 6b69 02be 180c c03d
000000f0: fcfc 2b3e 4158 243e 0538 94bd a028 073e
00000100: d365 e9be c31e a83e 3006 66bd 6de3 003e
00000110: cf53 543e 67e5 c33e 07b7 3f3e 229e 15be
00000120: 46e8 5dbc 4e68 e83c 3975 643e cc40 a5bc
00000130: b421 53be f54a 463d 7001 24be d83c 2dbe
00000140: e9bb 1cbe 72c3 d23c 354c 26be 5487 00be
00000150: 2831 d4bd 0d02 843e 68f4 dabd f200 413e
00000160: 8204 16be 5d93 63be 59d5 febd 4bf3 f9bc
00000170: c38a e0bc f2ed 7d3e 32b7 90bd 1a9e 9a3d
00000180: 5752 033e 1027 063d f017 79be 8b47 a33d
00000190: ca42 a3be 58d7 4e3e 0b0d 35be 9b30 9d3e
000001a0: 91bd 653e d91c 48bd 4413 71be f650 86be
000001b0: c828 2a3e 9a3c f9bd 0eb6 f43d a9be 35be
000001c0: 8c99 a4bd 6209 413d 0f9f 8a3d f1cf 1abc
000001d0: f918 bfbd c0f0 2d3c cac9 233e a0e5 01be
000001e0: fc7a c93c 7b32 903e f470 a3be c4bf 9e3e
000001f0: 271f 11be 70a5 95be 3307 bbbd 772e d73c
00000200: 45c6 493e 5d82 383d 019c 643e ed55 093e
00000210: 5da8 74be db0c 143e ad12 4b3d f999 943e
00000220: 73e1 383e 53ae 6e3e 2b71 94be 9ebc f6bd
00000230: 0870 eb3c 82ee 6bbe cc8c 513e 46dd 083c
00000240: aa18 f43d d0fa b7bc 42c6 833e 7b4d 56bd
00000250: 5311 1cbe 7263 203e 1167 02bc 06d9 78bd
00000260: 571c 603e 14ae 743d 2810 c1bd 5c2f b33e
00000270: 9352 d43d 6322 47bd aaa1 953e 3ce7 3a3e
00000280: b29e 683e 3487 e63d 9158 283e 6bc0 fabd
00000290: 2516 493d 2a7e 333e 5ab6 ac3d 6687 203e
000002a0: 5632 4fbe 73f7 80bd f516 17be 1fa0 ef3d
000002b0: d2b7 803e 545f 1c3e 5550 86be 5eb9 923d
000002c0: a7fb 963d 03ee 31be bc83 ce3d b736 d73d
000002d0: ab5d 63bc 9cec 993e 1bcf b33e b554 82be
000002e0: b7da 7a3e cbe7 13be 3cdc 3abd a3e5 a43e
000002f0: d571 d9bd bba3 33be e0ad 333d b728 9cbe
00000300: a994 923d 759c 64bd 8ad7 ddbd 8c63 2fbe
00000310: 77f9 c93d b8a0 0dbe 96e5 a73d 3c15 b33c
00000320: ba18 bebc b977 aabe 373e ddbe d2f7 b0be
00000330: 5fff a8ba d08d c13c 8116 6f3e 7e99 b4bd
00000340: a84c e53e 4abe cabd 56c8 9b3d 02e8 f9bd
00000350: e58d 1abe 21a7 ecbd 0cb6 fd3c 1ebe 0a3e
00000360: 08c9 b23d a412 5abe c0ee 27bd 5db7 1cbd
00000370: 6e9b 403e 549a 273e e0f2 ae3d 18e5 82bc
00000380: 83f3 d33d 6f71 b13d 5568 acbe 523a 59be
00000390: 3a38 0bbe e0ef 513c 8da7 70bc 707c 98bd
000003a0: 0032 5abe 4c04 613d 4c45 e93c 5517 693e
000003b0: 533b e5bb cdf5 a53e 92b6 c73e f714 9bbd
000003c0: 5ffa 98bd 7a4e d4bd 2dd3 c2bc 7846 013e
000003d0: baae bf3e 9a5e 92be fe6f 373d 4749 56be
000003e0: 42af 9cbd 4d61 a1bb b4d7 17be 3aa9 8b3b
000003f0: 4ab5 3fbe fd28 a33c 346c 93bd f294 813e

critic.2.bias f4 [64]
0.0032099567 -0.010287283 0.0042693573 -0.013600434 -0.011218217 -0.01595465 0.008126596 -0.011567752
0.0066055353 0.023481915 -0.0052067856 -0.023265228 0.03083182 -0.03563183 0.0028148291 -0.005920336
0.01286583 0.029295817 0.0023350436 -0.024291845 -0.022999713 -0.022434345 -0.030209772 0.0069787996
0.018838683 0.043757915 0.025193391 0.0010865483 0.0054157157 0.015196055 0.015324623 -0.028903928
-0.009630683 0.00079758815 -0.030969333 -0.024927411 0.018030604 0.007454564 0.020267036 0.017943602
0.00037918886 -0.016693931 -0.0041295798 -0.014582114 0.01862657 -0.023316821 -0.009758808 -0.0110101905
-0.015580349 -0.02621262 -0.013458298 -0.034325406 -0.034374233 -0.008602438 0.031235322 0.014644812
-0.0014308309 0.023864744 0.024055602 -0.0016460605 -0.01288815 0.0054690484 -0.024068702 0.0026032839
00000000: 235e 523b fe8b 28bc f7e5 8b3b 5bd4 5ebc
00000010: 9dcc 37bc 53b3 82bc 6a25 053c ab86 3dbc
00000020: 3f73 d83b 255d c03c af9d aabb b896 bebc
00000030: 0393 fc3c aff2 11bd ff78 383b 61ff c1bb
00000040: 34cb 523c c8fd ef3c 8807 193b b1ff c6bc
00000050: e569 bcbc 3bc8 b7bc 7c7a f7bc 6aae e43b
00000060: 9553 9a3c 803b 333d 5f62 ce3c 836a 8e3a
00000070: 5176 b13b e0f8 783c 2114 7b3c eec7 ecbc
00000080: 03ca 1dbc 3c15 513a 66b3 fdbc 9234 ccbc
00000090: ebb4 933c 6a45 f43b 0e07 a63c 76fe 923c
000000a0: decd c639 b6c1 88bc 6d51 87bb d2e9 6ebc
000000b0: c096 983c eb02 bfbc 68e3 1fbc 1664 34bc
000000c0: b844 7fbc d9bb d6bc 3180 5cbc cc98 0cbd
000000d0: ffcb 0cbd 3df1 0cbc 38e1 ff3c cbf0 6f3c
000000e0: b88a bbba ff7f c33c 4110 c53c a0c0 d7ba
000000f0: d228 53bc b435 b33b ba2b c5bc db9b 2a3b

critic.4.weight f4 [1, 64]
-0.07124644 -0.15459263 0.12081337 0.14201371 0.04425795 0.08668188 0.25385818 0.040776618
-0.012858245 -0.10164885 -0.1700974 0.07049668 -0.088639274 0.15884389 -0.0670148 0.061981846
0.027143685 -0.030361481 0.35422716 0.15764672 0.0713309 0.08878733 0.076373585 -0.26322404
-0.10870205 -0.15283766 -0.067531236 0.05840805 -0.084415525 -0.07355736 -0.27428082 0.11129215
0.17980006 0.23413512 0.06334775 0.09599537 0.02653356 0.040480603 -0.14758441 -0.16234402
-0.36377308 -0.09735393 0.1368294 0.019700412 0.044999134 0.05086699 0.3509656 -0.2561494
0.15068641 -0.065704405 0.12716945 0.22369008 0.09038218 -0.01853117 -0.14543423 -0.122274496
-0.14506702 -0.03209691 -0.1484828 -0.219054 0.00600907 -0.21436764 0.15345861 0.116071776
00000000: a7e9 91bd 884d 1ebe 006d f73d 0b6c 113e
00000010: d347 353d 4586 b13d b3f9 813e 6205 273d
00000020: 63ab 52bc 462d d0bd 032e 2ebe 9060 903d
00000030: 8288 b5bd f9a7 223e 0e3f 89bd ade0 7d3d
00000040: 6f5c de3c a4b8 f8bc 435d b53e 246e 213e
00000050: ef15 923d 22d6 b53d c169 9c3d 4dc5 86be
00000060: 2e9f debd 7a81 1cbe d14d 8abd 483d 6f3d
00000070: 0ce2 acbd 3ea5 96bd 896e 8cbe 24ed e33d
00000080: 821d 383e 1ec1 6f3e 77bc 813d 3899 c43d
00000090: e95c d93c fdce 253d 5e20 17be 833d 26be
000000a0: 7740 babe 7f61 c7bd 021d 0c3e c262 a13c
000000b0: 0351 383d e859 503d c3b1 b33e 0426 83be
000000c0: 8a4d 1a3e 0890 86bd b538 023e 030f 653e
000000d0: 4b1a b93d aece 97bc b6ec 14be 0d6b fabd
000000e0: 738c 14be 0d78 03bd e00b 18be b14f 60be
000000f0: bce7 c43b 3183 5bbe 4124 1d3e 0ab7 ed3d
