fw_flightcontrol/models/icinco/ppo/actreg/actvar/ppo_bohn_actvarR2_nohist_noatmo_4508_03-06_14:51:38.pt (torch, 46930 bytes, 12 tensors)

actor_logstd f4 [1, 2]
00000000: 57e1 c43d 7b45 dd3d
0.09613293 0.10804268

actor_mean.0.weight f4 [64, 14]
00000000: 5852 eabd 52cb 823d 665e 91be ed0d 993d
00000010: f905 2cbe 6c28 5fbe 51ce d5bd e2f3 273e
00000020: e55e 463d 64a7 d13d 9236 1bbd 62c4 96be
00000030: c913 86be 9b80 84be 3219 5ebd a524 9a3d
00000040: c465 213e 1a5a 60bd 16bd bdbd 52ef 7ebe
00000050: 0208 e6be 362a 61bc 4b66 95bd 0d5c 1a3e
00000060: 2488 30be 842d 193e 0873 e73d 7b28 a03d
00000070: 3382 62bb b72c e33d fff8 523e 03b1 1ebe
00000080: 38e4 d03d 5ddd 223e ca94 c23d 9e3c 6a3e
00000090: 4a93 73bb 8b91 683d be2c 61be 9fa3 85be
000000a0: 7534 613e f0c7 983e aa25 5abd f927 e53c
000000b0: 187b 8dbc fcae f2bd fa64 49be d73c 8dbe
000000c0: e0b6 83be 21f0 bc3e efd1 d13d d5f5 c7bd
000000d0: 6665 91bc 2eaa 4e3e 5953 933d 164a b5bd
000000e0: 8000 673d d2d9 403d f187 64be 8bf5 a0bb
000000f0: 3982 763e 3171 b13e 2d72 23be 11cb 1dbc
00000100: d63a 08be 4e16 68bd 25c7 01bf 639e cbbd
00000110: 2d80 973d 234d 823d 53b7 26be 2fd0 503e
00000120: 0822 08bf 32c6 693e 0935 b83e 9d3e fcbc
00000130: 134c 333e ec40 72bd 519b 83bc 1d83 873e
00000140: 8db2 b5bd 89c7 5fbe 8f8f a73d 015e d83d
00000150: c8d1 2b3d a52c b03c 1c7f 2d3e 3cd3 83be
00000160: 7631 073e 1537 b03d f058 52bd 5856 0ebe
00000170: 02f1 c7be 5a1e f33d e191 1abe 685d 75be
00000180: 0801 633e bec3 61be e8b1 273e 1345 c4bd
00000190: 0b60 4bbe b8eb 06bd a4f0 fabd 776e 573e
000001a0: eddb 713e 8c78 19bd e4e2 103d c799 60bd
000001b0: 04a9 033d be44 2a3e 1a19 05be 26ac 743e
000001c0: a1ad e63d aaa6 b03d 4641 6abe e8d4 52bd
000001d0: b656 983d 1ab7 12be f3dd 013e 20fd 67bd
000001e0: 93cb 473e af1a 823d 737d dcbd 564a 61be
000001f0: 97ef 8ebe 1caf dbbd ee99 fabd cc34 9a3e
00000200: 0b85 273c 578e 0abe 3368 69be 98e5 60be
00000210: 80dd c3be 6204 08bf be38 153e 9298 86bd
00000220: bc5a fc3c 410b 88be 9bb6 66bd 06f6 5abc
00000230: 7754 2dbe ce08 c13c 599a 103e dcc9 74be
00000240: 8983 02bc 5bcf 483b ff09 81bc dead 163e
00000250: fe46 973e d72d e63e dc59 50bd dfde e43d
00000260: 841b 0f3e 9d23 103e 7c38 0e3e 60b6 79be
00000270: 6269 82be 6ed1 6f3c 67c5 533e abfe a3bd
00000280: 912d 0cbe acf2 163e de30 cb3c 7447 d03d
00000290: aafc 973e 6a74 e13d 9391 d7bd 2ad5 b93c
000002a0: c108 36be 4d7e b2bd c006 123e 14b6 103e
000002b0: c585 e73d cd88 2a3e 2f65 0d3c 2151 7dbe
000002c0: d944 07bd 01d3 21be 2870 a43e 9feb 21be
000002d0: 59fd 9a3d 4765 573e fb52 8bbd ba52 b33e
000002e0: 2f9e 0fba ec63 4f3e 6a88 263e cf85 aebe
000002f0: bffe a33e e851 05bf 4497 9a3e 4ef0 16be
00000300: 3ab1 49bd 0948 55be 20e2 de3e 1c10 05be
00000310: 2330 013e ef63 823e f572 163c 7991 933e
00000320: fcb0 dcbd cfdc 08be 0af9 d33d da4d 6fbe
00000330: 3b29 37be 32be 6b3e 5696 983e de49 c43d
00000340: 8914 a23e 7c14 7fbd 594b d53c e8f2 70bc
00000350: 195b 35ba 4a62 a13d d05d d3bd 2071 53be
00000360: 02d2 7abd 0b55 b83e 12e2 bdbe a9ac 053e
00000370: 2820 653e d089 74be e814 54bd 983f 063f
00000380: 6ef2 3d3d 839a b6be 2084 d1ba 3ae9 0f3e
00000390: a878 6a3d 2672 9bbd c723 b1be 6133 84be
000003a0: 8f96 583e b3d8 a8bd bb1a 64bd 5e5f 90be
000003b0: 590d 93bd 19af b93d 4e99 393e 430d 36be
000003c0: 11e3 9c3e 8a75 753e 0d28 46be 3e19 3a3d
000003d0: ac1d e5bd 7ce3 b83d df9f c93d 44c7 32bb
000003e0: da0b 8dbd 0dd6 9b3d 4715 2a3e 32f3 803d
000003f0: fb14 cabd 8566 dcbe d690 56bb 68c4 f8bd
-0.11441487 0.063864365 -0.28392333 0.07473359 -0.16799153 -0.21792763 -0.10439742 0.16401628
0.048430342 0.10237005 -0.03789384 -0.29446703 -0.2618697 -0.25879368 -0.054223247 0.07526521
0.15761477 -0.054773428 -0.09264581 -0.24895981 -0.44927984 -0.013742974 -0.072949015 0.15074177
-0.17239434 0.14958769 0.11301237 0.07820221 -0.0034562468 0.11092513 0.20602797 -0.15497212
0.10199779 0.15904756 0.095010355 0.22874686 -0.0037166649 0.056779426 -0.21989724 -0.26101395
0.21992667 0.2984004 -0.053258575 0.027973162 -0.01727061 -0.11849782 -0.19667426 -0.2758548
-0.2572546 0.36901954 0.1024512 -0.097636856 -0.017748546 0.20182106 0.07193632 -0.088520214
0.05639696 0.04708273 -0.22317483 -0.0049120835 0.24073114 0.3465667 -0.15961523 -0.009630934
-0.13303694 -0.056661896 -0.50694495 -0.09942319 0.073974945 0.06362369 -0.1628087 0.20391916
-0.5317693 0.22829512 0.35977963 -0.030791575 0.17509489 -0.059143946 -0.016065272 0.2646722
-0.088719465 -0.2185346 0.081816785 0.10564805 0.04194811 0.021505663 0.1694302 -0.25747097
0.13202462 0.08604256 -0.05135435 -0.13900125 -0.39051062 0.118710235 -0.15094711 -0.23961413
0.22168362 -0.22047326 0.1637646 -0.09583487 -0.19860856 -0.032939643 -0.1225293 0.21038233
0.23619051 -0.037468478 0.03537263 -0.054834154 0.032143608 0.16627786 -0.12997857 0.23893794
0.11263586 0.08625539 -0.22876462 -0.051472574 0.07438414 -0.1432766 0.12682323 -0.056637883
0.19511251 0.06352746 -0.10766115 -0.22001013 -0.27917168 -0.10726759 -0.12236391 0.30118406
0.010224591 -0.13530861 -0.22793655 -0.21962583 -0.3825493 -0.5313169 0.14572427 -0.06572069
0.030804984 -0.26571086 -0.05632649 -0.013364321 -0.16926752 0.023563769 0.14121379 -0.23905128
-0.007965931 0.0030641172 -0.015751837 0.14714763 0.2954635 0.44956848 -0.050866947 0.11175322
0.1397534 0.14076085 0.13888735 -0.24385977 -0.25471026 0.014637334 0.20680772 -0.080075584
-0.13689257 0.1474101 0.024803575 0.101698786 0.29684955 0.11008532 -0.10525813 0.022684652
-0.17776777 -0.08715496 0.14260387 0.14131957 0.113048114 0.16653748 0.008630081 -0.2473798
-0.033024643 -0.15803148 0.32116818 -0.15812539 0.075678535 0.21034728 -0.06802937 0.35024053
-0.0005478588 0.20252961 0.16262975 -0.34086463 0.32030293 -0.52078104 0.30193532 -0.14740106
-0.049241282 -0.2082826 0.43531895 -0.12994426 0.12616019 0.25466868 0.009182681 0.28821924
-0.107759446 -0.13365482 0.10350235 -0.23369542 -0.17886822 0.23021773 0.29802197 0.095844015
0.31656292 -0.062275395 0.026036905 -0.014706351 -0.00069181767 0.07880075 -0.10320628 -0.20648623
-0.061235435 0.36002383 -0.3708654 0.13054146 0.22375548 -0.23880696 -0.05177775 0.52440786
0.046373777 -0.35664758 -0.0015984811 0.14053813 0.057243973 -0.075901315 -0.34597608 -0.2582045
0.21151184 -0.08244457 -0.055689555 -0.2819776 -0.0718028 0.090666 0.18124887 -0.17778496
0.30641988 0.23970619 -0.19351216 0.04543423 -0.111873 0.09027764 0.09844946 -0.0027279416
-0.06887026 0.07609186 0.16609679 0.06296386 -0.09867283 -0.43046966 -0.0032740138 -0.121468365

actor_mean.0.bias f4 [64]
00000000: 5a43 d5b0 631a 8f34 6440 32b6 3275 933c
00000010: 75ce 9b32 0000 0000 6141 f033 79cf d1af
00000020: 455c bb32 7d96 2bbd f4d5 b937 0000 0000
00000030: 0399 1ab7 d740 29bd 1175 babc 9f94 1abd
00000040: aaab 863b 0000 0000 f20d cbbc c86e 45bd
00000050: fd13 77b3 bdb0 e1b9 26c6 dcbb 61fa 98bb
00000060: 1c55 7fba 0000 0000 78d7 0f3b bacc 34bc
00000070: 0000 0000 4047 bfbb 9b2d 763b 0000 0000
00000080: aca8 7631 c972 90bc 5136 1cbc 6525 a6bc
00000090: 7781 2cb9 32b1 143c e789 0034 0000 0000
000000a0: e290 96b8 025d 1139 c86d 633d 9e7a 51b4
000000b0: 1a6e 23bc 640a 10bd dde1 bb3a c44c 54b7
000000c0: 5136 89bc 3e42 0c3d 8f9e 29bd 41ed ab37
000000d0: 81c1 1dbc cdd3 2536 9eee cfbc 0000 0000
000000e0: fb49 143d deb2 41bc e00f 923a b29a 4f31
000000f0: 0b1d 293b 35cb 22b6 cef6 0cbd 8191 3a30
-1.5516932e-09 2.6655024e-07 -2.6561547e-06 0.018000219 1.813826e-08 0.0 1.1187763e-07 -3.8164297e-10
2.1811625e-08 -0.041891564 2.2153348e-05 0.0 -9.214741e-06 -0.0413216 -0.0227609 -0.037739392
0.0041098194 0.0 -0.024786923 -0.048201352 -5.7527348e-08 -0.00043047025 -0.0067374883 -0.0046685194
-0.00097401603 0.0 0.0021948498 -0.011035139 0.0 -0.005837351 0.0037563804 0.0
3.589359e-09 -0.017632859 -0.009534434 -0.020281503 -0.00016451428 0.00907545 1.1971098e-07 0.0
-7.179544e-05 0.00013862926 0.055524617 -1.950925e-07 -0.009974981 -0.03516616 0.001433428 -1.2654058e-05
-0.016749533 0.03424286 -0.04141098 2.0495268e-05 -0.009628654 2.47102e-06 -0.025382336 0.0
0.036203366 -0.01182243 0.0011143647 3.0210399e-09 0.0025804664 -2.4258163e-06 -0.03441506 6.787318e-10

actor_mean.2.weight f4 [64, 64]
00000000: e45c 653e c664 053d 410f 733e 4dd2 0dbd
00000010: d91f 84be b7a2 6cba 18de f7bc bfbf c53d
00000020: ca7a cc3e 6ed5 efbd 6338 7e3e 2cd2 3ebd
00000030: 8a94 bebd f926 3cbd fd90 243d 66da b83e
00000040: bf06 d2be d40e cdbd cf69 c03e a83d 97be
00000050: 6b71 2dbd 6d5d dfbd f21c f13d 034f 90bd
00000060: 898f cb3e 4449 e23b e8bc 853e de53 d2bd
00000070: d0a8 f7bc f512 92bd b27f 863c 0c56 8bbe
00000080: c846 5f3e 2350 b7bd 1456 693d 8a3d 49bd
00000090: b978 81bd d0c5 123e a566 4cbd 5e49 8fbd
000000a0: 79f7 e8bd c563 08be b4eb 963e e732 80be
000000b0: 432a 823e 648d 5bbe 073e 64bd ffd8 cfbd
000000c0: 7b3a e3bd a030 3cbd 2338 35bb 7b89 a4bd
000000d0: bde7 ff3d 457e 97be c673 f03d c0d8 083e
000000e0: 1159 69bb e2d3 a0bd 4638 f03e 0955 a2bd
000000f0: 9e0c 6e3e 79a2 a73d 41bb 96be f0cd cbbc
00000100: 8897 533e 0435 dc3d b303 b83e 218c 723d
00000110: b51a b23e 8e14 2c3e e39d 193e caf7 3bbe
00000120: b4f0 133d 5fef 8cbd ac1d 033e b1a3 05be
00000130: 466e 8e3d 8c1a 6e3e 98b3 0dbd 3d1d cd3c
00000140: 6ed7 38be b388 91bd 542e 773e e69a eebd
00000150: 316f 8c3d f670 473d 0847 233d 0bb8 cdbd
00000160: 5cf9 54be e729 723e 2bdd 19bd 9e78 c3be
00000170: 42ed 873e b537 13bd fc9c fcbd 34ee e6be
00000180: 4134 043c f397 8a3e 0766 abbe 6e1e 14be
00000190: c0c5 cdbd 9dbe 55be a941 bfbd 2a78 f9bd
000001a0: 43f0 613e 7e30 013d 8bca 5b3e 8049 3dbe
000001b0: cabf 223e fcdf 033e 73ca b1bd cb00 c8be
000001c0: 230c 223e e090 023e 43bd a13e 2b5e 853d
000001d0: 0976 9dbe 7b7b 8e3e 0d36 413e 0ea9 febc
000001e0: 6cb7 13be 3bd9 c2bc 2e9b 98be 13f2 803d
000001f0: 01e6 46be 6ae7 313d 631b d63d 71c4 f8bd
00000200: e53d 47bd 1f84 d1be c5bb 893d c49c 4d3e
00000210: 15e9 953e d164 c4bd 7b86 8a3d 740b 833e
00000220: e1d7 d53c c30e cabd 9618 253e 5b14 d3bd
00000230: 6980 35bd 3abf 2bbb f7bd 913e fc6a 153c
00000240: 9707 85bd 4f3a 843e d210 85bc 4e23 bdbd
00000250: c6f1 9dbd c800 79be 54cd 20be 262f 38be
00000260: c9d9 a23e bf9c a33e 69d9 283e 74e7 053e
00000270: 148d 273e 75e8 ca3e 487a 513e fca6 9fbe
00000280: 6583 f0bd 1a8a 47be 76d4 723e 2c2a 15bd
00000290: 9e33 d0bc f6ef ac3c 4beb c33d 4320 673e
000002a0: cc06 aa3c ac64 963e 6389 7d3c 7603 b83e
000002b0: 2282 953d 7359 0abd c2a7 e8bd b84f cabc
000002c0: dd6f 27be 30fa 493c 9504 393e b133 613e
000002d0: 041f 873d 0297 6e3d dbb0 70be 1f29 09bb
000002e0: c955 863d 2827 e1bd 8ace 803d c70b 6bbd
000002f0: 4e99 14be 60de f6bc 8e2d a93e 9ba4 1d3e
00000300: f41e 46be 6b38 cabd 07c3 a13d dc9b 323e
00000310: b08e 243e 54c2 b63c d2bd 8a3d bf73 3b3e
00000320: b287 adbd 9b81 8cbe 7ed6 cebc f4d7 233c
00000330: 97c4 34be cbe0 f83d 8ec7 42be 673d bd3d
00000340: d39b a7be 2e82 0bbe 8623 473e 68a0 283d
00000350: 510a 133e 179c a83e 0f9c 15be ad16 823e
00000360: 211f 8ebe 9ea2 2abc 3a33 e1bd 150e dd3c
00000370: 8168 43be 2e53 97be 683c 9fbd eeb3 34be
00000380: c4a3 60be 382d 83be 6146 4bbe cab9 cf3d
00000390: 3eea 17bd 9b2a 4d3e 24f2 e8be 48b9 8ebd
000003a0: 5b44 d5be 8bea 443e 4b72 8e3e b3d5 9d3d
000003b0: 701f c63e 4c75 a73e 0472 c93d c1c5 d73d
000003c0: a274 c7bc a448 043d 4d52 413e d643 b63d
000003d0: 4d71 623e 5d21 edbd 97e9 08be 4d2a 973e
000003e0: fbe3 a93d b7e9 70be ba36 c2bd 741c 58be
000003f0: 1101 8bbd 3b14 8fbd 717f ddbc c476 f5bd
0.22398716 0.03256681 0.23736288 -0.034624387 -0.25805548 -0.0009026932 -0.03025727 0.09655713
0.3993743 -0.1171063 0.24826197 -0.046587154 -0.09305675 -0.045935605 0.040177334 0.36104125
-0.41020772 -0.10012594 0.37580726 -0.29539227 -0.042344492 -0.109064914 0.11773099 -0.0704632
0.39757946 0.0069057066 0.26120687 -0.10269903 -0.030231863 -0.07132522 0.016418312 -0.27214086
0.21804345 -0.08950832 0.056966856 -0.049130954 -0.06321854 0.14333272 -0.049902577 -0.069964156
-0.11375327 -0.13319309 0.29476702 -0.25038835 0.25422868 -0.21440655 -0.055723216 -0.101488106
-0.11095139 -0.04594481 -0.0027651868 -0.08034035 0.124953724 -0.29588524 0.11740832 0.13363934
-0.0035606066 -0.078529134 0.46917933 -0.079263754 0.23247 0.08185286 -0.29439738 -0.024878472
0.20663273 0.107522994 0.35940322 0.05921567 0.34786 0.16804716 0.15001635 -0.18356243
0.036118224 -0.06881594 0.12804288 -0.13050725 0.06954627 0.23252314 -0.034595102 0.025038356
-0.1805093 -0.071061514 0.24138767 -0.11650638 0.068571456 0.048691712 0.039862663 -0.10044869
-0.20798248 0.23648797 -0.037564438 -0.3817796 0.265482 -0.0359418 -0.1233463 -0.4510361
0.008069099 0.27069053 -0.33476278 -0.14464733 -0.100474834 -0.20873494 -0.093386956 -0.121811226
0.22064309 0.031540386 0.21463983 -0.1848507 0.15893474 0.12878412 -0.08681192 -0.39063105
0.15824942 0.12750578 0.31589708 0.06512102 -0.30754116 0.27828583 0.18868275 -0.031086471
-0.14425439 -0.023785224 -0.29805893 0.06296172 -0.19423677 0.043433584 0.10454442 -0.12146843
-0.04864301 -0.40921113 0.06725267 0.20079333 0.2927939 -0.09589542 0.06763931 0.25594676
0.026103916 -0.09866097 0.1612266 -0.10306617 -0.044311915 -0.002620651 0.28465244 0.009119745
-0.06495588 0.25825736 -0.016243372 -0.092352495 -0.0771213 -0.24316704 -0.15703326 -0.17986736
0.31806782 0.31955525 0.16489185 0.13076574 0.16362411 0.39630476 0.20456803 -0.31182086
-0.117438115 -0.19486275 0.2371386 -0.03641717 -0.025415238 0.021110516 0.09566363 0.225709
0.020755194 0.29373682 0.01547465 0.3594014 0.073002115 -0.03377671 -0.11360122 -0.024696216
-0.16351266 0.012327716 0.18068154 0.21992375 0.06597713 0.05824948 -0.23504965 -0.002092905
0.06559331 -0.109937966 0.06289394 -0.05738428 -0.14511606 -0.030135334 0.33042568 0.15394823
-0.19347745 -0.09874042 0.07898527 0.17442268 0.16070056 0.02230946 0.067744866 0.18305872
-0.084731475 -0.2744263 -0.025248762 0.010000218 -0.17653118 0.12152251 -0.19021437 0.09240227
-0.32736072 -0.13623878 0.19447145 0.0411686 0.14359404 0.32931587 -0.14610313 0.25407925
-0.27758124 -0.0104147475 -0.10996099 0.026984254 -0.19082834 -0.2955565 -0.077751935 -0.17646763
-0.21937472 -0.25620437 -0.19851066 0.10142858 -0.037088625 0.20035784 -0.4549724 -0.06968933
-0.41653714 0.19230096 0.27821574 0.077067755 0.3869586 0.32706678 0.098362 0.105357654
-0.024347607 0.032295838 0.18879052 0.088996574 0.22113533 -0.11578629 -0.13370357 0.2952446
0.08295437 -0.23526655 -0.094830945 -0.21104604 -0.06787313 -0.069862805 -0.027038308 -0.11985543

actor_mean.2.bias f4 [64]
00000000: fa6d aa3b 30a0 c33c dcb8 ab3b 66c7 4a3c
00000010: 1b26 9cbc 5245 a03b ceaf c2bc c599 97bb
00000020: a14b c63b f1df 63bc f056 0f3c 776d b73c
00000030: 3f40 87bc 3991 7dbb 445d b6bc 396c babc
00000040: 4959 86bc 697a e1bb aa33 b0bc a253 58bc
00000050: c654 46bc d319 e83b 59f0 16bd 8663 893c
00000060: ac03 013c bf70 75bc 9320 b2bb 8fff b9bb
00000070: 8367 f53c 2773 2dbc f68c 823c 3702 783c
00000080: 18a7 583c f14d c93b aa87 3d3d 2b58 bf3c
00000090: 954e 143d c9c1 c63c f79b 1cbb 261e e7bb
000000a0: 8c31 8a3a d7c0 213d ffe1 043b 5c03 51bc
000000b0: d19c 91bc 7fca c3bb 79ea b63b c730 a1bc
000000c0: c829 05bb 1d64 cc3c 7be7 31ba 4115 2f3d
000000d0: 2958 0a3c baba 9d3b 6c7a 3dbc cd3d 953b
000000e0: 4709 da3c 367c af3a 87eb ad3b bee0 3e3d
000000f0: 52af 673c e59b 7dbc 95f3 85bb ca73 2c3c
0.0052010985 0.023880094 0.005240543 0.012376642 -0.019061139 0.004891076 -0.02376547 -0.004626485
0.006051496 -0.013908372 0.008748755 0.022391064 -0.016510127 -0.0038691296 -0.02226127 -0.022756683
-0.016399996 -0.0068810475 -0.02150901 -0.013203533 -0.0121051725 0.0070831566 -0.036850307 0.01677109
0.007874411 -0.014980494 -0.005436012 -0.005676217 0.029956585 -0.0105865365 0.015936356 0.015137247
0.013223432 0.0061433245 0.046271957 0.023357471 0.036207754 0.024262326 -0.0023896673 -0.0070531545
0.001054333 0.039490547 0.0020276306 -0.012757149 -0.017774971 -0.005975067 0.0055821505 -0.01967658
-0.0020319093 0.024950081 -0.00067865074 0.04274488 0.008443871 0.0048135193 -0.011564832 0.0045544864
0.026615752 0.0013388458 0.005307618 0.04660105 0.014140921 -0.015479063 -0.004087875 0.010525653

actor_mean.4.weight f4 [2, 64]
00000000: 144b 113d 912a 1a3e 1a43 8aba a675 bb3d
00000010: 1997 6f3b ce79 06bd b194 d03d fb1f 2e3e
00000020: 80d2 ef3d f3bf 56bd b600 1d3c b793 753d
00000030: 5bdc e2bd 7468 d7bc 95c1 80bd a32e 343c
00000040: ea5b 2bbd acf8 693d fe98 d33d 89ed 21bd
00000050: 01cf 43be d865 823d 8850 443c 6152 ddbd
00000060: 4a93 1abe 204f 52bd f2b3 0bbc ed56 063e
00000070: e874 bebc 68b1 10bc bafe 653d 7b6a 333d
00000080: 9a0e 1838 33a3 bbbd c041 c93c 9d3d 1bbe
00000090: 3719 a83d 0729 6b3e 2a84 383e 2895 ec3c
000000a0: 8f7e 6dbe 38a6 f73c a86f 5e3d b099 6dbe
000000b0: ffcb 14bd ab08 e6bc 6d48 05ba e561 02bd
000000c0: 995d 20bc a663 f63c 05fb 4c3d 4a30 01bc
000000d0: b1d7 833c 0fe2 63be b815 a03d e69a 063d
000000e0: 64a2 99bb 8de5 563e b1ca 11bc bd4c 8e3c
000000f0: fe1e 093e 8e7e 843e a062 be3c a648 57be
00000100: d48d 43be 38c8 31bd 9870 ddbb b7cc 27be
00000110: abdf 1d3e 5d94 2e3e 59c9 d33d 79f2 3abd
00000120: bb9a d83c 3569 35be 48f6 743c 2ce3 dc3d
00000130: c0b1 b6bc ccaf acbd 5024 1b3d fd04 203b
00000140: 650d e33b 4c81 4b3c b243 bc3c f4f3 5abc
00000150: 03fa 1dbe 99e9 efbc 7c60 4d3b 4f10 68bc
00000160: f586 803d 8a2f 4fbe 776f 05bb 46cd 7a3d
00000170: dfea dd3d 45b3 14bd 7ec8 eb3c a6b3 8b3d
00000180: 8d50 0bbe 983a 78be 4cec 26bc 28de b63d
00000190: bddc cf3d 06c6 06bd 5285 243e 4171 1c3d
000001a0: 2efc 663e 08bc 043c e770 053e 81e3 a13d
000001b0: a02d 333e ba35 9c3c 316a c0bd ef50 8dbc
000001c0: 7a42 25bb 0ab3 70bd 4b70 24be e22d 70bb
000001d0: a494 0d3b 79d0 323e 6ef0 a0bd 16ea e2bc
000001e0: 04c7 cebd 7154 4bbc fe2f 0fbc 67e5 97bd
000001f0: 60c5 dfbc faaf 953d 8acc 393e 297c 8e3c
0.03547199 0.150553 -0.0010548562 0.09153299 0.0036558567 -0.032831006 0.10184611 0.17004387
0.117100716 -0.05242915 0.009582689 0.059955325 -0.11077186 -0.026294924 -0.06286923 0.010997447
-0.041835703 0.057121918 0.10331915 -0.03953317 -0.19121934 0.063670814 0.011982091 -0.10806728
-0.15095249 -0.05134499 -0.008526789 0.13119097 -0.023249105 -0.008831359 0.05615113 0.04380272
3.6253223e-05 -0.09161987 0.024567485 -0.15160222 0.08207934 0.2296487 0.18019167 0.028879717
-0.2319281 0.030230626 0.054305702 -0.23203158 -0.03632736 -0.028080305 -0.00050843396 -0.03183164
-0.00978794 0.030076813 0.05004408 -0.007885048 0.01609406 -0.22254203 0.078166425 0.032862566
-0.004688548 0.20986004 -0.008898423 0.017370576 0.13390729 0.25877804 0.023240387 -0.21023807
-0.19097072 -0.043403834 -0.006757807 -0.16386686 0.15417354 0.17048784 0.103411384 -0.045641396
0.026440969 -0.17715915 0.014951296 0.10785517 -0.022301555 -0.08431968 0.037876427 0.0024417036
0.006929087 0.0124209635 0.022981498 -0.013363827 -0.15427403 -0.029286193 0.0031338027 -0.0141640445
0.06275741 -0.20232978 -0.0020360628 0.06123092 0.10835814 -0.036303777 0.028782126 0.068213746
-0.13604946 -0.24241102 -0.0101881735 0.08929092 0.10149524 -0.032903694 0.16066483 0.038193945
0.22557136 0.008101471 0.1303135 0.07904721 0.17497873 0.019068588 -0.093952544 -0.017250506
-0.0025216625 -0.058764495 -0.16058461 -0.0036648442 0.002160349 0.17462339 -0.07858358 -0.027699511
-0.10096553 -0.012410269 -0.00873947 -0.07416802 -0.027315795 0.073089555 0.18144432 0.017393189

actor_mean.4.bias f4 [2]
00000000: bf3f 36bc bdc0 51bb
-0.011123597 -0.003200575

critic.0.weight f4 [64, 14]
00000000: 9114 a8be 7d2c c4bd 1972 933b f2c0 f0bc
00000010: 8b1e 053e 07d0 76bd 6453 5dbe bc65 223e
00000020: 8de8 4cbe 8740 273e 861b 1fbe b26f 7ebd
00000030: 99a4 c4bc 3119 d03d b6e6 bc3e 2534 a2bd
00000040: 5e3f 1d3e c78d 463e 9246 1ebe 8c02 6b3e
00000050: 53bb 313e 0b0b 3b3e 7e52 4dbe 11c3 ba3d
00000060: 8b9a f93d cf53 a83b 74e5 4bbe 7e21 343e
00000070: 0604 8b3d d10b 853e 1c9e af3e 43e1 9ebe
00000080: ca4a 55be 3f58 663c cca3 39bb 7eb1 43be
00000090: 6dd8 ae3e 7f8d bf3e 9f89 f3bd 3812 a2be
000000a0: b57e 32be d3c9 90be 6957 bd3d 72b4 d13d
000000b0: 682a 873d 0e7e 193e 5276 62be c0c5 573e
000000c0: a1b8 aa3c 2809 17bd 7d36 0d3c 5a27 603c
000000d0: db43 09be 5b88 d0bd 104b 3b3d 6209 1c3e
000000e0: 9128 003e e178 a9be 37c4 6fbe 7b55 edbd
000000f0: 7750 0f3e 8e4f 793e cb60 1dbe 0ef1 c3bd
00000100: 187c c1bc e15e 3cbd 52dc e7bd 15fc 423e
00000110: 7aa8 8bbd d6fe 84be 9fca 253e f4c8 533e
00000120: 4b0d 3a3c acfb f4bd f58d e23d 8631 0abe
00000130: f41a 6abe d2b6 233e 9827 133e 1885 0fbe
00000140: c39d 103c 874f a33c fedf 52bc d58f d63e
00000150: bd79 88bc 30e9 d6bd 469b babe 7eb1 0bbe
00000160: f583 2d3e fae2 e7bd 3d5a 213e 2ca1 2b3d
00000170: a36a 9cbc df5e 133e a127 f0bd 7914 10be
00000180: 5b2e 3ebe f1e9 b63d ce7f 10bc 0f1a bdbe
00000190: bf84 adbd b4d9 a4be d075 2abe dab0 0abe
000001a0: 59e2 dbbd dc6b 7abd 71c9 103d 89ee 063e
000001b0: 58d2 363e 3214 053e da52 973d 9c24 4ebd
000001c0: 417f 6fbe 932b 41bd 08d9 ad3d 63ee 46be
000001d0: c238 23be 79e9 c6be f3b2 e83d 8d74 a8be
000001e0: b356 54be 19ae 1ebe 0ba1 013e 13df d1bc
000001f0: e492 6fbe 61bc c9bd 95ba 453e 6617 433e
00000200: 3893 94be 4e41 e8be 8779 a33e 0731 b03d
00000210: 25ee 193e 648e c33d 6d5c b73d 34cc 5abe
00000220: 94b8 303e c4dc a0bd 7286 2abd 281f 783d
00000230: 747d a83e 2ac1 8d3e aeb8 a03d 6c30 e33d
00000240: 28dc 2e3e 6e01 9a3d 0404 c13d 83f3 3bbc
00000250: ad10 d7be a759 7ebe a6ea 0bbd c187 47bd
00000260: 1d7c ddbe 23da 69be c7a9 883d ff7f 8d3e
00000270: 3c75 3fbc dcb5 c53d 8e03 dfbc 22f9 0939
00000280: b036 7abe 1724 203e a3a9 bc3e 7001 5e3d
00000290: 9113 01be 7cc5 223e 33b9 4a3e 3990 a6be
000002a0: da48 8a3e 911d 0a3e e041 533e b518 28be
000002b0: c423 e53d edd5 ca3c 4fd3 9b3e c117 2739
000002c0: 8f11 323e e7ce a6be 9d7a 583d d1d6 0a3d
000002d0: 4945 5ebd 2174 2b3e d9dc a23e f7b1 793e
000002e0: d68e 66be 6faa 09bd c1a2 153d 637a 503d
000002f0: 8e1c 183e fd53 efbc 70d7 97be bbda c13d
00000300: 7424 0c3e 7a6b dfbb 131d 4b3e 4a66 22be
00000310: 6547 053d 976d 383d dbaa 8b3e 543d b4be
00000320: 9795 6c3c fbbc 823e 99e6 45be 788b a33e
00000330: e8cd c7be 7d04 293c 917e 863d 0567 af3d
00000340: 3688 60be 2748 0dbd 7b59 903d 491e f13d
00000350: 5750 c13d df6e 9e3d e75c 28be 9b5c 063e
00000360: 6a21 acbc 170c 9c3e 21da f83d 20f7 773d
00000370: 795f ebba df85 173e 1d5e 32be 5072 8abe
00000380: 74b6 c13d a886 3fbd 8342 d9be 6c38 d5bd
00000390: cb1e 94be 0ade 613e 0714 563e 805f 3f3c
000003a0: 41f3 5f3d 6677 b13d 3fa8 72bd 84f2 0abe
000003b0: f5f1 133e 2515 883d 8bd1 8e3e 2ad8 253e
000003c0: b204 d0bd 5ee5 423e 2b40 1cbe fbb1 513e
000003d0: fd0c dabd f16e f13d 6585 abbd 53f9 d33d
000003e0: b0b4 6abe dc5a a23b 16f4 debd 4333 8e3e
000003f0: 7c3b 463d b9db 1abc c757 9dbe 18c0 3f3d
-0.3282819 -0.09578798 0.0044996855 -0.029388878 0.12999932 -0.060256984 -0.21613842 0.15859121
-0.20010586 0.16333209 -0.15537843 -0.06211824 -0.024004268 0.10161055 0.36894768 -0.07920102
0.15356204 0.19390021 -0.15456608 0.2295019 0.17356615 0.18265931 -0.20051 0.09119237
0.1218768 0.005136944 -0.19911748 0.17590901 0.06787877 0.25985578 0.34300315 -0.31031236
-0.20829311 0.014059125 -0.002832639 -0.19110677 0.34149495 0.3741264 -0.118914835 -0.31654525
-0.17431147 -0.2827898 0.09245188 0.10239495 0.06599885 0.14989492 -0.22115448 0.2107153
0.020839991 -0.036873966 0.008618948 0.013681257 -0.13404791 -0.10182258 0.045725882 0.15237954
0.12515475 -0.33100036 -0.23414694 -0.1158857 0.13995539 0.24346754 -0.15368955 -0.09567462
-0.023618743 -0.04598892 -0.1132132 0.19041474 -0.06819244 -0.25975674 0.16190575 0.20682126
0.011355708 -0.11962065 0.110622324 -0.13495454 -0.22861844 0.15987709 0.14370573 -0.14015615
0.008826676 0.019935383 -0.012870787 0.4190661 -0.016659612 -0.10493696 -0.3644659 -0.13641927
0.16944869 -0.11322589 0.1575708 0.041901752 -0.019093817 0.14391659 -0.117263086 -0.1407031
-0.1857237 0.089313395 -0.0088195335 -0.36933944 -0.08472585 -0.32197344 -0.16646504 -0.13544026
-0.10736532 -0.06113802 0.03534836 0.13176931 0.17853677 0.12995985 0.073888496 -0.050327882
-0.23388387 -0.047160696 0.08488661 -0.19426875 -0.1593962 -0.3885 0.11362257 -0.3290142
-0.20736198 -0.154961 0.1265909 -0.025619065 -0.23395878 -0.098503835 0.19309457 0.19051895
-0.2901857 -0.45362324 0.31928656 0.08603101 0.15032251 0.09548643 0.08953176 -0.2136696
0.17257911 -0.07854608 -0.041632123 0.060576588 0.32908213 0.27686435 0.07847725 0.1109322
0.1707617 0.07519804 0.09424594 -0.011471632 -0.4200491 -0.24838887 -0.034159325 -0.04871345
-0.43258753 -0.22837119 0.066730075 0.27636716 -0.011685666 0.096538275 -0.027223375 0.00013158147
-0.24434924 0.15638767 0.36848173 0.05420059 -0.1260512 0.15895647 0.1979721 -0.32531908
0.27008706 0.13487841 0.20630598 -0.16415675 0.111884624 0.02476021 0.30434653 0.0001593521
0.1738951 -0.3257973 0.052851308 0.03389627 -0.054265294 0.16743518 0.31809118 0.24384294
-0.22515425 -0.033609804 0.036532167 0.050897967 0.14854643 -0.029214853 -0.29656553 0.09465548
0.13685781 -0.006818232 0.1983531 -0.15859333 0.03253879 0.045026388 0.2727879 -0.3520304
0.014439962 0.25534806 -0.19326247 0.31942344 -0.39024282 0.0103160115 0.065671094 0.08564571
-0.2192696 -0.034492638 0.07048317 0.117733546 0.09439152 0.07735991 -0.1644169 0.13121264
-0.021012027 0.30477974 0.1215098 0.06053841 -0.001795753 0.14797162 -0.17418714 -0.2704034
0.09458628 -0.046759278 -0.42433557 -0.10411152 -0.28929743 0.22057357 0.20906077 0.011680484
0.054675344 0.086653516 -0.059242483 -0.13569075 0.14447768 0.06644658 0.27894244 0.16195741
-0.101571456 0.19032809 -0.15258853 0.2047805 -0.106470086 0.117887385 -0.08375052 0.10350289
-0.2292049 0.004954679 -0.108863994 0.27773485 0.048396572 -0.0094518 -0.3073103 0.046814054

critic.0.bias f4 [64]
00000000: 52a2 38bb a0b2 17b6 0000 0000 6cf6 2cb9
00000010: cc9d 30af bb46 87bd 0000 0000 caf1 83bc
00000020: d821 de3c 0000 0000 1dd5 c33c f92a 053d
00000030: f657 ca30 9b2a 4d32 04fd 0ab1 39fd cb39
00000040: 0000 0000 218a b439 0000 0000 b1f4 f234
00000050: 0000 0000 0000 0000 e125 d135 f943 afb4
00000060: f0c5 8ebc f4bb dd39 8fdf 6234 a7f3 75b3
00000070: d6a1 67bd 7d9e c2b7 0250 6e3b c864 9cb9
00000080: 40ce 65b9 0000 0000 eb55 52b7 adb7 ca3c
00000090: 4737 47b1 57f8 eebb 213b 863b 93ec 5334
000000a0: f04c d2b8 eabe 2839 9ccc a8bb 3c4e c137
000000b0: 7784 dc3c ac5a 12ba 0fad 953a 9b0f 7c31
000000c0: a7d5 00b7 7c86 28bc 6899 c83b a309 c830
000000d0: 1b88 b5bd 2010 7339 0000 0000 1f66 022f
000000e0: afe7 d03a 3cf0 3038 74a5 11bd 0000 0000
000000f0: d4c6 8338 d897 a43b 25ad 103c 3268 673c
-0.0028172922 -2.2604727e-06 0.0 -0.00016494998 -1.6063167e-10 -0.06605288 0.0 -0.016106505
0.027115747 0.0 0.023905331 0.032511685 1.4722434e-09 1.1942258e-08 -2.0225466e-09 0.00038907843
0.0 0.0003443519 0.0 4.525405e-07 0.0 0.0 1.5582738e-06 -3.2645747e-07
-0.017428368 0.0004229244 2.112922e-07 -5.7265108e-08 -0.056550823 -2.3200404e-05 0.0036363606 -0.00029829727
-0.00021915976 0.0 -1.253698e-05 0.024745787 -2.8989733e-09 -0.007292788 0.004096404 1.9736972e-07
-0.00010027911 0.0001609285 -0.0051513445 2.3043824e-05 0.026918633 -0.0005582969 0.0011419373 3.6679697e-09
-7.679139e-06 -0.01028597 0.006121803 1.4554654e-09 -0.08863851 0.00023180293 0.0 1.1859712e-10
0.0015938188 4.2185406e-05 -0.03555818 0.0 6.2836014e-05 0.005022984 0.008830343 0.014123963

critic.2.weight f4 [64, 64]
00000000: 87bf 32ba c676 2e3d 4aa9 82be e007 c5be
00000010: dfa5 5f3d 97da 3b3e 40e6 8abc d48c 3ebe
00000020: 5399 d53e 88b3 103d 7db1 89be 7ffc 933d
00000030: 6948 93be 7262 13bd bd21 ffbc a360 59bd
00000040: 303d 32bd 915b d6bd 9956 33be 0321 5d3e
00000050: b75c 523e 0c17 fbbd 6208 00be 8d87 acbe
00000060: fc87 2abe 00fe c83d 0eec 843e 6e69 6a3e
00000070: 51d5 ba3d a3c5 dabd e473 5f3d bbb8 f03d
00000080: 81af af3b 0d1d 793c a115 b93d c1d8 8b3e
00000090: 4c6b 2a3e 3002 78bd 65a2 be3d c85e a03c
000000a0: 8d6f 21be ea47 a0bd 7187 953d 31d7 e13d
000000b0: 0af7 333e 84ae e83e 1475 41bd 8528 5b3e
000000c0: 6372 91bb 6ee5 443e ea91 233e fdb2 c33c
000000d0: df2d 14bd 1d28 78be b762 b13e 6ffd 663e
000000e0: f3ae 1abd 94f0 5ebd 9fbf c0bd f34e 8abe
000000f0: 6aa7 94be c117 f33b f132 4dbe bf14 1f3e
00000100: 1e83 193e a356 dbbd 995a 073f a614 f83d
00000110: 271c f6bd 7ac6 2f3d 1719 843d fe5e a9bd
00000120: 0b0b 823e eb2d 4bbc 4bb8 e53d 39c7 db3d
00000130: 29a0 d1be 9310 dcbb dc76 943c d0a4 43bd
00000140: a24f 4f3d 0f1b 04be 8d1f 09be 2d6f c7be
00000150: 7e7a cebd 2994 823d 2e4f 043e e6ca 443e
00000160: 6c14 3a3e b56f 733e 30b5 563e 52c7 00bc
00000170: fbf4 2abd 4e60 103e 4b53 7ebb ba10 45bd
00000180: a4c1 e9bc 1c3b 49be b231 e8bd 33b0 a5bd
00000190: bd49 9b3e ce8a fdbd 4b45 283e c0f8 283e
000001a0: f632 09be 8787 97be f3ae d6bc 6e6a acbe
000001b0: 3fb9 7f3e 5e48 20be 65f7 903e c64c c9bc
000001c0: e547 d1bd 2643 3b3c e05d bf3c 9e31 2b3e
000001d0: 3fb9 64bc 51f0 c13d 8caf 72bd 46be 0b3e
000001e0: be10 903e 056c ce3e ebdd 5cbe 753c 103e
000001f0: f115 42be 9f04 1f3e 5678 a2bd 7e87 5abb
00000200: 1496 ae3e 8359 983d 3a1e bfbd 79d3 b63c
00000210: c2e9 983d 0814 9d3e c4d8 6dbc ed7e 0d3e
00000220: 2536 0fbe 9ca7 88be 769c 2bbe c9d0 7e3e
00000230: ed09 473e 18f7 05be 8858 103e bb25 07be
00000240: f66b 043e 466f 76bd d26b 63be c859 49be
00000250: a915 9a3d 3762 8ebc 27bb 2abe 901b a5bd
00000260: 62a1 603e 58e5 663e ec30 833e 46e4 90be
00000270: 7ec5 9ebe ceda 02be 8c42 54bd 7fd5 3dbe
00000280: b523 773e f555 d33d 121e 7ebe be1f d2bd
00000290: 2dc7 963d 803c f33e b2dd 76bd a992 8cbd
000002a0: a5ac 473d 15f1 ad3d 43bb 913d d33a 953d
000002b0: 1a86 d23d b66d 7b3d 77b6 f33d e2b8 873e
000002c0: 47a3 6cbd c92c 82bd 03df 1abd 21ee 50bc
000002d0: 0e73 50be e2b8 f4bd 9d40 c9bc 59a6 833d
000002e0: cf68 a23d 56bb 97bd b98e 88be a1ee 393d
000002f0: c6c6 e23e 288a c73e ec05 0dbb 71a6 64bd
00000300: fa41 e2bd 25ce 9abe e92d 203e 64f0 9a3d
00000310: 8b46 013d 679b 043d 4125 c9bc f8c3 363e
00000320: a20d a1be db4c 84be d889 85be a48d 943d
00000330: dc7f ebbe 4aee 7b3e 6c2d 14bd e71e c53c
00000340: 4953 cfbc 3254 dabd e272 d9bd a63f 653e
00000350: 10ec 313c 6896 51bd f3ff 843d 6592 ffbd
00000360: 9e93 473b 8a8d 923e d3eb 91be 1d9f d73d
00000370: bb64 ff3c c25b 003d fe64 993d 4c8c 223e
00000380: 73ce c0bd 604e 7bbd 9ab9 91be 49ef 283e
00000390: c37c a9be 4085 243e 59e2 78be e9e3 553e
000003a0: 9d2a fe3d b43f f63d 31e3 b5bd 7756 98bd
000003b0: a629 a1bd de25 3f3c 39ed 8cbd bdd4 98bd
000003c0: 2638 c63e f49b 9ebe 7c7a 113d f961 643d
000003d0: 2650 1a3e 7604 0f3c dfd1 a43e e5ad d13e
000003e0: 1981 023e f1b6 e7bd df78 773d e312 2abe
000003f0: 84b0 49bc 3da2 103c d8e5 083c f536 62be
-0.0006818701 0.04259374 -0.25519782 -0.3848257 0.054601546 0.18345104 -0.016955495 -0.18608409
0.4171854 0.035327464 -0.26893225 0.07225894 -0.28766182 -0.035982557 -0.031144017 -0.053070676
-0.043515384 -0.10466684 -0.17513503 0.21594624 0.2054318 -0.12260255 -0.12503198 -0.33697167
-0.16653436 0.09814072 0.25961345 0.2289178 0.09122718 -0.106822275 0.05455388 0.117539845
0.005361498 0.01520468 0.090373285 0.27313808 0.16642493 -0.06054896 0.09308318 0.019576445
-0.1576521 -0.078262165 0.07301224 0.11027373 0.17574707 0.45445645 -0.047230795 0.21402176
-0.004438685 0.19228145 0.1597363 0.02388906 -0.03617656 -0.24234052 0.34645626 0.22557615
-0.0377645 -0.054428652 -0.09411549 -0.27013358 -0.29033977 0.007418603 -0.20038964 0.15535258
0.14991423 -0.10709884 0.52872616 0.121133134 -0.120170884 0.04291389 0.06450098 -0.082700714
0.2539905 -0.012401084 0.11216792 0.10731358 -0.40942505 -0.006715843 0.018123083 -0.0477646
0.050613053 -0.12900947 -0.13390942 -0.38952008 -0.10081957 0.063759156 0.1292083 0.19218025
0.18171853 0.23773082 0.20967555 -0.007860022 -0.041737538 0.14099237 -0.003880697 -0.048111655
-0.028534718 -0.19651455 -0.11337604 -0.08090248 0.30329695 -0.123799905 0.16432683 0.1650114
-0.13398346 -0.29595587 -0.02620647 -0.3367495 0.2497301 -0.15652606 0.28313747 -0.024572741
-0.10218791 0.011429584 0.023360193 0.16718146 -0.013960182 0.09469665 -0.059249446 0.13646802
0.28137773 0.40316787 -0.2156903 0.14085563 -0.18953682 0.15529107 -0.079331085 -0.003334492
0.34098876 0.07438948 -0.09331937 0.022317635 0.07466461 0.30679345 -0.014517013 0.1381795
-0.13985498 -0.26690376 -0.16758904 0.24884333 0.1943738 -0.1308254 0.14096272 -0.13197987
0.12931809 -0.060164712 -0.22209099 -0.19663155 0.075236626 -0.017380817 -0.16672955 -0.08061898
0.21936563 0.22548425 0.25623262 -0.2829916 -0.3101005 -0.1277878 -0.051821277 -0.18538474
0.24134715 0.103191294 -0.24816158 -0.102599606 0.073622085 0.47507095 -0.06027002 -0.06863911
0.04874863 0.084932484 0.071157955 0.072866105 0.10279484 0.061383925 0.11900037 0.26508242
-0.0577729 -0.06356198 -0.037810337 -0.012752087 -0.2035639 -0.11949326 -0.024566943 0.06428213
0.07930147 -0.07408778 -0.2667139 0.04539359 0.44292277 0.38972592 -0.0021518422 -0.055822793
-0.1104774 -0.302354 0.15642513 0.07565382 0.031561416 0.032374766 -0.024553897 0.17848194
-0.31455714 -0.25839886 -0.2608173 0.07253578 -0.45995986 0.24602619 -0.03617613 0.024062587
-0.025308268 -0.1066059 -0.10617615 0.22387561 0.010859504 -0.05116883 0.06494131 -0.124790944
0.0030452977 0.2862361 -0.28500232 0.10528395 0.031175962 0.031337507 0.07489966 0.15873832
-0.09414377 -0.06135404 -0.28461915 0.1649753 -0.33102998 0.16066456 -0.24305095 0.20887722
0.124104716 0.12023869 -0.08881224 -0.07438367 -0.07869272 0.011666743 -0.06881184 -0.074624516
0.38714713 -0.30978358 0.0355172 0.055757497 0.15069637 0.008729091 0.3219137 0.40952983
0.1274456 -0.1131419 0.060418006 -0.16608767 -0.012310151 0.008827743 0.00835558 -0.22091277

critic.2.bias f4 [64]
00000000: abfc bbbc 479e c93c d307 6f3c 66b8 3abc
00000010: ee1a a0bc 01c1 12bd f0c4 02bd 74cd 13bc
00000020: fdfc 1dbd 52ed 95bc 9d28 15bb b7b9 9fbb
00000030: c6b7 2b3c 00f6 fa3a f89f ecbc dd35 f2bb
00000040: 09ca bbbb df40 ebbb 28d1 d4ba c1cc c9ba
00000050: 926f 56bb 3e03 32bc 69b5 6d3c d92a aabb
00000060: ca27 6ebb 1836 0f3d 69f9 98bc a6d0 88bc
00000070: 973e 20bb ce5b 8cbc b137 883c f0b5 903c
00000080: 2b3d fcbb eb2b f1bb dd68 57bb 04f7 f7bc
00000090: f184 213c 7bd2 60ba b766 ba3b 7b0d b7bb
000000a0: 1a8d 163c 9261 2abc d608 37bc df68 dd3a
000000b0: cd51 99ba a985 beba a120 3bba 9ae5 6d3b
000000c0: 8203 bf3b 509c ccbc 09cd ccbc 33e3 33bc
000000d0: eaba be3b 71f9 4b3c ec7e 5e3c 910e b0ba
000000e0: 1d1d f8bc e8ab 6e3c 1683 41bc b8d2 a33c
000000f0: 0ecb ecbc a367 7fbc 1c0f eabc 4905 603c
-0.02294763 0.024611605 0.014589268 -0.011396503 -0.019544091 -0.035828594 -0.031926095 -0.009021152
-0.038571347 -0.01830164 -0.0022759803 -0.004874434 0.010480827 0.00191468 -0.028884873 -0.007391675
-0.0057308716 -0.007179364 -0.001623665 -0.0015396104 -0.003272031 -0.010865031 0.014508584 -0.005193096
-0.0036339634 0.034963697 -0.018673616 -0.016701054 -0.002445137 -0.01713362 0.016628118 0.01766488
-0.0076977215 -0.0073599718 -0.00328689 -0.030269153 0.009858356 -0.0008576286 0.005688514 -0.005586324
0.009188915 -0.010399239 -0.01117154 0.0016892216 -0.0011697352 -0.0014535683 -0.0007138346 0.0036300183
0.0058292756 -0.02497688 -0.025000112 -0.0109794615 0.0058206217 0.012449608 0.013580065 -0.0013432076
-0.03028732 0.014567353 -0.0118110385 0.01999794 -0.028905418 -0.015588674 -0.028571658 0.013673135

critic.4.weight f4 [1, 64]
00000000: 75b7 df3d f55a 49bd 5d26 a73d 72b1 4d3e
00000010: 4faf b23d e2d5 3d3e 8009 633e d140 8d3e
00000020: 1702 ed3d f244 1b3e 2654 453e b1be 5fbd
00000030: 5b30 60be ab11 c03d d354 e53d d87a f33d
00000040: 0f8a e6bc 1232 143d f738 843e 28a5 ad3d
00000050: e8df 583e 9702 213e 2af3 3f3d 1be7 ce3d
00000060: 032c 15be 5ab6 e1bd 21f9 cb3d c7b8 62bc
00000070: e97a f7bd f0bc d43d c111 66bc a50f 2dbe
00000080: db13 bf3d 570d 67bd 8cd1 89bd 2a0c 393d
00000090: 416a 24bc 4cb7 d3bd a304 003d 74d8 a53d
000000a0: 9b74 e7bd dfde 983e bba5 383d 5448 5f3d
000000b0: 71c5 533e 5057 893e 9c75 a33d 0d8a 13bd
000000c0: 9316 80bd bf09 f63d a880 0e3e d61c 19bd
000000d0: 85b0 41bd 26ff 2fbe 4214 253d 0b06 ea3d
000000e0: cb55 c03d 6d4e 2b3d fdd5 0e3e 3c94 f63d
000000f0: 9fe7 d83c ba7e 0c3c cea2 033e fd41 cbbd
0.109236635 -0.04915901 0.08161614 0.20087221 0.08724844 0.18538621 0.22171593 0.27588513
0.11572664 0.1516302 0.19270381 -0.054625217 -0.21893446 0.0937837 0.111978196 0.11888665
-0.028142003 0.036180563 0.2582471 0.08478767 0.21179163 0.15723644 0.04686276 0.101026736
-0.1456757 -0.11021109 0.09959627 -0.013838 -0.1208399 0.103875995 -0.014042319 -0.16900499
0.09329959 -0.056409206 -0.06729421 0.045177616 -0.0100350985 -0.103376955 0.031254422 0.08097926
-0.113015376 0.29857537 0.045079928 0.054512337 0.20680787 0.26824427 0.079814166 -0.036020327
-0.06254306 0.12013578 0.13916266 -0.037381016 -0.047287483 -0.17187175 0.040302522 0.11426934
0.09391364 0.04182284 0.13948818 0.12039992 0.026477633 0.008575136 0.12855074 -0.09924696
