fw_flightcontrol/models/icinco/ppo/actreg/actvar/ppo_bohn_actvarR2_nohist_noatmo_2164_03-06_14:51:23.pt (torch, 46930 bytes, 12 tensors)

actor_logstd f4 [1, 2]
0	0x3dd6440d	0.104621984
1	0x3e0e1cd8	0.1387819

actor_mean.0.weight f4 [64, 14]
0	0xbbb92798	-0.005650472
1	0xbb60be6c	-0.0034293188
2	0xbe18adbd	-0.14910026
3	0xbc057860	-0.008146375
4	0x3d84a586	0.064768836
5	0x3e204da5	0.15654619
6	0xbe22c82d	-0.15896674
7	0x3d666e86	0.056257747
8	0xbd80808b	-0.062745176
9	0xbde2afc7	-0.11068683
10	0x3f1374ce	0.57600105
11	0x3eb3b3e3	0.3509818
12	0xbe47f5d3	-0.19527368
13	0x3b82d2fb	0.003992436
14	0x3ce14317	0.027497811
15	0x3defea4c	0.117146105
16	0xbadc3501	-0.0016800464
17	0x3b1c92a0	0.0023891106
18	0x3c60a299	0.013710641
19	0xbd0fe565	-0.035130877
20	0x3eff21be	0.4983043
21	0xbece6919	-0.40314558
22	0x3dd31dab	0.10308393
23	0x3ca6132d	0.020272816
24	0x3eb372a4	0.350484
25	0xbcf3d87f	-0.02976632
26	0x3dfbd055	0.122955956
27	0x3e25c9b9	0.16190232
28	0xbdf36e6a	-0.11886294
29	0xbe349b52	-0.17637375
30	0xbeb27d6b	-0.3486131
31	0xbddd5647	-0.10807472
32	0x3d2394a1	0.039936665
33	0xbd5fec3d	-0.054668654
34	0x3d8bfc99	0.068352886
35	0xbd4eedea	-0.05051986
36	0x3dda0c6b	0.106469
37	0xbe5be2ee	-0.21473286
38	0xbea9e5f6	-0.3318326
39	0xbd09d1f6	-0.0336475
40	0x3e41fd5e	0.18944308
41	0xbe0b3645	-0.13594921
42	0xbe1fba7f	-0.15598486
43	0x3da84d51	0.08217872
44	0xbc6ac9b1	-0.014330314
45	0x3d0ff7bf	0.03514838
46	0x3cd158bf	0.025555013
47	0xbe1870ac	-0.14886731
48	0x3dd51fa0	0.104064226
49	0x3e081dcf	0.13292621
50	0x3e5ff55a	0.21870938
51	0xbb43c28a	-0.0029870593
52	0xbe24749e	-0.16060111
53	0xbe336759	-0.17519893
54	0x3dd798ba	0.10527177
55	0xbcd8e336	-0.02647553
56	0x3dc532d0	0.09628832
57	0xbd55aea5	-0.052168507
58	0x3e4450b6	0.19171414
59	0xbc82565d	-0.015910322
60	0x3db0bbf1	0.08629597
61	0xbe84cbc1	-0.25936702
62	0xbc122614	-0.008920211
63	0x3bb3a28e	0.0054820245
64	0xbd6469a9	-0.055764828
65	0xbc93af61	-0.018027963
66	0xbc9c1d14	-0.019056834
67	0x3e7ccc0c	0.24687213
68	0x3da616ff	0.08109855
69	0xbe309cbb	-0.17247288
70	0x3ed9c826	0.42535514
71	0x3e34d85b	0.17660658
72	0xbe4810cb	-0.19537656
73	0x3e81221c	0.25221336
74	0x3d383d8b	0.044980567
75	0x3f128ec8	0.57249117
76	0x3dc9d743	0.09855511
77	0xbd94f996	-0.07274167
78	0xbd95aa73	-0.07307901
79	0x3d4cf2be	0.050036184
80	0x3de73ec7	0.11291271
81	0x3d3810b0	0.04493779
82	0x3e1fe2e7	0.156139
83	0x3e2c270a	0.16811767
84	0xbdb048a2	-0.086076036
85	0xbca73f40	-0.020415902
86	0x3e93fd7e	0.28904337
87	0x3e8f53c2	0.2799359
88	0x3ea76d16	0.32700413
89	0x3d78cbb0	0.060741127
90	0x3e8e5ab9	0.2780359
91	0x3d84ee25	0.06490735
92	0x3d91524c	0.07095775
93	0x3ddea3cd	0.10871086
94	0x3e31fee8	0.17382395
95	0xbd817717	-0.06321543
96	0x3d6d8ed1	0.05799753
97	0xbe7b8148	-0.24561036
98	0x3d56b3f6	0.052417718
99	0xbe10a132	-0.14123991
100	0x3dc845a1	0.09778906
101	0x3e6c7541	0.23091604
102	0x3da3d660	0.07999873
103	0x3df3a85c	0.118973464
104	0x3e016260	0.12635183
105	0xbd7a7077	-0.06114241
106	0xbe9783b1	-0.2959266
107	0x3d899a10	0.06718838
108	0xbd389f57	-0.045073833
109	0x3e0c9146	0.13727292
110	0xbd015860	-0.03157842
111	0xbcdd2fe5	-0.027000377
112	0xbd37031f	-0.04468071
113	0xbc6caf50	-0.014446095
114	0xbe367fb3	-0.17822151
115	0x3e0ce40e	0.13758871
116	0xbd9b552e	-0.07584606
117	0x3dad4fdb	0.08462497
118	0x3e92c00e	0.2866215
119	0xbe1e76b1	-0.15474965
120	0xbdd45827	-0.10368376
121	0x3de65f81	0.11248685
122	0xbe78b434	-0.24287492
123	0x3e68997a	0.22714797
124	0x3d63d044	0.05561854
125	0xbdd804a5	-0.10547761
126	0xbe60a294	-0.21937019
127	0x3efff232	0.49989468
128	0xba9fd451	-0.0012194013
129	0xbe9552de	-0.29164785
130	0xbd926edc	-0.07150051
131	0x3cf206b8	0.02954422
132	0x3f0a8991	0.5411616
133	0xbf2e6287	-0.6811909
134	0x3ddd7d4a	0.108149126
135	0x3d44fc13	0.04809196
136	0x3e37b65e	0.17940661
137	0x3ec01b25	0.3752071
138	0x3e1e7020	0.1547246
139	0xbe931551	-0.287272
140	0x3e072e0e	0.13201162
141	0xbd836160	-0.06415057
142	0x3e79cd2f	0.24394678
143	0x3e8102f8	0.25197577
144	0xbe940df4	-0.28916895
145	0x3e36c0c9	0.17846979
146	0x3e2f094a	0.17093387
147	0xbd940d09	-0.07229049
148	0xbe6786b0	-0.22609973
149	0x3e14054d	0.14455147
150	0x3e1d8f2c	0.15386647
151	0xbe61ae57	-0.22039162
152	0x3e08527b	0.13312714
153	0xbe0809d8	-0.13285005
154	0xbcdb0386	-0.026735079
155	0xbe420e94	-0.18950874
156	0xbe0a0159	-0.13477077
157	0x3dd9ae71	0.10628975
158	0x3e402e9f	0.18767785
159	0x3dbb9399	0.091590114
160	0xbda407f9	-0.08009333
161	0xbd8c9cd6	-0.068658516
162	0xbd9f4ddf	-0.077785246
163	0x3e169219	0.1470417
164	0xbd56738d	-0.05235629
165	0xbdd7973b	-0.10526892
166	0x3cfc532b	0.030801376
167	0x3e3ab7a6	0.18234119
168	0x3e678aa8	0.22611487
169	0x3dbbad48	0.0916391
170	0xbe7059ac	-0.23471707
171	0xbded482f	-0.115860336
172	0xbe871316	-0.2638175
173	0x3d582d01	0.052777294
174	0xbe62455e	-0.22096774
175	0xbe8cccc3	-0.2749997
176	0x3c96f6b1	0.018428179
177	0xbe9432d3	-0.28945026
178	0xbe00b8a9	-0.12570442
179	0xbc9f130b	-0.01941826
180	0x3e8324e0	0.2561407
181	0x3c36e9a9	0.011164107
182	0xbd4c7ff9	-0.04992673
183	0xbe8dbdb3	-0.27683792
184	0xbea20e6e	-0.31651634
185	0x3e09fead	0.13476057
186	0x3e79edbc	0.24407095
187	0xbe0ba3ca	-0.136367
188	0xbca0d8d7	-0.019634647
189	0x3da1578c	0.07878026
190	0x3e4d001f	0.20019577
191	0xbe1243ef	-0.14283727
192	0x3d79c83d	0.060981978
193	0xbdf9dff0	-0.12200916
194	0x3ed129d3	0.40852222
195	0xbdf8001c	-0.12109396
196	0x3ec263d2	0.37966782
197	0x3da60dc3	0.081080936
198	0x3dcfcf05	0.10146908
199	0xbea9e177	-0.3317983
200	0x3e772061	0.24133445
201	0xbe1154ee	-0.14192554
202	0x3d36d896	0.044640146
203	0x3e274188	0.16333592
204	0x3e1ab69c	0.15108722
205	0xbe559a1f	-0.20859574
206	0x3e7f6317	0.24940144
207	0xbe102263	-0.14075617
208	0xbdc64bf1	-0.096824534
209	0x3d6e3ffa	0.05816648
210	0x3e2e26d9	0.17007007
211	0x3d6eaa45	0.05826785
212	0xbe8fcd2f	-0.2808623
213	0xbd7bf16f	-0.061509546
214	0x3df64fe5	0.120269574
215	0x3e1310f5	0.14361937
216	0x3ddcc016	0.10778825
217	0x3dbd25a5	0.09235696
218	0xbea51cef	-0.32248637
219	0x3d0397b3	0.032127094
220	0xbe1ed059	-0.15509166
221	0x3de322c0	0.110906124
222	0xbc42252b	-0.011849682
223	0xbe46bd85	-0.19408233
224	0xbe1d258e	-0.15346357
225	0x3e6329ba	0.22183886
226	0x3ce7fc15	0.028318444
227	0xbea41f08	-0.32054925
228	0xbc62ee50	-0.013850763
229	0x3c520333	0.012818146
230	0xbde1d9d8	-0.110278785
231	0xbe5008a7	-0.203158
232	0xbe504f41	-0.20342733
233	0x3d39e861	0.04538763
234	0x3df765c7	0.12079959
235	0xbd26ac13	-0.040691447
236	0xbe028657	-0.12746559
237	0x3e6c61c6	0.23084173
238	0x3e4f09fc	0.20218652
239	0xbca16eae	-0.019706097
240	0x3e9f2eeb	0.31090483
241	0x3cd497da	0.025951315
242	0x3d421650	0.04738456
243	0x3e764e36	0.24053273
244	0x3c6e1e13	0.014533537
245	0x3e1f39f6	0.15549454
246	0x3ea065d3	0.31327686
247	0x3d420109	0.04736427
248	0xbec3a2df	-0.38210198
249	0x3e30f469	0.17280735
250	0xbeacfa26	-0.33784598
251	0xbe3e9f56	-0.1861547
252	0x3d3a397e	0.045464985
253	0xbccb6f7d	-0.024833435
254	0xbe6e8812	-0.23294094
255	0x3db9823f	0.090580456

actor_mean.0.bias f4 [64]
0	0x3842e95f	4.6470548e-05
1	0x3d33bb43	0.04387976
2	0xb0876045	-9.849904e-10
3	0xbb13dae9	-0.00225609
4	0x3492b738	2.7327928e-07
5	0xbb1bfe85	-0.0023802829
6	0x00000000	0.0
7	0x39920a72	0.00027855072
8	0xb91bc670	-0.00014855876
9	0x3ce5a37e	0.02803206
10	0xb1d91ea3	-6.319014e-09
11	0x3806ee2c	3.2169904e-05
12	0xbac3028f	-0.0014878082
13	0x39c4ed3e	0.00037560792
14	0xbb171354	-0.0023052292
15	0xb3b24b95	-8.302519e-08
16	0xbbbf581e	-0.005839362
17	0xba79ab34	-0.00095241074
18	0xb58dfcc6	-1.0578885e-06
19	0x3b79ba3a	0.0038105384
20	0x3a54fee9	0.0008125143
21	0x3c2536e1	0.010083885
22	0xbd060a0f	-0.032724436
23	0x3b22214c	0.0024739085
24	0x348aa367	2.5823394e-07
25	0x3c00fc67	0.007872677
26	0x3d20b988	0.039239436
27	0xbafd20ce	-0.0019312145
28	0x3c0180b1	0.007904218
29	0xaf8604ab	-2.4377775e-10
30	0xbba3358b	-0.004980748
31	0x3d3fa4d2	0.046788044
32	0xb128982d	-2.453372e-09
33	0xbc58903f	-0.013217985
34	0x3620bf0d	2.3953064e-06
35	0x3305e41f	3.117395e-08
36	0x3a916028	0.0011091279
37	0x37b3a5f4	2.141574e-05
38	0xbbbcdbf9	-0.0057635275
39	0x328f4c95	1.6682216e-08
40	0x2ebb394e	8.513955e-11
41	0xbccec7df	-0.02524179
42	0x3bffb987	0.007804099
43	0x00000000	0.0
44	0x3c2841e1	0.010269613
45	0xbc801400	-0.015634537
46	0x38ecc05f	0.00011289189
47	0x3306c23e	3.137597e-08
48	0xbcbe61b0	-0.02323994
49	0xb0931c74	-1.0703745e-09
50	0x3c18ff50	0.009338215
51	0x3bb46d12	0.0055061663
52	0xb6eb9fe6	-7.0221604e-06
53	0x3c387f49	0.011260816
54	0xbd3102d1	-0.043215577
55	0xbcd6ca86	-0.026219618
56	0x3d47c8e2	0.04877556
57	0xbc9056d4	-0.017619528
58	0x3cfc3fa4	0.030792065
59	0x37489005	1.1954461e-05
60	0x3d8317ec	0.06401047
61	0xbd8accb0	-0.06777322
62	0x3d106dda	0.035261013
63	0xbcd8a45c	-0.02644556

actor_mean.2.weight f4 [64, 64]
0	0x3da8f575	0.08249942
1	0xbdc30f1c	-0.09524366
2	0xbe19359a	-0.14961854
3	0x3e9ecd05	0.31015792
4	0xbca71edf	-0.020400463
5	0xbd9b94a9	-0.07596714
6	0xbdb74858	-0.08949345
7	0x3d9cf34b	0.07663592
8	0xbc5658bc	-0.013082679
9	0x3da2d0ff	0.07950019
10	0xbe9c036a	-0.30471355
11	0xbddb94d0	-0.10721743
12	0x3da4564d	0.08024273
13	0x3e43015f	0.19043492
14	0x3e42bd27	0.19017468
15	0x3e4e49a4	0.20145279
16	0x3e5db7f0	0.21652198
17	0xbd565d95	-0.05233534
18	0xbed6a229	-0.41920593
19	0x3ed90e6c	0.42393816
20	0xbaf9a3a7	-0.0019045965
21	0xbe494eea	-0.1965901
22	0xbe90593c	-0.2819308
23	0x3e783aa0	0.24241114
24	0xbe66304e	-0.22479364
25	0x3da7d717	0.08195322
26	0xbda81806	-0.08207707
27	0xbeb6a961	-0.356761
28	0x3c3f2c04	0.011668209
29	0x3d5b19ae	0.053491287
30	0x3e870ebc	0.2637843
31	0x3e33afa4	0.1754747
32	0x3e0a29d4	0.13492519
33	0xbdc102f1	-0.09424389
34	0x3e2fbc89	0.17161764
35	0x3dd143f6	0.10218041
36	0xbe013cba	-0.12620822
37	0x3db94021	0.09045435
38	0xbdf115aa	-0.1177171
39	0xbde0c538	-0.109751165
40	0x3ded0940	0.1157403
41	0xbe63c96a	-0.22244802
42	0xbebcb11c	-0.36853874
43	0x3d8b49cc	0.06801185
44	0xbde2daf3	-0.110769175
45	0xbdb7414d	-0.08948002
46	0x3d7ca835	0.061683852
47	0xbc83546c	-0.016031466
48	0x3d3128ed	0.04325192
49	0xbea3401f	-0.31884858
50	0xbe4c8ae3	-0.19974856
51	0x3e6593eb	0.22419707
52	0xbe42fee5	-0.19042547
53	0x3e215f2f	0.15758966
54	0xbdb6916e	-0.08914457
55	0xbe54c1c0	-0.20777035
56	0xbe41f9cf	-0.1894295
57	0xbd8134ca	-0.06308897
58	0xbcf5ecec	-0.0300202
59	0xbe570d6b	-0.21001212
60	0x3eb31694	0.34978163
61	0xbcdfa69f	-0.02730113
62	0xbb0720c4	-0.0020618895
63	0x3e2d7bc1	0.1694174
64	0xbd9765aa	-0.07392438
65	0xbe2977d6	-0.1654962
66	0xbd06da8d	-0.03292327
67	0x3cbacf2f	0.022803871
68	0x3d9f3127	0.07773047
69	0xbdc5ba7c	-0.0965471
70	0xbd85cb4d	-0.06532917
71	0xbd41cddc	-0.047315463
72	0xbdfaa0c8	-0.12237698
73	0xbe8ac1db	-0.27101025
74	0x3ed5e71e	0.4177789
75	0x3d985334	0.07437745
76	0x3d37577d	0.04476117
77	0xbe5d2c0c	-0.21598834
78	0x3e29f2ff	0.16596602
79	0x3ed53f6d	0.41649953
80	0xbd958c2c	-0.07302126
81	0xbd5f05bb	-0.054448824
82	0xbd2fd094	-0.042923525
83	0x3dcc45b0	0.09974229
84	0xbe8678a1	-0.26263908
85	0xbeb989dc	-0.3623799
86	0xbbf27735	-0.0073994645
87	0x3cb703c2	0.022340659
88	0x3d263794	0.040580347
89	0x3ec6d24f	0.38832328
90	0xbe021fa9	-0.1270739
91	0x3eeab0cc	0.4583801
92	0xbc6689df	-0.014070957
93	0xbe071200	-0.1319046
94	0xbe8f21d8	-0.27955508
95	0x3e88031f	0.2656488
96	0xbcea64d8	-0.02861254
97	0x3e3ca4da	0.18422261
98	0x3c9bc384	0.019014128
99	0xbc3737a3	-0.011182698
100	0x3dacaa0f	0.084308736
101	0x3dde8362	0.10864903
102	0x3d277e60	0.040892005
103	0xbe0ecdfc	-0.13945764
104	0xbd80ce77	-0.0628938
105	0x3c46d73a	0.012136275
106	0xbdb3497b	-0.0875425
107	0xba0de8b5	-0.0005413399
108	0x3e922469	0.28543404
109	0xbe98082f	-0.29693744
110	0x3c5ab8c0	0.013349712
111	0xbd22ed7a	-0.039777257
112	0xbd86c08b	-0.065796934
113	0x3c1f9d29	0.00974206
114	0x3e3eabdf	0.18620251
115	0xbeabb60c	-0.33537328
116	0x3e9c90ba	0.30579168
117	0xbe45e415	-0.19325288
118	0x3dc2620e	0.09491359
119	0x3eb5aa41	0.35481456
120	0xbe4fce83	-0.20293622
121	0xbe491d33	-0.19640045
122	0xbdd201fa	-0.10254283
123	0xbdeccb30	-0.115621924
124	0x3e2ba528	0.16762221
125	0xbdf2d975	-0.11857883
126	0x3e8e2e54	0.2776972
127	0x3e0dab6e	0.13834926
128	0x3dc13b9f	0.094352
129	0x3ee1adfd	0.44078055
130	0x3e88c3b1	0.267118
131	0xbd0e3ecb	-0.034727853
132	0xbe0bff70	-0.1367166
133	0xbe1894fb	-0.14900582
134	0x3e0faaa7	0.14029942
135	0x3ee51d9f	0.44749162
136	0x3d769458	0.060200065
137	0x3f22863a	0.63486063
138	0xbe2b8ca9	-0.16752876
139	0xbd95c6e8	-0.07313329
140	0x3dc4f005	0.096160926
141	0xbda17029	-0.07882721
142	0x3e83ca29	0.25740173
143	0xbe4d6c2f	-0.200608
144	0x3d088baa	0.03333632
145	0xbd931e42	-0.071835056
146	0xbde19d4e	-0.110163316
147	0x3db21224	0.08694866
148	0xbcfe0bf7	-0.031011565
149	0x3d224b56	0.039622627
150	0xbe780ef6	-0.24224457
151	0xbe4badfe	-0.19890592
152	0x3e26f5d5	0.16304715
153	0xbd0a8c43	-0.03382517
154	0x3ea5dad1	0.32393506
155	0x3c88828d	0.016663814
156	0xbe19d27e	-0.15021703
157	0xbd5860c8	-0.052826673
158	0x3e0004f4	0.1250189
159	0x3e1fee00	0.15618134
160	0xbd1fea53	-0.03904183
161	0x3e153ed1	0.14574744
162	0x3ce09038	0.027412519
163	0x3d893495	0.06699482
164	0xbdc99673	-0.09843149
165	0xbe6b2e14	-0.22966796
166	0x3e1748a6	0.14773807
167	0xbcab9932	-0.020947073
168	0x3e5f1c0f	0.21788047
169	0x3ab6ad4c	0.0013937145
170	0xbe13ce8f	-0.14434265
171	0x3e730de1	0.23735763
172	0x3d55ea2e	0.052225284
173	0xbe890393	-0.2676054
174	0xbe6f6455	-0.23378117
175	0xbe2fcc0a	-0.17167678
176	0x3e107337	0.14106451
177	0x3bf7edab	0.007566174
178	0xbe53414d	-0.20630379
179	0xbd933589	-0.071879454
180	0x3e9c0583	0.30472955
181	0xbe249093	-0.16070776
182	0x3e1cdef8	0.15319431
183	0xbd74e9b8	-0.059793204
184	0xbe89a5c6	-0.26884288
185	0x3d184b34	0.037181094
186	0x3d44eea4	0.048079148
187	0xbe2e15db	-0.17000525
188	0xbe4cf3a8	-0.20014822
189	0xbe3329ce	-0.17496416
190	0xbe67f27e	-0.22651097
191	0xbea6dc31	-0.32589868
192	0xbdc4844d	-0.09595547
193	0xbec5e7c9	-0.386534
194	0x3e07d0eb	0.1326329
195	0xbc1acee8	-0.009448744
196	0xbd8e1218	-0.06937045
197	0xbe9703c0	-0.2949505
198	0x3e7b0a45	0.24515636
199	0xbe289694	-0.16463691
200	0xbd59af49	-0.05314568
201	0xbeded9af	-0.43525454
202	0x3e06f886	0.13180742
203	0xbe0c956d	-0.13728876
204	0x3ecfeb46	0.40609187
205	0xbe111964	-0.14169842
206	0x3e1d5b1b	0.15366785
207	0x3d49ab4f	0.04923564
208	0xbe7b03b4	-0.24513131
209	0xbd605188	-0.054765254
210	0xbca37ac2	-0.019955996
211	0x3d881bef	0.06645953
212	0xbd9cc099	-0.076539226
213	0xbc8cccd8	-0.01718752
214	0x3e82a0ed	0.25513402
215	0x3e650c2f	0.22367929
216	0x3be39ee4	0.0069464315
217	0xbe4c05ac	-0.19924039
218	0xbda1fe85	-0.07909874
219	0x3ef72050	0.4826684
220	0x3da9000b	0.08251961
221	0xbd919482	-0.07108404
222	0x3e851271	0.25990632
223	0x3e623148	0.22089112
224	0x3dbc55af	0.0919603
225	0xbed17a19	-0.40913466
226	0xbe11e8e2	-0.14248994
227	0xbe0006bb	-0.12502567
228	0x3d514dfd	0.051099766
229	0x3de6e019	0.11273212
230	0xbdef2f22	-0.11678912
231	0x3d7f15b4	0.062276557
232	0x3cd77714	0.026301898
233	0x3e2ac1b5	0.16675456
234	0x3e192ff1	0.14959694
235	0x3e8404b5	0.2578484
236	0x3e34f937	0.17673193
237	0xbdce3d15	-0.10070244
238	0xbe01f0c9	-0.12689508
239	0x3db0adef	0.08626925
240	0xbd36d248	-0.044634134
241	0xbe0f583b	-0.13998501
242	0xbd2790ea	-0.040909685
243	0x3e4afac4	0.19822222
244	0x3e77ffc8	0.24218667
245	0x3e78c828	0.24295104
246	0x3e2def10	0.16985726
247	0x3e986635	0.29765478
248	0x3e06af01	0.13152696
249	0x3e88a6e8	0.2668984
250	0x3e892ee0	0.26793575
251	0x3e66e903	0.22549824
252	0x3c554f09	0.013019332
253	0x3dbae656	0.09125964
254	0xbe9eaf32	-0.30993038
255	0x3e8bf71b	0.27336964

actor_mean.2.bias f4 [64]
0	0xbd14611a	-0.036225416
1	0x3d0c6556	0.03427633
2	0xbcafd833	-0.021465397
3	0x3ad04ef3	0.0015892669
4	0xb908fbec	-0.00013063819
5	0xbc22ce14	-0.009936828
6	0x3ccd4675	0.02505801
7	0xbc8196ff	-0.01581907
8	0xbc85ba70	-0.016324252
9	0xbca20df7	-0.01978205
10	0xbca7cd3c	-0.020483606
11	0xbc4b4653	-0.012406903
12	0x3cf4f1b9	0.029900419
13	0x3999f960	0.00029368233
14	0xbbb52e30	-0.0055291876
15	0xbcf604a5	-0.030031512
16	0x3cc3d336	0.023904424
17	0x3cae0cc0	0.021246314
18	0xbd08af7b	-0.033370476
19	0xbc0ac8f8	-0.008470766
20	0xbcb894c6	-0.022531878
21	0xbcb43625	-0.021998474
22	0xbcc246d0	-0.023715407
23	0x3a004a81	0.00048939144
24	0xbc66a6f6	-0.0140778925
25	0xbc59bc36	-0.013289502
26	0x3d063244	0.03276278
27	0xbc7774e4	-0.0151035525
28	0x3b6636be	0.0035127844
29	0x3b00bdc2	0.0019644354
30	0x3c55d75e	0.013051836
31	0xba1d68a4	-0.00060046674
32	0xbc86118f	-0.016365794
33	0x3c998a88	0.018742815
34	0xbc4ac9cf	-0.0123772165
35	0xbacc98d3	-0.001560951
36	0x3aa05f08	0.0012235353
37	0xbc11993c	-0.008886632
38	0xbc5d9c0a	-0.013525972
39	0x3b7819f4	0.0037857266
40	0x3ba091de	0.004900201
41	0x3d0657ac	0.032798454
42	0x3c9884f3	0.018618083
43	0x3b3670e4	0.0027838284
44	0xbc0ff182	-0.008785607
45	0xbb64a326	-0.0034887283
46	0xbb4138d6	-0.002948334
47	0x3c6ca459	0.01444348
48	0xbca90f8a	-0.020637292
49	0x3bb16129	0.0054131937
50	0x3bc3a4e1	0.005970583
51	0xbcfa3af6	-0.030545693
52	0xbb93103c	-0.0044880193
53	0xbb961985	-0.004580679
54	0x3d002a0c	0.0312901
55	0x3cb2bdc5	0.021819005
56	0xbcbb66fe	-0.022876259
57	0x3c10aa3e	0.008829651
58	0x3cf6b6f4	0.030116536
59	0xbc1ba89c	-0.009500649
60	0xbb84ec49	-0.0040564877
61	0x3b16dfaf	0.002302151
62	0x3bdfa473	0.006825024
63	0x3c8b3e76	0.016997557

actor_mean.4.weight f4 [2, 64]
0	0x3db1dd61	0.08684803
1	0xbde14b11	-0.11000646
2	0x3e36d6d8	0.17855394
3	0xbe522896	-0.20523295
4	0xbd98fde8	-0.07470304
5	0xbe0aeac6	-0.13566121
6	0xbd0f79c0	-0.03502822
7	0xbd439874	-0.047752813
8	0x3de0ade4	0.10970667
9	0x3de46ced	0.111535884
10	0x3d05b0e8	0.032639414
11	0xbdd7c9cc	-0.105365366
12	0x3cc4ebe0	0.024038255
13	0x3d881c79	0.06646056
14	0xbdc3c83a	-0.095596746
15	0xbdb9e779	-0.09077353
16	0xbe12a593	-0.14320974
17	0xbdb83eb4	-0.08996335
18	0x3e5a0a11	0.21292903
19	0x3b76462a	0.0037578442
20	0xbd7e83e0	-0.062137485
21	0xbc158d73	-0.009127962
22	0x3d04cb90	0.032420695
23	0xbe77e4f6	-0.24208435
24	0xbe484af9	-0.1955985
25	0x3cc123df	0.023576675
26	0xbd23d4e2	-0.039997943
27	0x3c4d4aa7	0.012530006
28	0xbb8c6f94	-0.004285762
29	0x3e1f3ccf	0.1555054
30	0x3df76bb7	0.12081092
31	0xbddb0fb2	-0.10696353
32	0x3de881d2	0.11352886
33	0xbcc7de87	-0.024398101
34	0xbb39141d	-0.0028240748
35	0x3da859ec	0.08220276
36	0x3da56275	0.0807542
37	0xbd77ff44	-0.060546175
38	0x3d07b820	0.03313458
39	0xbe168ac1	-0.14701368
40	0xbe76eba1	-0.24113323
41	0x3d69175f	0.056907054
42	0xbe511584	-0.20418364
43	0xbe003c42	-0.12522987
44	0xbb82ce67	-0.0039918902
45	0xbdafe6c5	-0.08588938
46	0xbe106862	-0.14102319
47	0xbadc3ed2	-0.001680339
48	0xbe396491	-0.1810477
49	0xbe4394a3	-0.19099669
50	0xbca79009	-0.020454424
51	0x3e6e9367	0.23298417
52	0x3dcfcb03	0.10146143
53	0x3eab1677	0.33415577
54	0x3d925d18	0.071466625
55	0x3e3db134	0.18524629
56	0x3e7758f4	0.24155027
57	0x3b5e42b9	0.0033914282
58	0x3d7c1787	0.061545875
59	0xbd7b27fb	-0.061317425
60	0xba261587	-0.0006335605
61	0xbddf5d79	-0.109065
62	0xbe2b77d8	-0.16744936
63	0x3b80b064	0.0039272774
64	0xbc7310fc	-0.014835592
65	0xbc10e5a3	-0.008843812
66	0x3dc26d7a	0.09493537
67	0xbe03ae51	-0.12859465
68	0x3e064d84	0.13115507
69	0xbd972623	-0.07380321
70	0xbe2e33bf	-0.17011927
71	0xbe54fb08	-0.20798886
72	0x3aa5b3d4	0.0012642094
73	0x3e5dea70	0.21671462
74	0x3c4b34d1	0.012402729
75	0x3d9cad2a	0.07650216
76	0x3ba7e185	0.0051233196
77	0x3dcaf7f9	0.09910578
78	0x3e931066	0.2872345
79	0x3e63f9d5	0.22263272
80	0xbccb8d16	-0.024847548
81	0x3d045e9c	0.03231679
82	0x3d7f6a7c	0.06235741
83	0xbb65e1c5	-0.0035077196
84	0xbe38bc9b	-0.18040697
85	0xbd664bf6	-0.056224786
86	0x3e39fdc5	0.18163212
87	0xbdeda643	-0.116039775
88	0x3db92c06	0.090416
89	0xbe0efed9	-0.13964404
90	0xbe0f27c0	-0.13980007
91	0x3b1f68f4	0.0024324032
92	0x3a8d1704	0.0010764305
93	0xbdfa906a	-0.12234576
94	0x3e437d9c	0.19090885
95	0xbe3f5754	-0.18685657
96	0x3e379276	0.17926964
97	0xbd1205ff	-0.03565025
98	0x3abec892	0.0014555624
99	0xbdec50d2	-0.11538853
100	0xbd9f0b5e	-0.0776584
101	0x3e220a1f	0.15824173
102	0xbe109cd2	-0.14122322
103	0xbe59cba3	-0.21269087
104	0xbbc4b8d2	-0.0060034776
105	0x3e1f1d4c	0.1553852
106	0x3d81024c	0.06299266
107	0x3d84c58b	0.06482991
108	0xba36a28a	-0.0006966969
109	0x3e65f27c	0.22455782
110	0x3e7b7263	0.24555354
111	0xbd39b302	-0.04533673
112	0xbd29aa1a	-0.041421987
113	0xbe152904	-0.14566427
114	0xbe7fe01a	-0.24987832
115	0x3e000051	0.1250012
116	0xbd23541b	-0.03987513
117	0x3dbe6061	0.092957266
118	0xbd7fa845	-0.062416334
119	0x3dced353	0.10098901
120	0x3bf8e471	0.0075955917
121	0x3a67c631	0.00088414835
122	0x3d213aed	0.039362837
123	0x3dbbf52b	0.091776215
124	0xbb8b554c	-0.0042521115
125	0x3dd8fdbb	0.1059527
126	0xbe3f0af0	-0.18656516
127	0x3b8ae217	0.004238378

actor_mean.4.bias f4 [2]
0	0x3b3e8d03	0.0029075749
1	0xbaa5d112	-0.0012650809

critic.0.weight f4 [64, 14]
0	0xbcdb3161	-0.026756944
1	0xbd65f0ff	-0.056138035
2	0x3dad1c00	0.08452606
3	0xbc31b22c	-0.010845702
4	0x3e543b12	0.20725659
5	0xbdc7c644	-0.09754613
6	0xbe0b072c	-0.13576955
7	0xbdd9a96d	-0.106280185
8	0x3e8530e2	0.26013857
9	0xbc901377	-0.017587407
10	0xbdc62394	-0.09674755
11	0xbe07d4d2	-0.13264778
12	0x3cd37cd6	0.025816362
13	0xbcb292a9	-0.021798449
14	0x3e902b96	0.28158253
15	0x3e71f768	0.23629534
16	0xbe0357a0	-0.12826395
17	0x3eb89910	0.36054277
18	0x3cec76d7	0.028865261
19	0x3e729f69	0.23693623
20	0x3d77189e	0.06032621
21	0xbd5cc0b2	-0.053894706
22	0xbe5bde0f	-0.21471427
23	0x3db96841	0.09053088
24	0xbe1da1c0	-0.15393734
25	0xbe8060b8	-0.2507379
26	0xbded9191	-0.1160003
27	0xbe70c32d	-0.23511954
28	0x3e1378c3	0.14401536
29	0xbd5366ef	-0.051611837
30	0x3e6aded6	0.22936568
31	0x3d06c937	0.032906737
32	0x3d8bd490	0.068276525
33	0x3a1358ce	0.0005620838
34	0x3da112e3	0.078649305
35	0x3e7aa848	0.24478257
36	0xbdd6adb3	-0.10482349
37	0xbdc48054	-0.09594789
38	0xbd22ec97	-0.03977641
39	0xbd790907	-0.060799625
40	0xbd983565	-0.07432059
41	0xbe89f92b	-0.26947913
42	0x3ded80bc	0.1159682
43	0xbe945076	-0.28967637
44	0xbe8f4d55	-0.27988687
45	0xbc9f9af9	-0.019483076
46	0x3ea137eb	0.31487975
47	0xbdfbcbda	-0.12294741
48	0x3ded3597	0.11582487
49	0xbe14aeb6	-0.14519772
50	0x3dc2840b	0.094978414
51	0xbe07a40b	-0.13246171
52	0x3d44e136	0.04806634
53	0x3e4704b3	0.19435386
54	0x3cd6bf2d	0.026214207
55	0x3de8175a	0.11332579
56	0x3eb47176	0.35242814
57	0xbe40daec	-0.18833512
58	0xbd80ac70	-0.0628289
59	0x3df20076	0.11816494
60	0xbdd00d70	-0.10158813
61	0x3e9b5edc	0.3034581
62	0x3d7506fe	0.05982112
63	0x3df90ab7	0.12160247
64	0xbe0903ef	-0.13380407
65	0x3d4ad10a	0.04951576
66	0x3de7ad87	0.113123946
67	0x3e3a6c2a	0.18205324
68	0x3ea5ae10	0.32359362
69	0xbdaba7e9	-0.08381636
70	0xbe6c2a61	-0.23063041
71	0x3e6a7fdc	0.22900337
72	0x3c85eee5	0.016349265
73	0xbe183cac	-0.14866894
74	0x3d93a3dc	0.07208988
75	0xbc1fae18	-0.009746097
76	0x3e8c50fc	0.27405536
77	0x3ead999b	0.33906254
78	0x3dcacf8c	0.09902868
79	0x3d6e25ab	0.05814139
80	0x3c01ca73	0.007921803
81	0x3d3d0965	0.046151537
82	0x3d80cf5c	0.06289551
83	0x3e4dc361	0.20094062
84	0x3c9e9538	0.019358262
85	0xbe05bdb7	-0.13060652
86	0xbd711595	-0.058858473
87	0x3d9cceeb	0.07656654
88	0xbe467b6d	-0.1938302
89	0xbdc1730b	-0.09445771
90	0x3b27e2e9	0.0025617427
91	0xbe8d38ce	-0.275824
92	0xbdc5e507	-0.09662824
93	0xbe13aad3	-0.14420633
94	0xbe03a93d	-0.12857528
95	0x3da290eb	0.07937797
96	0x3d277dcd	0.040891457
97	0xbed22855	-0.41046396
98	0x3da0b0bb	0.07846209
99	0x3e65de29	0.22448029
100	0x3e377941	0.17917348
101	0x3e361b83	0.17783932
102	0x3dad520d	0.084629156
103	0xbe572b63	-0.21012644
104	0x3e08fc55	0.13377507
105	0xbe23eaa8	-0.16007483
106	0xbd3dc15e	-0.046326987
107	0xbe804b2f	-0.2505736
108	0x3e9d89c5	0.30769172
109	0x3e5acfe2	0.21368363
110	0xbea73451	-0.32657102
111	0xbd2457f2	-0.040122934
112	0xbe00bcd3	-0.1257203
113	0x3e354d27	0.17705213
114	0x3e30eeb7	0.17278562
115	0x3cf0719b	0.029351046
116	0xbd9e2874	-0.077225596
117	0xbc5d31f2	-0.013500677
118	0xbe06e926	-0.13174877
119	0x3d25c93a	0.040475108
120	0x3e3a0844	0.18167216
121	0xbd441b04	-0.047877327
122	0xbd89dace	-0.06731187
123	0x3da5f3ec	0.08103165
124	0x3e39ecc8	0.18156731
125	0xbdd08955	-0.10182444
126	0x3d6836c9	0.056692872
127	0x3e10c207	0.14136516
128	0x3de60be9	0.112327404
129	0xbe985c82	-0.29758078
130	0xbdd291cb	-0.10281714
131	0x3dc6e626	0.09711866
132	0x3db7e087	0.08978372
133	0xbdaac61b	-0.08338567
134	0xbe14b561	-0.14522316
135	0xbdfe68ad	-0.12422309
136	0xbe4c4ab2	-0.19950369
137	0x3e025007	0.1272584
138	0xbc717333	-0.014736938
139	0x3e37173e	0.1787996
140	0x3c69100c	0.014225017
141	0xbe27c1c4	-0.1638251
142	0xbc609cdc	-0.013709273
143	0x3e812ad0	0.25227976
144	0x3d81b4b3	0.06333294
145	0x3e66bed3	0.22533731
146	0xbd7c70b7	-0.06163093
147	0x3ebe452c	0.3716215
148	0xbde47828	-0.111557305
149	0x3da9309f	0.08261227
150	0x3d4458cf	0.047936257
151	0xbd46a7d2	-0.04849989
152	0xbd257991	-0.040399138
153	0x3f0e0ac2	0.55485165
154	0x3c56bc32	0.013106393
155	0x3e8fdf77	0.28100178
156	0xbc9901c0	-0.018677592
157	0x3dec4cbc	0.115380734
158	0xb9568e5f	-0.00020461668
159	0x3d9718d4	0.073777825
160	0x3f0d497a	0.5519024
161	0xbef1733e	-0.47158235
162	0x3de75723	0.11295917
163	0xbdff9d45	-0.12481169
164	0x3c856560	0.01628369
165	0x3dbf69fb	0.09346386
166	0x3e5942ad	0.21216841
167	0xbd81f8d7	-0.063462906
168	0xbea2fe52	-0.31834656
169	0x3ebf3760	0.37346935
170	0xbc9318e8	-0.017956212
171	0xbe63d1bd	-0.22247978
172	0xbd0609a3	-0.032724034
173	0xbe7995b8	-0.2437352
174	0x3f8d10cc	1.1020751
175	0x3e1764b0	0.14784503
176	0x3de0d31e	0.109777674
177	0x3e206ea0	0.156672
178	0x3d0e8e97	0.034803953
179	0xbd1757e0	-0.03694904
180	0x3def7df3	0.11693945
181	0x3c685e2b	0.014182608
182	0x3e0a6b4d	0.13517494
183	0x3e10967f	0.1411991
184	0x3e501f7b	0.20324509
185	0xbe99f36a	-0.30068523
186	0x3e0bf934	0.13669282
187	0x3d2f6fcb	0.042831223
188	0xbe717cb9	-0.23582734
189	0xbe574fcf	-0.21026538
190	0xbe08b9f6	-0.13352188
191	0xbe87c5b7	-0.26518032
192	0x3e006990	0.12540269
193	0xbe48f319	-0.19623984
194	0xbda74c0c	-0.08168802
195	0xbe743360	-0.23847723
196	0x3c35a005	0.011085515
197	0x3e0e6798	0.13906705
198	0x3e6e85c1	0.2329321
199	0x3e27e35e	0.16395327
200	0xbe12c6ae	-0.14333603
201	0x3d257d87	0.040402915
202	0x3e7dfff0	0.24804664
203	0xbd2cf2d3	-0.042223763
204	0xbb4a88a3	-0.0030904196
205	0xbd2d53c3	-0.04231621
206	0xbe578bc5	-0.21049412
207	0x3dca067d	0.09864519
208	0xbed615c1	-0.41813472
209	0x3e0a069f	0.13479088
210	0xbd202e34	-0.039106563
211	0xbe18a0f8	-0.14905155
212	0x3d1d7be1	0.03844822
213	0x3e5ff2e6	0.21870002
214	0x3db62b7f	0.08895015
215	0x3e583e19	0.21117438
216	0x3dff2ef8	0.124601305
217	0x3cb56904	0.022144802
218	0xbdf42f3c	-0.11923072
219	0x3e2d226e	0.16907665
220	0xbbd2b4ed	-0.0064302594
221	0xbd3f360b	-0.0466824
222	0xbe1d7cca	-0.15379634
223	0xbe465d19	-0.19371451
224	0xbe8708e8	-0.26373982
225	0x3df2822e	0.11841236
226	0xbdf79deb	-0.12090667
227	0xbc9d25a6	-0.019182991
228	0x3eedbf53	0.4643503
229	0xbe1c9b83	-0.15293698
230	0x3dae77a8	0.08518916
231	0x3ebbbd5c	0.36667907
232	0x3d91f947	0.07127624
233	0x3caece7d	0.021338696
234	0xbc7814be	-0.015141664
235	0x3e06f425	0.13179071
236	0xbe840454	-0.25784552
237	0xbd36248d	-0.04446845
238	0xbe41447b	-0.1887378
239	0xbd840556	-0.0644633
240	0x3c772428	0.015084304
241	0xbd2231ee	-0.039598398
242	0x3c3e705f	0.011623471
243	0xbd8755eb	-0.066081844
244	0x3f9f5396	1.2447383
245	0x3eabe47a	0.3357275
246	0x3e96fde0	0.29490566
247	0x3e872a75	0.2639958
248	0x3d3a9e9b	0.045561414
249	0xbce0cb0a	-0.027440567
250	0x3d839863	0.0642555
251	0x3caad252	0.020852242
252	0xbbde289c	-0.0067797434
253	0xbe969dcd	-0.29417267
254	0xbc80c2bf	-0.015717862
255	0x3dac7718	0.08421153

critic.0.bias f4 [64]
0	0x3b963e9c	0.0045851003
1	0x3b8a4bea	0.0042204754
2	0x329ec940	1.8485139e-08
3	0xadc96873	-2.289744e-11
4	0x3c8f140f	0.01746562
5	0x3d982b4e	0.07430135
6	0xbbf71e54	-0.007541457
7	0xbb10af71	-0.0022077227
8	0x3698f13f	4.5580377e-06
9	0x3b63027b	0.003463893
10	0xbc22f829	-0.009946861
11	0xbc08cf7f	-0.008350252
12	0xbd376106	-0.044770263
13	0x37b21c3b	2.12324e-05
14	0x3c2234b3	0.00990026
15	0xbc2cf1d0	-0.0105556995
16	0xbbc53856	-0.0060186787
17	0x3cb3991d	0.021923596
18	0x3c9198de	0.017773088
19	0xb5b5be8a	-1.3541005e-06
20	0xbbe507f0	-0.0069894716
21	0x3b185694	0.0023244964
22	0xbdae7473	-0.08518305
23	0x34588378	2.0164396e-07
24	0xb5c7842c	-1.4865122e-06
25	0x3790f9df	1.7282493e-05
26	0xbbbda767	-0.005787778
27	0x33b9ec01	8.657663e-08
28	0x33cce691	9.54143e-08
29	0x3b8c34cc	0.004278755
30	0xb4206be5	-1.4940413e-07
31	0x36e52675	6.829209e-06
32	0xb5a46e2f	-1.225102e-06
33	0x3a8eddca	0.0010899839
34	0xbd2f312b	-0.0427715
35	0xb5a13083	-1.2009554e-06
36	0xb25d7b2d	-1.28919e-08
37	0xbd5506f5	-0.052008588
38	0xb962354b	-0.00021572893
39	0xbc9c06d7	-0.01904623
40	0x3c2630a9	0.010143437
41	0x3d0dbff2	0.03460688
42	0x35b0339c	1.3128042e-06
43	0xb08d3c03	-1.0276157e-09
44	0x00000000	0.0
45	0x3d95130e	0.07279025
46	0x38905626	6.8825015e-05
47	0x3b0d1245	0.0021525782
48	0xbb5aa413	-0.0033361956
49	0xb95c5f0c	-0.00021016243
50	0xbbc03633	-0.005865836
51	0xb5893f68	-1.0225749e-06
52	0xb5cad10a	-1.5111011e-06
53	0x39ca16e4	0.00038545497
54	0xb5fc317f	-1.8789868e-06
55	0xbd884300	-0.06653404
56	0xbc114569	-0.008866646
57	0xb30d7c3d	-3.2942115e-08
58	0xbb63a434	-0.0034735324
59	0xbc745ffc	-0.014915463
60	0xba5379a8	-0.00080671394
61	0x3d85b236	0.06528132
62	0x3bfbc6cb	0.00768361
63	0x36e5a614	6.844066e-06

critic.2.weight f4 [64, 64]
0	0x3e6c4eb8	0.23076904
1	0x3e47dd56	0.19518027
2	0x3db28016	0.08715837
3	0x3e9f0834	0.31060946
4	0xbe9ef097	-0.3104293
5	0x3ebbf81a	0.36712724
6	0xbea8d7d4	-0.32977164
7	0x3dd2739a	0.102759555
8	0x3eb0461a	0.34428483
9	0xbe5cc507	-0.21559535
10	0xbe5989ab	-0.21243922
11	0xbdc61c4e	-0.096733674
12	0x3cd8775a	0.026424099
13	0x3e10ba98	0.1413368
14	0xbcd80068	-0.026367381
15	0xbeba45fb	-0.36381516
16	0xbc956237	-0.018235309
17	0xbd9bdeff	-0.076108925
18	0x3e144090	0.14477754
19	0xbd8392d7	-0.06424492
20	0xbe1e4a44	-0.15458018
21	0xbd0c2968	-0.034219176
22	0xbd24fa45	-0.040277738
23	0x3e030290	0.12793946
24	0xbd6995e6	-0.05702772
25	0x3e0e4eed	0.13897295
26	0x3e22bce9	0.15892376
27	0x3e5787eb	0.21047942
28	0x3cb7458b	0.022372028
29	0x3de196f5	0.11015121
30	0xbdeb7ddb	-0.114986144
31	0xbe618753	-0.22024278
32	0x3e7b4bec	0.2454068
33	0x3ce17e8f	0.027526168
34	0xbe7b3503	-0.24531941
35	0x3e864482	0.26224142
36	0x3d6c3884	0.057671085
37	0x3c62b553	0.013837176
38	0xbe4284d6	-0.18995985
39	0x3c179fed	0.009254438
40	0x3cdfb0a4	0.027305909
41	0xbe6fa20f	-0.23401664
42	0xbd965e5c	-0.07342216
43	0x3e208d47	0.15678893
44	0xbe88000b	-0.26562533
45	0xbd4f213f	-0.050568815
46	0x3e872664	0.26396477
47	0x3e0a6eef	0.1351888
48	0x3dd2b1ed	0.10287843
49	0xbe014632	-0.12624434
50	0xbc2a732b	-0.010403435
51	0xbd7a96e9	-0.061179075
52	0x3e5479e8	0.20749629
53	0xbe839334	-0.25698245
54	0x3d97e7ad	0.074172355
55	0x3d44541c	0.047931775
56	0xbdcf6336	-0.10126345
57	0xbd820dc4	-0.06350282
58	0xbea27197	-0.31727287
59	0x3e2d2ccc	0.1691162
60	0xbde08121	-0.109621294
61	0xbe051cae	-0.12999222
62	0x3e3d2e8f	0.18474792
63	0x3e2faeb8	0.17156494
64	0xbdb7dff4	-0.089782625
65	0x3d9e962f	0.07743489
66	0x3ead6fa3	0.33874235
67	0x3c6b0582	0.014344575
68	0x3ead400b	0.33837923
69	0x3cb2e83c	0.021839254
70	0xbd300f38	-0.042983264
71	0xbe06a239	-0.1314782
72	0xbd16566d	-0.036703516
73	0xbddad26b	-0.10684665
74	0xbd92c2ca	-0.07166059
75	0xbe0c4579	-0.13698377
76	0xbe4c63fe	-0.19960019
77	0xbe431e2f	-0.19054483
78	0x3e5162ab	0.20447795
79	0xbdd7598c	-0.105151266
80	0x3e474b9c	0.19462436
81	0x3ee20359	0.4414318
82	0xbc2cf1c4	-0.010555688
83	0x3d722edd	0.059126724
84	0xbdd05403	-0.10172274
85	0xbe8316fe	-0.2560348
86	0x3e9b8b7d	0.3037986
87	0xbdfe14b5	-0.12406293
88	0xbe1efe67	-0.15526734
89	0xbc8f15fa	-0.017466534
90	0x3d2fa304	0.042880073
91	0x3d2a6ab3	0.041605663
92	0x3e466a1f	0.1937642
93	0xbd0c72d7	-0.034289207
94	0x3e1ae64f	0.15126918
95	0xbec7b4e6	-0.39005202
96	0x3edee367	0.4353287
97	0x3e0137de	0.12618968
98	0x3e9400fa	0.28906995
99	0xbd98798f	-0.074450605
100	0xbe4b25a1	-0.19838573
101	0xbe38db3e	-0.18052384
102	0x3e209719	0.15682639
103	0x3e9b07c4	0.30279362
104	0xbc5fa81e	-0.013650922
105	0x3df71d3e	0.120661244
106	0x3de1646f	0.11005484
107	0xbdf8e215	-0.12152497
108	0xbe20631c	-0.15662807
109	0xbcbafc48	-0.022825375
110	0x3d8b21b5	0.067935385
111	0xbe31457d	-0.17311664
112	0xbe885606	-0.2662813
113	0xbd9d70ad	-0.07687507
114	0xbe0187a0	-0.12649393
115	0x3e88e336	0.26735848
116	0x3c449ce7	0.012000299
117	0xbe02f981	-0.1279049
118	0x3c7cfb24	0.015440736
119	0xbdd2e8eb	-0.10298332
120	0xbd3529fd	-0.044229496
121	0x3e2b35da	0.16719761
122	0x3d26246d	0.040562082
123	0xbdfc96e6	-0.12333469
124	0x3e9948d9	0.2993839
125	0xbe974050	-0.29541254
126	0x3cedcb71	0.029027672
127	0x3e3efe6c	0.18651742
128	0x3d79d044	0.060989633
129	0x3ead3a28	0.33833432
130	0xbe22e996	-0.15909418
131	0x3e64ecfe	0.2235603
132	0x3dcaa7a8	0.09895259
133	0xbe837220	-0.25673008
134	0x3e955d6b	0.29172835
135	0xbdb5d7f1	-0.08879078
136	0xbc347207	-0.011013514
137	0xbc367e95	-0.011138578
138	0xbe51772f	-0.20455621
139	0x3e69b171	0.22821595
140	0x3ebf61c9	0.37379292
141	0xbee040e4	-0.43799508
142	0xbe152148	-0.14563477
143	0xbe0ebc5c	-0.13939041
144	0xbd90d121	-0.07071138
145	0x3e36778f	0.17819045
146	0xbe3e048f	-0.18556426
147	0x3cf3b7e9	0.029750781
148	0x3cbec98a	0.02328946
149	0x3e94d88a	0.29071456
150	0xbb2790c5	-0.0025568467
151	0x3d7c6527	0.061619904
152	0xbe2bb93c	-0.1676988
153	0xbec9ef9c	-0.3944062
154	0x3dcbbbd0	0.09947932
155	0xbe141d4a	-0.14464298
156	0x3d53680a	0.05161289
157	0xbd549867	-0.051903155
158	0x3e05b551	0.13057448
159	0xbe807558	-0.25089526
160	0xbd21cecd	-0.03950386
161	0xbd0f4bf3	-0.03498454
162	0xbde62a7a	-0.112385705
163	0x3dda819f	0.106692545
164	0xbe5d46c8	-0.21609032
165	0xbe664297	-0.2248634
166	0xbdc73cfa	-0.09728427
167	0xbb40b1e0	-0.0029402897
168	0xbc0cbe44	-0.008590285
169	0x3d2f2369	0.04275838
170	0x3a6f4f58	0.00091289496
171	0xbdf38ea0	-0.11892438
172	0x3c675802	0.014120104
173	0xbd7c6f95	-0.06162985
174	0x3c39b055	0.011333545
175	0xbc715ba1	-0.014731319
176	0xbdfc09e9	-0.12306578
177	0x3e7f8dfe	0.2495651
178	0x3e2f3ead	0.17113753
179	0xbe2d52be	-0.16926095
180	0x3d64eed2	0.05589182
181	0xbe4731cc	-0.1945259
182	0x3dcc57e5	0.09977702
183	0x3ef072ea	0.46962672
184	0xbcc4fc18	-0.024045989
185	0xbe908c88	-0.28232217
186	0x3d115ce0	0.035488963
187	0x3d87a1a1	0.06622625
188	0xbdcbf610	-0.09959042
189	0x3de5f76f	0.11228835
190	0xbe08507e	-0.13311955
191	0x3e59ec67	0.21281587
192	0xbe726e5e	-0.23674914
193	0x3e127bff	0.14305113
194	0x3e3e3874	0.18576223
195	0x3ddbe306	0.10736661
196	0x3dab0ea7	0.08352404
197	0x3e130db6	0.14360699
198	0x3d1b8d31	0.037976447
199	0x3d1d60c9	0.03842238
200	0x3e11a79f	0.14224099
201	0x3e2c861e	0.16848037
202	0xbd05b1e5	-0.032640357
203	0x3e2e4bee	0.17021152
204	0x3f065d11	0.5248576
205	0x3e1c3807	0.15255748
206	0xbd8db45b	-0.06919166
207	0x3e4d073a	0.20022288
208	0x3e842ca6	0.25815314
209	0xbef5afc3	-0.47985658
210	0x3bb3cc5d	0.0054870085
211	0xbdcfb726	-0.10142355
212	0xbd82c911	-0.063860066
213	0xbd6b2b2d	-0.057414223
214	0xbe5bcc44	-0.2146464
215	0x3dddb1bc	0.10824916
216	0x3e0efc50	0.13963437
217	0x3c98684e	0.018604424
218	0xbeb147f4	-0.34625208
219	0x3e681f1b	0.22668116
220	0xbdfcedbf	-0.12350034
221	0xbe4fd928	-0.20297682
222	0xbe70967d	-0.23494907
223	0x3df1d33c	0.11807868
224	0x3e172cbe	0.14763162
225	0x3d4adc70	0.04952663
226	0x3a097119	0.0005242988
227	0xbe4f8e58	-0.20269144
228	0xbeba0430	-0.3633132
229	0xbe1f2780	-0.15542412
230	0xbdf1d8bc	-0.11808917
231	0x3cb95189	0.022621887
232	0x3e05023c	0.12989134
233	0xbe7a7b5b	-0.24461119
234	0x3e9e06f2	0.30864674
235	0x3e1a2aaf	0.15055345
236	0xbe089ad5	-0.13340314
237	0x3cf0215b	0.02931278
238	0xbca3ee78	-0.020011172
239	0xbb4f2773	-0.0031609207
240	0xbe2bdbe7	-0.16783105
241	0x3dd1a731	0.10236967
242	0x3e50c760	0.20388556
243	0x3ebb4491	0.3657575
244	0x3d837fe3	0.06420877
245	0x3e1458aa	0.14486948
246	0x3dd270b6	0.10275404
247	0x3dce9d01	0.1008854
248	0x3e3c3679	0.18380155
249	0xbe3a45c1	-0.18190672
250	0x3d17fa32	0.03710384
251	0xbe382df7	-0.17986284
252	0xbde9b5ae	-0.11411606
253	0xbe9f74ec	-0.31143892
254	0xbd947354	-0.072485596
255	0xbda0f51d	-0.07859252

critic.2.bias f4 [64]
0	0x3c58892b	0.013216297
1	0xbc2098eb	-0.0098020835
2	0xbc497e9e	-0.012298254
3	0x3b75ede8	0.0037525836
4	0xbc754b0a	-0.014971504
5	0x3bf0d10c	0.007349139
6	0xbaaf966b	-0.0013396268
7	0x3c7350ea	0.014850834
8	0x3bcd7cd8	0.006270986
9	0xbb21e5ba	-0.0024703578
10	0xbc13f21d	-0.009029892
11	0xbcc4735e	-0.023980793
12	0xbcb10c89	-0.021612423
13	0xbbcda8a9	-0.0062762094
14	0xbba566dd	-0.0050476626
15	0xbb85ac76	-0.004079397
16	0xbbc5d76f	-0.0060376446
17	0x3c6ea833	0.014566469
18	0xbc08823e	-0.008331833
19	0x3c0e2aab	0.008677165
20	0x3c82c360	0.015962303
21	0xbbb22357	-0.0054363417
22	0xbbe8a620	-0.007099882
23	0xbc0e017a	-0.008667344
24	0xbc64bd95	-0.0139612155
25	0x3b85fa52	0.0040886784
26	0x3c864bf8	0.016393647
27	0x3aefe48b	0.0018302364
28	0x3ca2adc5	0.01985825
29	0xbc9a4777	-0.018832905
30	0x3b80e5dc	0.0039336514
31	0xbb5ce8e1	-0.0033708143
32	0xbce6e274	-0.028184153
33	0x3be7643c	0.0070615094
34	0x39e1c3ac	0.0004306113
35	0x3c45526f	0.0120435795
36	0x3c74efff	0.014949798
37	0x3bd0f0cf	0.006376363
38	0xbab0ec6a	-0.0013498191
39	0x3c039ae5	0.008032535
40	0x3c513a1b	0.012770201
41	0xbca56bcd	-0.020193005
42	0xbd1ddf7b	-0.038543206
43	0x3c19e530	0.009393021
44	0x3bb4697c	0.005505739
45	0xbb6d8afe	-0.0036246176
46	0xbc0da48f	-0.008645191
47	0x3b69bad0	0.0035664327
48	0xbc7e052f	-0.015504166
49	0x3c7a556d	0.015279156
50	0xbcaea817	-0.021320386
51	0x3c908167	0.017639829
52	0x3b8651cd	0.004099107
53	0x3c9c843d	0.019106025
54	0xbbdee3f9	-0.006802079
55	0x3c9ee199	0.019394683
56	0x3c5114d8	0.012761317
57	0x3b5afec4	0.0033416012
58	0x3c0d52b1	0.008625672
59	0xbb8c91d9	-0.0042898473
60	0x3bb25c72	0.0054431492
61	0xbc5539cf	-0.013014271
62	0x3bcea6e5	0.0063065165
63	0xbbfe65d1	-0.0077636023

critic.4.weight f4 [1, 64]
0	0xbe5977ff	-0.21237181
1	0x3d780ccd	0.060559083
2	0x3d36ec56	0.04465898
3	0xbe9bbec8	-0.30418992
4	0x3deb24b8	0.11481613
5	0xbcaa8f30	-0.02082023
6	0xbeb48351	-0.35256436
7	0xbe256373	-0.16151218
8	0x3d8601d6	0.06543319
9	0x3ddc2e70	0.10751045
10	0x3de176de	0.11009
11	0x3e0c19b8	0.13681686
12	0xbda21d4b	-0.079157434
13	0x3ea511af	0.32240054
14	0x3e2dd3de	0.16975352
15	0x3df1412d	0.117800094
16	0xbc7372ee	-0.014858944
17	0xbd57b378	-0.05266139
18	0xbcbca6e3	-0.023028797
19	0x3d26b614	0.040700987
20	0xbccb0936	-0.024784666
21	0x3e634f71	0.22198273
22	0x3d8b167d	0.06791399
23	0xbd1d25c4	-0.038366094
24	0x3c9a5309	0.018838422
25	0x3d808b5f	0.06276583
26	0xbc7c86f0	-0.015413031
27	0xbd0f862b	-0.035040062
28	0xbe175842	-0.14779761
29	0x3df2393a	0.11827321
30	0x3e822229	0.25416687
31	0x3e6c4573	0.23073368
32	0x3e0a193d	0.1348619
33	0x3d6e5efb	0.05819605
34	0xbabc2426	-0.0014354035
35	0xbdb8cd55	-0.09023539
36	0xbd97309d	-0.07382319
37	0xbe2e7efe	-0.17040631
38	0xbe29dfa6	-0.16589221
39	0xbdc57459	-0.09641332
40	0xbda728cd	-0.08162079
41	0x3de4b709	0.11167724
42	0x3e048e1e	0.12944838
43	0xbd0cd72c	-0.03438489
44	0xbd99f783	-0.07517912
45	0x3d8ff22d	0.07028613
46	0x3ddfb660	0.10923457
47	0xbeebdfc8	-0.4606917
48	0x3dd62f46	0.104582354
49	0xbdc9ef0e	-0.09860049
50	0x3e255397	0.16145168
51	0x3e1d1c01	0.15342714
52	0x3e860d85	0.2618219
53	0xbe328764	-0.1743446
54	0x3e25d958	0.16196191
55	0xbdc24cd8	-0.09487313
56	0xbdc7bc7a	-0.09752746
57	0xbd8adc5e	-0.06780313
58	0xbd7ea53f	-0.06216931
59	0x3d37e4a5	0.044895787
60	0xbdcddd72	-0.10052003
61	0x3d312e20	0.04325688
62	0xbe172d6b	-0.1476342
63	0x3e8efaf3	0.27925834
