fw_flightcontrol/models/icinco/ppo/actreg/actvar/ppo_bohn_actvarR2_nohist_noatmo_1_03-06_14:51:13.pt (torch, 46885 bytes, 12 tensors)

actor_logstd f4 [1, 2]
000000 45 fc f9 3c e5 cb 18 3e
       0.0305158 0.1492153

actor_mean.0.weight f4 [64, 14]
000000 b5 d7 03 3e dd ab a6 be b9 2e e6 39 7b 15 dd 3d
       0.12875254 -0.32552996 0.0004390383 0.10795113
000010 47 81 35 be 06 5c bd be 6f 3a cf bd c4 4d 3f 3f
       -0.17725097 -0.3698427 -0.10118567 0.74728036
000020 cc 6d a8 be be a2 8f ba 53 23 84 bd bf 19 63 3d
       -0.32896268 -0.0010958535 -0.0645205 0.055444475
000030 ba a8 d3 3e 35 74 b8 3e ea 88 17 3e 7d 1f 59 3d
       0.41339666 0.3602616 0.14798322 0.053008545
000040 43 5a f7 3d f1 4f 1e be d7 aa ec bd 1a 42 9e 3e
       0.12077763 -0.15460183 -0.115560226 0.30909806
000050 a9 ad 03 3e 24 3f 61 3d 23 f3 2e be 04 bb 3a 3e
       0.12859215 0.054991856 -0.17084937 0.18235403
000060 80 cc a4 3d 46 b8 bf 3d 62 53 d4 3e da 09 56 be
       0.08046818 0.09361319 0.41469866 -0.20902196
000070 f1 96 39 bc 98 90 de 3e 2e 4f df 3a 91 bf a0 bd
       -0.011327491 0.4346969 0.0017037147 -0.078490384
000080 41 fd f7 bd 2c 01 e7 bd 20 c3 a6 3e bd 55 bd be
       -0.12108851 -0.112795204 0.32570744 -0.36979476
000090 74 b7 55 bd d9 e3 9b bd 77 b0 3a 3d b6 a2 f8 bd
       -0.052176908 -0.07611818 0.045578446 -0.1214041
0000a0 c1 12 73 3e 3a 24 e6 3b a3 fc 68 3d cc 9b 03 3f
       0.23737623 0.0070233615 0.05688156 0.514096
0000b0 c8 d8 b4 3d 6e 56 ed 3c 78 43 a2 bd 56 2d fb 3d
       0.0883041 0.028971877 -0.07923025 0.122645065
0000c0 b3 98 34 bc ce ad 7c bb 0b 0b a8 be 64 78 af 3e
       -0.011022734 -0.0038555744 -0.32820925 0.34271538
0000d0 5c f1 94 3e 5b 47 81 be 3c 2e 17 bd 11 7a e3 3c
       0.29090393 -0.25249752 -0.036909327 0.027768167
0000e0 91 8d 49 be 30 6f 61 3d 33 3f ad bd ad 05 b7 3e
       -0.1968291 0.055037677 -0.0845932 0.35746518
0000f0 09 69 8f bd bb 11 11 3d 6d ad 57 3e a1 4e e1 3d
       -0.07002456 0.0354173 0.2106225 0.110013254
000100 39 1f 55 3e 4c d0 00 be 36 05 cd 3d 75 f5 62 be
       0.20812692 -0.12579459 0.100107595 -0.22163947
000110 6e 4b a5 3c cc 41 d6 bd cd c9 93 3d f5 4a 0a be
       0.02017757 -0.104617685 0.07216225 -0.13505156
000120 1d 8c 1e be 14 74 21 be 39 41 8d be 56 22 fc 3d
       -0.15483136 -0.15766937 -0.27588823 0.123112366
000130 a7 68 e7 3c 10 14 01 be c3 e2 7d 3e 26 7e 4d 3d
       0.028248144 -0.1260531 0.24793534 0.050169133
000140 ff 8b fa bd ca 38 db be 51 aa 29 bc de 7a 8a 3e
       -0.122337334 -0.42816764 -0.010355548 0.27046865
000150 83 5f c1 3e e7 a2 0f bf 82 93 1d bc 4e 30 62 be
       0.37768182 -0.56107944 -0.009617688 -0.2208874
000160 d9 f8 8d bd de cf 3a 3d c0 c1 d6 bd 4a 75 25 3f
       -0.069322295 0.045608394 -0.10486174 0.64632094
000170 49 a3 6f be eb 69 3a bd 3a f5 a8 be 81 f9 c3 bc
       -0.23402132 -0.045511167 -0.32999593 -0.023922684
000180 65 a7 49 3e bf 41 9f bd 32 38 ad bd c2 a0 4f 3e
       0.19692762 -0.07776212 -0.08457984 0.20276168
000190 bd 3c 8a 3e 15 58 47 be 2c 4c 06 3e 7d 3f 27 3e
       0.26999465 -0.19467194 0.13114995 0.16332813
0001a0 04 51 02 3d f7 2d a2 3c 09 2a 52 bc 65 e4 35 3e
       0.031815544 0.019797308 -0.012827405 0.17762907
0001b0 20 e0 b6 bd 07 cf a4 3d c6 85 37 3d 07 50 cb bd
       -0.08929467 0.080473 0.04480531 -0.099273734
0001c0 95 f5 00 3e ca 90 8e be 13 87 aa 3d b9 bd f5 3d
       0.12593682 -0.2784484 0.083265446 0.11999077
0001d0 bd 9b 88 3e c3 1b f4 be 93 39 c0 3d e8 03 a7 3e
       0.2668132 -0.4767743 0.093859814 0.32620168
0001e0 cb e5 09 be 7a b3 61 bd 1c e5 b0 3d 59 c6 70 bd
       -0.13466565 -0.055102803 0.08637449 -0.05878291
0001f0 f6 05 4d be 76 4d bf bd 60 99 ce 3d 41 d0 ca 3d
       -0.20021805 -0.093409464 0.10087848 0.099030025
000200 39 2d 17 3e 2c 8a 9c be a8 1f 18 be 2c 79 90 be
       0.14763345 -0.30574167 -0.14855826 -0.28217447
000210 21 96 d2 bc ce e9 6e bd b8 2e 67 3e 41 8f 41 be
       -0.025706353 -0.058328442 0.22576416 -0.18902303
000220 84 87 fa 3d 6f 6c c8 3d b7 1f aa 3d 6f 8c be 3d
       0.12232879 0.09786307 0.083068304 0.09304129
000230 ba 3e b0 bd 8e 80 bf bd 5a 5a 7f 3e 64 fe 60 3d
       -0.08605714 -0.09350692 0.2493681 0.054930106
000240 36 a5 d0 3d 31 8f 85 be ac 3b a6 be 2d a8 b8 3e
       0.101877615 -0.2608581 -0.324674 0.36065808
000250 1f 6e 9b 3d 95 fa 50 3e 8d 95 f6 bc fc 52 90 bd
       0.07589363 0.2040809 -0.030100608 -0.07047078
000260 53 2b bf bc 91 0a f8 bd 38 1f 21 bc aa 14 0c bc
       -0.023336088 -0.121113904 -0.009834103 -0.008549849
000270 27 0a c1 3e d9 02 d0 3d e7 d0 61 3d 07 32 c4 bd
       0.37703058 0.10156793 0.055130865 -0.095798545
000280 e1 d6 fe 3d 38 57 54 be 53 3c 63 3d 2f 82 03 3e
       0.12443329 -0.20736396 0.05547745 0.1284263
000290 5f 8c 5f 3e eb 3b af 3d a5 5d 1f 3e f4 97 23 be
       0.21830891 0.0855635 0.15563066 -0.15975934
0002a0 5c 2f 94 3e d2 8b 99 be 32 79 99 be 93 b9 69 be
       0.28942382 -0.29989487 -0.29975277 -0.22824697
0002b0 b7 5d 63 bd c2 be 73 bd 82 1a c0 3d d7 eb 00 3e
       -0.055509295 -0.059508093 0.09380056 0.12589966
0002c0 3d 81 a9 be c1 80 cc bd da 90 11 3e a3 6a cf bd
       -0.33106413 -0.09985495 0.14215413 -0.10127761
0002d0 68 dd fb bd 7c f7 a8 3e 06 b9 d6 3e 42 e6 16 be
       -0.12298089 0.33001316 0.41938037 -0.14736274
0002e0 09 b4 2f be f6 56 f0 3d 61 24 c2 3d 19 fb 9b 3e
       -0.17158522 0.117353365 0.09479595 0.3046501
0002f0 c3 0f cb bd 84 ae 99 3e 9b 41 eb 3e 9b c3 b7 bd
       -0.09915116 0.30015957 0.4594849 -0.08972856
000300 2e 57 f1 3d eb 4a 15 3d 0c 74 23 3e 93 a9 57 3c
       0.11784206 0.0364484 0.15962237 0.013162988
000310 7c 20 2a be d3 c0 1a be 33 10 f8 bb 27 96 a6 bd
       -0.16613954 -0.15112619 -0.0075702905 -0.08134108
000320 a2 85 b8 3c 6d ad e0 bd d5 15 70 3e bb 56 20 3f
       0.022524659 -0.10970578 0.23445828 0.6263234
000330 17 6f 8a 3e 0b 39 f0 3d df 68 f5 3d 72 90 ec bd
       0.2703788 0.1172963 0.11982893 -0.11550988
000340 ea 93 00 be 1a 0f 9f 3e 65 bc 3d be 7c 1a cb 3c
       -0.12556425 0.3106621 -0.18528898 0.024792902
000350 79 24 8f 3e 42 2c 6a 3e 10 3d 22 bd 0b 73 af ba
       0.27957514 0.22868446 -0.039609015 -0.0013385726
000360 1d 8b c9 bd fb 00 14 bd 18 79 d2 3b 15 dd 8d bb
       -0.09840987 -0.036133748 0.006423127 -0.0043293335
000370 39 2e 87 3c f0 8b c2 bc d2 c0 57 be 73 68 24 bd
       0.016501533 -0.023748368 -0.21069649 -0.040138673
000380 e4 aa 6e be 7e fb 8f bd bf 2e 9e be a7 2e 18 3e
       -0.23307377 -0.0703039 -0.3089504 0.14861546
000390 cc f0 41 3d 30 1f 1f bd 72 1a 64 be 83 f5 ba bd
       0.047348782 -0.038848102 -0.22275713 -0.09128859
0003a0 96 67 37 3d 56 1f d9 3e 16 8f 84 be 14 fd 7a bd
       0.04477652 0.4240672 -0.25890416 -0.06127651
0003b0 a9 f8 3d be 99 cc a4 bc b4 4d 84 3e 49 b9 8a be
       -0.18551888 -0.020117091 0.25840533 -0.27094486
0003c0 1d f0 6a 3e 49 bb d9 3e 76 b3 83 3d 44 3a 3b bd
       0.22943158 0.425257 0.06430714 -0.045709863
0003d0 7f 2c 59 3d a1 d7 1e 3b 80 79 91 bc 68 20 44 bd
       0.05302095 0.0024237412 -0.017758131 -0.047882468
0003e0 38 13 bd 3e 9b bc 82 3d c6 5d 54 be ba 64 36 bd
       0.36928725 0.0638363 -0.20738897 -0.044529654
0003f0 84 8a 3d 3e 66 24 76 3d 1c 0b fb bd 9f 57 5b be
       0.18509871 0.060093306 -0.12257978 -0.21420144

actor_mean.0.bias f4 [64]
000000 f0 b4 68 bd 4f 67 28 bc c8 a1 84 3d cd 7c d5 3c
       -0.05681318 -0.010278537 0.0647617 0.026060486
000010 ea 92 e1 3c 4c ad 04 3a d7 ed 1c bd 9e 31 46 34
       0.027535874 0.00050612236 -0.03831276 1.8458238e-07
000020 0e 98 47 3c 62 22 4b b9 c4 aa b7 b5 00 00 00 00
       0.012182249 -0.00019372397 -1.3684262e-06 0.0
000030 13 98 7c b3 2a 71 32 bb d4 e2 81 bd 5a a8 75 b8
       -5.8811633e-08 -0.0027228096 -0.06342092 -5.856934e-05
000040 2f ee 21 b2 db 2d 98 3c 59 8c 83 3c ca dd 21 39
       -9.42559e-09 0.018576553 0.016058134 0.0001543678
000050 4d 82 0c b4 05 2c d3 3c 66 bf c4 3c 44 b5 38 37
       -1.3085919e-07 0.025777826 0.024017047 1.1009459e-05
000060 11 23 dc bb 3f 66 b4 b9 38 ad b8 3a cb cb 38 bd
       -0.0067180474 -0.00034408455 0.0014089709 -0.045116227
000070 95 53 b5 bc 24 48 ab bb f0 1a 8f bb 19 de f5 3c
       -0.022134582 -0.0052271057 -0.004367225 0.030013131
000080 f6 0d 65 bc 5c b6 5d 3c f7 38 b8 37 fa d9 45 bd
       -0.013980379 0.013532247 2.1961036e-05 -0.04830358
000090 fb ba 71 3b 53 93 32 37 20 41 96 3c 03 56 24 36
       0.003688513 1.0643928e-05 0.0183416 2.448797e-06
0000a0 8e d7 dc bb 85 7b c7 bc ee 26 8b 3b 48 4e 2b bb
       -0.0067395633 -0.02435089 0.004246584 -0.0026139189
0000b0 fe 68 56 bc b9 58 93 3c a0 34 64 b8 4e 06 3c 3b
       -0.0130865555 0.017986642 -5.4408447e-05 0.0028690281
0000c0 8b 8a e4 3c 5d 0e d9 3c 5e 05 33 3d 66 94 f9 b6
       0.027898094 0.026496107 0.04370629 -7.438054e-06
0000d0 a5 55 94 b9 b7 cc de 3c 62 22 79 33 81 b8 89 3c
       -0.0002829257 0.027197225 5.80061e-08 0.016811611
0000e0 fe e6 ef bb a1 43 8e 3c 45 c7 08 bc eb 8a 9d 3c
       -0.0073212376 0.017366232 -0.008348291 0.01923128
0000f0 89 13 f7 38 df 19 c8 32 41 bf d8 3b 54 f7 01 3a
       0.000117815165 2.329483e-08 0.006614596 0.0004957814

actor_mean.2.weight f4 [64, 64]
000000 a5 d7 1c be f0 3b 22 be b3 1b 19 bd 7a 57 2a 3e
       -0.15316637 -0.15843177 -0.03737993 0.16634932
000010 e3 2e fc bd 2b b7 25 be 28 b6 5d be bc 41 b2 3d
       -0.123136304 -0.16183154 -0.21651518 0.08703944
000020 65 9b a5 3e 67 1a f4 bd 1b 66 88 3e c8 1e 27 be
       0.3234512 -0.11919098 0.266404 -0.16320336
000030 07 f8 28 3e ea 3d 3b be d6 cb 4c be db b9 01 3e
       0.16500865 -0.18285337 -0.19999632 0.12668554
000040 e4 68 c2 bc 94 ed 30 be 49 db 86 3d 72 cb e5 3d
       -0.023731656 -0.17278129 0.06584794 0.11220445
000050 e3 fb 4c 3e 6e c8 b2 3d e0 0b 3d be b1 59 6c bd
       0.20017962 0.08729635 -0.18461561 -0.057702724
000060 22 4e 16 3d 55 4a b8 3e 3a 95 83 3d da 7d 1c 3d
       0.036695607 0.3599421 0.06424947 0.03820596
000070 5e 25 6c be 13 c0 b1 3d 5f 95 d9 3e 62 01 fe bd
       -0.2306113 0.086792134 0.42496774 -0.124026075
000080 c5 d3 17 be 9c 7b 7f 3d ed f3 7f be 9f 94 06 3e
       -0.14826877 0.062373742 -0.24995394 0.13142632
000090 db 0a 73 3e ca 4e 1e be 29 81 1b bc b4 13 03 3d
       0.2373461 -0.15459743 -0.009491243 0.032001212
0000a0 1f cc 3e bb 40 d5 a6 3d 0e c2 fa bd e7 d6 cc bd
       -0.0029113365 0.08146143 -0.12244044 -0.10001927
0000b0 4b b3 17 be f4 a3 5d 3c 1b 00 d8 3e 7f 88 19 be
       -0.14814489 0.013527859 0.4218758 -0.14993475
0000c0 e4 aa 18 bd c0 7a d8 bd 43 a5 8b be cc 06 4f be
       -0.03727235 -0.10570288 -0.27274522 -0.20217437
0000d0 7b 1a 16 be 1a c7 1e be e1 91 43 3d 21 8d a3 be
       -0.14658539 -0.15505639 0.047746543 -0.3194361
0000e0 32 57 01 bd 05 32 91 bc 8d 1a 52 3e e4 36 70 be
       -0.031577297 -0.017724046 0.20517941 -0.23458439
0000f0 12 69 ef bd d9 6f 0c be 88 25 89 3e 8a 32 82 be
       -0.116899624 -0.13714541 0.26786447 -0.25429183
000100 80 8b a4 be 07 d8 93 bd 01 f7 33 3e e0 d9 03 be
       -0.3213768 -0.07218938 0.17574693 -0.12876081
000110 b1 db 0a 3d 41 9b 88 be 91 84 95 bd 00 5e d9 3c
       0.03390092 -0.2668095 -0.07300676 0.02653408
000120 72 e1 15 3e 91 ef 07 be 4f 8f a2 bd 1a 95 31 3d
       0.14636782 -0.13274981 -0.0793749 0.043355085
000130 9e 4b b7 3e 22 d6 2a 3e 75 e7 50 be 35 51 85 bd
       0.3579988 0.16683248 -0.20400794 -0.0650963
000140 b8 7f d3 be 94 d1 85 3c 62 ce 29 bd 2e 69 61 be
       -0.4130838 0.016335286 -0.041456588 -0.22012779
000150 d0 3e 3b be 3a 43 9e 3d 27 a6 85 be 5a 92 9c bc
       -0.1828568 0.07727666 -0.26103327 -0.019112755
000160 c8 f4 c7 3b 00 26 28 be a8 aa 74 be cb 4d 52 3e
       0.0061021782 -0.16420746 -0.23893225 0.20537488
000170 9a b2 d6 bd ed 85 20 3d f7 ad 05 3d 72 94 b9 3d
       -0.10483284 0.03919022 0.03263661 0.09061517
000180 98 de db bd 72 5a 95 bd 69 8e 02 3e 55 69 86 be
       -0.10735816 -0.07292642 0.12749638 -0.26252237
000190 0e 13 4a 3d b1 a9 a9 3e 7e 40 6d 3e 19 19 45 be
       0.04933458 0.33137277 0.23169133 -0.19247855
0001a0 4f 10 60 3e ad 61 9d 3e 7a 3f c3 be 2c a9 ab be
       0.21881221 0.30738583 -0.38134366 -0.33527505
0001b0 0b 6b 14 bd 2a 12 0d be 46 97 5f bc d6 36 43 be
       -0.036234897 -0.1377646 -0.013646906 -0.19063887
0001c0 b1 6f 42 3e 43 18 33 3e 79 68 ba 3e 95 13 44 be
       0.1898792 0.17489724 0.3640783 -0.19148095
0001d0 43 89 8f 3e 19 6d c1 bd 77 82 63 3c 1b ed 9d 3e
       0.2803441 -0.09444637 0.013886086 0.3084496
0001e0 6f c0 52 be 59 12 92 3c 10 4f 3a 3e 7e ae 29 3e
       -0.2058122 0.017831014 0.18194222 0.1657047
0001f0 c4 a4 5b be bd 17 14 3e 10 85 01 3e cd ac a1 bd
       -0.21449572 0.1446218 0.12648416 -0.07894287
000200 a3 bf a3 bb 2b 1a 96 3e ac 9e eb 3d 97 51 b0 3e
       -0.00499721 0.2931684 0.11504874 0.34437248
000210 d1 66 49 be 5a 12 4b 3e ea 5c 87 be 3b 59 2b bd
       -0.19668128 0.1983122 -0.26438075 -0.041833144
000220 a5 61 8f be 50 4b 90 be 1c 22 7c be 10 1e ae 3d
       -0.28004184 -0.2818246 -0.24622387 0.08501828
000230 8d f4 e6 bd 85 1f 18 3d 4e 4c 88 be eb a9 ae 3e
       -0.11277113 0.037139434 -0.26620716 0.34114012
000240 94 65 8c bd 11 7c 1d 3e 68 4e 05 3e a4 1c 0b be
       -0.06855312 0.15379359 0.13018191 -0.13585144
000250 73 ae 96 3d 03 45 bd be 4f bc 0b 3c 7b d9 7c be
       0.07357492 -0.36966714 0.008528783 -0.24692337
000260 fe c3 39 be 6f a6 c0 bc 0e 4c b6 3c be f2 97 be
       -0.18141171 -0.023516862 0.022253063 -0.29677385
000270 3d 56 be 3d 5d 1e e2 3d 5e 14 10 3e 29 91 7a be
       0.092937924 0.110409476 0.1407027 -0.24469437
000280 3a a2 60 bc 53 c9 3e bd f5 5f eb 3d 91 12 d7 be
       -0.013710553 -0.046578716 0.11492912 -0.42006353
000290 fc 57 84 3e ea 6e 03 bd ca 6f 8e 3e 03 0a 84 be
       0.25848377 -0.032088198 0.27819663 -0.25788888
0002a0 b6 a4 cc bd 47 ba cd 3d 12 53 f7 bc bb c9 45 be
       -0.099923536 0.10045295 -0.030190978 -0.19315235
0002b0 6c 05 f3 3d c9 c2 00 be d1 ad a3 3a 66 f2 37 be
       0.118662685 -0.12574305 0.0012487714 -0.17963561
0002c0 6e 36 52 3e e3 21 81 be 5e 7e 98 3e 4b bc 40 3e
       0.20528576 -0.25221166 0.2978391 0.18821828
0002d0 92 20 36 be 26 2a 8d 3d 77 1b 28 bd 5a d9 14 be
       -0.17785862 0.06892805 -0.041041818 -0.14536038
0002e0 2d 8c 0a bd 3f 1f 9e bc 3e 2f 54 be 3b 90 aa bd
       -0.03382509 -0.019302009 -0.20721146 -0.08328291
0002f0 f4 e9 87 3d 75 6d 76 3d aa 8f 40 3e 12 2b 33 bd
       0.0663642 0.06016298 0.18804803 -0.043742247
000300 fd 75 18 3e 2a c0 79 bc 35 3f e6 3d 29 e1 29 3e
       0.14888759 -0.015243569 0.112425245 0.16589798
000310 ca 16 1f be 73 b9 20 3e 81 90 12 3e 0e 6e 11 3e
       -0.15536037 0.15695743 0.14312936 0.14202139
000320 b6 24 49 3d c8 96 1b be 97 40 63 3d 64 bd 1e be
       0.049107276 -0.15194237 0.05548152 -0.15501934
000330 90 a4 49 3c d4 9f 92 3e c3 67 27 be e0 81 42 be
       0.012307301 0.28637564 -0.16348176 -0.18994856
000340 ca e7 29 3e 0d 12 31 be 10 1c 68 be bc 7d f5 bd
       0.16592327 -0.17292042 -0.22666955 -0.119868726
000350 fb 52 2d 3e 10 56 07 3e 63 c3 1c 3e 3e af 47 3e
       0.16926186 0.13216424 0.15308909 0.19500443
000360 a7 5d 00 be d0 c1 34 bd ac c5 28 bd 34 ab 02 be
       -0.12535726 -0.044130147 -0.04120414 -0.12760621
000370 02 77 ae 3e 85 07 33 3d c8 42 e9 3e 3a 96 0f be
       0.3407517 0.043708343 0.45558763 -0.1402215
000380 bd 7d 44 bd 7f 62 7f 3d e1 fa 09 3e 20 d6 53 bd
       -0.047971476 0.062349793 0.13474609 -0.051717877
000390 95 82 b8 3d f4 e2 29 3e 37 25 6e bc 22 3f 3a 3c
       0.090092815 0.16590482 -0.01453524 0.011367591
0003a0 14 01 aa 3e 0d e6 33 3e a9 95 e8 bd 0f 8a 03 be
       0.33203948 0.17568226 -0.113566704 -0.12845634
0003b0 e8 8e 05 3f 1d ff e3 3b 1e 22 5f be c4 2e 84 3e
       0.5217118 0.006957902 -0.21790358 0.2581693
0003c0 a1 07 a9 be b0 15 8d 3e 47 be 15 3e ad 5d 01 bc
       -0.33013633 0.2755561 0.14623366 -0.007895869
0003d0 7c c5 f1 bc 2e 7f 7a 3e 65 2c d8 bd 84 52 2c be
       -0.029513113 0.24462578 -0.105553426 -0.16828352
0003e0 e8 a7 2c bd 10 58 9b be 54 3b 92 3e fc 0d e4 bd
       -0.042152315 -0.30340624 0.2856089 -0.1113548
0003f0 15 dc 23 3e a1 3b 85 bd f5 67 0c be e6 5d 27 be
       0.16001923 -0.06505514 -0.13711531 -0.16344413

actor_mean.2.bias f4 [64]
000000 9a af 09 bb 17 b0 7b 3c 98 8e fc 3c 66 ed 93 39
       -0.0021009208 0.015361807 0.030829713 0.000282149
000010 f4 2f 26 bc 0c a2 f8 bc ea f0 19 3c 27 b0 23 3c
       -0.010143269 -0.030350707 0.009395817 0.009990728
000020 ef 5c d3 bc ba 5c 01 3d 29 3a 84 3b a4 fa 07 3d
       -0.02580115 0.03158257 0.0040352535 0.033198014
000030 c7 00 23 3d d8 1d f9 3c 97 40 6e bc da 2e 1d 3d
       0.039795663 0.030409738 -0.014541767 0.03837476
000040 33 e4 08 3d b7 c0 94 3b bd ab 8d 3c c0 53 0f bc
       0.033420753 0.004539575 0.017293805 -0.008747995
000050 75 b5 35 bc ab 16 34 3d 62 cf 26 bc c5 0d 19 3c
       -0.011090626 0.04396693 -0.01018128 0.009341662
000060 a3 7d 1e 3d c5 91 54 3c 26 a7 7a bc ad ef c6 bb
       0.038694035 0.012974207 -0.01529864 -0.006071052
000070 89 7f 03 3d a9 46 62 3c a0 a3 b1 bb d5 4f 82 3a
       0.03210405 0.013810792 -0.005421117 0.0009942005
000080 91 d4 91 3c 6f 03 35 bb 5c 94 86 bb 78 12 14 3b
       0.017801555 -0.0027620455 -0.0041070413 0.0022594016
000090 69 ec e6 bb c6 73 f2 3c 15 e3 7e 3c 11 3d e3 3a
       -0.0070472253 0.02959622 0.01555707 0.0017336925
0000a0 76 c4 e3 3b bf 3d e3 3c 7a 81 7e 3c f8 be c9 b8
       0.00695091 0.027739404 0.015533799 -9.6199976e-05
0000b0 63 af e7 bc 82 37 52 bd 21 6b 02 bc ff f6 b0 3c
       -0.028281873 -0.051322468 -0.007960112 0.021602152
0000c0 11 12 17 bc e8 ab 9c 3c 1f a6 83 3c ac 69 d7 3b
       -0.009220616 0.01912494 0.016070424 0.0065738764
0000d0 58 30 a3 3c 7d 72 22 bc fd 50 66 bc 9f db 40 bc
       0.019920513 -0.009914991 -0.014057395 -0.011771112
0000e0 6f ae 1b bc 8c d4 50 3c 15 4d 00 3d ed 38 87 bc
       -0.009502037 0.012745988 0.03132351 -0.016506637
0000f0 81 7f 9e 3c 97 83 d1 3c 6a 7d 91 3c f8 2b b2 bc
       0.019347908 0.025575442 0.017759997 -0.021749482

actor_mean.4.weight f4 [2, 64]
000000 72 f2 99 3a 14 cd 16 bc 06 a1 87 3c 3f 60 22 3d
       0.0011745228 -0.009204168 0.016556274 0.03964257
000010 7e 9e 7b 3e b6 b7 1c be 47 34 14 3e 02 ea 5a 3e
       0.24572179 -0.15304455 0.14473067 0.2137833
000020 b9 4e b3 3d df 7a 11 3e 0c 0c ec 3d 93 7f 77 3e
       0.087552495 0.14207028 0.11525735 0.2416976
000030 96 d0 e4 bd 65 ba b5 3c 2f e1 85 3d 61 02 73 3c
       -0.11172597 0.022183606 0.06537091 0.01483211
000040 c4 c7 e9 bb 6c 08 72 bd 3d f0 80 37 c5 c2 d6 bc
       -0.0071344096 -0.059090063 1.5370659e-05 -0.02621592
000050 1b 75 49 3d ea 94 60 bd b2 12 19 3e 22 8d 8e bd
       0.049183946 -0.054829516 0.14948538 -0.06960513
000060 9f c3 07 be a4 76 a4 bd b6 c5 46 3d 18 84 01 ba
       -0.13258217 -0.080304414 0.048528396 -0.0004940643
000070 fa 28 ec bb 4a 00 a6 3b 03 2e 5f be 27 5c 8d 3c
       -0.007207033 0.0050659524 -0.21794896 0.017255856
000080 2f 32 03 3e 07 7e f1 3d 26 ac f2 bd 8c ae 5e 3e
       0.12812112 0.11791616 -0.11849241 0.21746272
000090 f6 27 bf bd 80 44 1d 3e 23 98 c7 3c cb a5 3e 3d
       -0.09333794 0.15358162 0.024364537 0.04654483
0000a0 fb aa 43 3d 5a 14 36 3e 8b 54 23 be 54 40 ac bb
       0.04777048 0.17781201 -0.1595022 -0.005256692
0000b0 a6 98 33 3d e6 24 1a b9 f3 b6 16 be 63 92 e5 3c
       0.04384675 -0.0001470033 -0.14718227 0.028023904
0000c0 2e 1e 91 bc 3f c9 1a be 5d a1 50 bd 88 b6 dc 3d
       -0.017714586 -0.15115832 -0.050935138 0.107770026
0000d0 76 fb f8 bb 4c 98 d9 bc ad b1 05 be 4b fc 70 be
       -0.007598336 -0.026561879 -0.13056059 -0.23533742
0000e0 29 4a 29 3e 9e ee 26 bc 31 ee e8 3d 2f 4f b9 3d
       0.16532196 -0.010188727 0.113735564 0.09048306
0000f0 ff 3c fb 3d f6 35 04 3c 34 84 85 bd 52 eb fd bd
       0.122674935 0.008069506 -0.06519356 -0.123983994
000100 8b 30 9b 3a 49 8c 41 3e 79 a8 cc 3d cc 04 0d bc
       0.0011840028 0.18901171 0.09993071 -0.008607101
000110 d0 7a 1d 3e d4 dc b8 39 5f 13 53 be 5d 32 40 be
       0.1537888 0.00035259745 -0.20612858 -0.18769212
000120 91 80 de 3d 29 95 cc 3c ba dd 1b 3e 80 45 34 be
       0.10864366 0.024973469 0.152213 -0.17604637
000130 a2 46 35 3d 63 f5 13 be 3b 8f 98 3e 44 87 20 bd
       0.044256814 -0.14449076 0.29796776 -0.0391915
000140 a4 83 8a 3c ea 58 80 be 5e c1 e8 3c ed 6b 7e be
       0.016908474 -0.25067836 0.028412517 -0.24845858
000150 d8 51 04 3d a8 07 1e 3d dc 2a 97 3d b8 3c 5b 3e
       0.032304615 0.03858152 0.07381222 0.21409881
000160 a0 ff 0b 3e a3 d6 d1 ba 96 b1 04 be 55 65 49 be
       0.13671732 -0.0016009401 -0.12958369 -0.19667561
000170 d3 ba e3 bd 25 df ca bd a5 b4 0b bd 54 21 3d 3e
       -0.11119618 -0.09905843 -0.034107823 0.18469745
000180 f9 e0 09 3b 48 3f 3e 3e e5 11 e0 3d 9c a9 7c be
       0.0021038635 0.18578827 0.10940913 -0.24674076
000190 ec 6b 3c bd 54 87 76 bb 4e e6 b4 3c 97 38 01 3e
       -0.04600136 -0.0037617283 0.022082474 0.12619244
0001a0 22 aa 34 be d5 88 98 bb 08 3c a0 bd 70 41 89 3c
       -0.17643026 -0.0046549835 -0.0782395 0.016754836
0001b0 f9 71 23 bd dd a4 98 bd 88 50 be 3b 7d 13 48 3c
       -0.039903615 -0.0745332 0.00580794 0.012211678
0001c0 a3 da c1 bd f3 2f 00 3e 41 c8 ca bd bb fa 19 bc
       -0.0946553 0.12518291 -0.09901477 -0.009398158
0001d0 28 10 25 3d e1 03 6b be 92 22 56 3b 5b 02 69 3e
       0.04029861 -0.22950698 0.0032674414 0.22754805
0001e0 16 78 3a 3e 34 a9 d1 3d b3 85 05 3e c8 71 52 be
       0.18209872 0.10237351 0.13039283 -0.20551217
0001f0 3b 71 93 3d 0a fb 42 3b 8a 2d fd 3d 9e 22 32 3e
       0.071993314 0.0029751682 0.123622015 0.17396018

actor_mean.4.bias f4 [2]
000000 4b 84 bd 3b e6 66 7d bc
       0.005783593 -0.015466427

critic.0.weight f4 [64, 14]
000000 a1 d0 03 3e c5 21 7d bd a3 17 9a be b5 61 a5 bd
       0.12872554 -0.061799783 -0.30096158 -0.08075277
000010 72 e9 e7 bc f7 b1 42 3e 3f 2e 99 3d 38 01 70 bd
       -0.028309558 0.190132 0.07479524 -0.058594912
000020 e7 76 96 be 9b 4e 2b 3d ce 6c 55 bd 94 1e 5c 3e
       -0.2938759 0.04182301 -0.052105717 0.2149604
000030 2a 91 9c 3d 3a 08 4b bd 32 1d 8e bb 19 c1 84 be
       0.07644875 -0.049568392 -0.0043369764 -0.25928572
000040 9f b1 55 be 26 46 20 3d ab b0 9f be 0a 7d 2a 3e
       -0.20868538 0.0391294 -0.31189474 0.16649261
000050 a2 30 20 be d0 f5 40 3e 6a 83 54 3d 19 4d d8 be
       -0.15643552 0.1884377 0.05188314 -0.4224632
000060 f9 45 48 be cf bd 66 3d 39 4e cc 3d 2c 4d 71 3e
       -0.19557942 0.05633336 0.09975857 0.23564595
000070 dd 92 ac 3b e4 d1 81 3d d4 34 14 bc 02 90 14 3e
       0.005266531 0.063388616 -0.009045798 0.1450806
000080 94 a1 24 3e 0f d8 cd 3d 2c 20 d7 3e d0 31 33 3e
       0.16077262 0.100509755 0.42016733 0.1749947
000090 1f 7f dd bd 62 43 a4 3e f0 29 5e bd 26 2e 20 bd
       -0.10815262 0.3208266 -0.054239213 -0.03910651
0000a0 6d 44 ae 3e 2f 43 2e 3e f9 b5 52 3e 72 f8 a5 be
       0.3403658 0.17017816 0.2057723 -0.3241611
0000b0 66 b3 45 3c 36 4d 12 3c f0 c1 f1 3d 73 4f bb 3d
       0.012066698 0.008929541 0.11804569 0.09146013
0000c0 c3 40 9c 3c d8 1b ce 3d c6 ca 69 bb 38 86 51 3e
       0.01907385 0.100639045 -0.003567384 0.20461357
0000d0 c7 5f 85 bc d5 a7 31 3e 56 cf a4 3d 5b 70 8c be
       -0.016281022 0.17349179 0.08047359 -0.2742947
0000e0 4c 00 1d be 66 24 7c 3f b4 d7 13 bb 50 c5 40 bd
       -0.15332144 0.9849304 -0.002255899 -0.047063172
0000f0 1b 3c 13 3e 38 36 94 3c ad 61 49 3f b1 55 12 bf
       0.14378397 0.01809226 0.78664666 -0.57162005
000100 71 bf 28 be 12 c8 9b bd 83 57 bd 3c ac 5e b2 3c
       -0.16479279 -0.0760652 0.023113018 0.021773659
000110 98 c7 0f 3d 88 8c 85 be 0b 80 47 bd ac 0a 20 3e
       0.035102457 -0.2608378 -0.048706096 0.15629071
000120 4a 64 36 3e 8e 50 96 3d 58 7d 87 bc 58 f3 06 3e
       0.17811695 0.07339583 -0.01653926 0.13178766
000130 94 88 48 3c 13 09 64 bd 15 af 67 3e 16 54 90 be
       0.012239594 -0.055672716 0.22625382 -0.28189152
000140 34 f6 63 be f4 9f 81 3e 4f fc b9 bc b9 bb 8d 3e
       -0.22261888 0.25317347 -0.022703318 0.27682284
000150 62 37 ff bc e0 70 1d 3f ae 71 58 3b 55 64 ec bd
       -0.031154338 0.6150036 0.0033026743 -0.11542574
000160 3a 0a d0 bd 8e 1a 07 be ea c2 75 3d ff 1c 3c bf
       -0.101582006 -0.13193724 0.060000338 -0.73481745
000170 2d c2 04 3e 79 0b 8a 3e 61 90 6a 3c 29 15 91 bd
       0.12964697 0.26961878 0.014316649 -0.07084114
000180 00 4e 02 3e 00 c9 ec 3d 2d f4 91 be d5 9d 31 3e
       0.12725067 0.11561775 -0.28506604 0.17345364
000190 f6 37 de 3d c9 8e 52 3e 63 9d 50 3e e8 61 ee 3c
       0.108505175 0.2056228 0.20372538 0.02909942
0001a0 4e c2 af bd 01 9e 09 3e 13 33 62 be 9f f3 12 be
       -0.085819826 0.1343918 -0.22089796 -0.14350747
0001b0 fd ea 53 3e 8e 06 88 3b 7d 09 5e 3c dd d4 7b 3e
       0.2069511 0.004151172 0.013552067 0.2459292
0001c0 10 a8 72 be e7 e7 5b 3e 3d f0 57 3e 93 bf 12 be
       -0.23696923 0.21475182 0.21087737 -0.14330892
0001d0 c6 57 11 3e e0 6b 01 be 3d b3 54 3d 4a ea a2 bd
       0.14193639 -0.12638807 0.051928747 -0.07954843
0001e0 8b 6e f9 3d 7c eb be 3d 1a 47 06 be 8d fb 07 3e
       0.121792875 0.09322259 -0.1311306 0.13279553
0001f0 79 84 18 bd fc af 5c 3e f7 22 3c be 0c c9 04 3b
       -0.03723571 0.21551508 -0.18372713 0.0020261435
000200 8f 5b 30 be 1b ab 2a be 1b 57 da bd 3f fe 33 3d
       -0.17222427 -0.16666834 -0.10661145 0.04394364
000210 3b 5a 33 3e 27 09 b4 be ae 44 39 3e 44 10 71 3d
       0.17514889 -0.35163233 0.18092605 0.058853403
000220 3d 40 be 3d 3d 2c c1 3d 82 b0 9b 3e e1 8d 1b bd
       0.09289596 0.09432266 0.30408102 -0.037977103
000230 a9 d9 8c 3c 6f 9b 79 3d 63 b7 f5 bd 9a ef 06 be
       0.017193632 0.06093925 -0.11997869 -0.13177338
000240 70 1a 08 be cf 0c 82 be 94 65 30 bd b3 29 a3 bc
       -0.13291335 -0.25400397 -0.043065622 -0.019917345
000250 48 cb 1b bc 96 d9 ee bd 2c 33 17 bd e7 5a 8b 3c
       -0.009508915 -0.11662595 -0.036914036 0.017011119
000260 9d 30 8a bc 6c 17 39 3d ca 3c 46 bd 6e 64 46 3d
       -0.016868884 0.045188352 -0.048397817 0.04843562
000270 ab 15 1a bf ad 51 5a be eb 22 ae bd b7 a2 20 3d
       -0.6018931 -0.2132022 -0.08502754 0.039217677
000280 f5 ac 30 be d4 ab cb 3d d1 f5 59 be 24 c4 ff 3d
       -0.17253478 0.09944883 -0.21285178 0.12488583
000290 c1 80 24 3e 44 41 d2 bd 24 15 9e 3e 3b 80 f7 3d
       0.1606474 -0.10266355 0.30875504 0.12085005
0002a0 d6 36 b8 bd 45 31 09 3c 60 69 08 3e b4 c5 06 bd
       -0.08994834 0.008373563 0.13321447 -0.03290339
0002b0 28 6b ca bd 73 49 4b be 0e c1 b6 bd 9a ba 8a be
       -0.0988372 -0.19852237 -0.08923541 -0.2709549
0002c0 0b c6 02 3d ae c4 9e 3d 46 52 f5 3d 68 15 ac 3d
       0.03192715 0.077523574 0.11978583 0.084025204
0002d0 95 e1 bf 3e 2d 76 db 3c 3c 2b 7c 3e 69 09 c4 3e
       0.37476793 0.026789749 0.24625868 0.3828843
0002e0 84 7b d8 3b 58 a3 1c 3e c0 33 11 bd 40 0e 18 3e
       0.006606521 0.15296686 -0.035449743 0.14849186
0002f0 7b 05 df be 08 74 a4 be 68 bc d9 3d 5c f9 d9 3d
       -0.4355887 -0.32119775 0.10631639 0.10643265
000300 d4 35 fd ba 23 6b 09 bc 62 7f 84 3e 24 58 53 be
       -0.001931841 -0.00838736 0.25878435 -0.20639092
000310 89 a4 f0 3d ed 50 94 be ab 7c 8d 3d 30 e5 1e be
       0.117501326 -0.2896799 0.06908544 -0.15517116
000320 86 c4 7e be 09 fa 6d 3d ac 8f 97 be e4 75 77 3e
       -0.24879655 0.05809978 -0.296018 0.24166065
000330 fb 86 4a be ad fe 3f 3d 1f 8b 10 3d a4 e7 9b bc
       -0.19778053 0.046873737 0.035288926 -0.019031353
000340 8d c6 a0 3e 6c 26 a2 3e cb 0f a9 3d fb 58 63 3e
       0.31401482 0.3166994 0.082549654 0.22201912
000350 c3 2b fe 3d ac 72 84 3d a2 16 74 3d 93 67 92 be
       0.12410691 0.064671844 0.059591897 -0.28594646
000360 61 cf fe bd 5f c4 21 bd bf 06 a7 3e 4a 2a c3 3e
       -0.12441898 -0.039493915 0.32622334 0.38118201
000370 be e9 71 3e bf f0 72 3e 69 cf 11 36 4e 07 55 3e
       0.23624322 0.2372465 2.1727412e-06 0.20803568
000380 db e4 8a 3e 77 43 70 be a9 d1 ab bd af 46 08 3e
       0.27127728 -0.23463236 -0.08389599 0.13308214
000390 73 02 d0 3d e0 dd 47 3e a9 e6 08 3e a1 6f 3e bd
       0.10156717 0.19518232 0.1336924 -0.046493176
0003a0 e3 5d a1 3d d5 fd 0c 3e 3c 9b 28 be 1f d2 9e 3d
       0.078792356 0.13768704 -0.16465467 0.07754921
0003b0 2a 6f 64 3e 44 e6 df be 28 34 ac 3e 39 84 80 be
       0.2230803 -0.43730366 0.33633542 -0.25100878
0003c0 2d db b4 3e 49 db 94 be 8e a0 96 bd b7 d4 9a 3d
       0.35323468 -0.2907355 -0.07354842 0.075601034
0003d0 85 ed 48 3c 68 b9 bd bd f5 7f 9b bd 3f 17 b0 bd
       0.01226366 -0.09263879 -0.07592765 -0.08598184
0003e0 5c 9c 84 3c a8 38 36 be 3c 92 74 be 2c c0 ba 3d
       0.01618784 -0.1779505 -0.23883909 0.09118685
0003f0 16 2d 4a be fc 8d e6 3d ed 68 14 3e e3 d5 07 bd
       -0.19743761 0.1125755 0.14493151 -0.033162963

critic.0.bias f4 [64]
000000 4c 38 6f 35 42 34 d1 b9 27 6d 1d bd 4c 65 43 bc
       8.911636e-07 -0.00039902522 -0.038434174 -0.0119260065
000010 7d 3d 0e bc 75 c3 9f 3a 12 e7 af 3d 11 a6 06 bc
       -0.008681652 0.0012188988 0.08588995 -0.008218304
000020 e0 ff 12 3a ac ce 74 bc 2c 4b 09 ba 00 00 00 00
       0.00056075864 -0.014941853 -0.0005237337 0.0
000030 6a a7 1e 3c 15 95 b9 bc d9 cd fb bb 54 6d b5 ba
       0.009683469 -0.022654096 -0.007684451 -0.0013841786
000040 88 ee ee 3c 68 5b bd b6 4e 8b 30 b8 c2 04 97 3c
       0.029166475 -5.64328e-06 -4.2091408e-05 0.018434886
000050 d6 85 d1 36 8e 47 9f b6 be fb b4 3a 5a 7b 12 bc
       6.244266e-06 -4.7468993e-06 0.0013807935 -0.008940542
000060 74 7b 83 3b d0 1f ac 3c 49 ec 96 34 bc e5 49 3c
       0.0040125195 0.021011263 2.8111597e-07 0.012322839
000070 51 bb f2 39 f2 fc ef 3a 39 a5 be bc cb b9 83 3c
       0.00046297399 0.0018309637 -0.023272144 0.016079804
000080 9f 7e db bb af cd c5 39 cf db 74 3c c5 86 81 33
       -0.006698444 0.00037728014 0.014944985 6.031545e-08
000090 d9 bd 0f 3d 50 e9 23 b6 98 35 fd 3c 31 af 2e 37
       0.035093162 -2.4424698e-06 0.030909345 1.0411998e-05
0000a0 75 37 01 bd 21 82 c0 3c d7 9d 3c b5 3b f6 89 bb
       -0.03154703 0.02349955 -7.0265145e-07 -0.004210261
0000b0 59 7e 65 3c 64 35 53 b0 95 6b 58 bc 2e d6 81 3c
       0.014007174 -7.6837225e-10 -0.013209243 0.0158492
0000c0 48 b3 16 bc d1 70 15 bd c1 89 5f bc 04 1a 2c bd
       -0.009198017 -0.036484543 -0.013643683 -0.042016998
0000d0 da 17 92 3d 21 a4 0f bd 0e 2a 05 bd 89 5a fa 3c
       0.071334556 -0.035068635 -0.03251081 0.030560749
0000e0 a1 d4 28 bc 2a 2a 72 bc 06 6c b1 3d c8 18 4f 3d
       -0.010304601 -0.0147805605 0.08663182 0.050560743
0000f0 e1 c6 36 b6 d3 94 44 35 19 e1 6e bd 4f bd 16 3d
       -2.7235876e-06 7.323226e-07 -0.05832014 0.036801632

critic.2.weight f4 [64, 64]
000000 56 4b aa bc ad 20 52 be f5 ce 14 be 9e 74 15 3d
       -0.020787876 -0.20520277 -0.14532073 0.036488168
000010 69 99 37 bd 8e 91 f0 bd 72 9c d6 bd 67 a3 01 bd
       -0.044824038 -0.11746512 -0.10479058 -0.031649973
000020 c6 12 7a 3d 36 65 ab 3d d8 d5 f2 bd d1 0c 00 be
       0.06105306 0.08368914 -0.11857194 -0.12504889
000030 a3 a8 e5 3d f2 51 90 be 04 57 51 3e c1 fc 94 3d
       0.112138055 -0.2818752 0.2044335 0.072747715
000040 a7 9f c3 3c 04 55 64 be ba 5d b5 bd 20 7f 60 bc
       0.02387984 -0.22298056 -0.088557675 -0.013702184
000050 3a 0a 85 3d 79 2f 34 3e 80 e0 ae 3c 48 c0 29 bb
       0.06496091 0.17596234 0.021347284 -0.0025901962
000060 ab 6b ae be dd 68 1d be 71 cd a8 be d1 f6 a5 be
       -0.3406652 -0.15372033 -0.3296924 -0.32414868
000070 85 cb 6b bd c0 fd 78 3e 37 8d 7a 3e 16 10 3c bd
       -0.05756714 0.24315548 0.24467932 -0.04591378
000080 b5 44 ab 3e 9e c5 84 3e d7 61 75 3d 24 d0 a3 be
       0.33450857 0.2593202 0.05990776 -0.31994736
000090 07 86 8f 3e 33 31 ca bd 01 b0 21 3e 6c 74 39 be
       0.28031942 -0.09872665 0.15789796 -0.18110818
0000a0 b8 1c 85 be c7 bb 9a 3d d7 68 19 be 79 c1 3d bd
       -0.25998473 0.07555347 -0.149814 -0.046327088
0000b0 60 71 d9 bd b0 ca e8 3c 39 a6 05 3e 2b 08 03 3e
       -0.10617328 0.028416961 0.1305169 0.12796085
0000c0 08 df a6 be c0 ec 5a bd c0 1d 43 3e 35 30 4a be
       -0.32592034 -0.05344844 0.19054317 -0.19744952
0000d0 0f 89 32 be c2 96 fa bc 39 23 07 3f a9 88 ea 3d
       -0.17435096 -0.030589465 0.5278812 0.11451847
0000e0 11 45 8c bc 2a 8b ae 3e 78 93 b3 3d da b2 bf bc
       -0.017122777 0.3409055 0.08768362 -0.023400713
0000f0 f9 05 d7 3d 37 30 74 bd 9f c0 24 be 45 9d c8 bd
       0.10499186 -0.059616294 -0.16089104 -0.09795622
000100 07 cf 0b be c3 5b 36 be 81 a1 9c be fa 89 e3 bd
       -0.13653193 -0.17808442 -0.30591968 -0.11110301
000110 d2 1f bb 3e 72 8b 86 bd 56 48 b5 bd 59 c1 09 3e
       0.36547714 -0.06569566 -0.088516876 0.13452663
000120 81 f8 41 bd c6 17 38 bc 9e b8 d9 bc 13 49 55 be
       -0.047356132 -0.011236137 -0.02657729 -0.20828657
000130 1e 22 b6 3e 24 1a 63 bd 78 07 32 bd 17 77 66 bd
       0.35572904 -0.05544485 -0.043464154 -0.056265917
000140 59 f9 ae bd a0 3c 3d be 39 ab 06 3e 08 3b 60 3e
       -0.08543653 -0.18480158 0.13151254 0.21897519
000150 79 8a 7b 3e eb fa 08 3e b1 7c 59 3d 8a 3f 8f 3d
       0.24564542 0.13376968 0.05309743 0.06994541
000160 e2 92 d9 3e e6 c4 94 3d ec c4 ab be 1f b5 4c be
       0.42494875 0.07264118 -0.33548677 -0.19990967
000170 27 1d fe 3d 9f 7f 21 be 4a aa 6d bd 93 79 e4 be
       0.12407904 -0.1577134 -0.05802373 -0.44624004
000180 22 99 e0 bc ae df fc 3b bf d2 9a 3e 50 d9 6f 3b
       -0.02741677 0.0077170944 0.30238912 0.0036598034
000190 85 b4 9a be 07 1a 04 3e fc 52 82 bd eb b3 aa 3c
       -0.3021585 0.12900554 -0.06363484 0.020837745
0001a0 8f 68 3e 3e 58 c7 5e be fc ba 01 be 7e a3 ef 3b
       0.18594573 -0.21755731 -0.12668985 0.007313191
0001b0 ae fc 49 3d 41 cf 9c be c7 4d 2d 3c e5 c2 3b be
       0.04931324 -0.30626872 0.010577626 -0.18336065
0001c0 c2 5f 03 be 72 30 d3 3d f3 12 e7 bd d7 72 35 bd
       -0.12829497 0.103119746 -0.11282911 -0.044298973
0001d0 be 89 9a be 05 05 b3 3c 38 9a e6 3c d3 2e 37 3e
       -0.30183214 0.02185298 0.02814971 0.17888956
0001e0 b6 de 46 bd a4 55 07 3e 1a 36 a3 be bf 22 13 be
       -0.048552237 0.13216263 -0.31877214 -0.14368723
0001f0 72 93 18 be 80 f3 49 3e 00 ed 72 3e a7 8d 6c 3e
       -0.14899996 0.19721794 0.23723221 0.23100911
000200 a5 e7 65 3d e5 6f 60 be f1 e6 a9 ba 91 e0 9c bd
       0.056129117 -0.21917684 -0.0012962503 -0.0766002
000210 5d 8f 6f bc 49 72 ad 3e 2f cf f2 3c b8 a1 63 be
       -0.014621583 0.33876255 0.029639808 -0.2222966
000220 d2 43 fb bd d7 1c 09 3e 01 c4 56 be 8d ea 2f 3d
       -0.12268795 0.13389908 -0.20973207 0.042948294
000230 23 62 81 be d9 fc 5d be ab 1b 2d bd 4f f9 10 3e
       -0.25270185 -0.21678485 -0.042262714 0.14157604
000240 f0 6b b3 3a 14 c0 d3 bd e1 2c 04 be 03 86 ac 3d
       0.0013688784 -0.1033937 -0.12907745 0.08423998
000250 d9 83 54 3d ad b7 f7 bc ea 6e 2c bb d3 6a 04 bc
       0.051883552 -0.03023895 -0.0026311227 -0.0080821095
000260 15 cf 95 3e 36 d2 92 3e f5 e2 ca 3c 4b 45 5d 3e
       0.29259554 0.28676003 0.024766425 0.21608464
000270 ba 58 15 3e 46 c5 61 3e 67 61 ae be fd 35 6f 3e
       0.14584628 0.2204791 -0.34058687 0.23360439
000280 96 b3 2e 3e 25 d9 8f 3e 1d d1 5d 3d 47 8d 82 3d
       0.17060694 0.28095356 0.054154504 0.06374603
000290 1e 79 33 be 4b 26 13 3e 39 83 8d bc e5 9f 1d 3e
       -0.17526671 0.14370076 -0.017274486 0.15393026
0002a0 e4 5c f9 3d eb a1 87 be 1f e9 82 be fc 1c 68 be
       0.121759206 -0.2649072 -0.25568482 -0.22667307
0002b0 f4 f5 18 be 29 6a 2f 3e a1 a3 00 be e4 5f 59 3c
       -0.14937574 0.1713034 -0.1256242 0.013267491
0002c0 37 8c a3 be 0c 7b a4 bd e6 d1 a3 be fa ce c3 bc
       -0.31942913 -0.08031282 -0.31996077 -0.023902405
0002d0 23 26 9b 3d c5 f1 2b 3e 1a a0 16 3d 92 95 66 3d
       0.075756334 0.16791447 0.03677378 0.056294985
0002e0 ce 76 cf 3e 4d a7 1a 3e ba d7 93 3e b5 2c e9 3d
       0.40520328 0.15102883 0.28875524 0.1138548
0002f0 4b f3 06 3e e2 b0 73 bd 7a 39 cd 3d d1 b0 4e be
       0.13178746 -0.05949486 0.100207284 -0.20184638
000300 76 19 05 3d 89 3a 56 be 7f ca 0c be 2d 84 ef bc
       0.032494985 -0.20920767 -0.13749121 -0.029237831
000310 35 07 06 bf 2d 95 35 3e 89 50 28 3e f7 5a 18 3e
       -0.5235475 0.17732687 0.16436972 0.1487845
000320 c5 8a 8a be 9e 46 91 3e 3a 86 8f 3e ca c7 bf 3e
       -0.27058998 0.2837419 0.28032094 0.37457114
000330 fe e4 a0 3d 1b f6 30 3e b5 58 ce 3e bd 3e b6 bc
       0.07856177 0.17281382 0.40302053 -0.022246713
000340 46 b0 55 be ee 6d 31 be 4c 05 4a 3e 51 38 ba bd
       -0.20868024 -0.17327091 0.19728583 -0.09092773
000350 b7 07 90 bd 67 c7 60 3d 73 86 f1 3c 91 ee 53 3e
       -0.070327215 0.054877665 0.029483056 0.20696475
000360 17 a2 14 3e 63 7b 87 3e 74 73 24 be 80 7b 58 be
       0.14514957 0.26461324 -0.16059667 -0.21140862
000370 4a 84 5e be 2b de 05 be f4 02 cf bd 53 bc 7f 3d
       -0.21730152 -0.13073032 -0.10107985 0.06243546
000380 7d 4e e6 bd 1d 5d a9 3c ea 31 6a bd a4 66 51 3e
       -0.11245439 0.020674283 -0.057176508 0.2044931
000390 c1 ca 4d 3e 98 fc 09 3c 79 91 88 3e 5d 28 14 be
       0.20096876 0.008422039 0.26673487 -0.14468522
0003a0 5d e5 df bd a5 ed fb 3d 15 d4 4d 3c 07 5c f5 bd
       -0.109324194 0.123011865 0.012562771 -0.119804434
0003b0 2d 24 79 3e 82 ae 97 3d c0 81 8c 3e 55 0c 64 be
       0.24330206 0.074063316 0.2744274 -0.2227033
0003c0 32 50 4d bc 60 43 03 be 90 52 11 be e0 dc ad bd
       -0.012531327 -0.1281867 -0.14191651 -0.08489394
0003d0 b1 7f 21 3f 05 7f 88 3d c5 f6 19 3e 72 b4 fc 3d
       0.63085467 0.06664852 0.15035541 0.12339105
0003e0 39 cc a3 3d b7 97 f8 3c bd 20 a6 3d 33 51 fa 3d
       0.07997937 0.03034578 0.08111713 0.12222519
0003f0 08 e5 c0 bc e7 9c 49 be 17 bb fb bd 3f 30 ef 3e
       -0.02354671 -0.1968876 -0.12291544 0.46716496

critic.2.bias f4 [64]
000000 1e 0f 80 bc ad 63 ac bb bd 97 a8 bc 1d d6 51 bb
       -0.015632208 -0.0052609057 -0.020580167 -0.003201849
000010 8f a6 9a 3c 63 18 12 3c ae 54 36 bc 6f fe 0f 3d
       0.01887825 0.008916947 -0.011128588 0.035154756
000020 3a 27 1b 3a 53 e4 ac bc 55 98 ba 3b 8d 2f b4 bc
       0.0005918626 -0.021104967 0.005694429 -0.02199533
000030 09 0e e9 bb ef b7 ce 3a 93 87 c7 bc 7c c9 e6 bc
       -0.007112269 0.0015771369 -0.024356639 -0.028172247
000040 78 57 a3 bc a5 17 b0 3c 69 7d f3 3b 21 21 54 bc
       -0.01993917 0.02149565 0.0074307215 -0.012947352
000050 44 bb d1 3b 3b 40 d8 bc ad 20 f5 3b af 59 82 39
       0.0064004976 -0.026397815 0.007480702 0.00024862352
000060 1f a4 4c 3c 8d 73 0f 3c f3 c0 0f 3d a6 fa 34 bc
       0.012490301 0.008755577 0.03509612 -0.011046087
000070 cc 0a 5e bb 72 e8 da bc 8a cc b1 3c e6 58 a2 3b
       -0.0033880947 -0.026722167 0.021703977 0.004954445
000080 ad 61 c7 bc f0 0a bf 3b db 52 a4 3c 00 27 86 bc
       -0.024338568 0.0058301613 0.02005904 -0.016376019
000090 2e 13 e8 3b ae 9a 4f bd 91 39 e3 3a 37 25 f2 ba
       0.0070823645 -0.050684623 0.0017335882 -0.0018474226
0000a0 f7 90 42 bb 41 35 ab ba 01 5a de 3c dc ce 7f 3c
       -0.0029688457 -0.0013062136 0.027142527 0.015613284
0000b0 39 b8 7c bc 5c e6 e8 bc a2 16 aa 3b 0f 70 03 bc
       -0.0154247815 -0.028430156 0.0051906863 -0.008022322
0000c0 b4 cf 74 3b 94 a8 c2 3c e8 ef 5a 3c f8 4f 4b bc
       0.0037355246 0.023762025 0.013362862 -0.012409203
0000d0 05 98 b7 3b dd f6 e4 bc 9b fa 04 3d e0 2b bb bc
       0.005602839 -0.027949745 0.03246556 -0.02284807
0000e0 32 4e 58 3c 27 40 c0 bb 61 c1 20 3c 6b 2c 6d bc
       0.013202237 -0.0058670226 0.00981173 -0.014475922
0000f0 46 68 af 3c 8b 2f b6 bc 9b ec a9 bc 2b 77 60 3c
       0.021412026 -0.022239467 -0.020742705 0.013700287

critic.4.weight f4 [1, 64]
000000 97 b2 63 3e 10 8f 1b be 81 98 b6 3c 32 b0 e3 3e
       0.22236095 -0.15191293 0.022289516 0.44470364
000010 89 f6 0f be 9e 8c f0 3d 7b 7b 2b 3e e1 be a1 be
       -0.1405889 0.117455706 0.16746323 -0.31590942
000020 7d 06 52 3c 5c 28 30 3d eb ac ed bd c7 0e cb 3d
       0.01281893 0.04300724 -0.11605247 0.09914928
000030 a0 ec 82 3e bd f9 b0 bc fe 90 2c 3d d8 3a 0b 3e
       0.25571156 -0.02160346 0.042130463 0.13596666
000040 72 23 80 3d 84 13 33 bd ff f8 be bd a8 ec c2 3d
       0.06256761 -0.043719783 -0.09324836 0.09517795
000050 ad 46 85 bd 1b 11 ec 3d ba bc ef 3b d3 bc 4e bd
       -0.06507621 0.115267 0.007316199 -0.050473046
000060 d0 f7 8f 3e 7e 90 44 3e ab 6f f2 bc 48 f4 84 3e
       0.28118753 0.19195744 -0.029594263 0.25967622
000070 79 58 88 bd 52 67 f5 3d 08 56 77 bc 9d 53 60 be
       -0.066575 0.119825974 -0.015096195 -0.21906896
000080 e7 a7 20 3e 67 1a 22 be a1 43 34 bd 27 55 01 3e
       0.1568905 -0.15830384 -0.04400981 0.1263014
000090 de d7 03 be cb 28 4e 3d fa 60 91 bd c7 8f 30 3e
       -0.12875316 0.050331872 -0.07098575 0.17242347
0000a0 ef cb 83 3e cb 4b 39 be cd ed 85 be fd f1 83 bd
       0.25741526 -0.18095319 -0.2615799 -0.0644264
0000b0 d4 02 35 be 99 c5 a5 3d f4 4e dd bc a3 89 1d 3e
       -0.1767686 0.080943294 -0.027015187 0.15384535
0000c0 95 5c e7 3a 38 b2 5f bd 9a 38 b3 3d a7 50 a3 3c
       0.0017651493 -0.054613322 0.0875103 0.019935919
0000d0 e8 69 79 be b3 27 db 3c 2d 95 e8 bc 92 85 86 3c
       -0.24356806 0.026752329 -0.028391445 0.016421113
0000e0 d5 0a 64 bd 28 91 b5 3d bb cf 74 be c2 0a 1e 3d
       -0.055674393 0.08865577 -0.23907368 0.03858448
0000f0 ed 4b 80 be ff 77 1e 3e b4 01 d1 3d 70 75 4b 3c
       -0.25057927 0.15475462 0.10205403 0.012418136
