fw_flightcontrol/models/icinco/sac/noactreg/sac_bohn_noactreg_nohist_noatmo_6930_30-05_13:19:03.pt (torch, 853763 bytes, 20 tensors)

action_scale f4 [1, 2]
000000 00 00 80 3f 00 00 80 3f
       1.0 1.0

action_bias f4 [1, 2]
000000 00 00 00 00 00 00 00 00
       0.0 0.0

fc1.weight f4 [256, 14]
000000 56 20 b1 3e 37 d9 20 be 45 37 1e bd 70 1f a2 3e
       0.34594983 -0.15707861 -0.038626928 0.3166461
000010 30 72 a3 3d f9 2e b2 3e da 6c 95 bd af 5e f7 bd
       0.07980764 0.34801462 -0.072961524 -0.12078606
000020 26 34 dd be a7 46 7a bf ae 0a 42 bd 7d 41 01 3e
       -0.4320385 -0.97764057 -0.047373466 0.12622638
000030 02 7f 30 bc ce 43 ab 3d 14 c5 b9 3f f0 d2 8f 3f
       -0.0107724685 0.08362542 1.4513268 1.1236248
000040 8d 90 14 bd 99 ab 98 3f ca b0 1c bf 58 74 a5 3f
       -0.036270667 1.1927367 -0.6120726 1.292613
000050 75 92 35 be 21 dc 10 bf d4 a6 fa 3f d1 23 3c bf
       -0.1773165 -0.5658589 1.9582162 -0.7349215
000060 9c 8b 43 be 05 fd 17 bc bc fc 65 bf 3f ad 25 3d
       -0.19096226 -0.009276633 -0.8983877 0.040448423
000070 05 6c 2c c0 65 4f 8c c0 03 86 66 bc 9a 8a 0c bf
       -2.694093 -4.3846917 -0.014070037 -0.5489899
000080 00 51 33 bd 6c 35 fd be 79 85 dd bf ab 3b 45 c0
       -0.04377842 -0.4945482 -1.7306358 -3.0817668
000090 e8 bc 56 be 50 a2 ab 3e 4e 48 4c bd 69 80 d4 3d
       -0.209705 0.33522272 -0.049873643 0.10376055
0000a0 02 3e b1 bd 49 63 31 3f e8 87 c8 bf 19 eb 9c bf
       -0.08654405 0.6929212 -1.5666475 -1.2259246
0000b0 29 b2 95 bc ad 7f e2 3e 2a 85 47 be 2c 37 24 3e
       -0.01827343 0.44238034 -0.19484392 0.16036671
0000c0 c9 94 86 c0 d6 a5 d0 40 da f6 8d 40 5d c6 1e 40
       -4.2056623 6.5202436 4.4363832 2.4808571
0000d0 55 0f c0 ba f6 6d cd bc 65 00 8b be 0a 18 91 3f
       -0.0014653007 -0.025076848 -0.27148739 1.1335461
0000e0 ba dd 1d 3f 09 6e 7b bf 39 aa 0e 3b f9 e4 1f c0
       0.6166645 -0.98214775 0.002176894 -2.4983504
0000f0 7e 6d 75 bd 66 5a f5 bf bc 11 29 40 20 f5 ac 3f
       -0.059918873 -1.9168212 2.6417074 1.3512306
000100 3b 20 14 40 34 09 0d c0 5f 6a 32 be 11 08 51 3d
       2.3144672 -2.2036867 -0.1742339 0.051033083
000110 19 31 14 3f e0 24 73 3f cb c7 66 bf e2 89 9b 3f
       0.5788742 0.9497814 -0.9014861 1.2151453
000120 77 d1 f0 3b f6 f0 01 40 fc 86 16 3f 7e 38 e8 3f
       0.007349189 2.030332 0.5879972 1.814224
000130 c2 a5 99 3f ff f1 22 c1 df d3 d8 c0 a6 70 85 3d
       1.200371 -10.184081 -6.775863 0.065156266
000140 cf 87 e4 3b 09 44 21 be 69 62 81 be 06 70 15 bd
       0.0069741975 -0.1574861 -0.25270393 -0.036483787
000150 a1 ee 0c bd 9b c7 02 3e c0 6a 3c be 8b a8 3b be
       -0.03440726 0.12771456 -0.18400097 -0.18326013
000160 02 1b 40 bc 78 3e 51 be e2 df 5c be b2 8d cc bc
       -0.011725189 -0.20433986 -0.2156978 -0.02496991
000170 01 63 e4 bd b2 d6 d8 bb c7 b1 af 3d a3 ff 1c 3e
       -0.11151696 -0.0066173906 0.0857883 0.15331893
000180 69 9e 44 bd fd 5b 0f 3e b1 c0 d0 3d 47 9a b5 bd
       -0.048002634 0.13999934 0.10193003 -0.08867317
000190 9e 89 1a bd 4f b1 3d 3d dd 4a 64 bf 20 66 c3 3e
       -0.0377289 0.046311673 -0.8917673 0.38163853
0001a0 7e d4 eb bf 04 7c bc 3f 91 81 14 3d 24 b5 f5 bf
       -1.8424222 1.4725347 0.036256377 -1.9195905
0001b0 05 50 5f 3e 67 59 d7 3e 34 5a 09 bf fb d9 98 3f
       0.21807869 0.42060396 -0.53653264 1.1941522
0001c0 08 79 a0 bd 06 4e c5 bc 3f 99 ba bd ab c6 3d 3e
       -0.07835585 -0.024085056 -0.091112606 0.18532817
0001d0 9e 9e 5b 3e 6c ee e0 bd 2a a0 20 be c5 49 3e 3e
       0.21447226 -0.10982975 -0.15686098 0.18582828
0001e0 79 f4 6e 3d 77 9e d7 bd 2e 6d 82 3d 5c ea 2c be
       0.058338616 -0.10528272 0.063684806 -0.16886276
0001f0 49 09 46 3e e2 f7 9d 3c 22 01 8d 3f ef 95 18 be
       0.1933948 0.019283239 1.1015971 -0.14900945
000200 fe 59 1d be fb 80 06 3f 9d d5 a8 bf 1e d0 46 3f
       -0.1536636 0.5254056 -1.319019 0.7766131
000210 ab ad 25 be d6 38 9f be 1c 74 c2 bd 5f ac c8 be
       -0.1617953 -0.3109805 -0.09494802 -0.3919401
000220 81 ae 48 be 7a 39 18 3e 82 c3 9e 3e cf 24 90 bb
       -0.19597818 0.14865676 0.31008536 -0.004398919
000230 b2 93 7e 3e 05 b3 17 3e 02 ea 82 bd 93 3f 80 bd
       0.24861029 0.14814384 -0.0639229 -0.06262126
000240 d8 2f eb 3d 65 dd f6 3d 8f b5 94 3c 6a 04 11 be
       0.11483735 0.120539464 0.01815298 -0.1416184
000250 55 a5 51 be 0b 3d 9a 3c 9c 3b d0 bd 11 1f 86 3e
       -0.20473225 0.018827936 -0.101676196 0.26195577
000260 74 3b a5 3d 04 20 68 3e 2b cb 7d bf b8 2f 87 3f
       0.080679804 0.22668463 -0.99138135 1.0561438
000270 6e c1 b6 bd 03 b6 ee 3d db de 84 3e 82 de 92 3f
       -0.089236125 0.1165581 0.25951275 1.1474154
000280 ee b4 11 3f 02 4b 03 c0 e1 bd 0e bd 67 2f e7 bf
       0.569167 -2.051453 -0.03484905 -1.8061341
000290 35 12 cc bd 3d 89 01 3e c9 8b 7b 3e 61 91 7d be
       -0.0996441 0.12650008 0.24565043 -0.24762489
0002a0 87 f7 42 be 22 70 67 3e 97 dc 32 be 61 94 5b 3e
       -0.19039737 0.22601369 -0.17466961 0.21443321
0002b0 3c 6f 74 3e 96 19 68 be 25 6f 40 3e 09 55 91 3c
       0.23870558 -0.2266601 0.18792398 0.017740743
0002c0 68 d6 e3 3d 23 21 17 be ae 7b 19 be f5 3a b2 3d
       0.11124879 -0.14758734 -0.14988586 0.087026514
0002d0 1b 4b 02 bd a9 28 31 bd 19 d1 03 be 5d 10 50 3e
       -0.031809907 -0.043251667 -0.12872733 0.20318742
0002e0 71 6e 60 be 0c 0d 73 3e af d1 7b 3e 0d c6 a7 bd
       -0.2191713 0.23735446 0.24591707 -0.08192072
0002f0 35 82 3c be 80 1e 92 3d 4b e6 4c 3b 59 86 64 be
       -0.18409045 0.07134724 0.0031265195 -0.22316875
000300 50 a1 02 3e 13 62 35 3e c3 b6 f1 bd 19 96 0e be
       0.12756848 0.17713194 -0.11802437 -0.13924445
000310 ca 78 ad 3c d7 95 81 3e 2d a9 8c bd 2f 07 a2 bd
       0.02117576 0.2530963 -0.06868205 -0.079115264
000320 bc 7c 45 bb 57 10 69 3d 2b ab fa 3d 98 23 a0 3c
       -0.0030134162 0.05690035 0.12239679 0.019548222
000330 28 4f 20 be 65 8f d4 3d 1e b1 66 be bf cd 24 be
       -0.15655196 0.10378913 -0.22528502 -0.16094111
000340 18 bb 10 be b7 b6 84 3d 18 03 a4 be 1a a3 c9 3f
       -0.1413387 0.064801626 -0.3203361 1.57529
000350 ee ca 24 bc f1 7b 27 bf a8 78 b4 3e d3 0a 1b bf
       -0.010058148 -0.65423495 0.35248303 -0.6056339
000360 03 09 6b c0 7f 70 94 c0 b3 bb a6 c0 63 2e ec bf
       -3.672425 -4.6387324 -5.2104125 -1.8451656
000370 1f 24 6f 3d 8f 01 d9 3c 4e 7b b9 3e 42 f9 b3 3e
       0.058384057 0.026490001 0.36226887 0.35151106
000380 a1 39 92 3d e9 a6 77 3c 0c 82 5e be 7b 7c 19 bc
       0.07139898 0.015115478 -0.21729296 -0.009368057
000390 fb 2c dd bd 30 59 20 bb 2f 58 40 be e4 1e 4f 3e
       -0.10799595 -0.0024467222 -0.1878364 0.20226628
0003a0 e3 2f b4 3c b9 d4 64 be f6 02 5f be 61 6c 46 be
       0.02199549 -0.22346772 -0.21778473 -0.19377281
0003b0 09 4c 49 3e fa ad 66 3e ff 31 5e be c3 ba 86 be
       0.19657911 0.22527304 -0.2169876 -0.26314363
0003c0 cf fc a6 bb 0d e4 7f be e5 19 c6 ba 68 67 d9 be
       -0.005096055 -0.24989338 -0.0015113918 -0.42461705
0003d0 90 a2 a4 c0 7d 28 35 c0 7d d1 b9 3f 86 26 e0 be
       -5.144844 -2.8305962 1.4517056 -0.4377939
0003e0 88 fe 19 3e 1a 08 32 bd 39 f1 c9 3e 37 52 9c 3f
       0.15038502 -0.043464758 0.3944185 1.221259
0003f0 bc 6c 95 3f b8 dd cc be 0e cb ab bd b0 2a 6a 3d
       1.1673808 -0.40012908 -0.08388339 0.057169616

fc1.bias f4 [256]
000000 8f f6 a4 be 35 49 dc 3e d1 04 80 3d 8c 67 6c bd
       -0.3221936 0.43024603 0.06250919 -0.057715937
000010 fb 71 5b bf eb 65 41 3f c1 bd c6 3d 92 7b ac 3c
       -0.85720795 0.7554614 0.097041614 0.021055017
000020 1f ed 50 3e dd 36 84 be 44 aa 65 bd 55 26 bf 3e
       0.20402955 -0.25823107 -0.05607058 0.37333933
000030 e1 02 60 bd f9 b6 85 3e bb 06 e3 3d fc c9 d3 3d
       -0.054690246 0.2611616 0.11085268 0.1034126
000040 9c 40 d2 3d c9 fa 1f 3f cc 2a fd be a7 9e 46 3d
       0.102662295 0.6249204 -0.49446714 0.048491146
000050 d1 c7 08 3e de a4 bf be f7 4d 9a 3e 2d ac 81 3e
       0.13357474 -0.3743047 0.30137607 0.25326672
000060 25 7d ba 3f 73 58 ef 3d ea 55 d0 3e 88 51 0a 3e
       1.4569441 0.11686792 0.40690547 0.13507664
000070 2a 76 5f bd a0 dc 8b 3d f6 eb e4 bf f7 b3 8d be
       -0.05455605 0.0682919 -1.788451 -0.27676365
000080 ca 24 d3 3e 43 01 ac 3e 1f 6a 01 3e 1d 36 2d be
       0.41239005 0.33594713 0.12638138 -0.16915174
000090 6a 12 07 3e 05 6f 2b be 89 e1 82 3e ed 67 3f 3f
       0.13190618 -0.1674157 0.25562695 0.74767953
0000a0 97 df 4c 3c 7a a0 9d 3e fa 66 ec bc 6b bb 04 bf
       0.01250448 0.30786496 -0.028857697 -0.5184848
0000b0 c9 57 aa 3e d5 de 0b bf fb 6a 41 c0 78 72 e3 3d
       0.332701 -0.5463689 -3.0221546 0.111058176
0000c0 14 dd 8b be 2e ba c1 3d ea fb 59 3d 4a 39 76 3f
       -0.27317107 0.09459339 0.05321876 0.96181166
0000d0 46 9f 0a bf 88 79 14 bf 13 2f 8d bb 37 dd 0c bf
       -0.5414928 -0.5799794 -0.00430859 -0.5502505
0000e0 0f 13 5c bf 6d 74 a1 3d 0d c5 14 3e 8f b6 e9 bf
       -0.8596658 0.078835346 0.14528294 -1.8258837
0000f0 5a e9 e1 be 53 e7 a5 bd d0 71 56 be 50 fb 1b be
       -0.44123346 -0.08100762 -0.20941854 -0.15232587
000100 bf f5 09 3e ba fd 67 be 06 40 12 3e 9c c2 91 bf
       0.13472651 -0.22655383 0.14282236 -1.1387515
000110 05 15 c8 be 27 59 e0 bd 16 00 a3 3e 76 a5 d6 bd
       -0.39078537 -0.109545045 0.31836003 -0.10480778
000120 04 0f 9f bf 20 85 a7 3d ab 35 12 bc b2 04 99 be
       -1.2426457 0.081796885 -0.008923928 -0.29886395
000130 62 7d b7 3d 8e 46 00 3f 40 0f 36 3f f1 c1 5f be
       0.08959462 0.5010766 0.7111702 -0.21851327
000140 35 cd 67 3e ca 20 81 3c 67 01 4a bc 24 2c 2d be
       0.22636874 0.015762705 -0.012329436 -0.1691137
000150 50 5b 11 be 3e 93 2e 3e 3c cd ff 3e 88 93 68 3e
       -0.14194989 0.17048356 0.4996127 0.22712529
000160 a5 1a 93 3d 3d 64 04 3f 0d c5 84 be 25 b8 dc be
       0.071828164 0.5171545 -0.25931588 -0.4310924
000170 0d 4e f9 3e db 87 87 3d f1 7a 3c 3d e2 35 38 be
       0.4869236 0.06617709 0.046015684 -0.17989305
000180 5b 52 54 3e 91 ac 41 3d 87 f0 84 3d 56 6f 37 3e
       0.20734541 0.047283713 0.064911895 0.17913565
000190 4c 44 4b 3e a3 31 2c be 21 59 39 bf 60 30 5f be
       0.19850272 -0.1681581 -0.72401625 -0.21795797
0001a0 7f b2 06 c0 7c 4b 87 3e 29 f6 19 3e 81 06 5b 3d
       -2.1046445 0.26424778 0.15035309 0.053473
0001b0 78 42 45 3e a0 e4 f2 3e 63 ec f4 be 83 a2 d8 bd
       0.19263637 0.47440052 -0.478366 -0.10577872
0001c0 9e 5e 71 be 36 b3 db 3b 54 ad d6 3d 15 2e a2 bd
       -0.2357125 0.006704713 0.104822785 -0.07918946
0001d0 6e b3 2e be ea 58 96 3e b0 33 ee 3e dd 85 52 3d
       -0.17060634 0.2936471 0.4652381 0.051397193
0001e0 be d8 0c 3d cc 1d 8e be 1a 9c 39 be 3b ae e8 bd
       0.03438639 -0.27757108 -0.18125954 -0.11361357
0001f0 53 da 5f 3e 34 6a a4 bf f0 69 df bd 26 a2 68 3d
       0.21860628 -1.2844911 -0.10908878 0.05679526
000200 66 17 48 3f 84 38 57 bf ed c7 34 3f a1 f2 f8 3e
       0.78160703 -0.8407061 0.7061756 0.4862261
000210 ed a6 c1 3e 71 b8 0c bd a0 45 80 3e 47 dd 9b 3e
       0.37822667 -0.034355585 0.2505312 0.3044226
000220 e5 ee 34 3e 08 fa 0d 3f 5b f8 bc 3c 40 fb d4 be
       0.17669256 0.5545964 0.023067644 -0.4159794
000230 c9 8f 85 3e 62 8f c7 3e 77 2a 35 c0 10 e1 7b be
       0.26086262 0.3897658 -2.8307168 -0.24597573
000240 5c 01 2c 3f 46 db aa 3e da e1 82 be 10 f3 94 bc
       0.67189574 0.33370417 -0.25562936 -0.018182307
000250 6e 04 ea bc a2 62 b1 be 0c 49 18 be ab 08 ef 3d
       -0.028566565 -0.34645563 -0.14871615 0.11671575
000260 6d cf 86 bd 4b 46 07 bf e5 ca 56 3e 8f b5 37 bd
       -0.06582532 -0.52841634 0.20975836 -0.044850882
000270 5c c3 83 be 91 46 7c 3e c8 88 6e 3d ad 41 c5 bb
       -0.25734985 0.24636294 0.058235914 -0.006019792
000280 99 d5 09 3d 51 5d 0f 3e d7 87 69 be 48 8e 14 3e
       0.03365097 0.14000441 -0.22805725 0.14507401
000290 c7 54 eb bf c7 2c 23 3e 7e 0b 78 3e 90 e4 85 be
       -1.8385247 0.1593505 0.24223134 -0.26150942
0002a0 f7 4d 4a 3e 91 fe 00 3e f6 96 38 3d 4f 07 0c 3f
       0.19756304 0.1259711 0.045065843 0.5469865
0002b0 e0 c5 aa 3d 46 22 18 c0 0e 7a 64 be 26 3d f4 be
       0.08338523 -2.377092 -0.22312185 -0.47702903
0002c0 cf da 91 3d 47 f4 fb bd 41 6e 77 bf f9 4b 36 3e
       0.071218126 -0.123024516 -0.9665261 0.17802419
0002d0 4b ac 21 3e 38 6a 97 bf 67 4d 16 be ab 26 61 3e
       0.15788381 -1.182929 -0.14677964 0.21987407
0002e0 10 4f d9 bd b3 2a 3c 3d 6f 82 2b bf 5d 0e dc be
       -0.10610783 0.04593916 -0.669959 -0.42979708
0002f0 a8 af 32 bf 79 7c 41 bf fd 65 29 bf 0c 04 32 bf
       -0.6979928 -0.75580555 -0.66171247 -0.69537425
000300 a3 e5 8e be 45 98 28 3e 0f 42 9a 3e 4f de 9a be
       -0.27909574 0.16464336 0.30128524 -0.30247733
000310 26 75 13 bf 25 b9 d8 3e 78 d2 35 3d d4 21 65 bd
       -0.5760063 0.42328754 0.04439017 -0.055940464
000320 57 32 4b bf fd 89 b0 3e e5 e8 a5 bb ce 55 1e 3f
       -0.7937369 0.34480277 -0.0050631636 0.6184968
000330 0b 34 7e be b1 df 57 bf f6 da 03 be d2 d6 50 3e
       -0.2482454 -0.843257 -0.12876496 0.20394447
000340 f9 3e 2f 3d 68 0f 4e bd a2 fe 3c 3e d2 13 33 3d
       0.042784665 -0.05030766 0.1845651 0.043720074
000350 c3 b9 5e 3d d9 39 86 3e 7c 92 f1 3d f7 ba 6c 3f
       0.054376375 0.2621601 0.11795518 0.92472786
000360 25 1d 22 bf 0a e7 ae 3d db dc 52 bb 3d a5 9a 3d
       -0.6332572 0.08540161 -0.0032175097 0.07551048
000370 5f f5 bc 3e 74 ee c2 be f5 36 1b be b9 0d 33 3e
       0.36905953 -0.3807255 -0.15157683 0.17485704
000380 02 db 48 be bd d9 c5 3e 06 c6 01 3f 4e 77 99 3e
       -0.19614795 0.38642684 0.50692785 0.29973835
000390 dc 04 6c 3e 6f e9 d2 bd 7e d0 2f bf d7 de 76 bf
       0.23048729 -0.1029843 -0.6867751 -0.96433777
0003a0 ff 40 e4 be 1e ff f4 3e 30 b1 47 3e 19 ac ef bd
       -0.44580838 0.4785089 0.19501185 -0.11702747
0003b0 2e 31 df 3d b4 31 5e 3e 40 d4 72 bd ce f2 8b 3e
       0.10898052 0.21698648 -0.05928445 0.27333683
0003c0 07 21 45 bd a5 fe b0 bf 2f 27 46 bd 97 64 51 3d
       -0.0481272 -1.3827711 -0.048377212 0.05112132
0003d0 f8 39 1d 3e c7 56 d1 bd 6d 7d 81 ba 6f 69 d3 be
       0.15354145 -0.102216296 -0.0009879299 -0.41291377
0003e0 d0 d3 bd 3e 30 de ce 3e cd 61 09 be 6d a0 16 be
       0.37075663 0.4040389 -0.13416214 -0.14709635
0003f0 9d ad 52 3e 19 17 df 3d b4 f2 26 3f a3 a9 83 3e
       0.2057404 0.108930774 0.65214086 0.2571536

fc2.weight f4 [256, 256]
000000 de 32 f7 b9 b6 2f 97 bd 96 c0 d8 bc 21 8d a7 3c
       -0.0004714941 -0.07382147 -0.02645902 0.020453038
000010 e4 01 87 bd 17 cd 74 bd 20 99 d1 3b 3b 64 1d bd
       -0.065921575 -0.0597659 0.0063964278 -0.038425665
000020 04 06 d2 bc 74 31 8d bd 08 0c dc 3c 51 9e 48 bd
       -0.025637634 -0.06894198 0.026861206 -0.048979107
000030 f2 14 07 3d 56 ed 71 3d c0 bc b6 3b b9 3e 96 3d
       0.03297896 0.05906423 0.0055767 0.07336182
000040 60 06 5c bb 89 6f c4 bd 0b 65 55 bd ae 35 19 bd
       -0.0033573136 -0.09591586 -0.052098315 -0.03740471
000050 04 1a 9e 3c 81 7a 68 bd 09 ee b1 bd 00 ee 10 b9
       0.019299515 -0.056757454 -0.0868798 -0.00013821572
000060 4a a5 97 bd 98 4a 29 bd 31 ef 20 3d 4d 43 ed bc
       -0.07404573 -0.041330904 0.03929061 -0.028962756
000070 ac e2 c8 3c b9 cc 91 bd 3c d3 2d bd 25 3d 48 bd
       0.024522148 -0.07119126 -0.042437777 -0.048886437
000080 0a 37 95 bc 9f 44 9a bd ab 65 a4 bd a1 ee 02 bd
       -0.018214721 -0.0753262 -0.08027204 -0.031965856
000090 05 5c 38 bd aa 11 04 3d be 5b 02 3d ff bc 57 3c
       -0.04500963 0.03224341 0.031825773 0.013167619
0000a0 dc 10 55 3d 79 6c 1e ba d0 ae 10 bd e3 59 51 bd
       0.05201803 -0.00060433854 -0.035322964 -0.051111113
0000b0 2b 6b e5 bc 6c bb 5f bd 4e 02 db 3a 58 a7 9d 3c
       -0.028005203 -0.0546221 0.0016709061 0.019244835
0000c0 3b ae 70 bd ea 01 3c bd b8 0e 85 bd 67 ed 95 bd
       -0.05875991 -0.045900263 -0.06496948 -0.073206715
0000d0 a8 88 90 bd a4 0e ed bc b8 d1 59 bd df ea a1 3b
       -0.07057315 -0.028937645 -0.05317852 0.004941329
0000e0 f1 f8 c3 bd 88 c4 44 3a c8 3d 76 3c 2f 05 d3 bd
       -0.09568966 0.0007506092 0.015029378 -0.10303723
0000f0 3c b3 99 bb b1 85 d7 bc 9d b9 a5 3c e3 5f 77 bc
       -0.004690556 -0.026308866 0.020230109 -0.015098545
000100 a0 3e c5 bc b8 2b bf bc 00 1b 22 3c 09 52 42 3c
       -0.024077713 -0.023336276 0.009894133 0.011860379
000110 3f 9e 67 bd 86 52 58 bd b4 95 a0 ba b4 15 f0 bc
       -0.0565474 -0.052813075 -0.0012251646 -0.029307224
000120 e1 08 a4 bc 62 35 7d bd 18 71 4f bc 00 22 ed 3c
       -0.020023765 -0.061818488 -0.012661241 0.028946877
000130 b4 a6 5d bd 41 3e 15 bd 8c 21 b7 3b db 90 7e ba
       -0.05411406 -0.036436323 0.005588716 -0.0009710916
000140 bc b5 01 3d 4b 37 cb bc 19 8b 96 ba 50 13 94 bb
       0.031667456 -0.02480664 -0.0011485546 -0.004518904
000150 11 f3 c3 3b 60 a3 d2 3c 44 a9 07 bb 80 3a 68 bb
       0.0059799035 0.025712669 -0.0020700255 -0.003543526
000160 a8 70 22 bd 27 41 86 3c b0 d0 b7 3c 30 0b f0 3c
       -0.03965822 0.016388489 0.022438377 0.02930221
000170 6f 4d 91 bd c0 4d 4d 3b ec ab b5 3c c7 47 72 bd
       -0.070948474 0.003132686 0.022176705 -0.059150483
000180 00 58 18 bd 86 23 79 3d 3e 60 49 bd 6e f1 51 3d
       -0.0371933 0.060824893 -0.04916405 0.051255636
000190 78 96 01 bc 46 9e 7a bb dd 66 94 bd d1 fa b2 3c
       -0.00790941 -0.003824131 -0.07246182 0.021848114
0001a0 58 b9 30 bd 3d 05 43 3d 9e 79 1c bd 96 6f d0 bd
       -0.043145508 0.047612417 -0.03820192 -0.10177533
0001b0 b2 85 db 3c 76 0d 07 3d a5 5b 9e bc 18 0c e9 bc
       0.02679715 0.03297182 -0.019330809 -0.02844815
0001c0 e0 0f 3d bd b7 1d 15 b9 90 8f 76 bd e0 3d 0c bd
       -0.046157718 -0.00014220817 -0.060195506 -0.034238696
0001d0 a8 8e a0 3c 04 5d 8c bd c5 5c 3d bd 34 47 92 bc
       0.019599274 -0.06853679 -0.04623105 -0.017856218
0001e0 f0 fe b7 bc 55 55 3b bd 77 20 77 bd 86 c4 62 3d
       -0.02246043 -0.045735676 -0.060333695 0.0553632
0001f0 2a 1f 48 bd 19 d4 2a 3c 11 fa 61 bd 0d 58 15 bd
       -0.048857845 0.010426545 -0.055170123 -0.036460925
000200 51 e9 a0 3c fc bd de 3b b8 81 88 3a 9d cd 96 bd
       0.019642504 0.0067975502 0.0010414636 -0.07363436
000210 94 97 85 bd 2e 31 20 3d 00 f4 ba b9 9e bf 84 bd
       -0.06523052 0.0391094 -0.0003565848 -0.064818606
000220 40 95 38 bb 16 a3 13 bc a0 2d 74 bb 47 da c8 bd
       -0.0028165132 -0.009011051 -0.003725864 -0.09807258
000230 20 c8 dd bb 58 d4 94 bd 29 65 89 bd cd e2 cf bc
       -0.0067682415 -0.07267064 -0.06708748 -0.025376702
000240 c4 46 da 3b 04 77 7e bd 62 76 50 bd eb a7 46 bd
       0.006661268 -0.06212522 -0.05089415 -0.048499983
000250 4e ab 2d bd b7 6d 07 3d 08 e4 05 3c 06 4c 58 bd
       -0.042399697 0.033063617 0.008172043 -0.052806877
000260 64 51 c7 bc 05 9a b3 bd 02 3c 06 3d 68 41 2a bc
       -0.024330802 -0.08769611 0.03277207 -0.010391571
000270 e0 3b cd 3b 9e a0 5e 3d c1 8b 1a 3d a0 b1 26 3b
       0.006263241 0.054352395 0.037730936 0.0025435463
000280 34 4f c7 3c f0 5f 2e bc 00 b9 22 bb 6a f0 94 bd
       0.02432976 -0.0106429905 -0.0024829507 -0.07272418
000290 e4 8c ef 3c 3e 8a 48 bd 08 d0 d1 3c be 86 7d bd
       0.029241987 -0.048959963 0.025611892 -0.06189608
0002a0 99 3c 60 bd a0 fc 5a bd 80 15 c9 ba 09 6a fe 3c
       -0.05474529 -0.05346358 -0.001534149 0.03105642
0002b0 e0 64 04 bd 36 ad 89 bc 9c 44 db bc d5 0d 86 bd
       -0.032322764 -0.016806226 -0.026766114 -0.06545607
0002c0 74 b0 1a 3d a5 77 e0 bc 49 e5 a3 bd b6 20 60 bd
       0.037765935 -0.027400801 -0.08002717 -0.054718696
0002d0 48 5a 60 bc 6d 9a 0b be c2 f3 2d bd d0 2f d5 bb
       -0.0136934 -0.13633128 -0.042468794 -0.006505944
0002e0 3c 6b 6c bd f6 df 70 3d 89 06 ab bd 3c f4 c0 3c
       -0.057719454 0.058807336 -0.08350856 0.02355396
0002f0 69 d6 ae bc 2f 56 81 bd 00 32 4a bd eb 23 09 bd
       -0.021342473 -0.06315266 -0.04936409 -0.03348152
000300 c2 99 d9 bc 3c 8d 8b 3c 87 69 86 bd ac 92 ab 3c
       -0.026562575 0.01703512 -0.065630965 0.020943962
000310 81 8e f8 3b 20 a0 ed bc 02 4b 00 3c 34 e6 bd bc
       0.007585347 -0.029007018 0.007830383 -0.023181058
000320 22 6e 44 bd 49 e3 7f bc 71 6e 19 3d c4 71 b6 3c
       -0.047956593 -0.015618154 0.03745884 0.022271045
000330 63 42 85 bb e1 b0 4e bc 4a a7 39 bd 80 2a 16 3d
       -0.004066752 -0.012615413 -0.045325555 0.036661625
000340 fc 1d 52 bb 89 84 4e bd c7 d8 1d bd 9a dd 7b bd
       -0.003206133 -0.050419364 -0.038536813 -0.061490633
000350 79 b3 e5 bd 2a 4a eb bc 96 e9 4d bd 3e f3 01 3d
       -0.11215872 -0.028721888 -0.050271593 0.031726114
000360 39 b3 ca bc 96 b4 4e bd 3d 1d 0f 3d 00 e0 5b 3c
       -0.024743663 -0.05046519 0.034939993 0.013420105
000370 8f 81 34 bc 4a 50 bc bd ce 33 d2 3b 70 0b 17 3d
       -0.011017217 -0.091950014 0.006414867 0.036876142
000380 ae fc 23 3d f5 42 dc 3b d4 3f f3 3b 0f df aa bd
       0.040035896 0.006721849 0.0074233804 -0.08343326
000390 57 57 cb 3a d0 8f bf bb a0 42 91 bc 36 5c 2a bd
       0.00155137 -0.005846001 -0.017731965 -0.041591845
0003a0 b0 89 cf bc 14 dd a5 bd 52 e9 28 3d d0 60 e7 3c
       -0.02533421 -0.08098808 0.041238137 0.028244406
0003b0 1c 13 17 3d d0 fe ba bb 43 dc 01 3c 43 4c 82 3c
       0.03688346 -0.0057066455 0.00792605 0.015905505
0003c0 de d1 fb bc 59 e2 91 3c 88 17 b2 3c c5 0b aa 3b
       -0.03073972 0.017808126 0.021739736 0.0051893913
0003d0 fa bb 08 3d 5d a9 25 bc a6 6b c6 bb 6c ed e6 bb
       0.033382393 -0.01011118 -0.006055313 -0.007047346
0003e0 cc de e2 bb 0a 14 87 bc 0c 01 10 bd e0 f9 51 3b
       -0.006923532 -0.016489048 -0.03515725 0.0032039806
0003f0 64 d5 d2 bc 2a 92 1c bd 1c d0 57 bd 25 fe 00 bd
       -0.025736518 -0.03822533 -0.052688703 -0.03149237

fc2.bias f4 [256]
000000 d2 6b d6 bc bb 19 4b be c3 f5 80 be 89 0a 27 be
       -0.02617446 -0.19834034 -0.251875 -0.16312613
000010 a8 90 73 be ee 5c 25 3c 39 57 0f bc 32 f2 ae 3e
       -0.2378565 0.010092957 -0.008748823 0.34169155
000020 4a 74 83 3c f9 62 b1 bd bf 74 cd bd 4c 9d 2e be
       0.016046662 -0.08661456 -0.10032033 -0.17052191
000030 eb 0d ef be 55 6c 96 bd 08 66 ec 3e 32 66 3d 3f
       -0.46690306 -0.073448814 0.46171594 0.7398406
000040 c1 aa 80 3e 88 e2 61 bd 3c a9 9e bd 64 ea cd bd
       0.25130275 -0.055147678 -0.07747123 -0.10054472
000050 54 d4 9e be c9 0d 93 bd e3 b0 c9 bd d1 c9 87 bd
       -0.31021369 -0.07180364 -0.098481916 -0.0663029
000060 4b a7 40 be da 15 18 bd 5c b0 c9 bd 2f 67 30 bf
       -0.18813817 -0.037130214 -0.09848091 -0.68907446
000070 26 83 93 3e 79 4c d8 be df 55 0a be 97 44 af bd
       0.28810996 -0.42245844 -0.1350932 -0.08558004
000080 c6 96 0f bd 37 a7 eb be 3d 87 4f be 81 01 06 3f
       -0.035055898 -0.46026012 -0.20266433 0.52346045
000090 d8 7a 2c 3f 69 75 a6 be f5 cc 95 3f 09 2e ff be
       0.67374945 -0.32511452 1.1703173 -0.4983981
0000a0 1b 6e 82 bc aa e6 4a 3e 81 74 f5 3e 8e c6 29 bd
       -0.015921643 0.19814554 0.47940448 -0.041449122
0000b0 da b8 d2 bd e5 d1 ee 3e fe e7 86 bd 89 ec 1d 3e
       -0.10289164 0.46644512 -0.06587218 0.15422262
0000c0 49 ba b5 bd d9 29 0f 3d 38 6c 06 3d eb 92 da bd
       -0.08873422 0.03495202 0.03281805 -0.10672554
0000d0 fc 3a 50 3e 57 9b 02 bf 1c fa d5 be 96 a7 18 bd
       0.20335001 -0.5101828 -0.4179238 -0.037269197
0000e0 28 7f 65 3f 4a 28 a1 3a b4 f7 50 bd b6 ce 66 3d
       0.8964715 0.0012295332 -0.051017478 0.05634948
0000f0 d5 95 5f 3f 50 30 3a 3f 09 20 01 be e3 9e 0d bc
       0.87338 0.7272997 -0.12609877 -0.008643839
000100 e0 23 08 bd 6c ae d0 3e fb 00 6f bd f9 cc 30 bc
       -0.033237338 0.40758073 -0.058350544 -0.010791057
000110 d0 cd 91 be 64 00 2b 3f 2d 73 c7 3e 57 d6 05 be
       -0.28477335 0.6679747 0.3895506 -0.13070045
000120 94 1c ad bd 09 ee f3 3e 44 b0 6d bd e5 cc dd 3e
       -0.084527165 0.47642544 -0.058029428 0.43320385
000130 bc 9d 73 bf 75 e4 83 bf 26 9a 83 3f 90 e8 8d be
       -0.9516256 -1.0304095 1.0281417 -0.27716494
000140 64 ae 8f 3e c2 76 2e 3e f4 72 00 3f 48 66 7c bf
       0.28062737 0.1703749 0.50175405 -0.9859357
000150 07 1f 64 3f d0 68 a6 be 75 d7 a3 3e f4 e4 19 be
       0.89109844 -0.3250184 0.32000318 -0.15028745
000160 86 ed 83 3b 1a ec 1a bf 7a d0 c3 3c 64 50 f7 3f
       0.0040261177 -0.6051651 0.02390312 1.9321408
000170 02 55 f4 bd ac 16 d4 bc 17 ab 26 3f 11 c9 da 3d
       -0.119302765 -0.025889717 0.6510481 0.106828816
000180 f3 79 33 bd f7 df 10 3f b3 ae b0 3d 6e 60 04 3c
       -0.04381747 0.56591743 0.08627071 0.008079631
000190 44 fe 5c bc 86 54 f7 3e ea 76 ae bd 91 4d ac bf
       -0.013488356 0.48306674 -0.08518775 -1.3461171
0001a0 e3 34 48 3e 86 b9 59 bc 7c 3d ae 3d bc c0 88 bd
       0.19551425 -0.013288861 0.08507821 -0.06677386
0001b0 0f 05 f0 bb da 40 2e 3e 4b fc 8a 3f 7a c3 16 3d
       -0.007324822 0.17016926 1.0858244 0.036807515
0001c0 95 b0 1d 3f f1 ed 4f 3f b4 d2 4b be ff 9e b8 bf
       0.6159757 0.81222445 -0.19904596 -1.4423522
0001d0 39 d6 a8 bc 0b 1d c5 bb 1d d0 0f bd 4d c2 b3 3c
       -0.020609962 -0.006015425 -0.03511058 0.021943236
0001e0 ca af a9 bf 74 98 62 be fa cc 26 3f 41 28 23 bd
       -1.3256772 -0.22128469 0.6515652 -0.03983331
0001f0 a5 d4 3f bf 8c 26 e9 be 2a 7d ac 3e b5 d7 d7 3e
       -0.74933845 -0.4553722 0.33689243 0.4215676
000200 90 77 4e 3e ca 13 89 be 03 84 a1 bf 76 39 89 3f
       0.20162797 -0.2677291 -1.2618412 1.0720661
000210 e4 e5 50 3e 48 08 3f bd 79 dd 67 3e 6a c0 91 3e
       0.20400196 -0.046638757 0.22643079 0.28467113
000220 32 34 d6 be c6 93 57 bf d4 83 01 3f 8f c5 87 bd
       -0.41836697 -0.8420986 0.5059178 -0.06629478
000230 0f a0 1f 3d a5 8d 9f be de 6a ba 3e f6 1b 11 be
       0.038971003 -0.31162754 0.36409658 -0.14170823
000240 20 40 2f 3f 07 37 32 bd 11 a1 a9 bd 2f 32 2b bf
       0.6845722 -0.04350951 -0.08282674 -0.6687345
000250 4c 6c ad 3e a4 5c 8f 3b 12 76 1a 3e cb 91 11 bd
       0.33871686 0.0043750573 0.15084103 -0.03553943
000260 0f 0b aa 3f 01 da d7 3a 2d 87 91 bd 7d 0f f1 3e
       1.3284625 0.0016468168 -0.07105861 0.4708213
000270 2b b8 22 3e 24 3c 1d 3f b8 81 ac 3f 2f 62 8a bd
       0.15890567 0.6141989 1.3477087 -0.06757008
000280 a3 de 5d 3f 71 ac b3 3b 33 a6 f3 3e 3c da ed bd
       0.8666784 0.005483203 0.47587737 -0.116138905
000290 d4 80 c4 3d 3e 4f 4e 3f d0 50 3b be 76 b3 97 bc
       0.095948845 0.80589664 -0.18292546 -0.01851819
0002a0 14 56 1f be 5e e6 1f 3f ec 30 f1 3d 32 ae 87 3e
       -0.1556018 0.6246089 0.11776909 0.26500088
0002b0 ee a7 43 be 61 22 9b bd 87 fa d6 3d 92 2e 9a 3d
       -0.19107029 -0.07574917 0.10497003 0.07528414
0002c0 4c 8e 66 3f 50 b5 57 bc 56 f9 27 be b8 8c d1 bd
       0.9006088 -0.013165787 -0.16403708 -0.10231918
0002d0 77 98 de 3e af b3 83 bd 70 14 0e be 09 a4 a0 bd
       0.43475696 -0.06430756 -0.13874984 -0.07843787
0002e0 cd 53 8e 3e a5 a7 a3 3e c7 1c 1f bc fd e7 c3 bd
       0.2779831 0.3196384 -0.009711451 -0.09565733
0002f0 86 c1 30 3f 76 48 c5 bd 82 e4 a2 3f 08 84 1d 3e
       0.69045293 -0.096329615 1.2725985 0.15382397
000300 45 44 6a 3e f9 61 6a bd 5a 75 55 be bf 0f 87 3c
       0.22877605 -0.05722234 -0.20845547 0.016487
000310 03 a5 03 3f 70 69 46 3e a0 c8 a6 3d 40 66 13 3f
       0.5142366 0.19376159 0.08143735 0.57577896
000320 70 ca bb bf 71 7e b3 be 2d 1e b2 bd b6 52 9d 3d
       -1.4671154 -0.35057405 -0.08697162 0.076817915
000330 87 e4 6b bf 26 3a 7e 3f c4 9d ac 3e 20 22 07 3f
       -0.9214558 0.9930748 0.33714116 0.52786446
000340 4e 49 49 bd ce cb 4a bd 07 3b 14 3d 0d bf 0e 3f
       -0.049142174 -0.04951077 0.036189105 0.5576027
000350 b1 4d 90 bd 75 95 3e 3d 9b ab 9b be 8b f1 73 bd
       -0.070460685 0.046529252 -0.30404362 -0.059556525
000360 31 d9 41 bd 69 4d bd 3e 0c 3b 5e 3d 28 c8 f4 bc
       -0.04732627 0.36973122 0.05425553 -0.029880598
000370 9d d7 8d bd b4 3e 9b bd cd cd 04 3f 53 3e d8 bd
       -0.069258906 -0.07580319 0.5187653 -0.105587624
000380 f4 76 77 bd 9c b7 41 3f 25 d1 38 bc 06 b4 e1 bd
       -0.060416177 0.7567079 -0.011280333 -0.11020665
000390 64 98 57 be 9f 23 35 be 9c d4 3e 3f af 6a 69 3b
       -0.21054226 -0.1768937 0.74543166 0.0035616567
0003a0 80 36 6d be 4b d5 6c 3f b0 d1 65 3c 92 cf 38 bf
       -0.23165321 0.9251296 0.014027044 -0.7219173
0003b0 27 27 0a 3f 9d 08 8b bb 1d c0 96 3e 99 8e d4 3e
       0.5396599 -0.00424297 0.29443446 0.41515043
0003c0 e6 71 77 bd e0 07 06 3d 23 d2 0e bc 90 59 2d bd
       -0.060411356 0.032722354 -0.008717093 -0.04232174
0003d0 77 43 b3 be d1 9b 12 bf 7d 79 9b bd ed c9 9f 3e
       -0.3501241 -0.57269007 -0.075915314 0.31208745
0003e0 83 e3 03 bf 14 eb d2 bc 3f 1d ef bd a2 09 3e be
       -0.5151903 -0.02574686 -0.116755 -0.18558362
0003f0 c6 13 16 3e 7c 45 8a bd cf 60 84 3f c7 2f eb bc
       0.1465598 -0.06751534 1.0342044 -0.028709305

fc_mean.weight f4 [2, 256]
000000 1d d5 b4 bd ca 3c 2a be 96 ee fb be 91 e0 db 3e
       -0.08829711 -0.16624752 -0.49205464 0.42944768
000010 c4 04 56 3e 76 64 81 3e f5 b4 30 bd a1 a2 23 3e
       0.20900255 0.25271958 -0.043141324 0.15980007
000020 4d 1c a3 bc 88 d8 5c bd 8e 49 e7 3e 56 f6 c0 39
       -0.019910956 -0.053917438 0.45173305 0.00036804628
000030 35 fa 31 3d b1 3f 1d 3d 7d a7 6f 3e 7b b6 c1 bd
       0.043451507 0.03839082 0.23403735 -0.094586335
000040 ca 2e 30 3f da 89 cf 3c d1 f8 73 bc b9 d6 4c 3d
       0.68821394 0.025334287 -0.014890865 0.050009463
000050 0b 39 9d bd 67 67 a3 be 3f 29 9a 3e 77 01 5a 3d
       -0.07676896 -0.31914827 0.30109593 0.053224053
000060 bb 5c 91 3e 39 a4 27 3d d0 4c dd 3d 10 68 9c bd
       0.2839106 0.0409281 0.108056664 -0.07637036
000070 15 57 f2 3f b4 bb 05 3f 39 aa 77 3d 99 e0 5e 3c
       1.8932825 0.5223954 0.06046507 0.013603353
000080 f8 fe 1f 3d 01 04 c8 3d 7e 11 8e 3d 44 12 b6 3d
       0.039061517 0.09766389 0.0693693 0.08890203
000090 ff ee 3d 3e 24 63 7d be 72 58 7b bf 7b d8 15 be
       0.18548201 -0.2474485 -0.9818183 -0.14633362
0000a0 3e d1 21 3c 4f 1b b2 bd dd 9b bf 3c a8 ee ff bb
       0.009876547 -0.08696615 0.023389751 -0.0078104325
0000b0 2c ed 7c 3e af 3e 53 3e 94 68 59 bd b1 03 ba 3c
       0.24699849 0.2062938 -0.05307825 0.022706838
0000c0 96 e5 db bc c4 fd 9a be 91 aa de 3e 0b ee 0c be
       -0.026842874 -0.30271733 0.43489507 -0.13762681
0000d0 d6 df 17 bf e8 fb f7 3d 9c bf e4 bd 3a 00 6f bd
       -0.5932592 0.12108594 -0.11169359 -0.058349825
0000e0 ef 03 79 be 2c 6b ec 3e d9 c9 92 bc af b0 26 bf
       -0.24317907 0.46175516 -0.017918514 -0.6511335
0000f0 a7 45 68 3f 11 4a 9e be 96 13 9c bd 3b f1 35 be
       0.9073128 -0.30915883 -0.07620923 -0.17767803
000100 91 10 8c 3b 2c 8b 8f be 69 d8 37 3c b3 7f 55 3c
       0.004274436 -0.28035867 0.01122103 0.013030934
000110 b3 3f 69 3c fc 33 76 be f4 75 1e 3f 48 eb 69 bd
       0.0142363785 -0.24043268 0.6189873 -0.057109147
000120 95 ba d5 bd 23 10 30 bc 29 d5 3c 3e 05 6f 85 3e
       -0.10435978 -0.010746035 0.18440689 0.26061264
000130 61 46 bc bd bc 15 a7 be e7 a5 5a be dd 94 a7 be
       -0.09193111 -0.3263377 -0.21352349 -0.3273076
000140 0e ee 62 be 05 ed 73 bd 17 c5 a2 3e f0 09 ed bd
       -0.22161123 -0.05955221 0.31790993 -0.11574161
000150 54 57 b7 be 79 f7 21 3e 49 d3 10 bd 6d 0e 68 bd
       -0.35808814 0.1581706 -0.035357747 -0.056654382
000160 39 4f 24 3d 80 ac cd 3e d8 e1 14 3e 59 80 eb bc
       0.040114615 0.4017067 0.14539278 -0.028747724
000170 de 42 f0 3d 3c e7 4f bd 77 28 56 3d 16 a3 8e be
       0.11731504 -0.05075763 0.052284684 -0.278588
000180 a4 36 ee bc be 89 04 bf 69 37 9e bd c1 d6 23 3d
       -0.029078789 -0.5177268 -0.077254124 0.039999727
000190 9a b9 4b 3d 85 68 49 be e4 92 51 3e e6 94 46 3d
       0.04973755 -0.19668777 0.2046619 0.048481844
0001a0 f9 8f 88 3e c1 9e a0 3d 98 57 10 3f 88 b7 8c ba
       0.26672342 0.0784278 0.5638366 -0.0010735849
0001b0 6c fb 19 3e ab ac 2f be bc 16 80 3d 40 85 c3 bc
       0.15037316 -0.17155711 0.06254336 -0.02386725
0001c0 61 4b bc bd 02 6f c7 3d 5d 73 a0 3e 09 81 09 bd
       -0.09194065 0.0973797 0.31338015 -0.033570323
0001d0 95 aa 26 3c 97 67 32 3d 0f 21 3c 3d 39 2b 03 3d
       0.010172506 0.043555822 0.045929965 0.032023642
0001e0 a5 c6 9a be a4 9b 81 3d 5c 7e 8b bd 5e d6 05 bd
       -0.3022968 0.06328514 -0.068112105 -0.03267514
0001f0 14 d3 3d be c0 eb 15 bf 7c f8 00 bf d2 c7 53 be
       -0.18537551 -0.5856285 -0.5037916 -0.20681694
000200 0f 96 e6 3d ce f4 21 3d b0 11 85 bd 57 fe 90 be
       0.1125909 0.039540105 -0.06497514 -0.28319046
000210 19 9a 19 bf 30 80 85 bc 28 ed 15 be 59 e9 56 be
       -0.6000076 -0.016296476 -0.14641249 -0.20987453
000220 9b 11 26 3f a1 9d 8f 3d 47 ea a0 bd f0 03 15 bd
       0.64870614 0.07012487 -0.07857185 -0.03638071
000230 94 23 57 bd f0 fc c7 bd 05 da a0 be 33 ed 4d 3e
       -0.052524164 -0.09765041 -0.31416336 0.20110016
000240 02 a5 ae 3d 28 6e 8d bc 63 3d b0 3d c3 2a 8a bd
       0.085275665 -0.01726444 0.086054586 -0.067464374
000250 42 43 bc 3e 03 59 c2 be a7 c9 f6 be fb e5 90 bc
       0.36770064 -0.37958536 -0.48200724 -0.017687788
000260 f4 a5 87 3d 9b 74 d5 bc c3 78 0d bd 93 21 25 3f
       0.0662345 -0.026056578 -0.034538995 0.64504355
000270 e6 48 2f 3d d6 f5 f6 bd 4e 18 99 bf b5 e9 ac ba
       0.04279413 -0.12058608 -1.1960542 -0.0013192209
000280 19 b9 94 3d 6a 99 c8 3b 79 89 4e be a8 28 98 3e
       0.07261867 0.006121804 -0.20169629 0.29718518
000290 38 34 78 be dc b6 26 be 22 1b 6b bd c3 78 ea 3d
       -0.2423867 -0.16280693 -0.057398923 0.11448815
0002a0 c6 4c f9 3e 92 77 2e 3d e6 30 c3 be e1 00 0d bf
       0.48691386 0.0425945 -0.38123244 -0.55079466
0002b0 99 53 9b 3c 42 3b aa be e2 8d 35 3e de 71 00 bf
       0.01896076 -0.33248335 0.17729905 -0.5017375
0002c0 81 57 86 3e e5 7b 20 3e b5 08 3c bd 37 6c ec 3d
       0.26238635 0.15672262 -0.04590674 0.11544078
0002d0 52 a9 de 3d ef 73 9f 3b aa 28 94 3c 1c b7 7a 3d
       0.10872139 0.0048661153 0.018085796 0.061209783
0002e0 bc fa d3 3e 3d 33 e4 3f a3 cf bb bc 1a 00 44 bf
       0.41402233 1.7828137 -0.022926157 -0.76562655
0002f0 7d d4 2c be fd ef 1c be 12 5b 24 be 3d cd e1 3e
       -0.16877933 -0.15325923 -0.16050366 0.44101897
000300 4f 1a e5 3e cb 53 8e bb 37 be 2a 3d df b8 08 3c
       0.44746634 -0.004343485 0.04168531 0.008344858
000310 99 ff 9b bf ec fb de 3e 47 1c 07 bf 2e 0d 0a 40
       -1.2187377 0.43551576 -0.5277752 2.1570544
000320 f2 73 c0 3e f7 fd cf be 74 93 42 bd ee 49 6d 3e
       0.3758846 -0.40623447 -0.047503904 0.23172733
000330 bb 7c 48 be 9a f2 da 3d 93 07 57 3e ab cf d7 3e
       -0.19578831 0.10690804 0.20998983 0.42150626
000340 00 c7 80 bb 83 b5 21 bd 2d 22 e7 be 05 21 9f 3e
       -0.0039299726 -0.039479744 -0.45143262 0.3107988
000350 90 71 54 bb 78 4b 68 3e 06 f0 a3 be 9e a6 2f bc
       -0.0032416321 0.22685039 -0.3201906 -0.010720877
000360 48 bd 28 3e 26 89 83 bf 3c 63 a3 be 91 bd 09 bb
       0.16478455 -1.0276229 -0.31911647 -0.0021017531
000370 7a 99 2e bd a0 56 53 bd d6 a4 96 bd 2b 50 4b bd
       -0.042626835 -0.051596284 -0.07355659 -0.049637
000380 40 97 11 bd c7 5d 5b bd 2c 9f f2 3c 49 ba fa 3b
       -0.035544634 -0.05355623 0.029616915 0.0076516015
000390 c5 01 9d bd fd d6 27 3f a3 14 0d be c4 4f be 3d
       -0.07666353 0.6556242 -0.13777404 0.09292558
0003a0 e6 e4 87 3e b2 5d 59 be 7a 1d 0c be 7d c4 b1 be
       0.26541823 -0.21227148 -0.1368312 -0.3472022
0003b0 2b d4 75 be 90 ec 6e 3b 2b 90 7c be fa b6 2f 3f
       -0.24006717 0.003645692 -0.2466437 0.68638575
0003c0 e8 53 3c be 76 54 41 3d a6 5e 02 bf f9 8a e7 bb
       -0.18391383 0.04719969 -0.5092567 -0.0070661274
0003d0 90 48 16 3f 22 10 37 3f 48 67 3d 3d bf f4 e7 be
       0.5870447 0.7150899 0.046241075 -0.45303914
0003e0 01 a0 75 3e fb f9 36 3c 2d e1 04 3e 24 7f 48 bd
       0.23986818 0.011167998 0.12976523 -0.048949376
0003f0 17 80 e0 3d fd f9 0e 3a f5 12 3c 3e bd c5 60 3d
       0.10961931 0.0005454121 0.18366607 0.054876078

fc_mean.bias f4 [2]
000000 8d 57 20 3f 05 30 96 3d
       0.6263359 0.07333378

fc_logstd.weight f4 [2, 256]
000000 16 5b b6 bc ed 75 47 bc 60 43 03 bd 2e b7 78 3b
       -0.02226023 -0.012174112 -0.032046676 0.003795098
000010 a8 0a 23 3d 4e 3d 51 bb b4 49 bf 3a e6 01 9b 3b
       0.039805084 -0.003192741 0.0014594109 0.004730451
000020 67 3a 44 bd e0 ac 1e 3c fc 0e e4 3c 41 90 66 3b
       -0.04790726 0.009684771 0.027839176 0.0035181197
000030 32 59 84 b9 80 04 bf 3c a7 d4 b6 bc 0a fe 34 3c
       -0.00025243458 0.023317575 -0.022318197 0.011046896
000040 d6 09 5c 3d 5d 47 36 3c ff 39 d1 bc d4 f3 7e 3c
       0.053720318 0.011125413 -0.02554035 0.015561063
000050 35 c0 64 3b 68 5b 83 ba 91 7c 87 3c 36 7f 1f bd
       0.0034904603 -0.0010021748 0.01653889 -0.038939677
000060 c8 46 d7 bc a5 b3 88 3a 84 be 53 ba ac ed 3c bc
       -0.026278868 0.0010429515 -0.00080774 -0.011531275
000070 c8 5e ee bc b0 c5 65 bc 14 0a b7 3c 2c 52 05 bd
       -0.02909793 -0.014024183 0.022343673 -0.03254907
000080 5c af 95 3d 5e 40 62 3d 8e 07 b9 3c 19 07 73 3c
       0.07308838 0.055237167 0.02258661 0.014833235
000090 8d 6e a4 3e 7a d4 2c 3d 6d 1b 88 bc 9a 82 34 3b
       0.32115594 0.04219482 -0.01661464 0.0027543665
0000a0 25 80 a4 3c 0a 68 26 bb 4a 76 99 3c de 63 55 bd
       0.020080635 -0.0025391602 0.018733162 -0.052097194
0000b0 66 c4 4b 3d 17 d9 3d 3c 4d d3 8e bb 14 94 df ba
       0.049747847 0.011587403 -0.004358685 -0.001705768
0000c0 cf e3 e7 bc 5a 98 e2 3b 0e 85 14 3c d3 6e 9b bb
       -0.02830687 0.0069151344 0.009064926 -0.004743436
0000d0 80 34 1c 3a 2b 8a ca 3b a0 91 cf 3c 7b a3 c9 bc
       0.0005958751 0.0061810217 0.025337994 -0.024614086
0000e0 3c 5c a8 3b 28 1f 81 bb b0 4e 64 bc e9 f5 a9 3c
       0.0051379483 -0.0039404817 -0.013934776 0.020747142
0000f0 a8 ba 03 3d 14 0a 44 bb 7f 79 54 3b 1b 90 76 bc
       0.03216043 -0.0029913234 0.003242105 -0.015049006
000100 1c 12 0a 3c 8a cf f4 3b a3 11 de 3c 4f 0e fb 3c
       0.008427169 0.0074710296 0.02710802 0.030646471
000110 00 3f 26 3d 87 12 f6 3b 0b 1e f5 3c 27 2c aa bc
       0.040587425 0.007509533 0.029921552 -0.020773007
000120 1c 16 41 3b df 68 1b 3b a0 62 fb 3c c6 7d ad 3c
       0.002946264 0.002371363 0.030686677 0.021178138
000130 c4 6e bd 3c 06 16 04 3c c9 69 b9 3b 46 46 f1 ba
       0.023124106 0.008061891 0.0056583625 -0.0018407784
000140 b1 b0 fa bc 4f 76 92 3c 6b 33 4d 3c 65 1f c7 bc
       -0.030601831 0.01787868 0.012524466 -0.024306962
000150 37 64 ab bb 2d 86 69 3d 8d f8 4b 3c 3b 3c 33 3d
       -0.0052304524 0.057012726 0.012449396 0.043758612
000160 52 96 e8 bc 7b ae 57 3c 5e 37 85 bb 80 b9 85 b8
       -0.02839199 0.013164158 -0.004065438 -6.376486e-05
000170 ff bb 45 3c 71 c4 1b 3c 60 ce 6e 3c 00 a7 91 39
       0.012068748 0.0095072845 0.014575571 0.0002778098
000180 95 57 4e 3c 0e 94 1e 3c 42 82 04 bc e5 74 4a 3c
       0.012594123 0.009678854 -0.0080876965 0.012356971
000190 e8 e3 29 bc 54 7a bd 3c 31 15 23 3d 50 a1 9b bb
       -0.0103692785 0.02312962 0.03981513 -0.0047494546
0001a0 6c 00 b7 3c 51 c2 91 3c ca 9c e5 bb 1b 8e 6c bc
       0.022339068 0.017792853 -0.007007216 -0.014438177
0001b0 25 70 db 3c 8d d3 0d 3d d3 33 3a 3c cb 08 f7 3b
       0.026786873 0.03462558 0.011364895 0.00753889
0001c0 63 aa 01 3c 4e e6 7f bb ae 4a 18 3d 05 da a0 bc
       0.0079141585 -0.0039047184 0.037180595 -0.01963521
0001d0 f1 68 e1 bb 43 ec 51 3d b2 5f 8f 3b 6c be c8 3c
       -0.006878965 0.051250707 0.0043754214 0.024504863
0001e0 71 e1 df 38 a1 39 13 39 76 8d 04 bc c3 6e 10 bb
       0.0001067546 0.00014040481 -0.008090368 -0.0022038675
0001f0 56 b2 b4 3d 39 ac 97 3d e0 97 24 bc 1c 08 7c 3c
       0.088230774 0.07405896 -0.010045975 0.015382793
000200 7e d5 e3 bb 33 f9 10 3d 75 d7 90 3b fd ac 6a b9
       -0.0069529405 0.035393905 0.0044202157 -0.00022380422
000210 e2 a7 96 3c b1 93 b0 3c 16 a1 4b 3b 2f 54 ea bb
       0.0183906 0.0215548 0.0031071356 -0.0071511487
000220 70 91 82 bc 31 ae 0c 3a ba ca df 3a ff 17 26 bd
       -0.01593849 0.0005366533 0.0017073967 -0.04055023
000230 db 54 0b 3d 16 65 0b bc 05 3a ef 3b 47 86 ff 3b
       0.03401647 -0.0085079875 0.0073006176 0.0077979895
000240 03 b3 76 39 0b 6d 8a 3c 7a ca 11 bd a3 a1 a0 bc
       0.00023527075 0.016897699 -0.035593487 -0.019608324
000250 51 f8 86 3b 78 0f 4e 3c b6 ce 52 3c af ea 27 3c
       0.004118957 0.01257693 0.012866667 0.010248824
000260 fc f9 29 3c a2 7e 19 3c 04 4f fc bc 73 54 18 bc
       0.010374542 0.0093685705 -0.030799396 -0.009297478
000270 a5 0f 94 bb da 2f f4 3c 28 32 09 3c 0c 7b a5 bb
       -0.0045184665 0.029807974 0.008373775 -0.0050500687
000280 75 3d e0 3b a8 19 6d bc d1 78 db 3b 97 e6 03 3c
       0.0068432637 -0.014471449 0.006697752 0.008050582
000290 35 6b bd bb 1d 52 6a 3b 1d 79 a3 ba 09 6e 28 3c
       -0.0057806023 0.003575451 -0.0012472008 0.010280141
0002a0 cb e7 8d 3c fc 96 4c bc 06 80 37 3c 70 1a 14 3d
       0.017322442 -0.012487169 0.011199957 0.036158025
0002b0 4f 1d 81 bc 9d e6 92 3c be 91 19 3c 43 85 0d 3c
       -0.015761046 0.01793223 0.009373127 0.008637729
0002c0 33 06 0e bc 63 48 05 3d c5 65 12 3c 6d ae 1c 3b
       -0.00866847 0.032539736 0.008935397 0.0023907677
0002d0 c4 c3 33 3c 0f 70 2d bc d6 85 13 3b b3 47 1d bc
       0.010971967 -0.010585799 0.0022510192 -0.009599614
0002e0 5a 1c 26 bc 4e 12 5b bb 6c e7 9f 3b 53 67 c5 3c
       -0.0101385955 -0.0033427658 0.0048798826 0.02409712
0002f0 5b 44 d5 3b aa dd de 3b f8 2b a4 3b 7e 65 90 bc
       0.0065083927 0.0068013268 0.0050101243 -0.01762652
000300 63 cd 32 3c 73 73 fa ba 72 3b e3 b9 d0 7a 94 bd
       0.010913226 -0.0019107893 -0.00043341104 -0.07249987
000310 74 05 2e 3e ff 4d d8 3b 30 cf 30 3c 4e 36 e9 ba
       0.16994268 0.0066010947 0.010791585 -0.0017792673
000320 e7 50 be 3c 36 ac c0 bc 4c 42 ee 3b d3 2b 3c 3b
       0.023231937 -0.023519617 0.007271087 0.0028712645
000330 da 4a 88 3c 87 41 de 3a 71 39 12 3b 8b 3c 9b bc
       0.016637255 0.0016956785 0.002231207 -0.018949768
000340 38 a1 87 3c fd 79 8a 3b 1e e9 b8 bc 71 ae cb 3a
       0.016556367 0.004225968 -0.022572096 0.0015539658
000350 16 f1 9e 3c 6c 15 4c 3c ee fe 99 bc 4b 8e 54 bc
       0.019402068 0.012456279 -0.018798318 -0.012973378
000360 8b 41 bc 3d 7c 4e 89 3e 92 6a df 3b dd 3f ad 3b
       0.09192189 0.2681769 0.006818124 0.005287154
000370 23 0f 09 3c 16 9d 5f 3d 58 87 fb bb c9 56 dc 3c
       0.008365425 0.05459317 -0.0076760463 0.026896851
000380 99 d4 19 bd fc 54 c9 3c c0 a1 07 3c 78 2f c8 3a
       -0.037556265 0.024576657 0.00827831 0.0015272936
000390 0c 84 f2 bb a7 8c 09 bc 2c c5 d1 ba 4d ed 20 3d
       -0.007400995 -0.008395351 -0.0016004196 0.039288808
0003a0 dc f1 56 bc ae 74 08 3c 58 bc d3 3c 7b 66 cd bb
       -0.013119187 0.0083286 0.025846645 -0.00626832
0003b0 da 31 bb bb f1 c5 b3 ba 77 9e e1 3c 8f 2d b2 3c
       -0.00571273 -0.0013715607 0.027541382 0.02175024
0003c0 dc 08 46 3d f4 6b 03 3d 44 04 c2 3d 56 af d6 3a
       0.048348293 0.032085374 0.0947347 0.0016379158
0003d0 11 41 cd 3c 65 e6 36 3d 19 5f 29 bd 8c f6 84 bc
       0.02505544 0.044653315 -0.041350458 -0.016230844
0003e0 81 09 14 bb 76 4f e2 bb fd b4 24 3c 2a f4 13 3c
       -0.0022588673 -0.006906445 0.010052917 0.009030381
0003f0 d8 b9 c4 3b f4 36 4e 3d 6b ea 04 bc 3c 52 56 3d
       0.0060035996 0.050345376 -0.00811253 0.05232452

fc_logstd.bias f4 [2]
000000 6e ea cf 3d bc 3f f5 3d
       0.10152136 0.11975047

fc1.weight f4 [256, 16]
000000 c1 ee f1 be 7c cd 14 3f 33 37 33 be 76 64 03 c0
       -0.47252467 0.58126044 -0.17501526 -2.0530066
000010 78 88 b5 be f3 98 bb bf 9d 7d 70 3c 33 34 c8 bf
       -0.3545568 -1.4656051 0.014678386 -1.564093
000020 ad e9 55 3d 86 60 ea bf 7b 16 9d bd ef d8 d7 3d
       0.052224804 -1.8310707 -0.076703034 0.10539424
000030 c2 b0 7a bc 70 58 e3 bd 7b 81 b7 bd 57 af 01 bd
       -0.015300931 -0.111008525 -0.08960243 -0.031661358
000040 2b b4 aa 3f d8 95 22 40 bb e1 c2 bd 41 aa b1 3f
       1.3336233 2.5403957 -0.09515711 1.3880082
000050 73 09 48 3f dd 83 a3 3f 3a af cf bf 26 27 10 40
       0.7813942 1.2774616 -1.622535 2.2523894
000060 e8 6d ac 40 59 f5 49 3e 21 19 82 bd 30 36 1a be
       5.3884163 0.19722499 -0.06352449 -0.15059733
000070 29 bd 04 3e 4d fc 4c 3d eb ec 7a bd 8b 38 76 be
       0.12962784 0.0500453 -0.0612611 -0.24045007
000080 51 d8 d9 bd 80 9e 97 3f 9d c2 f5 bc bd 9d 29 be
       -0.10636962 1.1845245 -0.030000025 -0.16564079
000090 40 62 ab bd a3 80 91 bd 49 4b 2b be b5 d8 6c 3f
       -0.08368349 -0.07104614 -0.16727938 0.9251817
0000a0 1d 77 9b be 92 b2 9c bf 0e c5 0d 3e fd e0 3f bc
       -0.30364314 -1.2241995 0.13844702 -0.011711356
0000b0 5e 6a 07 3c 41 dc e3 3b c8 c7 9a 3d eb ae ab 3c
       0.008265106 0.0069537465 0.075576365 0.02095743
0000c0 75 dc df bf a0 89 97 bd c0 f3 ab be 71 0e 0c c0
       -1.7489153 -0.07399297 -0.33584404 -2.1883814
0000d0 38 d0 b6 bf 64 6d 39 c0 b5 e8 92 bf ef 6a 99 3f
       -1.4282293 -2.8973017 -1.1477267 1.1985759
0000e0 c7 16 81 3f b8 ff 73 3f 2f 4b 2c 3c cc 4b 0f 3f
       1.0085076 0.9531207 0.010515972 0.5597503
0000f0 1e ca 6d be 0f 23 3c 3e 04 e6 21 bf 53 a7 e0 3e
       -0.23221633 0.18372749 -0.632416 0.43877658
000100 b8 57 15 3e 1c 10 18 be 6c 73 57 be 70 6a df 3c
       0.14584243 -0.14849895 -0.21040124 0.027272433
000110 90 75 92 bd e8 7c 51 be 40 2c 96 3c 96 cd 7e be
       -0.071513295 -0.20457804 0.018331647 -0.24883112
000120 c4 a2 ef 3d 30 e6 cd 3d f4 04 b9 bd 68 10 c0 3d
       0.11700967 0.100536704 -0.09034148 0.09378129
000130 4c 74 d8 bd 76 b3 10 be fe 2e 74 be 00 15 4a 3e
       -0.10569057 -0.14130959 -0.23846051 0.19734573
000140 f4 c5 22 40 4e 87 5d 40 bb d6 89 bd f5 0e 5c c0
       2.543332 3.4613833 -0.0673041 -3.438413
000150 7a f0 63 3e 63 02 4b c0 7c cc 02 40 cc ba d4 3e
       0.22259703 -3.1720207 2.0437307 0.41548765
000160 75 80 05 40 b8 f5 30 bf 9e 96 7b bc a3 af a1 bb
       2.0859654 -0.6912494 -0.015355734 -0.0049342676
000170 76 c3 ba 3e 67 80 c6 3e e6 56 1a bc b6 6c b9 bc
       0.3647725 0.38769838 -0.009420132 -0.022634845
000180 9b e2 95 3d 83 43 ce 3e 22 6d ba bc a1 04 9a 3c
       0.07318612 0.40285882 -0.022757117 0.018801035
000190 6d 0a 74 3b 48 9e cd 3c c2 50 87 3d 8f 41 ea 3e
       0.003723766 0.025099888 0.066072 0.45753142
0001a0 99 7a 7b 3f 96 78 33 3f 8c 2b 8d 3c 84 c8 6b 3d
       0.98233944 0.70105875 0.017232679 0.057564273
0001b0 30 34 07 bd cd 00 c7 3d 3c f2 44 bd 89 88 e1 3d
       -0.033008754 0.097169496 -0.048082575 0.1101237
0001c0 8e e8 a1 3f 86 1b 1d 40 bc 89 c5 bd b3 75 14 40
       1.2649095 2.454805 -0.09645411 2.3196838
0001d0 84 d3 df 3e 81 e9 da 3f e5 07 f6 bf 81 b6 2d c0
       0.4371606 1.710251 -1.9221159 -2.7142642
0001e0 90 58 3c c0 9e 8a 5e c0 c6 1f 4d 3d 8c 26 62 3d
       -2.9429054 -3.4772105 0.05007913 0.055212542
0001f0 0d a8 13 3f c6 fd 27 be 26 99 d6 3d 13 e6 80 bc
       0.576783 -0.164054 0.104784295 -0.015734708
000200 d8 7f 0b 3d 76 14 66 3e 58 42 00 be dc 20 ff bd
       0.03405747 0.22468743 -0.12525308 -0.12457439
000210 14 04 d9 bd 6c d3 28 be 78 fc e0 bd 94 b4 fb bd
       -0.10596481 -0.16486901 -0.109856546 -0.12290302
000220 32 f0 4f be 00 61 b6 ba e0 ff 83 3c 44 32 7b be
       -0.20306471 -0.0013914406 0.016113222 -0.24530894
000230 1c c5 73 3e 94 21 b3 bd 38 ae 3c bd 48 1d 43 be
       0.2380566 -0.08746639 -0.046064585 -0.19054139
000240 96 8c 99 bf 7f 51 be bf 1e 8c 48 bd 17 51 d3 3e
       -1.1996028 -1.4868621 -0.04896175 0.41272804
000250 d0 8a df bd f5 07 1d 3e ec c3 e2 3f b2 9c 65 40
       -0.10915148 0.15335067 1.7716041 3.587689
000260 3d 36 1e 40 8c 59 94 c0 42 f2 8a 3d c3 ff 42 3e
       2.4720604 -4.635931 0.06784488 0.19042878
000270 9b 4a 1a 3e c7 33 ab 3d b0 c8 c3 3d 97 03 b5 3d
       0.15067522 0.08359485 0.095597625 0.08838575
000280 61 a0 3a bf ab 01 34 c0 19 83 02 be 53 cf 48 bf
       -0.7290097 -2.8126018 -0.12745322 -0.7844135
000290 41 7b d0 be a5 bb c8 be e1 fc 7c bf 2d e3 cf 3e
       -0.40719035 -0.3920566 -0.9882336 0.4060301
0002a0 c0 e6 98 40 29 da 05 be 65 0b 8c 3d 40 29 c6 3d
       4.7781677 -0.13071503 0.06838111 0.096758366
0002b0 60 c9 83 3e 1e 81 45 bf 2e 67 fd 3d c2 3f 56 3d
       0.25739574 -0.7715014 0.123731956 0.052306898
0002c0 3d b4 d5 bf a5 c5 96 3e cc 9c 34 bd 4e 44 ef be
       -1.6695629 0.29447666 -0.044094846 -0.467318
0002d0 4f 03 ef bd 46 cc 55 bf 3d 3e 13 40 1c d3 13 c0
       -0.11670553 -0.8351482 2.3006737 -2.30976
0002e0 ab 3b 0c c0 f9 fb b8 3f 11 d1 72 bd 37 a6 da 3d
       -2.1911418 1.4451896 -0.059281413 0.10676234
0002f0 f9 71 47 3f cf fd a0 be 08 69 44 3d 3f dd b7 3d
       0.77908283 -0.3144364 0.047951728 0.08977746
000300 1b 30 31 bf b9 e6 ed c0 d5 1b b5 3c a4 a7 8b bf
       -0.6921403 -7.4344144 0.022107998 -1.0910535
000310 10 9c 1d bd 12 3f 86 bf 3a 44 14 bf 6b ff cb c0
       -0.03847891 -1.0487998 -0.57916605 -6.374929
000320 71 8e 8e 3f d4 f5 16 40 54 35 a3 bb 80 60 47 3c
       1.113722 2.3587542 -0.0049807224 0.0121690035
000330 64 61 b8 3e 55 7a 50 bc ae 42 ab 3d 4e 08 2c bd
       0.36011803 -0.012724479 0.083623275 -0.042000107
000340 a8 2a cc 3e 60 7e 71 bf 64 5c 03 be f1 1c 87 bf
       0.39876294 -0.9433346 -0.12828213 -1.0555707
000350 83 1a 57 3e 27 53 69 bf f7 3d f7 bc 1b 48 a3 3e
       0.21006207 -0.91142505 -0.030180914 0.3189095
000360 3e 0e c8 bf 59 e8 fe 3e 27 6f fc be 17 1c b0 bd
       -1.5629346 0.49786642 -0.49303553 -0.08599108
000370 7e ed 1e be 95 5a 41 3e aa 51 38 bf 3d 32 e2 bc
       -0.15520284 0.1888221 -0.7199961 -0.027611846
000380 a8 3a 35 bd 42 d9 1f be 2c 40 c2 bd de 67 22 3e
       -0.044245392 -0.15610221 -0.09484896 0.15859935
000390 c4 b7 e9 3d 76 88 2c be 4e 08 38 3e 40 39 0d 3d
       0.11412004 -0.1684893 0.17971918 0.034478426
0003a0 08 4b 24 bd fa b5 7b 3e d8 b4 7e be 30 02 94 3c
       -0.040110618 0.24581137 -0.24873674 0.01806745
0003b0 c0 77 14 be f0 78 ad bc f8 2a 7f bd 64 e3 db bd
       -0.14498806 -0.021175832 -0.062296838 -0.10736731
0003c0 38 5d 65 3e 1c 7f a0 3d 32 e2 60 be b0 a8 58 bd
       0.22398841 0.07836744 -0.21961287 -0.052895248
0003d0 50 b9 db 3d fc 75 c5 3d 12 c4 29 be e2 c1 18 be
       0.10728705 0.09641644 -0.16578701 -0.1491771
0003e0 b6 20 0b 3e 36 59 45 be 00 d3 e5 3c da bd 64 3e
       0.13586697 -0.19272313 0.028054714 0.22338048
0003f0 54 c6 5c 3e 10 04 c5 bc c0 67 41 bc 98 4b 26 be
       0.21560031 -0.024049789 -0.011804521 -0.16239774
