fw_flightcontrol/models/icinco/sac/noactreg/sac_bohn_noactreg_nohist_noatmo_1_23-05_00:12:41.pt (torch, 853643 bytes, 20 tensors)

action_scale f4 [1, 2]
1.0 1.0
00000000: 0000 803f 0000 803f

action_bias f4 [1, 2]
0.0 0.0
00000000: 0000 0000 0000 0000

fc1.weight f4 [256, 14]
0.13770989 -0.11796329 -0.05181166 0.12544413 -0.2516096 0.16028118 -0.0549824 0.13596752
0.03715385 -0.032724574 0.07412782 0.013184474 0.09761133 -0.10415197 -1.5004821 -0.591011
-0.005621413 0.17103845 0.0028385124 0.54103917 3.269964 0.12343398 1.9057205 3.7480073
-0.24694897 -0.022988323 2.635749 0.30190694 -0.8087798 0.9873599 0.018969553 -0.96186185
0.5182235 -1.0283164 -1.8078789 -8.406234 -5.9946976 0.44157523 0.059742894 -0.11691587
0.8354049 -0.5759385 0.20042582 0.0031648153 -0.14079788 0.13737625 -0.14186764 0.07860278
-0.077173606 -0.029301025 -0.25694177 -0.12742527 0.14502503 -0.06496514 0.26620543 0.21423352
1.4601829 1.2429372 -0.06021759 -0.4267223 0.13937508 -0.5034304 0.09546574 -2.6069489
-2.5371008 1.8011267 0.019251933 -0.0044397535 -0.7453196 -0.5953024 -0.47430953 2.270042
-0.030116318 -0.07954408 0.8579952 0.760532 1.9211456 1.4139549 1.4337934 -7.698092
-0.2634041 -0.0616664 0.19033143 0.3127632 0.15696895 -0.1547805 -0.23759042 0.19450438
-0.03962998 0.150323 0.08592036 -0.2004126 0.053692326 0.06419524 -0.17894708 -0.12680805
0.09112957 0.047872517 -1.0260266 -0.14274655 -0.0046428293 1.7379174 0.23986165 1.5854324
-0.9215524 -2.6700637 0.5602247 0.003958711 -0.06217001 -0.12792465 0.89122534 1.8043691
0.35941273 -2.7640326 -0.037521914 1.7016346 -0.2537773 1.373402 -0.8005444 2.7935834
-0.01425091 0.28681496 0.11843161 0.11099442 0.25788724 -0.94907194 -2.506023 0.16543014
-0.07396794 -1.5554099 0.3552435 -1.2607663 0.7640241 -0.06521207 2.755321 1.7898096
-0.15340345 -0.08015763 -1.1209714 0.011083918 -0.122464605 -0.031121476 -0.16381837 0.09777851
0.082714096 -0.06051738 0.10271939 0.08637475 0.16317339 0.17998539 -0.090508744 0.26112106
-0.030897466 -0.009182027 -0.25226256 -0.17201366 -0.15613495 -0.11431376 0.1900146 -0.08733591
-0.1997193 0.10282873 0.08556891 0.1731026 -0.13830024 0.057946242 -0.09729662 -0.06004684
-0.2129854 -0.12180724 -0.08185082 0.11429034 0.048825804 0.06601792 0.26675484 0.26048014
0.18228476 0.008510545 -0.18488903 0.20886724 -0.06683226 -0.021606829 -0.23024528 -0.052791737
-0.17238024 0.24558794 -0.23105296 -0.20832552 -0.0090752 -0.14451228 0.09562919 -0.102875695
-0.12552929 0.015137047 0.19346985 -0.18799789 0.4460501 -0.23721646 0.0024672698 -1.0410461
-0.025077026 -0.9305048 4.481679 -1.6256652 -3.3789172 3.948222 -0.047079753 0.008993043
1.5939225 1.1397371 0.042863328 0.08152935 -0.24040808 0.19470982 0.23301545 0.22091968
0.19756556 -0.1928641 -0.09907374 0.235651 -0.20356181 0.24246506 -0.2101999 -0.18826109
0.11851682 -0.18063752 -0.07636283 0.18074326 0.19821021 0.24045773 -0.042837374 -0.21997298
0.25723273 -0.050699074 -0.11797821 0.074023224 -0.17138092 0.16000062 0.16750136 -0.21206677
-0.219521 -0.023411127 0.11225653 -0.007740456 -0.13552219 0.0061102426 -0.25120744 -0.18888982
-0.17791297 0.22009774 0.23559235 -0.09077975 -1.0134906 -0.38472325 -0.070820965 -1.3931096
00000000: d203 0d3e bd96 f1bd 7738 54bd 6d74 003e
00000010: f9d2 80be c020 243e 3a35 61bd 123b 0b3e
00000020: a32e 183d 340a 06bd 54d0 973d b103 583c
00000030: 73e8 c73d a14d d5bd cc0f c0bf 7f4c 17bf
00000040: d433 b8bb b424 2f3e 5606 3a3b 8b81 0a3f
00000050: 1747 5140 f4ca fc3d a6ee f33f 5adf 6f40
00000060: 31e0 7cbe 0252 bcbc 1db0 2840 8c93 9a3e
00000070: 310c 4fbf 9ec3 7c3f 0966 9b3c 943c 76bf
00000080: 4caa 043f df9f 83bf 9368 e7bf ef7f 06c1
00000090: 90d4 bfc0 2616 e23e f7b4 743d 9671 efbd
000000a0: 18dd 553f b570 13bf 6d3c 4d3e ca68 4f3b
000000b0: 522d 10be 5cac 0c3e c045 11be 7ffa a03d
000000c0: 320d 9ebd b408 f0bc df8d 83be c57b 02be
000000d0: 7181 143e 710c 85bd 144c 883e 0860 5b3e
000000e0: 46e7 ba3f 9118 9f3f b8a6 76bd 587b dabe
000000f0: 57b8 0e3e d1e0 00bf 8b83 c33d 40d8 26c0
00000100: dc5f 22c0 528b e63f 3bb6 9d3c 5a7b 91bb
00000110: 44cd 3ebf bd65 18bf b3d8 f2be 5e48 1140
00000120: 7fb6 f6bc 02e8 a2bd 93a5 5b3f 3ab2 423f
00000130: 19e8 f53f 79fc b43f 8b86 b73f c556 f6c0
00000140: e7dc 86be e895 7cbd 3ee6 423e 8022 a03e
00000150: 78bc 203e c87e 1ebe e74a 73be 282c 473e
00000160: 0c53 22bd 46ee 193e 04f7 af3d f638 4dbe
00000170: 7cec 5b3d cb78 833d e73d 37be f8d9 01be
00000180: 24a2 ba3d f915 443d d754 83bf 272c 12be
00000190: e022 98bb 1474 de3f 4b9e 753e 73ef ca3f
000001a0: dcea 6bbf 53e2 2ac0 e36a 0f3f 13b8 813b
000001b0: fba5 7ebd aefe 02be 5827 643f 91f5 e63f
000001c0: f204 b83e e9e5 30c0 94b0 19bd 2acf d93f
000001d0: 19ef 81be a3cb af3f 7af0 4cbf 12ca 3240
000001e0: a67c 69bc 69d9 923e 468c f23d 0b51 e33d
000001f0: cc09 843e 61f6 72bf ae62 20c0 8566 293e
00000200: 817c 97bd ac17 c7bf 7ae2 b53e ca60 a1bf
00000210: 1597 433f e88d 85bd 2e57 3040 7b18 e53f
00000220: cb15 1dbe af29 a4bd fe7b 8fbf 5299 353c
00000230: b9ce fabd 77f2 febc 01c0 27be 1940 c83d
00000240: 0266 a93d 12e1 77bd 8b5e d23d 3fe5 b03d
00000250: ed16 273e 174e 383e a65c b9bd a9b1 853e
00000260: af1c fdbc 3670 16bc 8f28 81be 5924 30be
00000270: d7e1 1fbe 551d eabd 3093 423e 2bdd b2bd
00000280: 3783 4cbe df97 d23d c13e af3d cf41 313e
00000290: 949e 0dbe 0a59 6d3d 7343 c7bd adf3 75bd
000002a0: d818 5abe 1376 f9bd 67a1 a7bd 0e11 ea3d
000002b0: 91fd 473d 6734 873d 1794 883e a75d 853e
000002c0: dba8 3a3e d06f 0b3c 8d53 3dbe 4be1 553e
000002d0: 5adf 88bd ce00 b1bc 6bc5 6bbe 263c 58bd
000002e0: 7284 30be 687b 7b3e 2699 6cbe 4953 55be
000002f0: 26b0 14bc 07fb 13be 3dd9 c33d 7eb0 d2bd
00000300: c08a 00be 6001 783c f61c 463e 8582 40be
00000310: ae60 e43e dfe8 72be ebb1 213b 0041 85bf
00000320: 566e cdbc 9035 6ebf ea69 8f40 cc15 d0bf
00000330: 2e40 58c0 abaf 7c40 b3d6 40bd 8e57 133c
00000340: a705 cc3f e8e2 913f 7591 2f3d dcf8 a63d
00000350: 892d 76be 0362 473e 9a9b 6e3e c538 623e
00000360: a04e 4a3e 2b7e 45be 2ce7 cabd 7f4e 713e
00000370: 8272 50be c348 783e a53e 57be 84c7 40be
00000380: f2b8 f23d 0bf9 38be 1e64 9cbd c314 393e
00000390: 9ef7 4a3e 8d3a 763e 3e76 2fbd 9940 61be
000003a0: 02b4 833e d5a9 4fbd 8f9e f1bd 7d99 973d
000003b0: 7b7e 2fbe 34d7 233e 7a85 2b3e 0828 59be
000003c0: 1dca 60be b1c8 bfbc c0e6 e53d a7a3 fdbb
000003d0: 54c6 0abe 6e38 c83b 439e 80be 556c 41be
000003e0: d12e 36be 4d61 613e 1f3f 713e bcea b9bd
000003f0: 0fba 81bf 72fa c4be 950a 91bd 6a51 b2bf

fc1.bias f4 [256]
-0.20709276 0.017346352 -0.793029 0.05865586 0.093085244 0.43853623 -0.022790493 -0.095073216
-0.40200087 -0.1035991 0.053707715 0.075777695 -0.089292936 0.029997772 -0.1949865 -0.016086029
-0.098312125 -0.24302053 -0.2738541 -2.494823 0.21037258 -0.21254073 -0.120091386 0.30868194
0.11361375 0.17777006 -0.0069274204 -0.14417008 0.09106698 0.062233295 -0.35732976 0.4439623
-1.8289585 -0.047321595 0.3422206 0.022821272 0.21485245 -0.16128811 -0.08823563 0.14082299
-0.13940765 0.82598937 -0.37941504 0.046988085 0.086233616 0.2990308 0.06905271 -0.15689538
0.27122045 -0.118150435 0.049983963 -0.27354136 -0.45664558 0.19467889 0.032034744 0.024138236
-0.10262078 -0.16312282 0.20031641 -0.18257587 0.19332089 -0.15333301 0.21916331 -0.41909894
0.19329524 0.21676648 0.1066963 -0.14226708 -0.1552271 -0.07092766 0.36303636 -0.08421491
-1.3032901 -0.04989701 0.23734522 0.31328455 -0.34237185 0.1402026 -0.29761326 -1.5192026
-0.3460629 0.035253998 -0.2620166 0.09625158 -0.193668 -0.4330565 -0.10514633 0.81143415
-0.12886363 -0.21981074 0.14053045 -0.06797855 0.018889355 -0.46007213 0.18806389 0.2510845
-0.1648909 0.39422554 0.5048978 -0.36604804 -0.2070975 -0.1615364 0.405559 0.05555324
0.0740799 -0.3961523 -0.009498269 0.06973279 0.022494722 -0.7940037 0.232726 -0.77092195
0.24081586 -0.122237325 -0.27742267 0.09655015 0.5760778 0.025925742 0.11620853 0.014933976
0.29266533 -0.11492688 0.3253193 0.8575278 0.6058092 0.29861453 0.17709982 0.84481305
-1.067798 0.19168688 0.13931936 -0.60090834 -0.33103532 0.2870876 0.01150811 -0.08167517
-0.075001456 -0.2370128 -0.013818648 -0.010463946 -0.043457992 -0.49049202 -0.18596794 0.19644648
0.5583117 -0.48068142 -0.18287362 -0.056551825 -0.15453114 0.27027354 -0.29923296 -0.01757751
-0.06676044 0.20285416 0.11458341 -0.019266361 -0.29461423 0.18320264 -0.021651424 -0.4420545
-0.17345527 -0.0066184397 0.12683727 0.071372755 -0.5440825 -0.12834877 -0.27599424 0.008430098
-0.19838648 -0.40968457 -0.0665073 0.30049327 0.04019931 -0.10674372 -0.08898463 0.24339177
0.32904464 0.19519587 0.02754106 -0.17558485 -0.07257914 -0.196011 -1.0829617 0.13945144
0.24959633 -1.0405667 0.114234075 -0.004207179 0.33820695 0.05684223 -0.4538256 0.11173684
-0.38346592 -0.3018874 -0.13489674 1.1551265 -0.01707575 -0.34168097 -0.15943134 0.35869503
-0.06313431 -0.031121084 -0.21720143 0.09085366 -0.65798926 -0.6874732 -0.02115668 -0.1405196
0.9027831 -0.15164225 0.12614788 -0.13500886 0.1551137 0.07589685 0.42421004 -0.027147096
0.27300316 -0.1036136 -0.03151399 0.06335859 -0.121965036 0.023706863 -0.05929835 -0.007213353
-0.42094117 0.025756996 0.029814148 0.26513296 0.22166371 -0.15881297 0.118512176 -0.6499667
0.020172086 0.030331207 -0.17359415 0.078864165 -1.7641511 0.058177788 -0.36516365 0.40036353
-0.25595012 0.010478443 -0.81344134 -1.1869613 0.26852262 -0.12048223 -0.117816865 -0.3125921
0.25948372 0.09580745 -0.20632169 -0.124952696 0.21214393 -0.25689068 -0.29011083 -0.49102938
00000000: 2010 54be f019 8e3c f303 4bbf 2141 703d
00000010: 7aa3 be3d d287 e03e 21b3 babc bfb5 c2bd
00000020: 0fd3 cdbe c42b d4bd 9ffc 5b3d 5631 9b3d
00000030: 37df b6bd e3bd f53c 8baa 47be d9c6 83bc
00000040: de57 c9bd 60da 78be 9b36 8cbe 2eab 1fc0
00000050: e96b 573e 47a4 59be 79f2 f5bd 8f0b 9e3e
00000060: 53ae e83d 5b09 363e 6aff e2bb 52a1 13be
00000070: 5381 ba3d 57e8 7e3d edf3 b6be 074f e33e
00000080: 501b eabf 4ad4 41bd 8a37 af3e adf3 ba3c
00000090: 4802 5c3e b628 25be e2b4 b4bd e733 103e
000000a0: e1c0 0ebe 0a74 533f b042 c2be 9476 403d
000000b0: 409b b03d 911a 993e 826b 8d3d 2fa9 20be
000000c0: 68dd 8a3e dbf8 f1bd fcbb 4c3d 9d0d 8cbe
000000d0: 73cd e9be e759 473e dd36 033d 8dbd c53c
000000e0: d82a d2bd ab09 27be bf1f 4d3e 2bf5 3abe
000000f0: e9f5 453e 5403 1dbe 596c 603e 2394 d6be
00000100: 30ef 453e 08f8 5d3e 9783 da3d 76ae 11be
00000110: daf3 1ebe 8542 91bd e7df b93e de78 acbd
00000120: 36d2 a6bf cf60 4cbd a00a 733e d566 a03e
00000130: 5d4b afbe 4591 0f3e c460 98be 3b75 c2bf
00000140: 282f b1be 7f66 103d 0a27 86be 8c1f c53d
00000150: e750 46be 95b9 ddbe f656 d7bd 26ba 4f3f
00000160: d4f4 03be 1116 61be 37e7 0f3e 5738 8bbd
00000170: d9bd 9a3c 938e ebbe d293 403e 268e 803e
00000180: 29d9 28be eed7 c93e fb40 013f a66a bbbe
00000190: 5e11 54be cc69 25be 6ea5 cf3e cb8b 633d
000001a0: 34b7 973d 79d4 cabe a19e 1bbc 11d0 8e3d
000001b0: da46 b83c d443 4bbf b94f 6e3e 245b 45bf
000001c0: 6f98 763e 9057 fabd 580a 8ebe 16bc c53d
000001d0: d679 133f 3962 d43c bdfe ed3d a3ad 743c
000001e0: 3bd8 953e c95e ebbd 4090 a63e f186 5b3f
000001f0: 5016 1b3f 01e4 983e a859 353e ab45 583f
00000200: 9bad 88bf 9149 443e bca9 0e3e 21d5 19bf
00000210: 767d a9be 25fd 923e 838c 3c3c 5045 a7bd
00000220: 5d9a 99bd 7cb3 72be 9c67 62bc f870 2bbc
00000230: 0201 32bd c521 fbbe 616e 3ebe 4429 493e
00000240: 84ed 0e3f e01b f6be 3943 3bbe e3a2 67bd
00000250: 693d 1ebe 4b61 8a3e 1035 99be b6fe 8fbc
00000260: b3b9 88bd 00b9 4f3e b5aa ea3d 7dd4 9dbc
00000270: add7 96be 7999 3b3e 545e b1bc f854 e2be
00000280: 429e 31be 7fdf d8bb a1e1 013e e12b 923d
00000290: fe48 0bbf dc6d 03be 1e4f 8dbe 651e 0a3c
000002a0: d325 4bbe 2dc2 d1be fb34 88bd 41da 993e
000002b0: 08a8 243d 749c dabd 933d b6bd b13b 793e
000002c0: 8a78 a83e 6de1 473e ca9d e13c 84cc 33be
000002d0: 5fa4 94bd 1cb7 48be 7d9e 8abf 5ccc 0e3e
000002e0: 2e96 7f3e 4a31 85bf 8ef3 e93d 60dc 89bb
000002f0: 7629 ad3e 66d3 683d d45b e8be 49d6 e43d
00000300: a555 c4be fc90 9abe 5f22 0abe 2fdb 933f
00000310: 71e2 8bbc cff0 aebe f841 23be e0a6 b73e
00000320: 904c 81bd a5f1 febc 0d6a 5ebe 7c11 ba3d
00000330: fc71 28bf 3efe 2fbf c650 adbc 5fe4 0fbe
00000340: cb1c 673f 1b48 1bbe e92c 013e c33f 0abe
00000350: 20d6 1e3e cf6f 9b3d 0f32 d93e 9663 debc
00000360: 12c7 8b3e 5e33 d4bd d014 01bd 26c2 813d
00000370: cec8 f9bd e534 c23c d4e2 72bd fe5d ecbb
00000380: 9a85 d7be 5600 d33c cd3c f43c 82bf 873e
00000390: d0fb 623e de9f 22be 83b6 f23d 3864 26bf
000003a0: ee3f a53c 2779 f83c aac2 31be 8983 a13d
000003b0: b4cf e1bf d54b 6e3d bbf6 babe 73fc cc3e
000003c0: e50b 83be c6ad 2b3c b13d 50bf 59ee 97bf
000003d0: cc7b 893e 63bf f6bd f849 f1bd 120c a0be
000003e0: 0ddb 843e b236 c43d fe45 53be 33e7 ffbd
000003f0: 423c 593e 2d87 83be 6889 94be 3468 fbbe

fc2.weight f4 [256, 256]
-0.047140263 -0.36585367 0.40247375 -0.061846398 -0.38826916 0.5276554 -0.012934379 -0.32480103
-0.09784764 -0.6434281 -0.00811404 -0.054633632 0.0017996579 -0.060608648 -0.7496433 0.025548257
-0.0621674 0.0029343143 -0.3779092 -1.0556979 -0.038120918 -0.013625696 0.04345379 -0.4433242
0.30710554 -0.041140012 0.03412202 0.0056503713 -0.20273142 -0.15265828 -0.2451929 -0.13324778
0.0012073221 -0.03741299 -0.89288443 -0.17152052 0.00804925 0.0036961809 -0.055130854 0.054290995
0.08076344 -0.18501173 0.2470399 -0.016763993 -0.95975435 -0.13928202 0.024542809 -0.020258628
-0.40845513 -0.0022699237 -0.007862317 -0.034106754 -0.070105195 -0.030911446 -0.052252434 0.024105683
-0.00898768 0.25793314 0.060957476 0.0099179745 0.04870785 0.0100921765 -0.006650038 -0.25781846
0.026367906 -0.20075864 -0.6041683 -0.03040094 -0.0049913526 -0.05012933 -0.13327429 -1.2656507
-0.47097313 -0.028233651 0.025070406 -0.46397805 -0.91302973 -0.2210712 -0.23467056 0.33035797
-0.5524071 -0.09030597 0.030775659 -0.019251771 -0.051373094 -0.25884253 0.027145565 -0.7482035
0.15088947 0.06167861 0.036656283 0.041151606 -0.3407213 -0.11540493 0.26906276 -0.0071923137
0.030027479 -0.19131662 0.45503604 -0.41039371 -0.024598122 -0.53088206 -0.41763514 -0.022360682
-0.019750662 0.57505566 0.028941281 -0.010157146 -0.31421116 0.10072738 -0.020801611 0.17697635
-0.01952716 -1.2552217 -0.26664963 -0.48411542 -1.9589014 0.047898583 -0.28379673 -0.2557813
-0.23906596 0.031248264 -0.07897792 -0.42613685 -0.387863 -0.82804036 0.014452338 -0.69292593
-0.091282815 -0.018942436 0.021260701 -0.123510696 0.030245906 -1.206276 0.1491413 0.042403854
-0.052064538 0.025901921 0.0032632798 -0.20673554 -0.034888864 0.21402209 0.020265192 -0.059534118
-0.27594504 -0.74023175 0.012250438 -0.038992025 0.050143883 0.08819505 -0.17132689 -0.12442973
-0.04541816 0.0049569756 -0.65170085 -0.0026198253 -0.15035352 0.017580949 -0.011868864 -0.027076293
0.122783 -0.3465017 -0.050060473 -0.005101286 -0.5053413 -0.035115927 -0.24618952 -0.0283098
-0.2816645 -0.46824178 -0.008977987 -0.105724424 -0.68895936 0.059893966 -0.03364084 -0.021436036
-0.36661556 -0.029405475 -0.6382964 -0.047387607 -0.056289032 0.055931248 0.1539889 -0.030811064
0.02341722 0.4121938 -0.34770346 -0.36569744 -0.2326693 -0.043776713 0.083324336 -0.54906446
-0.060000718 -0.18505825 -0.026254565 -0.075780936 -0.05766828 0.09900209 0.040890083 0.26054117
-0.29482716 -0.004253127 0.0489671 -0.0032180697 0.042399008 -0.04721946 0.014685109 0.26594755
-0.2386561 0.15131813 0.46867612 0.054729685 -0.9759178 0.04778838 -0.08573718 0.042849585
-0.5057434 -0.03933064 -0.25447416 -0.06231825 0.05532863 0.19399218 0.0407911 0.3478408
-0.18002586 -0.09655692 -0.7958096 -0.024105288 -0.01464317 -0.034394853 -0.010299228 -0.23018903
0.032281652 -0.3177137 0.040675797 0.012746505 -0.31337783 -0.06265805 -0.42394847 0.13821274
0.014326252 0.05408398 -1.168089 -0.59227294 0.016611692 -0.96247315 0.038168922 -0.5894034
0.007996857 -0.030063823 -0.036065146 0.08517642 0.0029395446 0.008167885 -0.6357049 -0.5079059
00000000: 2616 41bd 2c51 bbbe 0a11 ce3e a652 7dbd
00000010: 37cb c6be 6d14 073f b8ea 53bc 524c a6be
00000020: 5864 c8bd b4b7 24bf c0f0 04bc 84c7 5fbd
00000030: 80e2 eb3a c640 78bd a0e8 3fbf 944a d13c
00000040: 3ea3 7ebd a04d 403b 517d c1be 1c21 87bf
00000050: ae24 1cbd 503e 5fbc 9afc 313d 64fb e2be
00000060: f03c 9d3e 6e82 28bd 88c3 0b3d c026 b93b
00000070: d398 4fbe 7452 1cbe d913 7bbe 1b72 08be
00000080: 023f 9e3a 5d3e 19bd 1394 64bf 13a3 2fbe
00000090: 00e1 033c a03b 723b e4d0 61bd 3c60 5e3d
000000a0: 4d67 a53d b773 3dbe 07f8 7c3e a454 89bc
000000b0: 76b2 75bf f29f 0ebe 000e c93c 6cf5 a5bc
000000c0: 0821 d1be 00c3 14bb f3d0 00bc 86b3 0bbd
000000d0: 5093 8fbd 003a fdbc a606 56bd 4879 c53c
000000e0: 1041 13bc d00f 843e 8cae 793d 007f 223c
000000f0: e281 473d a859 253c 90e8 d9bb c800 84be
00000100: 8201 d83c ac93 4dbe c6aa 1abf 640b f9bc
00000110: 808e a3bb 6a54 4dbd 0e79 08be d800 a2bf
00000120: 6423 f1be 424a e7bc 7460 cd3c 888e edbe
00000130: 51bc 69bf 7d60 62be 7b4d 70be ae24 a93e
00000140: 8d6a 0dbf 56f2 b8bd 3c1d fc3c e4b5 9dbc
00000150: 986c 52bd 0287 84be 6060 de3c 448a 3fbf
00000160: c582 1a3e b6a2 7c3d e624 163d 968e 283d
00000170: 0673 aebe 6c59 ecbd 98c2 893e 80ad ebbb
00000180: 30fc f53c 81e8 43be 7cfa e83e 201f d2be
00000190: 0082 c9bc e3e7 07bf 46d4 d5be c02d b7bc
000001a0: 24cc a1bc d936 133f 4416 ed3c 286a 26bc
000001b0: 49e0 a0be 284a ce3d 2468 aabc 4a39 353e
000001c0: 6cf7 9fbc 1bab a0bf 4d86 88be fadd f7be
000001d0: 48bd fabf 4e31 443d ce4d 91be c4f5 82be
000001e0: b5cd 74be 5cfc ff3c 2dbf a1bd 9c2e dabe
000001f0: fb95 c6be 74fa 53bf 80c9 6c3c 9863 31bf
00000200: 7cf2 babd 2b2d 9bbc ec2a ae3c 2df3 fcbd
00000210: 43c6 f73c 4167 9abf 7fb8 183e aaaf 2d3d
00000220: a041 55bd 4430 d43c c0dc 553b 7bb2 53be
00000230: a0e7 0ebd 9b28 5b3e 3003 a63c 0cda 73bd
00000240: ab48 8dbe d47f 3dbf 10b6 483c 1ab6 1fbd
00000250: ac63 4d3d 9b9f b43d 5170 2fbe 04d5 febd
00000260: 6408 3abd 206e a23b ded5 26bf 60b1 2bbb
00000270: 46f6 19be ec05 903c a075 42bc 1acf ddbc
00000280: a775 fb3d ac68 b1be 360c 4dbd b028 a7bb
00000290: 0c5e 01bf b8d5 0fbd 1b19 7cbe f4e9 e7bc
000002a0: 5436 90be 63bd efbe 6818 13bc 0c86 d8bd
000002b0: a45f 30bf 6053 753d faca 09bd a09a afbc
000002c0: 09b5 bbbe c0e3 f0bc 6567 23bf 8219 42bd
000002d0: 548f 66bd 2a18 653d 44af 1d3e 7c67 fcbc
000002e0: 78d5 bf3c 110b d33e 3006 b2be b23c bbbe
000002f0: dc40 6ebe 364f 33bd f3a5 aa3d 7d8f 0cbf
00000300: 50c3 75bd e97f 3dbe d013 d7bc 0933 9bbd
00000310: 9335 6cbd 9cc1 ca3d 5c7c 273d a765 853e
00000320: 96f3 96be d15d 8bbb ba91 483d 40e6 52bb
00000330: 95aa 2d3d 3169 41bd d099 703c 472a 883e
00000340: 4462 74be 24f3 1a3e 51f6 ef3e 3c2c 603d
00000350: c0d5 79bf c0bd 433d fa96 afbd 0c83 2f3d
00000360: 6678 01bf 2a19 21bd 704a 82be 6c41 7fbd
00000370: 46a0 623d e3a5 463e 9214 273d 3018 b23e
00000380: b358 38be a2bf c5bd 2eba 4bbf 7478 c5bc
00000390: e8e9 6fbc 9ee1 0cbd 18be 28bc acb6 6bbe
000003a0: c439 043d 5fab a2be aa9b 263d b8d6 503c
000003b0: 0f73 a0be dd52 80bd c60f d9be a487 0d3e
000003c0: a8b8 6a3c 2a87 5d3d f183 95bf 339f 17bf
000003d0: 3e15 883c a464 76bf 0457 1c3d 24e3 16bf
000003e0: 4005 033c 6848 f6bc 0cb9 13bd fa70 ae3d
000003f0: 60a5 403b 98d2 053c 8ebd 22bf 1f06 02bf

fc2.bias f4 [256]
0.2766531 0.21725729 -0.09003408 -0.19620639 -0.83181727 0.8422261 0.14106178 1.0096663
-1.8471887 -0.11617569 0.41425523 0.008034111 0.31470698 1.0022309 -0.041300867 -0.37803504
-0.033766963 0.7579604 0.019141914 0.97563 0.65145266 0.62560326 0.021210708 -0.044652916
-0.9360851 -0.0033091302 -0.029440599 -0.26987106 -0.0036480967 0.012205183 -0.055996854 -0.378895
0.83335674 -0.46763435 0.6456961 -0.06239603 -0.3795237 0.8442925 -0.7959359 -0.028977288
1.0735216 -0.092397235 -0.09584081 0.004558568 0.24017519 -0.13126196 -0.054559186 0.4355967
0.0011642982 0.47655454 -0.052238204 -0.7568528 -0.10838675 0.6112654 0.6769944 -0.2708976
-0.34778285 0.43593574 -0.032734163 2.6876489e-05 0.34870967 0.0026063016 -1.0022734 -0.08922221
0.07291602 -0.0074166385 -0.3720693 -0.46188167 -0.050542053 -0.13832046 -0.041940406 1.0717497
-0.10632244 0.22941725 0.0546112 -0.024842191 -0.23876685 0.3186023 -0.37007806 -0.5142885
-0.03567505 -0.13133883 0.11913272 0.14853606 -0.004065421 -0.09532857 -0.58415323 0.42257726
0.9732152 -1.0234046 0.06265845 0.014970418 -0.677466 0.48440355 0.028336013 0.74390405
0.20033713 0.03382373 0.9928238 -0.29274184 0.8339444 0.5618983 0.8067879 0.417074
1.2321739 -0.1634066 -0.1792772 -0.021206483 0.3790343 0.09980209 -0.022438148 0.2053459
1.3857062 -0.049174078 0.5700745 0.0038668565 -0.0008538943 0.57509065 0.8785049 -0.02091638
-0.029749174 1.114069 0.4532116 -0.036210675 -0.103177615 0.6462927 -0.07396871 -0.07861049
0.5691189 0.35399464 -0.041860234 1.0110748 0.21398214 0.5565797 0.10565267 0.372131
0.19501899 -0.01569201 0.7967615 -0.3880758 -0.08688484 -0.11441898 -0.48963714 -0.024853067
-0.07749281 -0.22906426 0.29873082 -0.041205205 -0.073676854 -0.029733669 0.55321664 -0.0962391
-0.0824433 0.27414185 -0.070138514 -0.015464185 0.15986605 0.79400104 -0.8229198 -0.084043145
0.391968 -0.07053311 -0.23017552 0.2555254 -0.12416495 0.79458827 0.9143864 -0.24044164
0.82627124 0.6017769 0.0046781534 0.53517836 0.1377969 0.7105351 0.60334265 0.6119289
-0.16689306 0.01640746 -0.5475621 0.6572177 -0.04436309 -1.2572858 0.36520126 -0.11971109
-0.04442654 -0.079808965 -0.060142454 0.5369008 0.56915486 0.6791269 -0.14739428 -0.016698753
0.33951002 0.22353454 -0.4891198 0.77399373 -0.112419605 0.93134063 -0.04059062 0.07387585
0.26835707 0.4403297 0.12350398 -0.050557382 -0.10992549 -0.03879526 -0.01623942 -0.13746116
0.27536702 -0.07123905 1.3078842 -0.2653721 0.83144146 -0.048498698 0.23525463 0.827285
-0.026209403 -0.07860804 1.4198989 0.58711624 0.03153078 -0.25606614 0.23993719 -0.13914773
-0.114591666 0.7816993 -0.41714934 -0.037760098 -0.89126474 0.0010814427 -0.38047805 -0.06753829
-0.07399266 -0.05840689 -0.05690904 0.48047855 -0.015130494 -0.003674577 0.022103079 -0.0058203544
0.016406616 0.7945896 0.76731396 0.14963445 -0.034199655 0.25563148 0.22101237 0.5296984
0.86271816 0.26373512 -0.018298006 -0.66462517 -0.026089873 -0.22274612 0.47468686 -0.021233462
00000000: 7aa5 8d3e b278 5e3e ca63 b8bd 54ea 48be
00000010: faf1 54bf 219c 573f 8072 103e bf3c 813f
00000020: ae70 ecbf 85ed edbd 4319 d43e 81a1 033c
00000030: 4621 a13e 1a49 803f 192b 29bd cf8d c1be
00000040: 3a4f 0abd b109 423f 81cf 9c3c e3c2 793f
00000050: 9ac5 263f 8927 203f 14c2 ad3c fae5 36bd
00000060: 46a3 6fbf fedd 58bb 692d f1bc 8a2c 8abe
00000070: e814 6fbb 3ff8 473c f55c 65bd 87fe c1be
00000080: de56 553f c56d efbe 574c 253f fb92 7fbd
00000090: ee50 c2be 8e23 583f 75c2 4bbf c761 edbc
000000a0: 2869 893f c33a bdbd 3048 c4bd 0a60 953b
000000b0: 7cf0 753e 8969 06be 7479 5fbd 8806 df3e
000000c0: 5d9b 983a f5fe f33e baf7 55bd 1bc1 41bf
000000d0: dff9 ddbd e47b 1c3f 814f 2d3f 17b3 8abe
000000e0: 9810 b2be f832 df3e 4214 06bd d274 e137
000000f0: 138a b23e 7cce 2a3b 7f4a 80bf 22ba b6bd
00000100: ff54 953d 4607 f3bb de7f bebe c17b ecbe
00000110: 2f05 4fbd e1a3 0dbe b4c9 2bbd 182f 893f
00000120: 94bf d9bd 5bec 6a3e feaf 5f3d da81 cbbc
00000130: 4c7f 74be d71f a33e df7a bdbe 69a8 03bf
00000140: 0020 12bd b07d 06be dbfb f33d d619 183e
00000150: 3937 85bb a03b c3bd 118b 15bf 0c5c d83e
00000160: a224 793f ecfe 82bf 1353 803d 7c46 753c
00000170: 696e 2dbf be03 f83e ed20 e83c 7f70 3e3f
00000180: 2d25 4d3e c08a 0a3d b329 7e3f 42e2 95be
00000190: 617d 553f 91d8 0f3f a789 4e3f b98a d53e
000001a0: e0b7 9d3f 0f54 27be 7194 37be 38b9 adbc
000001b0: c910 c23e 0a65 cc3d 35d0 b7bc 3246 523e
000001c0: d25e b13f c26a 49bd 67f0 113f 166b 7d3b
000001d0: e0d7 5fba 2439 133f b2e5 603f d458 abbc
000001e0: 8ab4 f3bc d099 8e3f 5a0b e83e a551 14bd
000001f0: c94e d3bd 7073 253f e87c 97bd 89fe a0bd
00000200: c7b1 113f c93e b53e a375 2bbd e66a 813f
00000210: 221e 5b3e 027c 0e3f 6d60 d83d f487 be3e
00000220: 0fb3 473e 888c 80bc 90f8 4b3f dfb1 c6be
00000230: aef0 b1bd 8054 eabd b8b1 fabe a998 cbbc
00000240: 8db4 9ebd d28f 6abe 3ff3 983e cac6 28bd
00000250: e4e3 96bd 0694 f3bc 9b9f 0d3f 0119 c5bd
00000260: 08d8 a8bd 525c 8c3e c8a4 8fbd 7e5d 7dbc
00000270: edb3 233e a743 4b3f dfaa 52bf d01e acbd
00000280: 08b0 c83e aa73 90bd 22b3 6bbe 3ad4 823e
00000290: 314a febd 236a 4b3f 3a15 6a3f 5536 76be
000002a0: 8386 533f 0d0e 1a3f 324b 993b 7301 093f
000002b0: a11a 0d3e a1e5 353f aa74 1a3f 5fa7 1c3f
000002c0: 04e6 2abe f068 863c 082d 0cbf 6b3f 283f
000002d0: 12b6 35bd beee a0bf a9fb ba3e 172b f5bd
000002e0: 9bf8 35bd e272 a3bd ef57 76bd 5572 093f
000002f0: 22b4 113f 43db 2d3f 87ee 16be d3cb 88bc
00000300: 42d4 ad3e 3de6 643e e96d fabe 7424 463f
00000310: 403c e6bd 576c 6e3f 5a42 26bd 394c 973d
00000320: 1966 893e e572 e13e a8ef fc3d 4215 4fbd
00000330: 9e20 e1bd c7e7 1ebd 8808 85bc 9ec2 0cbe
00000340: e8fc 8c3e c7e5 91bd c068 a73f dade 87be
00000350: 59d9 543f 92a6 46bd 97e6 703e f3c8 533f
00000360: 1ab5 d6bc 41fd a0bd 3fbf b53f 404d 163f
00000370: 6b26 013d 1a1b 83be 18b2 753e be7c 0ebe
00000380: 09af eabd 721d 483f 9994 d5be 55aa 1abd
00000390: ed29 64bf 32bf 8d3a 05ce c2be 8451 8abd
000003a0: 7789 97bd 103c 6fbd 7419 69bd 4901 f63e
000003b0: e4e5 77bc 2cd1 70bb 8411 b53c acb8 bebb
000003c0: 2b67 863c 396a 4b3f b06e 443f c639 193e
000003d0: f014 0cbd 21e2 823e 1151 623e 509a 073f
000003e0: 19db 5c3f 4a08 873e b3e5 95bc e024 2abf
000003f0: 6eba d5bc 8f17 64be 280a f33e ccf1 adbc

fc_mean.weight f4 [2, 256]
-0.5214556 -1.0829834 -0.03511066 0.015333116 0.33882216 0.11849306 -0.13926758 0.054490514
-0.092463106 -0.043531384 -0.050473645 -0.003995362 -0.18236479 0.32169256 0.010536143 -0.019525653
-0.07084256 0.2277567 0.011651054 0.4966226 -0.23517552 0.54898715 -0.0050217486 0.035028264
0.2481575 0.01784477 -0.022922045 0.438902 -0.014873268 0.0039570276 0.039648946 -0.32040367
-0.14441991 0.31850183 0.29278833 0.14683597 0.50044876 0.63360226 0.24792977 -0.022884212
-0.08610172 -0.2824387 0.20249599 -0.1549076 0.44676816 -0.019094339 -0.02889563 0.15090829
0.024753815 -0.79880303 0.014671149 0.15765847 -0.07104496 -0.32448384 -0.016122611 0.19323464
-0.24142292 -0.26938716 -0.33301753 0.026426408 -0.059293292 0.07809222 -0.22155496 0.0573659
0.4435641 0.01636999 0.066308744 -0.37137133 0.029440017 0.49818632 0.06606509 0.7209872
-0.05875958 -0.16155986 -0.07043414 -0.034830276 -0.4098909 -0.11646026 0.08288976 -0.34382528
-0.26252759 0.007030335 -0.17229691 0.11488526 -0.010481123 0.124486245 0.105295956 0.03386785
0.14019549 -0.69650257 0.036008913 -0.03801017 0.49818167 0.17974024 0.0048885047 -0.35271153
0.34612325 0.014062669 0.015137619 -0.047223955 0.23459736 0.626016 0.18322776 -1.097545
0.1634067 0.016944377 -0.06688763 -0.00012870882 -0.6725497 -0.03837942 0.041229364 -0.4411254
0.05475657 0.011870533 -1.3318665 -0.013550806 -0.011600706 -0.19430886 0.11877856 0.43829623
0.034980357 -0.2511461 -0.007145757 0.013357771 -0.017971523 -0.86074924 0.056069974 0.007245775
-0.5758801 -0.50424576 0.02736821 0.27972692 -0.2626437 -0.2986986 0.6701801 0.545453
-0.057866503 0.013800232 0.048797958 -0.2962654 -0.054989427 -0.018969221 0.6571243 0.028837044
0.0006449234 0.19431868 0.3691188 0.01474014 0.24321517 -0.034984216 0.46972534 0.07910921
0.079351254 -0.0843016 0.010780198 -0.08860447 0.37189206 -0.22073771 -0.11749475 -0.026322644
-0.48652723 -0.006055339 -0.17436771 0.38410786 -0.42415115 -0.0926486 0.31666237 0.04017997
0.17311005 -0.2840055 -0.04266125 0.089335576 -0.21801727 0.0037592887 -0.24506168 0.04273544
0.28076005 0.06671953 0.15240291 -0.0986671 0.048019543 0.40983272 -0.2651012 0.089737944
-0.12096905 -0.056484398 -0.036746956 0.25933596 0.54028386 -0.045548134 -0.028307233 -0.003917596
-0.53191835 -0.36753178 -0.3446992 0.22905749 -0.3244497 -0.14998052 -0.03333668 -0.1387772
-0.23822637 0.29978943 -0.22013877 0.021714933 -0.05633266 0.040332843 0.009844483 0.018277274
-0.43340996 0.0033242332 -0.12287436 -0.71635586 -0.009517006 0.06363899 -0.21313041 0.4054827
-0.028151724 0.05592339 0.18283212 0.2707661 0.011095936 0.62561435 0.33222875 0.4385249
0.10838212 -0.56054443 -0.33663586 0.040866986 -0.042485837 0.044468388 0.6420004 -0.044934712
0.041800033 0.004340216 -0.006537787 0.03753176 0.16823968 -0.30047154 -0.04509395 -0.23301698
0.32838675 -0.29172564 -0.18798248 0.09414676 0.37450635 0.017549027 -0.54345506 -0.16112404
0.16917348 0.4121243 0.06801543 0.34901837 0.03804374 -1.0208806 0.45517716 -0.00027009333
00000000: 1d7e 05bf 339f 8abf 32d0 0fbd c037 7b3c
00000010: 197a ad3e 7dac f23d 299c 0ebe 7231 5f3d
00000020: 4c5d bdbd f74d 32bd 74bd 4ebd 87eb 82bb
00000030: d6bd 3abe e3b4 a43e c99f 2c3c 43f4 9fbc
00000040: e715 91bd 0d39 693e 10e4 3e3c 5145 fe3e
00000050: dad1 70be 6c8a 0c3f 7b8d a4bb cc79 0f3d
00000060: 001d 7e3e 322f 923c 03c7 bbbc c3b7 e03e
00000070: 02af 73bc f4a9 813b ef66 223d f30b a4be
00000080: d0e2 13be ac12 a33e 5ae8 953e 2b5c 163e
00000090: 691d 003f c233 223f 4de1 7d3e ac77 bbbc
000000a0: 1956 b0bd ce9b 90be 1c5b 4f3e 19a0 1ebe
000000b0: ccbe e43e bb6b 9cbc 87b6 ecbc b487 1a3e
000000c0: 83c8 ca3c 5b7e 4cbf 425f 703c 3971 213e
000000d0: 0580 91bd bf22 a6be 9113 84bc 4ddf 453e
000000e0: 9237 77be 1ded 89be 4681 aabe 327c d83c
000000f0: 86dd 72bd d0ee 9f3d 4edf 62be 82f8 6a3d
00000100: d51a e33e 5b1a 863c e1cc 873d 6224 bebe
00000110: 312c f13c 4712 ff3e 224d 873d 9e92 383f
00000120: e3ad 70bd f36f 25be c63f 90bd 31aa 0ebd
00000130: 38dd d1be b782 eebd 1bc2 a93d de09 b0be
00000140: 046a 86be b95e e63b 9a6e 30be f748 eb3d
00000150: 04b9 2bbc a5f2 fe3d 68a5 d73d 04b9 0a3d
00000160: 688f 0f3e fe4d 32bf 157e 133d 8db0 1bbd
00000170: ab11 ff3e d30d 383e c02f a03b 9b96 b4be
00000180: 1137 b13e 1c67 663c c703 783c e86d 41bd
00000190: 4a3a 703e 9642 203f 0fa0 3b3e 5b7c 8cbf
000001a0: 1654 273e efce 8a3c 62fc 88bd 03f6 06b9
000001b0: 382c 2cbf bd33 1dbd 1fe0 283d 30db e1be
000001c0: 6d48 603d a07c 423c 9a7a aabf 3304 5ebc
000001d0: e310 3ebc e7f8 46be 2c42 f33d 5d68 e03e
000001e0: 9047 0f3d 3996 80be f426 eabb 8dda 5a3c
000001f0: 0439 93bc 105a 5cbf a1a9 653d f76d ed3b
00000200: e16c 13bf 4016 01bf 4c33 e03c 5e38 8f3e
00000210: 3c79 86be 06ef 98be ec90 2b3f cfa2 0b3f
00000220: 6d05 6dbd 5e1a 623c 5ee0 473d 19b0 97be
00000230: 983c 61bd 5765 9bbc 4c39 283f aa3b ec3c
00000240: 1410 293a 7afb 463e 24fd bc3e a180 713c
00000250: 660d 793e 9c4b 0fbd d77f f03e 0204 a23d
00000260: e982 a23d 51a6 acbd 6d9f 303c 4376 b5bd
00000270: a368 be3e 1109 62be 16a1 f0bd 96a2 d7bc
00000280: 191a f9be dd6b c6bb 738d 32be c9a9 c43e
00000290: 572a d9be 8dbe bdbd 9221 a23e c193 243d
000002a0: c343 313e 2b69 91be 90bd 2ebd 92f5 b63d
000002b0: eb3f 5fbe 665e 763b 73f1 7abe 5b0b 2f3d
000002c0: c8bf 8f3e 40a4 883d 820f 1c3e fa11 cabd
000002d0: 24b0 443d 98d5 d13e 58bb 87be 87c8 b73d
000002e0: 9fbe f7bd 2f5c 67bd fa83 16bd afc7 843e
000002f0: 0b50 0a3f ae90 3abd 92e4 e7bc 2d5f 80bb
00000300: cd2b 08bf 202d bcbe 6a7c b0be 0c8e 6a3e
00000310: 451e a6be 7e94 19be 0b8c 08bd 9c1b 0ebe
00000320: 9df1 73be 007e 993e 0f6c 61be 84e3 b13c
00000330: 13bd 66bd 0d34 253d c14a 213c 39ba 953c
00000340: e9e7 ddbe 61db 593b 8da5 fbbd 1963 37bf
00000350: 37ed 1bbc 2955 823d dc3e 5abe 6e9b cf3e
00000360: 729e e6bc ed0f 653d 5838 3b3e dba1 8a3e
00000370: bbcb 353c 4328 203f e319 aa3e 5686 e03e
00000380: 72f7 dd3d d77f 0fbf 895b acbe 2464 273d
00000390: a105 2ebd 7c24 363d 235a 243f 760d 38bd
000003a0: 8336 2b3d 5f38 8e3b ef3a d6bb e7ba 193d
000003b0: 0647 2c3e 68d7 99be 6fb4 38bd 019c 6ebe
000003c0: 4f22 a83e 105d 95be 7b7e 40be 04d0 c03d
000003d0: 4cbf bf3e fac2 8f3c df1f 0bbf b3fd 24be
000003e0: d03b 2d3e f501 d33e ac4b 8b3d 89b2 b23e
000003f0: c1d3 1b3d 37ac 82bf fb0c e93e 509b 8db9

fc_mean.bias f4 [2]
-0.39460742 0.22984561
00000000: fc09 cabe a65c 6b3e

fc_logstd.weight f4 [2, 256]
-0.0026554416 -0.017542588 -0.008354362 0.014583348 0.09715237 0.0026673472 0.006638885 -0.0010450858
0.0023863558 -0.024551094 0.014101439 -0.0050681457 0.00022993331 0.0037909027 0.021576857 -0.020426724
-0.045051437 -0.008506055 0.018705472 0.012318414 0.008267624 -0.0013645405 0.023449956 0.009997274
0.00088079605 -0.034075778 -0.03659497 0.008229077 -0.016204014 0.05494951 0.010050006 0.016405774
0.00073534215 -0.0047011287 -0.013038109 0.08092995 0.023782661 -0.009171878 0.011707435 0.021197304
0.00097119034 0.029147094 -0.020306578 0.011093749 0.0025621627 -0.0020586252 0.0059097908 -0.004522541
0.024742723 0.092257366 -0.022928689 0.017084144 0.043861147 -0.0011097798 -0.007034183 0.010563845
0.022318251 0.015313652 -0.002208407 0.0205425 0.014564889 0.025511745 0.031622455 0.01829733
-0.03961853 0.02568145 -0.010123255 0.009874333 0.0007578519 0.059180062 0.006386949 -0.062127996
-0.02371642 0.00066507683 0.051728986 0.0029566647 0.04650901 0.0086783655 0.026303813 0.0061213104
0.039646868 -0.012893597 -0.004266478 -0.006271701 0.0056571993 0.06833963 0.015534796 -0.010507815
0.012040191 -0.0015232047 0.0006411507 0.0039300164 0.013527922 -0.013981592 0.004311684 -0.005528088
0.02775894 -0.02118942 0.00014168976 -0.016084308 0.030989636 0.11960736 0.008164803 -0.044029348
0.011042665 0.0347211 -0.009202935 6.9197566e-05 0.024317255 0.0010632875 -0.03375555 0.03300961
-0.0039698416 0.01989575 0.02107468 -0.032238085 0.030624479 -0.00828409 -0.012744936 0.005048456
0.014277103 -9.1146765e-05 0.0032330297 0.002696888 -0.0130456565 -0.013278226 -0.00032686652 -0.0038046225
0.010093604 0.024305895 -0.007913553 -0.0052649 -0.021510951 0.021933705 0.096081525 -0.035727803
-0.008915275 0.039868105 0.007915221 0.015665108 0.0049022175 0.014952015 0.059269782 -0.018889587
0.0148227215 -0.04915405 0.00060910924 -0.018929824 0.005292097 0.017251479 -0.0017332075 -0.034670174
-0.0057852142 0.012301914 -0.0372755 -0.003279009 -0.0071931053 0.01311732 0.029288264 -0.023938164
0.016095603 0.0068287603 0.00087124755 0.06837864 0.0037836004 0.0026175801 -0.00911713 -0.0024733797
-0.015669936 0.014779973 0.05498928 -0.0192142 0.0011833382 -2.7069887e-05 -0.00065525924 0.005702349
-0.0033629693 0.0031779895 0.0063669914 0.0032790254 0.0012766182 0.11012515 -0.012001962 0.017948488
-0.0016545538 -0.007962109 0.0044068447 -0.011760773 -0.0056164134 -0.014203339 0.049533494 -0.0339925
0.10009898 0.013803903 -0.015828857 0.0029055723 0.0206954 0.0075446973 0.017330313 0.007740577
0.012494284 0.0049438057 0.013541129 0.04706216 0.054832682 -0.024499768 0.008594681 -0.016459094
0.0019387082 0.017951885 0.0146648 -0.021715803 -0.0018165151 -0.019297242 0.015128523 -0.009542306
0.01633512 -0.044575788 0.00373051 0.0035577659 -0.014810824 0.050376665 -0.00991639 -0.00050902215
0.053038854 0.016009104 0.011833607 -0.023740245 -0.014629165 -0.028721962 0.0028472873 -0.0015105563
-0.008738855 0.023345754 0.010767279 0.00018239081 -0.007961088 0.015406628 -0.025558002 0.026985636
0.008231217 0.022540752 -0.0012127152 0.15545397 0.017969634 0.0013518356 -0.030029867 0.0014397973
0.0027326208 -0.020356398 0.004290518 -0.04305234 -0.01267568 0.009862548 0.014291081 0.021792779
00000000: eb06 2ebb 79b5 8fbc bce0 08bc ffee 6e3c
00000010: d2f7 c63d a9ce 2e3b 018b d93b 43fb 88ba
00000020: 6864 1c3b 601f c9bc b909 673c b012 a6bb
00000030: 411a 7139 cb70 783b f3c1 b03c f255 a7bc
00000040: db87 38bd fb5c 0bbc 383c 993c 2cd3 493c
00000050: ee74 073c 62da b2ba 1f1a c03c 9bcb 233c
00000060: 39e5 663a 0b93 0bbd 9be4 15bd 40d3 063c
00000070: 48be 84bc bd12 613d c8a8 243c 6765 863c
00000080: fac3 403a ed0b 9abb cb9d 55bc 9abe a53d
00000090: dbd3 c23c a545 16bc 8bd0 3f3c f8a5 ad3c
000000a0: 7b97 7e3a e3c5 ee3c fb59 a6bc 8ec2 353c
000000b0: f5e9 273b 00ea 06bb eba6 c13b d331 94bb
000000c0: 40b1 ca3c 6ef1 bc3d f2d4 bbbc 0cf4 8b3c
000000d0: bfa7 333d 0876 91ba 017f e6bb fa13 2d3c
000000e0: c4d4 b63c 1de6 7a3c ecba 10bb bf48 a83c
000000f0: 92a1 6e3c 02fe d03c 8c86 013d 48e4 953c
00000100: 0a47 22bd e761 d23c 02dc 25bc f4c7 213c
00000110: 95aa 463a cb66 723d 9d49 d13b ed79 7ebd
00000120: f048 c2bc 8d58 2e3a c6e1 533d 9ac4 413b
00000130: 3b80 3e3d b42f 0e3c 187b d73c 4695 c83b
00000140: c164 223d aa3f 53bc d0cd 8bbb d782 cdbb
00000150: 0760 b93b a6f5 8b3d a885 7e3c f828 2cbc
00000160: 3944 453c 45a6 c7ba e512 283a 5ec7 803b
00000170: 38a4 5d3c 0c13 65bc 0749 8d3b f724 b5bb
00000180: b766 e33c 6f95 adbc 8e92 1439 3dc3 83bc
00000190: fadd fd3c b4f4 f43d aac5 053c 1e58 34bd
000001a0: 4bec 343c b637 0e3d e8c7 16bc 291e 9138
000001b0: fb34 c73c 025e 8b3a 4243 0abd 1635 073d
000001c0: 7215 82bb 69fc a23c cfa4 ac3c 150c 04bd
000001d0: 30e0 fa3c feb9 07bc 23d0 50bc 856d a53b
000001e0: 83ea 693c 0c26 bfb8 3de1 533b 46be 303b
000001f0: 73bd 55bc eb8c 59bc 485f abb9 f956 79bb
00000200: a55f 253c 281d c73c d9a7 01bc 2f85 acbb
00000210: bc37 b0bc 50ae b33c 64c6 c43d 5157 12bd
00000220: 6011 12bc bd4c 233d d8ae 013c 1d54 803c
00000230: c8a2 a03b 4cf9 743c dfc4 723d 56be 9abc
00000240: 00db 723c c255 49bd a1ac 1f3a b812 9bbc
00000250: 5469 ad3b f952 8d3c cb2c e3ba 5002 0ebd
00000260: e591 bdbb f88d 493c 32ae 18bd a4e4 56bb
00000270: 24b4 ebbb 07ea 563c f1ed ef3c f819 c4bc
00000280: edda 833c cbc3 df3b 6f64 643a 1a0a 8c3d
00000290: 48f6 773b b58b 2b3b 0460 15bc 6d18 22bb
000002a0: 3d5e 80bc b327 723c 703c 613d 1967 9dbc
000002b0: 3e1a 9b3a 2414 e3b7 b4c5 2bba c5da ba3b
000002c0: 4365 5cbb d145 503b 32a2 d03b ebe4 563b
000002d0: 3354 a73a 4b89 e13d e1a3 44bc b508 933c
000002e0: 9ddd d8ba 8173 02bc 4b67 903b 42b0 40bc
000002f0: e409 b8bb 1fb5 68bc a2e3 4a3d b83b 0bbd
00000300: b200 cd3d c429 623c 85ab 81bc 6a6b 3e3b
00000310: 6689 a93c 8239 f73b 4df8 8d3c aba4 fd3b
00000320: d3b4 4c3c a6ff a13b 9ddb 5d3c 40c4 403d
00000330: 3c98 603d bdb3 c8bc b4d0 0c3c 39d5 86bc
00000340: 411c fe3a d50f 933c a144 703c 57e5 b1bc
00000350: 2218 eeba 4015 9ebc a0dd 773c 5557 1cbc
00000360: 3bd1 853c 1a95 36bd 927b 743b 6829 693b
00000370: 19a9 72bc c357 4e3d 5b78 22bc e66f 05ba
00000380: 453f 593d 8625 833c bfe1 413c e77a c2bc
00000390: 2aaf 6fbc 524a ebbc 8e99 3a3b dcfd c5ba
000003a0: 6a2d 0fbc 983f bf3c 3e69 303c 2940 3f39
000003b0: 396f 02bc 156c 7c3c 045f d1bc fb10 dd3c
000003c0: 3adc 063c 62a7 b83c f8f3 9eba 532f 1f3e
000003d0: 0e35 933c 1330 b13a 3201 f6bc 95b7 bc3a
000003e0: c515 333b 76c2 a6bc 7997 8c3b a757 30bd
000003f0: a8ad 4fbc 8696 213c 2325 6a3c c586 b23c

fc_logstd.bias f4 [2]
0.11951667 0.15869322
00000000: 28c5 f43d 7a80 223e

fc1.weight f4 [256, 16]
-0.23448053 -0.24228272 -0.22589213 0.24862903 -0.034356803 -0.23900887 0.1405473 0.06168875
0.19402882 -0.06984207 0.08189386 -0.05780986 -0.12783098 -0.15858254 0.025454283 0.11923757
0.002841562 -0.19506097 -0.23006484 -0.061234087 -0.1839695 -0.23602894 -0.07160479 0.0001783371
0.12054336 0.24399677 -0.052400887 0.067671895 -0.2384719 -0.19305149 0.13639411 -0.20812348
0.096206315 0.05431996 -0.11384184 0.09689382 0.16086248 0.06014493 0.059325203 0.07068565
-0.08322409 0.09820492 0.10426154 -0.07339023 -0.21699056 -0.07837624 0.12861308 -0.12581497
0.15428033 0.10270661 -0.23701182 0.0062935054 0.07097393 0.19854146 0.08985788 -0.18590736
0.00033724308 -0.035158306 0.11536962 -0.08094269 0.029764026 0.22549325 -0.0051771402 -0.058184773
0.017897397 -0.15883803 -0.10011771 0.24723238 -0.20031196 -0.006539285 0.17349842 -0.22535634
0.04649812 -0.17347279 0.03997755 -0.2329984 -0.17660314 -0.023120463 -0.063506305 0.129484
-0.43115735 2.131672 -0.056706533 -0.9015194 0.15636715 -0.9490398 -0.86793005 -1.7644438
-3.8971236 2.3863876 0.06979094 0.011087305 -0.8757233 -0.31257838 0.07909304 0.0024765874
0.049292225 0.21514261 -0.045146458 -0.009192974 0.031335212 -0.057840973 -0.006974996 0.14364143
0.14235073 0.22017859 0.0013774663 0.20838352 0.061062384 0.13517602 -0.017997423 -0.05234589
0.017799944 0.066815495 -0.21297768 -0.21668962 0.22181877 -0.20197779 0.16915184 -0.12805858
0.024048328 0.23546949 -0.0744786 0.047943026 -0.11944708 0.19673449 0.064501524 -0.013635337
0.10402799 0.027522985 -0.052309893 0.1254924 0.48250955 -0.23908605 -0.012021792 -0.4732559
-1.4713762 -0.26026952 -0.009066731 -0.14717326 0.11938388 0.17828573 0.0037807585 -0.046403527
0.06746486 -0.06338772 -0.09958053 0.0926522 -0.1961573 -0.23131049 -0.073076636 0.14569709
-0.22620037 0.03475523 -0.16410431 0.015624255 0.1789062 0.1697815 -0.0090557635 -0.10341388
0.18915825 -0.1993392 -0.07907576 0.22395276 -0.06706663 0.02366754 -0.22280127 -0.12734357
-0.04706582 0.24350905 0.10814062 0.17269187 0.20499 0.0129724955 0.20639892 0.19177707
0.22616547 1.1078068 -0.017505413 -1.2589597 0.5475408 -1.1067874 1.7441294 -4.432123
-3.5300274 4.236044 -0.002387986 -0.034871098 -0.33168358 0.9397376 -0.018348316 -0.03539364
-0.11902252 0.09786472 -0.14902103 -0.1595104 -0.045928538 0.03478086 0.13358042 -0.029900223
0.048182964 0.10391155 0.024296612 -0.16248533 -0.039296627 0.20714155 -0.23599589 -0.23853937
-3.848273 0.65953445 -0.047802407 0.41142994 0.13650249 0.4300805 0.51507926 1.1472158
3.3654492 0.5910999 -0.07206667 0.05520201 0.59320235 0.76662576 0.06428143 -0.04495617
-0.18467656 -0.14037141 -0.12746757 -0.21112132 -0.19603553 -0.11535975 0.04226026 0.09893945
-0.022856683 0.23826593 -0.04389614 0.15321687 0.2319865 0.018216163 0.10932729 -0.011741668
-0.037237823 -0.20489535 -0.13227153 -0.17182851 0.20151311 0.06702158 -0.022234023 0.13697109
0.071942 0.047330856 -0.16929671 0.2384108 0.023173511 0.20464289 0.027942508 -0.098701835
00000000: aa1b 70be f618 78be 4450 67be 9c98 7e3e
00000010: b8b9 0cbd bebe 74be a2eb 0f3e 58ad 7c3d
00000020: 7eaf 463e 5c09 8fbd f8b7 a73d 08ca 6cbd
00000030: 20e6 02be 7663 22be 8085 d03c d432 f43d
00000040: 8039 3a3b 10be 47be 1e96 6bbe 98d0 7abd
00000050: 8062 3cbe 92b1 71be 88a5 92bd 0000 3b39
00000060: 70df f63d 4ada 793e 50a2 56bd 9097 8a3d
00000070: fa31 74be 4aaf 45be e6aa 0b3e 521e 55be
00000080: d107 c53d 9b7e 5e3d e925 e9bd 4470 c63d
00000090: 22b9 243e 885a 763d fcfe 723d a3c3 903d
000000a0: 6471 aabd a91f c93d 1387 d53d 9e4d 96bd
000000b0: c632 5ebe b983 a0bd 26b3 033e a4d5 00be
000000c0: aafb 1d3e d857 d23d 3ab3 72be c039 ce3b
000000d0: c85a 913d 744e 4b3e 6807 b83d 805e 3ebe
000000e0: 00d0 b039 2802 10bd e846 ec3d 48c5 a5bd
000000f0: b0d3 f33c b4e7 663e 00a5 a9bb 2853 6ebd
00000100: 909d 923c 70a6 22be 840a cdbd 7c2a 7d3e
00000110: 941e 4dbe 8047 d6bb 92a9 313e d0c3 66be
00000120: d074 3e3d daa2 31be 80bf 233d 2297 6ebe
00000130: 74d7 34be 2067 bdbc 980f 82bd 7497 043e
00000140: a8c0 dcbe 506d 0840 1c45 68bd fac9 66bf
00000150: b61e 203e 46f4 72bf aa30 5ebf 4bd9 e1bf
00000160: 796a 79c0 93ba 1840 8dee 8e3d 87a7 353c
00000170: 672f 60bf 460a a0be 88fb a13d 3e4e 223b
00000180: a5e6 493d 584e 5c3e 7eeb 38bd 219e 16bc
00000190: 5a59 003d a8ea 6cbd 828e e4bb bd16 133e
000001a0: 64c4 113e 7f76 613e 198c b43a 7d62 553e
000001b0: 8d1c 7a3d 956b 0a3e 556f 93bc a568 56bd
000001c0: 30d1 913c 90d6 883d d216 5abe e2e3 5dbe
000001d0: 7624 633e 44d3 4ebe 2436 2d3e ca21 03be
000001e0: 0001 c53c ea1e 713e 3c88 98bd e85f 443d
000001f0: aca0 f4bd c474 493e 6019 843d c066 5fbc
00000200: a00c d53d e277 e13c e642 56bd 1481 003e
00000210: 7e0b f73e f9d2 74be 0df7 44bc 994e f2be
00000220: 0e56 bcbf 0c42 85be a08c 14bc 96b4 16be
00000230: 897f f43d 8990 363e 9ac6 773b a011 3ebd
00000240: 042b 8a3d 6cd1 81bd e0f0 cbbd 70c0 bd3d
00000250: 76dd 48be a8dc 6cbe 34a9 95bd 9e31 153e
00000260: 12a1 67be 805b 0e3d f60a 28be e0fc 7f3c
00000270: 3033 373e 34db 2d3e a05e 14bc a8ca d3bd
00000280: b3b2 413e 931f 4cbe 79f2 a1bd df53 653e
00000290: 3b5a 89bd 6ee2 c13c 0426 64be 5a66 02be
000002a0: 17c8 40bd 705a 793e d478 dd3d 23d6 303e
000002b0: e6e8 513e 978a 543c 3d5a 533e 3561 443e
000002c0: ec97 673e 9dcc 8d3f 8367 8fbc 9725 a1bf
000002d0: a22b 0c3f 36ab 8dbf a23f df3f f4d3 8dc0
000002e0: f8eb 61c0 ac8d 8740 c27f 1cbb ffd4 0ebd
000002f0: 6ed2 a9be a592 703f 354f 96bc ecf8 10bd
00000300: 14c2 f3bd 4c6d c83d f898 18be b256 23be
00000310: 901f 3cbd 6076 0e3d 4ec9 083e 50f1 f4bc
00000320: 805b 453d 94cf d43d b009 c73c 8e62 26be
00000330: 80f5 20bd ea1c 543e e8a8 71be aa43 74be
00000340: 1b4a 76c0 40d7 283f 75cc 43bd f2a6 d23e
00000350: 4fc7 0b3e 8333 dc3e 3cdc 033f f8d7 923f
00000360: 8563 5740 5352 173f b197 93bd 811b 623d
00000370: 1cdc 173f 9641 443f fba5 833d f623 38bd
00000380: da1b 3dbe 86bd 0fbe dc86 02be 3030 58be
00000390: 8abd 48be bc41 ecbd 1819 2d3d c4a0 ca3d
000003a0: f03d bbbc fcfb 733e 70cc 33bd e2e4 1c3e
000003b0: de8d 6d3e 103a 953c fce6 df3d 2060 40bc
000003c0: b086 18bd 16d0 51be 3072 07be d0f3 2fbe
000003d0: 7459 4e3e 9c42 893d 2024 b6bc 2642 0c3e
000003e0: 5456 933d 00de 413d 1e5c 2dbe f621 743e
000003f0: 60d6 bd3c e88d 513e b0e7 e43c 3024 cabd

fc1.bias f4 [256]
0.11484662 -0.009581149 0.115788296 -0.24502024 0.24529707 -0.039483733 0.03341549 0.09024617
-0.5171752 0.09110233 0.23500392 -0.18154272 -0.14299789 1.1177131 -0.1102269 0.031404167
-0.0011296868 0.51387 0.1154663 -0.14081013 -0.25025442 0.013393576 0.038805723 -0.18221304
0.1926094 0.7308571 -0.15314674 -1.071799 -1.1788669 -2.1602013 0.09857355 0.20909238
-0.3135843 1.3023894 -0.17547138 0.62191623 -0.011188775 -0.6260537 0.04166925 -0.0384297
-3.0887764 0.093615465 0.17222056 -0.91230464 -0.6441209 -0.23027068 -0.13492966 -0.42220232
0.099083215 -0.21164015 0.09339311 -0.0900372 -0.14266948 0.069651335 0.6054224 -0.6207716
-0.18477575 2.7509465 -0.25085467 -0.3363033 -0.41160828 -0.04781279 0.057132423 -0.25254223
-0.62955046 -0.49818915 0.20044366 -0.09090674 -0.43642887 -0.3248895 0.5201635 0.048751324
1.3784072 0.17017668 -0.7339002 -0.22367953 1.2682159 -0.5940093 0.08946783 0.3540692
-0.27500933 -1.5371214 -0.33754334 0.1566852 0.116407275 0.40729678 -2.7389295 -0.009742796
0.21526694 -0.13289863 -0.12873745 -0.11330891 -0.3610564 -0.023553729 -0.38382137 -0.48197782
-0.12519288 0.032769404 0.56685454 -0.3688687 -0.17384669 0.21636048 1.5723586 0.2224693
0.13568531 1.1617423 -0.31460944 0.09104887 -0.1065304 0.016335033 0.7188257 0.24936515
-0.17871472 -0.1296657 -0.20741847 -0.5040587 -0.17761752 0.55200225 -0.09351272 0.31421557
0.18064402 -0.06002873 -1.0959455 -0.91477674 -0.24628294 0.073448956 -0.16002442 1.3383937
-0.10797319 0.20505139 0.18040232 -0.16374911 -0.24079254 0.5674143 0.8501711 0.17582586
1.1667194 -0.37649664 0.8085453 -0.104694396 0.22527787 -0.40609804 -0.03566006 -0.3746877
-0.8081176 0.94932765 0.20593956 -0.010990377 0.15248054 0.037901014 -0.3800749 -0.08303401
-0.693141 0.41741148 -0.064574085 -0.65422726 -0.16858214 0.71207976 -0.024641752 -0.0113682
-0.24887541 -1.7256538 0.6417166 -0.49907753 0.8341152 0.68315023 0.040976126 -0.19273435
0.19734761 -0.16525432 -0.34872514 -0.34158942 0.24649051 0.17088793 -0.0059007704 -0.12341443
-0.035948377 -0.4135816 0.13824311 -0.13765968 0.51583844 0.0031110644 0.01749418 -0.22734866
0.44258383 0.15337951 -0.0017286154 -0.7816733 0.1576677 -1.6017474 0.7999146 -0.8563371
0.10720244 -0.13348146 -0.62876683 0.6019032 0.24566057 -0.33089897 -0.42565784 -0.022817224
-0.08340338 0.4542738 -0.50270104 0.83270097 -1.6178294 -0.5833551 0.21250314 -0.092181884
0.07477029 -0.92106307 -0.1651681 0.5711363 -0.091593325 0.18734673 -0.2461636 0.78499675
-0.6002361 0.17691845 -1.7039179 0.15094957 -0.14482814 0.10663286 -1.0487548 1.4256693
0.11207914 0.2320798 -0.15771899 0.4549608 -0.12087504 -1.8468174 -0.03754067 -0.21144351
-0.23366874 0.062039822 0.014627308 0.6521663 -0.78734326 -0.032343358 0.2605436 -0.45640966
-0.9331545 -0.38560686 0.19361901 -0.37114438 -0.105433054 0.080537915 2.2822468 -0.072255954
-0.004461026 -1.1989062 0.09908955 -1.2991494 -1.0887301 -0.13302459 -1.200751 0.23693398
00000000: b434 eb3d 40fa 1cbc 6a22 ed3d 96e6 7abe
00000010: 282f 7b3e b2b9 21bd aede 083d fcd2 b83d
00000020: 9865 04bf dc93 ba3d dea4 703e 56e6 39be
00000030: 0a6e 12be 3911 8f3f a4be e1bd a8a1 003d
00000040: 0012 94ba fc8c 033f 9879 ec3d 8830 10be
00000050: 5921 80be bb70 5b3c c0f2 1e3d 0e96 3abe
00000060: 663b 453e 7319 3b3f 80d2 1cbe b630 89bf
00000070: 1ce5 96bf bd40 0ac0 eee0 c93d 501c 563e
00000080: 1f8e a0be b2b4 a63f c5ae 33be e735 1f3f
00000090: 2051 37bc 0e45 20bf 60ad 2a3d 7668 1dbd
000000a0: 83ae 45c0 77b9 bf3d 965a 303e cc8c 69bf
000000b0: 1be5 24bf 14cc 6bbe 002b 0abe e72a d8be
000000c0: 24ec ca3d 32b8 58be e344 bf3d 6c65 b8bd
000000d0: f317 12be 5ca5 8e3d f6fc 1a3f e3ea 1ebf
000000e0: db35 3dbe 820f 3040 0670 80be f22f acbe
000000f0: 52be d2be 58d7 43bd b003 6a3d 374d 81be
00000100: 382a 21bf a612 ffbe 1a41 4d3e 502d babd
00000110: 9b73 dfbe eb57 a6be 6f29 053f 78af 473d
00000120: a66f b03f cc42 2e3e e2e0 3bbf 3f0c 65be
00000130: e654 a23f fe10 18bf e93a b73d 8f48 b53e
00000140: 06ce 8cbe 65c0 c4bf 7bd2 acbe 1672 203e
00000150: f066 ee3d 3489 d03e 9f4a 2fc0 40a0 1fbc
00000160: f06e 5c3e 9416 08be c0d3 03be 800e e8bd
00000170: 62dc b8be c0f3 c0bc 3c84 c4be ccc5 f6be
00000180: 9032 00be 3639 063d 611d 113f 5cdc bcbe
00000190: de04 32be 9a8d 5d3e 0c43 c93f fece 633e
000001a0: 17f1 0a3e f9b3 943f 7d14 a1be d477 ba3d
000001b0: 9c2c dabd 0cd1 853c f604 383f 9459 7f3e
000001c0: fe00 37be 16c7 04be 8265 54be fe09 01bf
000001d0: 5ee1 35be 0550 0d3f 9983 bfbd dde0 a03e
000001e0: bffa 383e b0e0 75bd f147 8cbf cf2e 6abf
000001f0: 9831 7cbe 686c 963d 71dd 23be 7c50 ab3f
00000200: 0c21 ddbd fef8 513e 63bb 383e d9ad 27be
00000210: 5292 76be 1042 113f d0a4 593f b20b 343e
00000220: 1057 953f 2bc4 c0be d3fc 4e3f 046a d6bd
00000230: 3eaf 663e 15ec cfbe 4810 12bd 11d7 bfbe
00000240: cce0 4ebf 2307 733f d2e1 523e fb10 34bc
00000250: dc23 1c3e 183e 1b3d 2d99 c2be bc0d aabd
00000260: b071 31bf f5b6 d53e 6b3f 84bd 707b 27bf
00000270: cca0 2cbe dc4a 363f 80dd c9bc b041 3abc
00000280: 32d9 7ebe 39e2 dcbf 8a47 243f 1787 ffbe
00000290: 9388 553f efe2 2e3f 95d6 273d 275c 45be
000002a0: 7e15 4a3e 6e38 29be 1a8c b2be cfe4 aebe
000002b0: 0268 7c3e 3ffd 2e3e 405b c1bb b4c0 fcbd
000002c0: 9b3e 13bd f8c0 d3be 9a8f 0d3e a9f6 0cbe
000002d0: fd0d 043f 00e3 4b3b f44f 8f3c 16ce 68be
000002e0: 599a e23e 850f 1d3e b592 e2ba be1b 48bf
000002f0: a473 213e 0f06 cdbf 34c7 4c3f e838 5bbf
00000300: f48c db3d 5daf 08be ddf6 20bf 5416 1a3f
00000310: 728e 7b3e 976b a9be d3ef d9be 30eb babc
00000320: 64cf aabd 9396 e83e 04b1 00bf e42b 553f
00000330: 0915 cfbf c356 15bf 6c9a 593e dbc9 bcbd
00000340: 2a21 993d caca 6bbf d421 29be fd35 123f
00000350: 4895 bbbd d2d7 3f3e 5012 7cbe 8cf5 483f
00000360: 13a9 19bf 1c2a 353e fb19 dabf 8692 1a3e
00000370: d44d 14be 5462 da3d 993d 86bf 557c b63f
00000380: c089 e53d 54a6 6d3e 1681 21be 9ff0 e83e
00000390: 558d f7bd 8364 ecbf 3fc4 19bd a684 58be
000003a0: dc46 6fbe 781d 7e3d 60a7 6f3c 5ff4 263f
000003b0: 548f 49bf 787a 04bd f965 853e 87ae e9be
000003c0: 37e3 6ebf 436e c5be 1044 463e a306 bebe
000003d0: 49ed d7bd 10f1 a43d 5510 1240 eefa 93bd
000003e0: cc2d 92bb c275 99bf 76ef ca3d 874a a6bf
000003f0: 825b 8bbf 9937 08be 35b2 99bf d29e 723e
