fw_flightcontrol/models/icinco/sac/noactreg/sac_bohn_noactreg_nohist_noatmo_2989_30-05_13:19:32.pt (torch, 853763 bytes, 20 tensors)

action_scale f4 [1, 2]
000000 00 00 80 3f 00 00 80 3f
       1.0 1.0

action_bias f4 [1, 2]
000000 00 00 00 00 00 00 00 00
       0.0 0.0

fc1.weight f4 [256, 14]
000000 ab c3 85 be fa f7 36 3f 80 90 d9 bb e9 6b ab bf
       -0.26125845 0.7147213 -0.00663954 -1.3392307
000010 e4 ef 84 3d 52 84 4f bf 29 ad 05 3f 78 81 7f 3f
       0.06491068 -0.8106128 0.52217346 0.9980693
000020 49 05 9e c0 4c 81 dc 40 b1 d7 a4 be fa 8b 1b 3c
       -4.938145 6.8907833 -0.3219581 0.009493822
000030 cc b1 b4 be f7 8a ed 3e a1 f5 19 c0 5f 95 28 c0
       -0.35291898 0.46395084 -2.405617 -2.634117
000040 ea c0 9a bc 12 36 3b bf b7 5b 24 bf a1 26 45 bf
       -0.018890817 -0.7312938 -0.64202446 -0.7701207
000050 88 10 b6 bf b5 73 2b 41 93 85 d7 40 be 1c 48 c0
       -1.4223795 10.715749 6.7350554 -3.1267543
000060 05 d7 0a bd af b2 e9 3d f8 36 68 3d 8f f0 11 3f
       -0.033896465 0.11411034 0.056693047 0.5700769
000070 e8 41 96 bd 4a 71 b0 bd ef 0f dd bd d5 96 ae bc
       -0.07336789 -0.08615358 -0.10794055 -0.021312157
000080 73 80 00 3e c6 8e 17 be 26 0c 14 be 98 2f 57 be
       0.12549 -0.14800557 -0.1445776 -0.2101425
000090 d9 c8 9e 3d dc ea 7a 3e d7 28 0c be ed 3c 3d be
       0.077531524 0.24503654 -0.13687454 -0.18480273
0000a0 13 93 a8 3d 9c 34 fe 3d a0 d8 fe be 39 1b b0 bf
       0.08231177 0.12412378 -0.49774647 -1.3758308
0000b0 17 2e 40 3b 7d 7e de 3f b4 8c 49 bf 66 f7 d1 3f
       0.0029324347 1.7382351 -0.7873032 1.6403625
0000c0 68 b6 75 bf 1c a5 4c 41 a8 f7 cf 40 71 0e 0d c0
       -0.95981455 12.79031 6.4989815 -2.2040064
0000d0 31 50 a1 3c 49 66 9a 3d 4f e3 be 3b c6 6b 65 bd
       0.019691559 0.075390406 0.005825437 -0.056010984
0000e0 a6 83 61 be f6 ee 9f 3e e3 a8 56 bd 2e 34 24 be
       -0.22022876 0.31237 -0.052407157 -0.1603553
0000f0 2b 80 a6 3d ef 5d 24 3d 46 5c ab 3e 3f ba d8 be
       0.08129915 0.040128645 0.33468837 -0.42329594
000100 a0 f7 5b be f2 2d ef be 67 a4 cb bd 65 bf 33 be
       -0.2148118 -0.4671474 -0.09943467 -0.1755348
000110 bf cf d8 3d 1e 24 47 be 5b e7 49 be 5a 54 14 3e
       0.105864994 -0.19447371 -0.19717161 0.14485303
000120 6b d8 5a be a5 07 76 3e aa 55 c3 bd 5c 85 c5 3c
       -0.2137162 0.24026354 -0.095378235 0.024111442
000130 1c 9c ff bd d9 1b 7f be f6 16 27 3e 0b 71 2d 3d
       -0.124809474 -0.24912967 0.16317353 0.042344134
000140 ef f5 11 be 00 80 60 3e fc c0 9a 3d 0e 06 61 3d
       -0.14253972 0.21923828 0.0755634 0.054937415
000150 f1 75 25 be a6 3f 23 3e 6c 39 22 be b4 8f 30 be
       -0.16158272 0.15942249 -0.15842217 -0.17242318
000160 7d cc ea bd 50 fc 3c 3e ae d1 63 bd 7b d9 91 bd
       -0.11464784 0.18455625 -0.055619888 -0.07121559
000170 43 04 86 3e f9 56 37 be 57 7a 15 3e d6 6d 06 be
       0.26175126 -0.17904271 0.1459745 -0.13127837
000180 7c fe 73 3e 32 76 c7 bd fd 02 a5 bd c0 9e ab 3f
       0.23827547 -0.09739341 -0.080572106 1.3407822
000190 a3 57 df bd 01 91 22 be 4f 72 24 3e ef 6b ba 3e
       -0.10905387 -0.15875627 0.1605923 0.36410472
0001a0 29 0a ce 3f 31 42 00 be c7 eb bb bf 64 05 e4 3e
       1.6096851 -0.1252525 -1.4681329 0.44535363
0001b0 ef 56 2c be 7d 00 2f 3e 94 0b 97 be b6 63 ef bb
       -0.16830038 0.1709003 -0.2950102 -0.0073055876
0001c0 51 62 6c 3f 6f da 60 bf 77 c9 9d bd f3 54 cb 3e
       0.9233752 -0.87833303 -0.07704442 0.3971325
0001d0 54 ed a8 be 5f 58 98 3e 75 8d 94 bf ae 4a dd be
       -0.32993567 0.29754922 -1.1605669 -0.4322104
0001e0 3b d3 4b bf 48 5d b9 bc 89 dd d2 3c 37 c0 13 be
       -0.7961919 -0.022627488 0.025740402 -0.14428793
0001f0 cb 6a 8f 3e 8a 00 8e bd 2d ee bf bc 15 d6 82 3d
       0.28011164 -0.069336966 -0.023429 0.06388489
000200 c7 2e ac bd 9b 2d c2 bd 26 b2 c7 3d 1d fd fc bd
       -0.084073596 -0.09481355 0.09750776 -0.12352965
000210 9a dd ac bd 98 b3 2d bd 67 f0 af bd 34 3a 12 3e
       -0.08440705 -0.042407602 -0.08590775 0.14280015
000220 47 90 46 be 1b de 85 bc 52 1d 08 bd 42 08 db 3d
       -0.19390975 -0.01634126 -0.033231087 0.106949344
000230 5d 2a 3c be 1c 24 97 bd cf 52 0c be 8c 6e 27 3e
       -0.18375535 -0.07379934 -0.13703464 0.16350764
000240 bd 2d 79 be 14 07 ee bd f3 10 19 3e 2c 43 83 3e
       -0.24333854 -0.11622444 0.14947872 0.25637186
000250 d7 a3 f8 3d 3f 53 d6 3d d3 6c 15 be 04 1e d8 3c
       0.12140625 0.10465097 -0.14592294 0.0263815
000260 60 8b d2 3d 3b 38 4c be 2a a1 43 be 8c 1b 8d 3d
       0.1028049 -0.19943325 -0.19104448 0.0689002
000270 15 a8 32 be 20 48 8b 3b dd 85 64 3e 8e f4 79 be
       -0.1744693 0.0042505413 0.2231669 -0.24409696
000280 e1 01 a6 bc 7b 61 86 be 94 69 4d be e2 70 80 3d
       -0.020264568 -0.26246247 -0.20059806 0.06271531
000290 7c 6f f7 3d f8 71 6a 3e d5 a6 0a bc 95 ba 83 be
       0.12081811 0.22895038 -0.008462627 -0.25728288
0002a0 2d 67 ef bf 55 5b 88 bc eb 95 bc bc 18 a6 37 bf
       -1.8703362 -0.016645113 -0.023020705 -0.71737814
0002b0 0f 2b be 3e ac 8a b0 be 36 e6 c9 40 f7 bc 3e 3f
       0.37142226 -0.34480798 6.309352 0.7450709
0002c0 7a aa 88 bf 12 1f a2 3e fa 40 fb bc 41 9d 68 3d
       -1.0677025 0.3166433 -0.030670632 0.056790594
0002d0 20 02 6e 3f d9 91 5b 3f 97 b5 ea 3e 6c 00 7e 3f
       0.9297199 0.8576942 0.45841667 0.99219394
0002e0 3a 7c 26 be 4e 44 99 3d f7 fb 9b bf 82 09 6e 3d
       -0.16258326 0.07483731 -1.2186269 0.058114536
0002f0 a1 e8 b4 3f 06 b5 2f bf a9 ec 25 c0 b8 90 c4 be
       1.4133493 -0.68635595 -2.5925696 -0.38391662
000300 d3 ca 89 3d 47 ea 45 be de 7c 36 3e d4 dc b4 3e
       0.06728139 -0.19327651 0.1782107 0.35324728
000310 77 8a ee 3e 93 0e 3b 40 19 30 7c bc 1f 66 34 3f
       0.46590015 2.9227645 -0.015392327 0.70468324
000320 78 a2 05 3e 5f 0d 1e 3f b6 21 a7 bf ad c4 a9 3f
       0.13050258 0.6173915 -1.3057163 1.3263146
000330 58 43 ff bf 0a 57 53 c0 3b 56 ad 3c 74 33 76 3d
       -1.9942427 -3.3021874 0.021159282 0.060107663
000340 29 9c 7c 3f 1d bb e7 3e 89 61 4e bf 7a 83 b7 3e
       0.9867578 0.45259944 -0.80617577 0.35842496
000350 ad 20 40 bd 4a 26 8c 3f b8 db 67 be 18 29 6b bf
       -0.046906162 1.0949185 -0.2264241 -0.9185958
000360 69 b1 d1 3f 92 ac aa bf 18 f7 1b c0 c2 38 94 3f
       1.6382266 -1.3333914 -2.4369564 1.1579821
000370 7c 39 67 3f f0 01 74 3e a4 b1 a9 be 25 9f 8a be
       0.9032209 0.23828864 -0.33143342 -0.27074543
000380 48 cb 69 3c 1b 44 17 3e c2 84 77 be 5f 21 22 3d
       0.014269657 0.14772074 -0.24171737 0.039582606
000390 46 8b 5d bd 78 d8 9f bd 61 20 4c be 8e 8d 78 3b
       -0.0540879 -0.0780496 -0.19934227 0.003792617
0003a0 ac dd 8b 3d 24 0e e1 bd a6 be 23 3e 1b 09 65 bd
       0.0682939 -0.10989025 0.15990695 -0.055916887
0003b0 e3 9f 38 be fb 2d 56 bc f1 b0 34 3d ae 30 23 3e
       -0.18029742 -0.013072486 0.044114057 0.15936539
0003c0 cd 4e 79 be 73 11 04 be 84 fd df bd c0 0b 49 be
       -0.24346466 -0.12897281 -0.10937026 -0.19633389
0003d0 8b 50 f4 bd e3 70 0d 3e a4 02 13 3e 53 03 06 be
       -0.11929425 0.13812594 0.14356476 -0.13087206
0003e0 55 0b 66 be 23 71 c1 bd a7 a2 32 3e b3 8b 60 3e
       -0.2246526 -0.09445407 0.1744486 0.21928291
0003f0 fb c7 e4 bf e9 a4 f5 3e 6c 3e f1 ba 36 64 9b 3f
       -1.7873529 0.4797738 -0.0018405444 1.2139957

fc1.bias f4 [256]
000000 51 35 23 3f 01 75 33 3e a7 7e 62 3e b0 cb 28 3f
       0.6375323 0.17525102 0.22118627 0.659358
000010 6f 5e 67 be f0 0b 73 be 56 7a 05 3e 85 9b 1f be
       -0.22594617 -0.23735023 0.13034949 -0.1558667
000020 90 8d 65 be 55 8d 4d 3c 01 e0 c3 3d 71 ea 7c 3d
       -0.22417283 0.012545903 0.0956421 0.06174702
000030 a9 92 42 3e 26 45 49 be bc a9 ba 3e 7e df a1 be
       0.19001259 -0.19655284 0.36457622 -0.31615824
000040 cc 80 28 3d b2 3d 35 3e b0 c0 21 bd 32 c4 45 3e
       0.041138455 0.17699316 -0.0394904 0.19313124
000050 ce 6c 39 bb 34 ce f3 be 67 a6 6b be 26 86 5a bd
       -0.0028293612 -0.47618258 -0.23012696 -0.05335059
000060 a7 d8 11 3f e2 3a 1e 3e 2a 7f 91 3e c9 d4 68 bd
       0.5697121 0.1545215 0.2841733 -0.056843553
000070 59 c3 65 bf d3 f4 63 3e 8a b2 e7 bd 05 82 65 b9
       -0.897512 0.22261362 -0.113133505 -0.00021887578
000080 c6 00 ff bf 9a 30 48 bf 77 27 80 3e df a3 34 bf
       -1.9922111 -0.7819916 0.2503011 -0.7056255
000090 72 e7 f1 3e 8f 51 be bc 08 29 dd bf 6f cf 8d be
       0.4724689 -0.02323225 -1.7278147 -0.27697322
0000a0 18 00 10 be 10 6d 93 3d 51 5f 39 3f d0 ac 1c 3f
       -0.14062536 0.071985364 0.72411066 0.6120119
0000b0 98 08 10 3f 03 cb 73 bd 05 06 cf bd fd 3e 88 3e
       0.56263113 -0.05951978 -0.1010857 0.26610556
0000c0 10 59 4a 3e d8 87 50 be 04 7f 8d bc ff 57 e3 be
       0.19760537 -0.2036432 -0.01727248 -0.44403073
0000d0 3e ba 27 3e 16 38 74 3e af bf 86 be 7b e0 72 be
       0.1637964 0.2384952 -0.26318118 -0.23718445
0000e0 72 59 ba 3d cd 21 09 3d 99 31 84 be ac 05 39 3e
       0.090990916 0.0334795 -0.2581909 0.1806857
0000f0 69 c5 87 3f 34 7b 85 3e cf c2 81 be 26 a9 51 be
       1.060712 0.2607056 -0.2534394 -0.20474681
000100 64 b8 8d bd f9 c0 82 bf c0 e0 1e bd 29 cb 18 3f
       -0.06919935 -1.021514 -0.038788557 0.59685
000110 19 b8 f2 3c d6 48 b3 3e f8 54 97 3d 3d 19 af 3e
       0.0296288 0.35016507 0.073892534 0.34198943
000120 3a 99 aa 3d d1 39 ff be 9c 78 13 3f a1 70 3c be
       0.08330007 -0.49848798 0.5760591 -0.1840234
000130 5e a8 3d bf 1f 2e fd bd 8b e3 fb 3e 0a 1d d6 3d
       -0.7408503 -0.123623125 0.4919704 0.104547575
000140 47 70 05 3f 63 a9 3e 3d b8 2c 77 3e ed 53 66 be
       0.52124447 0.04654826 0.24138153 -0.22492953
000150 6d 40 a2 be d7 25 82 be cb 5f 20 3e 74 b5 26 3e
       -0.31689778 -0.25419495 0.15661542 0.16280156
000160 5a 5d 0f 3e f2 d9 5c 3c 14 25 25 3e f1 69 13 3e
       0.14000455 0.013479697 0.16127425 0.14395882
000170 99 76 37 3e 26 78 41 bf 3d 6c ae 3d eb 9c 62 3e
       0.17916335 -0.75573957 0.085167386 0.22130172
000180 50 c7 8d 3d 7b 17 dc 3b 7e 4b b6 be 02 7e 56 3d
       0.069227815 0.0067166663 -0.3560447 0.052366264
000190 d3 0c dd bd e3 dd 45 3c 1d 8b d9 bd b6 14 2d 3e
       -0.10793462 0.012076828 -0.10622237 0.16902432
0001a0 9a 6d 23 3e e4 2a 48 bf 86 b9 ba 3d 12 35 c9 be
       0.15959778 -0.78190446 0.09117417 -0.39298302
0001b0 8d 87 2c 3e 8b 5e cb bc 58 d6 be 3d f7 d8 e3 bd
       0.16848584 -0.024825355 0.093182266 -0.11125367
0001c0 8f fe 0c 3e 83 5f fd be 30 34 45 be 7b 95 d7 bd
       0.13768981 -0.49486932 -0.19258189 -0.10526558
0001d0 38 ff 36 3e 51 b5 ba 3e 9e 2d 26 be e8 2f 9a 3e
       0.17870796 0.36466458 -0.16228339 0.30114675
0001e0 9c 0b c1 3c 82 7b 02 bf 76 5a 85 3e a9 74 88 be
       0.023565106 -0.5096971 0.2604558 -0.26651505
0001f0 ff a3 8a bd f7 59 7c be d2 9e 18 be 06 bd 6d 3e
       -0.06769561 -0.24643694 -0.14904335 0.23216638
000200 00 15 0e 3f a0 73 b8 be a7 f1 01 c0 08 3a 2d 3e
       0.55500793 -0.36025715 -2.0303743 0.16916668
000210 a2 30 9d 3e 6a 9e 96 bc f4 be f3 3c 85 e6 db 3d
       0.30701166 -0.018386085 0.02975414 0.107373275
000220 1f dd 74 bd 95 b2 d8 be d3 cc 0d bf f4 73 9b be
       -0.05978119 -0.42323747 -0.5539066 -0.30361903
000230 d4 ce 81 be 4e 04 90 be 3e bc af be 68 60 f6 3d
       -0.2535311 -0.28128284 -0.34323305 0.12030107
000240 32 18 fe bd 7b fc 84 3e 62 16 51 bf f1 dd 6f b9
       -0.12406959 0.25973877 -0.8167478 -0.00022875496
000250 c7 44 73 3e 35 ab 73 be 68 8d 88 3e 2b 3d 52 3d
       0.23756705 -0.23795779 0.26670384 0.051327866
000260 81 04 fe 3d 78 bd b2 bf 00 25 91 3e 7c 01 9d be
       0.12403203 -1.3964071 0.2834854 -0.30665195
000270 aa 70 8b bd e3 ae 0b 3d 60 68 41 be 3a 46 36 3f
       -0.06808598 0.03410233 -0.18887472 0.7120091
000280 73 57 53 be c4 2d 24 be 0e 4a 69 3e 40 5b 03 bf
       -0.20638828 -0.16033083 0.22782156 -0.5131111
000290 e1 2d ed 3e 12 59 42 3d ec d0 db 3c 10 57 7a be
       0.46324065 0.047448225 0.02683302 -0.24447274
0002a0 61 37 23 3e 6e ee 58 be 78 fd b2 be d2 a2 b2 3d
       0.15939094 -0.21184704 -0.34959006 0.08722462
0002b0 10 51 e4 be 82 12 4a 3e bd 35 e6 be 9d 0c 7d 3f
       -0.44593096 0.19733623 -0.44962874 0.9884737
0002c0 11 5e 0e be f2 86 ed be b1 49 33 be 98 51 5f 3f
       -0.13903071 -0.46392018 -0.1750858 0.8723388
0002d0 46 a4 a4 be 41 96 b8 3e 9a 73 62 3d ac 3d ea bb
       -0.3215658 0.36052135 0.055286027 -0.007148465
0002e0 8c 9a 7f be 9c 9c 37 3e 2f 62 47 be a3 f6 77 be
       -0.24961299 0.17930835 -0.19471048 -0.24215178
0002f0 10 8d a9 3d b7 90 7e be d5 fb 2c be 86 08 c9 bd
       0.08278859 -0.24859892 -0.16892941 -0.09816079
000300 49 e1 4d 3d e8 d6 7a 3d db 29 7a bd 01 75 60 3e
       0.050263677 0.061240107 -0.061075073 0.21919633
000310 a2 fb bd bd e0 8d 86 3e 9a 59 c5 3e aa 48 3f 3e
       -0.09276511 0.26280117 0.38544923 0.18680063
000320 eb 08 fb 3d f8 81 82 3e 69 e0 7a bd aa 10 2d 3d
       0.1225756 0.25489783 -0.06124917 0.04225222
000330 17 2e 8e 3e 56 45 fc 3e e2 5f 47 bf b1 eb 0c bf
       0.2776954 0.4927165 -0.7788068 -0.55047137
000340 8f 44 1f be 89 80 8c 3e 7d 5f f1 3e 17 4f 35 3e
       -0.15553497 0.27441815 0.47143164 0.17705952
000350 49 fc 83 3d c9 8e 05 3e fe cd 50 3e 0d e5 2b be
       0.06444604 0.1304275 0.2039108 -0.16786595
000360 10 05 e4 3d ea 21 9f 3e d4 f7 6b bf 8b bf 93 3e
       0.11133778 0.31080562 -0.9217503 0.28857073
000370 ff 5e 12 3e 93 b6 9c bd 2e 3a b5 be f6 20 16 be
       0.1429405 -0.07652011 -0.3539595 -0.14661011
000380 9d a5 87 bf ff 56 07 bf 4d a2 60 be 7d 7f 48 bd
       -1.0597416 -0.5286712 -0.21936913 -0.048949707
000390 41 64 d4 3e 43 60 b4 3d 2d 4a 3c be 2b 7f 71 3e
       0.41482738 0.08807423 -0.18387671 0.23583667
0003a0 00 e0 c5 be e8 70 89 3e 57 32 16 bc f6 db b4 bd
       -0.3864746 0.26843953 -0.009167275 -0.08831017
0003b0 19 49 89 be bf ed bb be c4 48 a7 3d ab 07 bd 3b
       -0.26813582 -0.36704823 0.08168176 0.0057687364
0003c0 c3 7a 04 bd 9c c8 c1 3d 2b 04 a3 be 94 45 08 be
       -0.032343637 0.09462091 -0.31839117 -0.13307792
0003d0 1a 8f 90 be 25 7f 2e 3d 6e 48 5b be 6f e4 f3 bd
       -0.28234178 0.042601723 -0.21414348 -0.119088046
0003e0 fc 64 16 bd 58 23 4f be 32 ab a9 bd b1 be 6b be
       -0.0367174 -0.20228326 -0.08284606 -0.23021962
0003f0 b6 07 96 3d 73 18 b6 3e 0b d0 6e 3e 23 1c 2b bf
       0.073256895 0.35565528 0.2332155 -0.6683981

fc2.weight f4 [256, 256]
000000 1d 51 4c 3d 7f 0d 52 3e 20 0b da bc b7 5c e4 3d
       0.049882043 0.20512961 -0.026616633 0.111504965
000010 82 59 14 3e f0 81 13 bd 92 b3 16 bd f9 d6 d0 bc
       0.1448727 -0.03601259 -0.036792345 -0.025493132
000020 8d e1 68 3e ac 77 a4 bc 90 41 3b 3c fc 74 76 bd
       0.22742291 -0.020076595 0.011429206 -0.06017016
000030 95 25 14 bf 3d 53 72 be 90 6e c6 be 1a b4 be bd
       -0.57869846 -0.23664565 -0.38756227 -0.093116954
000040 28 b2 01 bd 46 c6 68 3d d1 af 9d 3d a8 37 33 ba
       -0.031664044 0.056829713 0.0769955 -0.00068366015
000050 70 bc 0d 3c 6a 93 83 bf c3 20 4d 3e 9c d7 1a 3e
       0.008650884 -1.0279362 0.20032029 0.15121311
000060 5a 90 fc 3d 14 70 32 bd 97 ed 6a 3e f9 b8 7a 3e
       0.123322204 -0.043563917 0.22942196 0.24484624
000070 ac 01 43 be 28 b0 a6 3c 92 05 17 bd a5 b3 cd bd
       -0.19043607 0.02034767 -0.036870547 -0.1004403
000080 1e c4 5f 3e 7d 1c 78 bf a4 7b 7b 3d 9d 3c 28 3e
       0.21852157 -0.9691847 0.06139721 0.16429372
000090 bf d2 0b bf 7f 9f 9c bf eb e9 2f 3e 20 17 83 bd
       -0.5461845 -1.2236174 0.17179076 -0.06400895
0000a0 f3 a7 28 bc 20 98 bc 3c c5 ab 8a 3e df 63 34 be
       -0.010293948 0.023021758 0.27084175 -0.17616223
0000b0 e0 f1 85 3e 80 b0 9a ba 66 04 25 3d 22 6b 04 bc
       0.26161098 -0.0011801869 0.040287398 -0.008082183
0000c0 69 91 d2 3d 54 df b1 3c 2f a9 8c be 51 09 29 3e
       0.10281641 0.021712936 -0.27472827 0.1650746
0000d0 0e 75 54 bf 38 f8 de 3c 68 86 07 3d 04 e9 9b bc
       -0.8299111 0.02721797 0.033087164 -0.019032009
0000e0 08 55 83 3c a4 ce f6 3c 58 c6 6e bf 43 1f c8 be
       0.016031757 0.03012783 -0.932714 -0.3908635
0000f0 5b 30 83 be ae 09 38 bc 40 88 5c bc 78 0e b0 3c
       -0.2562283 -0.011232777 -0.013460219 0.021491274
000100 21 38 a8 be 64 af ad bf e2 b9 60 bd 8f 02 91 3d
       -0.32855323 -1.356915 -0.05486477 0.07080566
000110 1c c7 2b bd ad 0f 05 bf 84 4e 8c bc 4f 1c 4d 3e
       -0.041937932 -0.51977044 -0.017127283 0.2003033
000120 b0 52 e5 bb ff 63 17 3f 6d 1c b5 3e 90 45 94 3c
       -0.0069983825 0.59136957 0.3537325 0.018099576
000130 23 b2 9d 3c 2d 37 b9 bc 3d 35 8d bf 3e 51 8c 3e
       0.019249981 -0.022609318 -1.1031872 0.27405733
000140 97 5e eb be 36 10 62 3d 38 0b 59 bc 44 cc 9a bc
       -0.45970604 0.05519124 -0.013247304 -0.01889623
000150 00 d8 ae be 18 58 4b 3d ac 52 e3 3c 34 db 03 3d
       -0.3414917 0.04964456 0.027749382 0.03219147
000160 1b c2 93 bc bf 47 1c bc 18 b7 1f 3c c0 71 90 3d
       -0.018036893 -0.00953859 0.009748243 0.07052946
000170 b8 93 80 bd 3f 88 bc bd b4 30 66 3d 07 71 24 bf
       -0.06278175 -0.092056744 0.05619879 -0.64234966
000180 cb ab c6 bd 4e 26 30 bd 36 8f 97 3e 6e 69 26 3e
       -0.09700736 -0.04300528 0.2960145 0.16251156
000190 24 05 0b bd 88 c7 9e bc 40 c9 7b bc 5c 6f c5 ba
       -0.03394045 -0.019382253 -0.015367806 -0.0015063095
0001a0 22 7e b6 bf 5c b7 b3 3e fb dd ec be c4 64 ae 3e
       -1.4257243 0.3510083 -0.46263108 0.34061253
0001b0 89 e8 44 bf 32 1f fd bd 34 f0 33 3f 78 25 3e 3d
       -0.7691732 -0.12359466 0.70288396 0.04642245
0001c0 00 cb 68 ba 9b 0a f6 be b4 1c c0 3c 46 7c 1e 3d
       -0.0008880347 -0.48054966 0.023451187 0.038692735
0001d0 de 82 b6 3e 34 c3 9a bf 58 bd f3 bc 0f d7 d3 be
       0.3564672 -1.2090821 -0.029753372 -0.41375014
0001e0 64 4c a9 bc 60 15 ec bd ab 3a 73 be a2 0f 01 bd
       -0.020666309 -0.115275145 -0.23752849 -0.03150905
0001f0 26 a6 d3 bd d6 6a c8 bd e8 e1 d0 be cc 5d cc 3c
       -0.10334425 -0.09786002 -0.40797353 0.02494707
000200 34 6a 49 3f 5e 22 8a 3c a8 03 ed 3d 03 8e 85 bd
       0.7867768 0.01686209 0.11572963 -0.06521227
000210 8e 91 70 bd 59 14 34 3f cb 4c ad 3c ea be 66 bd
       -0.05873256 0.7034355 0.021154782 -0.056334414
000220 4c 55 87 bc 21 26 b9 be 20 3f 02 bd 71 0f 48 bf
       -0.016520165 -0.36161903 -0.031798482 -0.7814856
000230 02 ac 08 3d 06 e7 f8 3e c2 47 8e bc c7 5a 1f c0
       0.033367164 0.48613757 -0.017368201 -2.4899156
000240 cc 28 f2 bc a4 a3 cd 3c e6 65 05 bf b4 b6 44 3d
       -0.02956047 0.025102444 -0.5210861 0.0480258
000250 b0 76 7f 3c 9c e7 82 bc 50 e3 0e 3c fa c0 5f 3d
       0.015592262 -0.01597958 0.008721188 0.054627396
000260 d2 45 9d bd b4 be 4e bc 8d 1c 2d bc ee e1 9d 3e
       -0.07679333 -0.012618709 -0.010565889 0.30836433
000270 90 0d c2 3b 08 41 8e 3c 80 d0 19 3c d0 59 d2 3e
       0.005922027 0.017364994 0.009388089 0.41084146
000280 e9 1d 1a 3e a1 ce bf be 90 5a 72 3d 34 93 1b be
       0.15050472 -0.37462333 0.0591684 -0.15192872
000290 02 1f f9 3e 4d a1 a0 be e8 ae 8d bc 26 4b 7e 3e
       0.4865647 -0.31373063 -0.017295316 0.24833354
0002a0 5c 3e f0 3c 40 6c 4b 3b f7 bb e1 bc bc 33 16 bd
       0.02932661 0.0031039864 -0.027555449 -0.03667043
0002b0 02 a1 02 be 40 0b 51 3b b3 a1 4a be d8 d9 3a 3d
       -0.12756732 0.0031897575 -0.19788246 0.04561791
0002c0 96 33 c7 3d 08 a1 de bd 00 6e c5 bc b9 e3 95 3e
       0.09726636 -0.10870558 -0.024100304 0.292753
0002d0 b7 6a 9d be 86 a4 38 bd 28 3d 6f 3d 64 94 ba bc
       -0.3074548 -0.045078777 0.058407933 -0.022775836
0002e0 5a f5 47 be 5b fd 26 be 71 d5 0a 3c 84 46 ac bc
       -0.19527188 -0.16307585 0.00847374 -0.021029718
0002f0 05 a5 8d bd e3 96 22 be 2e c1 0c bd 08 6b 4a bd
       -0.069162406 -0.15877871 -0.034363918 -0.04941848
000300 a4 4d b6 3c 06 83 01 3f af a1 0b be 63 7c 4f 3e
       0.022253819 0.5059055 -0.13635896 0.20262294
000310 d0 e9 f4 bb 10 23 6e bc ca 28 75 bf 3c 61 95 3c
       -0.0074741617 -0.014534727 -0.95765364 0.018234842
000320 d6 52 3a bd 8d 82 28 be 84 37 29 bd 88 89 32 3c
       -0.045489155 -0.16456051 -0.04131271 0.010897048
000330 4a d5 a2 3e d2 6d 60 bf b3 2b af 3d 6b 83 9b 3e
       0.31803352 -0.8766757 0.08553257 0.303737
000340 89 56 19 bf 7e 4b bb 3d 13 a9 ec bd 8d 3b c8 3c
       -0.5989767 0.09145258 -0.11555686 0.024442459
000350 c8 d9 07 bd e9 c5 2f be ba 96 57 3e ff 5f 89 bd
       -0.033166677 -0.1716534 0.21053591 -0.06707763
000360 04 36 35 bd 17 a7 28 bf fa c4 c7 bd 4a 07 d7 3e
       -0.044240966 -0.6587996 -0.09754367 0.4199775
000370 e4 be 72 bd 77 ca e5 3e c6 50 65 bf 5a 49 11 3d
       -0.05926408 0.4488103 -0.89576375 0.035470344
000380 45 93 ea 3d 8b d9 be bd 40 5c cd 3b 80 45 e8 ba
       0.11453871 -0.09318837 0.0062671006 -0.0017720908
000390 c7 b3 37 be 42 91 5b bd a4 8f d8 3c a8 d1 14 3e
       -0.17939673 -0.053605326 0.02643568 0.14533103
0003a0 dd 32 a7 3e 3e d2 10 bf 54 2f 67 3d f7 06 91 be
       0.32655993 -0.56570804 0.05644162 -0.28325626
0003b0 be 1c a3 bd 28 fc d2 be 9d 09 fd be d1 22 8d be
       -0.079644665 -0.41208005 -0.49421397 -0.27565625
0003c0 24 3e 09 bd fd 7b c3 3e f9 5a 7f bd 62 e6 4c 3f
       -0.033506528 0.38180533 -0.062342618 0.80039036
0003d0 2c 87 df 3c 0c 7a 7f 3d e5 37 10 bd 16 b8 20 bd
       0.027286135 0.062372252 -0.035209555 -0.039238058
0003e0 a6 2d 2a bd 74 90 cf 3c d0 93 a6 3c 85 e1 f7 3e
       -0.04154744 0.025337435 0.020334154 0.48414245
0003f0 90 62 60 bc d0 d1 74 bd 64 f4 e9 bc 09 72 b8 be
       -0.013695374 -0.059770405 -0.028558917 -0.36024502

fc2.bias f4 [256]
000000 22 3e 81 bc 58 fa 02 3f 01 5d 77 3e 6b 1d a8 bd
       -0.015776698 0.51163244 0.24156572 -0.08208736
000010 86 dc a3 3e c8 94 68 3d 85 ff d0 3d 36 bd 08 be
       0.32004184 0.056782514 0.102049865 -0.13353428
000020 4b 71 26 3e e8 43 07 bf ca e2 03 be 84 14 c0 3b
       0.16254155 -0.5283799 -0.12879482 0.0058618207
000030 3e cc 37 bd 0a e5 45 bd 96 e8 87 3f 58 04 95 3d
       -0.044872515 -0.04831413 1.0617855 0.07276219
000040 90 e8 90 3f 06 0a 95 be f4 b4 db bd a8 8b e8 3e
       1.1320972 -0.2910921 -0.107278734 0.4541905
000050 74 47 95 bc 06 29 85 be b6 cd 34 bb 28 13 a4 bd
       -0.018222548 -0.2600786 -0.0027588434 -0.08011466
000060 1f d3 08 be fb be ed bd 14 bb fe bc 27 00 43 bf
       -0.13361786 -0.11608692 -0.031095065 -0.7617211
000070 06 09 1c 3d 27 03 14 be ff d3 54 bd fa d1 5d 3e
       0.038094543 -0.14454328 -0.051959988 0.21662131
000080 b7 ff 99 bd 4a 18 a0 bd 02 e0 0b 3f 32 d2 9b be
       -0.07519477 -0.07817133 0.54638684 -0.30433804
000090 61 f9 d0 bd 8d 49 29 be f6 dc a8 bd 34 84 c1 3e
       -0.10203815 -0.16531964 -0.0824527 0.37796175
0000a0 a3 cd 0a bf 20 79 89 3e 07 d1 e1 bd ee 0c 20 bf
       -0.54220027 0.26850224 -0.11026197 -0.6251973
0000b0 02 6e 93 bc c0 28 71 bd 35 53 85 bd 5a f5 75 bd
       -0.017996792 -0.058876753 -0.06510011 -0.06004844
0000c0 cd 9a 63 3e 62 26 42 3e e7 c1 15 3f 64 1c 83 3d
       0.2222702 0.18959954 0.58498996 0.064018995
0000d0 8f 45 1b 3c 4d cc c9 3e 81 35 b1 be 0e 68 67 be
       0.009477033 0.39413682 -0.34611133 -0.22598287
0000e0 2b ba e0 3e 85 d1 c7 3e 95 a6 89 bc 2b 17 98 be
       0.43892035 0.39027038 -0.016803065 -0.29705176
0000f0 07 c0 17 be 4e 9b 94 3d fb c5 4a 3d 02 48 9c bc
       -0.14819346 0.072561845 0.049505215 -0.019077305
000100 64 6f ed 3e 61 7e fd 3e 1b f2 ac be 5e fd 9e 3d
       0.46374047 0.49510482 -0.33778462 0.0776317
000110 ae 99 44 3f dd 50 b1 bd 95 c7 20 be a4 3f 6d be
       0.76796997 -0.086580016 -0.15701135 -0.23168808
000120 0a 56 ba bd 34 88 45 be fc be 3d bf 36 0a 99 bd
       -0.09098442 -0.19290239 -0.74119544 -0.07472651
000130 0c b3 c8 3f 47 0f 6f 3e de dd 10 bd e2 76 54 3e
       1.5679641 0.23345672 -0.03536784 0.20748475
000140 48 06 c2 bd 1a 7c 5e be f6 73 0a 3d 0a 2a 20 bd
       -0.09473854 -0.21727028 0.033801995 -0.03910259
000150 5e 70 84 3f 16 ac 0b 3f 03 ef 81 3f 33 69 81 3e
       1.0346792 0.5455946 1.0151066 0.25275573
000160 3c 50 0f 3e 1a c0 9d bc b1 34 2d bd 58 97 73 3f
       0.1399545 -0.01925664 -0.04228658 0.9515281
000170 83 27 4a bd 20 d2 63 3f 67 14 27 3f 1c 1f 14 bd
       -0.049354088 0.889925 0.65265507 -0.03616248
000180 4e 38 bf 3e 30 f2 06 3d c5 fd 3d bd 64 00 9b 3f
       0.37347645 0.03294581 -0.04638459 1.2109494
000190 16 8e 13 bd d3 81 a0 3b c4 c0 b6 3f 32 19 ae 3e
       -0.036024176 0.0048982888 1.4277577 0.34003597
0001a0 3d 23 d4 bd ba bf 06 bf c3 0a 83 bd 11 f8 cb bd
       -0.10358284 -0.526363 -0.06398537 -0.09959424
0001b0 a9 64 44 3f f4 0e d2 3e ef f0 bd 3f 4a 0a 0a bf
       0.76716095 0.41027033 1.4839152 -0.5392195
0001c0 a6 04 9e bd fc 3f c7 bd 2c 3c b0 3e 02 b9 e1 bd
       -0.0771573 -0.09729001 0.34420907 -0.110216156
0001d0 08 d2 ed bd 57 00 dd be a3 b1 f8 3d 71 26 70 bd
       -0.11612326 -0.43164322 0.121432565 -0.05863041
0001e0 42 32 9f 3f 60 e0 0a 3f bd 53 a0 3e 46 ae 5c 3e
       1.2437212 0.5424862 0.31313887 0.21550855
0001f0 6a 43 b4 3f 58 75 6c b9 1e 5d 4a 3e 24 9f 34 bf
       1.4083073 -0.00022550428 0.19762084 -0.7055533
000200 fd 05 18 3d a6 ae 01 be 61 50 f3 bc 0e bd 38 3c
       0.037115086 -0.1266428 -0.029701414 0.011275543
000210 88 74 ca bc 17 61 47 bd 99 c0 92 bd 61 4a 11 c0
       -0.02471377 -0.048676576 -0.07165641 -2.2701647
000220 35 a1 66 be fb c8 05 bc 56 9d 3a bd 57 88 a8 bd
       -0.22522433 -0.008165593 -0.045560203 -0.0822913
000230 b3 dd 2e be 76 85 36 bd f9 0c f4 bd fc e5 7a be
       -0.17076759 -0.044560872 -0.11916537 -0.24501795
000240 4a fe 11 bc 65 b6 a6 3f d0 c5 45 bf 74 59 17 bf
       -0.008910725 1.3024412 -0.7725496 -0.5912087
000250 10 66 97 bd 02 4b 23 3e b3 be 60 bf 7c bb e2 be
       -0.07392514 0.15946582 -0.87790984 -0.44283664
000260 f6 b1 98 3f f2 36 85 be f9 b7 84 3f a2 7c 5c 3f
       1.1929309 -0.26018482 1.0368644 0.86127675
000270 08 3f 21 3c 01 ee fb 3d 36 8c 84 bc fb 46 7f bd
       0.009841688 0.12301255 -0.016180139 -0.06232355
000280 06 77 95 3e 34 dc 02 3f a3 37 93 bd b5 31 3e 3f
       0.2919237 0.51117253 -0.07188346 0.74294597
000290 7d a5 dd 3e e4 3d 5f bd 29 a8 d2 bd 8e fe b0 bd
       0.4329032 -0.054502383 -0.1028598 -0.086423025
0002a0 87 20 33 3f d3 e8 88 bd 00 9a 7e be e1 5b 62 3f
       0.6997151 -0.06685033 -0.24863434 0.88421446
0002b0 10 75 a8 3e b2 c4 32 3f 3e 40 d6 3f c2 05 cf 3f
       0.32901812 0.69831383 1.6738355 1.6173632
0002c0 e3 e0 9c bb d5 ac 18 3f 54 a4 1d be ec 04 a3 bd
       -0.004787551 0.5963872 -0.15394717 -0.07959923
0002d0 58 d8 bd bd cb 77 2a bc 15 4b 82 bc 17 a2 80 bd
       -0.0926978 -0.010404537 -0.015904943 -0.06280916
0002e0 e4 08 8d bf bb 13 cf bd b2 5b 97 bd 47 47 0c 3f
       -1.1018338 -0.10111185 -0.07390536 0.5479626
0002f0 8a 1d a4 be d0 75 c8 3c 61 10 e8 3e be 41 8f 3d
       -0.32053787 0.02447024 0.45324996 0.06994961
000300 3e 94 11 be da 39 81 bd d9 28 dd bd cf 6e 3e be
       -0.14216706 -0.063098624 -0.10798807 -0.18596958
000310 35 5f 7d bd 03 52 fa bd 80 eb f1 be 92 01 91 3d
       -0.061858375 -0.12222674 -0.47249985 0.07080378
000320 fe 16 8e 3e f5 98 89 3f 56 bc 22 bd d1 e0 09 bd
       0.27751917 1.0749804 -0.039730392 -0.033661667
000330 d2 0e 37 bc 55 ec 18 be 81 0e 54 3f 3a c5 42 be
       -0.011172967 -0.14933904 0.8283463 -0.19020548
000340 da 8f c6 3e fb 66 55 3f e5 72 ec 3d 65 e9 55 bd
       0.38781625 0.8336026 0.11545352 -0.052224535
000350 e7 8f 5c 3f 24 cb a6 3d 65 f1 13 be 74 43 87 3e
       0.8615708 0.08144215 -0.14447553 0.2641865
000360 92 71 43 3e e6 84 d7 bd cf 47 73 3e 21 c8 2d be
       0.19086292 -0.10523395 0.23757862 -0.16970874
000370 70 6b 24 3f 95 6b bc bc ec 54 ed 3c fb ab 82 bd
       0.64226437 -0.023000518 0.028971158 -0.06380459
000380 eb e7 9b be 0a 6f 1d 3e 17 d6 87 be 73 3c 9f be
       -0.30450377 0.1537439 -0.26530525 -0.31100807
000390 2c 9b 33 bd 50 f5 a9 3d 3e 87 57 3f 9f 24 8b bc
       -0.043849155 0.08298743 0.8419074 -0.016985236
0003a0 e9 73 31 bd ca 14 d1 3e b3 4e c5 3c e1 0f 32 3f
       -0.04332343 0.40836173 0.024085378 0.6955548
0003b0 65 74 01 bf 0f de 86 3e 01 88 29 bf 14 52 2a 3f
       -0.5056823 0.26341292 -0.6622315 0.6653149
0003c0 83 c5 bf be 59 86 aa be e7 2e f1 3d 8b 21 9d 3e
       -0.37455377 -0.33305624 0.11776524 0.30689654
0003d0 79 bb 4e bf ec 04 d4 bd 44 73 66 3d 78 52 04 be
       -0.8075481 -0.10352501 0.05626227 -0.12922084
0003e0 d3 c3 fb 3b 5f 5b 66 3f a6 ee 7f 3f 5e 1e 8c bd
       0.007683256 0.8998317 0.99973524 -0.068417296
0003f0 e1 7a 27 bd 6c 16 2d be 93 e0 94 be 6e df 55 3f
       -0.04088867 -0.16903085 -0.29077587 0.8354405

fc_mean.weight f4 [2, 256]
000000 ac 97 1b 3e 39 a8 17 be 17 ae b2 3e e2 7c 77 be
       0.15194577 -0.14810266 0.34898445 -0.24168733
000010 e5 f6 d9 bd fe 13 e0 3e a1 e9 9b 3f 34 6a b2 be
       -0.106427945 0.43765253 1.2180673 -0.34846652
000020 c5 1e cd 3e f1 1b 09 3e 53 83 e4 bb 7d e0 a9 3b
       0.40062538 0.13389565 -0.006973663 0.005184232
000030 f4 33 3c 3d 68 f5 42 bd 1a fa a4 be f0 d9 de be
       0.045947984 -0.04759732 -0.32222062 -0.43525648
000040 ff 30 d2 be 08 2b ab 3e cb fb 3b 3d 9b 10 4a 3e
       -0.41053006 0.33431268 0.045894425 0.19732897
000050 e8 09 bd be 8d 14 a8 3e ac 15 2e bd 6d 85 df bc
       -0.3692162 0.3282818 -0.042501137 -0.027285302
000060 60 73 07 3f 07 7f a4 3c 26 6b 88 bd ed 1a 03 3e
       0.52910423 0.020080103 -0.06661062 0.1280324
000070 c9 a5 5d be 24 7c 81 bd 2a 8a 0b bd 3c 46 7f 3d
       -0.21645273 -0.06322506 -0.03406731 0.06232284
000080 6b 06 02 3d cd 98 36 bc 8a 5e f9 bd 71 cb 51 bd
       0.031744402 -0.011144829 -0.12176235 -0.051219407
000090 0c 86 1b 3e b1 e6 a3 3e 7b 34 ce bc 8e e2 98 3d
       0.15187854 0.3201194 -0.025171509 0.07465087
0000a0 1e 8f 90 be 9b 68 d8 3d 08 80 30 3f 29 50 85 3e
       -0.2823419 0.10566827 0.6894536 0.2603772
0000b0 8e e5 33 bd a1 fd 91 bd 31 39 9a 3c ca 9c b9 bd
       -0.043920092 -0.07128454 0.0188261 -0.09063108
0000c0 c2 cc e9 3d 7f cc 00 3e c3 3e 77 3f 4f 6f 83 3e
       0.114160076 0.12578009 0.9658014 0.2567086
0000d0 f9 c4 09 bd 11 24 29 3f d3 57 de 3b 8c c1 2e 3e
       -0.033635113 0.6607066 0.006785372 0.1706602
0000e0 55 4f 90 3b 58 ea 3b 3e 85 c1 1a bd a9 de 84 be
       0.0044039884 0.18351114 -0.03778221 -0.25951126
0000f0 de aa 92 be e8 76 c0 be a6 3b 57 3e 7e 71 62 3c
       -0.28645986 -0.37590718 0.21018848 0.013821004
000100 cd 73 54 3c 5f 86 9d bf 8d 7f 51 3f 11 a4 56 3e
       0.012967062 -1.2306632 0.8183525 0.20961024
000110 4f 27 b9 3b b2 83 83 bd 08 ba 0d bd 1a f1 23 3d
       0.005650438 -0.06421603 -0.03460124 0.040024854
000120 bc 30 cb 3c 33 7f 89 3e f6 1a 7e 3e f5 b5 a3 bc
       0.024803512 0.26854858 0.24814972 -0.019984225
000130 d4 c7 af be aa bf 0a 40 a9 5b b0 bc 3a d9 33 3d
       -0.34332144 2.1679482 -0.021528082 0.043908335
000140 9e a7 af bc 55 a0 8f 3e ff fc c6 3c 82 72 a9 bd
       -0.02144223 0.2805201 0.02429056 -0.08273794
000150 f1 48 dd 3d df 4e 22 3f a1 a6 7e 3d 59 a9 b2 3c
       0.10804928 0.634016 0.06217063 0.021809267
000160 2c 5d 8d bf 11 94 64 bd 45 ea b7 3d d3 ca dc be
       -1.1044059 -0.05580527 0.0898023 -0.43123493
000170 03 ae 1c bd 22 54 3f be 85 06 82 be 64 fc 8c be
       -0.038251888 -0.18684438 -0.253956 -0.2753631
000180 a8 b8 09 be f3 1d 98 3d 73 87 59 3e 55 07 43 be
       -0.13449347 0.07427587 0.21243076 -0.19045766
000190 98 ed 68 bc 48 51 25 3e d3 12 64 be 37 f7 bb be
       -0.014216803 0.16144288 -0.22272806 -0.36712047
0001a0 c2 ce 35 bb ff 64 52 be c5 f1 b6 3c 68 52 84 bb
       -0.0027741645 -0.2054634 0.022332082 -0.004038144
0001b0 e2 fa ac be b4 99 7f be d1 5e fb bd 1f 7a 0a be
       -0.33785158 -0.24960977 -0.12273944 -0.13523148
0001c0 9c 16 a8 bb 77 0f a8 3c 7b f4 6a be eb d5 9a be
       -0.0051296484 0.020515187 -0.22944824 -0.3024133
0001d0 a8 31 11 3d 5d 9e 95 3d a7 e2 d4 bd 83 4d c9 be
       0.035447747 0.07305596 -0.10394793 -0.3931695
0001e0 91 78 94 bd 90 17 9f bf f4 d9 0d 3f d1 96 07 3e
       -0.07249559 -1.2429066 0.55410695 0.13241126
0001f0 c2 40 44 bc 62 4c 28 bd 70 14 15 3f 7b 27 a7 3e
       -0.01197833 -0.04108847 0.5823431 0.3264731
000200 da f3 7a 3e 1d 16 07 3f 71 53 69 bc ab 29 5d 3c
       0.24507084 0.5276812 -0.014241085 0.013498704
000210 92 8d 91 3a 5a a3 ec bc 5c 70 3b be c5 5c 9b bc
       0.0011104813 -0.028886486 -0.1830458 -0.018965134
000220 cd fa d5 3c cd 91 16 3f 8b 44 57 3d 1c 1b c3 3c
       0.026120568 0.58816224 0.052555602 0.023816638
000230 b7 a1 c6 bb 3d b8 8f 3c 9b 87 54 3e fe b2 fd be
       -0.0060617584 0.017543906 0.20754854 -0.49550623
000240 45 d9 b1 bd 90 35 3b be b8 34 6a bd 9c 33 27 bf
       -0.08684019 -0.18282151 -0.057179183 -0.65313125
000250 38 10 4a 3d 0b ce 38 bf 87 27 98 be 7f c5 0b bf
       0.049331874 -0.72189397 -0.29717657 -0.5459823
000260 17 e0 b5 bd f0 92 80 3e c7 ec 07 be ac 5c e8 3b
       -0.08880632 0.25112104 -0.13273917 0.0070911255
000270 dc 5c c4 3e 57 7d 0d bf 63 64 01 3d df d2 83 3d
       0.38352096 -0.5526938 0.031589877 0.06436705
000280 bc cb da 3f fe 60 86 be e4 5e 45 bd a1 e6 9d be
       1.7093425 -0.26245874 -0.048186198 -0.30840018
000290 e2 05 bc 3d ab c2 3d 3d 4f 64 90 3c 70 a9 6c 3c
       0.091808096 0.046328228 0.017625956 0.014444694
0002a0 f3 0c cc 3e 35 de 16 3d 4b 30 89 be ff 21 26 bf
       0.3985363 0.036833007 -0.26794657 -0.64895624
0002b0 1c 0d 19 3e 5d 8d be be eb dd 66 be 40 16 f6 be
       0.14946407 -0.37217227 -0.22545592 -0.4806385
0002c0 df 64 6a 3e 3c 7a 9f 3d 8d 63 3c 3c 97 3b d1 3c
       0.22890042 0.07786986 0.011498344 0.02554111
0002d0 ff 37 9c be 22 9d 03 bc a2 ba b4 be c3 60 e6 3d
       -0.30511472 -0.008033069 -0.3529864 0.112489246
0002e0 be a7 5f 3d ab ff 80 ba 5a 6b 88 3d d9 18 e3 be
       0.05460333 -0.000984182 0.06661101 -0.44354895
0002f0 0d 8b 59 be b7 df bf 3e 58 b9 75 be 70 92 35 3e
       -0.2124445 0.37475368 -0.23996484 0.17731643
000300 64 fb 3b 3e 4b 58 14 3d d4 31 a6 ba 5a c4 93 3d
       0.18357617 0.036217015 -0.0012679645 0.072151855
000310 3c be 2e 3c 5b 51 9e 3d 55 f4 db 3e ce 39 1d 3f
       0.010665473 0.07730361 0.42959848 0.6141633
000320 29 67 73 3f 38 6e c2 be 8a a3 6e 3d 84 31 16 bd
       0.95079285 -0.37974715 0.05826143 -0.036668316
000330 30 fa dc 3a 06 a7 03 3e 43 b0 2f bd 0d 67 16 3f
       0.001685923 0.12856683 -0.042892706 0.58750993
000340 f8 1f cb be 33 e5 99 3d e1 3d ae 3e 5d 5f 1f 3d
       -0.39672828 0.075144194 0.34031585 0.038909305
000350 7f 70 c1 3d d1 7e b1 3d 68 47 36 bf b3 4c 04 bf
       0.09445285 0.086667664 -0.7120271 -0.51679534
000360 de 22 3c 3e f7 db ee 3e 3c 05 ee bc e4 37 f9 3d
       0.18372676 0.46652195 -0.02905523 0.121688634
000370 17 f3 06 be a1 13 86 bd 9d 2f ae bb 5c f9 f4 bc
       -0.13178669 -0.06546713 -0.0053157345 -0.02990406
000380 0e 5d 19 be 6c b2 b5 be 53 48 ec 3e 71 9e 45 3e
       -0.14976904 -0.35487688 0.4614893 0.19298722
000390 48 fb 12 be 8c af 9a 3e df 47 a0 bf 3d 1e 74 3c
       -0.14353669 0.30212057 -1.2521933 0.0148997875
0003a0 1e db 10 bd 65 0e c8 be 28 3a e9 bc ab 0e 73 be
       -0.035365216 -0.39073482 -0.028470114 -0.23736064
0003b0 44 56 a9 3e 86 c7 03 3d 71 e8 14 bd f1 94 b2 bd
       0.33073628 0.032172702 -0.036354486 -0.087198146
0003c0 07 d3 27 3e 83 d4 a2 3e 74 5f d2 3f df d7 8f be
       0.16389094 0.3180276 1.643538 -0.28094384
0003d0 05 b8 56 3d 9e 19 ad bd 0c 97 65 3e 98 94 95 bc
       0.05242159 -0.08452152 0.22420901 -0.018259332
0003e0 18 08 a1 be 75 22 5a be 42 bb a8 be 9c 55 9c bc
       -0.31451488 -0.21302207 -0.32955366 -0.01908379
0003f0 bb 22 89 be 0f 80 b4 3e fa 16 82 3e 72 37 a7 bd
       -0.2678431 0.3525395 0.25408155 -0.08164872

fc_mean.bias f4 [2]
000000 5b 53 3c 3f ab 75 1c bf
       0.7356469 -0.6111705

fc_logstd.weight f4 [2, 256]
000000 4a 84 8c 3c dd a7 b4 3c d5 d6 98 bc 70 aa 81 bc
       0.017152924 0.0220527 -0.018657127 -0.015828341
000010 99 bd 73 3c 1f 58 ce 39 28 96 5e 3d 8a 67 0c 3d
       0.014876747 0.00039357037 0.05434242 0.03427843
000020 34 08 85 bd d3 07 a1 3b 9b 86 81 bc a5 73 bd ba
       -0.06495705 0.004914263 -0.015811255 -0.001445402
000030 87 1b a4 3b 66 b0 00 bc 2a 97 5e 3c 8b 4e 7e 3c
       0.0050081643 -0.007854557 0.013585845 0.015521656
000040 0a 60 a5 3b 4c 4c 6b 3c b6 84 9a 3c b8 1c 00 3b
       0.005046849 0.014361452 0.01886211 0.0019548368
000050 b3 c4 d2 3c 7b 4e 86 3c a3 93 36 bd 7b e3 29 bc
       0.02572856 0.016394844 -0.04457439 -0.010369177
000060 03 92 ba 3d ba 45 4f 3c 53 e0 94 3c be 70 9a 3c
       0.09109881 0.012650901 0.018173372 0.018852588
000070 bf cf 33 3b 79 17 7a b9 22 17 cd bc 09 4b 0f 3c
       0.0027437059 -0.00023850602 -0.025035445 0.008745917
000080 f5 39 9d 3b ed e3 cf bc 15 5d c0 bc 85 0b b2 ba
       0.004798169 -0.025377238 -0.023481885 -0.0013583755
000090 c1 75 5f bc b7 d1 f3 3b 65 8d a3 3c 92 57 8a ba
       -0.013638915 0.0074407714 0.019964883 -0.0010554662
0000a0 69 57 87 3c ab fb 0f 3c e0 aa bc 3b 51 34 25 bd
       0.016521173 0.00878803 0.0057576746 -0.040333096
0000b0 3a c6 79 3c 03 c7 d8 3c 05 af 14 3d 97 38 a6 bb
       0.015245015 0.026462084 0.036299724 -0.005072664
0000c0 75 f1 3e bb ad 6a 02 3c 0a c6 eb bc 84 ec 58 3d
       -0.0029135619 0.007960004 -0.028780956 0.052959934
0000d0 32 5a 6f bc d8 c3 95 3c c7 79 4c 3b c9 bb 02 3c
       -0.014608907 0.018281862 0.0031200515 0.007979342
0000e0 17 09 88 3b bf 58 82 3c ad 61 9f 3c c0 a9 2b bb
       0.004151474 0.015911458 0.019455755 -0.0026193708
0000f0 4b 72 0e bc a1 ab 46 3d 22 b0 f1 3c 24 e7 06 bd
       -0.008694242 0.04850352 0.029502932 -0.032935277
000100 13 12 72 3c 34 a6 8a 3e 44 a9 80 bd 77 a9 27 3d
       0.014774817 0.27079928 -0.06282285 0.0409331
000110 41 c1 5c 3b 7a d8 6d bc 40 75 97 bb c8 7a 70 3b
       0.0033684524 -0.014516944 -0.0046221316 0.0036694277
000120 d3 5c 23 3d 15 04 3d bb b6 a4 73 bb c7 3f 64 bb
       0.039883446 -0.0028841544 -0.0037177033 -0.0034828053
000130 92 ef 43 3c c9 57 bf bc 0b 90 93 bb 24 7b aa 3b
       0.0119589735 -0.023357289 -0.0045032552 0.005202668
000140 27 c4 7d bc a3 21 e3 3c 55 70 a0 3c 91 5c a7 bb
       -0.015488661 0.027726 0.019584814 -0.0051074703
000150 ee 66 57 3b 48 25 cf bb 9e 16 2e bc ec 48 7e 3b
       0.0032867747 -0.006321583 -0.01062551 0.003880079
000160 45 6f 78 3d d0 b7 ff bc f4 c8 3c 3b f1 39 7c bc
       0.06065299 -0.031215578 0.00288063 -0.015394674
000170 c9 9e 44 bc 42 da 8a 3b 49 47 11 bc aa f9 08 3c
       -0.012000748 0.004237444 -0.008867093 0.008360306
000180 64 06 0a bc f2 8f 56 bb f8 57 26 3d c1 25 6d 3b
       -0.008424375 -0.0032739607 0.040611237 0.0036185833
000190 50 c8 10 bd 21 fe bb 3a fe f6 db ba 7b cf 67 3d
       -0.035347283 0.0014342704 -0.0016781983 0.056594353
0001a0 6f 3e 4f 3b 72 c5 07 3d 9b 2f a7 3c ca 13 3b bc
       0.0031622907 0.033147283 0.020408442 -0.011418292
0001b0 df 11 11 bc 87 34 be 3b de 7e ff bb 04 cd 15 3c
       -0.008854358 0.0058046016 -0.007797106 0.009143118
0001c0 7a 32 38 bb b0 7b 9e 3c 02 90 02 bd 6c 3e 57 3b
       -0.0028106258 0.019346088 -0.031875618 0.0032843603
0001d0 57 6d 1f 3c 44 85 bb bb 9e 4c 8d 3c fc c4 6a 3c
       0.0097306585 -0.0057226736 0.017248448 0.014329191
0001e0 b6 83 ad 3a e5 5e 10 3d c0 1a eb bb 71 db 88 3b
       0.0013238105 0.03524675 -0.0071748197 0.00417655
0001f0 1b 98 cb ba dc 82 87 bb f8 b1 b4 3c e0 83 e5 3c
       -0.0015533002 -0.0041354727 0.022057518 0.028016984
000200 be fa b2 3c d2 c3 dc 3b 7c e9 16 3d 82 18 aa 3c
       0.021848079 0.006737211 0.03684376 0.02076364
000210 61 36 3a 3b d7 77 ae bc 56 79 c8 bb 28 80 24 ba
       0.002841376 -0.021297378 -0.00611798 -0.00062752
000220 b2 71 89 39 63 e7 e5 3b f2 cb 9b 3c 00 2c 5e bc
       0.00026215386 0.007016109 0.019018147 -0.013560295
000230 a8 4d 6e 3b d1 e4 b0 3c 44 f7 af bc 50 b6 57 3d
       0.0036362205 0.021593483 -0.02148021 0.0526641
000240 1b 49 9e 3c 42 ca 4d ba ef d4 f2 3a 74 8e cb 3c
       0.019321969 -0.0007850268 0.0018526594 0.0248482
000250 fb 44 70 bc 41 6e ad 3c 23 69 0c bc 9c 86 27 bb
       -0.014664884 0.021170737 -0.008569988 -0.0025562411
000260 f4 ab df 3b a6 12 ff 3b 8e 86 97 bb eb 6b 71 3b
       0.0068259183 0.0077842055 -0.0046241945 0.0036838006
000270 9b 2d ba bb 43 0c 02 3a 2d 8f ac 3c 97 38 9b 3c
       -0.005681706 0.00049609336 0.021064365 0.018947883
000280 33 c0 68 3d 1b 21 49 3e 7c 2c 06 3d 29 ee 5a 3c
       0.05682392 0.19641535 0.032757267 0.013362446
000290 f6 3f 66 3c c4 ef 14 3c 37 77 d0 3a e2 9f ac 3c
       0.014053335 0.009090368 0.0015904669 0.021072332
0002a0 13 c7 8c bc 87 91 32 3d 64 c9 7b 3c 0e e0 c5 bc
       -0.01718477 0.043595817 0.0153678395 -0.02415469
0002b0 2b 86 49 bb 9d 74 21 3c 5a 8c 67 bb 92 7c 49 3b
       -0.0030750136 0.009854463 -0.0035331459 0.0030744416
0002c0 c3 6e 61 3a 54 8d b3 3c 7b a8 c7 3b 07 a0 4b bc
       0.00085995736 0.021917976 0.0060930825 -0.01242829
0002d0 14 39 62 3d 5e 0e 9c bb 64 65 57 bb c7 85 7c ba
       0.055230215 -0.004762455 -0.003286683 -0.00096329715
0002e0 2b 1f a9 bb f4 37 05 bc 9a 84 b8 3a 84 02 8e 3c
       -0.005161186 -0.008131016 0.0014077604 0.017335184
0002f0 36 69 b4 bc 8c 89 7c 3c 7a de 33 bc 11 5f 5b 3b
       -0.022022825 0.015413653 -0.0109783355 0.0033473412
000300 61 ae bd bb 9a a4 3c 3c ee 45 9d 3c 59 e3 2c 3c
       -0.00578861 0.011513853 0.019198384 0.010552251
000310 1f 5d 96 bc 41 e2 54 3b f8 ab f1 bb 8a fb 8a 3d
       -0.01835495 0.003248349 -0.0073752366 0.067862585
000320 59 70 9b 3e 5f 17 2a 3c ae 0c 79 bc 37 ed e1 3c
       0.30359152 0.010381549 -0.015200777 0.027578933
000330 ac 25 c8 3c 48 78 00 3c ff e2 c6 3a aa 60 63 3a
       0.024432026 0.007841177 0.0015173851 0.0008673767
000340 3a 05 64 3b 1d d4 aa 3c c0 d2 a9 3b 3a c5 5c 3c
       0.0034793154 0.020853097 0.005182594 0.013474757
000350 42 de a3 3c 71 5a ba 3b 82 d9 dc bc dc 23 25 3d
       0.020003442 0.005687051 -0.026959185 0.0403174
000360 fc e1 0e 3b 73 12 4e bc cf 87 c7 3b ec 4e 11 3d
       0.0021802178 -0.012577641 0.0060891877 0.035475656
000370 d2 54 07 3c c6 e0 c3 bc ae ea 2e 3c a2 74 68 3c
       0.008259969 -0.023910891 0.010676069 0.014187964
000380 90 c4 be 3b 3a 77 19 3b 6e 20 78 39 a3 2f 57 3c
       0.005821772 0.0023417012 0.00023663204 0.013133916
000390 6f 11 9a 3d de 07 99 bc ee 2f 99 bd 37 6e 56 3a
       0.075228564 -0.01868051 -0.07479845 0.00081798754
0003a0 87 a3 69 3c 32 54 25 3c fb bd ad bc d0 a0 02 b8
       0.014260179 0.0100908745 -0.021208754 -3.1144184e-05
0003b0 57 ba 00 bc 36 73 05 3b 99 d2 2b bc 00 07 a8 bc
       -0.007856927 0.002036286 -0.010487222 -0.02051115
0003c0 5b 6e 58 3b 7c 1f 66 bc c6 5f 5a 3d 38 8e 52 bc
       0.0033024761 -0.014045592 0.053313993 -0.01285129
0003d0 c5 97 15 3c 66 56 f2 ba e1 00 43 3c aa 59 76 3d
       0.009130423 -0.0018488884 0.011902065 0.060144104
0003e0 60 d3 02 bc 15 5f b9 3b d2 49 45 bb ea ee 8b b9
       -0.007984966 0.0056570866 -0.0030103815 -0.0002669015
0003f0 4d ac 4f 3c 78 16 0a bd 89 ec 5c bd 0e 92 94 3c
       0.012675357 -0.033712834 -0.053936515 0.01813605

fc_logstd.bias f4 [2]
000000 8f bc 0f 3e 3d 03 57 3e
       0.14036773 0.20997329

fc1.weight f4 [256, 16]
000000 37 8c b2 be b3 22 47 bd 60 f9 7c bd 7b 64 e2 3e
       -0.348726 -0.048617076 -0.06176126 0.44217286
000010 13 fc b6 3e d0 5b 41 3f 41 d5 4e bf b3 37 9e bf
       0.35739192 0.7553072 -0.8079415 -1.2360748
000020 05 27 27 c0 b1 65 7b c0 a0 a9 2e be 63 ba 55 be
       -2.6117566 -3.9280818 -0.17056894 -0.20871882
000030 14 c8 3d 3e 70 7c 3f bc db 21 78 be 0f 14 2b be
       0.18533355 -0.011687383 -0.24231665 -0.1670687
000040 0b 56 c4 be 95 2e 8b 3f 01 ae 8f bc 67 27 ee 3f
       -0.38346896 1.0873591 -0.017539026 1.8605775
000050 5a 3e 8b be 37 98 cc 3f a7 42 a6 c0 8d 78 af 3f
       -0.27196008 1.5983952 -5.1956363 1.3708664
000060 e0 18 de 3f b1 d2 03 c0 db 59 3c 3d ac 96 78 3c
       1.7351341 -2.0597346 0.04598413 0.015172642
000070 53 e3 7b 3e 4f 74 a9 be f3 95 95 3c 78 47 58 3c
       0.24598436 -0.3309655 0.018259978 0.013200633
000080 5b e9 22 3f 97 b3 ad be eb 11 02 bd f5 5e 6c 3f
       0.6363732 -0.3392608 -0.03175537 0.9233239
000090 8b 64 35 3f 1b a0 19 3f 25 84 52 c0 ce 85 c3 c0
       0.7085654 0.60009927 -3.2893155 -6.1100836
0000a0 3b 28 d1 be 89 5a 3f c0 31 90 37 3d ab f3 02 bd
       -0.40851006 -2.9899008 0.044815246 -0.03197066
0000b0 a8 98 27 be c8 eb 40 3e fa 18 8a 3d ba a2 5e bd
       -0.16366827 0.18839943 0.06743045 -0.054354407
0000c0 d0 cf 82 bd 54 9f 14 3e 9a 4f 73 be 64 54 4c 3e
       -0.06387293 0.14513904 -0.23760834 0.19954067
0000d0 34 cb 94 3d a2 1c 57 be 5e 0a 71 be 10 b3 58 3e
       0.072653204 -0.21007016 -0.23539111 0.21162057
0000e0 62 87 74 be 00 e2 17 3c 28 5a 33 3e 7c 4b 37 3e
       -0.2387977 0.009270191 0.1751486 0.17899889
0000f0 2c 70 7d be 4e f7 1e be 3c c9 a0 bd 90 08 69 be
       -0.24749821 -0.15524027 -0.078508824 -0.22757173
000100 36 07 27 3e b4 22 c3 3d b2 6a 06 be f8 b0 80 bd
       0.16311345 0.095281035 -0.13126639 -0.06283754
000110 20 9b 6a be 26 42 1c 3e 1c fa 50 be 78 46 23 3d
       -0.22910738 0.15259609 -0.20407909 0.039862126
000120 82 53 15 3e ee f3 39 3e 00 4e e9 3d 10 82 63 be
       0.14582637 0.18159458 0.113918304 -0.22217584
000130 7a c6 3b 3e 18 b0 a1 3d 68 07 3e bd 3a 2d 0c 3e
       0.18337432 0.07894915 -0.046393782 0.13689128
000140 00 1a 30 ba 02 3f 35 3e 80 17 90 bd c0 bb 50 be
       -0.00067177415 0.17699817 -0.07035732 -0.20384121
000150 3e a5 12 be e4 46 22 be 8e b4 1e be f0 d1 31 3d
       -0.14320847 -0.15847355 -0.15498564 0.043413103
000160 44 a9 62 be b0 bb 30 3e 84 b3 77 be 48 be 43 be
       -0.22134882 0.17259097 -0.24189574 -0.19115555
000170 00 0c 2e bd 00 3f ec 3c 94 3a a1 3d 98 c9 1e bd
       -0.042491913 0.028838634 0.07872501 -0.038766474
000180 cb ab 00 40 b2 48 10 40 bb c6 1c be 4b bb 2b 3d
       2.0104854 2.254437 -0.15310185 0.041926663
000190 ab 8d 50 3d 99 e4 58 be 0e d2 d2 bf 39 71 35 c0
       0.050916355 -0.21180953 -1.6470354 -2.8350356
0001a0 19 69 0a c0 27 09 0c c0 6a e2 e5 3d 1d cd 25 3c
       -2.1626647 -2.1880586 0.11224826 0.010119704
0001b0 cc 4a 4e bd 84 36 c4 3f ac 4f 5b 3d 38 cf bf bc
       -0.0503643 1.5329137 0.053542778 -0.02341424
0001c0 6b 76 50 be 66 d6 18 40 ff 93 9b be 26 4c 1d be
       -0.20357673 2.3880858 -0.3038635 -0.1536108
0001d0 4a 5b 17 3f 04 ca 95 bf e5 10 0d 3f 93 71 1f c0
       0.5912367 -1.1702275 0.55103904 -2.491307
0001e0 b8 79 2f 40 80 c8 36 c0 1f 65 9c bd 4b c9 27 3d
       2.7418041 -2.8559875 -0.07636475 0.040963452
0001f0 45 3f c4 be 87 b6 b1 be 7c 8c 2f be ca 94 84 3e
       -0.3832952 -0.3470957 -0.17143434 0.25894767
000200 8c 70 7d be 78 df 45 bd e4 d8 ad bd d6 6a 68 3e
       -0.24749964 -0.04830882 -0.08488634 0.22697005
000210 18 51 68 3d 7e bd 6b 3e 40 0d 03 3e 10 4c 7f bd
       0.056717962 0.23021504 0.12798023 -0.0623284
000220 20 36 5e bd b4 a7 26 3e 5c 6e cd bd ec 2b a2 bd
       -0.054250836 0.16274911 -0.10030815 -0.07918534
000230 50 74 8e 3c 1c ea a2 bd e8 bf 1f bd a4 9d c4 bd
       0.017389446 -0.07954809 -0.039001375 -0.0960038
000240 33 d3 f5 3d a3 0b 77 be 64 21 e3 bd 5d 17 43 be
       0.12003174 -0.24125533 -0.11090353 -0.19051881
000250 ac b9 96 bd fe 76 50 be 18 ba 67 3e 3b e5 08 be
       -0.07359633 -0.20357892 0.22629583 -0.13368694
000260 ea 98 20 be ef 64 5a be 1b f6 8c 3c b8 e8 1f bd
       -0.15683332 -0.21327566 0.017207196 -0.039040297
000270 54 e2 4c be 6a 5d 31 be 91 c9 e2 b9 c5 d2 90 3b
       -0.20008212 -0.17320791 -0.00043256258 0.004419657
000280 c7 01 4e c0 63 9b a2 3f b1 87 a1 bd 2f c2 9d 3f
       -3.2188585 1.270367 -0.07887209 1.2324885
000290 39 2f c3 3d b0 3b e6 3f 73 47 89 3f ca 6f 0e 3e
       0.095304914 1.7986965 1.072493 0.13909832
0002a0 d4 41 d2 3f 67 f8 f2 40 81 f2 4b be fa d9 c3 bc
       1.6426339 7.5928226 -0.19916727 -0.02390765
0002b0 29 45 a9 3d 6f 2e 6a 3c a0 4e 3b be 0c b1 93 3b
       0.082651444 0.014293297 -0.18291712 0.0045071896
0002c0 00 5f 5f 3d 96 ae 2b be b4 8c 5a be 60 b4 d3 3c
       0.05453396 -0.16765818 -0.21342736 0.025842845
0002d0 46 2d 7d be 24 19 17 be e8 50 2a bd 80 5d 46 3e
       -0.24724302 -0.14755684 -0.041581064 0.19371605
0002e0 3a 7a 4f 3e 04 61 8d bd ea 5f 38 be 3a 05 07 be
       0.2026147 -0.0690327 -0.18005338 -0.13185588
0002f0 72 ef 1e 3e 48 06 58 be 18 a8 57 3e 70 01 41 3d
       0.15521029 -0.21096146 0.21060216 0.04712051
000300 05 64 25 c0 45 29 37 c0 e6 7b bd bd 64 f5 15 c0
       -2.5842297 -2.861894 -0.092521474 -2.3431025
000310 92 1b 2c be f6 70 03 c0 06 14 6a 40 5a 7b f9 3f
       -0.16807392 -2.0537696 3.6574721 1.9490769
000320 9a 77 e7 40 8e 36 8a c0 0d 43 ed 3b 67 be 11 bd
       7.23335 -4.3191595 0.007240659 -0.035581972
000330 8c 22 62 bf 59 ce 31 3f 13 8d d0 bb e7 ea 68 3d
       -0.88333964 0.69455487 -0.0063644736 0.056864645
000340 0d 52 09 be 36 d8 85 3e a2 53 0c bd 9d ec 60 3e
       -0.13410206 0.26141518 -0.034259446 0.21965261
000350 ac bb 9a be 47 78 ce 3e 4a dd b7 be 17 83 84 3d
       -0.30221307 0.4032614 -0.35911018 0.06470316
000360 42 12 d0 bf 59 00 29 c0 20 7d 88 be bc 26 24 bd
       -1.6255572 -2.6406462 -0.26657963 -0.040076002
000370 4c 4c dc 3d 16 29 65 bc b8 7d ac bd bd 7f f8 bd
       0.1075674 -0.013986846 -0.084224164 -0.12133739
000380 35 77 8b bd 2c a0 74 3e 34 5d b1 3c 81 33 b9 be
       -0.06809846 0.23889226 0.021650888 -0.36172107
000390 30 ff 65 3d 2a 73 63 be e7 26 d1 40 ff 88 a8 3d
       0.05615157 -0.222119 6.535999 0.08229255
0003a0 49 b8 8a 3e 1b f5 7d 40 de 6c 06 bd 75 52 b4 ba
       0.27093723 3.968085 -0.032818668 -0.0013757484
0003b0 d4 8f 8b be 48 eb 83 bd 8f 6f 0a bd 6a f0 25 bc
       -0.2725817 -0.06441361 -0.033797797 -0.01012812
0003c0 e2 24 90 be b0 49 8a 3f 4f fd 6c bd 41 19 fa 3e
       -0.2815314 1.0803738 -0.05785876 0.48847392
0003d0 7c d0 45 bf 5e 38 a8 3d 63 76 9e bf 5e a3 0c be
       -0.77271247 0.08213876 -1.2379879 -0.13734195
0003e0 1f 22 0b 40 08 0f 22 bf ef 21 1e be 29 38 07 3e
       2.1739576 -0.63304186 -0.15442632 0.13205017
0003f0 01 e0 2f 3e d7 dc 81 3d 58 71 71 3e 69 fb 0d 3d
       0.17175294 0.0634095 0.23578393 0.03466359
