fw_flightcontrol/models/icinco/ppo/actreg/caps/ppo_bohn_caps_nohist_noatmo_4508_31-05_14:57:14.pt (torch, 46870 bytes, 12 tensors)

actor_logstd f4 [1, 2]
0.06218476 0.08421244
00000000: 72b5 7e3d 9277 ac3d

actor_mean.0.weight f4 [64, 14]
-0.11441487 0.063864365 -0.28392333 0.07473359 -0.16799153 -0.21792763 -0.10439742 0.16401628
0.048430342 0.10237005 -0.03789384 -0.29446703 -0.2618697 -0.25879368 -0.054223496 0.075265326
0.1576131 -0.054773446 -0.09264578 -0.24895981 -0.44927984 -0.013743052 -0.072949015 0.15074177
-0.17239434 0.14958768 0.11301174 0.07820151 -0.0034564163 0.110925175 0.20600916 -0.15497178
0.101997755 0.15904696 0.09501065 0.2287469 -0.003716684 0.056779407 -0.21989794 -0.26101395
0.21993332 0.298402 -0.058137696 0.030574642 -0.027314672 -0.1323751 -0.16897379 -0.26834872
-0.2518478 0.33547196 0.10133825 -0.097129285 -0.011192074 0.20448394 0.06718116 -0.1019715
0.05639696 0.04708273 -0.22317491 -0.0049120835 0.24073114 0.3465667 -0.15961523 -0.009630934
-0.13303694 -0.056661896 -0.50694495 -0.09942319 0.073974945 0.06362369 -0.1628087 0.20391916
-0.5317693 0.22829512 0.35977963 -0.030791575 0.17509489 -0.059143946 -0.016065272 0.2646722
-0.088719465 -0.2185346 0.081816785 0.10564805 0.04194964 0.021505553 0.16937084 -0.25747097
0.13202451 0.086043835 -0.05135455 -0.13900125 -0.39051062 0.118710235 -0.15094775 -0.23961379
0.22168934 -0.22048135 0.1637646 -0.09583487 -0.19860856 -0.032939643 -0.1225293 0.21038233
0.23619051 -0.037468478 0.03537263 -0.054834154 0.032143608 0.16627786 -0.12997857 0.23893794
0.11263586 0.08625539 -0.22876467 -0.051472574 0.07438414 -0.1432766 0.12682323 -0.056637883
0.19511251 0.06352746 -0.10766115 -0.22001013 -0.27917174 -0.10726756 -0.013828006 0.27480477
0.0045265965 -0.15393166 -0.28836647 -0.15383673 -0.52310014 -0.39244854 0.16393667 -0.0700554
0.021410795 -0.23495258 -0.02316148 0.024247115 -0.16926582 0.023565631 0.1412548 -0.23905057
-0.00796571 0.0030625768 -0.015752671 0.14714673 0.2954635 0.4495685 -0.050867755 0.111752495
0.13976878 0.14076059 0.13888735 -0.24385977 -0.25471026 0.014637334 0.20680772 -0.080075584
-0.13689257 0.1474101 0.024803575 0.101698786 0.29684955 0.11008532 -0.10525813 0.022684652
-0.17776598 -0.08715509 0.14270817 0.14131936 0.11304774 0.16653821 0.008627824 -0.2473796
-0.03302462 -0.15803115 0.3211698 -0.15812567 0.07564981 0.21033517 -0.046050895 0.26207706
0.0028312784 0.19784445 0.14257537 -0.33974892 0.3628486 -0.5055148 0.29464936 -0.07561197
-0.03190208 -0.20865619 0.45283568 -0.056679174 0.06574317 0.2188816 0.056685362 0.267945
-0.067761205 -0.13250747 -0.030750642 0.038312774 -0.19050755 0.1858966 0.24417463 0.11666647
0.18163095 0.020445395 0.037671473 0.073311165 -0.00019082383 0.11377763 -0.08622923 -0.20569396
-0.11771751 0.3252157 -0.3626295 0.10916544 0.23545992 -0.15588753 -0.028574677 0.45683962
-0.11358732 -0.58532244 -0.0060660895 0.10863055 -0.0019540354 -0.09518425 0.047446314 0.36679447
0.15265583 -0.0014775774 -0.1178281 -0.18715891 0.010135491 0.2821422 0.18124887 -0.17778496
0.30641988 0.23970619 -0.19351216 0.04543423 -0.111873 0.09027764 0.09844946 -0.0027279416
-0.06887026 0.07609186 0.16609679 0.06296386 -0.11334303 -0.42135087 -0.0006879306 -0.10360231
00000000: 5852 eabd 52cb 823d 665e 91be ed0d 993d
00000010: f905 2cbe 6c28 5fbe 51ce d5bd e2f3 273e
00000020: e55e 463d 64a7 d13d 9236 1bbd 62c4 96be
00000030: c913 86be 9b80 84be 7519 5ebd b524 9a3d
00000040: 5465 213e 1f5a 60bd 12bd bdbd 52ef 7ebe
00000050: 0208 e6be 8a2a 61bc 4b66 95bd 0d5c 1a3e
00000060: 2488 30be 832d 193e b372 e73d 1d28 a03d
00000070: 0b85 62bb bd2c e33d 11f4 523e ecb0 1ebe
00000080: 33e4 d03d 35dd 223e f294 c23d a13c 6a3e
00000090: 9c93 73bb 8691 683d ed2c 61be 9fa3 85be
000000a0: 3336 613e 26c8 983e cb21 6ebd ac77 fa3c
000000b0: 05c3 dfbc 578d 07be 7707 2dbe 0165 89be
000000c0: 32f2 80be fbc2 ab3e 6e8a cf3d b8eb c6bd
000000d0: f65e 37bc 3d64 513e 4796 893d 6fd6 d0bd
000000e0: 8000 673d d2d9 403d f787 64be 8bf5 a0bb
000000f0: 3982 763e 3171 b13e 2d72 23be 11cb 1dbc
00000100: d63a 08be 4e16 68bd 25c7 01bf 639e cbbd
00000110: 2d80 973d 234d 823d 53b7 26be 2fd0 503e
00000120: 0822 08bf 32c6 693e 0935 b83e 9d3e fcbc
00000130: 134c 333e ec40 72bd 519b 83bc 1d83 873e
00000140: 8db2 b5bd 89c7 5fbe 8f8f a73d 015e d83d
00000150: 63d3 2b3d 6a2c b03c 8d6f 2d3e 3cd3 83be
00000160: 6f31 073e c037 b03d 2659 52bd 5856 0ebe
00000170: 02f1 c7be 5a1e f33d 0c92 1abe 515d 75be
00000180: 8802 633e ddc5 61be e8b1 273e 1345 c4bd
00000190: 0b60 4bbe b8eb 06bd a4f0 fabd 776e 573e
000001a0: eddb 713e 8c78 19bd e4e2 103d c799 60bd
000001b0: 04a9 033d be44 2a3e 1a19 05be 26ac 743e
000001c0: a1ad e63d aaa6 b03d 4941 6abe e8d4 52bd
000001d0: b656 983d 1ab7 12be f3dd 013e 20fd 67bd
000001e0: 93cb 473e af1a 823d 737d dcbd 564a 61be
000001f0: 99ef 8ebe 18af dbbd dc8e 62bc 36b3 8c3e
00000200: d853 943b 43a0 1dbe c5a4 93be 6087 1dbe
00000210: e4e9 05bf 04ef c8be 04df 273e 3579 8fbd
00000220: b165 af3c 6997 70be 25bd bdbc e3a1 c63c
00000230: 0554 2dbe b60c c13c 19a5 103e acc9 74be
00000240: 9c82 02bc 83b5 483b bf0b 81bc a2ad 163e
00000250: fe46 973e d82d e63e b55a 50bd 7ede e43d
00000260: 8c1f 0f3e 8b23 103e 7c38 0e3e 60b6 79be
00000270: 6269 82be 6ed1 6f3c 67c5 533e abfe a3bd
00000280: 912d 0cbe acf2 163e de30 cb3c 7447 d03d
00000290: aafc 973e 6a74 e13d 9391 d7bd 2ad5 b93c
000002a0: 4908 36be 5e7e b2bd 1722 123e 06b6 103e
000002b0: 9385 e73d fe88 2a3e b75b 0d3c 1451 7dbe
000002c0: d344 07bd ebd2 21be 5e70 a43e b2eb 21be
000002d0: 4aee 9a3d 1a62 573e dd9f 3cbd f72e 863e
000002e0: f88c 393b bc97 4a3e 47ff 113e 92f3 adbe
000002f0: 4bc7 b93e 6b69 01bf 48dc 963e 73da 9abd
00000300: c1ab 02bd f8a9 55be 14da e73e 6c28 68bd
00000310: 5ba4 863d 8022 603e e92e 683d 1630 893e
00000320: 63c6 8abd 0ab0 07be c5e8 fbbc dbed 1c3d
00000330: 6914 43be ae5b 3e3e ea08 7a3e d5ee ee3d
00000340: 77fd 393e 1a7d a73c 674d 1a3d 2a24 963d
00000350: e217 48b9 3f04 e93d f398 b0bd 70a1 52be
00000360: e115 f1bd ac82 a63e 93aa b9be 2192 df3d
00000370: 681c 713e fba0 1fbe 7115 eabc e2e6 e93e
00000380: 78a0 e8bd b1d7 15bf 0cc6 c6bb b279 de3d
00000390: 460f 00bb f6ef c2bd 1157 423d 7ccc bb3e
000003a0: cf51 1c3e 45ab c1ba dc4f f1bd 96a6 3fbe
000003b0: 550f 263c f174 903e 4e99 393e 430d 36be
000003c0: 11e3 9c3e 8a75 753e 0d28 46be 3e19 3a3d
000003d0: ac1d e5bd 7ce3 b83d df9f c93d 44c7 32bb
000003e0: da0b 8dbd 0dd6 9b3d 4715 2a3e 32f3 803d
000003f0: 6420 e8bd 4dbb d7be 3e56 34ba 732d d4bd

actor_mean.0.bias f4 [64]
-1.6066501e-09 2.229558e-07 -2.9773407e-06 0.015668016 9.830097e-11 0.0 -1.0718217e-06 -2.4822295e-09
2.372066e-08 -0.034598753 2.325889e-05 0.0 -7.3865244e-06 -0.047127936 0.024179965 -0.016648194
0.0029166236 0.0 -0.007211094 -0.042963766 3.0856405e-08 -0.0002694942 0.006915533 -0.024584264
0.0012652224 0.0 0.00823908 -0.008978057 0.0 -0.023591334 0.0033285755 0.0
4.1463562e-11 -0.02898016 0.033874623 -0.013324113 0.00017053913 0.0028121313 4.142358e-08 0.0
-3.772494e-05 0.00013506548 0.004493898 -8.1236005e-09 -0.00018381352 -0.03229819 0.0020779753 -4.0073674e-06
-0.010116897 -0.04827521 -0.039264493 -1.40793745e-05 -0.0059312456 -1.2785144e-06 0.0048430325 0.0
0.03305362 0.0020956239 -0.0149048455 3.5844219e-09 0.020371737 9.684816e-08 -0.02973613 1.4566082e-09
00000000: fad0 dcb0 a065 6f34 53ce 47b6 365a 803c
00000010: 872a d82e 0000 0000 83db 8fb5 d893 2ab1
00000020: 48c2 cb32 6cb7 0dbd 161c c337 0000 0000
00000030: c3d9 f7b6 3909 41bd 1015 c63c cb61 88bc
00000040: d324 3f3b 0000 0000 0a4b ecbb c6fa 2fbd
00000050: fa86 0433 e64a 8db9 b29b e23b f064 c9bc
00000060: d2d5 a53a 0000 0000 35fd 063c b318 13bc
00000070: 0000 0000 9d42 c1bc 3b24 5a3b 0000 0000
00000080: d25b 362e cd67 edbc 1ec0 0a3d 614d 5abc
00000090: c0d2 3239 bc4b 383b b5e9 3133 0000 0000
000000a0: d93a 1eb8 5da0 0d39 8c41 933b f98f 0bb2
000000b0: 11be 40b9 1b4b 04bd a42e 083b 0677 86b6
000000c0: 57c1 25bc 3abc 45bd ced3 20bd 7436 6cb7
000000d0: e55a c2bb 6c99 abb5 4db2 9e3b 0000 0000
000000e0: 3c63 073d bc56 093b 7433 74bc d151 7631
000000f0: a1e2 a63c d7fa cf33 2f99 f3bc d831 c830

actor_mean.2.weight f4 [64, 64]
0.23264243 0.023912447 0.22870758 -0.029388092 -0.24940537 0.007751546 -0.038911197 0.105211586
0.40802586 -0.14406738 0.23961002 -0.037933 -0.101711124 0.11663875 0.050899964 0.2661644
-0.41581917 -0.10878039 0.21450765 -0.43995747 -0.033690337 -0.1004048 0.024605326 -0.0836276
0.5223587 0.015559797 0.2582436 -0.16944389 -0.021577585 -0.08130017 0.0077247163 -0.26348934
0.22669871 0.068189554 0.042103402 -0.19969927 -0.07187195 0.17351553 -0.041248415 -0.061309632
-0.12240742 -0.1245373 0.24516916 -0.25904298 0.09413224 -0.1310711 -0.04710836 -0.11014278
0.048052657 -0.038230635 -0.027756905 -0.07168643 0.13598649 -0.28723368 0.096787535 0.124983646
-0.038381677 -0.08469041 0.46224678 -0.070609294 0.19996804 0.09050732 -0.27553797 -0.01622435
0.2061698 0.10798797 0.35986727 0.06227941 0.347396 0.16758423 0.1504793 -0.18402536
0.035653815 -0.094496936 0.12850697 -0.13097124 0.07001082 0.24591295 -0.05038443 0.042356957
-0.07985057 -0.07059653 0.25768495 -0.11785418 0.068106465 0.04823009 -0.042174593 -0.09064184
-0.16393287 0.23602353 -0.038215518 -0.4020422 0.265018 -0.032767892 -0.12288753 -0.45150012
0.007604557 0.27123007 -0.33102363 -0.13584532 -0.10000748 -0.24518746 -0.09385195 -0.12227621
0.22110614 0.031075995 0.11149633 -0.18438776 0.18656522 0.116442464 -0.08725975 -0.39016658
0.14636315 -0.032603715 0.28926727 0.06465631 -0.30616504 0.27782163 0.16004544 -0.030621985
-0.15004516 -0.07075736 -0.29684067 0.062497143 -0.17484562 0.042968966 0.080142796 -0.12193342
-0.050671615 -0.40718237 0.06928089 0.19769897 0.29076517 -0.09792361 0.06966746 0.25391683
0.024075653 -0.103801765 0.16325626 -0.10509436 -0.042283326 0.026019884 0.2881882 0.03291385
-0.06943888 0.2602861 0.009200953 -0.107423656 -0.07914948 -0.24519055 -0.19727433 -0.17786936
0.3294063 0.31752652 0.16488561 0.10602949 0.16159451 0.3965302 0.20655331 -0.3138496
-0.119466655 -0.1895587 0.23395678 -0.042201854 -0.023388522 0.0688757 0.09363545 0.22367941
0.022783129 0.2917079 -0.002179022 0.36143014 0.07426879 -0.024240416 -0.115628846 -0.022668026
-0.15816984 0.053744268 0.21702941 0.21789385 0.063538 0.056220885 -0.20165333 -6.4466585e-05
0.075010456 -0.14558646 0.0647915 -0.05941299 -0.16206144 -0.032163456 0.32268456 0.15191862
-0.19693616 -0.095283456 0.08244223 0.17045882 0.15724185 0.018852126 0.07120187 0.17960002
-0.08818843 -0.2787659 -0.021791484 0.006542916 -0.17307244 0.12350916 -0.19087078 0.08204961
-0.22959127 -0.13278008 0.19187607 0.055579245 0.14013532 0.32586366 -0.17078108 0.25751114
-0.27343383 -0.013872058 -0.11199539 0.038278192 -0.19428705 -0.2890758 -0.074266426 -0.17992634
-0.22283342 -0.27287248 -0.20478915 0.119263604 -0.033629417 0.17009456 -0.45843148 -0.07314628
-0.4130779 0.18884236 0.18190688 0.08052472 0.40185854 0.2984935 0.09487488 0.10881491
-0.03457622 -0.09338478 0.16747364 0.08553995 0.21862724 -0.119243346 -0.15405454 0.2987037
0.087033935 -0.28692847 -0.09290829 -0.21450475 -0.05235913 -0.07331977 -0.04434552 -0.12331312
00000000: d139 6e3e 09e4 c33c 5232 6a3e 4cbf f0bc
00000010: 1f64 7fbe ae00 fe3b 5961 1fbd 2c79 d73d
00000020: c4e8 d03e 6686 13be 545c 753e a25f 1bbd
00000030: ec4d d0bd 4ce0 ee3d 7b7c 503d b346 883e
00000040: 40e6 d4be 41c8 debd e5a7 5b3e 1b42 e1be
00000050: e1fe 09bd 08a1 cdbd 1c91 c93c f244 abbd
00000060: 4db9 053f 85ee 7e3c 8138 843e b382 2dbe
00000070: 7ac3 b0bc b480 a6bd 9e1f fd3b 13e8 86be
00000080: b523 683e f7a6 8b3d 9e74 2c3d f77d 4cbe
00000090: 9a31 93bd 0eae 313e 19f4 28bd cf1f 7bbd
000000a0: beb0 fabd 690d ffbd a00d 7b3e 48a1 84be
000000b0: 67c8 c03d 8137 06be b2f4 40bd 8a92 e1bd
000000c0: ddd2 443d ba97 1cbd 7362 e3bc 56d0 92bd
000000d0: 0b40 0b3e 4b10 93be 8b38 c63d 6df7 ff3d
000000e0: 1b36 1dbd 2a72 adbd 9cab ec3e 9b9b 90bd
000000f0: 6cc4 4c3e e75b b93d 5013 8dbe eee8 84bc
00000100: 2d1e 533e cc28 dd3d 8640 b83e b218 7f3d
00000110: e3dd b13e 339b 2b3e 3f17 1a3e 2571 3cbe
00000120: bc09 123d 9c87 c1bd 5597 033e 531d 06be
00000130: d561 8f3d 9bd0 7b3e e75f 4ebd 7d7e 2d3d
00000140: b288 a3bd ea94 90bd 48ef 833e 885d f1bd
00000150: 677b 8b3d ea8c 453d 44bf 2cbd 6ea2 b9bd
00000160: 05de 27be 27b0 713e e087 1cbd 7ad8 cdbe
00000170: 70b0 873e a037 06bd 75ac fbbd 062b e7be
00000180: a62f f93b abde 8a3e ee7b a9be 091b 0bbe
00000190: b9d0 ccbd 6c12 7bbe 7335 c0bd f36b fabd
000001a0: a669 623e 1693 fe3c 3058 e43d 25d0 3cbe
000001b0: f40a 3f3e 6379 ee3d 3db5 b2bd eac3 c7be
000001c0: 39e0 153e 798b 05bd d71a 943e 876a 843d
000001d0: aac1 9cbe a33e 8e3e f4e2 233e f5da fabc
000001e0: 70a5 19be 3ce9 90bd 80fb 97be 01fd 7f3d
000001f0: bb0a 33be 3a00 303d e821 a43d 3bb8 f9bd
00000200: 0a8d 4fbd 357a d0be 24e3 8d3d 9971 4a3e
00000210: 2cdf 943e 2c8c c8bd d0ad 8e3d 6301 823e
00000220: 4e3a c53c 0596 d4bd a62c 273e b63b d7bd
00000230: 4831 2dbd a727 d53c 678d 933e acd0 063d
00000240: f935 8ebd 3844 853e 98bf 163c ef00 dcbd
00000250: 1f19 a2bd 3b13 7bbe 4802 4abe 6323 36be
00000260: f1a7 a83e d692 a23e c6d7 283e fd25 d93d
00000270: 0879 253e 0206 cb3e b682 533e e5b0 a0be
00000280: efaa f4bd ad1b 42be 5e92 6f3e dadb 2cbd
00000290: 4999 bfbc b40e 8d3d f1c3 bf3d 370c 653e
000002a0: afa3 ba3c bd5a 953e eccd 0ebb 5f0d b93e
000002b0: 3c1a 983d d693 c6bc d1ce ecbd 4cb2 b9bc
000002c0: 46f7 21be f322 5c3d f53c 5e3e 911f 5f3e
000002d0: 3620 823d df47 663d 367e 4ebe 3c32 87b8
000002e0: 159f 993d 9e14 15be 68b1 843d 095b 73bd
000002f0: 6ff3 25be d4bd 03bd e936 a53e 8e90 1b3e
00000300: a2a9 49be f923 c3bd 79d7 a83d c28c 2e3e
00000310: 0204 213e c66f 9a3c 49d2 913d 11e9 373e
00000320: 239c b4bd 67ba 8ebe 0e84 b2bc f565 d63b
00000330: e739 31be 5ff2 fc3d a173 43be a009 a83d
00000340: f919 6bbe 80f7 07be 297b 443e 10a7 633d
00000350: a27f 0f3e 9ad7 a63e 3ce1 2ebe 80d8 833e
00000360: 85ff 8bbe a147 63bc d75d e5bd 98c9 1c3d
00000370: 2ff3 46be be01 94be ff18 98bd 9c3e 38be
00000380: 722e 64be f1b5 8bbe 3fb4 51be 7a40 f43d
00000390: 00bf 09bd 452d 2e3e 88b7 eabe b8cd 95bd
000003a0: f27e d3be e45f 413e cc45 3a3e 25ea a43d
000003b0: 67c0 cd3e 24d4 983e c34d c23d 5ada de3d
000003c0: cb9f 0dbd 8540 bfbd 367e 2b3e 922f af3d
000003d0: d2df 5f3e db35 f4bd 79c0 1dbe b1ef 983e
000003e0: d93e b23d 4ae8 92be b446 bebd 22a7 5bbe
000003f0: 8776 56bd ad28 96bd a6a3 35bd 978b fcbd

actor_mean.2.bias f4 [64]
-0.0034530975 0.024344716 0.0072689797 0.015833886 -0.01751022 -0.0043459083 -0.029064512 -0.016934196
0.012998531 -0.01408248 0.023150114 0.025777336 -0.0098356195 -0.0015538423 -0.01595778 -0.021597056
0.027791843 -0.003380932 -0.012189557 -0.012620892 -0.014337997 0.0073875654 -0.031176869 0.01615968
0.00085226947 -0.013998674 -0.040591553 -0.0039696526 0.025922034 0.00790057 0.017112752 0.011493137
0.02166442 0.0007654085 0.025932586 0.021685297 0.023289414 0.017339895 0.00080221624 0.008390624
0.001969046 0.041194387 0.0003505002 -0.020894058 -0.013384183 -0.013811811 0.011182754 -0.0014893129
0.015992714 -0.010304443 0.004163295 0.038796 -0.007084693 -0.0065342826 -0.003599619 0.005272958
0.03081913 -0.0045987926 0.00112981 0.04569196 0.015768634 -0.019653594 -0.0037857608 0.0031991259
00000000: 5d4d 62bb 926e c73c 9f30 ee3b 11b6 813c
00000010: 9871 8fbc 1f68 8ebb b318 eebc 95b9 8abc
00000020: caf7 543c 34ba 66bc 4fa5 bd3c fe2a d33c
00000030: 9425 21bc 4caa cbba e4b9 82bc 4fec b0bc
00000040: b8ab e33c a092 5dbb b5b6 47bc dcc7 4ebc
00000050: ebe9 6abc 6413 f23b a266 ffbc 4e61 843c
00000060: d66a 5f3a b25a 65bc 5443 26bd dc13 82bb
00000070: 725a d43c 6471 013c 0b30 8c3c b64d 3c3c
00000080: 9579 b13c b2a5 483a 9370 d43c 5da5 b13c
00000090: 71c9 be3c 650c 8e3c d24b 523a d478 093c
000000a0: 1c0b 013b 72bb 283d 57c3 b739 042a abbc
000000b0: 5549 5bbc ef4a 62bc df37 373c 0c35 c3ba
000000c0: 2703 833c f7d3 28bc 406c 883b 8ee8 1e3d
000000d0: b626 e8bb 891d d6bb 96e7 6bbb c7c8 ac3b
000000e0: 6678 fc3c 78b1 96bb 2216 943a 7e27 3b3d
000000f0: 392d 813c 9300 a1bc 871a 78bb 6da8 513b

actor_mean.4.weight f4 [2, 64]
0.14790598 0.11035642 0.018559026 0.041463967 -0.007929868 0.003147331 0.14515014 -0.05690323
0.05951547 -0.047145993 0.028699445 0.069159955 -0.12205354 -0.077190384 -0.057217374 0.011548225
0.116327934 0.060573034 0.08668897 -0.12869942 -0.12631696 0.020997573 0.0132242115 -0.08580942
0.049868762 -0.07134252 -0.088059336 0.2467507 0.010321164 0.071180396 0.13746086 0.11989121
-0.09250741 -0.007165704 0.01381351 -0.13578597 0.15368053 0.2594267 0.07950364 0.049674645
-0.2652582 0.03509032 0.057081703 -0.0961627 -0.06808411 0.09107486 -0.04702701 0.029527994
-0.0099045 0.011285394 0.007450606 -0.0094530685 0.012285898 -0.12944934 -0.1385185 -0.08021268
-0.014095317 0.16952336 -0.011228556 0.02667125 0.026133286 0.2984763 -0.0177641 -0.11392319
-0.0059607793 -0.034986004 -0.020375734 -0.1362547 0.16829482 0.11373539 0.05582949 -0.013090226
0.064702936 -0.14807376 0.04648257 0.100064084 -0.029901255 -0.11100559 -0.0034299104 -0.0018762025
0.010064171 0.040297065 0.06875211 0.0030923935 -0.16061205 -0.018490124 -0.0010517709 -0.027579205
-0.058438092 -0.13953708 0.13989504 0.11001141 0.09875656 -0.050078966 -0.06664718 0.06929661
-0.12141177 -0.23811792 -0.0030428232 0.093142435 0.041497182 -0.056864962 0.18175967 0.009642588
0.22669795 0.02677803 0.1180922 0.011996627 0.18717079 -0.007272415 -0.099568725 0.039447125
0.0024816226 -0.0041755224 -0.16555637 0.0015044505 0.001613566 0.14257117 0.076671295 -0.040311772
-0.10243013 0.001785772 -0.002305302 -0.07875429 0.0027986197 -0.021576717 0.16645344 0.005686635
00000000: aa74 173e 8c02 e23d 1909 983c 1fd6 293d
00000010: 47ec 01bc 7443 4e3b 3da2 143e 5c13 69bd
00000020: 7ec6 733d 281c 41bd 191b eb3c bca3 8d3d
00000030: 35f7 f9bd fe15 9ebd c45c 6abd c434 3d3c
00000040: 573d ee3d 6e1b 783d fd89 b13d c8c9 03be
00000050: 3c59 01be 1a03 ac3c 5daa 583c d9bc afbd
00000060: 3043 4c3d 071c 92bd 7458 b4bd 37ac 7c3e
00000070: 191a 293c 07c7 913d 8ac2 0c3e 8689 f53d
00000080: 8674 bdbd 48ce eabb 0f52 623c 7a0b 0bbe
00000090: 6e5e 1d3e 94d3 843e ced2 a23d a477 4b3d
000000a0: eccf 87be deba 0f3d 81ce 693d f3f0 c4bd
000000b0: af6f 8bbd 7585 ba3d 659f 40bd b1e4 f13c
000000c0: 7c46 22bc 60e6 383c 3724 f43b 0be1 1abc
000000d0: cb4a 493c 5e8e 04be cbd7 0dbe 8c46 a4bd
000000e0: 0bf0 66bc 8897 2d3e faf7 37bc aa7d da3c
000000f0: 7915 d63c e3d1 983e 0586 91bc 9050 e9bd
00000100: a452 c3bb 7c4d 0fbd 03eb a6bc 5a86 0bbe
00000110: 7a55 2c3e 1aee e83d 77ad 643d 6378 56bc
00000120: f982 843d a6a0 17be 8264 3e3d 66ee cc3d
00000130: 7af3 f4bc e656 e3bd 59c8 60bb e9ea f5ba
00000140: 31e4 243c 890e 253d e8cd 8c3d c1a9 4a3b
00000150: 7c77 24be 9a78 97bc 93db 89ba c9ed e1bc
00000160: c85c 6fbd cfe2 0ebe a540 0f3e aa4d e13d
00000170: e140 ca3d 9a1f 4dbd 517e 88bd 62eb 8d3d
00000180: bca6 f8bd 2fd5 73be 1a6a 47bb 76c1 be3d
00000190: f3f8 293d 3ceb 68bd 351f 3a3e f2fb 1d3c
000001a0: 8223 683e 995d db3c 53da f13d 808d 443c
000001b0: b3a9 3f3e 704d eebb b0ea cbbd 4f93 213d
000001c0: b8a2 223b d2d2 88bb 9c87 29be fb30 c53a
000001d0: 4a7e d33a 2dfe 113e d705 9d3d f51d 25bd
000001e0: e3c6 d1bd 9110 ea3a 8d14 17bb ee49 a1bd
000001f0: 0c69 373b a8c1 b0bc c572 2a3e f456 ba3b

actor_mean.4.bias f4 [2]
-0.0119852945 0.0012194777
00000000: f85d 44bc e2d6 9f3a

critic.0.weight f4 [64, 14]
-0.21479519 -0.10824806 0.060595702 -0.040995795 0.089701325 -0.16500428 -0.0038646045 0.061717425
-0.20911795 0.18537195 -0.18152197 -0.08817983 0.0398345 0.09097115 0.36889666 -0.079199575
0.1546117 0.19390906 -0.15456739 0.22949369 0.1736396 0.18268463 -0.20051345 0.0911881
0.12186599 0.005140495 -0.19900265 0.17584072 0.06787877 0.25985578 0.34300315 -0.31031236
-0.20829311 0.014059125 -0.002832639 -0.19110677 0.34149495 0.3741264 -0.118914835 -0.31654525
-0.17431147 -0.2827898 0.0925594 0.10259193 0.08263025 0.14996894 -0.22085756 0.21060638
0.019825121 -0.036999106 0.008672409 0.013682494 -0.13425663 -0.102471754 0.047857884 0.15196216
0.12515475 -0.33100036 -0.23414694 -0.1158857 0.13995539 0.24346754 -0.15368955 -0.09567462
-0.023618743 -0.04598892 -0.1132132 0.19041474 -0.06819244 -0.25975674 0.2023841 0.30193955
0.008214675 -0.07909376 0.011675617 -0.064418055 -0.27420706 0.05553592 0.1394038 -0.21740146
0.07561539 0.004509016 -0.09491927 0.20868719 -0.016659612 -0.10493696 -0.3644659 -0.13641927
0.16944869 -0.11322589 0.1575708 0.041901752 -0.019093817 0.14391659 -0.117263086 -0.1407031
-0.1857237 0.089313395 -0.019426998 -0.39882898 -0.07231889 -0.3245974 -0.14135887 -0.14933372
-0.09528593 -0.040007662 0.03566157 0.12984596 0.17954764 0.12460343 0.09147803 -0.051006276
-0.231162 -0.014647515 0.07112414 -0.19657366 -0.19948773 -0.40710813 0.10007715 -0.37273395
-0.23000328 -0.14412346 0.11717887 -0.005943973 -0.24880995 -0.08053619 0.19309457 0.19051895
-0.2901857 -0.45362324 0.31928656 0.08603101 0.15032251 0.09548643 0.08953176 -0.2136696
0.17257911 -0.07854608 -0.041632123 0.060576588 0.32818308 0.3330645 0.06106609 0.14339674
0.116027184 0.09323311 0.10361594 -0.004213118 -0.44776386 -0.26046574 -0.058730442 0.0033295243
-0.43814474 -0.29770923 0.05628636 0.28713048 -0.06483748 0.0917378 -0.024557022 -0.01928628
-0.32286906 0.18981825 0.37265912 0.06594575 -0.2512346 0.2916204 0.115590535 -0.27508184
0.27008706 0.13487841 0.20630585 -0.16415675 0.111884624 0.02476021 0.30434653 0.00015934856
0.1738951 -0.3257973 0.052851308 0.03389627 -0.054265294 0.16743518 0.31809118 0.24384294
-0.2251543 -0.033609804 0.036532167 0.050897967 0.14854643 -0.029214853 -0.29656553 0.09465548
0.13685781 -0.006818232 0.1983531 -0.15859333 0.03253879 0.045026388 0.2727879 -0.3520304
0.014439962 0.25534806 -0.19326247 0.31942344 -0.39024282 0.0103160115 0.065671094 0.08564571
-0.2192696 -0.034492638 0.05172079 0.089709185 0.11665248 0.06310131 -0.20609522 0.12792021
-0.032657128 0.28851214 0.09312815 0.07182779 -0.032446217 0.18123347 -0.13906284 -0.25172055
0.09458628 -0.046759278 -0.42433557 -0.10411152 -0.28929743 0.22057357 0.20906077 0.011680484
0.054675344 0.086653516 -0.059242483 -0.13569075 0.14447768 0.06644658 0.28920013 0.16400118
-0.08690105 0.18746635 -0.15320325 0.21144007 -0.112515435 0.11559055 -0.08415195 0.10378957
-0.23140867 0.0063555962 -0.097459055 0.2613281 0.048396572 -0.0094518 -0.3073103 0.046814054
00000000: 45f3 5bbe 29b1 ddbd 3333 783d 35eb 27bd
00000010: 54b5 b73d e2f6 28be 4e45 7dbb 69cb 7c3d
00000020: 0423 56be 25d2 3d3e e5e0 39be a097 b4bd
00000030: 8029 233d 154f ba3d 06e0 bc3e 6333 a2bd
00000040: 8852 1e3e 1990 463e ea46 1ebe 6500 6b3e
00000050: 94ce 313e ae11 3b3e 6653 4dbe d4c0 ba3d
00000060: e094 f93d 9971 a83b 5ac7 4bbe 970f 343e
00000070: 0604 8b3d d10b 853e 1c9e af3e 43e1 9ebe
00000080: ca4a 55be 3f58 663c cca3 39bb 7eb1 43be
00000090: 6dd8 ae3e 7f8d bf3e 9f89 f3bd 3812 a2be
000000a0: b57e 32be d3c9 90be c88f bd3d b81b d23d
000000b0: 0c3a a93d 7591 193e 7c28 62be 33a9 573e
000000c0: 4b68 a23c 608c 17bd b816 0e3c 8a2c 603c
000000d0: 927a 09be b6dc d1bd a106 443d f89b 1b3e
000000e0: 9128 003e e178 a9be 37c4 6fbe 7b55 edbd
000000f0: 7750 0f3e 8e4f 793e cb60 1dbe 0ef1 c3bd
00000100: 187c c1bc e15e 3cbd 52dc e7bd 15fc 423e
00000110: 7aa8 8bbd d6fe 84be c73d 4f3e d297 9a3e
00000120: d896 063c e9fb a1bd 164b 3f3c 9ded 83bd
00000130: de64 8cbe a279 633d dfbf 0e3e 7d9e 5ebe
00000140: 3edc 9a3d 5ec0 933b 0965 c2bd 18b2 553e
00000150: bd79 88bc 30e9 d6bd 469b babe 7eb1 0bbe
00000160: f583 2d3e fae2 e7bd 3d5a 213e 2ca1 2b3d
00000170: a36a 9cbc df5e 133e a127 f0bd 7914 10be
00000180: 5b2e 3ebe f1e9 b63d 5e25 9fbc 5033 ccbe
00000190: ed1b 94bd a131 a6be 61c0 10be f0ea 18be
000001a0: 4525 c3bd 13df 23bd de11 123d 57f6 043e
000001b0: 56db 373e 1530 ff3d d558 bb3d f5eb 50bd
000001c0: bbb5 6cbe 21fc 6fbc 88a9 913d 9b4a 49be
000001d0: 8346 4cbe 7a70 d0be 40f5 cc3d fcd6 bebe
000001e0: fb85 6bbe 1a95 13be 7afb ef3d a9c5 c2bb
000001f0: 09c8 7ebe 28f0 a4bd 95ba 453e 6617 433e
00000200: 3893 94be 4e41 e8be 8779 a33e 0731 b03d
00000210: 25ee 193e 648e c33d 6d5c b73d 34cc 5abe
00000220: 94b8 303e c4dc a0bd 7286 2abd 281f 783d
00000230: 9d07 a83e 6e87 aa3e 7020 7a3d 98d6 123e
00000240: a99f ed3d 00f1 be3d 9834 d43d 320e 8abb
00000250: 4e41 e5be c45b 85be 558f 70bd 2634 5a3b
00000260: 8254 e0be 586d 98be 878c 663d c402 933e
00000270: 83c9 84bd 07e1 bb3d cf2b c9bc 43fe 9dbc
00000280: 184f a5be b75f 423e 2dcd be3e 910e 873d
00000290: d2a1 80be 454f 953e bbba ec3d 87d7 8cbe
000002a0: da48 8a3e 911d 0a3e d741 533e b518 28be
000002b0: c423 e53d edd5 ca3c 4fd3 9b3e ce16 2739
000002c0: 8f11 323e e7ce a6be 9d7a 583d d1d6 0a3d
000002d0: 4945 5ebd 2174 2b3e d9dc a23e f7b1 793e
000002e0: d98e 66be 6faa 09bd c1a2 153d 637a 503d
000002f0: 8e1c 183e fd53 efbc 70d7 97be bbda c13d
00000300: 7424 0c3e 7a6b dfbb 131d 4b3e 4a66 22be
00000310: 6547 053d 976d 383d dbaa 8b3e 543d b4be
00000320: 9795 6c3c fbbc 823e 99e6 45be 788b a33e
00000330: e8cd c7be 7d04 293c 917e 863d 0567 af3d
00000340: 3688 60be 2748 0dbd 2ed9 533d 73b9 b73d
00000350: 7fe7 ee3d 423b 813d a00a 53be 84fd 023e
00000360: 7bc3 05bd ddb7 933e f9b9 be3d 731a 933d
00000370: 53e6 04bd 4495 393e 7d66 0ebe 84e1 80be
00000380: 74b6 c13d a886 3fbd 8342 d9be 6c38 d5bd
00000390: cb1e 94be 0ade 613e 0714 563e 805f 3f3c
000003a0: 41f3 5f3d 6677 b13d 3fa8 72bd 84f2 0abe
000003b0: f5f1 133e 2515 883d 0a12 943e edef 273e
000003c0: 2df9 b1bd 2ef7 3f3e 50e1 1cbe bf83 583e
000003d0: 7e6e e6bd bdba ec3d dc57 acbd a08f d43d
000003e0: 65f6 6cbe 9b42 d03b 9d98 c7bd cccc 853e
000003f0: 7c3b 463d b9db 1abc c757 9dbe 18c0 3f3d

critic.0.bias f4 [64]
0.0092651 2.560534e-05 0.0 3.733798e-05 -9.8534216e-11 -0.028646417 0.0 -0.015985608
0.02369645 0.0 0.024236826 0.0011550258 -5.7940555e-09 -5.978702e-09 0.0 0.0085020065
0.0 -0.0021193048 0.0 5.5609974e-07 2.3828347e-08 0.0 4.3519183e-05 3.0318142e-07
0.011127879 0.00038830625 6.369238e-08 3.6658644e-08 -0.0016150546 -9.956021e-06 0.003836124 -0.010197237
-0.058704782 0.0 -3.957861e-06 0.0010794814 -3.4317267e-09 -0.010684591 0.008807077 -7.823359e-08
4.1172912e-05 0.00017484985 -0.0017151056 2.3508235e-05 0.024793755 -0.002419089 0.0061650267 4.5720356e-09
-1.12770795e-05 -0.0052159047 -0.031498883 -6.619656e-08 -0.057561573 -0.0035729571 0.0 -1.2503237e-10
0.0006084155 4.1749663e-05 -0.036638394 0.0 -6.5118766e-05 0.008383713 0.016320664 0.014596167
00000000: a5cc 173c 0dcb d637 0000 0000 5a9b 1c38
00000010: d5ad d8ae e4ab eabc 0000 0000 40f4 82bc
00000020: 0f1f c23c 0000 0000 4f8c c63c 3c64 973a
00000030: 0d15 c7b1 386d cdb1 0000 0000 004c 0b3c
00000040: 0000 0000 09e4 0abb 0000 0000 e246 1535
00000050: 17af cc32 0000 0000 5e88 3638 f0c4 a234
00000060: b551 363c 9595 cb39 42c7 8833 9b72 1d33
00000070: 3db0 d3ba c908 27b7 7b67 7b3b 5012 27bc
00000080: 6d74 70bd 0000 0000 c4cd 84b6 637d 8d3a
00000090: 93d3 6bb1 6c0e 2fbc 8f4b 103c 5f01 a8b3
000000a0: 14b1 2c38 e657 3739 65cd e0ba 8d33 c537
000000b0: 461c cb3c 9489 1ebb fe03 ca3b 0d18 9d31
000000c0: b032 3db7 2eea aabb f904 01bd f227 8eb3
000000d0: afc5 6bbd 4628 6abb 0000 0000 7c79 09af
000000e0: 137e 1f3a 5c1c 2f38 2412 16bd 0000 0000
000000f0: 5f90 88b8 d75b 093c eab2 853c c324 6f3c

critic.2.weight f4 [64, 64]
0.011181912 0.05092892 -0.24686395 -0.3764767 0.04626725 0.19022663 -0.025289683 -0.19452164
0.42814574 0.026993215 -0.2736595 0.059524726 -0.2793281 -0.044316858 -0.022809705 -0.043882072
-0.051849812 -0.11295159 -0.18346854 0.20761272 0.21376531 -0.114268385 -0.11669901 -0.32863796
-0.18449064 0.10647481 0.26794717 0.23725142 0.084310696 -0.115156956 0.04621756 0.11713487
0.009719111 0.0068706046 0.09870728 0.2714828 0.17475843 -0.05194922 0.10158261 0.011242383
-0.14931768 -0.08659613 0.08248379 0.101939596 0.181728 0.4462548 0.005477803 0.20568825
-0.012772953 0.20034884 0.1501838 0.015554996 -0.030412672 -0.23415539 0.33812255 0.21724264
-0.030291013 -0.062762976 -0.14336754 -0.26180017 -0.2820055 0.009980506 -0.19015647 0.13195309
0.15130687 -0.1057492 0.53007805 0.12247955 -0.12152081 0.046047356 0.063151084 -0.08406299
0.25747377 -0.013750355 0.11444403 0.10684248 -0.40807408 -0.008065176 0.019472359 -0.047143623
0.04926378 -0.1303846 -0.13525803 -0.39087102 -0.099469595 0.06510894 0.13055734 0.1935291
0.18038264 0.23907967 0.21102443 -0.0065108705 -0.044366818 0.13964438 -0.0052168127 -0.04251706
-0.027250545 -0.19786341 -0.11202533 -0.08450044 0.30464792 -0.12075465 0.16571645 0.16366254
-0.13263488 -0.2973072 -0.025940752 -0.33810046 0.2571716 -0.15772597 0.26835594 -0.025921986
-0.1035377 0.00537034 0.017274112 0.16583261 -0.014559631 0.09620011 -0.060598593 0.13511916
0.2843389 0.40181696 -0.21414052 0.14220428 -0.18818879 0.15387784 -0.080446765 -0.0049676406
0.34886196 0.069488496 -0.098220676 0.017435834 0.07956591 0.30481446 -0.009615129 0.14307311
-0.14702652 -0.26200473 -0.17416303 0.2516163 0.18947044 -0.12592295 0.13605988 -0.1366164
0.13422145 -0.055097517 -0.21718763 -0.1917282 0.07033527 -0.02228231 -0.17163523 -0.085520275
0.21363932 0.22058086 0.25133428 -0.28789088 -0.28537098 -0.122886434 -0.04691967 -0.19476297
0.23400185 0.1080926 -0.2530623 -0.10695882 0.06872064 0.46879512 -0.06519214 -0.06373768
0.0438469 0.08983393 0.07059641 0.07776745 0.095786415 0.06627334 0.1486674 0.2699817
-0.05287095 -0.058051527 -0.05749399 -0.007850247 -0.19985619 -0.12448313 -0.019665334 0.06918343
0.07471073 -0.069186345 -0.25593594 0.040491503 0.43802333 0.4071987 -0.007899556 -0.06267217
-0.11170225 -0.30198857 0.1567881 0.0760207 0.031198686 0.032510947 -0.024916714 0.17815684
-0.31404004 -0.25876415 -0.2583503 0.07128056 -0.45959458 0.24566393 -0.03581349 0.027353588
-0.025671087 -0.106943876 -0.10653863 0.22351266 0.011222332 -0.0508062 0.06530284 -0.12442813
0.007240159 0.2866013 -0.28463703 0.10564643 0.030624682 0.03097453 0.074532345 0.16672489
-0.09397946 -0.06171668 -0.28425393 0.17896977 -0.3306647 0.14938736 -0.24249151 0.20851424
0.12446732 0.11987646 -0.08884788 -0.074746124 -0.08081583 0.011194073 -0.05885387 -0.074986994
0.3867818 -0.30737627 0.033736814 0.055394843 0.16287015 0.009043567 0.3215484 0.40916455
0.12756874 -0.113504216 0.05925948 -0.16572471 -0.011947377 0.017357301 0.011305246 -0.21795076
00000000: 5734 373c d89a 503d e7c9 7cbe 8ec1 c0be
00000010: ba82 3d3d c5ca 423e 4f2c cfbc ae30 47be
00000020: eb35 db3e e020 dd3c 191d 8cbe 33d0 733d
00000030: 1804 8fbe 9885 35bd 6bdb babc b0bd 33bd
00000040: 7860 54bd 2a53 e7bd 2ddf 3bbe 6e98 543e
00000050: 4be5 5a3e 8b05 eabd e4ff eebd 3c43 a8be
00000060: 1deb 3cbe 770f da3d 5f30 893e 09f2 723e
00000070: 16ab ac3d 69d7 ebbd a04e 3d3d 68e4 ef3d
00000080: e83c 1f3c cf22 e13b 0b27 ca3d cbff 8a3e
00000090: e0f3 323e b5c8 54bd 8b0a d03d f931 383c
000000a0: bce6 18be 5059 b1bd 43ed a83d b5c5 d03d
000000b0: e816 3a3e 827b e43e 247f b33b f19f 523e
000000c0: a645 51bc 3f28 4d3e c8c9 193e 62da 7e3c
000000d0: ff23 f9bc 6ec6 6fbe 661e ad3e db74 5e3e
000000e0: dc24 f8bc e089 80bd f1ce 12be ac0a 86be
000000f0: 0663 90be 4785 233c 61b8 42be b61e 073e
00000100: 30f0 1a3e 0993 d8bd 32b3 073f 8fd6 fa3d
00000110: e7df f8bd 279c 3c3d 5b55 813d 3829 acbd
00000120: 9ad3 833e 2b49 61bc a261 ea3d 3bd0 da3d
00000130: 16ef d0be cd23 04bc 7f84 9f3c ac19 41bd
00000140: d1c8 493d 8a83 05be 1581 0abe 3f20 c8be
00000150: b7b6 cbbd d657 853d d3b0 053e 7e2c 463e
00000160: 3ab6 383e 4dd1 743e ca16 583e 2459 d5bb
00000170: fbb9 35bd f0fe 0e3e ccf1 aabb 5e26 2ebd
00000180: 893c dfbc b59c 4abe 896d e5bd 910e adbd
00000190: d0fa 9b3e 374e f7bd 93b1 293e 2797 273e
000001a0: 70d1 07be a638 98be b381 d4bc 811b adbe
000001b0: ffab 833e eb82 21be f365 893e 585a d4bc
000001c0: 930b d4bd adf9 af3b 7082 8d3c 06d0 293e
000001d0: 858b 6ebc 9004 c53d 3b36 78bd ad5c 0a3e
000001e0: de94 913e f4ba cd3e a747 5bbe 009e 113e
000001f0: 90b4 40be 2792 1d3e 46c1 a4bd 97c7 a2bb
00000200: 099e b23e fc4f 8e3d ec27 c9bd 98d5 8e3c
00000210: 74f3 a23d a410 9c3e c688 1dbc c281 123e
00000220: 1f8e 16be 7c25 86be cb57 32be dad3 803e
00000230: 8a04 423e f2f1 00be 4853 0b3e 2be5 0bbe
00000240: 5971 093e efad 61bd 6f66 5ebe 6654 44be
00000250: f00b 903d 6489 b6bc 25c1 2fbe 4125 afbd
00000260: 44c4 5a3e f3df 613e e3ae 803e 6f66 93be
00000270: 251c 92be e2ab fbbd d72e 40bd f26f 47be
00000280: 2e9e 6f3e a75f dd3d 6291 81be 3a0d dbbd
00000290: 68bd 8c3d ea05 f03e 7583 85bd e788 82bd
000002a0: cf98 333d dafa b73d da94 903d 8a44 9f3d
000002b0: ab2b c43d 51ba 873d 443c 183e 0b3b 8a3e
000002c0: 368f 58bd 70c7 6dbd d17e 6bbd 539e 00bc
000002d0: 1aa7 4cbe 03f1 febd 3219 a1bc 0bb0 8d3d
000002e0: f001 993d 92b1 8dbd 090a 83be 6bda 253d
000002f0: 9844 e03e 597c d03e 246d 01bc 445a 80bd
00000300: 26c4 e4bd 3f9e 9abe 0f8d 203e beb0 9b3d
00000310: 6394 ff3c 332a 053d 231e ccbc bf6e 363e
00000320: dbc9 a0be bc7c 84be 7e46 84be 8bfb 913d
00000330: fb4f ebbe 538f 7b3e 2bb1 12bd a214 e03c
00000340: 2c4c d2bc 6405 dbbd ed30 dabd 81e0 643e
00000350: dfdd 373c 291a 50bd 7fbd 853d 2dd4 febd
00000360: db3e ed3b 68bd 923e f2bb 91be 285d d83d
00000370: 9de0 fa3c 4cbe fd3c 6aa4 983d eeb9 2a3e
00000380: 4e78 c0bd a1ca 7cbd bb89 91be da43 373e
00000390: e24c a9be 00f9 183e b24f 78be c284 553e
000003a0: b9e8 fe3d ca81 f53d e1f5 b5bd 7f14 99bd
000003b0: c582 a5bd 5867 373c c110 71bd c892 99bd
000003c0: 4408 c63e 6c60 9dbe 9d2f 0a3d b4e5 623d
000003d0: 6fc7 263e 782b 143c fea1 a43e 047e d13e
000003e0: 61a1 023e e674 e8bd 12ba 723d bdb3 29be
000003f0: eebe 43bc e630 8e3c a339 393c 7c2e 5fbe

critic.2.bias f4 [64]
-0.01461359 0.025960838 0.009687399 -0.011033664 -0.019553093 -0.0036366484 -0.03257403 -0.007986888
-0.036930043 -0.032525 -0.0043605645 0.00095114514 0.01281592 0.0021683057 0.020015547 -0.00735854
-0.0049748076 0.004289601 -0.006983755 0.004822873 -0.0105771925 -0.020006903 0.023860442 -0.015057412
0.0054585994 0.027483989 -0.014058338 -0.0117672365 -0.0090021575 -0.021713076 0.008021561 0.02381156
-0.0036116363 -3.4973991e-06 0.003115351 -0.029162878 0.01754862 0.0027946832 0.0010019237 0.0022536109
0.016191237 -0.009783902 -0.013395588 0.01548234 -0.011475306 -0.0015412901 -0.004149254 0.00045010267
0.015904352 -0.028824143 -0.020016916 -0.007391613 0.0038847097 0.003446084 0.00019454815 -0.0006865018
-0.022807512 0.013444285 -0.017426757 0.010695445 -0.032043934 -0.01078802 -0.020550355 0.009965191
00000000: d76d 6fbc d3ab d43c e5b7 1e3c 8bc6 34bc
00000010: cf2d a0bc d654 6ebb 596c 05bd 70db 02bc
00000020: f543 17bd ef38 05bd 11e3 8ebb 4556 793a
00000030: ddf9 513c 221a 0e3b a5f7 a33c e81f f1bb
00000040: b603 a3bb c88f 8c3b fcd7 e4bb 3109 9e3b
00000050: f64b 2dbc 84e5 a3bc f976 c33c 5db3 76bc
00000060: 0dde b23b 1a26 e13c f154 66bc 5ecb 40bc
00000070: c97d 13bc 9fdf b1bc de6c 033c 7610 c33c
00000080: 34b1 6cbb dcb4 6ab6 eb2a 4c3b fde6 eebc
00000090: 20c2 8f3c 0127 373b fb52 833a 51b1 133b
000000a0: 7ca3 843c a94c 20bc 2b79 5bbc a4a9 7d3c
000000b0: ec02 3cbc 1d05 caba 77f6 87bb c2fb eb39
000000c0: d849 823c 9c20 ecbc 84fa a3bc 5835 f2bb
000000d0: 9d96 7e3b b2d7 613b 9fff 4b39 5bf6 33ba
000000e0: d2d6 babc 6b45 5c3c 8fc2 8ebc f33b 2f3c
000000f0: 8040 03bd 3cc0 30bc 3859 a8bc 0a45 233c

critic.4.weight f4 [1, 64]
0.10712888 -0.046225276 0.08679511 0.19799043 0.072093524 0.09650028 0.21817783 0.25004938
0.11185175 0.14845794 0.20037334 -0.03848853 -0.20702672 0.07697387 0.112024814 0.117017895
-0.05252241 0.03625529 0.26847595 0.09622241 0.21059062 0.15328552 0.011990698 0.09433005
-0.14924942 -0.1072212 0.096829705 -0.013054319 -0.13768157 0.10119414 -0.012901067 -0.16154821
0.12847266 -0.046838827 -0.06814352 0.042110812 -0.042277038 -0.087994434 0.007307404 0.092383355
-0.10522618 0.29154015 0.069551915 0.054521378 0.22346249 0.30146548 0.07616468 -0.044398222
-0.05714987 0.13113105 0.13628018 -0.07758888 -0.06711519 -0.19159396 -0.035360493 0.11136742
0.08930921 0.029586682 0.13830225 0.10655044 0.0015134978 0.013455963 0.122331955 -0.10711338
00000000: 6366 db3d b756 3dbd a2c1 b13d 01be 4a3e
00000010: c5a5 933d f0a1 c53d 026a 5f3e 7906 803e
00000020: 8812 e53d 5c05 183e ab2e 4d3e 26a6 1dbd
00000030: d0fe 53be 7aa4 9d3d 446d e53d 14a7 ef3d
00000040: bd21 57bd 6d80 143d ae75 893e 4110 c53d
00000050: 11a5 573e e1f6 1c3e a274 443c 1d30 c13d
00000060: d7d4 18be ca96 dbbd a74e c63d c8e1 55bc
00000070: 66fc 0cbe e03e cf3d ff5e 53bc e56c 25be
00000080: 568e 033e 12da 3fbd d48e 8bbd 637c 2c3d
00000090: b02a 2dbd 6d36 b4bd f372 ef3b 7c33 bd3d
000000a0: d380 d7bd c044 953e 3c71 8e3d cf51 5f3d
000000b0: 5ad3 643e af59 9a3e 3afc 9b3d e9da 35bd
000000c0: fb15 6abd 3847 063e 088d 0b3e ebe6 9ebd
000000d0: b073 89bd 3531 44be 2ad6 10bd 9a14 e43d
000000e0: bfe7 b63d c55f f23c 1b9f 0d3e 1e37 da3d
000000f0: 8f60 c63a 6676 5c3c 2d89 fa3d 435e dbbd
