fw_flightcontrol/models/icinco/ppo/actreg/caps/ppo_bohn_caps_nohist_noatmo_2164_31-05_14:56:55.pt (torch, 46870 bytes, 12 tensors)

actor_logstd f4 [1, 2]
0.09446852 0.1473468
00000000: b678 c13d 14e2 163e

actor_mean.0.weight f4 [64, 14]
-0.0046431064 -0.003934189 -0.15771198 -0.0081534535 0.064803645 0.15645747 -0.1597257 0.056610677
-0.06273816 -0.110673346 0.57578564 0.35084102 -0.1935915 0.0059836586 0.028037716 -0.004763943
-0.073353805 0.047628053 -0.03165895 -0.04531884 0.12753503 -0.17363043 0.052888956 -0.038864233
0.1619299 -0.11556585 0.06623441 0.14255734 -0.11886294 -0.17637375 -0.3486131 -0.10807472
0.039936665 -0.054668654 0.068352886 -0.05051986 0.106469 -0.21473286 -0.3318326 -0.0336475
0.18944308 -0.13594921 -0.25049698 0.10120941 -0.016746512 0.028255956 -0.034724593 -0.16853014
0.040789176 0.22396594 0.19995269 -0.044715833 -0.2046316 -0.19170476 0.05723723 -0.037534565
0.09628469 -0.052164882 0.19175985 -0.015911508 0.08629936 -0.25936702 -0.008916151 0.0054794056
-0.05576476 -0.01802759 -0.019055584 0.2468695 0.08109947 -0.17248948 0.424727 0.17664598
-0.19607687 0.25249216 0.04474264 0.57199186 0.09933045 -0.07242485 -0.07302758 0.04986328
0.11306698 0.04467169 0.15677133 0.17101008 -0.086076036 -0.020415902 0.28904337 0.2799359
0.32700413 0.060741127 0.2780359 0.06490735 0.07095775 0.10871086 0.17382395 -0.06321543
0.05799753 -0.24561036 0.05906372 -0.14947505 0.08031206 0.22205657 0.08168711 0.12383009
0.12810692 -0.047541507 -0.29602066 0.06865161 -0.054464478 0.111688405 -0.032249317 -0.034135118
-0.045827027 -0.013850485 -0.16940668 0.13771494 -0.075748004 0.08447949 0.28746143 -0.15518749
-0.103695355 0.11246778 -0.24315718 0.22696812 0.054502413 -0.10734969 -0.32605276 0.47426
-8.0289836e-05 -0.21333018 -0.05986077 -0.07406905 0.8089506 -0.6341714 0.12364228 0.023931053
0.1388332 0.30409402 0.1850632 -0.27267158 0.13201171 -0.064150594 0.24393599 0.25197577
-0.28916895 0.17846979 0.17093387 -0.07229049 -0.22609973 0.14455147 0.15386647 -0.22039162
0.13312714 -0.1328495 -0.02692671 -0.18945691 -0.13396846 0.1063809 0.18772413 0.09153722
-0.07979598 -0.06870618 -0.07777182 0.14701824 -0.05286601 -0.10548763 0.032668162 0.18266235
0.22916211 0.09034827 -0.2523115 -0.116376445 -0.26427004 0.05479093 -0.2266747 -0.27521437
0.01821253 -0.2886764 -0.12746085 -0.02409876 0.23880118 0.006610725 -0.04826503 -0.27762914
-0.32516328 0.13394195 0.24029718 -0.13490084 -0.021539522 0.07913073 0.20011787 -0.14239791
0.06564176 -0.120636895 0.40177965 -0.12591372 0.36362198 0.093711935 0.11409601 -0.33000427
0.24594839 -0.14330594 0.05707268 0.15254724 0.1500719 -0.20906003 0.2378174 -0.1445011
-0.12979591 0.026940461 0.1700693 0.058268495 -0.2808483 -0.061509546 0.120269574 0.14361937
0.107789196 0.09235695 -0.32248637 0.032127094 -0.15509166 0.110906124 -0.011850517 -0.19408435
-0.11242993 0.1686169 0.044190865 -0.29603657 -0.008606871 0.0023249944 -0.10443902 -0.19857165
-0.21452 0.04757592 0.11569934 -0.058543116 -0.11388838 0.23216845 0.20034866 -0.018331343
0.33895 0.027797835 0.047957152 0.23783255 0.019235462 0.15526628 0.3134803 0.047240656
-0.37948316 0.17579837 -0.31065404 -0.18413804 0.045472067 -0.024837868 -0.23299073 0.090584256
00000000: 3325 98bb 5fea 80bb 407f 21be 1096 05bc
00000010: c6b7 843d 6336 203e 228f 23be 99e0 673d
00000020: dd7c 80bd b5a8 e2bd b066 133f 6fa1 b33e
00000030: da3c 46be 9112 c43b 5aaf e53c da1a 9cbb
00000040: 853a 96bd a215 433d d1ac 01bd 3fa0 39bd
00000050: 8b98 023e 2dcc 31be 17a2 583d 1a30 1fbd
00000060: f4d0 253e caad ecbd e8a5 873d 8dfa 113e
00000070: 6a6e f3bd 529b 34be 6b7d b2be 4756 ddbd
00000080: a194 233d 3dec 5fbd 99fc 8b3d eaed 4ebd
00000090: 6b0c da3d eee2 5bbe f6e5 a9be f6d1 09bd
000000a0: 5efd 413e 4536 0bbe 2441 80be e146 cf3d
000000b0: fb2f 89bc 0979 e73c 603b 0ebd 2a93 2cbe
000000c0: 8d12 273d 5457 653e 66c0 4c3e f327 37bd
000000d0: f28a 51be 414e 44be 9671 6a3d d8bd 19bd
000000e0: e830 c53d d8aa 55bd b25c 443e da58 82bc
000000f0: b8bd b03d c1cb 84be 0c15 12bc 968c b33b
00000100: 9769 64bd 99ae 93bc 751a 9cbc 5ccb 7c3e
00000110: 7b17 a63d 15a1 30be d175 d93e afe2 343e
00000120: 60c8 48be a746 813e 0f44 373d 0f6e 123f
00000130: c36d cb3d 7b53 94bd 7c8f 95bd 703d 4c3d
00000140: a98f e73d a9f9 363d aa88 203e 441d 2f3e
00000150: a248 b0bd 403f a7bc 7efd 933e c253 8f3e
00000160: 166d a73e b0cb 783d b95a 8e3e 25ee 843d
00000170: 4c52 913d cda3 de3d e8fe 313e 1777 81bd
00000180: d18e 6d3d 4881 7bbe cdec 713d fd0f 19be
00000190: a67a a43d cc62 633e 924b a73d a19a fd3d
000001a0: 762e 033e e2ba 42bd 0590 97be 3799 8c3d
000001b0: 2516 5fbd e4bc e43d dc17 04bd 44d1 0bbd
000001c0: 1fb5 3bbd 25ed 62bc f278 2dbe 2505 0d3e
000001d0: c521 9bbd 9503 ad3d 252e 933e 78e9 1ebe
000001e0: 3b5e d4bd 8255 e63d 32fe 78be 556a 683e
000001f0: ec3d 5f3d 27da dbbd 63f0 a6be 35d2 f23e
00000200: 4761 a8b8 3a73 5abe 9130 75bd 84b1 97bd
00000210: 6317 4f3f 0f59 22bf 2a38 fd3d 0e0b c43c
00000220: 4a2a 0e3e 36b2 9b3e 3581 3d3e 9c9b 8bbe
00000230: 142e 073e 6361 83bd 5bca 793e f802 813e
00000240: f40d 94be c9c0 363e 4a09 2f3e 090d 94bd
00000250: b086 67be 4d05 143e 2c8f 1d3e 57ae 61be
00000260: 7b52 083e b309 08be 6795 dcbc fe00 42be
00000270: 072f 09be 3bde d93d c13a 403e de77 bb3d
00000280: 136c a3bd d3b5 8cbd d546 9fbd f38b 163e
00000290: 088a 58bd e609 d8bd 0dcf 053d d70b 3b3e
000002a0: 79a9 6a3e 8408 b93d f92e 81be c656 eebd
000002b0: 674e 87be 746c 603d 6a1d 68be e6e8 8cbe
000002c0: 7232 953c 65cd 93be 1985 02be c36a c5bc
000002d0: 4c88 743e c89e d83b 8db1 45bd 6825 8ebe
000002e0: cd7b a6be 1428 093e 7710 763e 7223 0abe
000002f0: a773 b0bc 4b0f a23d b3eb 4c3e c2d0 11be
00000300: 306f 863d 7a10 f7bd 10b6 cd3e 87ef 00be
00000310: a92c ba3e 0bec bf3d 2bab e93d 52f6 a8be
00000320: e5d9 7b3e cbbe 12be 0bc5 693d 5835 1c3e
00000330: 73ac 193e d513 56be 6886 733e 19f8 13be
00000340: 38e9 04be 3eb2 dc3c a626 2e3e f2aa 6e3d
00000350: 59cb 8fbe 6ff1 7bbd e54f f63d f510 133e
00000360: 95c0 dc3d a425 bd3d ef1c a5be b397 033d
00000370: 59d0 1ebe c022 e33d ac28 42bc 0cbe 46be
00000380: aa41 e6bd e9a9 2c3e 7b01 353d 1b92 97be
00000390: d503 0dbc ef5e 183b 20e4 d5bd 5e56 4bbe
000003a0: 22ab 5bbe f8de 423d c7f3 ec3d e8ca 6fbd
000003b0: 503e e9bd 91bd 6d3e 3328 4d3e 9d2b 96bc
000003c0: db8a ad3e 49b8 e33c b86e 443d 608a 733e
000003d0: b093 9d3c 20fe 1e3e 7d80 a03e 6b7f 413d
000003e0: 9e4b c2be 7d04 343e 0c0e 9fbe af8e 3cbe
000003f0: eb40 3a3d c978 cbbc 1f95 6ebe 3d84 b93d

actor_mean.0.bias f4 [64]
-0.00038480465 -0.010007792 -1.7362991e-08 0.043501835 2.7640572e-06 -0.0016366486 9.78839e-09 0.003705348
0.0002961477 0.024926841 -3.9912493e-07 5.8708858e-05 -0.0048155608 -0.0012380515 0.004692606 5.0152414e-07
-0.012038187 0.0017638964 -3.7663933e-06 0.027249865 -0.0028313168 -0.005622915 -0.018709745 -0.00035069967
3.1576326e-06 0.024930518 0.017499551 0.0035998235 0.0047746263 7.331755e-10 0.009493233 -0.010574645
3.000324e-08 0.009513573 2.7035916e-05 4.820168e-07 0.0017784702 -6.346606e-05 -0.009026172 -3.982486e-07
-1.1777612e-08 -0.0176774 0.0152966995 2.6047404e-09 -0.0018037495 0.015491032 -0.00014973096 -8.774603e-09
0.049128428 -4.8374485e-08 0.04450391 0.0031568755 1.162632e-05 0.0073175137 -0.031395033 -0.0032066999
0.0002852041 0.008002423 0.07612124 -4.636202e-05 0.056744937 -0.05773159 -0.014054566 -0.06627748
00000000: 9bbf c9b9 b9f7 23bc 9f25 95b2 fb2e 323d
00000010: 247e 3936 d084 d6ba cb29 2832 6cd5 723b
00000020: 4544 9b39 6033 cc3c 5047 d6b4 283e 7638
00000030: dacb 9dbb 1d46 a2ba 6fc4 993b 7aa0 0635
00000040: d13b 45bc 8b32 e73a 25c2 7cb6 1c3b df3c
00000050: 9d8d 39bb 6e40 b8bb 2e45 99bc 1dde b7b9
00000060: b7e7 5336 163b cc3c 385b 8f3c 04eb 6b3b
00000070: 7874 9c3b a488 4930 8189 1b3c 4741 2dbc
00000080: e9dc 0033 d1de 1b3c 30cb e237 f163 0135
00000090: 8f1b e93a 1519 85b8 82e2 13bc dfce d5b4
000000a0: 7c56 4ab2 32d0 90bc 029f 7a3c 14ff 3231
000000b0: ca6b ecba 19ce 7d3c 1901 1db9 1dbf 16b2
000000c0: e43a 493d 4fc4 4fb3 bb49 363d 95e3 4e3b
000000d0: aa0e 4337 c1c7 ef3b 1498 00bd 7f27 52bb
000000e0: 7287 9539 981c 033c 74e5 9b3d d774 42b8
000000f0: 616d 683d f677 6cbd 1f45 66bc 7dbc 87bd

actor_mean.2.weight f4 [64, 64]
0.08361358 -0.15115802 -0.14850782 0.31664282 -0.021511208 -0.07485168 -0.09060465 0.07561952
-0.011965306 0.007347556 -0.30582488 -0.10610418 0.08142129 0.19138224 0.18903121 0.20256351
0.21206418 -0.053504 -0.41809472 0.4190487 -0.0028605098 -0.240068 -0.20505217 0.24357712
-0.22590494 0.08983908 -0.098508246 -0.2785268 0.01911067 0.052380573 0.06711421 0.22765
0.13381445 -0.1310636 0.17272906 0.1010689 -0.12472518 0.091566145 -0.117879614 -0.10863972
0.11685153 -0.17299883 -0.40295672 0.06690062 -0.055022653 -0.090753786 0.06055482 -0.014920687
0.12831022 -0.31773725 -0.19915593 0.2253575 -0.19153732 0.16428609 -0.11076258 -0.2022109
-0.16470167 -0.05797551 -0.012572089 -0.20890072 0.32254696 -0.02718125 0.0057428055 0.30516595
-0.078300275 -0.08670822 -0.037292115 0.017709281 0.08210045 -0.10092064 -0.06096024 -0.04242432
-0.12675798 -0.33438137 0.42214635 0.07000214 0.04028367 -0.2202226 0.1707165 0.41213208
-0.072950095 -0.049983192 -0.04729248 0.101597786 -0.2584361 -0.35223827 0.02059332 0.017939748
0.044951335 0.3904256 -0.119078964 0.3817299 -0.010609929 -0.12753373 -0.07055093 0.19285287
-0.024243567 0.21383621 0.014643241 -0.006813643 0.079810634 0.10427827 0.03583247 -0.14382847
-0.06726299 -0.2145523 -0.08715108 0.0038276336 0.3257657 -0.29386196 0.017743591 -0.04414625
-0.063082874 0.005373081 0.17299786 -0.33968553 0.31016248 -0.18715285 0.107328534 0.35735622
-0.32427162 -0.19368605 -0.09089889 -0.11999234 0.21467 -0.12826926 0.29626393 0.0101794265
0.09760597 0.31978485 0.27037206 -0.03622747 -0.1399709 -0.14574258 0.13704489 0.4440377
0.06345193 0.53469104 -0.1707833 -0.06987876 0.099435106 -0.075326666 0.2542474 -0.19735347
0.035037316 -0.07510078 -0.1069088 0.096913286 -0.03437911 -0.008717762 -0.19699492 -0.19569337
0.1597928 -0.029160041 0.33011866 0.18275037 -0.1567621 -0.05608117 0.1065969 0.26935863
-0.04229638 0.09663219 0.03066686 0.06374058 -0.09523034 -0.22641388 0.15144266 -0.017692562
0.221135 0.07153017 -0.13390112 0.23410372 0.0089420155 -0.27449033 -0.2370309 -0.16842225
0.086299606 0.0108207185 -0.20041083 -0.06863329 0.30147606 -0.15831888 0.13461643 0.1372699
-0.048098885 0.037007887 0.020501086 -0.1667509 -0.21589647 -0.16930002 -0.24404451 -0.3597861
-0.10173703 -0.24196267 0.12685224 -0.014163182 -0.063589804 -0.30071968 0.2509378 -0.15894772
-0.058926992 -0.4051716 0.1375881 -0.14306818 0.4004173 -0.1472124 0.15941006 0.04345576
-0.24457347 -0.04908425 -0.025735904 0.054782502 -0.07080486 0.047818843 0.24281576 0.21791665
0.012726473 -0.2059817 -0.0813058 0.35883623 0.090076365 -0.06530325 0.36632755 0.10955093
0.09774108 -0.3878036 -0.14827058 -0.1192447 0.0455957 0.10695133 -0.122839 0.056496102
0.020522088 0.012657821 0.14569582 0.26362783 0.2538892 -0.09063697 -0.12110935 0.080488466
-0.03214032 -0.14576572 -0.046072777 0.19248115 0.24796744 0.24883418 0.15568818 0.21897395
-0.030510202 0.26861158 0.28366202 0.21971756 0.020555744 0.08731604 -0.30468255 0.23587814
00000000: 993d ab3d 2bc9 1abe 6f12 18be 021f a23e
00000010: 4638 b0bc d64b 99bd ee8e b9bd 68de 9a3d
00000020: 210a 44bc c4c3 f03b 1495 9cbe 264d d9bd
00000030: 35c0 a63d b5f9 433e 6691 413e cf6c 4f3e
00000040: 5a27 593e 0327 5bbd 8310 d6be 8d8d d63e
00000050: 6477 3bbb 63d4 75be 32f9 51be 486c 793e
00000060: a053 67be 8dfd b73d b1be c9bd 119b 8ebe
00000070: fb8d 9c3c 038d 563d 2d73 893d 151d 693e
00000080: a806 093e 8935 06be e3df 303e 36fd ce3d
00000090: ea6f ffbd 0887 bb3d de6a f1bd 807e debd
000000a0: db4f ef3d 9b26 31be 5850 cebe 3103 893d
000000b0: 6f5f 61bd 1fdd b9bd 5508 783d e675 74bc
000000c0: c163 033e 75ae a2be 88ef 4bbe 1ec4 663e
000000d0: 5c22 44be 9d3a 283e 7ed7 e2bd 6010 4fbe
000000e0: 8ea7 28be ba77 6dbd 2afb 4dbc 12ea 55be
000000f0: e024 a53e 36ab debc 252e bc3b b63e 9c3e
00000100: e55b a0bd 1494 b1bd 9ebf 18bd 0e13 913c
00000110: 4824 a83d 7baf cebd 72b1 79bd 20c5 2dbd
00000120: d8cc 01be 0934 abbe 9123 d83e 485d 8f3d
00000130: 7d00 253d 0982 61be 4ed0 2e3e fa02 d33e
00000140: dc66 95bd 2dbb 4cbd c2b5 41bd 8012 d03d
00000150: bd51 84be 9358 b4be 52b3 a83c 61f6 923c
00000160: e41e 383d dde5 c73e acdf f3bd 1a72 c33e
00000170: 45d5 2dbc 3498 02be 027d 90bd 397b 453e
00000180: 729a c6bc e1f7 5a3e 34ea 6f3c fb44 dfbb
00000190: c273 a33d d88f d53d 11c5 123d c547 13be
000001a0: 2ec1 89bd 99b3 5bbe 447c b2bd 09d9 7a3b
000001b0: c3ca a63e 1375 96be 025b 913c b3d2 34bd
000001c0: 9831 81bd ac10 b03b 5a26 313e 43eb adbe
000001d0: 9ecd 9e3e ffa4 3fbe 10cf db3d 65f7 b63e
000001e0: ee06 a6be a355 46be 3229 babd 8bbe f5bd
000001f0: 74d2 5b3e 0459 03be e8af 973e 9cc7 263c
00000200: a4e5 c73d d7ba a33e 356e 8a3e 4163 14bd
00000210: 8854 0fbe 8b3d 15be 7f55 0c3e e958 e33e
00000220: 16f3 813d 83e1 083f d1e1 2ebe 981c 8fbd
00000230: a2a4 cb3d de44 9abd b72c 823e 0717 4abe
00000240: 4a83 0f3d 70ce 99bd 00f3 dabd 797a c63d
00000250: 1cd1 0cbd f2d4 0ebc 09b9 49be d863 48be
00000260: b9a0 233e 0ae1 eebc 5005 a93e ea22 3b3e
00000270: 3e86 20be 5eb5 65bd 7a4f da3d 60e9 893e
00000280: f83e 2dbd 19e7 c53d 1139 fb3c 6c8a 823d
00000290: 2008 c3bd 0ad9 67be c913 1b3e feef 90bc
000002a0: 3771 623e 697e 923d 601d 09be e3b8 6f3e
000002b0: 8881 123c ff89 8cbe 3ab8 72be e276 2cbe
000002c0: d9bd b03d 6249 313c 7f38 4dbe 9c8f 8cbd
000002d0: 125b 9a3e 581e 22be e4d8 093e 7b90 0c3e
000002e0: 5603 45bd 9595 173d e5f1 a73c bfc0 2abe
000002f0: f713 5dbe fc5c 2dbe cee6 79be e235 b8be
00000300: 815b d0bd 10c5 77be 8ee5 013e b10c 68bc
00000310: 5f3b 82bd eef7 99be eb7a 803e 31c3 22be
00000320: 6e5d 71bd a772 cfbe e5e3 0c3e 7780 12be
00000330: 7f03 cd3e d9be 16be 643c 233e abfe 313d
00000340: 7871 7abe 910c 49bd 1ad4 d2bc 9e63 603d
00000350: 2302 91bd b1dd 433d b2a4 783e 8b25 5f3e
00000360: b282 503c deec 52be a883 a6bd 62b9 b73e
00000370: f579 b83d b6bd 85bd 498f bb3e 3d5c e03d
00000380: 7a2c c83d 328e c6be 3ed4 17be 9136 f4bd
00000390: 8fc2 3a3d 4d09 db3d 0393 fbbd 7568 673d
000003a0: f01d a83c c062 4f3c 4931 153e 3afa 863e
000003b0: c4fd 813e e09f b9bd 2e08 f8bd 23d7 a43d
000003c0: 91a5 03bd 9c43 15be cfb6 3cbd c719 453e
000003d0: 2deb 7d3e 63ce 7e3e b96c 1f3e b53a 603e
000003e0: 88f0 f9bc 7587 893e 263c 913e a4fd 603e
000003f0: 8564 a83c c1d2 b23d 5aff 9bbe 0a8a 713e

actor_mean.2.bias f4 [64]
-0.037336163 0.03864522 -0.02471994 0.00736928 -0.011386069 0.0015000658 0.022333782 -0.008842121
-0.015498755 -0.017688056 -0.014140861 -0.007632203 0.028931154 0.012902614 0.0103204 -0.017275253
0.024853153 0.017278653 -0.044961985 -0.006956202 -0.012635208 -0.012040076 -0.026247917 -0.005381913
-0.014497354 -0.01027571 0.028557003 0.026577104 0.0023010196 -0.012725229 -0.0021497773 0.006489065
-0.027681857 0.01852948 -0.0049811173 -0.0059477943 -0.012276897 -0.0048395046 -0.019291168 0.004306474
0.007559986 0.03633584 0.017720144 0.006760136 0.0469208 -0.00087749155 -0.00072776637 0.014458365
-0.01040478 -0.0008207559 0.013332996 -0.022832837 -0.008523938 -0.014751067 0.011521791 0.024267806
-0.027623827 -0.041069172 0.03581278 -0.013708288 -0.034844816 0.007881204 0.0036915825 0.0043259035
00000000: ceed 18bd 734a 1e3d 7981 cabc 007a f13b
00000010: a28c 3abc db9d c43a 56f5 b63c 8bde 10bc
00000020: 7dee 7dbc 8be6 90bc 12af 67bc 8f17 fabb
00000030: 0701 ed3c 7c65 533c e516 293c d584 8dbc
00000040: d798 cb3c f68b 8d3c 0f2a 38bd daf0 e3bb
00000050: e703 4fbc bd43 45bc df05 d7bc c25a b0bb
00000060: 4f86 6dbc 745b 28bc 60f0 e93c 3ab8 d93c
00000070: b4cc 163b 7b7d 50bc 47e3 0cbb 39a2 d43b
00000080: 10c5 e2bc 23cb 973c a438 a3bb b7e5 c2bb
00000090: 0a25 49bc b594 9ebb 8308 9ebc 521d 8d3b
000000a0: c2b9 f73b e4d4 143d d629 913c 2284 dd3b
000000b0: 0630 403d 7607 66ba 93c7 3eba c7e2 6c3c
000000c0: cf78 2abc ff27 57ba a372 5a3c ee0b bbbc
000000d0: fda7 0bbc 76ae 71bc e5c5 3c3c 47cd c63c
000000e0: 5d4b e2bc 2638 28bd 6cb0 123d ba98 60bc
000000f0: 70b9 0ebd 2a20 013c 7aee 713b 4fc0 8d3b

actor_mean.4.weight f4 [2, 64]
0.061302505 -0.10562279 0.027265118 -0.05160045 -0.082642324 -0.12751842 -0.06763519 0.020337006
0.17880423 0.11165107 0.017260665 -0.11579497 -0.06454254 0.04732637 0.014590662 -0.0012326225
-0.09236575 0.097619094 0.13188508 0.0016735897 -0.060434543 0.08828035 0.056752976 -0.25010523
-0.08383626 0.0068412083 -0.042155847 -0.089659885 -0.0022736003 0.004923058 0.12283799 0.06794969
-0.002397083 0.15210688 -0.0008571933 0.12354257 0.0029010307 -0.0070630396 -0.0666807 0.061652124
-0.18401164 0.11714343 -0.02756582 0.11055105 -0.054953273 -0.12891822 -0.16355857 -0.15675236
-0.08584063 -0.06999241 -0.03769709 0.13816957 0.011600162 0.21212158 -0.18846166 0.13218215
0.22085857 0.016536402 -0.031886563 -0.11293252 -0.009968802 -0.05541305 -0.28280795 0.00032300473
-0.042768 -0.054509632 0.08891732 -0.07005774 0.14493059 0.08825875 -0.06540054 -0.17363517
-0.029874671 0.15633796 0.09072081 0.060408622 0.06913021 -0.048202783 0.16154768 0.20890011
0.06704358 0.14556296 0.08269211 -0.001212025 -0.15771873 -0.061622564 0.12557893 -0.017972657
0.14093803 -0.06949427 -0.1190666 -0.06445534 -0.00018027553 -0.15299577 0.11569052 -0.030227482
0.059121676 0.00507456 0.0004406942 -0.12364839 -0.042298775 0.1823278 -0.058810763 -0.18869552
-0.009791879 0.07301045 0.07394574 -0.004300432 -0.09064455 0.13874449 0.18055476 -0.08404872
0.09889609 -0.19178148 -0.20453934 0.07865441 -0.06701232 -0.019487698 -0.12515596 0.050804745
0.020291016 0.024815084 0.050490476 0.026545487 -0.08755246 0.12654391 -0.15946558 0.0023782349
00000000: 5618 7b3d c350 d8bd 195b df3c fe5a 53bd
00000010: 6140 a9bd 3094 02be 5284 8abd cb99 a63c
00000020: 7518 373e 51a9 e43d 3d66 8d3c ea25 edbd
00000030: e12e 84bd 4cd9 413d ac0d 6f3c f38f a1ba
00000040: 412a bdbd 85ec c73d e20c 073e 5a5c db3a
00000050: 368a 77bd 54cc b43d cf75 683d cb0d 80be
00000060: 58b2 abbd 372c e03b 9cab 2cbd 9a9f b7bd
00000070: af00 15bb 9b51 a13b 7c92 fb3d 3529 8b3d
00000080: 6118 1dbb e8c1 1b3e 45b5 60ba e303 fd3d
00000090: 381f 3e3b 1271 e7bb e48f 88bd f086 7c3d
000000a0: 8c6d 3cbe e5e8 ef3d b7d1 e1bc 9768 e23d
000000b0: af16 61bd 2303 04be e67b 27be b183 20be
000000c0: 36cd afbd 2e58 8fbd 4468 1abd 537c 0d3e
000000d0: 9b0e 3e3c 6636 593e 18fc 40be c25a 073e
000000e0: c028 623e 5977 873c 7c9b 02bd 2a49 e7bd
000000f0: 3054 23bc cbf8 62bd 34cc 90be f658 a939
00000100: 802d 2fbd 7e45 5fbd 491a b63d 6f7a 8fbd
00000110: af68 143e 01c1 b43d b8f0 85bd 6bcd 31be
00000120: babb f4bc 0f17 203e d5cb b93d 086f 773d
00000130: 2494 8d3d 4870 45bd c16c 253e e9e9 553e
00000140: 254e 893d 750e 153e 7b5a a93d cfdc 9eba
00000150: 0581 21be f167 7cbd c397 003e 653b 93bc
00000160: 0f52 103e 0353 8ebd 31d9 f3bd 2901 84bd
00000170: 5808 3db9 ecaa 1cbe 27ef ec3d a09f f7bc
00000180: 9229 723d 7f48 a63b f90c e739 5e3b fdbd
00000190: 7b41 2dbd 24b4 3a3e 8ee3 70bd 6639 41be
000001a0: 1e6e 20bc 8186 953d dd70 973d a3ea 8cbb
000001b0: daa3 b9bd 0913 0e3e 59e3 383e bc21 acbd
000001c0: 098a ca3d 5d62 44be c372 51be 9015 a13d
000001d0: c13d 89bd aaa4 9fbc e228 00be a318 503d
000001e0: 5839 a63c 0149 cb3c 1acf 4e3d ec75 d93c
000001f0: b44e b3bd ba94 013e f24a 23be 29dc 1b3b

actor_mean.4.bias f4 [2]
0.00095438573 0.00025940372
00000000: be2f 7a3a 9400 8839

critic.0.weight f4 [64, 14]
-0.116256066 -0.009618596 0.007859873 0.007309451 0.06458796 0.021786192 -0.1463673 -0.19711782
0.17270349 -0.11682945 -0.04717148 -0.03267872 0.064990215 0.02446158 0.2818348 0.23843372
-0.12323098 0.36044502 0.029523164 0.23753798 0.060396887 -0.055939663 -0.21484387 0.09066268
-0.15523808 -0.25253356 -0.113817416 -0.23838267 0.14401634 -0.051612284 0.22935654 0.032906674
0.06827624 0.00056212273 0.07864853 0.24478303 -0.104823455 -0.09594785 -0.039776422 -0.06079946
-0.07432479 -0.26947927 0.1159682 -0.28967637 -0.27988687 -0.019483076 0.31487975 -0.12294741
0.11582487 -0.14519772 0.094978414 -0.13246171 0.04806634 0.19435386 0.026214207 0.11332579
0.0381029 -0.31445944 -0.0031266473 0.27322814 -0.016842786 0.21957664 0.8271105 0.47305906
-0.11912434 0.0878595 0.057585727 0.0024120437 0.3700878 0.10388063 -0.17098027 0.03874218
-0.01686587 0.089458235 0.06361757 0.09352331 0.090817414 0.83169156 0.15433511 -0.14105959
0.032094512 -0.07309049 0.1341043 0.45275092 -0.0029306407 -0.11908961 -0.057882782 0.068107925
-0.17957315 -0.102549985 0.014959062 -0.28478864 -0.06697492 -0.14093235 -0.1351647 0.15853003
0.044706296 -0.40893224 0.079646744 0.22379185 0.18219249 0.17668901 0.08424256 -0.2088849
0.13284333 -0.16012363 -0.04626709 -0.25038037 0.30996376 0.21175396 -0.3240953 -0.042416926
-0.12575802 0.17706263 0.17233934 0.02935526 -0.07722902 -0.013503042 -0.1317221 0.040465016
0.18167168 -0.04787903 -0.067322135 0.08102291 0.18165405 -0.101820335 0.05738888 0.14238866
0.11077608 -0.29769632 -0.1031122 0.097295396 0.08930825 -0.08486689 -0.14527354 -0.12408317
-0.2010548 0.12636124 -0.015806535 0.17912766 -0.19319427 0.37737685 -0.0020570895 0.008958592
0.032352705 -3.112667e-05 -0.1322987 -0.10783337 -0.14970909 0.029278526 -0.00410423 -0.061564047
-0.13213621 0.6407377 -0.0353168 0.2844615 -0.012539175 0.14232552 0.048339505 0.12272141
0.54927063 -0.5814325 0.17464118 -0.04629903 -0.025769286 0.10685589 0.15930168 -0.05278661
-0.45249248 0.33370382 -0.014327149 -0.17876542 -0.040385853 -0.19940723 1.069496 0.007418533
0.0938782 0.24327861 0.04514928 -0.023466038 0.07859054 0.015623057 0.13517909 0.14120021
0.2032516 -0.30068636 0.13669458 0.042833127 -0.23582947 -0.21026719 -0.13352194 -0.26517987
0.12539542 -0.19623423 -0.08163632 -0.23848239 0.012731087 0.13737759 0.22731645 0.1660596
-0.14411153 0.040411983 0.24578352 -0.039688338 -0.0034274287 -0.041848604 -0.21237437 0.10727001
-0.42369843 0.13788469 0.020081446 -0.10710903 0.07446528 0.20519426 0.10002777 0.2571831
0.094210505 0.00201321 -0.09314822 0.16477643 0.043029655 -0.073356695 -0.14144854 -0.17304136
-0.26417768 0.11682368 -0.118862145 -0.018305102 0.46384376 -0.15360261 0.08594127 0.36893973
0.07091623 0.020730365 -0.012698526 0.13569508 -0.2544032 -0.04419783 -0.16727217 -0.24624619
0.014766503 -0.1761935 0.052728973 -0.1887518 1.1401806 0.3911086 0.23100601 0.10744233
0.011222989 -0.024743654 0.073901005 0.0646561 -0.08459264 -0.29175654 -0.06794474 0.08133671
00000000: a917 eebd 5197 1dbc b2c6 003c 1e84 ef3b
00000010: b146 843d f578 b23c 4fe1 15be 41d9 49be
00000020: 2fd9 303e 4744 efbd e236 41bd 1fda 05bd
00000030: 9719 853d a763 c83c a74c 903e f827 743e
00000040: 8660 fcbd 408c b83e 90da f13c 283d 733e
00000050: ba62 773d fd20 65bd 0800 5cbe 5bad b93d
00000060: bbf6 1ebe 144c 81be 1b19 e9bd 961a 74be
00000070: 0579 133e 6767 53bd 71dc 6a3e 26c9 063d
00000080: 6ad4 8b3d 6b5b 133a 7b12 a13d 67a8 7a3e
00000090: aead d6bd 4e80 c4bd 9aec 22bd db08 79bd
000000a0: 9837 98bd 30f9 89be bc80 ed3d 7650 94be
000000b0: 554d 8fbe f99a 9fbc eb37 a13e dacb fbbd
000000c0: 9735 ed3d b6ae 14be 0b84 c23d 0ba4 07be
000000d0: 36e1 443d b304 473e 2dbf d63c 5a17 e83d
000000e0: c911 1c3d d400 a1be 70e8 4cbb 8fe4 8b3e
000000f0: e2f9 89bc b3d8 603e 84bd 533f cc34 f23e
00000100: 76f7 f3bd aeef b33d 03df 6b3d 6113 1e3b
00000110: 267c bd3e 5ebf d43d 7415 2fbe 1fb0 1e3d
00000120: 4b2a 8abc e135 b73d ee49 823d 2689 bf3d
00000130: 7bfe b93d bde9 543f 060a 1e3e ed71 10be
00000140: 8975 033d 78b0 95bd a352 093e f8ce e73e
00000150: fe0f 40bb 41e5 f3bd 7f16 6dbd 2b7c 8b3d
00000160: 06e2 37be ba05 d2bd db16 753c d1cf 91be
00000170: 262a 89bd 9250 10be 9d68 0abe b255 223e
00000180: f31d 373d 915f d1be d51d a33d b129 653e
00000190: ab90 3a3e f7ed 343e 5d87 ac3d ece5 55be
000001a0: 1508 083e 73f7 23be 8f82 3dbd db31 80be
000001b0: 92b3 9e3e 08d6 583e d2ef a5be 5fbd 2dbd
000001c0: b6c6 00be e84f 353e b979 303e 717a f03c
000001d0: 402a 9ebd dd3b 5dbc 28e2 06be a5be 253d
000001e0: 2408 3a3e cd1c 44bd 30e0 89bd 57ef a53d
000001f0: 8503 3a3e 2e87 d0bd 9a10 6b3d 55ce 113e
00000200: 92de e23d a76b 98be 7d2c d3bd cf42 c73d
00000210: 3ee7 b63d b1ce adbd 96c2 14be 511f febd
00000220: 4fe1 4dbe d764 013e b57c 81bc 3e6d 373e
00000230: b8d4 45be 8a37 c13e 3cd0 06bb 0fc7 123c
00000240: 4584 043d 028e 02b8 4f79 07be bed7 dcbd
00000250: 574d 19be 85d9 ef3c c77c 86bb 952a 7cbd
00000260: b74e 07be 6307 243f 59a8 10bd f0a4 913e
00000270: 1d71 4dbc c8bd 113e a5ff 453d 5d55 fb3d
00000280: 009d 0c3f c3d8 14bf 23d5 323e 0da4 3dbd
00000290: 1c1a d3bc 43d7 da3d fb1f 233e c636 58bd
000002a0: 18ad e7be 3adb aa3e 6bbc 6abc 480e 37be
000002b0: a36b 25bd 6931 4cbe 3fe5 883f 2a17 f33b
000002c0: 3743 c03d 071e 793e 74ee 383d d93b c0bc
000002d0: 14f4 a03d daf7 7f3c 636c 0a3e ca96 103e
000002e0: 3021 503e 90f3 99be aaf9 0b3e ca71 2f3d
000002f0: 487d 71be 4850 57be fab9 08be a8c5 87be
00000300: a867 003e a0f1 48be f130 a7bd ba34 74be
00000310: 0d96 503c b6ac 0c3e a5c5 683e 870b 2a3e
00000320: f991 13be 0987 253d adae 7b3e 3d90 22bd
00000330: b69e 60bb 7169 2bbd ab78 59be 61b0 db3d
00000340: 00ef d8be a531 0d3e d881 a43c fb5b dbbd
00000350: 4181 983d 721e 523e 5cdb cc3d 81ad 833e
00000360: 70f1 c03d 0ff0 033b 7ec4 bebd 27bb 283e
00000370: dd3f 303d 093c 96bd e3d7 10be c131 31be
00000380: 4c42 87be 4141 ef3d ff6d f3bd 95f4 95bc
00000390: ee7c ed3e 014a 1dbe fa01 b03d abe5 bc3e
000003a0: 873c 913d bad2 a93c 7a0d 50bc a7f3 0a3e
000003b0: 2341 82be c908 35bd 6549 2bbe f627 7cbe
000003c0: 34ef 713c 126c 34be 56fa 573d 2748 41be
000003d0: 70f1 913f 633f c83e d78c 6c3e b90a dc3d
000003e0: a1e0 373c 34b3 cabc 6959 973d 6b6a 843d
000003f0: e83e adbd 1d61 95be 9d26 8bbd dc93 a63d

critic.0.bias f4 [64]
-0.084954 0.005897336 -2.2263372e-07 -1.3561713e-09 0.02245576 -0.014973514 -0.009136311 -0.0026177547
-2.7899582e-06 0.0034837034 0.07529682 -0.0026194877 -0.042270113 1.9195077e-05 0.0074947127 0.015916273
-0.004759784 -0.019202754 -0.0035859805 -1.7684156e-06 -0.008285432 -0.011175519 -0.00873835 6.3355714e-07
2.6210446e-06 -1.8224212e-06 -0.004466416 1.3258634e-07 -6.1887926e-07 0.0025118599 -6.272098e-07 -1.1890491e-05
-5.908632e-06 -0.0013276389 -0.064868696 -8.206626e-06 -3.888038e-08 -0.028863112 -0.0005599 -0.024300704
0.0145944925 0.053361334 4.7074317e-07 3.2118294e-08 0.0 -0.028628204 8.3748135e-05 -0.0023638776
-0.004329299 -0.0002209774 -0.0026887073 -6.0350004e-07 -1.0073857e-05 0.0029757118 0.00010583616 -0.076928236
0.0109701445 1.0313512e-07 -0.015636256 -0.021787135 0.0023953759 0.06150452 -0.0019028543 -2.7832277e-05
00000000: 5dfc adbd 713e c13b 170d 6fb4 0964 bab0
00000010: 24f5 b73c 7853 75bc 77b0 15bc a38e 2bbb
00000020: 1e3b 3bb6 d84e 643b 3835 9a3d b6ab 2bbb
00000030: 6d23 2dbd 1d05 a137 3596 f53b d862 823c
00000040: f6f7 9bbb 184f 9dbc c502 6bbb 4c5a edb5
00000050: 9fbf 07bc 8619 37bc 4c2b 0fbc b711 2a35
00000060: 34e5 2f36 ea99 f4b5 035b 92bb 0e5d 0e34
00000070: 0f21 26b5 049e 243b 875d 28b5 457d 47b7
00000080: c342 c6b6 2b04 aeba e1d9 84bd 31af 09b7
00000090: 6efd 26b3 5572 ecbc 41c6 12ba 4512 c7bc
000000a0: bd1d 6f3c 6a91 5a3d 73ba fc34 70f2 0933
000000b0: 0000 0000 b285 eabc f0a1 af38 49eb 1abb
000000c0: cbdc 8dbb 2bb6 67b9 0635 30bb 3500 22b5
000000d0: e302 29b7 2904 433b 5bf4 dd38 8d8c 9dbd
000000e0: 1fbc 333c 227b dd33 9b17 80bc ef7a b2bc
000000f0: bdfb 1c3b 2aec 7b3d 3269 f9ba 5c79 e9b7

critic.2.weight f4 [64, 64]
0.24790284 0.20530868 0.07704945 0.3207169 -0.30025584 0.42892638 -0.30999315 0.09268035
0.33417752 -0.22570156 -0.25497186 -0.07917502 0.068874665 0.13122661 -0.036416754 -0.37533677
-0.0081558945 -0.08417476 0.15693145 -0.05413611 -0.14485726 -0.061346896 -0.052279387 0.117830016
-0.067137085 0.12886307 0.14881909 0.22058953 0.032480925 0.120262325 -0.104877226 -0.23035304
0.23529668 0.037624147 -0.22210458 0.25213373 0.067780495 0.008960301 -0.17984815 -0.009461529
0.017406039 -0.22806539 -0.06331298 0.16689904 -0.27573276 -0.0031480356 0.25385737 0.12502421
0.11299156 -0.11613896 -0.00031449398 -0.07128845 0.19738618 -0.26707926 0.084278814 0.057044182
-0.0914968 -0.07361174 -0.32837918 0.18363602 -0.09268461 -0.117270276 0.17482351 0.16145514
-0.072139636 0.06573862 0.3503813 0.0027032306 0.30788943 0.020950211 -0.062012415 -0.119816415
-0.025061889 -0.095191754 -0.040227607 -0.11911424 -0.13324913 -0.17890221 0.21614169 -0.09399084
0.18294165 0.24560568 -0.022098418 0.047485646 -0.11281568 -0.25969508 0.31899688 -0.11242145
-0.14362468 -0.005824837 0.05454847 0.029964453 0.18212149 -0.045955855 0.13962652 -0.37841228
0.44696772 0.11454933 0.31672293 -0.06281036 -0.2100284 -0.17060804 0.14518362 0.35590923
-0.0020852452 0.10942727 0.09841467 -0.13316593 -0.14498541 -0.0009647081 0.0795756 -0.16159932
-0.27793258 -0.08853379 -0.13817048 0.27899745 0.023641681 -0.116221815 0.003792961 0.0032559598
-0.05615212 0.17884028 0.052062195 -0.13923374 0.28064314 -0.32587904 0.041063536 0.19816081
0.060476508 0.33944982 -0.16020888 0.22467501 0.082596555 -0.25280923 0.27883875 -0.08983703
-0.012127527 -0.012264007 -0.2002448 0.232093 0.3505371 -0.43911028 -0.14665563 -0.14077394
-0.069527656 0.17558508 -0.18452187 0.030864751 0.024799919 0.29106086 -0.008626233 0.06050638
-0.16881353 -0.3955216 0.09844193 -0.14352827 0.052726682 -0.050853137 0.13168918 -0.25201017
-0.04061756 -0.03385181 -0.113040715 0.1055786 -0.21497563 -0.22689635 -0.096171945 -0.0027585013
-0.009478974 0.045227386 0.0020268997 -0.11781038 0.013006127 -0.06192911 0.010219471 -0.0158468
-0.12195362 0.25068238 0.17226098 -0.17037562 0.054778192 -0.1955538 0.100891046 0.46924263
-0.022883527 -0.28343752 0.035071906 0.056639247 -0.10157761 0.11423258 -0.134719 0.21170104
-0.2194152 0.14398828 0.18484794 0.10828116 0.14999989 0.2359402 0.043057248 0.037508566
0.14132667 0.1675708 -0.09984854 0.16177264 0.53133976 0.15164319 -0.070106305 0.19837591
0.25907156 -0.44295773 0.010592739 -0.10050899 -0.0631263 -0.08158336 -0.22744973 0.10733459
0.13872012 0.01768995 -0.34719095 0.22759543 -0.12258578 -0.20204335 -0.23403479 0.11716341
0.1467173 0.050430525 0.021925237 -0.20360589 -0.36239702 -0.15429918 -0.11717258 0.014458085
0.12839758 -0.24738333 0.30956292 0.15146773 -0.13431741 0.084650226 -0.020925794 -0.004114899
-0.16691238 0.10328068 0.20479017 0.3648413 0.06329415 0.14391467 0.103667565 0.103877775
0.18453102 -0.18282099 0.03586358 -0.1770259 -0.12000558 -0.3049119 -0.07320317 -0.079506986
00000000: 3eda 7d3e 703c 523e 1acc 9d3d 0135 a43e
00000010: 22bb 99be 3d9c db3e 6cb7 9ebe 32cf bd3d
00000020: 5119 ab3e 4f1e 67be ac8b 82be 8326 a2bd
00000030: 290e 8d3d 4560 063e bc29 15bd 242c c0be
00000040: 4da0 05bc d163 acbd a3b2 203e d3bd 5dbd
00000050: 7655 14be e246 7bbd e922 56bd dd50 f13d
00000060: 2b7f 89bd aef4 033e 0864 183e 39e2 613e
00000070: b80a 053d 184c f63d dfc9 d6bd abe1 6bbe
00000080: 9df1 703e c71b 1a3d 626f 63be ac17 813e
00000090: 80d0 8a3d 3ace 123c 1d2a 38be 8704 1bbc
000000a0: 1c97 8e3c f989 69be 3caa 81bd 95e7 2a3e
000000b0: d82c 8dbe 464f 4ebb 98f9 813e 5906 003e
000000c0: 1e68 e73d 43da edbd abe2 a4b9 aeff 91bd
000000d0: 9a1f 4a3e 9dbe 88be 5f9a ac3d 29a7 693d
000000e0: ad62 bbbd c0c1 96bd 5121 a8be 150b 3c3e
000000f0: 6ed1 bdbd 662b f0bd ef04 333e 7f54 253e
00000100: f2bd 93bd f8a1 863d 2e65 b33e af28 313b
00000110: afa3 9d3e c79f ab3c bb00 7ebd 4f62 f5bd
00000120: 974e cdbc e5f3 c2bd b4c5 24bd 2bf2 f3bd
00000130: 7672 08be 2432 37be 3f54 5d3e 457e c0bd
00000140: 0e55 3b3e 0e80 7b3e be07 b5bc 4f80 423d
00000150: e80b e7bd c1f6 84be 8f53 a33e 383d e6bd
00000160: 5912 13be 46de bebb 376e 5f3d 0378 f53c
00000170: 0e7e 3a3e 353c 3cbd 41fa 0e3e 41bf c1be
00000180: f4d8 e43e d798 ea3d 8229 a23e b8a2 80bd
00000190: af11 57be e0b3 2ebe 04ab 143e bc39 b63e
000001a0: 9ca8 08bb 681b e03d a18d c93d a65c 08be
000001b0: 0e77 14be 77e4 7cba 88f8 a23d 4b7a 25be
000001c0: 2e4d 8ebe 3451 b5bd 907c 0dbe c1d8 8e3e
000001d0: 33ac c13c b405 eebd 5393 783b f161 553b
000001e0: c4ff 65bd e821 373e 2b3f 553d 4a93 0ebe
000001f0: 75b0 8f3e 9ed9 a6be 3d32 283d abea 4a3e
00000200: 37b6 773d 5ecc ad3e cc0d 24be 3511 663e
00000210: 6228 a93d 3670 81be f4c3 8e3e 7afc b7bd
00000220: 89b2 46bc f9ee 48bc f90c 4dbe caa9 6d3e
00000230: 9979 b33e 10d3 e0be e52c 16be 0b27 10be
00000240: 8464 8ebd 93cc 333e 4df3 3cbe 13d8 fc3c
00000250: 3329 cb3c ee05 953e 0b55 0dbc 8ad5 773d
00000260: 74dd 2cbe cf81 cabe ec9b c93d 13f9 12be
00000270: eff7 573d 614b 50bd 87d9 063e 7a07 81be
00000280: 995e 26bd 32a8 0abd e481 e7bd 9839 d83d
00000290: 9222 5cbe 8457 68be ccf5 c4bd f9c7 34bb
000002a0: b34d 1bbc 5a40 393d bcd5 043b 9246 f1bd
000002b0: a717 553c 61a9 7dbd 916f 273c 26d1 81bc
000002c0: d2c2 f9bd 7159 803e 2f65 303e f276 2ebe
000002d0: 195f 603d 413f 48be f79f ce3d 9240 f03e
000002e0: 3c76 bbbc b91e 91be 8fa7 0f3d 8efe 673d
000002f0: ec07 d0bd c5f2 e93d c7f3 09be 28c8 583e
00000300: 61ae 60be aa71 133e c748 3d3e 83c2 dd3d
00000310: 9299 193e 4f9a 713e cc5c 303d 95a2 193d
00000320: f0b7 103e ae97 2b3e 647d ccbd baa7 253e
00000330: e205 083f 5a48 1b3e e593 8fbd 0e23 4b3e
00000340: 07a5 843e 5bcb e2be 2b8d 2d3c a8d7 cdbd
00000350: 5d48 81bd 2d15 a7bd 95e8 68be 3dd2 db3d
00000360: a60c 0e3e 84ea 903c 03c3 b1be c70e 693e
00000370: 410e fbbd 74e4 4ebe d1a6 6fbe 5ff3 ef3d
00000380: 0f3d 163e 3d90 4e3d 8e9c b33c 107e 50be
00000390: 1a8c b9be 9b00 1ebe 2df8 efbd 9be1 6c3c
000003a0: a87a 033e 0e52 7dbe 087f 9e3e 5b1a 1b3e
000003b0: 818a 09be 195d ad3d 926c abbc 46d6 86bb
000003c0: 14eb 2abe d284 d33d 84b4 513e 7bcc ba3e
000003d0: 5da0 813d 5e5e 133e a94f d43d dfbd d43d
000003e0: b3f5 3c3e 6d35 3bbe b0e5 123d 4746 35be
000003f0: 7cc5 f5bd 6a1d 9cbe 8beb 95bd 8fd4 a2bd

critic.2.bias f4 [64]
0.0031072798 0.0018392259 -0.013412282 0.0028379478 -0.019835273 0.001801314 -0.010515009 0.013724514
0.020438902 -0.0042764493 -0.013132362 0.006620236 0.010344291 -0.026862241 -0.0047115334 -0.0039163143
-0.005558707 0.015053086 0.009320433 0.0047919815 0.016443973 -0.0031461979 -0.0069665792 -0.010355304
-0.015874071 -0.029725825 0.020718485 -6.1731895e-05 0.013042372 -0.021464309 0.0031148877 0.0015478088
-0.027732147 -0.012901702 0.0037394557 0.007019086 0.0037175356 0.0040322873 0.008905284 0.0115203895
0.0107677765 0.00943221 -0.01189954 -0.0015006412 -0.0032595433 -0.0072577666 -0.005165075 0.002684843
-0.0014145002 0.008746885 -0.027544798 -0.0020215756 0.009452188 0.019381095 0.0026006321 0.019826988
0.0013186961 0.011976785 0.0045090793 0.01454016 0.017810548 -0.020085473 0.02207498 0.0007368763
00000000: 81a3 4b3b 2e12 f13a 30bf 5bbc ddfc 393b
00000010: 957d a2bc 111a ec3a 2547 2cbc c9dc 603c
00000020: 7c6f a73c 7521 8cbb 1e29 57bc 91ee d83b
00000030: 1a7b 293c 340e dcbc 3563 9abb 6d54 80bb
00000040: d025 b6bb 38a1 763c bbb4 183c 0e06 9d3b
00000050: 83b5 863c 7130 4ebb e747 e4bb 4ba9 29bc
00000060: 570a 82bc 9383 f3bc d0b9 a93c 0f76 81b8
00000070: acaf 553c ebd5 afbc 2523 4c3b d8df ca3a
00000080: 872e e3bc a961 53bc a811 753b 5c00 e63b
00000090: e6a1 733b 4721 843b 78e7 113c 04c0 3c3c
000000a0: 546b 303c 8e89 1a3c 4af6 42bc 2ab1 c4ba
000000b0: 109e 55bb 8fd2 edbb ca3f a9bb 31f4 2f3b
000000c0: c066 b9ba 184f 0f3c a1a5 e1bc 697c 04bb
000000d0: 5add 1a3c 1ac5 9e3c 5e6f 2a3b 356c a23c
000000e0: 19d8 ac3a 473a 443c e6c0 933b da39 6e3c
000000f0: 6de7 913c 4a8a a4bc 97d6 b43c ee2a 413a

critic.4.weight f4 [1, 64]
-0.24448818 -0.00802471 0.040579367 -0.32733947 0.14227971 -0.0052454234 -0.35624295 -0.18382256
0.07692033 0.10389576 0.1121065 0.13859423 -0.045388456 0.29451975 0.19686298 0.12534578
0.0002564075 -0.050547887 -0.016099881 0.038119998 -0.010019391 0.19554102 0.07681913 -0.037252087
0.016051041 0.078330345 -0.03342342 -0.00039447044 -0.1461995 0.14849317 0.26360226 0.23897359
0.12863183 0.08438393 0.0017947225 -0.13255028 -0.07104591 -0.15105018 -0.21027054 -0.092428535
-0.07706816 0.14797676 0.12716505 -0.027998231 -0.090344295 0.072255485 0.11127895 -0.4337866
0.12220016 -0.096522346 0.15773608 0.14451565 0.26113757 -0.17145604 -0.0012585145 -0.09169292
-0.0943087 -0.064441115 -0.031595465 0.049140234 -0.105638735 0.04412689 -0.12147879 0.22317593
00000000: 1c5b 7abe 137a 03bc 8d36 263d 0a99 a7be
00000010: c6b1 113e cde1 abbb 7a65 b6be fb3b 3cbe
00000020: 6888 9d3d 4dc7 d43d 1898 e53d a5eb 0d3e
00000030: 3fe9 39bd 4bcb 963e 7396 493e a55a 003e
00000040: 6f6e 8639 4d0b 4fbd e6e3 83bc b723 1c3d
00000050: 5f28 24bc e83b 483e 5953 9d3d a595 18bd
00000060: 797d 833c a96b a03d ffe6 08bd edd0 ceb9
00000070: 52b5 15be 980e 183e e0f6 863e 7eb5 743e
00000080: 10b8 033e 7bd1 ac3d e53c eb3a 43bb 07be
00000090: 8580 91bd e6ac 1abe 2951 57be 2c4b bdbd
000000a0: e9d5 9dbd 3887 173e 8e37 023e 8c5c e5bc
000000b0: 6e06 b9bd affa 933d 38e6 e33d 4719 debe
000000c0: 1444 fa3d 82ad c5bd 9185 213e e9fb 133e
000000d0: d3b3 853e 2c92 2fbe bdf4 a4ba 7fc9 bbbd
000000e0: eb24 c1bd b4f9 83bd 3f6a 01bd 4547 493d
000000f0: 1f59 d8bd 66be 343d dfc9 f8bd 3b88 643e
