fw_flightcontrol/models/icinco/ppo/noactreg/ppo_bohnmlp_noactreg_nohist_noatmo_6930_30-05_13:16:29.pt (torch, 46975 bytes, 12 tensors)

actor_logstd f4 [1, 2]
000000 fe bd 97 3d 7f 78 bd bc
       0.07409285 -0.023128746

actor_mean.0.weight f4 [64, 14]
000000 c8 89 a2 3d 23 21 0c 3e fa e7 c4 3c ce 7f 6c be
       0.07936436 0.13684516 0.024036396 -0.23095629
000010 6e 36 55 3e 8f 9a 34 be 25 5e 43 3e 5b a7 11 3e
       0.20821545 -0.17637084 0.19078882 0.14223997
000020 ea fc 6a 3e dc dd 68 3e 93 08 bf be c5 d9 a8 be
       0.22948042 0.22740883 -0.3731123 -0.32978645
000030 1c 39 5a 3e e0 28 40 3e 33 ed 81 3d 17 32 69 3d
       0.21310848 0.18765593 0.0634407 0.056932535
000040 77 27 a9 be 7a 1e ee bd d1 d3 32 be dd 4a fd bd
       -0.33037922 -0.11626907 -0.17463614 -0.12367795
000050 2a b7 49 3d 61 a2 04 3e 2c a0 99 3d b8 7f 83 3d
       0.049246944 0.12952568 0.075012535 0.06420845
000060 a3 4a ef bd e4 0e a2 bd cd 69 c9 bd 49 e2 f4 bd
       -0.11684158 -0.079129964 -0.09834633 -0.11957223
000070 5d 0e 22 be 9a 84 00 be 74 a1 55 3e 94 f1 10 bd
       -0.15825792 -0.12550583 0.2086237 -0.035386637
000080 e3 a9 13 3c 33 a1 1c bb e5 09 c0 3e cc a7 47 3e
       0.009012672 -0.0023899793 0.3750755 0.19497603
000090 64 1d ce 3d 61 23 4c be 41 c5 b4 bd fe 3b cb bc
       0.100641996 -0.19935371 -0.08826686 -0.02480888
0000a0 2b 27 a7 3d 74 47 1e 3d dc f0 1a 3d 12 f9 89 be
       0.081617676 0.03864236 0.037827358 -0.26947838
0000b0 86 c1 cf 3d 30 27 0b 3e e3 13 88 be 44 d6 70 bd
       0.101443335 0.13589168 -0.26577672 -0.05879809
0000c0 3d 20 22 be e1 c5 2a be 63 4e b0 3e 70 07 6b 3d
       -0.1583261 -0.16677047 0.34434804 0.05738014
0000d0 72 03 16 3e b4 be e3 be 93 af 3e 3e b1 e4 54 be
       0.14649752 -0.44481432 0.18621664 -0.20790364
0000e0 97 64 8e be 24 d4 fe 3d 94 1a 6e 3e 2f 75 a2 3e
       -0.2781112 0.12442806 0.23252326 0.3173003
0000f0 b7 f3 0d be 49 af 33 3e eb 6f 9f bc de 8c 5c be
       -0.13862501 0.17547335 -0.019462546 -0.21538112
000100 f1 49 b0 bd c8 f5 a1 3b 86 6e 6c 3e 9a 52 da bb
       -0.08607853 0.0049426295 0.23089036 -0.006662679
000110 65 53 e3 3d 62 c9 bd bd b1 4d 88 bd 86 29 58 3e
       0.110998906 -0.09266926 -0.066554435 0.2110959
000120 93 e5 65 3e ed 85 74 be 0f 3f cd 3e ff 6d d5 bd
       0.22450857 -0.23879214 0.40087172 -0.10421371
000130 06 ac 42 bc c3 59 cd 3d 56 f2 99 3e ea 6b 9d 3e
       -0.011881834 0.10026886 0.300677 0.30746394
000140 cc fb 81 3e 86 e4 21 3c 27 47 64 3e 4e ec 7e bd
       0.25387418 0.009881144 0.22292767 -0.062237076
000150 4e d4 49 3e ce 14 81 3e 28 91 9a 3d 40 a9 2c 3e
       0.19709894 0.25211185 0.075472176 0.16861439
000160 f9 db 4b be 5a 98 be bd ed ed ac be 32 5d 0a 3e
       -0.19908132 -0.093064025 -0.33775273 0.13512114
000170 d8 c9 34 bd 5d 56 0a 3e 7f a5 15 be ac d9 be bc
       -0.044137806 0.13509507 -0.14613913 -0.023297153
000180 10 25 d9 3e d0 2f a4 3e 87 b9 c7 3d 9e 0a 9d be
       0.4241109 0.32067728 0.097521834 -0.30672163
000190 cd d1 5c 3e 01 2a bf bd 08 49 84 3c 2e 7d 25 3d
       0.21564408 -0.093341835 0.016148105 0.040402584
0001a0 91 f6 4c 3d 14 7b 57 be 77 ce d3 3c 67 6e a4 bd
       0.05003983 -0.21043044 0.025855286 -0.0802887
0001b0 db 8c 96 bc b4 eb e2 3d ea 64 e0 bd d5 d8 a5 3e
       -0.018377712 0.11080113 -0.10956748 0.32391992
0001c0 5d 19 88 3d 88 58 53 3e d6 a8 57 bd fa 09 d0 be
       0.06645463 0.2063924 -0.05265125 -0.40632612
0001d0 7f d9 a0 bc 5b 41 a6 3b 00 3b d3 bd 1c 52 1a be
       -0.01963496 0.005073709 -0.10313988 -0.15070385
0001e0 94 ea 3f bd 0e 9d 0b be bd 3c 4f bc 1c 98 6f 3e
       -0.04685457 -0.1363413 -0.0126487585 0.23397869
0001f0 d6 78 80 3e 6a 3b c9 be 5a 53 91 3e 93 e9 f0 bd
       0.2509219 -0.39303142 0.28383905 -0.11763301
000200 c1 38 09 be 16 85 8d 3e d4 fd 47 3e f1 31 5f 3e
       -0.13400556 0.276406 0.19530421 0.21796395
000210 38 f4 b5 bc da 29 40 bd fe f7 a8 3d 83 dd ba be
       -0.02221118 -0.046914913 0.08250426 -0.36497125
000220 88 42 87 be ae 97 52 be 1b 09 c9 3d 74 a5 4f 3e
       -0.26417947 -0.20565674 0.0981619 0.20277959
000230 01 a1 c7 3b 7c 88 81 3c 18 70 02 3e 93 a0 ce 3d
       0.006092191 0.015812151 0.12738073 0.10089221
000240 9d eb 11 be ab 9f 64 3e 96 87 6b 3e 36 24 bb bd
       -0.14250036 0.22326533 0.2300094 -0.09137766
000250 32 7a a4 3e 13 04 0d be d2 b5 9a 3a 18 f7 79 be
       0.32124478 -0.13771085 0.0011803454 -0.24410665
000260 70 9f d9 bc 4a 2d 0d bd 0b ad 92 ba 8b 9d c9 bd
       -0.026565284 -0.03446702 -0.0011190487 -0.09844502
000270 09 af 40 3e 51 eb 10 be b2 23 8d be 55 24 20 3e
       0.1881677 -0.14152266 -0.27566296 0.1563886
000280 67 30 8f bd 5e c5 f8 3d 7d 2c ec 3d d4 c0 8e be
       -0.06991654 0.1214702 0.11531923 -0.2788149
000290 11 d9 46 be eb a5 3b bd 48 db 1c 3d 36 15 96 be
       -0.19418742 -0.04581253 0.03829506 -0.29313058
0002a0 88 0d 16 3c cd f6 19 3e b8 20 27 3d dd 5f d3 bb
       0.0091585 0.15035553 0.040802687 -0.006450637
0002b0 33 91 4d 3d 7c ee 39 be 8d 79 1c 3d d6 60 e2 bd
       0.0501873 -0.18157381 0.038201857 -0.11053626
0002c0 58 2b 74 be f4 2e 4b be cf 05 bd 3d 36 37 82 be
       -0.2384466 -0.1984213 0.092296235 -0.25432748
0002d0 58 62 54 be f2 c7 17 3e f8 e7 7f 3e 1d 87 b3 bb
       -0.2074064 0.14822367 0.24990833 -0.0054787532
0002e0 b1 03 72 3e 0c 79 ab be f0 53 0d be f1 bb e6 3d
       0.2363422 -0.3349079 -0.13801551 0.11266316
0002f0 26 24 69 bd 67 61 0e bd 39 32 b8 bd 84 f3 d2 3c
       -0.05691924 -0.03476086 -0.08993954 0.025750883
000300 cb a1 03 3e d5 6c 98 be 09 43 6e 3e b8 96 5c bd
       0.12854688 -0.29770532 0.2326776 -0.053854674
000310 20 95 51 3e e9 32 58 3d 45 19 3b be 22 0c 3c bc
       0.20467043 0.052782927 -0.18271358 -0.011477502
000320 03 3f d9 3b b9 53 6a 3e 10 c4 66 be d1 74 ee 3b
       0.006629826 0.228835 -0.2253573 0.007277109
000330 3d e5 a7 3e 15 d3 15 3d 28 4c 8c 3e 4d 7a 85 bd
       0.32792082 0.036578257 0.27401853 -0.06517468
000340 32 a9 78 be db b9 7d bd df 04 90 3e a5 69 62 bc
       -0.24283293 -0.061944824 0.28128716 -0.013819133
000350 47 84 90 bd 48 2e 29 3e 56 0e 65 3e 7d b3 40 be
       -0.0705648 0.16521561 0.2236875 -0.1881847
000360 fe 3a ab 3d b9 eb b1 bd eb 0f bc be fd 86 c3 3d
       0.08360861 -0.08687539 -0.36730894 0.09547231
000370 11 a5 2c 3e ad b4 13 be 26 98 cd 3d 1e b8 be be
       0.16859843 -0.14424391 0.10038786 -0.37249845
000380 47 12 4b bc d2 79 91 be 24 70 5e 3e f9 56 e5 3c
       -0.012394494 -0.28413254 0.21722466 0.027995573
000390 59 0b 42 be 85 ea 79 be 03 de 1c be ba c5 01 be
       -0.18949641 -0.24405868 -0.15319066 -0.12673083
0003a0 c6 4b 00 3e cc 60 91 bc e0 4e e7 bd fd f3 72 3e
       0.12528905 -0.017746352 -0.11294341 0.23725887
0003b0 31 43 5c be 6b 21 89 bb 38 dd b9 bc d3 4d c6 3d
       -0.21510006 -0.004184892 -0.022688493 0.096828125
0003c0 16 b2 0b 3e 10 12 63 3e d5 77 44 3e 0e b4 c5 3d
       0.13642153 0.22174859 0.19186337 0.09653483
0003d0 8b 95 e7 be 28 32 0c 3d a6 78 f3 3d d9 c4 80 bd
       -0.4523128 0.03422752 0.11888246 -0.06287546
0003e0 cd ef 21 bc bb 5a 5d 3e 64 8e 9b bb 11 05 3d bd
       -0.009883833 0.21616642 -0.004747199 -0.04614741
0003f0 45 92 7e bd 39 34 0d bd 5b 54 b7 3e b5 f2 26 3d
       -0.062151212 -0.03447363 0.35806546 0.040758807

actor_mean.0.bias f4 [64]
000000 92 72 6c bc 00 00 00 00 3e 14 4c 34 88 73 ea ba
       -0.014431613 0.0 1.9006345e-07 -0.0017887214
000010 2b 56 ce b1 61 c4 00 35 0d 4e a8 3c 72 47 08 b7
       -6.0051852e-09 4.7969485e-07 0.02054503 -8.122866e-06
000020 30 61 14 3d 2b df 82 b7 38 58 14 b8 c1 ab e8 34
       0.036225498 -1.5601128e-05 -3.536811e-05 4.3338335e-07
000030 cb e9 9e 3c c4 0d 1b b6 34 d7 43 37 01 9b 13 bc
       0.01939859 -2.3104812e-06 1.1673012e-05 -0.009009124
000040 f4 81 64 3a 05 4f 8f b8 00 00 00 00 92 2f b4 3c
       0.0008716874 -6.83349e-05 0.0 0.02199534
000050 4f e1 70 bc fb 6e a9 35 e5 13 22 b2 f0 1a bd b7
       -0.014702155 1.2623781e-06 -9.434165e-09 -2.25431e-05
000060 31 f4 b8 bb c5 90 2d 3d 45 d7 af bc 19 52 4f b1
       -0.0056443443 0.04237439 -0.021464953 -3.0169132e-09
000070 aa e1 b0 b7 6c dc a5 3a b5 32 a1 34 ed 9b 09 3c
       -2.1085918e-05 0.0012654192 3.002548e-07 0.008398992
000080 7a c9 d5 bc 1f 02 0c 3a 97 57 b4 3b 00 00 00 00
       -0.026097048 0.0005340892 0.0055036056 0.0
000090 61 22 35 b7 48 01 ab 33 71 e9 8b 3d 46 c6 af bb
       -1.0796445e-05 7.963041e-08 0.06831635 -0.005364212
0000a0 87 ed 09 b5 7f c7 8b 3c 06 c0 3e 3b 57 19 b4 b4
       -5.1382125e-07 0.0170629 0.0029106154 -3.354605e-07
0000b0 2f 9a 62 35 fd 39 be b8 65 0c c8 33 24 e2 0b bd
       8.441593e-07 -9.070707e-05 9.31548e-08 -0.03415121
0000c0 9d 4c 8b 3c 77 78 34 35 56 44 6f 32 8b cb ec 3c
       0.017004305 6.7230525e-07 1.3927169e-08 0.02890565
0000d0 02 3c 08 38 b4 86 26 38 e7 13 b8 b5 fe 84 55 b5
       3.2480813e-05 3.9702936e-05 -1.3714861e-06 -7.954221e-07
0000e0 62 08 ec 3b 45 28 aa ba 7c e2 c7 39 48 71 5a bd
       0.0072031477 -0.0012981972 0.00038124982 -0.05333069
0000f0 34 b2 18 38 c8 e9 92 39 00 00 00 00 ee 0d 33 3d
       3.640559e-05 0.0002802147 0.0 0.043714456

actor_mean.2.weight f4 [64, 64]
000000 e5 da 2d bd 5c d1 19 3e 36 44 e5 bd bb 15 a9 3e
       -0.042445082 0.1502127 -0.11194651 0.33024392
000010 d6 68 a7 be 1c 05 ac bd ff f7 7f bc ae 3b ac 3e
       -0.3269717 -0.08399412 -0.015623092 0.33639282
000020 57 bd c9 bc 42 3b 9f 3d b2 ae cb 3d 7d 9e 7d 3c
       -0.024626417 0.077749744 0.0994543 0.015479681
000030 ae 98 28 3e 7c 03 29 be 7b d9 20 3e fc 90 78 3d
       0.16464493 -0.16505235 0.15707962 0.060685143
000040 13 55 11 3e d4 52 23 bd b5 58 2c 3e 83 de 49 3e
       0.1419261 -0.039873913 0.16830714 0.19713788
000050 d7 7e 6e 3e 51 2c 39 be bb 20 58 be 20 6d 56 3d
       0.23290573 -0.18083312 -0.21106236 0.052350163
000060 4d 55 e6 3e 35 7e a2 be 27 b5 f2 bc 68 64 81 be
       0.44986954 -0.31736913 -0.029627396 -0.25271916
000070 97 3d 20 3e 22 4d 07 bd 06 10 0c bb e7 af 62 3e
       0.15648495 -0.033032544 -0.0021371855 0.22137414
000080 82 57 9a 3e 63 0b 46 3e 03 35 73 3d b0 a6 0b 3d
       0.30144888 0.19340281 0.059376728 0.034094512
000090 ba 89 ca 3d b9 00 fe 3c ba de bf 3d e7 d9 23 be
       0.098895505 0.031006204 0.093686536 -0.16001092
0000a0 6a ab 32 be de a2 4b bd 6f 21 00 bd 2e ea db 3d
       -0.17448202 -0.04971587 -0.031281885 0.107380256
0000b0 1a 89 80 bd 99 c0 14 bd 72 a4 d8 3d 56 ad c1 3c
       -0.0627615 -0.036316488 0.105782405 0.023642223
0000c0 c5 1d bf 3e be fa cc be cd 1a aa 3e a4 9b 8c be
       0.373274 -0.4003505 0.33223572 -0.27462494
0000d0 47 ab 70 3d d4 6b cf 3d 44 5f e8 3c 59 89 30 be
       0.058757093 0.101279885 0.028365739 -0.17239894
0000e0 ee 72 8b 3e 05 2c d9 3d db e7 b6 bd 94 f6 bb 3e
       0.27236122 0.10604099 -0.08930942 0.36711562
0000f0 31 4c d3 3d 6e 78 2a bd 33 a1 3e bb a9 d0 8e be
       0.10317267 -0.041618757 -0.0029087781 -0.2789357
000100 cc 93 01 be e7 b6 6e 3e 2d b5 86 3c ea 0f 07 be
       -0.12654036 0.23311959 0.016443813 -0.13189664
000110 6e 72 cd bd cf db 37 be 70 f8 5c 3d 60 ce c5 bd
       -0.10031591 -0.17954944 0.053947866 -0.096585035
000120 55 89 fe bb a4 07 ab 3d 53 f4 58 be c4 63 cb ba
       -0.007767836 0.08351067 -0.21186952 -0.0015517403
000130 dd 22 03 3e 68 1c 32 3e 67 a2 2c bd bc 6d 63 3e
       0.12806268 0.17393649 -0.042147066 0.22209829
000140 0f af d9 bd cf bd 0a bf d5 d5 b4 bc f3 a7 7c 3d
       -0.10629093 -0.54195875 -0.02207462 0.061683606
000150 a7 38 a7 3e 04 19 a5 3e de 79 e1 3d d1 3e bc be
       0.3266041 0.32245648 0.110095724 -0.36766675
000160 9b 3e a4 3d 67 d2 9d 3e 90 6d 26 3f 4d a7 d0 3d
       0.080197535 0.30824587 0.6501093 0.1018816
000170 d0 d4 ff bd 38 a7 06 be 10 d0 2c 3e 30 ba 5c be
       -0.12491763 -0.13149726 0.16876245 -0.215554
000180 c5 3b f0 bd af ad 8d 3d fe 4a b9 3d 60 06 6c be
       -0.1173015 0.06917893 0.09047507 -0.23049307
000190 7f d7 64 3d ca cb d8 3d fc eb 6e 3e 29 15 ca bd
       0.055869576 0.10585745 0.23332208 -0.09867317
0001a0 31 85 66 3d 78 13 57 3e ac 15 79 bd 4a 0a 2a 3d
       0.056279365 0.2100352 -0.060811684 0.04151372
0001b0 63 ac 10 bd 02 d0 75 bc f7 b4 08 3c c4 8e 36 3c
       -0.03532065 -0.015003206 0.008343927 0.011142436
0001c0 65 62 64 3e 2a 0c eb 3c 5c 5c 96 bc 5f 42 4d 3e
       0.2230316 0.028692324 -0.018354587 0.2004485
0001d0 43 21 b5 3a e3 5e cd 3d 9e b3 83 bd 1a 1c f9 be
       0.0013819117 0.10027864 -0.06430744 -0.48654252
0001e0 de cd 82 3c 1d 4b 4d be 14 2c 2d 3e de 56 92 3e
       0.015967306 -0.20048185 0.16911346 0.285819
0001f0 08 5d dd 3d 1c 75 a7 bd b5 f6 a2 be 64 12 a6 bd
       0.1080876 -0.08176634 -0.31828848 -0.081089765
000200 c2 a5 e1 bd 1c c5 a5 be 98 90 0f 3e 29 5d 7b be
       -0.11017944 -0.32376945 0.14020002 -0.24547257
000210 05 a7 88 be 38 47 a7 bd 4c 00 c2 3c 47 72 1c 3d
       -0.26689926 -0.08167881 0.023681782 0.03819492
000220 ee 5a 5f bd 34 35 5d be 74 f5 22 bd d6 fb de 3d
       -0.054530077 -0.21602327 -0.039784864 0.10887878
000230 99 a3 70 be 47 4e 1f be 20 97 b8 3d fb ca dc bd
       -0.23499908 -0.15557204 0.090132 -0.10780903
000240 25 67 e4 3d 06 d6 e2 3d e7 62 97 3d 34 70 08 bf
       0.11152486 0.11075978 0.07391911 -0.5329621
000250 8e 71 c8 bc 2e a6 c3 bd 22 44 96 be 62 80 1e be
       -0.02446821 -0.09553181 -0.29348856 -0.15478662
000260 b5 c4 96 3d 4c cd 78 bd 0b 52 2c bb 03 df fd 3b
       0.07361738 -0.06074266 -0.0026294019 0.0077475323
000270 ef 25 a3 be 4a 1e 45 be 5b 5b bf bd ad 08 17 be
       -0.3186488 -0.19249836 -0.093435965 -0.14749403
000280 4d 92 16 3e 09 52 ab 3d 72 ee 8a be f9 d1 55 3e
       0.14704247 0.08365256 -0.27135044 0.2088088
000290 e2 63 c1 bd f1 c0 28 3d 5c 94 64 3e b6 6a 34 3e
       -0.09442879 0.04119963 0.2232222 0.17618832
0002a0 c3 8b 6d bd d5 a6 9d be f0 2c 92 be 16 77 81 3e
       -0.057994615 -0.30791345 -0.2854991 0.25286168
0002b0 b0 bc 26 3e aa 91 13 3d f1 f2 7e be 4a e1 b3 bb
       0.16282916 0.036027588 -0.24897362 -0.005489503
0002c0 a7 c6 1d 3c 26 0a 96 bc 82 f6 50 be af 14 1c 3e
       0.009629882 -0.018315386 -0.20406535 0.15242265
0002d0 12 47 67 3e a8 fe 4b 3e 25 60 26 3e 74 07 22 3e
       0.22585705 0.19921362 0.16247614 0.15823156
0002e0 4b 93 4b 3e ca 9f cf be f9 36 9b 3d 9d db 31 3d
       0.19880407 -0.40551597 0.075788446 0.04342233
0002f0 37 9c f0 bd 7d 75 b7 3d a5 6e 87 3e 5d d5 28 3d
       -0.117485456 0.08957956 0.26451603 0.041219104
000300 cc b2 31 3e 71 29 5e 3e 62 68 6f 3d 90 8a d1 3c
       0.17353362 0.21695496 0.058449157 0.025578767
000310 8c 2a e9 bd 98 30 03 be 97 3d 76 bd fd 7e 1a be
       -0.11385068 -0.12811506 -0.06011733 -0.15087505
000320 4f b0 d0 bd 0e 79 72 bb 4f 78 c8 3d fd 72 53 3e
       -0.10189878 -0.0036998424 0.09788572 0.20649333
000330 16 ff 96 3e 54 02 a4 be a7 f2 52 be 37 bd 8a 3e
       0.2949149 -0.32033026 -0.20600377 0.27097484
000340 99 a3 38 be c6 e4 90 3d 37 c7 78 3d e0 b9 2c bd
       -0.18031158 0.07074885 0.06073686 -0.04216945
000350 ae 05 00 bf 8e 99 47 3e 35 f6 84 bd b9 0f bd be
       -0.50008667 0.1949217 -0.06492273 -0.36926058
000360 81 54 c5 3d 56 34 9b be 6e 99 0b bf f3 55 47 3e
       0.096352585 -0.30313367 -0.5453099 0.19466381
000370 2c eb b5 3e 86 e6 21 3e cf 0c 9d be 59 06 d2 bc
       0.35530984 0.15810594 -0.30673835 -0.025637792
000380 ff 1f 8f 3b d6 bb 88 bd 45 fa 68 be f8 5c 6c bd
       0.004367828 -0.06676452 -0.2275172 -0.05770585
000390 3c 3f 8d bc b3 7c cf 3c c4 ba 8d 3d 94 b5 78 3d
       -0.017242067 0.025328016 0.06920388 0.06072004
0003a0 35 11 56 3e c1 e6 88 be 41 b5 c4 bd 42 ab 01 3a
       0.20905001 -0.2673855 -0.09604884 0.0004946479
0003b0 de 37 75 bd 52 26 a4 3e 93 ee 2a 3e 3e 1c 74 3e
       -0.059867732 0.32060486 0.16692571 0.23838899
0003c0 e7 a2 ce 3d 4a 74 88 3d 9f 53 65 be b8 00 54 be
       0.10089665 0.066628054 -0.2239518 -0.20703399
0003d0 6f ea c0 3c 05 37 2c be f9 3b 3b 3e 1b ea 22 3d
       0.023549287 -0.16817863 0.18284597 0.03977404
0003e0 0a 38 e2 3d 33 ca d9 bd a2 cb 83 bc 9c e9 92 3d
       0.11045845 -0.106342696 -0.01608831 0.07173464
0003f0 a6 06 04 3f 4e 00 5e bd 2d 0a e0 3d 38 65 14 be
       0.51572645 -0.05419951 0.10939441 -0.14491737

actor_mean.2.bias f4 [64]
000000 87 f6 b5 bb 62 be a6 3c 7e 6c cf 3c 04 51 3d 3b
       -0.00555307 0.020354453 0.025320288 0.00288874
000010 0e 36 cf bc 2c 3a 15 3d bb ab 96 3c 9d 31 85 bc
       -0.02529433 0.03643243 0.018392434 -0.016259009
000020 56 41 33 3c 0c 75 12 3d 75 40 4b 3b 08 9b 9a bc
       0.01094087 0.035756156 0.0031013761 -0.018872753
000030 7b fe 70 3c 26 21 0d bc 40 f0 19 bc 17 39 cc 3c
       0.01470911 -0.00861386 -0.009395659 0.024929566
000040 98 19 6c bc 7a d7 8f 3c 87 84 8d 3b 7e 1a 03 bd
       -0.014410399 0.017558802 0.004318777 -0.032007687
000050 0a e6 23 bc 2a 6f 17 3c f7 0d c6 ba 0f 9b a0 bc
       -0.010003576 0.009242812 -0.0015110363 -0.019605188
000060 eb 16 ac 3b 43 f5 86 3c 8a 6b 1b 3c e4 0d 4f bd
       0.0052517555 0.016474372 0.0094860885 -0.050550357
000070 75 f8 14 bd 5d c0 01 bd bf fe 3a 3d b2 d7 de 3a
       -0.03636976 -0.031677593 0.0456531 0.0017001538
000080 7e 49 03 3d 85 3d 88 ba 8d 95 91 bc af 68 f9 bc
       0.03205251 -0.0010394311 -0.017771507 -0.030445425
000090 2e 23 72 3d 7f 0b db 3b ae 9a 8b bc 80 da 01 3d
       0.05911558 0.00668472 -0.01704153 0.03170252
0000a0 87 e0 46 bb 9e 89 73 bc dc f5 07 3a c7 d7 28 bc
       -0.003034623 -0.014864353 0.0005186477 -0.010305352
0000b0 ce 00 4a bc 8c 96 80 bc c8 b8 ad bc bc 43 15 3d
       -0.012329293 -0.015696786 -0.021206275 0.03644155
0000c0 f6 5c a1 3c 29 09 a2 3c 5f fd b0 3a 24 ea b6 3c
       0.019697648 0.019779759 0.0013503245 0.022328444
0000d0 8b 3d 5c bd f6 5f 12 3c 11 fe 8f bc 70 b2 8a bc
       -0.05376963 0.008934012 -0.017577203 -0.016930789
0000e0 c6 61 b8 bc 46 84 15 bd f9 8a 56 bb a3 80 46 3c
       -0.02250756 -0.0365031 -0.0032736643 0.01211563
0000f0 b0 b4 c1 3c 69 fe 0b 3b 90 7f 15 3c 3a f0 b0 bc
       0.023645729 0.0021361357 0.009124652 -0.021598924

actor_mean.4.weight f4 [2, 64]
000000 9c b3 57 bc 44 33 6c 3e ba 16 64 bd 16 d4 76 be
       -0.013165381 0.23066431 -0.055685736 -0.24104342
000010 02 b4 39 bb 9e b6 59 3e 08 df b3 bd fa 01 e9 ba
       -0.0028336053 0.21261069 -0.08782774 -0.0017777078
000020 ab b3 91 3c d2 d8 8e bd 15 8c 47 3e 0c 36 64 3d
       0.017785868 -0.06974949 0.19487031 0.055715606
000030 f2 d9 b7 3d 75 4e 34 3c 25 a9 9a bd 66 44 c9 3d
       0.08977117 0.011005034 -0.07551793 0.09827499
000040 66 49 db bc 27 84 4e bd bd b8 91 bb 54 90 15 be
       -0.026768398 -0.050419 -0.0044470713 -0.14605838
000050 a7 b9 9c bd f7 4a 33 3e 33 90 2b be a5 14 8e bd
       -0.07652598 0.17509066 -0.16754226 -0.069375314
000060 4e ee 7c bd 99 da be bb e2 b5 0a 3d e2 3a 81 bc
       -0.061750703 -0.0058243987 0.033864863 -0.015775148
000070 d3 e7 9c bc 75 2b e5 3d eb ac 1e 3e f0 05 8c 3c
       -0.019153511 0.111899294 0.1549565 0.017092675
000080 38 d0 7d 3e 99 f5 35 3e 72 21 04 3e 53 fd e6 ba
       0.2478646 0.1776947 0.12903383 -0.0017623104
000090 e6 2c 44 3e d5 16 c2 bd 08 25 be 3b 32 b6 b0 bc
       0.19157752 -0.09477011 0.0058027543 -0.021571252
0000a0 57 28 8c 3d 29 95 6f bc 73 ea 55 3d e1 37 da bd
       0.06843632 -0.014622965 0.05222554 -0.10655189
0000b0 ce 65 67 bc 6b fb 15 be ea b5 02 be ee 7a 60 bd
       -0.014123393 -0.1464669 -0.12764707 -0.054804735
0000c0 0e fb 00 be af 45 06 bd 0c ef 1a bd cf 30 93 bd
       -0.1259577 -0.0327813 -0.03782563 -0.07187044
0000d0 c8 34 9e bd ab 55 39 3d d3 54 02 be 57 1b c2 bb
       -0.07724911 0.045247715 -0.1272767 -0.0059236693
0000e0 50 6f 5f bd 81 59 a0 bc 89 0b 61 3e 67 d3 5b bc
       -0.054549515 -0.019573929 0.21977057 -0.013417101
0000f0 05 3f b1 bd 67 95 a3 bc f8 69 0c be 6d c7 86 bd
       -0.08654598 -0.019968702 -0.13712299 -0.06581006
000100 80 8e 04 3e 4f 82 2c 3d 1c 6b 81 bd 31 93 dc 3d
       0.12944984 0.04211646 -0.063192576 0.10770262
000110 38 f1 4c 3d e4 04 7d b9 c9 24 1b bd 0f 32 15 3d
       0.05003473 -0.00024129782 -0.037876878 0.036424693
000120 aa 36 31 bd 19 cd 33 3d 71 0d 5a 3e e8 0f 17 be
       -0.043265022 0.04389677 0.2129419 -0.14752162
000130 6f 8c 54 bc 49 ab bc 3b bc c6 1a 3e f8 80 e9 bc
       -0.012972935 0.0057577235 0.15114874 -0.02850388
000140 6f c2 e6 bb 0a a4 da b8 38 ca 0c bc fa f2 ed b9
       -0.0070422213 -0.00010425605 -0.008593135 -0.00045385194
000150 e8 29 4d be 7a 1c 08 3e 60 e1 db 3c 0d a4 05 3e
       -0.20035517 0.13292113 0.026840866 0.13050862
000160 d8 3f 3f 3d 0a 9b dc bb 34 c3 e2 bc 6b 32 6f 3b
       0.046691746 -0.0067323493 -0.02768097 0.0036498557
000170 6f c9 3f 3e 08 c8 42 3e d0 d3 01 bd e6 dd cb bc
       0.18729185 0.19021618 -0.03169614 -0.024886083
000180 0a 93 ab 3b b8 cb 76 3b 5c c3 30 be bc 9e 1a 3e
       0.0052360343 0.0037658047 -0.17262024 0.15099615
000190 7c b5 05 bd 0d 96 a3 3d a6 75 12 3c 43 8c 9b bd
       -0.03264378 0.07987604 0.008939182 -0.07595112
0001a0 4d 50 13 be 6c dc 43 3e 9e ac 7d 3c 64 6a 0f be
       -0.14386101 0.19127053 0.01548305 -0.14005429
0001b0 58 f5 55 3e ec 35 ab 3d 1b 2e 2d be be bf e8 bc
       0.20894372 0.08359894 -0.16912119 -0.028411742
0001c0 87 f8 83 3e 81 b2 56 be 99 7b ee 3d 1f d4 73 be
       0.2577555 -0.20966531 0.11644668 -0.23811387
0001d0 63 b9 db bc f5 5d 97 bd 6e ae 3c 3e 23 26 33 3e
       -0.026821798 -0.07390968 0.18425915 0.17495017
0001e0 f4 8f b3 bd 53 fb 14 3c 84 82 fb 3c 20 42 fd 3c
       -0.08767691 0.0090931235 0.030701883 0.03091532
0001f0 1a 71 38 3c 13 39 9f 3d 03 3e 1e be bb a7 5b bd
       0.011257434 0.07774558 -0.15453343 -0.053626757

actor_mean.4.bias f4 [2]
000000 f9 74 c8 bb 35 6f 00 bc
       -0.00611746 -0.007839014

critic.0.weight f4 [64, 14]
000000 8a f1 65 3d 76 b4 6d be 4b d5 8c 3c cb 78 83 3d
       0.056138553 -0.23213372 0.01719155 0.06419524
000010 5e 2a 53 be ee 9c 07 3e 1a a9 a3 3c 20 62 75 3f
       -0.2062163 0.13243458 0.019978095 0.9585285
000020 48 e7 0f bd 60 32 8a 3d 49 22 3c 3d de 05 c1 3d
       -0.035132676 0.067478895 0.045931134 0.09424947
000030 24 6b f8 3b 0a 03 8c 3c 7c 0e b1 bd 40 59 c7 3d
       0.0075811315 0.017091293 -0.08645341 0.0973382
000040 35 69 13 3e 8a e2 8d bd f9 1d a3 3d 7c 42 18 be
       0.14395602 -0.069279745 0.07964701 -0.14869112
000050 af c0 0a be 41 0a 75 3d 91 1d 60 bd d3 17 9c 3d
       -0.13550065 0.059824232 -0.054715697 0.076217316
000060 58 cc 59 3e 06 6c 16 3d d1 e2 44 3e bb 9c 58 3e
       0.21269357 0.036724113 0.19227149 0.21153538
000070 82 4c f5 3d 34 0c 5e bd 27 ee b4 be e7 e2 fe 3d
       0.11977483 -0.054210857 -0.35337946 0.12445622
000080 ec 31 57 bc 94 80 96 bc 7a 2c a9 3e 0f 32 80 bd
       -0.013134461 -0.018371858 0.33041745 -0.06259548
000090 bf a2 41 3d b2 eb 97 3e b7 56 4d 3d d1 e1 39 3e
       0.047274347 0.2967201 0.050131526 0.18152548
0000a0 ac db 6b 3d e8 80 69 ba 6d c2 7e be 17 84 79 3e
       0.057582542 -0.0008907453 -0.24878855 0.24366795
0000b0 a5 ea 93 bd 09 3c 74 3d bf f3 28 3e fd ca bf 3c
       -0.07222489 0.059627566 0.16499232 0.023412222
0000c0 45 e5 01 bd 36 09 f4 3d c0 d1 0a be 47 7a a8 bd
       -0.03171279 0.11915819 -0.13556576 -0.082264476
0000d0 ff 26 04 be 24 e8 e8 3c 15 f9 65 3e e8 07 4c 3d
       -0.12905501 0.028431006 0.22458299 0.049812227
0000e0 81 b3 69 bc ef 81 71 3d 01 3b 8c 3c 59 78 52 be
       -0.0142639885 0.058961805 0.017117979 -0.20553721
0000f0 3f 37 ef bd 7e cc 5f be 3b 19 f5 3d 80 6d 2a 3e
       -0.11680459 -0.21855351 0.11967703 0.16643333
000100 79 af ba 3b 5b 4d 1b 3d af 56 cb 3c bc 15 5e 3d
       0.0056971875 0.03791557 0.024821607 0.054219946
000110 10 4d da be 9f d9 b8 3e 3a 58 b9 be 91 16 04 3e
       -0.4263692 0.36103532 -0.36200124 0.12899233
000120 a3 ac 30 bc 14 8f e5 3d e1 4c f9 bb d7 36 05 3e
       -0.010783347 0.112089306 -0.0076080416 0.13009201
000130 d9 52 d5 3e 50 f5 89 3e a4 33 05 3e fb 18 6f 3e
       0.4166477 0.2694497 0.1300798 0.23349373
000140 a3 0f 23 3d 37 12 57 3c 4e e3 39 3d 06 8a 98 3e
       0.039809834 0.013126901 0.04538279 0.29792804
000150 e5 a1 37 be 89 16 8f be b0 f9 02 3d b8 15 1c 3d
       -0.17932852 -0.2794688 0.0319764 0.03810665
000160 1c 8f b5 3d 07 ab 1f 3d 9c 50 78 bc fd c0 09 3e
       0.088651866 0.038981464 -0.0151559375 0.13452525
000170 22 45 3f 3e b8 46 d1 bd 6c db 94 bd cf 46 be 3d
       0.18678716 -0.10218567 -0.07268414 0.092908494
000180 73 f3 42 3e c3 a8 26 be d0 40 73 be 68 b5 3c bd
       0.19038181 -0.16275315 -0.23755193 -0.04607144
000190 06 ed e2 3c bb 8b b9 bd fa e0 63 be 2f 88 09 be
       0.027700912 -0.090598546 -0.2225379 -0.13430856
0001a0 0f ee bd 3e d1 49 ab be d8 28 92 3d d7 ad 77 3e
       0.37095687 -0.33454755 0.071366966 0.24187408
0001b0 cc 75 95 3d 6b 28 7d 3b 17 20 8b 3e 70 b0 08 3e
       0.072978586 0.0038628827 0.2717292 0.13348556
0001c0 42 40 0a 3f e0 4f c9 3e 28 09 81 39 f6 2e 80 3e
       0.540043 0.39318752 0.0002461162 0.25035828
0001d0 48 64 34 bc 6f d4 67 3e 26 61 90 be 10 f1 2d bf
       -0.011010237 0.2263963 -0.28199118 -0.6794596
0001e0 d6 5b 5c be 52 37 03 bd 1f 10 29 3b fd 3c 40 3c
       -0.21519408 -0.03203518 0.0025796962 0.011733291
0001f0 ae 91 9d bd 1f 29 e6 bd 92 32 e0 bd 95 b8 bb 3d
       -0.07693802 -0.11238312 -0.109471455 0.091660656
000200 48 b1 72 3d 19 06 2b be 13 19 93 3d 99 67 9e bd
       0.0592511 -0.16701545 0.07182517 -0.077346034
000210 08 0a d2 3e 12 7d 83 bd c0 19 95 3e 7e bd 11 3e
       0.41023278 -0.0642034 0.29121208 0.14232442
000220 b6 a7 36 3d fe 62 3c bd 79 e0 4f be 53 fb 01 bd
       0.044593535 -0.045992844 -0.20300473 -0.031733822
000230 e9 c5 ea bd a2 ef 80 be b0 00 b0 bd d2 75 33 be
       -0.114635296 -0.25182825 -0.08593881 -0.17525414
000240 83 3a 18 bc 54 ab bc 3d 62 1b 20 be e3 5c 29 3d
       -0.009291294 0.09212366 -0.15635446 0.04134835
000250 0c c5 a7 be 03 ca c1 3e f6 b1 39 3d 4d 9c b7 be
       -0.32767522 0.37849435 0.045335732 -0.35861436
000260 33 99 2d bd 67 a1 42 be 84 b5 4e 3e 3b e9 b2 3c
       -0.04238243 -0.19006883 0.2018643 0.021839729
000270 38 b4 03 be 48 2b 8b 3e fe 41 f4 3b c5 54 25 be
       -0.12861717 0.27181458 0.007454156 -0.16145618
000280 43 ce e3 be fe 9a ae 3d 74 71 37 3e d1 8c 04 be
       -0.44493303 0.08525656 0.17914373 -0.12944342
000290 ef c1 da bd 96 a3 5f be 39 b2 c6 3b 93 a6 4d 3d
       -0.10681521 -0.21839747 0.0060637263 0.050207686
0002a0 9d 7c 81 3d 97 06 3c 3e 3d 93 54 3c 2b 51 9a 3d
       0.06322596 0.18361889 0.0129745575 0.07535013
0002b0 a5 35 d5 bc e3 7e 8e 3d 96 5f 24 be 81 d4 82 be
       -0.026026556 0.069577955 -0.16052088 -0.25552753
0002c0 1a 99 c0 3d a7 8f 04 be c5 de 41 3d bf 3f 40 bd
       0.09404202 -0.12945424 0.04733159 -0.046935793
0002d0 98 f8 48 3d 9a e4 17 3e 84 9e cd 3d cc 8f 8a 3d
       0.049065202 0.14833298 0.1004 0.06765708
0002e0 e3 14 56 be 7a c4 5c 3c d5 02 b4 bd 8d 64 9a 3e
       -0.20906405 0.013474578 -0.08789603 0.3015484
0002f0 7f 18 60 3e fd ff 6d 3e 17 0f 7b 3b 4d a6 e8 bd
       0.21884345 0.23242183 0.0038308555 -0.11359844
000300 c1 ce a5 be 08 21 71 3b 0f 7d aa bd 3a 2f 87 3b
       -0.32384303 0.003679337 -0.08324634 0.004125503
000310 23 71 5f be f8 00 5c 3d 6d 17 52 3e fa 90 09 3f
       -0.21820502 0.05371186 0.20516749 0.5373684
000320 62 89 66 bd 60 88 2c bb 6b 33 82 bd 22 ea be 3d
       -0.056283362 -0.0026326403 -0.063574634 0.09322001
000330 69 91 74 3e 49 cf c6 3c 28 09 f3 3d ae ee 0c 3e
       0.23883595 0.024268763 0.11866981 0.13762924
000340 97 d6 a7 3e b3 d8 50 bd 9d 42 18 3e 35 b4 92 3d
       0.32780907 -0.05098791 0.14869161 0.07163278
000350 9c 13 c7 3e 08 73 06 3e 3f f8 bb be 45 9c 48 3e
       0.38882148 0.13129818 -0.36712834 0.19590862
000360 82 ea 42 be 27 85 55 be 50 66 6e 3c be da eb 3d
       -0.1903477 -0.20851575 0.01455076 0.11516331
000370 76 e8 09 3e 2a 6d 91 3c 0c ff 1b 3e eb 1d 9a be
       0.13467583 0.017752249 0.15234011 -0.3010095
000380 62 53 75 3e ff 6c bf bc fc 18 5d be 37 ac 09 be
       0.2395759 -0.023367403 -0.21591562 -0.13444601
000390 fb 31 43 be 4e 01 d0 3d ed 6b 38 bb 5c 05 91 be
       -0.19062035 0.10156499 -0.00281405 -0.283244
0003a0 a6 61 e4 3d db f9 82 be 95 6d 58 be 4d 39 6e bd
       0.111514375 -0.2558125 -0.21135552 -0.058160115
0003b0 6c b4 c8 3d 90 30 d6 3d 38 16 94 bd 31 fb db 3d
       0.09800038 0.10458481 -0.072308004 0.1074127
0003c0 2c 6f 0b 3e 0e 0b 85 be fa d8 d8 ba 0d 29 30 3d
       0.13616627 -0.25984997 -0.0016544156 0.0430079
0003d0 95 5b c5 3d ec 87 8f be 64 0a a8 be 9b 6e 11 bc
       0.096366085 -0.28033388 -0.32820427 -0.008876468
0003e0 b2 85 bc bd b3 e4 ae 3d 25 e2 62 3e 79 5e 08 3e
       -0.09205188 0.08539715 0.2215658 0.13317288
0003f0 43 43 76 be 67 d4 83 bd 9f ab 39 bc 6c 18 2e bd
       -0.24049096 -0.06436997 -0.011332422 -0.04250376

critic.0.bias f4 [64]
000000 bc 9e e6 bc 42 15 1e 37 00 00 00 00 e1 2f 94 3c
       -0.028151862 9.422483e-06 0.0 0.018089237
000010 d3 d8 69 bd 0f 8e 68 bd 41 b0 6d 3c 17 b0 d9 bc
       -0.057091545 -0.056776103 0.014507354 -0.026573224
000020 da 3d 0c 3d e7 51 a8 3c 9b 74 e7 ba 77 0e f9 b9
       0.034238674 0.020546867 -0.0017658653 -0.00047503758
000030 88 51 59 bd 16 55 08 b3 bf 79 ca 35 00 00 00 00
       -0.05305627 -3.1742353e-08 1.5085606e-06 0.0
000040 87 85 52 34 88 1e a4 3a b3 40 11 bd f0 4c 9c 3a
       1.9606351e-07 0.0012521306 -0.035462093 0.0011924785
000050 25 de 14 b5 b1 35 a7 bb 92 cf 40 bb 21 78 ec bb
       -5.545756e-07 -0.005102836 -0.0029420597 -0.007216469
000060 62 1b 3e 3d 1d 1b 68 bc 00 00 00 00 8e fb 0d 3d
       0.046412833 -0.014166621 0.0 0.03466373
000070 3b c9 5b 3b d8 16 e5 b5 34 39 32 b3 88 90 a6 3b
       0.003353669 -1.7068478e-06 -4.149588e-08 0.0050831474
000080 d8 af a5 bb 01 eb c0 35 00 00 00 00 98 69 c1 bc
       -0.0050563626 1.437351e-06 0.0 -0.023609921
000090 8d 70 6a 3d 67 8f 65 34 c4 b2 3b 36 98 59 ab bd
       0.057236243 2.1379456e-07 2.7969227e-06 -0.08366698
0000a0 2c 30 27 3a 9c 7e 8b 3d 6f ce 4b 39 6b 86 91 bb
       0.00063777226 0.06811258 0.00019436491 -0.0044410727
0000b0 c0 d0 8e 3c 63 cf cd bc 00 00 00 00 d0 ce 3e b3
       0.017433524 -0.025123304 0.0 -4.4425917e-08
0000c0 c2 44 1c 3c 2d b0 7f b5 d9 d0 53 3d 6f a0 d0 bb
       0.0095378775 -9.525127e-07 0.051712845 -0.0063667814
0000d0 ef 08 15 b9 22 54 7c b8 da 28 9a 2f be 94 a9 ad
       -0.00014213075 -6.0159837e-05 2.8041464e-10 -1.927913e-11
0000e0 05 a7 d4 3b ac 24 75 3d 35 56 21 bd 04 11 e4 bc
       0.006489637 0.059849426 -0.039388854 -0.027840145
0000f0 00 00 00 00 7c 2a 37 bd 30 0a 56 b8 65 f0 88 3d
       0.0 -0.04471825 -5.1031064e-05 0.066864766

critic.2.weight f4 [64, 64]
000000 b2 fe a0 bd fe cc 5f bd b6 2a 18 bd 46 06 c4 bd
       -0.07861079 -0.054638855 -0.037150107 -0.09571509
000010 e8 d0 24 be 98 dc 0b bd 84 6d 9f be ab ab 01 3e
       -0.16095316 -0.03414592 -0.3113824 0.12663142
000020 fa 24 4b be bb 01 0e be 65 d2 90 bd 03 00 8b be
       -0.19838324 -0.13867848 -0.070713796 -0.27148446
000030 ef 89 b3 be 54 13 2a 3e 0b aa e5 be 18 75 54 be
       -0.35066172 0.16608936 -0.44856295 -0.20747793
000040 92 b3 1d be e4 50 58 3d 30 22 73 be e0 3c bc 3e
       -0.15400532 0.05281152 -0.2374351 0.36765194
000050 60 b3 c9 bc ce 09 23 3e b7 b8 ec 3d b6 ed c6 3d
       -0.024621665 0.15921709 0.11558669 0.097133085
000060 e6 3c 59 3e a2 8a b1 3c 69 84 29 3e a8 ba 1c bc
       0.21214637 0.02167255 0.16554417 -0.009565987
000070 63 ce a4 3e da a2 aa be 52 d7 6a bd 35 48 91 3e
       0.3218871 -0.3332737 -0.05733425 0.28375402
000080 0e 20 e3 3d 48 a3 da bd 70 9b e2 bd 64 81 8f bd
       0.11090098 -0.10675675 -0.110648036 -0.07007101
000090 09 83 d2 3d 2c dd b6 b9 ed 78 ff 3d db a2 04 3e
       0.10278899 -0.0003487853 0.12474237 0.1295275
0000a0 09 4d 04 be 63 dd af bd ae 91 ec bd 42 26 38 be
       -0.12920012 -0.08587148 -0.11551224 -0.17983344
0000b0 93 6c d2 bd eb dd b3 3c 0b a2 30 be 92 42 f2 bc
       -0.10274615 0.021956405 -0.17249314 -0.029572759
0000c0 39 84 70 3d ba 3c 0b be 30 5a a3 3b 76 ae 74 3e
       0.058719847 -0.13597384 0.0049851164 0.23894677
0000d0 1f 04 28 3e 77 8d b0 bd e3 11 ac 3d fb 18 07 be
       0.16407822 -0.08620732 0.08401849 -0.13193123
0000e0 bd 7c 1c 3a 21 8a ff 3d 56 40 90 3e 36 99 fa bd
       0.0005969515 0.12477518 0.28174084 -0.12236254
0000f0 f6 6e 92 be 5f a6 d0 be b8 63 12 3c 70 76 77 3e
       -0.2860028 -0.4075193 0.008934908 0.24166274
000100 ea c1 f8 3b d8 99 bd 3c 1d cf 88 3e 23 26 2f bc
       0.0075914757 0.023144647 0.26720515 -0.010690245
000110 cb 00 29 be e6 c7 6d bd 55 c0 3d 3d ac e6 f8 be
       -0.16504209 -0.058051966 0.046326 -0.4861349
000120 90 d9 61 3e 6a 0b e9 3d 90 95 a0 bd c7 da 61 3c
       0.2205565 0.1137913 -0.07841027 0.013785071
000130 22 df 4f 3b a3 0f 6a be 3e d3 b1 3b 10 83 d0 3d
       0.003171869 -0.22857527 0.0054267934 0.10181248
000140 d4 f2 e0 3c 69 e6 a9 3d 23 49 13 3e a9 34 13 be
       0.02745954 0.082959004 0.14383368 -0.14375557
000150 3e 2f a8 3e bc 30 f2 3d 30 a6 05 3e 16 9c 49 3c
       0.32848543 0.118257016 0.13051677 0.01230528
000160 e4 52 ac bd 75 49 01 be fd 29 8c be 97 9d 9b 3e
       -0.08414248 -0.12625678 -0.27375785 0.3039367
000170 4c 61 10 3e c2 fa 8a 3e 1d 80 7d be f2 64 78 3d
       0.14099616 0.27144438 -0.24755903 0.060643144
000180 49 02 32 3e b5 84 65 be ac ef 1b 3e 51 fc 52 bd
       0.17383684 -0.22413905 0.15228146 -0.05151016
000190 23 ab cb 3c c2 1b b4 3d 20 0d 4e 3e 50 61 2d be
       0.024861878 0.08794357 0.20122194 -0.16931653
0001a0 63 99 4e be db 10 e7 be 71 d7 46 3c 26 ab ab be
       -0.201757 -0.45130047 0.012136326 -0.33529013
0001b0 af 55 2a bd 27 2f 6d be 6c db af be ab 13 68 be
       -0.04158562 -0.23162518 -0.34347093 -0.22663753
0001c0 81 7d cd 3d a3 b2 13 be 0c 2c 8d 3d 8d e2 2c 3e
       0.100337036 -0.14423613 0.06893167 0.16883297
0001d0 2b 9b 37 3c 23 9c 8c 3e c1 ee 47 bd e1 62 57 bb
       0.0112064285 0.27462873 -0.048811678 -0.0032865333
0001e0 33 c1 40 3e c8 59 04 3e 23 a6 0b 3d ed 8f 88 bd
       0.188237 0.12924874 0.034093987 -0.06668077
0001f0 cf 38 3d bd 04 c8 2e bc 7c 91 69 be 64 74 3f be
       -0.046196755 -0.010667805 -0.22809404 -0.18696743
000200 d9 4c 81 be 01 e9 ff 3c 59 11 c4 3d b6 8f 82 be
       -0.25253943 0.031239035 0.09573621 -0.25500268
000210 da 6c 63 3e be 32 54 3e 3b 1f 8c 3e 53 89 13 3e
       0.22209492 0.20722482 0.27367577 0.14407854
000220 fd 6e 89 3c 8f f8 6a be d5 c3 05 be db d1 b1 bc
       0.016776556 -0.2294638 -0.13062985 -0.021706512
000230 b5 2d 92 3e a3 4e fa bd 08 d1 c6 3b f3 de 41 3d
       0.28550497 -0.1222203 0.006067399 0.04733176
000240 6d b4 9c bd da 24 c7 3e 27 2a a2 bd b9 16 e6 3c
       -0.07651601 0.38895303 -0.07918196 0.028087007
000250 0f a2 78 bd c1 5d 94 3e cd 36 36 3e 5a b8 8c 3d
       -0.060701426 0.2897778 0.17794342 0.068711
000260 b9 a8 9b be 25 fd d6 bd 3d fc 1f be 50 d0 3a be
       -0.30402163 -0.10497502 -0.15623565 -0.18243527
000270 67 60 99 3e 8e 67 9e be 2e 06 a7 bd cb f5 14 3d
       0.29956362 -0.3093838 -0.081554756 0.03636722
000280 b3 f3 38 bd 85 56 e4 3d 59 93 fd bd 0c da 17 be
       -0.045154285 0.11149315 -0.1238162 -0.14829272
000290 ee b5 a5 be a1 32 69 3e a4 6e 9f be 37 c6 04 3d
       -0.32365364 0.2277322 -0.311391 0.032415595
0002a0 2b 05 02 be 4f b1 2a 3d 74 c0 ad 3e e1 94 c2 3c
       -0.12697284 0.041673 0.33935893 0.023752632
0002b0 47 cd 38 3d 3c d9 44 3d c8 ca c9 3d f9 7e a1 be
       0.045117643 0.048058733 0.098531306 -0.31542185
0002c0 0b 8e b9 3e 2f 01 29 3e a9 2a 02 be 24 24 d7 3d
       0.36241183 0.16504358 -0.12711586 0.1050494
0002d0 3d 3b 55 3e 9c 99 0e be e8 a6 b4 bd 21 ce e6 bd
       0.20823379 -0.13925785 -0.08820897 -0.11269785
0002e0 4b d0 44 bd 0e 53 86 3d 2d 6d f9 bb bf 8a 86 be
       -0.048050206 0.0655881 -0.0076118917 -0.2627773
0002f0 17 71 39 3e 3d 58 a8 3d 77 aa 6d be 9b a9 1a bd
       0.18109547 0.08219955 -0.23209558 -0.037759405
000300 e8 cd 8f 3e 18 15 71 bd a0 2f b0 3d 69 36 9a bd
       0.28086782 -0.058858007 0.08602834 -0.07529909
000310 6f 10 3c 3e 8d d2 63 be 28 a9 08 bd 26 f3 b4 bb
       0.18365644 -0.22248287 -0.033364445 -0.0055221496
000320 be 27 15 3d 1c 85 94 3d ac eb ee bc 39 2d 9b bd
       0.036414854 0.07251951 -0.029165111 -0.07576985
000330 9a 8e e6 3d 79 08 33 3e 7c a5 e9 bd 12 d0 23 3e
       0.11257668 0.17483701 -0.11408517 0.15997341
000340 7d 29 03 3e 3c 1e 9a bc 4b c5 21 3e 05 0f ea 3e
       0.12808795 -0.018813245 0.15797918 0.45714584
000350 13 68 99 3e a0 fa 2b bd 8f 65 11 be 20 c2 63 be
       0.29962215 -0.04198706 -0.14198898 -0.22242022
000360 6e ea 95 3e cf 56 79 3d 65 c8 eb bd b4 e2 72 be
       0.29280418 0.060873803 -0.115128316 -0.23719293
000370 33 74 80 bd dd e3 85 3d c3 60 95 be 9e 68 fb bb
       -0.06272163 0.06537602 -0.29175386 -0.0076723834
000380 51 dc a1 3d a3 09 34 3e 28 0e 3b 3d 0a 02 36 be
       0.0790335 0.17581801 0.045667797 -0.17774215
000390 bc 17 69 3d 6e 57 08 be 38 3a 8f 3d 95 a4 aa 3d
       0.0569074 -0.13314602 0.06993526 0.08332173
0003a0 16 b0 e3 3e a4 9c 98 3e e7 d6 86 3c 6b 62 5c bc
       0.4447028 0.29807007 0.016459895 -0.013451199
0003b0 9c 88 45 3e 41 75 d3 bd 6a 2d 00 bd 4d bf ed bd
       0.19290394 -0.10325099 -0.03129331 -0.11608753
0003c0 16 8d 37 3e b9 70 11 3d a2 d7 9b be b7 b6 26 3e
       0.17924914 0.03550789 -0.30437952 0.16280638
0003d0 2e 17 42 be 9f f6 80 3e bd 6b 0a be 0f 1c 65 3e
       -0.18954155 0.25188157 -0.13517661 0.22373985
0003e0 c4 86 72 be f4 94 47 3e 21 e9 77 3d 74 57 c3 be
       -0.23684222 0.19490415 0.060525063 -0.3815266
0003f0 be b8 29 3e 77 45 45 be 96 36 b3 bd 86 1e 7e 3c
       0.1657438 -0.1926478 -0.08750646 0.015510207

critic.2.bias f4 [64]
000000 dc db 3a 3b 11 b1 18 3b ea 36 b7 3c 5f e2 ef 3a
       0.0028512394 0.00232989 0.022365052 0.0018301717
000010 43 3d 6c 3b c9 f3 f1 bc 3d 9a d1 bb c7 c3 84 3b
       0.0036047257 -0.029535191 -0.0063965605 0.004051659
000020 ff c3 b1 bc 38 b3 a4 bc 68 7d 42 3c f2 50 40 bc
       -0.021699904 -0.02010499 0.0118707195 -0.011738049
000030 5a 96 c4 3a 43 c5 9a bb 3a bc b7 3c b4 78 92 3c
       0.0014998422 -0.0047232225 0.02242862 0.017879821
000040 05 b5 12 3c 46 76 a4 3b a1 1a 78 bc c3 e1 32 3c
       0.008954291 0.005018982 -0.015143068 0.010918084
000050 67 f8 5e bc 5a 8b 22 bc 74 f1 95 3b a7 95 d7 3b
       -0.013609028 -0.009920919 0.0045759026 0.0065791192
000060 90 be d9 3c 97 d0 44 3c 0c 85 e5 3c e4 8e 24 3c
       0.026580125 0.012012622 0.028017543 0.010043833
000070 73 d0 3e bb 4a 62 a0 3c 3e a8 d1 3b d7 47 81 3c
       -0.0029115945 0.019578118 0.00639823 0.015781326
000080 88 fa 92 3b de 72 a4 bc 18 0e d6 bc 0e b5 a7 3c
       0.004485432 -0.020074304 -0.026129767 0.020472076
000090 53 24 41 bc 8c 93 6c 3b a7 e6 ed 3a af 05 6e bb
       -0.0117884455 0.0036098687 0.0018150405 -0.0036319306
0000a0 57 ec 44 3c 34 de e1 3c 36 76 01 bc 86 80 a0 3b
       0.012019238 0.027571775 -0.007901719 0.0048981337
0000b0 bf cf 03 bc b4 8d a4 3b ad 1b 5c 3c ee be 75 bb
       -0.008045136 0.005021775 0.013434333 -0.0037497836
0000c0 27 c3 a1 3a 88 ea 01 3a ce 67 a3 bc 72 a8 be ba
       0.0012341485 0.00049559074 -0.019946959 -0.001454605
0000d0 1c 37 6f bc f9 50 cd 3c b2 16 05 bd bc ca c5 bb
       -0.014600541 0.025063025 -0.032492347 -0.0060361307
0000e0 84 ed a6 3c ce cc 81 bc f3 68 9a bc 81 ae 81 bc
       0.020376928 -0.015844729 -0.018848872 -0.01583028
0000f0 19 39 ab bb 8e 2e f2 39 b9 77 e7 3c 1d 12 5a 3c
       -0.0052253124 0.00046192523 0.02825533 0.013309983

critic.4.weight f4 [1, 64]
000000 97 9c 53 3e ef 71 51 be d2 7a c7 be 5c ac a6 3d
       0.20665203 -0.20453618 -0.38960892 0.08138344
000010 6c f1 b4 3d f3 ab 15 3d 08 bf 71 3e 6a 74 f5 bd
       0.0883511 0.036540937 0.23608029 -0.11985095
000020 03 29 55 3e 71 e7 6c 3d 64 5f 81 bd 90 a0 02 3d
       0.20816426 0.057837907 -0.063170224 0.031891406
000030 5d 6f c8 3d ba b5 f7 bd 97 a1 e1 3d aa 71 c6 bc
       0.09786866 -0.120952085 0.11017149 -0.024224121
000040 50 5d 6b 3e 03 a6 c7 bc 51 3f d8 bd 97 1c a7 3c
       0.22984815 -0.024371153 -0.10558952 0.020399375
000050 22 ec fd 3d 52 ce 67 3e 16 3a 49 3c 27 54 89 3e
       0.123985544 0.22637299 0.012281915 0.26822016
000060 1f f4 27 be 96 d7 be bd f3 6e 15 be 4c 55 f8 bd
       -0.16401719 -0.093184635 -0.14593105 -0.12125644
000070 35 3a 52 3e b7 be 4f bd 07 6f 49 bd 5f ee e4 3d
       0.20530017 -0.05071899 -0.04917815 0.11178278
000080 cd 26 79 bc e0 89 2c 3e e4 17 13 3e 9a 45 0f be
       -0.015207005 0.1684947 0.14364582 -0.13991395
000090 f5 14 21 3e b9 19 2b be 18 c8 ff 3d 85 56 34 3e
       0.1573065 -0.16709031 0.12489337 0.1761113
0000a0 10 6a 69 bd 6d 7d 78 bc a8 a4 48 3d 02 52 10 bd
       -0.056985915 -0.015166623 0.048985153 -0.03523446
0000b0 04 fb ae bc 33 e9 a7 bd 61 ed a6 3c 14 ed 88 3d
       -0.021359928 -0.08198776 0.020376863 0.06685844
0000c0 24 d8 25 be c4 49 23 3e 99 18 c9 3d 45 b2 d2 bd
       -0.16195732 0.15946108 0.09819145 -0.102879085
0000d0 1b a4 b7 3d ae 7c df bd 18 ee 0c 3e 41 b9 68 3e
       0.089668475 -0.10912453 0.137627 0.22726919
0000e0 6f 5b 51 bd 4b f1 6b 3e 00 b6 23 3d cd 21 ff 3d
       -0.05111259 0.23041265 0.03996849 0.12457619
0000f0 02 0f 90 be fd ee d6 3d 56 b0 24 bd 26 54 12 be
       -0.2813645 0.10494802 -0.04020723 -0.14289913
