fw_flightcontrol/models/icinco/ppo/noactreg/ppo_bohnmlp_noactreg_nohist_noatmo_2164_30-05_13:15:18.pt (torch, 46975 bytes, 12 tensors)

actor_logstd f4 [1, 2]
0	0x3dc95fc8	0.09832722
1	0x3e163d1a	0.14671746

actor_mean.0.weight f4 [64, 14]
0	0xbb9fe99c	-0.0048801433
1	0xbb8150f0	-0.003946416
2	0xbe24ad9f	-0.16081856
3	0xbc04d5e1	-0.008107633
4	0x3d849a80	0.06474781
5	0x3e2035e6	0.1564556
6	0xbe235cf3	-0.15953426
7	0x3d67e091	0.056610648
8	0xbd8082e6	-0.06274967
9	0xbde2ab03	-0.11067774
10	0x3f13613b	0.57570237
11	0x3eb39a1f	0.35078523
12	0xbe45d6d0	-0.19320226
13	0x3bb39095	0.005479882
14	0x3cbc183c	0.022960775
15	0x3b2b9068	0.0026178602
16	0xbd8011a9	-0.062533684
17	0x3d5048f1	0.050850812
18	0xbce52d32	-0.027975652
19	0xbd4c71cd	-0.049913216
20	0x3e0816c6	0.13289937
21	0xbe33ea51	-0.17569853
22	0x3d666f03	0.056258213
23	0xbd3089fa	-0.043100335
24	0x3e22b4b9	0.15889253
25	0xbde9e71a	-0.11421032
26	0x3d8ba103	0.0681782
27	0x3e1a2da7	0.15056477
28	0xbdf36e6a	-0.11886294
29	0xbe349b52	-0.17637375
30	0xbeb27d6b	-0.3486131
31	0xbddd5647	-0.10807472
32	0x3d2394a1	0.039936665
33	0xbd5fec3d	-0.054668654
34	0x3d8bfc99	0.068352886
35	0xbd4eedea	-0.05051986
36	0x3dda0c6b	0.106469
37	0xbe5be2ee	-0.21473286
38	0xbea9e5f6	-0.3318326
39	0xbd09d1f6	-0.0336475
40	0x3e41fd5e	0.18944308
41	0xbe0b3645	-0.13594921
42	0xbe52efeb	-0.20599334
43	0x3dd01d83	0.10161879
44	0xbd01e678	-0.031713933
45	0x3d132398	0.035922617
46	0x3d11b75e	0.035575263
47	0xbe2881f5	-0.16455825
48	0x3e07e9ee	0.13272831
49	0x3e058792	0.13039997
50	0x3e5da2c9	0.21644129
51	0xbc2859ea	-0.010275343
52	0xbe08ea00	-0.13370514
53	0xbe335736	-0.17513737
54	0x3dc9ee12	0.098598614
55	0xbd1b5ec1	-0.03793216
56	0x3dc52fd6	0.096282646
57	0xbd55ac49	-0.052166257
58	0x3e445cde	0.19176051
59	0xbc8255ff	-0.015910147
60	0x3db0bc4e	0.08629666
61	0xbe84cbc1	-0.25936702
62	0xbc121622	-0.00891641
63	0x3bb3956d	0.0054804594
64	0xbd6469ae	-0.055764847
65	0xbc93aff2	-0.018028233
66	0xbc9c1cb4	-0.019056655
67	0x3e7ccbe1	0.24687149
68	0x3da614d9	0.08109445
69	0xbe309f82	-0.17248347
70	0x3ed9722d	0.42469922
71	0x3e34e3e5	0.1766506
72	0xbe4844dc	-0.19557518
73	0x3e814857	0.25250503
74	0x3d37506b	0.044754427
75	0x3f126c20	0.57196236
76	0x3dcb91cf	0.0993992
77	0xbd945263	-0.072422765
78	0xbd95903b	-0.073029004
79	0x3d4c384c	0.049858376
80	0x3de7bcaa	0.11315282
81	0x3d371d87	0.044705894
82	0x3e211530	0.15730739
83	0x3e2f00d0	0.17090154
84	0xbdb048a2	-0.086076036
85	0xbca73f40	-0.020415902
86	0x3e93fd7e	0.28904337
87	0x3e8f53c2	0.2799359
88	0x3ea76d16	0.32700413
89	0x3d78cbb0	0.060741127
90	0x3e8e5ab9	0.2780359
91	0x3d84ee25	0.06490735
92	0x3d91524c	0.07095775
93	0x3ddea3cd	0.10871086
94	0x3e31fee8	0.17382395
95	0xbd817717	-0.06321543
96	0x3d6d8ed1	0.05799753
97	0xbe7b8148	-0.24561036
98	0x3d5cd555	0.053914387
99	0xbe159524	-0.14607674
100	0x3da499c6	0.080371425
101	0x3e667153	0.22504167
102	0x3db04614	0.08607116
103	0x3df6beea	0.12048133
104	0x3e09844f	0.13429378
105	0xbd573cfd	-0.052548397
106	0xbe9785df	-0.29594323
107	0x3d8a687a	0.067582086
108	0xbd3efb7a	-0.046626545
109	0x3e001e64	0.12511593
110	0xbcc8032c	-0.024415575
111	0xbca114f6	-0.019663315
112	0xbd3a2b71	-0.045451585
113	0xbc66280d	-0.014047635
114	0xbe300bab	-0.17191951
115	0x3e0cf75e	0.13766238
116	0xbd9b35e5	-0.07578639
117	0x3dad1c70	0.0845269
118	0x3e930c21	0.2872019
119	0xbe1ec3b1	-0.15504338
120	0xbdd45c43	-0.1036916
121	0x3de656f9	0.112470575
122	0xbe78e1fd	-0.24304958
123	0x3e686cf8	0.22697818
124	0x3d62f27c	0.055407032
125	0xbdda7aa9	-0.10667927
126	0xbe9e83ef	-0.30960032
127	0x3ef46e30	0.47740316
128	0xbb2345cf	-0.0024913435
129	0xbe68d52f	-0.22737573
130	0xbd9466e0	-0.07246184
131	0xbcf1385f	-0.029445825
132	0x3f34a92b	0.7057063
133	0xbf1784d7	-0.5918707
134	0x3df0953f	0.117472164
135	0x3d209738	0.039206713
136	0x3df156b6	0.11784117
137	0x3ea4b94d	0.32172623
138	0x3e3571f8	0.17719257
139	0xbe871f32	-0.26390988
140	0x3e072e0e	0.13201162
141	0xbd836160	-0.06415057
142	0x3e79cb78	0.24394023
143	0x3e8102f8	0.25197577
144	0xbe940df4	-0.28916895
145	0x3e36c0c9	0.17846979
146	0x3e2f094a	0.17093387
147	0xbd940d09	-0.07229049
148	0xbe6786b0	-0.22609973
149	0x3e14054d	0.14455147
150	0x3e1d8f2c	0.15386647
151	0xbe61ae57	-0.22039162
152	0x3e08527b	0.13312714
153	0xbe0809d3	-0.13284998
154	0xbcdb4888	-0.026767984
155	0xbe420b44	-0.1894961
156	0xbe082aa4	-0.13297516
157	0x3dd9bbec	0.106315464
158	0x3e40309c	0.18768543
159	0x3dbb72c9	0.09152753
160	0xbda3edcf	-0.08004343
161	0xbd8ca151	-0.06866706
162	0xbd9f486a	-0.07777484
163	0x3e169057	0.14703499
164	0xbd564df1	-0.052320424
165	0xbdd7b5d4	-0.10532728
166	0x3d011825	0.031517167
167	0x3e3b09b0	0.18265414
168	0x3e6abfb4	0.22924691
169	0x3db87cc6	0.09008174
170	0xbe8122a4	-0.2522174
171	0xbdedcb4b	-0.11611041
172	0xbe87500c	-0.26428258
173	0x3d5f643f	0.05453896
174	0xbe683016	-0.22674593
175	0xbe8cc7cc	-0.27496183
176	0x3c9521e6	0.01820464
177	0xbe93cf4f	-0.288691
178	0xbe021d83	-0.1270657
179	0xbcc58c95	-0.024114886
180	0x3e74b1cc	0.23895949
181	0x3be51b8d	0.0069918097
182	0xbd474e9a	-0.048658945
183	0xbe8dfe32	-0.27732998
184	0xbea5b64c	-0.32365644
185	0x3e09e5e8	0.13466609
186	0x3e75297b	0.23941605
187	0xbe0b07b7	-0.13577162
188	0xbcab69f2	-0.020924542
189	0x3da1e09d	0.0790417
190	0x3e4cf3d4	0.20014888
191	0xbe11d4e1	-0.14241363
192	0x3d8a8733	0.067640685
193	0xbdfae5ee	-0.12250887
194	0x3ece6c15	0.40316835
195	0xbe001526	-0.12508067
196	0x3eba0855	0.36334482
197	0x3dbcb66f	0.09214484
198	0x3de44045	0.11145071
199	0xbeaa251c	-0.33231437
200	0x3e7b9f3e	0.24572465
201	0xbe111acc	-0.14170378
202	0x3d6b496e	0.057443075
203	0x3e1d6703	0.15371327
204	0x3e195748	0.14974701
205	0xbe56283d	-0.20913787
206	0x3e765b34	0.24058229
207	0xbe14d303	-0.1453362
208	0xbe012ffc	-0.12615961
209	0x3d037e49	0.032102857
210	0x3e2e26d8	0.17007005
211	0x3d6eaa9d	0.05826818
212	0xbe8fcbec	-0.28085268
213	0xbd7bf16f	-0.061509546
214	0x3df64fe5	0.120269574
215	0x3e1310f5	0.14361937
216	0x3ddcc037	0.107788496
217	0x3dbd25a5	0.09235696
218	0xbea51cef	-0.32248637
219	0x3d0397b3	0.032127094
220	0xbe1ed059	-0.15509166
221	0x3de322c0	0.110906124
222	0xbc422785	-0.0118502425
223	0xbe46bdbd	-0.19408317
224	0xbdfd1d2e	-0.12359081
225	0x3e49cd43	0.19707207
226	0x3d2c9d59	0.042142246
227	0xbe9e701a	-0.30944902
228	0xbcdc1c9f	-0.026869116
229	0x3cb8ab70	0.022542685
230	0xbdf7d649	-0.121014185
231	0xbe55ed61	-0.20891334
232	0xbe57ba82	-0.21067241
233	0x3d1fa49b	0.03897534
234	0x3dc47cbc	0.09594104
235	0xbd9d013a	-0.076662496
236	0xbded5c8e	-0.11589919
237	0x3e6d6c11	0.23185755
238	0x3e4d0a96	0.2002357
239	0xbc952076	-0.018203955
240	0x3ead5e60	0.33861065
241	0x3ce2d605	0.027689943
242	0x3d447c20	0.047969937
243	0x3e739df5	0.23790725
244	0x3c9eed44	0.019400246
245	0x3e1ee7bf	0.15518092
246	0x3ea081bf	0.31348988
247	0x3d41791a	0.047234632
248	0xbec2500b	-0.37951693
249	0x3e343dc2	0.17601684
250	0xbe9f3a70	-0.31099272
251	0xbe3ca012	-0.18420437
252	0x3d3a4189	0.045472655
253	0xbccb77f8	-0.024837479
254	0xbe6e9056	-0.23297247
255	0x3db98416	0.090583965

actor_mean.0.bias f4 [64]
0	0xb9ef92e8	-0.00045695086
1	0xbb27d149	-0.0025606921
2	0xb1d5425a	-6.206659e-09
3	0x3ba3bc8f	0.004996843
4	0x36178bd5	2.2582146e-06
5	0xbad3e47c	-0.0016166116
6	0x306c4bc2	8.596396e-10
7	0x3b4a5c93	0.0030877932
8	0x391b1c8d	0.00014792588
9	0x3d06f4c7	0.03294828
10	0xb483700f	-2.4482185e-07
11	0x388ed1d5	6.810172e-05
12	0xbba0620b	-0.0048945
13	0xba4c7419	-0.00077992823
14	0x3b5b23af	0.0033438017
15	0x349fffb8	2.9802118e-07
16	0xbb849812	-0.0040464485
17	0x3af432fe	0.001863092
18	0xb656dd9e	-3.2017483e-06
19	0x3c9a41c2	0.018830184
20	0xbb126ae0	-0.0022341534
21	0x3beee9a5	0.007291036
22	0xbd0ff8c0	-0.035149336
23	0x3b1fddaa	0.0024393597
24	0x34cd2dfe	3.821769e-07
25	0x3c96efbe	0.018424865
26	0x3c98200f	0.018569974
27	0xbadc0eb1	-0.0016789046
28	0x3b9ff5b6	0.004881586
29	0x303f0302	6.948967e-10
30	0xbb6eafb2	-0.003642064
31	0xbc57ff22	-0.013183387
32	0x326e1c71	1.385989e-08
33	0x3c643b26	0.013930118
34	0x37be5ea1	2.269383e-05
35	0x34977db5	2.8217406e-07
36	0x3b61e66b	0.0034469615
37	0xb845ef17	-4.719113e-05
38	0xbb947bb7	-0.0045313495
39	0xb4759d42	-2.2874613e-07
40	0xb1e5a7b4	-6.683843e-09
41	0xbbfe7fa7	-0.007766682
42	0x3c3fe9b5	0.011713435
43	0x310afdf5	2.0226e-09
44	0xbbce1118	-0.006288659
45	0x3c85495c	0.016270332
46	0xb94034f7	-0.00018330278
47	0xb2830dbf	-1.5256658e-08
48	0x3d6c5948	0.057702333
49	0xb2d888d2	-2.5207928e-08
50	0x3d127ecc	0.035765454
51	0x3b815cb7	0.00394782
52	0x3753f748	1.2634155e-05
53	0x3c4b24a8	0.012398876
54	0xbce0d5af	-0.027445642
55	0xbc5ed983	-0.0136016635
56	0x3cce19dd	0.025158817
57	0x3bc9e46e	0.006161264
58	0x39fcab0d	0.00048192628
59	0xb804b9e4	-3.1644377e-05
60	0x3d8306f1	0.06397808
61	0xbd01f7b9	-0.031730387
62	0x3a49b689	0.00076947414
63	0xbd92ec28	-0.071739495

actor_mean.2.weight f4 [64, 64]
0	0x3da6cd5d	0.08144639
1	0xbe1d1fcf	-0.15344165
2	0xbe1a4a80	-0.15067482
3	0x3e9ffb11	0.31246236
4	0xbc9e781a	-0.019344378
5	0xbd9dbc4c	-0.077019304
6	0xbdb51e6f	-0.08843695
7	0x3d9f5856	0.077805206
8	0xbc679473	-0.014134514
9	0x3d7e514a	0.062089242
10	0xbe9b78eb	-0.3036569
11	0xbdddbdca	-0.10827215
12	0x3da24edd	0.07925198
13	0x3e41c744	0.1892367
14	0x3e43b42b	0.19111697
15	0x3e4d34bf	0.20039652
16	0x3e5d5711	0.21615244
17	0xbd524820	-0.051338315
18	0xbed72cae	-0.42026275
19	0x3ed57efa	0.41698438
20	0xba2bc116	-0.00065519044
21	0xbe5621f1	-0.20911385
22	0xbe5b3aeb	-0.21409194
23	0x3e7724fc	0.24135202
24	0xbe651b97	-0.22373806
25	0x3db43270	0.08798683
26	0xbdce0834	-0.10060158
27	0xbea70bf4	-0.32626307
28	0x3ca7085f	0.020389734
29	0x3d5f6d2b	0.05454747
30	0x3db3558f	0.087565534
31	0x3e662768	0.2247597
32	0x3e0b3eba	0.13598147
33	0xbdf870bf	-0.121308796
34	0x3e2ea7d3	0.17056207
35	0x3dd36de5	0.10323695
36	0xbe01e15a	-0.12683621
37	0x3db7166f	0.08939826
38	0xbdf5b515	-0.11997429
39	0xbde2ef1d	-0.110807635
40	0x3deadf71	0.11468399
41	0xbe0e6982	-0.13907436
42	0xbeceb588	-0.40372872
43	0x3d8d739b	0.069068156
44	0xbda17e1b	-0.07885381
45	0xbdb319c7	-0.08745151
46	0x3d8076de	0.06272672
47	0xbc8bfb7d	-0.017087692
48	0x3e1f09fb	0.15531151
49	0xbea3ca9e	-0.31990522
50	0xbe5027c6	-0.20327672
51	0x3e648e6b	0.22319953
52	0xbe41ea32	-0.18936995
53	0x3e2a38bb	0.16623203
54	0xbde78986	-0.113055274
55	0xbe760acc	-0.24027556
56	0xbe570db1	-0.21001317
57	0xbd65e55b	-0.056126934
58	0xbd2e2069	-0.042511377
59	0xbe582227	-0.21106778
60	0x3ea1b2f7	0.31581852
61	0xbc0dc008	-0.008651741
62	0xbc58a622	-0.013223203
63	0x3ea48f7d	0.32140723
64	0xbda8e9bf	-0.082477085
65	0xbdbca29d	-0.092107035
66	0xbd29dc8f	-0.041470107
67	0x3bda7e6d	0.006667903
68	0x3db0b264	0.08627775
69	0xbdd73d8f	-0.10509788
70	0xbd6894b6	-0.056782447
71	0xbd1d4baf	-0.038402256
72	0xbe0612ec	-0.13093156
73	0xbe87a76d	-0.26494923
74	0x3eda479a	0.42632753
75	0x3d86d12d	0.06582866
76	0x3d13e356	0.036105476
77	0xbe65dd2c	-0.22447652
78	0x3e3383cc	0.17530745
79	0x3ed0def1	0.4079509
80	0xbd8f7a77	-0.0700578
81	0xbd3b9439	-0.045795653
82	0xbd52d2c0	-0.051470518
83	0x3dc60d6a	0.09670527
84	0xbe8233ae	-0.25430053
85	0xbeb96272	-0.3620792
86	0xbc0b7642	-0.008512082
87	0x3c61cd41	0.0137818465
88	0x3d493b47	0.049128797
89	0x3ec5301d	0.3851327
90	0xbdfba8a6	-0.122880265
91	0x3ed4be3f	0.41551396
92	0xbbd25ed3	-0.0064199953
93	0xbdfca27e	-0.123356804
94	0xbda42057	-0.08013981
95	0x3e419922	0.18906072
96	0xbca460d6	-0.020065706
97	0x3e7b5b12	0.2454646
98	0x3c2b788a	0.0104657505
99	0xbb2cbcdd	-0.0026357688
100	0x3d9b1a2b	0.075733505
101	0x3dcd01bd	0.10010097
102	0x3d01a670	0.031652868
103	0xbe178e3f	-0.14800356
104	0xbd924f85	-0.071440734
105	0xbdf0380f	-0.11729442
106	0xbdbbf592	-0.09177698
107	0x3c03297e	0.008005498
108	0x3e947f99	0.290036
109	0xbe9423ff	-0.28933713
110	0x3cb38e16	0.021918338
111	0xbd45efac	-0.048324272
112	0xbe09e461	-0.13466026
113	0x3a9ca88d	0.0011952088
114	0x3e2d0d6e	0.16899654
115	0xbeb00d5f	-0.343852
116	0x3ea0f193	0.31434307
117	0xbe3a5562	-0.18196633
118	0x3dd74e4c	0.10512981
119	0x3eb92535	0.361612
120	0xbe679d4f	-0.22618602
121	0xbe41f4e1	-0.1894107
122	0xbdd2adfc	-0.10287091
123	0xbdfe4c42	-0.12416889
124	0x3e498d15	0.19682725
125	0xbdf49674	-0.11942759
126	0x3e94bed7	0.2905185
127	0xbb9ab963	-0.004721807
128	0x3dc162d0	0.09442675
129	0x3ea262c2	0.3171597
130	0x3e88cdc8	0.267195
131	0xbcf31af0	-0.02967593
132	0xbe0c1321	-0.13679172
133	0xbe187f28	-0.14892256
134	0x3e0f96dd	0.14022394
135	0x3ee500f1	0.4472728
136	0x3d76e2b4	0.060274795
137	0x3f05e3a6	0.5230049
138	0xbe2ba073	-0.16760425
139	0xbd959fe3	-0.073058866
140	0x3dc51ea3	0.09624984
141	0xbda0fa9d	-0.07860301
142	0x3e83d7b6	0.25750512
143	0xbe4d5866	-0.20053253
144	0x3d03d6e0	0.032187343
145	0xbd9347a7	-0.07191401
146	0xbde1759f	-0.110087626
147	0x3dc4ba9d	0.09605906
148	0xbcff82d1	-0.031190308
149	0x3bcdcd32	0.0062805647
150	0xbe774ba2	-0.24149945
151	0xbe4b95d3	-0.19881372
152	0x3e26e217	0.16297184
153	0xbcf3a2b3	-0.029740667
154	0x3ea758f1	0.32685044
155	0x3e2acecb	0.16680448
156	0xbe1ca1f8	-0.15296161
157	0xbd58b07a	-0.052902676
158	0x3d375eb4	0.04476805
159	0x3e88755a	0.26652032
160	0xbd203a1a	-0.03911791
161	0x3dd1a6b3	0.102368735
162	0x3ce12f90	0.0274885
163	0x3d890cfc	0.0669193
164	0xbdc99037	-0.0984196
165	0xbe6b1a70	-0.22959304
166	0x3e17a87e	0.14810368
167	0xbcaaf99b	-0.020870974
168	0x3e5f2fd9	0.21795596
169	0x3dbb2a2d	0.09138904
170	0xbe0fb3b2	-0.14033392
171	0x3e72fa3a	0.23728266
172	0x3c822366	0.01588602
173	0xbe8b81a3	-0.27247342
174	0xbe6f77c0	-0.23385525
175	0xbe2fb83f	-0.17160128
176	0x3d9ca313	0.076482914
177	0x3bfa6b08	0.0076421537
178	0xbe4f0cbc	-0.20219702
179	0xbd9318bf	-0.07182454
180	0x3e9bfb81	0.3046532
181	0xbe212100	-0.15735245
182	0x3e0426a7	0.1290537
183	0x3df27ab9	0.11839814
184	0xbe29ff81	-0.16601373
185	0x3d258036	0.040405475
186	0x3d40bbe6	0.047054194
187	0xbe2e0220	-0.16992998
188	0xbe63d1df	-0.22248028
189	0xbe39c621	-0.18141986
190	0xbe6d9875	-0.23202689
191	0xbea8240c	-0.32840002
192	0xbdd9a2fc	-0.1062679
193	0xbe7d3ee5	-0.24731024
194	0x3dfa8337	0.122320585
195	0xbcca6e84	-0.024710901
196	0xbd71e7f3	-0.059059095
197	0xbe9c4977	-0.305248
198	0x3e82ccb0	0.2554679
199	0xbe1e102d	-0.15435858
200	0xbd81f5f1	-0.06345738
201	0xbeae3c42	-0.34030348
202	0x3e1187da	0.1421198
203	0xbe172454	-0.14759952
204	0x3ecab267	0.39589235
205	0xbe1b55be	-0.15169427
206	0x3e27c409	0.16383375
207	0x3d1f700e	0.038925223
208	0xbe76d954	-0.24106342
209	0xbd368632	-0.044561572
210	0xbcf7f1ea	-0.03026672
211	0x3d46f644	0.0485747
212	0xbd87c9f9	-0.0663032
213	0x3cdd91c1	0.02704704
214	0x3e7a8810	0.24465966
215	0x3e5a7e38	0.21337211
216	0x3c8d5ed9	0.017257141
217	0xbe59ab1b	-0.21256678
218	0xbdafd67f	-0.08585834
219	0x3e9f3465	0.3109466
220	0x3dc0bacd	0.094106294
221	0xbd78ec81	-0.060772423
222	0x3ed3c66e	0.41362327
223	0x3dd68f26	0.10476522
224	0x3dd17422	0.10227229
225	0xbecfe2a2	-0.40602595
226	0xbe1c7832	-0.15280226
227	0xbdeaef13	-0.11471381
228	0x3d27fb26	0.041011
229	0x3dd1c1af	0.1024202
230	0xbe02621b	-0.12732737
231	0x3d54d992	0.051965304
232	0x3c83003d	0.015991325
233	0x3cef1c83	0.0291884
234	0x3e11b12e	0.14227745
235	0x3e894c19	0.2681587
236	0x3e85dafa	0.26143628
237	0xbdb12996	-0.0865051
238	0xbdeec114	-0.116579205
239	0x3d9b8f7d	0.075957276
240	0x3c50b819	0.012739205
241	0xbe19e78a	-0.15029731
242	0xbd5433db	-0.051807266
243	0x3e4070e8	0.1879307
244	0x3e81478b	0.25249895
245	0x3e8229dd	0.25422564
246	0x3e22f558	0.15913904
247	0x3e0a804e	0.13525507
248	0x3dc2a459	0.09504003
249	0x3e8bd9f6	0.27314728
250	0x3e861390	0.261868
251	0x3e5c59b9	0.21518601
252	0x3cec732b	0.02886351
253	0x3dddddff	0.10833358
254	0xbe9bb612	-0.30412346
255	0x3e8179a5	0.2528812

actor_mean.2.bias f4 [64]
0	0xbd100d91	-0.035169188
1	0x3d2f675c	0.04282318
2	0xbcb077df	-0.021541534
3	0x3c42f822	0.01189998
4	0xbc4c09b0	-0.012453482
5	0xbb394b74	-0.0028273733
6	0x3cacd260	0.021096408
7	0xb9afb08c	-0.0003351014
8	0xbca76066	-0.020431709
9	0xbc7d1e0d	-0.015449059
10	0xbcb0a796	-0.021564286
11	0xbc2c6a35	-0.010523369
12	0x3ced7926	0.028988432
13	0x3c0626ac	0.008187931
14	0x3c3c1c99	0.011481428
15	0xbcbd501c	-0.023109488
16	0x3cbde473	0.023180222
17	0x3c7f55eb	0.015584449
18	0xbd26f6c7	-0.04076269
19	0xbc3325ce	-0.010934306
20	0xbc7c6cfe	-0.015406845
21	0xbc1a75a6	-0.009427464
22	0xbcecf791	-0.028926643
23	0xbc23fb1c	-0.0100086
24	0xbc9dbeee	-0.019256081
25	0xbc4e97f2	-0.012609469
26	0x3cf9b90d	0.030483747
27	0x3ce8c5e6	0.028414678
28	0x3bb8c238	0.005638387
29	0xbbf567fd	-0.007489203
30	0xbad3243c	-0.0016108821
31	0x3b5b2c28	0.0033443067
32	0xbc903953	-0.01760546
33	0x3cb721a7	0.022354914
34	0xbb356e72	-0.0027684239
35	0xbbac30f0	-0.0052548572
36	0xbc4fe338	-0.0126884505
37	0xbbd71217	-0.006563436
38	0xbc9b007b	-0.018921128
39	0x3b28d2d8	0.0025760438
40	0x3ba856ad	0.0051372857
41	0x3d2aa41f	0.041660424
42	0x3ca410fe	0.020027634
43	0x3c5a73b1	0.013333247
44	0x3d434496	0.04767283
45	0x3ab8f66b	0.0014111524
46	0xbc278e2e	-0.010226769
47	0x3c548e27	0.012973345
48	0xbc2f571f	-0.010701924
49	0x3af06374	0.0018340186
50	0x3c11a5e8	0.008889653
51	0xbca1aeae	-0.019736614
52	0xbb857a37	-0.004073407
53	0xbc274403	-0.010209086
54	0x3c944f09	0.018104093
55	0x3cc52bcc	0.024068736
56	0xbcc3c057	-0.023895426
57	0xbd335b83	-0.043788444
58	0x3d0fc503	0.035099994
59	0xbc037ab8	-0.008024864
60	0xbd161867	-0.036644366
61	0x3b85f36c	0.004087856
62	0x3baa9d12	0.0052067125
63	0xbcf3a2f0	-0.02974078

actor_mean.4.weight f4 [2, 64]
0	0x3dd1fd7d	0.10253427
1	0xbda18e33	-0.078884505
2	0x3d0df03e	0.03465294
3	0xbd629fdf	-0.055328246
4	0xbdb152cb	-0.0865837
5	0xbe4980c1	-0.19678022
6	0xbd9f29dc	-0.07771656
7	0x3c93d060	0.018043697
8	0x3e12ffe2	0.14355424
9	0x3ddf8398	0.109137714
10	0x3c9ef048	0.019401684
11	0xbdf45def	-0.11931979
12	0xbd03a107	-0.03213599
13	0x3dbb1fab	0.091368996
14	0xba857fd1	-0.0010185187
15	0xbd0c1025	-0.034195084
16	0xbdcab9d9	-0.09898729
17	0x3db7074b	0.08936938
18	0x3e179aba	0.14805117
19	0x37b66fc9	2.1748145e-05
20	0xbd615997	-0.05501708
21	0x3dbeb9fb	0.09312817
22	0x3dac487a	0.08412261
23	0xbe81ec3b	-0.25375542
24	0xbdd6e8e6	-0.104936406
25	0x3cab7f22	0.020934645
26	0xbb6f7352	-0.0036537242
27	0xbdab5208	-0.083652556
28	0xb9d63d09	-0.00040862735
29	0x3db4d096	0.08828847
30	0x3e17dc8d	0.14830227
31	0x3ce0bfa5	0.027435133
32	0x3daef33e	0.085424885
33	0x3de2b3fd	0.11069486
34	0x3aa6e391	0.0012732615
35	0x3dff4ba4	0.12465599
36	0x3cb7c55e	0.02243298
37	0xbd2e79b8	-0.04259655
38	0xbdad5a56	-0.08464496
39	0x3db0506f	0.086090915
40	0xbe3f9b14	-0.18711501
41	0x3de5c2ea	0.112188175
42	0xbd0a72be	-0.033800833
43	0x3d58ad80	0.052899837
44	0x3b5b978d	0.003350708
45	0xbe030803	-0.12796025
46	0xbe3182ac	-0.17335004
47	0xbe09bb3e	-0.13450333
48	0xbe30a432	-0.17250136
49	0xbd73d735	-0.05953141
50	0xbd5286b1	-0.051397983
51	0x3e22b6a9	0.15889992
52	0x3ce9e165	0.02854986
53	0x3e82f9aa	0.25581104
54	0xbe088104	-0.13330466
55	0x3e149cf2	0.14512995
56	0x3e4ceb05	0.20011528
57	0x3c6f65dd	0.014611688
58	0x3bf16055	0.00736622
59	0xbdd5bc1f	-0.10436272
60	0xba5dd4c4	-0.00084621855
61	0xbde348aa	-0.11097844
62	0xbe8b7fb3	-0.27245864
63	0xbc7fa93d	-0.015604314
64	0xbd3d6ae7	-0.04624453
65	0x3c0b4b78	0.00850188
66	0x3db2a1be	0.08722256
67	0xbd8f9cbf	-0.07012319
68	0x3e0ea0be	0.13928506
69	0x3c55b9ac	0.013044756
70	0xbda78e51	-0.081814416
71	0xbe27398f	-0.1633055
72	0xbd641246	-0.05568149
73	0x3e2f81b4	0.17139322
74	0x3dd279a7	0.102771096
75	0x3dd6c4ba	0.10486741
76	0x3d99ccf7	0.07509797
77	0xbc8c3ace	-0.017117884
78	0x3e5e32fa	0.21699134
79	0x3e49929a	0.1968483
80	0x3d356dd7	0.044294205
81	0x3e0dcfb7	0.13848768
82	0x3dbd4563	0.0924175
83	0xbac0a6bc	-0.0014698128
84	0xbe1e7049	-0.15472521
85	0xbdbc7c59	-0.09203405
86	0x3dfad703	0.122480415
87	0xbc7c2ecf	-0.015392019
88	0x3e1669c4	0.14688784
89	0xbdcaa4e3	-0.09894731
90	0xbcfcbb48	-0.030851021
91	0xbd56e6d4	-0.05246623
92	0x3749e073	1.2032792e-05
93	0xbe09819e	-0.13428351
94	0x3e0ff432	0.14057997
95	0xbd1e0e2f	-0.038587745
96	0x3e3ae679	0.18251981
97	0xbdb0bb9f	-0.08629536
98	0x39c75e0d	0.0003802631
99	0xbe23a40c	-0.15980548
100	0xbc62a601	-0.013833524
101	0x3e3078ff	0.17233656
102	0xbd947324	-0.07248524
103	0xbe3476ff	-0.17623518
104	0x3acc10a8	0.0015568929
105	0x3dc26158	0.09491223
106	0x3e0ab0a5	0.13543947
107	0xbc91c7ec	-0.017795525
108	0xbd0d6d26	-0.03452792
109	0x3e36e2d9	0.17859973
110	0x3e327b4b	0.17429845
111	0xbd99853f	-0.07496118
112	0x3dc07a46	0.09398322
113	0xbe4058e5	-0.1878391
114	0xbe5faeba	-0.21843997
115	0x3dae7f4a	0.08520372
116	0xbd088360	-0.033328414
117	0xbd725bef	-0.059169706
118	0xbdbd1f32	-0.09234466
119	0x3d097487	0.033558395
120	0x3b5673c3	0.0032722808
121	0x3d7dc439	0.06195471
122	0x3ddf2a03	0.10896685
123	0x3d8c16f1	0.06840313
124	0xbda4bae3	-0.08043458
125	0x3dc8bac6	0.09801249
126	0xbdfe619e	-0.12420963
127	0x3c1cc4e7	0.00956843

actor_mean.4.bias f4 [2]
0	0xba7dca35	-0.0009681315
1	0x390931fd	0.0001308396

critic.0.weight f4 [64, 14]
0	0x3ccc6f1e	0.024955329
1	0xbde1af2b	-0.11019739
2	0x3c0bbebb	0.00852936
3	0xbbe2042f	-0.0068974714
4	0x3d4e40b5	0.05035468
5	0x3ac3de5e	0.001494359
6	0xbe453c8c	-0.19261378
7	0xbe335c23	-0.17515616
8	0x3dc9b02d	0.09848056
9	0xbe1a1321	-0.1504636
10	0xbc3a34b3	-0.011365104
11	0xbd362b7f	-0.044475075
12	0x3dc26074	0.09491053
13	0x3dcc3a3a	0.09972043
14	0x3e8fcfcb	0.2808822
15	0x3e72bcf1	0.23704888
16	0xbe047c56	-0.12938055
17	0x3eb88c9a	0.3604477
18	0x3cf05d19	0.029341267
19	0x3e7305e7	0.2373272
20	0x3d7a3064	0.061081305
21	0xbd5ff852	-0.054680176
22	0xbe5bff4d	-0.21484108
23	0x3db98fff	0.09060668
24	0xbe1e315c	-0.15448517
25	0xbe81287c	-0.252262
26	0xbdea9b4b	-0.11455401
27	0xbe71f5a5	-0.23628862
28	0x3e1378f8	0.14401615
29	0xbd536751	-0.051612202
30	0x3e6adb50	0.22935224
31	0x3d06c921	0.032906655
32	0x3d8bd472	0.0682763
33	0x3a1367c3	0.00056230667
34	0x3da11281	0.078648575
35	0x3e7aa866	0.24478301
36	0xbdd6adae	-0.104823455
37	0xbdc4804f	-0.095947854
38	0xbd22eca1	-0.03977645
39	0xbd7908d7	-0.060799446
40	0xbd9838bc	-0.07432696
41	0xbe89f940	-0.26947975
42	0x3ded80bc	0.1159682
43	0xbe945076	-0.28967637
44	0xbe8f4d55	-0.27988687
45	0xbc9f9af9	-0.019483076
46	0x3ea137eb	0.31487975
47	0xbdfbcbda	-0.12294741
48	0x3ded3597	0.11582487
49	0xbe14aeb6	-0.14519772
50	0x3dc2840b	0.094978414
51	0xbe07a40b	-0.13246171
52	0x3d44e136	0.04806634
53	0x3e4704b3	0.19435386
54	0x3cd6bf2d	0.026214207
55	0x3de8175a	0.11332579
56	0x3dd0d36b	0.10196575
57	0xbf0334ae	-0.5125226
58	0xbbb5582c	-0.0055341925
59	0x3e7bdf32	0.24596861
60	0xbd25633c	-0.04037784
61	0x3e609aff	0.21934126
62	0x3f3baab7	0.73307365
63	0x3f073977	0.5282206
64	0xbe06699e	-0.13126227
65	0x3dc172d8	0.09445733
66	0x3d3ba9b9	0.045816157
67	0x3d45d9f7	0.04830357
68	0x3eb54eed	0.35411778
69	0x3d410883	0.047127258
70	0xbe74eece	-0.23919222
71	0x3e1bb447	0.15205489
72	0xbc6917b7	-0.014226845
73	0xbd4117e3	-0.04714192
74	0x3ccc4993	0.024937427
75	0x3cbcaeb5	0.023032526
76	0x3e0d2993	0.1378539
77	0x3f28b5db	0.6590249
78	0x3dc62fe2	0.09677102
79	0xbdfa9d85	-0.12237076
80	0xbd1a259b	-0.03763352
81	0xbd0aad65	-0.03385677
82	0x3e45fae0	0.19333982
83	0x3ed68a58	0.41902423
84	0x3b79ed0a	0.003813567
85	0xbddf0efb	-0.10891529
86	0xbd677be3	-0.056514632
87	0x3d8b07f9	0.0678863
88	0xbe3ac990	-0.18240952
89	0xbde740fd	-0.112916924
90	0xbbc4eebe	-0.0060099056
91	0xbe8e5f0a	-0.27806884
92	0xbda486b1	-0.08033503
93	0xbe13fbdb	-0.14451544
94	0xbe1a6826	-0.15078792
95	0x3e37a111	0.17932536
96	0x3d321637	0.043478217
97	0xbecf5efb	-0.40502152
98	0x3da5b494	0.08091083
99	0x3e646008	0.22302258
100	0x3e3870f0	0.18011832
101	0x3e350af0	0.17679954
102	0x3dab28b4	0.08357373
103	0xbe558343	-0.20850854
104	0x3e0692ea	0.13141981
105	0xbe237405	-0.15962227
106	0xbd3db4bd	-0.046314944
107	0xbe8025a5	-0.2502872
108	0x3e9eda69	0.3102601
109	0x3e591949	0.21201052
110	0xbea7018f	-0.32618377
111	0xbd29b452	-0.041431732
112	0xbe00c35b	-0.12574522
113	0x3e355033	0.17706375
114	0x3e306398	0.17225492
115	0x3cf074e4	0.029352613
116	0xbd9e251b	-0.07721921
117	0xbc5d407f	-0.013504147
118	0xbe06e3a4	-0.13172776
119	0x3d25c02d	0.040466476
120	0x3e3a082c	0.1816718
121	0xbd441b30	-0.04787749
122	0xbd89de5e	-0.06731866
123	0x3da5f0b7	0.08102553
124	0x3e3a0a98	0.18168104
125	0xbdd0840d	-0.10181437
126	0x3d681e0f	0.05666929
127	0x3e1130bf	0.14178751
128	0x3ddee792	0.10884012
129	0xbe986aa6	-0.29768866
130	0xbdd2ad96	-0.10287015
131	0x3dc71577	0.09720891
132	0x3db82c95	0.08992878
133	0xbdac82c0	-0.08423376
134	0xbe14b8de	-0.14523646
135	0xbdfe3d73	-0.12414064
136	0xbe4d2b27	-0.20035993
137	0x3e010333	0.12598877
138	0xbc75406f	-0.014968975
139	0x3e37908e	0.17926237
140	0xbe90b8f1	-0.282661
141	0x3ec77dd0	0.38963175
142	0xbb8f43f0	-0.0043721125
143	0x3d9de21e	0.07709144
144	0x3d4cb21f	0.049974557
145	0x3d517da3	0.051145207
146	0xbdb56a25	-0.08858136
147	0xbe816f51	-0.2528024
148	0xbddce062	-0.10784985
149	0x3d1d56d4	0.038412884
150	0x3c0d5394	0.008625884
151	0xbdc6f911	-0.097154744
152	0xbe14c4fe	-0.14528272
153	0x3f1b85cb	0.60751027
154	0xbda88ec2	-0.08230354
155	0x3e893ebd	0.26805678
156	0xbc46f1cf	-0.012142613
157	0x3de327fd	0.110916115
158	0x3ccb36ce	0.024806406
159	0x3d9eb7ae	0.07749878
160	0x3f1bce37	0.60861534
161	0xbf0d9987	-0.5531239
162	0x3e086ce1	0.13322784
163	0xbd9b6eb5	-0.07589475
164	0xbcd8af52	-0.026450787
165	0x3e0233d7	0.12715088
166	0x3e275b98	0.16343534
167	0xbd1abe73	-0.037779283
168	0xbec23729	-0.3793271
169	0x3e962787	0.29327032
170	0xbc5ce9b9	-0.013483458
171	0xbe11b734	-0.14230043
172	0xbd5380a6	-0.05163636
173	0xbe50a356	-0.20374808
174	0x3f88cb9f	1.068714
175	0x3d9cd311	0.07657445
176	0x3d71ce71	0.05903477
177	0x3e549843	0.20761208
178	0x3dad0fb2	0.08450259
179	0xbd31d9d4	-0.043420628
180	0x3da06938	0.07832569
181	0x3d919070	0.071076274
182	0x3e0a6b0d	0.13517399
183	0x3e10972a	0.14120165
184	0x3e5043f5	0.20338424
185	0xbe99f359	-0.30068472
186	0x3e0bf98b	0.13669412
187	0x3d2f6d48	0.042828828
188	0xbe717c32	-0.23582533
189	0xbe574fbd	-0.21026511
190	0xbe08ba00	-0.13352203
191	0xbe87c5a6	-0.2651798
192	0x3e006711	0.12539317
193	0xbe48f0d8	-0.19623125
194	0xbda71559	-0.081583686
195	0xbe74301b	-0.23846476
196	0x3c46539f	0.012104898
197	0x3e0d0d75	0.13774665
198	0x3e6a5071	0.22882248
199	0x3e2ad6d8	0.16683519
200	0xbe12f1c0	-0.14350033
201	0x3d217c98	0.039425462
202	0x3e7c7b53	0.2465642
203	0xbd24efec	-0.04026787
204	0xbb598705	-0.003319205
205	0xbd2bb902	-0.041924484
206	0xbe5962a4	-0.21229035
207	0x3dd91745	0.106001414
208	0xbed82665	-0.42216793
209	0x3e0b8dd8	0.13628328
210	0x3d01eba5	0.03171887
211	0xbe3184c7	-0.17335807
212	0x3c408c22	0.01175216
213	0x3e8bf8a1	0.27338126
214	0x3cbf15e9	0.023325877
215	0x3e82d660	0.2555418
216	0x3def7947	0.11693054
217	0x3ce7c84f	0.028293757
218	0xbde77599	-0.11301727
219	0x3e2f1ac5	0.17100056
220	0x3d86a9d8	0.06575364
221	0xbc8ed317	-0.01743464
222	0xbe12456e	-0.14284298
223	0xbe8ceffb	-0.2752684
224	0xbe86eef5	-0.26354185
225	0x3def7f54	0.11694208
226	0xbdf67391	-0.12033761
227	0xbc989198	-0.018624112
228	0x3eecf1f1	0.46278337
229	0xbe1d1be2	-0.15342668
230	0x3daf068d	0.08546171
231	0x3ebccdf7	0.3687589
232	0x3d917722	0.07102801
233	0x3cac15e9	0.021006541
234	0xbc5cd496	-0.013478419
235	0x3e09973c	0.13436598
236	0xbe82136a	-0.25405437
237	0xbd326f3d	-0.043563116
238	0xbddadc84	-0.10686591
239	0xbea2f61c	-0.31828392
240	0x3c767f1e	0.015044956
241	0xbd73bfd0	-0.0595091
242	0x3d3b6a5a	0.04575572
243	0xbde06ab8	-0.10957855
244	0x3f88337b	1.064071
245	0x3ef2ddc2	0.47434813
246	0x3e857c6a	0.26071483
247	0x3da6a7f9	0.08137507
248	0x3cb894a9	0.022531824
249	0xbd577ecf	-0.05261117
250	0x3da18a3c	0.07887694
251	0x3db87f18	0.09008616
252	0xbd849a1c	-0.064747065
253	0xbea729c7	-0.3264906
254	0xbd58c1c0	-0.05291915
255	0x3dc9c019	0.09851093

critic.0.bias f4 [64]
0	0xbdacbba0	-0.08434224
1	0x3b98b5ef	0.00466036
2	0xb4c152d3	-3.6009314e-07
3	0xb0e6aa2f	-1.6783072e-09
4	0xbccc1bdf	-0.024915634
5	0xbbaf1f10	-0.005344279
6	0xbbabd93f	-0.0052444036
7	0xbb652898	-0.0034966823
8	0xb68bc19d	-4.1650624e-06
9	0x3b5407d5	0.00323533
10	0x3d84f878	0.06492704
11	0xbbc6d436	-0.006067778
12	0xbd0f52ba	-0.034991004
13	0x37c3d700	2.3345929e-05
14	0x3c09a782	0.008401753
15	0xbcc625b8	-0.024187908
16	0xbbb3ecd9	-0.005490881
17	0xbc3e8781	-0.011628986
18	0x3a9db816	0.0012033011
19	0xb62e17b1	-2.594181e-06
20	0xbbf73055	-0.0075436034
21	0x3bb8eef2	0.005643719
22	0xbd19fec2	-0.03759647
23	0x3516a64f	5.6121365e-07
24	0xb49397ab	-2.7491237e-07
25	0x3705a770	7.966402e-06
26	0xbbc1654e	-0.005901969
27	0x340bce74	1.3020491e-07
28	0x337cdf65	5.88765e-08
29	0x3ab632cc	0.0013900637
30	0xb52516dc	-6.1500555e-07
31	0xb7452c63	-1.175245e-05
32	0xb6bdd16a	-5.657018e-06
33	0xba2168e9	-0.00061572954
34	0xbd66d733	-0.056357574
35	0xb703c2e8	-7.853589e-06
36	0xb346d2bc	-4.629213e-08
37	0xbcaf89b1	-0.021427961
38	0xb99524ce	-0.00028446916
39	0xbcaa72c6	-0.020806681
40	0x3c3cd4b1	0.011525319
41	0x3d328ae5	0.04358949
42	0x35b02d45	1.3126197e-06
43	0x32f57ea7	2.8579349e-08
44	0x00000000	0.0
45	0xbc4ea89b	-0.012613441
46	0x38b52f57	8.63957e-05
47	0xb97dbdc9	-0.0002419866
48	0xbb8edf0a	-0.0043600844
49	0x3da121d8	0.07867783
50	0xbb878da9	-0.0041367603
51	0xb5d89640	-1.6136983e-06
52	0xb734b3e0	-1.07707165e-05
53	0x3b8279cc	0.0039818045
54	0xb7797d2f	-1.4870703e-05
55	0xbd9a8756	-0.075453445
56	0x3d88f62d	0.06687579
57	0x33bac376	8.696854e-08
58	0xbd487b89	-0.048945937
59	0xbcd7bb83	-0.02633453
60	0x3c9d8c3d	0.01923191
61	0x3d6b1e26	0.0574018
62	0xbab8fcc7	-0.001411342
63	0xb6afe4f0	-5.2420583e-06

critic.2.weight f4 [64, 64]
0	0x3e7adac6	0.24497518
1	0x3e52aee2	0.20574525
2	0x3d9cde72	0.076596156
3	0x3ea4704a	0.3211692
4	0xbe9291c2	-0.2862683
5	0x3ed6d297	0.41957542
6	0xbe9ef25d	-0.31044284
7	0x3dbcdef5	0.09222213
8	0x3eaade07	0.33372518
9	0xbe67940f	-0.22615074
10	0xbe7b34d7	-0.24531876
11	0xbd9d5a50	-0.07683241
12	0x3d908740	0.07057047
13	0x3e05e9d3	0.13077478
14	0xbd171c36	-0.03689214
15	0xbebe32de	-0.37148184
16	0xbbfc31a4	-0.0076963473
17	0xbdaa8478	-0.08326048
18	0x3e224b5e	0.15849063
19	0xbd5be2a8	-0.053682953
20	0xbe13f2a5	-0.1444803
21	0xbd84bcba	-0.06481309
22	0xbd13eb3a	-0.036113
23	0x3df06335	0.11737672
24	0xbd8a6cd9	-0.06759042
25	0x3e037e3e	0.12841126
26	0x3e17ed54	0.14836627
27	0x3e6258af	0.22104143
28	0x3d06e5c1	0.032933954
29	0x3df7314d	0.1206995
30	0xbdd5dc37	-0.10442393
31	0xbe6c5821	-0.23080494
32	0x3e707b27	0.23484479
33	0x3d1bf8d5	0.0380791
34	0xbe7bfe00	-0.24608612
35	0x3e80dc68	0.25168157
36	0x3d8bbe28	0.06823379
37	0x3b78040b	0.0037844207
38	0xbe37b454	-0.17939883
39	0xbbb0254b	-0.0053755394
40	0x3c8c6c8f	0.017141609
41	0xbe684ab4	-0.22684747
42	0xbd80bcc7	-0.062860064
43	0x3e2b5e0b	0.16735093
44	0xbe8d6821	-0.27618507
45	0x3c5501d8	0.013000928
46	0x3e81be50	0.2534051
47	0x3dff5c4d	0.12468777
48	0x3de854e8	0.113443196
49	0xbe0cffab	-0.13769405
50	0x39196b16	0.0001463111
51	0xbd92ed55	-0.07174174
52	0x3e49a925	0.1969343
53	0xbe88fa89	-0.26753643
54	0x3dad8910	0.08473408
55	0x3d0e98d2	0.03481371
56	0xbdc8e743	-0.09809735
57	0xbd97af68	-0.07406503
58	0xbeb678f4	-0.35639155
59	0x3e3c1f62	0.18371347
60	0xbdc99993	-0.09843745
61	0xbde47dbf	-0.11156797
62	0x3e328c39	0.17436303
63	0x3e24de02	0.16100314
64	0xbd8afe3d	-0.06786773
65	0x3d8578ef	0.06517207
66	0x3eb3ae4a	0.3509391
67	0x3b0c704d	0.0021429241
68	0x3eaa1398	0.33218074
69	0x3cd3f79b	0.025874903
70	0xbd825986	-0.063647315
71	0xbdf434e5	-0.11924151
72	0xbcc8b791	-0.024501594
73	0xbdc1cbf8	-0.09462732
74	0xbd1055ab	-0.03523795
75	0xbdf44383	-0.11926939
76	0xbdf86402	-0.1212845
77	0xbe369f23	-0.17834143
78	0x3e5deeb6	0.21673092
79	0xbdb7a472	-0.08966912
80	0x3e3abdfe	0.18236539
81	0x3e7bb84e	0.24582025
82	0xbcaf5b60	-0.021405876
83	0x3d4034ad	0.046925236
84	0xbde83696	-0.113385364
85	0xbe84bd69	-0.25925758
86	0x3eaa1fdd	0.33227435
87	0xbde5172d	-0.11186061
88	0xbe127f54	-0.14306384
89	0xbbac80f1	-0.0052643945
90	0x3d61b69d	0.055105794
91	0x3cf0e03d	0.0294038
92	0x3e39eb0e	0.18156072
93	0xbd3e8e52	-0.046522446
94	0x3e0e673e	0.13906571
95	0xbec1762e	-0.37785476
96	0x3ee52210	0.4475255
97	0x3de970e8	0.11398488
98	0x3e9e2509	0.3088763
99	0xbd7ef95f	-0.062249538
100	0xbe57a4b2	-0.2105892
101	0xbe2be0c5	-0.16784962
102	0x3e141764	0.14462048
103	0x3eba10bd	0.36340895
104	0xbaa31e1f	-0.001244489
105	0x3dd96544	0.10615018
106	0x3dc86795	0.09785382
107	0xbe08efab	-0.13372676
108	0xbe13e40b	-0.1444246
109	0x3c9fe168	0.019516662
110	0x3da41e94	0.08013645
111	0xbe24b494	-0.1608451
112	0xbe8e965d	-0.27849093
113	0xbde219d1	-0.1104008
114	0xbe0e0cdd	-0.13872094
115	0x3e8f21dd	0.27955523
116	0x3cc64372	0.024202082
117	0xbdecdc70	-0.115654826
118	0x3b543ef5	0.0032386158
119	0x38e2ae99	0.00010809041
120	0xbd779df8	-0.060453385
121	0x3e37b4eb	0.17940108
122	0x3d54892a	0.051888622
123	0xbe10260f	-0.14077018
124	0x3e8d6130	0.2761321
125	0xbea90395	-0.33010545
126	0x3d2a95fe	0.04164695
127	0x3e4b7d8a	0.19872108
128	0x3d74984f	0.059715565
129	0x3eaed5bc	0.3414744
130	0xbe261f39	-0.16222848
131	0x3e6822a1	0.2266946
132	0x3da0d457	0.078530006
133	0xbe814b49	-0.2525275
134	0x3e8f0751	0.2793527
135	0xbdbbf037	-0.09176677
136	0xbc67c74c	-0.014146637
137	0xbc6a04ce	-0.014283372
138	0xbe4aae61	-0.19793083
139	0x3e6b9b7f	0.23008536
140	0x3eb22ef9	0.34801462
141	0xbee1db43	-0.44112596
142	0xbe1814ed	-0.14851733
143	0xbe1249ff	-0.1428604
144	0xbd8a4192	-0.06750788
145	0x3e304739	0.1721467
146	0xbe3aef74	-0.18255407
147	0x3d06b0f8	0.032883614
148	0x3cda5280	0.026650667
149	0x3e943d99	0.28953245
150	0xbbf5818e	-0.0074922508
151	0x3d6f9053	0.058487248
152	0xbe2eeee0	-0.17083311
153	0xbecb8a01	-0.39753726
154	0x3dc5875d	0.09644959
155	0xbe10e7a7	-0.14150868
156	0x3d603d20	0.054745793
157	0xbd480bb7	-0.048839297
158	0x3e08eaf6	0.1337088
159	0xbe820fbb	-0.25402626
160	0xbd2ea3cd	-0.04263668
161	0xbd0267cb	-0.031837266
162	0xbdec5e5f	-0.11541437
163	0x3dd416cf	0.10355913
164	0xbe5a1125	-0.21295603
165	0xbe6a9b34	-0.22910768
166	0xbdc0d2b7	-0.09415191
167	0xbb93d01d	-0.004510893
168	0xbc39b189	-0.011333832
169	0x3d4350bd	0.04768442
170	0x3b8494cc	0.0040460583
171	0xbded23ce	-0.11579095
172	0x3c3402da	0.010987008
173	0xbd7456fe	-0.059653275
174	0x3c065ae5	0.008200382
175	0xbc92635a	-0.01786964
176	0xbdf59f51	-0.11993278
177	0x3e7e79cd	0.24851151
178	0x3e3277a3	0.1742845
179	0xbe30885f	-0.17239521
180	0x3d5819e1	0.052759055
181	0xbe4a3f74	-0.19750768
182	0x3dd2c2c0	0.10291052
183	0x3eefc4e8	0.46829915
184	0xbcaa7b36	-0.020810705
185	0xbe9226eb	-0.28545317
186	0x3d1af952	0.037835427
187	0x3d6fc65f	0.05853879
188	0xbdce3176	-0.10068028
189	0x3deeb7ff	0.11656188
190	0xbe0c175d	-0.13680787
191	0x3e56b6bf	0.2096815
192	0xbe642809	-0.22280897
193	0x3e19ae15	0.15007813
194	0x3e37093d	0.17874618
195	0x3dea4142	0.11438228
196	0x3e275d85	0.16344269
197	0x3e503d6a	0.20335928
198	0x3d4fdf06	0.0507498
199	0x3d0072a1	0.03135932
200	0x3e0a786a	0.13522497
201	0x3e255814	0.1614688
202	0xbdd8d3c5	-0.10587267
203	0x3e30d396	0.17268214
204	0x3f08c5a2	0.53426564
205	0x3e1508ca	0.14554134
206	0xbd9c3e68	-0.076290905
207	0x3e4ca3c1	0.19984342
208	0x3e87c30e	0.26516002
209	0xbee32f70	-0.4437213
210	0x3c8d4a66	0.01724739
211	0xbdc158eb	-0.09440788
212	0xbd69010d	-0.056885768
213	0xbdb972a5	-0.0905507
214	0xbe6248ad	-0.22098036
215	0x3dcf537d	0.10123346
216	0x3e07cd17	0.1326183
217	0x3c3dde54	0.011588652
218	0xbeb4e4e7	-0.3533089
219	0x3e6f4e52	0.2336972
220	0xbdee8f83	-0.116484664
221	0xbe48aaee	-0.19596455
222	0xbe696746	-0.22793302
223	0x3de374b5	0.111062445
224	0x3e0ffd82	0.1406155
225	0x3d678fee	0.056533746
226	0x3c5c84be	0.013459383
227	0xbe56bd93	-0.20970754
228	0xbeb66cc0	-0.35629845
229	0xbe265720	-0.16244173
230	0xbde37b19	-0.111074634
231	0x3c29c03a	0.010360772
232	0x3dfa23f4	0.12213889
233	0xbe76178f	-0.24032424
234	0x3ea19e61	0.31566146
235	0x3e2159e6	0.1575695
236	0xbe0fca0c	-0.14041919
237	0x3dc6693e	0.09688042
238	0xbcdd67a1	-0.027026953
239	0xbc259bd4	-0.010107953
240	0xbe24ab96	-0.1608108
241	0x3db075c8	0.08616215
242	0x3e57f5a2	0.21089795
243	0x3eb7ad22	0.35874277
244	0x3d6a435d	0.05719315
245	0x3e0d1688	0.13778126
246	0x3de0ce72	0.10976876
247	0x3d869578	0.06571478
248	0x3e3d00ae	0.1845729
249	0xbe4174f8	-0.18892276
250	0xbbb59a59	-0.0055420813
251	0xbe2e1dd0	-0.1700356
252	0xbdee4307	-0.11633878
253	0xbe99646b	-0.29959425
254	0xbda27556	-0.07932536
255	0xbdaf5340	-0.085608006

critic.2.bias f4 [64]
0	0x3b2df311	0.0026542584
1	0x3b1d41a8	0.0023995433
2	0xbc7cd3ee	-0.015431387
3	0xbb55dccd	-0.0032632828
4	0xbcac37bd	-0.021022672
5	0xb92cdb08	-0.00016484794
6	0xb9df40c9	-0.00042582143
7	0x3c72a837	0.014810613
8	0x3c421b9b	0.011847402
9	0x3b726b80	0.0036990345
10	0xbca6ccc7	-0.020361317
11	0xbc0a2656	-0.008431992
12	0x3c21b2f5	0.009869327
13	0xbcb9c440	-0.022676587
14	0xbbe1a9c8	-0.0068866946
15	0xbc529e4d	-0.012855125
16	0xbb5329b6	-0.0032220907
17	0x3b8fec83	0.004392208
18	0x3c29b8f5	0.010359039
19	0x3b862bb3	0.004094565
20	0x3c6934a6	0.014233744
21	0x3bf26f83	0.007398547
22	0xbc1fae30	-0.009746119
23	0xbc0694d3	-0.008214193
24	0xbc7ffe38	-0.015624575
25	0xbcbb716b	-0.02288123
26	0x3c3a892f	0.011385246
27	0x3ba513f2	0.005037778
28	0x3c42c4af	0.011887713
29	0xbc9bf4d6	-0.019037645
30	0x3bc16679	0.0059021083
31	0xba27d8cb	-0.0006402849
32	0xbcf11760	-0.029430091
33	0xbb179293	-0.0023128137
34	0x3b7dddca	0.0038736933
35	0x3b73ec3e	0.0037219669
36	0x3b4f994d	0.0031677068
37	0x3b5a286d	0.0033288256
38	0x3c9806fa	0.018558014
39	0x3c17cc47	0.009265012
40	0x3c8f4050	0.017486721
41	0x3bd4de41	0.0064962213
42	0x3a8157d9	0.00098681
43	0xba9bc193	-0.0011883251
44	0xbbdecda0	-0.0067994148
45	0xbc18888c	-0.009309899
46	0xbb067736	-0.0020517833
47	0x3a33f114	0.00068642315
48	0x3a470fab	0.0007593582
49	0x3c3b5a2f	0.011435076
50	0xbcc68709	-0.024234312
51	0xbb684baf	-0.0035445502
52	0x3c1881f9	0.009308332
53	0x3ce2693f	0.027638076
54	0xba3dd408	-0.0007241373
55	0x3c87a58a	0.016558427
56	0x3b52938b	0.00321314
57	0x3cb1325c	0.021630459
58	0x3bb7f783	0.0056142225
59	0x3cac6494	0.021044053
60	0x3cde5cce	0.027143862
61	0xbcec7933	-0.028866386
62	0x3c9f3bd8	0.019437715
63	0xbafdc94d	-0.001936236

critic.4.weight f4 [1, 64]
0	0xbe833151	-0.25623563
1	0xbc9c2154	-0.01905886
2	0x3d2122b5	0.03933974
3	0xbe9ef4a8	-0.31046033
4	0x3df9be9a	0.121945575
5	0x3c5e6f64	0.013576362
6	0xbec9cbba	-0.39413244
7	0xbe1e779b	-0.15475313
8	0x3d8c27e3	0.06843545
9	0x3dd02cf5	0.10164825
10	0x3ddba3d9	0.10724611
11	0x3e04f8a2	0.12985471
12	0xbd36ee54	-0.04466088
13	0x3e9695e2	0.29411227
14	0x3e477633	0.19478683
15	0x3df17eff	0.11791801
16	0x3a39dc9d	0.0007090064
17	0xbce21144	-0.027596124
18	0xbc716b71	-0.014735089
19	0x3d85760b	0.065166555
20	0x3b8d43ff	0.0043110843
21	0x3e577901	0.21042253
22	0x3db7c4f4	0.08973113
23	0xbd179e9b	-0.037016492
24	0x3c7d07d1	0.015443758
25	0x3d90bbec	0.07067093
26	0xbd3e4bfb	-0.04645918
27	0xbc833175	-0.016014794
28	0xbe181293	-0.14850836
29	0x3e12d349	0.14338411
30	0x3e8895f1	0.26676896
31	0x3e8dfdce	0.277327
32	0x3dfac313	0.12244239
33	0x3dbaf157	0.09128063
34	0x3b217235	0.0024634723
35	0xbe24b6e4	-0.16085392
36	0xbd8f6909	-0.07002456
37	0xbe7d34ca	-0.24727169
38	0xbe6ff6ec	-0.23434037
39	0xbdbbf05d	-0.09176705
40	0xbd8ce403	-0.06879427
41	0x3e14bb5c	0.14524597
42	0x3e02495e	0.127233
43	0xbcee9b78	-0.029126868
44	0xbe0ac25e	-0.13550708
45	0x3d99f253	0.07516923
46	0x3dada834	0.08479348
47	0xbed68c7a	-0.4190405
48	0x3df6226b	0.120182835
49	0xbdc12223	-0.09430339
50	0x3e20c1fc	0.15698999
51	0x3e127d2f	0.14305566
52	0x3e6f474b	0.2336704
53	0xbe2dd320	-0.16975069
54	0x3bef0c29	0.007295151
55	0xbdba1fb5	-0.09088079
56	0xbdbf2e43	-0.093349956
57	0xbd80a938	-0.06282276
58	0xbd0ed3fe	-0.03487014
59	0x3da8fa0a	0.08250816
60	0xbdf96cde	-0.12178968
61	0x3d2d744d	0.04234724
62	0xbdf72058	-0.12066716
63	0x3e4e4f5e	0.20147464
