fw_flightcontrol/models/icinco/ppo/noactreg/ppo_bohnmlp_noactreg_nohist_noatmo_2989_30-05_13:17:05.pt (torch, 46975 bytes, 12 tensors)

actor_logstd f4 [1, 2]
0	0x3dddc7ec	0.10829148
1	0x3dec24dd	0.115304686

actor_mean.0.weight f4 [64, 14]
0	0x3d79d064	0.060989752
1	0x3e6085cb	0.21926038
2	0x3b16098b	0.0022893872
3	0x3e0df1b7	0.13861738
4	0xbe20e677	-0.15712915
5	0x3e25c504	0.16188437
6	0xbf39e435	-0.7261384
7	0xbee709ad	-0.4512457
8	0xbe65d9e4	-0.224464
9	0x3d40ff09	0.04711822
10	0x3e18c273	0.14917926
11	0x3da80b24	0.0820525
12	0x3e09e04f	0.13464473
13	0x3cfbbb81	0.030729057
14	0x3e5e85af	0.21730684
15	0x3d875756	0.06608455
16	0x3e0672d2	0.13129738
17	0xbe0f7714	-0.14010268
18	0xbd6f36c1	-0.058401827
19	0xbe9f6ef9	-0.31139353
20	0x3e24bc10	0.16087365
21	0x3e1d36c0	0.15352917
22	0xbe0f1330	-0.13972163
23	0x3dc5bbe5	0.09654979
24	0x3e064882	0.13113597
25	0xbee1ffa0	-0.4414034
26	0x3e66d407	0.2254182
27	0x3d97c5a9	0.074107476
28	0xbea679d1	-0.32514814
29	0xbe5b8e93	-0.21441106
30	0x3cbb6fc8	0.02288045
31	0x3dbf3d56	0.09337871
32	0x3e9315e2	0.28727633
33	0x3d9a31f4	0.07529059
34	0x3e532d05	0.20622642
35	0x3d039d1f	0.032132264
36	0x3dc90745	0.0981584
37	0xbc9e73a2	-0.019342247
38	0xbdfea241	-0.12433291
39	0xbd716323	-0.058932435
40	0xbe557ae3	-0.20847659
41	0xbe3e8ecc	-0.1860916
42	0x3dde656f	0.10859191
43	0xbe2eec29	-0.17082275
44	0x3e510459	0.20411815
45	0x3dc92db9	0.09823174
46	0xbdaad191	-0.08340753
47	0xbdbe05dd	-0.09278462
48	0xbe6665ea	-0.22499815
49	0xbda96bd9	-0.082725234
50	0xbdb6d607	-0.08927541
51	0xbdc56be5	-0.0963972
52	0xbe283a1f	-0.16428421
53	0x3da897eb	0.08232101
54	0x3dd0a8e2	0.10188462
55	0xbd8b93e7	-0.068153195
56	0xbd96936c	-0.07352337
57	0xbe25b03a	-0.16180506
58	0x3d899d29	0.06719429
59	0x3de3923b	0.111118756
60	0xbe52bdb1	-0.20580174
61	0x3d9c9ce8	0.07647115
62	0xbe36ec67	-0.17863618
63	0x3e0c3dba	0.13695422
64	0x3e7478cb	0.23874204
65	0xbe4258cd	-0.18979187
66	0x3e01e8f9	0.12686528
67	0x3dae6c22	0.085167184
68	0xbe95c0cd	-0.29248658
69	0x3c8f3253	0.017480051
70	0xbd2c1c0e	-0.042018943
71	0x3e068710	0.1313746
72	0xbe8cf7ff	-0.27532956
73	0x3e27a635	0.16371997
74	0xbe6f18eb	-0.23349349
75	0xbea2bf1d	-0.31786433
76	0xbe2fbc13	-0.17161588
77	0xbb00fa12	-0.0019680304
78	0x3b93c565	0.0045096152
79	0x3da7dde2	0.08196618
80	0x3cbad733	0.022807693
81	0x3c98c351	0.018647822
82	0xbd68c94e	-0.056832604
83	0xbe1e6088	-0.15466511
84	0x3c27990c	0.01022936
85	0x3e75caf2	0.24003199
86	0xbecd17b0	-0.40057135
87	0xbdf650e7	-0.1202715
88	0x3dfb4378	0.12268728
89	0xbd99bc16	-0.07506578
90	0xbd3af5f5	-0.04564472
91	0x3db4aa78	0.08821577
92	0x3dd9de49	0.10638101
93	0x3ec2dec1	0.38060573
94	0x3df7f680	0.12107563
95	0xbdc656ad	-0.09684501
96	0xbe16c11a	-0.147221
97	0x3d5ddfb6	0.054168426
98	0xbe443064	-0.19159085
99	0x3e694174	0.22778875
100	0xbcd3689d	-0.02580672
101	0xbe8f23d0	-0.2795701
102	0xbe05a55f	-0.13051365
103	0x3e043aa5	0.12912996
104	0xbd7a154a	-0.06105546
105	0xbe0b3621	-0.13594867
106	0xbd8f9d61	-0.070124395
107	0xbeb3d494	-0.35123122
108	0x3da4881d	0.08033774
109	0xbdccb49a	-0.099953845
110	0xbe8e4880	-0.27789688
111	0x3f0f7dc4	0.5605128
112	0xbe59cc9e	-0.21269462
113	0x3d3d9510	0.046284735
114	0x3e0429fe	0.12906644
115	0x3eaa8b66	0.33309478
116	0x3e1feb09	0.15617003
117	0x3e8e1a1b	0.27754292
118	0xbdd61f69	-0.1045521
119	0x3cf0d71d	0.029399449
120	0x3d26191d	0.040551294
121	0x3e0797c1	0.13241483
122	0x3e67cacf	0.22635959
123	0x3c841572	0.016123507
124	0xbd4a88e2	-0.049446948
125	0xbe67dd9a	-0.22643128
126	0xbd10617b	-0.035249215
127	0x3daa15e2	0.08304955
128	0xbe8e9e37	-0.27855083
129	0xbe386d19	-0.18010367
130	0x3e84b8a3	0.25922117
131	0x3e2d51c9	0.1692573
132	0x3d9daf15	0.0769941
133	0xbea6e62c	-0.32597482
134	0x3e59dd91	0.21275927
135	0xbcce50fb	-0.025185099
136	0x3e7c4cd5	0.24638684
137	0xbe47c0e4	-0.19507176
138	0xbcf7051a	-0.0301538
139	0x3dcbd39a	0.09952469
140	0xbdb7ae3a	-0.08968778
141	0xbddb7b9d	-0.10716937
142	0xbe0b7f70	-0.13622832
143	0xbdfa76b6	-0.122296736
144	0xbe6fdea5	-0.23424776
145	0x3eac683b	0.33673272
146	0xbefc05ab	-0.49223074
147	0xbbecfef8	-0.007232543
148	0x3e5b5a95	0.21421273
149	0x3dbf855d	0.09351609
150	0xbd0285fc	-0.03186606
151	0xbe496389	-0.19666876
152	0x3d84bf08	0.06481749
153	0x3e3c03dc	0.18360847
154	0xbd8f2e0e	-0.06991206
155	0xbe29c8a2	-0.16580442
156	0xbe191e4a	-0.1495296
157	0xbd524977	-0.051339593
158	0xbe690abf	-0.22758006
159	0xbdc7c363	-0.09754064
160	0x3ebb0e9d	0.36534587
161	0x3e92faa4	0.2870685
162	0x3e282059	0.1641859
163	0x3e45e09a	0.1932396
164	0xbd789566	-0.060689352
165	0xbc255102	-0.010090115
166	0x3e12d676	0.14339623
167	0x3c70ae61	0.014690013
168	0xbe80c65f	-0.25151345
169	0x3dba0ae3	0.09084108
170	0x3dd8cddb	0.10586139
171	0xbeebf7e9	-0.46087578
172	0xbebb58ee	-0.36591285
173	0x3c876681	0.01652837
174	0xbd9a1847	-0.07524162
175	0xbe4fd7d3	-0.20297174
176	0xbd70f4da	-0.05882726
177	0x3e5c05bd	0.21486564
178	0xbd86761f	-0.065654986
179	0xbd520548	-0.051274568
180	0xbd95af8c	-0.073088735
181	0x3e5ff01c	0.21868938
182	0x3eaaa728	0.33330655
183	0x3e3ad93c	0.18246931
184	0x3b040b56	0.0020148358
185	0x3d412701	0.047156338
186	0xbe354055	-0.17700322
187	0xbc649d54	-0.013953526
188	0xbead06f7	-0.33794376
189	0xbf39bc27	-0.7255272
190	0xbd8b5fee	-0.068054065
191	0xbd789d85	-0.060697097
192	0x3c9f1af6	0.019422036
193	0x3cf73ace	0.030179407
194	0xbd205f26	-0.03915324
195	0xbee0dffa	-0.4392088
196	0xbcdf5e49	-0.027266638
197	0x3e30ac6c	0.17253274
198	0xbdf85998	-0.12126464
199	0x3ea27011	0.31726125
200	0x3e253e33	0.16137008
201	0x3eb02487	0.34402868
202	0xbe297cc0	-0.16551495
203	0x3c1ece27	0.009692705
204	0x3e8059df	0.25068566
205	0xbe3fa5e9	-0.18715633
206	0xbd658f0c	-0.056044623
207	0xbe0d5597	-0.13802181
208	0x3dce28a2	0.10066344
209	0x3e35bb9c	0.17747349
210	0xbe7f19d3	-0.24912195
211	0xbe7779a9	-0.24167503
212	0xbe16468e	-0.14675352
213	0xbd6813a3	-0.056659352
214	0x3dbde608	0.092723906
215	0xbda745fa	-0.08167644
216	0xbe362e6b	-0.17791145
217	0xbd723b0e	-0.05913835
218	0xbe157012	-0.14593533
219	0x3ce8219b	0.028336337
220	0xbd927905	-0.07151989
221	0x3e4ebcdd	0.20189233
222	0x3e85cd7a	0.2613333
223	0x3db51553	0.08841958
224	0x3e137f1a	0.14403954
225	0x3dc3c4cd	0.09559021
226	0x3e482b72	0.19547823
227	0x3eafc11d	0.3432702
228	0xbdcb5a36	-0.09929316
229	0x3d72623e	0.059175722
230	0xbd121835	-0.035667617
231	0xbeb60afa	-0.3555525
232	0x3dd65584	0.104655296
233	0xbdb6abcf	-0.08919489
234	0xbde3b459	-0.11118383
235	0xbe738142	-0.23779777
236	0x3e5ebe20	0.21752214
237	0x3c12e7b8	0.008966379
238	0xbedec6f4	-0.43511164
239	0xbe9ca9e9	-0.3059838
240	0xbd8f874d	-0.070082285
241	0xbd2cbb20	-0.042170644
242	0x3e7b5281	0.24543191
243	0x3d8294d6	0.063760445
244	0xbd21c496	-0.03949412
245	0x3c9821c1	0.018570783
246	0x3da2a3f5	0.079414286
247	0x3dc2e542	0.09516384
248	0xbe663743	-0.22482018
249	0xbd06214d	-0.0327466
250	0x3e0cca9d	0.13749166
251	0xbc7b5d44	-0.0153420605
252	0x3e26f5ff	0.16304778
253	0x3e98ffda	0.298827
254	0x3b46680c	0.003027442
255	0xbca602c3	-0.020264989

actor_mean.0.bias f4 [64]
0	0x3b891cfc	0.0041843634
1	0xbbe72ff8	-0.007055279
2	0x3bce0385	0.0062870407
3	0x3447fae7	1.8624597e-07
4	0x3bdb4dc1	0.0066926186
5	0x358d93de	1.0548354e-06
6	0x00000000	0.0
7	0x3ccd294c	0.025044106
8	0xb6c76427	-5.9423214e-06
9	0x31971e43	4.3981188e-09
10	0xb8914a05	-6.927926e-05
11	0x3a37338b	0.00069885765
12	0xb9cdbe3d	-0.00039242386
13	0x3cdd9b25	0.027051518
14	0xb92aaabf	-0.00016276071
15	0xbbe17f7b	-0.006881652
16	0x3bc0bd73	0.005881959
17	0xbbd709ed	-0.0065624625
18	0x3ca5070c	0.020144962
19	0x3c1d7396	0.009610077
20	0x35f30ab2	1.8108024e-06
21	0x3bf3ac19	0.007436287
22	0x3915e5ea	0.00014295397
23	0xbcc31771	-0.023814889
24	0x3a6edd08	0.0009111916
25	0x313ebdf3	2.7756613e-09
26	0xbd58f449	-0.052967343
27	0xb8c6a1bd	-9.471502e-05
28	0x3c498eec	0.012302142
29	0xbcb5d261	-0.022195043
30	0xb81e6f66	-3.7773883e-05
31	0xb6897010	-4.095964e-06
32	0xbd64556a	-0.05574552
33	0x3c68b47f	0.01420319
34	0x3da4d813	0.080490254
35	0x37f8b574	2.96484e-05
36	0x32d23d2a	2.4475032e-08
37	0xb0172921	-5.499193e-10
38	0xbb836436	-0.004009749
39	0x00000000	0.0
40	0xbd0083c2	-0.031375654
41	0xbc2343ac	-0.009964865
42	0xb9b1ecb4	-0.00033936428
43	0xbca96b1d	-0.020680958
44	0xbd0cbd7b	-0.03436039
45	0xbcfaef73	-0.030631756
46	0xbc97a30d	-0.018510366
47	0x3c1f061e	0.009706048
48	0x3bb311eb	0.0054647825
49	0x3180e97e	3.7518353e-09
50	0x3ce75b90	0.028241903
51	0x34bbbe01	3.496971e-07
52	0xb98d1166	-0.0002690658
53	0x3c9fe1c6	0.019516837
54	0xb53647cb	-6.7904756e-07
55	0x3982b4cd	0.0002493024
56	0xbc48ca59	-0.012255275
57	0xbbe5334e	-0.0069946414
58	0x3cdb7a92	0.026791845
59	0xbc810c3e	-0.015752908
60	0xbcd78944	-0.02631057
61	0xb609d43f	-2.0538134e-06
62	0x3adb620d	0.0016737595
63	0x36960600	4.471047e-06

actor_mean.2.weight f4 [64, 64]
0	0xbd3d33a9	-0.046191845
1	0x3e20e453	0.15712099
2	0xbdec5f17	-0.115415744
3	0x3cfbd867	0.030742837
4	0xbe2c65e9	-0.1683575
5	0x3c373404	0.011181835
6	0xbe40a919	-0.18814506
7	0x3da704fb	0.08155247
8	0x3c19da2a	0.009390393
9	0xbe52f1f5	-0.20600112
10	0x3e8c1acb	0.2736419
11	0xbeb8485e	-0.35992712
12	0xbda8f56f	-0.08249938
13	0xbe9209f2	-0.28523213
14	0x3e1fda44	0.15610605
15	0x3d8f0e61	0.069851644
16	0x3dc5ac2f	0.09651982
17	0xbea2a2e0	-0.3176489
18	0x3ee527aa	0.44756824
19	0xbf019834	-0.5062287
20	0x3d6dad15	0.058026392
21	0xbca56597	-0.020190043
22	0x3d21e429	0.03952423
23	0x3e06661a	0.13124886
24	0xbd0f8fcf	-0.035049256
25	0xbddde80f	-0.10835277
26	0x3e889183	0.26673517
27	0x3e6b019a	0.2294983
28	0xbe5fd3e0	-0.21858168
29	0x3d381ad7	0.04494747
30	0x3d9cf17e	0.076632485
31	0xbcad7f92	-0.021178994
32	0x3f06278d	0.524041
33	0x3e4f9931	0.20273282
34	0x3cdf19ee	0.027234044
35	0xbd1086d5	-0.035284836
36	0x3e072a8c	0.13199824
37	0xbe000db5	-0.12505229
38	0xbeb233a8	-0.34805036
39	0x3dd22c86	0.102623984
40	0x3e270bc9	0.1631309
41	0xbbd68b2e	-0.006547353
42	0x3ca452d2	0.020059023
43	0x3ea57ba6	0.323209
44	0x3de0d23c	0.10977599
45	0x3dbf608e	0.09344588
46	0x3e50bf9f	0.20385598
47	0xbd0e822b	-0.034792107
48	0x3e8efb8b	0.27926287
49	0xbd654af0	-0.05597967
50	0xbe4f432b	-0.20240466
51	0xbe0449a6	-0.1291872
52	0x3ec75457	0.38931534
53	0xbe7748a5	-0.24148805
54	0x3d2ed798	0.042686075
55	0xbd7ed9f3	-0.06221957
56	0x3b2f4ebd	0.0026749813
57	0x3c56ff13	0.013122338
58	0x3e6729b5	0.22574504
59	0x3e17a2d7	0.14808212
60	0xbbe3abad	-0.0069479556
61	0xbdcda9f0	-0.10042179
62	0xbdb2eb0f	-0.0873624
63	0x3e7a1f96	0.24426112
64	0xbd8bd492	-0.06827654
65	0x3ed9f9e5	0.42573467
66	0x3dfe7112	0.1242391
67	0x3da4d39c	0.08048174
68	0xbe1381e2	-0.14405015
69	0xbea4e1bf	-0.3220348
70	0xbc824399	-0.015901374
71	0x3e0ad063	0.13556056
72	0xbe2a1926	-0.16611156
73	0xbe9ddc0f	-0.30831954
74	0xbe36263c	-0.17788023
75	0xbda651fd	-0.08121107
76	0x3ef01f65	0.46898952
77	0xbdaa2610	-0.08308041
78	0x3e662897	0.22476421
79	0x3e3351b4	0.17511636
80	0xbe658ae1	-0.2241626
81	0xbdc1f633	-0.09470787
82	0x3e0cb284	0.13739973
83	0xbe3a05d2	-0.18166283
84	0xbdd22204	-0.10260394
85	0x3c96b2fc	0.018395893
86	0x3e702e04	0.23455054
87	0x3e36ab73	0.1783884
88	0x3ec02c24	0.37533677
89	0x3e65c987	0.22440158
90	0xbd9ac1b0	-0.07556474
91	0xbe677ac5	-0.22605427
92	0x3b067126	0.002051422
93	0xbeb638e4	-0.3559028
94	0xbdd23446	-0.102638766
95	0x3d909780	0.07060146
96	0x3ee4e864	0.4470855
97	0x3d1245e7	0.035711195
98	0xbd7bd87f	-0.061485764
99	0x3e07b268	0.1325165
100	0x3bfee393	0.007778594
101	0x3e07b040	0.13250828
102	0x3e11ddd1	0.14244772
103	0x3d757835	0.05992909
104	0xbded1534	-0.1157631
105	0xbe115f6e	-0.1419656
106	0x3e485e8a	0.19567314
107	0xbe99edbc	-0.3006419
108	0x3d8a31d7	0.067477874
109	0x3d4e7d6b	0.050412577
110	0x3ed5fd61	0.41794875
111	0xbe46f743	-0.1943026
112	0xbc4e4852	-0.012590485
113	0xbd275ef2	-0.04086203
114	0xbe694723	-0.22781043
115	0xbe3e9f8e	-0.18615553
116	0xbe02490d	-0.12723179
117	0xbe4f5a59	-0.20249309
118	0xbea83242	-0.32850844
119	0x3db5157c	0.088419884
120	0x3d68aa7b	0.056803208
121	0xbc0eafc8	-0.008708902
122	0x3bb0a101	0.005390287
123	0xbd8a9576	-0.06766789
124	0xbd8ee1a7	-0.069766335
125	0x3e080ccc	0.13286132
126	0xbe62aa7f	-0.22135352
127	0x3e088c5b	0.13334791
128	0xbe0fea20	-0.14054155
129	0xbd3f2da9	-0.046674404
130	0xbe4ff8e5	-0.2030979
131	0xbdd9c4cd	-0.1063324
132	0x3dc1c4fb	0.09461399
133	0xbdbdee78	-0.09274
134	0x3e953b06	0.29146594
135	0xbd9800ac	-0.07422003
136	0xbd17b27d	-0.037035454
137	0x3a2e3a80	0.00066462904
138	0x3ea7770a	0.32708007
139	0xbda8ad44	-0.08236173
140	0x3c9382af	0.01800665
141	0x3dd1559f	0.10221409
142	0xbd3565f3	-0.04428668
143	0xbe62588c	-0.2210409
144	0xbd7a8fca	-0.061172284
145	0x3df5be71	0.119992144
146	0x3ebf5abb	0.3737391
147	0x3e167128	0.14691603
148	0xbe4e7495	-0.2016166
149	0x3ddb5ec1	0.10711432
150	0xbe09b318	-0.13447225
151	0x3d453378	0.048144788
152	0x3dc84f8f	0.097807996
153	0xbe81fff2	-0.25390583
154	0xbe585761	-0.21127082
155	0xbdca3e6b	-0.098751865
156	0x3d897236	0.06711237
157	0xbe1acc5a	-0.15117016
158	0x3d8cb72c	0.06870875
159	0x3d9bbae9	0.0760401
160	0x3edc4d68	0.43027806
161	0xbe6291c8	-0.22125924
162	0xbc9d01f9	-0.01916598
163	0xbc80a995	-0.015705863
164	0xbdf3d5d0	-0.11906016
165	0x3ec92dc3	0.39292726
166	0xbe830a23	-0.2559367
167	0xbdbcffa0	-0.09228444
168	0xbd1f148e	-0.03883796
169	0xbd5bfaaa	-0.05370585
170	0x3e8ce22e	0.2751631
171	0x3e44e259	0.1922697
172	0x3efe67e9	0.49688652
173	0xbde178de	-0.11009382
174	0x3ee79ea2	0.45238215
175	0x3e05ac9b	0.13054125
176	0xbcc4f5dc	-0.024043016
177	0x3efa4b30	0.4888549
178	0xbdebaaea	-0.11507209
179	0xbddd20e3	-0.10797288
180	0xbbc31340	-0.0059532225
181	0xbe13a841	-0.14419653
182	0x3e6d8d5f	0.2319846
183	0x3d47397e	0.048638813
184	0x3ddfefe7	0.109344296
185	0x3dd69495	0.104775585
186	0xbe82d065	-0.25549617
187	0x3dd38ec1	0.103299625
188	0xbde1edc1	-0.11031676
189	0xbe8e4e6a	-0.277942
190	0xbeab661e	-0.33476347
191	0x3e32f99f	0.17478035
192	0xbcfbf456	-0.030756157
193	0xbd1474e2	-0.03624428
194	0x3e2d647a	0.1693286
195	0xbde8e145	-0.11371092
196	0xbe05466d	-0.13015147
197	0x3e15e6dc	0.14638847
198	0x3dfe759b	0.12424775
199	0x3e66fe6f	0.22557996
200	0x3d85fdc1	0.0654254
201	0x3b4d7f2a	0.0031356313
202	0x3e5b6a86	0.21427354
203	0xbe201b8a	-0.15635505
204	0x3d13eb3d	0.036113013
205	0x3e3fbdd6	0.1872476
206	0xbcf85424	-0.030313559
207	0x3e6f23bd	0.23353477
208	0x3d5a41ec	0.053285524
209	0xbe621fc5	-0.22082432
210	0x3d3955f1	0.045247976
211	0xbc66db28	-0.014090337
212	0xbdfca6ff	-0.123365395
213	0x3c968844	0.018375523
214	0xbc2c9a23	-0.010534796
215	0xbeb0f699	-0.3456314
216	0xbe4b0546	-0.1982623
217	0x3eb36d0a	0.35044128
218	0x3e03b593	0.12862234
219	0xbe57af53	-0.21062975
220	0xbe1c9a32	-0.15293196
221	0x3e25f2a3	0.1620584
222	0xbdbb92d8	-0.091588676
223	0xbe2021c5	-0.15637882
224	0xbe7bbca1	-0.24583675
225	0xbde92270	-0.113835216
226	0xbd134210	-0.035951674
227	0x3e710159	0.2353567
228	0xbd844cc8	-0.06459957
229	0x3dbb5f4e	0.09149037
230	0x3e9cfcd2	0.30661637
231	0x3e047a8f	0.12937377
232	0xbe940d16	-0.28916234
233	0x3dfbedfe	0.12301253
234	0x3dfe3932	0.12413253
235	0x3eccb0ef	0.3997874
236	0x3e92207f	0.28540418
237	0xbe8f0def	-0.27940318
238	0xbd33e1e5	-0.0439166
239	0x3e03f887	0.12887774
240	0xbc050352	-0.008118467
241	0xbe5a7f1b	-0.2133755
242	0x3e4a0f9c	0.19732517
243	0xbe81401a	-0.25244218
244	0xbe17e563	-0.14833598
245	0x3dc40325	0.09570912
246	0x3d791415	0.060810167
247	0x3ecfc564	0.40580285
248	0x3d5c6f12	0.053816862
249	0xbd95cd75	-0.073145784
250	0x3de9a24a	0.11407907
251	0x3e13c9df	0.14432476
252	0xbebb2eff	-0.36559293
253	0xbe7b7174	-0.24554998
254	0xbe9859f5	-0.29756132
255	0xbeeec823	-0.46637067

actor_mean.2.bias f4 [64]
0	0x3c98ffb7	0.018676622
1	0xbcb7df54	-0.022445358
2	0xbd2c7ef4	-0.04211326
3	0xbc5bf43a	-0.013424927
4	0x3bde0017	0.006774913
5	0x3c1c55f6	0.009541979
6	0x3b26493f	0.0025373248
7	0xbcdd40b7	-0.027008398
8	0xbd3264ad	-0.043553043
9	0xbcf50f1c	-0.029914431
10	0x3b8ee905	0.004361274
11	0x3d7ae05d	0.061249126
12	0x3ca75e3c	0.020430677
13	0x3d262099	0.04055843
14	0xbd15752a	-0.03648869
15	0x3d069a64	0.032862082
16	0xbd14c823	-0.036323678
17	0x3c7b5bb1	0.015341685
18	0x3cb12d3f	0.02162802
19	0x3b849629	0.004046221
20	0xbc2a6a3e	-0.010401307
21	0xbc92c75d	-0.01791733
22	0x3cda9b01	0.02668524
23	0x3cf250d7	0.029579563
24	0xbb506479	-0.0031798168
25	0x3b85d00d	0.0040836395
26	0x3d133f12	0.03594882
27	0x3cc7fe72	0.024413321
28	0x3ce6bfc3	0.028167611
29	0xbbfee14b	-0.007778322
30	0x3afccf57	0.0019287866
31	0xbcec8d14	-0.028875865
32	0x3c2b66ae	0.010461492
33	0xbd2063ed	-0.039157797
34	0xba73e72d	-0.0009304162
35	0x3b6eec70	0.0036456846
36	0xbb3995db	-0.002831808
37	0x3d525bad	0.05135696
38	0x3ccd1e9a	0.025039006
39	0xbd184996	-0.037179552
40	0xbc961f5a	-0.018325496
41	0xbcd5079b	-0.026004603
42	0xbc5e48ac	-0.013567131
43	0xbce4a98d	-0.02791288
44	0x3d177919	0.036980722
45	0x3c93b2aa	0.01802953
46	0xbcbc62a0	-0.022996247
47	0xbc299bd0	-0.01035209
48	0xbc26fa49	-0.010191509
49	0x3b65cd1f	0.0035064889
50	0x3b951f87	0.0045508775
51	0x3d300274	0.04297109
52	0xbcfecada	-0.031102587
53	0xbbdb72ee	-0.0066970503
54	0xbc8e80a0	-0.017395318
55	0xbc5eaf07	-0.013591534
56	0xbd444fc4	-0.047927633
57	0xbbe3cf52	-0.0069522047
58	0x3c9b835b	0.018983534
59	0xbb8d4f05	-0.0043123984
60	0x3ce69fa5	0.028152296
61	0xbd202468	-0.03909722
62	0xbd20aab2	-0.039225288
63	0x3cc47b4a	0.02398457

actor_mean.4.weight f4 [2, 64]
0	0x3e24191d	0.16025205
1	0x3e276ac8	0.16349328
2	0x3da95aef	0.08269297
3	0xbe47ca2b	-0.19510715
4	0xbe0ca400	-0.13734436
5	0xbdcf1a35	-0.101124205
6	0xbdfbf7b6	-0.123031065
7	0x3dbc99d6	0.092090294
8	0xbe0a8d46	-0.13530454
9	0xbd418d44	-0.047253862
10	0xbdf1aff7	-0.11801141
11	0x3e0983cc	0.13429183
12	0xbe16622a	-0.14685884
13	0xbe4830f4	-0.19549924
14	0xbd84dacf	-0.06487047
15	0xbdf701ac	-0.12060866
16	0xbd34cd56	-0.044141136
17	0x3df43518	0.11924189
18	0x3dd6bf60	0.10485721
19	0xbc71b3e5	-0.014752363
20	0x3dfaeffb	0.12252804
21	0xbdbb9b91	-0.09160531
22	0x3e44016d	0.19141169
23	0xbe270d88	-0.16313756
24	0xbc814669	-0.015780644
25	0xbcd4c94d	-0.025974894
26	0xbe0a70e5	-0.13519628
27	0x3dc942b9	0.098271795
28	0x3c4ea345	0.012612169
29	0x3dbf288a	0.09333904
30	0xbb58df5e	-0.0033092122
31	0xbd1257c6	-0.03572824
32	0x3d00db5f	0.03145921
33	0x3e12ce70	0.14336562
34	0xbc60ae44	-0.013713423
35	0xbd849b9a	-0.06474991
36	0x3e239c51	0.15977599
37	0xbd0c26c5	-0.03421666
38	0x3d375db0	0.04476708
39	0x3caba202	0.020951275
40	0xbd9b8fc7	-0.07595783
41	0x3b12258f	0.0022300219
42	0x3e108762	0.14114144
43	0xbd0355d0	-0.03206426
44	0xbd24663d	-0.040136565
45	0xbdd51690	-0.10404694
46	0x3dd3ae21	0.10335947
47	0x3dcb7c12	0.09935774
48	0xbd11d07b	-0.035599213
49	0xbda70fd1	-0.081573136
50	0xbdef4183	-0.11682417
51	0x3db440e0	0.088014364
52	0xbe23cf4d	-0.15997048
53	0x3e4fa864	0.2027908
54	0x3c84e307	0.016221536
55	0x3c49a84c	0.0123081915
56	0x3d6984c4	0.05701138
57	0xbd63f2e3	-0.055651557
58	0x3e071e17	0.13195072
59	0x3d3a56ef	0.045493063
60	0x3d93b161	0.07211567
61	0xbc9a4a95	-0.018834392
62	0x3e0728e1	0.13199188
63	0x3e0494f5	0.12947448
64	0x3dca67c8	0.09883076
65	0x3e0b7165	0.13617475
66	0x3e30df46	0.17272672
67	0x3e0df289	0.13862051
68	0xbddd0883	-0.10792639
69	0xbd2a4f58	-0.041579574
70	0x3e06142f	0.13093637
71	0xbe71c153	-0.23608904
72	0x3e0be774	0.13662511
73	0x3b915de2	0.0044362405
74	0xbc705511	-0.014668719
75	0xbdb92f97	-0.0904228
76	0xbd62e8c3	-0.05539776
77	0xbdd7c8d8	-0.10536355
78	0x3d3169c9	0.043313775
79	0x3e75671a	0.23965111
80	0x3dd5dc1f	0.104423754
81	0xbcb8f05e	-0.022575554
82	0xbdb49bae	-0.08818756
83	0x3d9c8e71	0.07644356
84	0xbd9e13c3	-0.07718613
85	0x3e6839ef	0.2267835
86	0xbd998362	-0.074957624
87	0xbc554b5a	-0.0130184535
88	0xbe0b21b3	-0.13587074
89	0xbe2ff6b2	-0.1718395
90	0x3b0b4ab0	0.0021254234
91	0x3e1aeea2	0.15130094
92	0xbde8b4e6	-0.11362629
93	0x3d637313	0.055529665
94	0x3e172b70	0.14762664
95	0x3e85cf94	0.26134932
96	0xbe15996a	-0.14609304
97	0x3de432dc	0.11142513
98	0x3e29cac5	0.16581257
99	0x3dc5b56c	0.09653744
100	0xbdd6ecd3	-0.104943894
101	0xbde354ae	-0.11100136
102	0x3d3a6b84	0.04551269
103	0x3ce30202	0.027710918
104	0xbe7453ed	-0.2386014
105	0xbc8282cb	-0.015931508
106	0x3dca9f29	0.09893639
107	0xbd5dc8da	-0.054146625
108	0x3dbbd20c	0.09170923
109	0xbdc03a98	-0.09386176
110	0x3e23e285	0.16004379
111	0xbe1cd4fc	-0.15315622
112	0xbdbdc489	-0.09266002
113	0xbe2e783e	-0.17038056
114	0xbdb3dd4a	-0.08782442
115	0x3d00f4af	0.03148335
116	0x3dee2759	0.11628599
117	0x3d314153	0.04327519
118	0xbe116085	-0.14196976
119	0x3db14076	0.08654873
120	0x3d5515e7	0.05202284
121	0xbda5061b	-0.08057805
122	0xbda6cccd	-0.081445314
123	0xbdf81e59	-0.12115163
124	0x3d510598	0.051030725
125	0x3d1bf838	0.038078517
126	0xbc526052	-0.012840347
127	0xbd75e28b	-0.0600305

actor_mean.4.bias f4 [2]
0	0xba84742f	-0.0010105426
1	0x3baec3f7	0.0053334194

critic.0.weight f4 [64, 14]
0	0x3e01de37	0.12682424
1	0xbeb22251	-0.34791806
2	0xbc32c712	-0.01091172
3	0xbd8ab642	-0.06773044
4	0xbd1e9349	-0.03871468
5	0xbd54d3f2	-0.05195994
6	0x3e58f741	0.2118807
7	0x3b955cc2	0.0045581767
8	0x3e440384	0.19141966
9	0x3e7bbcf9	0.24583806
10	0xbe0270f5	-0.12738402
11	0xbd3786ef	-0.044806417
12	0xbd75b4ab	-0.05998675
13	0xbdf7fc2c	-0.12108645
14	0xbdbe2318	-0.09284037
15	0x3e8d9ea0	0.27660084
16	0x3c336557	0.010949454
17	0x3e2f6df9	0.17131795
18	0x3cc3ac98	0.02388601
19	0x3e2d6132	0.16931608
20	0x3d9a3996	0.07530515
21	0x3e04942f	0.12947153
22	0x3c869051	0.016426237
23	0xbe1bd2c5	-0.15217121
24	0xbcb49109	-0.022041814
25	0x3d254083	0.040344726
26	0xbe2c98b2	-0.16855124
27	0x3d8f02be	0.06982945
28	0xbe82c09a	-0.25537568
29	0xbe6bfd94	-0.23045951
30	0xbe584b80	-0.21122551
31	0xbd4136ea	-0.04717151
32	0x3cb08be0	0.021551073
33	0xbe0a7751	-0.13522078
34	0x3e1a8f31	0.15093686
35	0xbeb081a3	-0.34473905
36	0x3e56a777	0.2096232
37	0x3d6656f3	0.056235265
38	0x3d64321e	0.055711858
39	0xbbfcfc42	-0.007720501
40	0xbdf4f966	-0.119616315
41	0x3e92f7ef	0.28704783
42	0x3dde1459	0.10843725
43	0xbeb32409	-0.3498843
44	0xbe109bbe	-0.14121911
45	0xbe150710	-0.14553475
46	0xbdba45b9	-0.0909533
47	0x3de5b6ca	0.11216505
48	0xbe4095f9	-0.1880721
49	0x3e7929e0	0.2433238
50	0xbe38ea6b	-0.18058173
51	0xbe4b361c	-0.1984486
52	0x3eb021cf	0.34400794
53	0xbcccc700	-0.024997234
54	0xbd32a2e6	-0.043612383
55	0x3d47795e	0.04869973
56	0xbde19891	-0.11015428
57	0xbce30be5	-0.027715633
58	0xbde53e0e	-0.111934766
59	0x3d53be7e	0.05169534
60	0xbe2f97d0	-0.17147756
61	0xbdfab593	-0.12241664
62	0xbe0ffb5c	-0.1406073
63	0x3ac6e1e3	0.0015173521
64	0x3ddc15ea	0.10746367
65	0x3e64dfed	0.22351046
66	0xbd6ec876	-0.058296643
67	0x3a3e0cc1	0.0007249825
68	0x3eaf78d8	0.34271884
69	0x3d0b5367	0.034015086
70	0xbf0f15be	-0.5589255
71	0xbda1fa28	-0.07909042
72	0xbc822a80	-0.015889406
73	0xbce98de2	-0.028510038
74	0xbc849c06	-0.016187679
75	0xbe01b91c	-0.1266827
76	0x3f8e90c0	1.1137924
77	0x3e8f3378	0.27968955
78	0x3e876593	0.26444682
79	0x3f41eed2	0.75755036
80	0x3d47c5c8	0.048772603
81	0x3aa3090c	0.0012438609
82	0x3e3472a4	0.17621857
83	0xbb43d4ec	-0.002988155
84	0xbe3ddf1a	-0.18542138
85	0x3e882d63	0.26597127
86	0xbbde29d8	-0.0067798905
87	0xbdb01f53	-0.085997246
88	0x3d8b4488	0.06800181
89	0xbdc00c33	-0.09377327
90	0x3db73a00	0.089466095
91	0xbe565ed2	-0.20934609
92	0xbddb671f	-0.10713028
93	0x3e0c4fde	0.13702342
94	0x3de70b84	0.11281493
95	0x3ccae708	0.024768367
96	0xbd6a23f1	-0.057163183
97	0x3ea1278f	0.31475493
98	0x3dd68cec	0.104760975
99	0xbbc2e2bd	-0.0059474395
100	0xbd9a75ee	-0.075420246
101	0x3e5f23f5	0.2179106
102	0x3d3f31ae	0.046678238
103	0xbda1c6a1	-0.078992136
104	0xbe541284	-0.20710188
105	0x3d929657	0.07157581
106	0xbec40c0f	-0.3829045
107	0x3ed4d966	0.41572112
108	0xbdc94ca6	-0.09829073
109	0xbd25736d	-0.04039328
110	0x3e1b2d34	0.15153962
111	0x3e395a73	0.1810091
112	0xbd413408	-0.04716876
113	0xbe84592b	-0.2584928
114	0xbce0f100	-0.027458668
115	0x3c33bff8	0.010971062
116	0xbd7e1152	-0.062028237
117	0x3ceb14e8	0.028696492
118	0xbd47213a	-0.04861567
119	0x3e39c063	0.18139796
120	0x3d525e62	0.05135954
121	0x3dbe3f23	0.09289386
122	0x3ef8d717	0.486016
123	0x3e8b9852	0.2726465
124	0xbe4e3c5f	-0.20140217
125	0xbe6d6c4e	-0.23185846
126	0x3df6a6b8	0.12043518
127	0x3e5ab38a	0.21357551
128	0x3ec692e4	0.38783944
129	0xbcc29142	-0.023750905
130	0x3dda08b6	0.10646193
131	0x3dd5503d	0.10415695
132	0xbe411c48	-0.18858445
133	0xbe038c58	-0.12846506
134	0x3cd3aff7	0.025840743
135	0x3d85d584	0.065348655
136	0xbe5eab67	-0.21745072
137	0xbe43f60e	-0.19136831
138	0x3dc1a2b6	0.09454863
139	0xbe366763	-0.17812876
140	0xbe2523c8	-0.1612693
141	0xbde355b1	-0.11100329
142	0xbe15c35b	-0.14625303
143	0xbd7fc793	-0.06244619
144	0x3ef1d855	0.4723536
145	0xbd7e8967	-0.062142756
146	0xbe10fd13	-0.1415904
147	0x3dc78b6f	0.09743392
148	0x3d169e77	0.036772218
149	0x3e25a2cd	0.16175385
150	0xba504986	-0.0007945526
151	0xbd99afe1	-0.07504249
152	0x3e5b3112	0.21405438
153	0xbdf8c105	-0.121461906
154	0x3df18135	0.117922224
155	0xbf156f75	-0.58373195
156	0x3a2854f0	0.0006421348
157	0x3e5c1f64	0.2149635
158	0xbdfa9443	-0.1223531
159	0x3e38635e	0.18006656
160	0x3eb510b6	0.35364312
161	0x3f210e80	0.6291275
162	0x3ecfe61b	0.40605244
163	0x3dfb67b5	0.1227564
164	0xbd477166	-0.04869213
165	0xbc4fca6c	-0.0126825385
166	0x3e0e355a	0.1388754
167	0x3b075bc6	0.0020654066
168	0x3e0afca1	0.13572933
169	0xbe1ab9a3	-0.15109877
170	0x3d10b037	0.0353243
171	0x3e95d754	0.29265845
172	0x3e6bb982	0.23019984
173	0xbea2bfd9	-0.31786993
174	0x3e25d763	0.16195445
175	0x3daa4116	0.083131954
176	0xbcd6f318	-0.026238963
177	0x3e66a60d	0.22524281
178	0x3db7ad42	0.08968593
179	0xbb843dca	-0.004035686
180	0xbead4a14	-0.3384558
181	0x3e09ce37	0.13457571
182	0x3e5af870	0.21383834
183	0x3dc090f1	0.094026454
184	0x3ec7e00b	0.3903812
185	0xbdb32fad	-0.08749328
186	0x3b308f02	0.0026940708
187	0xbda01bf9	-0.07817835
188	0x3dfd94db	0.123819076
189	0xbe4bc3d6	-0.19898924
190	0x3e36cdeb	0.17851989
191	0xbe8f6dcf	-0.28013465
192	0x3e9c6e6d	0.30552998
193	0x3cc5215b	0.024063757
194	0x3e45560e	0.19271109
195	0x3dae5033	0.085113905
196	0xbcbbbedb	-0.022918155
197	0x3e651f21	0.22375156
198	0xbe3f80ea	-0.1870152
199	0x3d6c2939	0.0576565
200	0xbe093a1a	-0.1340107
201	0x3dc80e4f	0.09768354
202	0x3b6f381b	0.0036501947
203	0x3d879e36	0.06621973
204	0xbd925602	-0.07145311
205	0x3d9326dd	0.07185147
206	0x399a2206	0.00029398518
207	0xbd223170	-0.03959793
208	0xbdb7f7b8	-0.089827955
209	0x3e860e55	0.2618281
210	0x3d0995fc	0.033590302
211	0x3eebdb7c	0.4606589
212	0xbc72a8e4	-0.0148107745
213	0x3e0964b1	0.13417317
214	0xbd039d14	-0.032132223
215	0x3dfd4300	0.12366295
216	0x3f8b172b	1.0866445
217	0xbe5840ad	-0.21118422
218	0xbe7ec0ab	-0.24878184
219	0x3e541465	0.20710905
220	0x3ce18ddf	0.02753347
221	0x3ca350dd	0.01993602
222	0x3ec14393	0.37746868
223	0xbeb235e1	-0.3480673
224	0x3deede70	0.1166352
225	0xbd09b9d9	-0.033624504
226	0x3e861e64	0.2619506
227	0xbe3943a9	-0.18092217
228	0x3e995e13	0.29954585
229	0x3e9bd6fb	0.30437455
230	0x3d7bd41e	0.061481588
231	0x3deb1ae9	0.11479742
232	0xbd9e2327	-0.077215485
233	0x3df04e9b	0.11733743
234	0xbe429437	-0.19001852
235	0x3e24d805	0.1609803
236	0xbdc3165c	-0.09525749
237	0x3ebe59d3	0.37177905
238	0x3dfcb753	0.12339654
239	0x3d95cd02	0.07314493
240	0xbe708e0c	-0.23491687
241	0x3d9bb10a	0.07602127
242	0x3da79a43	0.0818372
243	0xbe7ca4dc	-0.24672264
244	0xbca60fdf	-0.02027124
245	0x3d8e1830	0.06938207
246	0xbda144d4	-0.07874456
247	0xbe28e00d	-0.16491719
248	0xbea12def	-0.31480357
249	0x3e8da51d	0.27665034
250	0x3dc41ced	0.0957583
251	0xbcfcb39f	-0.030847369
252	0xbe767992	-0.24069813
253	0xbe937484	-0.28799832
254	0x3c40f4e0	0.011777133
255	0xbc28f29d	-0.01031175

critic.0.bias f4 [64]
0	0x3d8d8a4e	0.06911145
1	0xbd00e65a	-0.03146968
2	0x3611464c	2.1647602e-06
3	0x37e46d95	2.7230746e-05
4	0xbc0d1d44	-0.0086129345
5	0xbbaa257b	-0.0051924563
6	0x3e0399fd	0.1285171
7	0xbba71a8e	-0.005099601
8	0xbbe477e6	-0.006972301
9	0x00000000	0.0
10	0xbb59e548	-0.0033248235
11	0xbce1a7e7	-0.027545882
12	0x3bfd2a48	0.0077259876
13	0x31aa3120	4.953236e-09
14	0xb7bb68fa	-2.234102e-05
15	0x3c9c4a5c	0.019078426
16	0xb8388429	-4.3992102e-05
17	0xb2568270	-1.24860975e-08
18	0x3ccac0bf	0.024750112
19	0x3c8eb5b1	0.017420622
20	0x00000000	0.0
21	0x3b35947c	0.0027706912
22	0xbac2e7a0	-0.0014870055
23	0x3ad6de34	0.0016393126
24	0x3c02baa1	0.007979066
25	0x3d0fc775	0.035102326
26	0x39e711b1	0.00044072935
27	0x38b83fe1	8.785702e-05
28	0xb815a6a8	-3.567958e-05
29	0x399fdee1	0.000304929
30	0x3d6009ea	0.054696955
31	0xbcb0c2f5	-0.021577338
32	0xbd1a5794	-0.037681177
33	0x38ab75c6	8.1758524e-05
34	0x333c81b7	4.3890136e-08
35	0x3be01028	0.0068378635
36	0xbcf38207	-0.029725088
37	0xbc198b74	-0.009371627
38	0xba150af8	-0.00056855334
39	0x39019555	0.00012358029
40	0x3ca22f33	0.019797897
41	0x3bc735bd	0.006079404
42	0x34ce08c5	3.837687e-07
43	0x3d0a5252	0.033769913
44	0xbe18228d	-0.1485693
45	0xbacf1178	-0.0015798053
46	0x3c30bf5f	0.010787814
47	0xb80d8a05	-3.374556e-05
48	0x3b6051be	0.003422841
49	0x00000000	0.0
50	0xbc9f390b	-0.01943638
51	0x3b7e7356	0.003882607
52	0x3c2cfe43	0.010558668
53	0x3ba303f2	0.0049748356
54	0xbb6cd6eb	-0.0036138843
55	0x3b08ca3f	0.0020872501
56	0x39d14687	0.00039916133
57	0xb791680d	-1.73338e-05
58	0xb4929771	-2.7304807e-07
59	0x3c5c08aa	0.0134298
60	0x00000000	0.0
61	0x3c636992	0.01388015
62	0xb9b27315	-0.00034036548
63	0x32b0fa11	2.0602814e-08

critic.2.weight f4 [64, 64]
0	0xbe64ef81	-0.22356988
1	0x3da1ab06	0.07893948
2	0x3ec7fb80	0.39059067
3	0xbe80a752	-0.25127655
4	0x3d1ffd50	0.039059937
5	0xbd7f3084	-0.062302127
6	0x3e4d6fb5	0.20062144
7	0xbe72dcb3	-0.23717003
8	0xbc5635ec	-0.013074379
9	0xbebc9f92	-0.36840492
10	0x3e1ad6ca	0.15120998
11	0xbe332cc9	-0.17497553
12	0x3e478b5f	0.1948676
13	0x3d419aa3	0.047266614
14	0x3c210cdc	0.009829726
15	0x3c98637c	0.018602125
16	0x3cdf4ada	0.027257372
17	0xbdf0df25	-0.117613114
18	0xbe22ffd6	-0.15917906
19	0x3ea690a2	0.3253222
20	0xbdc017dc	-0.09379551
21	0xbce40b46	-0.027837407
22	0xbdee6d94	-0.11641994
23	0xbd357570	-0.04430145
24	0x3e7cf52e	0.24702904
25	0xbe95e1e2	-0.29273897
26	0x3d253671	0.040335122
27	0xbd6f84bd	-0.0584762
28	0xbe2dd2cb	-0.16974942
29	0x3e28761e	0.16451308
30	0xbe216090	-0.15759492
31	0x3e7a5297	0.24445568
32	0x3ea2542e	0.3170485
33	0xbeaafa3f	-0.33394048
34	0x3e93ac3f	0.2884235
35	0xbe812581	-0.25223926
36	0xbdce7aa6	-0.10081987
37	0x3da3648e	0.07978164
38	0x3dc18855	0.094498314
39	0x3d409e5c	0.047026023
40	0x3cec9cd7	0.02888338
41	0xbd253163	-0.040330302
42	0x3cf3880b	0.029727956
43	0xbe006b67	-0.1254097
44	0x3e0b0311	0.13575388
45	0xbd0fe260	-0.035127997
46	0xbd34c15d	-0.044129718
47	0x3e95d795	0.2926604
48	0xbe75c3d0	-0.24000478
49	0xbd073a74	-0.03301473
50	0xbd898b25	-0.06715993
51	0x3b69c480	0.0035670102
52	0xbe3d1926	-0.18466625
53	0x3e8cbdd0	0.27488565
54	0x3e01b693	0.12667303
55	0x3c6b775a	0.014371717
56	0xbe70b012	-0.23504665
57	0xbee11295	-0.4395949
58	0xbe033e75	-0.12816794
59	0x3da810d9	0.082063384
60	0x3e2b27f4	0.1671446
61	0x3e2503b9	0.16114701
62	0xbd95dc7c	-0.07317445
63	0x3e07fda8	0.13280356
64	0xbec67137	-0.3875825
65	0x3ead3259	0.33827475
66	0xbd64f6df	-0.055899497
67	0x3e01276d	0.12612696
68	0x3e54b6e3	0.20772891
69	0x3edebbb9	0.43502596
70	0x3e2b44e0	0.16725492
71	0xbe150401	-0.14552309
72	0xbccf15e7	-0.025278999
73	0x3ce648ea	0.02811094
74	0x3e64bc1c	0.22337383
75	0xbda7ab5b	-0.0818698
76	0xbe4ffb16	-0.20310625
77	0x3d453b94	0.04815252
78	0xbe23bd70	-0.15990233
79	0xbe2ab5f0	-0.16670966
80	0xbe1cffe7	-0.15331994
81	0x3cd4e31c	0.0259872
82	0xbe293215	-0.16523011
83	0xbe058446	-0.1303874
84	0xbdd3a973	-0.10335054
85	0x3e848346	0.25881404
86	0xbdd9fb6d	-0.10643659
87	0x3e1d6da1	0.15373851
88	0xbe1577b7	-0.14596449
89	0xbe6a7fb6	-0.2290028
90	0xbdfe4c8f	-0.12416946
91	0xbcf7d362	-0.030252162
92	0xbcde6a37	-0.027150257
93	0x3e7db9fd	0.2477798
94	0xbd1d6a5c	-0.03843151
95	0x3d98af18	0.074552715
96	0x3e2d4e5b	0.16924421
97	0x3d0736b5	0.033011157
98	0xbe78d449	-0.2429973
99	0x3da2b70f	0.07945072
100	0xbea4c37a	-0.32180387
101	0x3e4f2a11	0.20230891
102	0xbe34c8f3	-0.17654781
103	0x3e9d0ee2	0.30675417
104	0x3e45e698	0.19326246
105	0xbc8b67f1	-0.017017337
106	0xbe70cf6d	-0.23516627
107	0xbe3e2253	-0.18567781
108	0x3e4ab9bc	0.19797415
109	0xbdd37b57	-0.103262596
110	0x3e01c81a	0.12673989
111	0xbe360325	-0.17774637
112	0xbda3e2ed	-0.08002267
113	0x3d4218d5	0.047386963
114	0x3d862398	0.06549758
115	0xbc4f6dbd	-0.012660441
116	0xbdbf6d18	-0.0934698
117	0x3c27823c	0.010223921
118	0x3e241c30	0.16026378
119	0xbe022a59	-0.12711467
120	0x3cb04af9	0.021520125
121	0x3e901083	0.28137597
122	0xbea34f31	-0.31896356
123	0x3e9a53cd	0.3014206
124	0xbe10db32	-0.14146116
125	0xbe95cb46	-0.29256648
126	0xbdba7e34	-0.091061026
127	0x3cd50f01	0.026008131
128	0x3e10ab63	0.14127879
129	0x3c07c112	0.008285778
130	0x3e8081dc	0.25099075
131	0x3e25bdb1	0.16185643
132	0xbe584faf	-0.21124147
133	0x3e01c168	0.12671435
134	0x3d72ca7c	0.059275135
135	0x3ea2a3ce	0.31765598
136	0x3e57ad9d	0.21062322
137	0x3e52465f	0.20534657
138	0xbe863de5	-0.26219097
139	0xbcd977f5	-0.026546458
140	0xbb669498	-0.0035183784
141	0xbe842b41	-0.2581425
142	0x3e6df4c1	0.23237897
143	0x3d41d81a	0.04732523
144	0x3dbb48ac	0.091447204
145	0x3bad144a	0.0052819597
146	0x3e673a3e	0.22580811
147	0xbe042124	-0.12903267
148	0xbdff52dc	-0.12466976
149	0x3e3bc0ea	0.1833531
150	0xbd134b0a	-0.035960235
151	0xbd71bb8e	-0.059016757
152	0x3e4323eb	0.1905667
153	0x3cb9eb04	0.022695072
154	0xbd884060	-0.066529036
155	0x3ec163aa	0.3777135
156	0x3e06917e	0.13141438
157	0xbca83553	-0.02053324
158	0x3e792f01	0.24334337
159	0x3e57b7c2	0.21066192
160	0x3e48146c	0.1953904
161	0x3e0fabec	0.14030427
162	0x3e44c085	0.19214065
163	0xbe19c2ed	-0.15015765
164	0x3cf876dd	0.030330116
165	0x3e4fd754	0.20296985
166	0x3de5863f	0.11207246
167	0x3e041f69	0.12902607
168	0xbe0e17af	-0.13876222
169	0xbd079d0f	-0.033108767
170	0xbdf55e5b	-0.119808875
171	0x3b211904	0.002458156
172	0x3e64c585	0.22340973
173	0x3e280ec3	0.16411881
174	0xbe89ec51	-0.26938108
175	0x3d33cd09	0.04389671
176	0x3dcfa884	0.10139564
177	0xbe15860f	-0.1460192
178	0x3d97ce03	0.074123405
179	0x3e07e159	0.13269557
180	0xbd2ac6e6	-0.04169359
181	0x3e8bc333	0.27297363
182	0x3ec1f66e	0.37883323
183	0xbe908948	-0.28229737
184	0x3e51545b	0.20442335
185	0xbe304f29	-0.17217697
186	0xbc9278d2	-0.017879877
187	0x3e974da0	0.2955141
188	0xbda0a1b1	-0.0784334
189	0xbe5011d7	-0.20319305
190	0x3d92a531	0.07160414
191	0xbeaa5d09	-0.33274105
192	0x3dfcf9ee	0.12352358
193	0xbdafeff4	-0.08590689
194	0xbde12cc6	-0.10994868
195	0xbe310e8a	-0.17290702
196	0x3dc67b0c	0.09691438
197	0xbe35242a	-0.17689577
198	0x3d8a1ca9	0.06743748
199	0x3ca419dd	0.020031864
200	0xbcc53511	-0.024073156
201	0xbea9a27e	-0.33131784
202	0xbede17b1	-0.4337745
203	0xbe9159e2	-0.28388888
204	0xbb4d084a	-0.0031285458
205	0x3ccee31c	0.025254779
206	0x3e6d6c26	0.23185787
207	0xbd946c87	-0.072472624
208	0x3ee621f1	0.4494777
209	0xbdce138a	-0.100623205
210	0x3e32b4d0	0.17451787
211	0xbdea839c	-0.11450884
212	0xbe1c3826	-0.15255794
213	0xbe0cc8b6	-0.1374844
214	0x3d04440d	0.03229146
215	0x3e21d362	0.15803292
216	0x3db0bd98	0.08629912
217	0xbe2c5c0b	-0.16831987
218	0xbd2e9cfc	-0.04263018
219	0xbd2362c9	-0.03988913
220	0x3e3ef0d5	0.18646558
221	0x3e25918b	0.16168801
222	0x3dc86714	0.097852856
223	0xbc91ed0a	-0.017813224
224	0x3e05c0ab	0.13061778
225	0x3dae1c28	0.08501464
226	0xbead3d91	-0.33836034
227	0xbe57882c	-0.21048039
228	0xbe0a28d3	-0.13492136
229	0x3c366312	0.011132019
230	0xbc85ab8a	-0.016317148
231	0xbd9526f8	-0.07282823
232	0xbe79f0b2	-0.24408224
233	0xbd3b5fd2	-0.04574568
234	0x3cdbf016	0.02684788
235	0x3dffa1e8	0.12482053
236	0xbc12d9b2	-0.008963035
237	0x3e81d0af	0.25354525
238	0x3eea388c	0.45746267
239	0xbd97be48	-0.0740934
240	0xbd9cbbca	-0.076530054
241	0xbdd7a3b7	-0.10529273
242	0xbc9824da	-0.01857226
243	0x3e0d2952	0.13785294
244	0x3ec0064c	0.37504804
245	0xbe917d8e	-0.28416103
246	0x3d2efc40	0.042721033
247	0xbe549b02	-0.20762256
248	0xbd712197	-0.058869924
249	0xbb579c09	-0.00328994
250	0xbe1981f8	-0.14990985
251	0x3d24be59	0.040220592
252	0xbe415f8b	-0.18884103
253	0x3cb41cd6	0.021986406
254	0xbd96c387	-0.07361513
255	0x3e826a28	0.25471616

critic.2.bias f4 [64]
0	0x3b83c75b	0.0040215678
1	0xbc2cca5b	-0.010546292
2	0xbcc04652	-0.023471031
3	0xbc442ad3	-0.011973101
4	0xbb9563b0	-0.004559003
5	0xbc7e539c	-0.015522864
6	0x3c673127	0.01411084
7	0x3b392062	0.0028248061
8	0x3c64a72c	0.0139558725
9	0x3cb2fadc	0.021848135
10	0xbc53ad98	-0.012919806
11	0xbc9dddec	-0.01927086
12	0x3cf2bd11	0.02963117
13	0xbd1818ed	-0.037133146
14	0x3cbe5bbc	0.023237102
15	0xbbf0a453	-0.0073438077
16	0xbbb40731	-0.0054940213
17	0x3bc35c86	0.0059619574
18	0xbb83a9e2	-0.0040180543
19	0x39c4c938	0.00037533953
20	0xbbee23d1	-0.0072674532
21	0xbcd01590	-0.025400907
22	0xbcf0f3ab	-0.029413065
23	0xbbf67aea	-0.0075219767
24	0xbc486340	-0.012230694
25	0x3d5aeb4f	0.053447064
26	0x3cb9c2f0	0.022675961
27	0xbc0ae526	-0.008477485
28	0xbbcc3c4e	-0.006232775
29	0x3cc28c71	0.023748608
30	0xbaa23834	-0.0012376369
31	0xbcf6128b	-0.030038139
32	0xbbc9df82	-0.0061606774
33	0xbc13cfd3	-0.009021717
34	0xbca453f9	-0.020059573
35	0xbcebeab0	-0.028798431
36	0xbaacb3f6	-0.0013176191
37	0x3b3f3ebf	0.0029181687
38	0x3ce6a34e	0.028154042
39	0xb93ba521	-0.00017895225
40	0xbc32f165	-0.010921811
41	0xbc809c0d	-0.01569941
42	0x3bb5f9fb	0.0055534816
43	0xbc87fca4	-0.01659996
44	0x3c515d14	0.012778539
45	0xbc429d50	-0.011878327
46	0xbc6d268f	-0.014474525
47	0xbc15cafe	-0.009142635
48	0xbc4cb7a2	-0.012494953
49	0x3b781836	0.0037856228
50	0xbbd6c90e	-0.0065547293
51	0xbc483493	-0.012219566
52	0xbc7a18e6	-0.015264725
53	0x3bb3f8d9	0.0054923114
54	0x3c292168	0.010322906
55	0x3c8f3ecb	0.017485997
56	0xbbd06d9f	-0.006360724
57	0x3cb45cd5	0.022016922
58	0x3bf9f52c	0.0076281037
59	0xba4e5f33	-0.0007872462
60	0xbc51c620	-0.012803584
61	0xbc4fdd09	-0.012686976
62	0xbc649188	-0.013950713
63	0x3b584c3f	0.003300443

critic.4.weight f4 [1, 64]
0	0xbd6e4994	-0.05817564
1	0xbe2f9f86	-0.17150697
2	0x3dea144f	0.11429655
3	0x3e17ae61	0.14812614
4	0x3da182b6	0.07886259
5	0x3da47487	0.08030038
6	0x3e5ad467	0.21370088
7	0x3d0f7703	0.035025608
8	0xbcd0defa	-0.025496949
9	0xbdbe8ec7	-0.09304576
10	0xbe2ea008	-0.17053235
11	0x3d827034	0.06369057
12	0xbd947be5	-0.072501935
13	0x3e25a5e0	0.16176558
14	0xbd74cb37	-0.059764113
15	0x3da3131b	0.079626285
16	0x3c999522	0.01874787
17	0xbd06f9be	-0.032953016
18	0x3ea0254f	0.31278464
19	0x3e13caae	0.14432785
20	0x3dbff8fc	0.09373662
21	0x3df38aa4	0.11891678
22	0x3d8f8020	0.0700686
23	0xbe9c9266	-0.30580443
24	0xbdecf656	-0.11570422
25	0xbe2a3a60	-0.16623831
26	0xbd439f78	-0.047759503
27	0x3d52f39a	0.051501848
28	0xbe069714	-0.13143569
29	0xbdc198a8	-0.09452945
30	0xbe899cc1	-0.26877406
31	0x3dd27db7	0.102778845
32	0x3e4ad299	0.19806899
33	0x3e60f833	0.2196968
34	0x3d6ca7e2	0.057777293
35	0x3db3848c	0.08765516
36	0x3c9b22c0	0.018937469
37	0x3d8fe061	0.07025219
38	0xbe107586	-0.14107332
39	0xbe31653c	-0.17323774
40	0xbe976b1b	-0.29573902
41	0xbde6648d	-0.11249647
42	0x3e344d74	0.17607671
43	0x3c5771fb	0.013149734
44	0x3d50f852	0.051018067
45	0x3d586ee1	0.052840117
46	0x3ea15aaf	0.315145
47	0xbe9089aa	-0.2823003
48	0x3e1a699c	0.1507935
49	0xbd5e9562	-0.05434168
50	0x3dc9b73e	0.09849404
51	0x3e5f55b7	0.21810041
52	0x3db22467	0.086983494
53	0xbae87b7b	-0.0017736995
54	0xbe158e38	-0.14605033
55	0xbded2e9a	-0.11581154
56	0xbe2961af	-0.1654117
57	0xbccd7bd6	-0.025083464
58	0xbe10c99f	-0.14139412
59	0xbe85c1ca	-0.26124412
60	0xbd2abfc2	-0.04168678
61	0xbe7d5ae2	-0.247417
62	0x3df03c6d	0.11730275
63	0x3e069fb3	0.13146858
