fw_flightcontrol/models/icinco/ppo/gustonly/ppo_bohn_caps_nohist_easymedrefs_gustsonly_4508_06-06_14:43:29.pt (torch, 47159 bytes, 12 tensors)

actor_logstd f4 [1, 2]
00000000: 50b3 873d 4b90 493c
0.06625998 0.0123024685

actor_mean.0.weight f4 [64, 14]
00000000: 57ec 03be 7c4d 8e3d b1d8 8bbe 7c37 ab3d
00000010: 4542 2cbe 71a2 71be c48a bfbd 2df1 213e
00000020: eabd 3e3d 3e1b ef3d d015 71bd 5b80 9cbe
00000030: 6b1d 8cbe f693 89be 9f4d 75bd e102 9e3d
00000040: 837e 3a3e 0bb6 6cbd 95a0 bebd 805b 81be
00000050: 4601 e4be 7183 75bc 2ba5 86bd c015 1c3e
00000060: f4df 23be 4f55 153e a56c d93d 991c 963d
00000070: 2810 1ebc 65b3 e83d 9dfa 613e a210 19be
00000080: 2254 ec3d 24b6 193e 6eb9 c93d 0e8f 673e
00000090: 0d9e d4bb e4e5 7c3d 0c55 6abe 3217 87be
000000a0: 1da9 583e 0b6a 973e 7835 44bd 6671 a6ba
000000b0: a749 50bd 1206 26be a0c8 1fbe 21d9 74be
000000c0: 7757 7abe 03b4 a63e bc74 a03d c7b8 bcbd
000000d0: c72b a4bb a4f0 413e ede4 f53d 11d5 2abe
000000e0: b3dd 623d e437 3f3d 89fb 6dbe 9e39 abbb
000000f0: 3a6e 753e 014a b13e da87 23be eb93 20bc
00000100: 0097 06be 2fed 68bd 6d51 01bf 2219 c7bd
00000110: 388b 903d 86bd 7f3d 79c1 26be 3fe0 503e
00000120: 8f1e 08bf b4c1 693e 1e2e b83e 9912 fcbc
00000130: 9650 333e 4196 72bd 6cae 82bc 9e83 873e
00000140: 40b6 b5bd dac2 5fbe d323 a73d b0f8 d73d
00000150: c480 373d 00ad 4b3c 269a 1a3e 5407 62be
00000160: fcb1 f43d d095 6d3d 28ef 77bd 4e42 01be
00000170: bb36 d1be 79fd d33d 7876 30be 8804 83be
00000180: 7d62 673e d89f 2ebe 6b0a 203e 49ef c4bd
00000190: b70f 36be 8288 08bd 1e22 febd 7a33 4f3e
000001a0: b563 763e 2da5 13bd 9ed8 1e3d 2e10 50bd
000001b0: 285d 173d 4c30 2b3e 53ad 08be f182 743e
000001c0: 43d7 ed3d 02fb ae3d 2eb1 7cbe 3575 53bd
000001d0: 511d 933d 4f31 0fbe ab52 003e 60aa 65bd
000001e0: c5ce 473e 2772 7c3d dd89 d5bd 3ab9 61be
000001f0: 4729 8cbe 9002 dabd 1721 41be 5589 9c3e
00000200: 6967 943b bdf0 51be bdae 90be e02d 33be
00000210: 29b9 87bc 3cf0 1ebf de16 e33c ca7e 8cbd
00000220: f202 513d 60be a7be 58fe 7d3d ee9d cbbc
00000230: d16a 1dbe 2e1f 813c 1ff6 0f3e 5ea1 7ebe
00000240: 20cd bfbc 5c94 6e3c f16b 70bc ee1c 203e
00000250: 6383 953e 7e54 d53e f5a6 93bd 8379 d93d
00000260: 5b20 343e 1a04 0d3e 5fa7 103e fbe0 78be
00000270: 49a6 88be 4a68 723c af07 543e c8ff 9ebd
00000280: ad44 0dbe bfc2 153e ecab ce3c d3b0 ce3d
00000290: 463e 983e cee0 e13d 32e3 d3bd 36f7 a73c
000002a0: 14a8 41be d0bd b0bd a681 083e f071 133e
000002b0: c1fb e43d 976e 1f3e 59fe 883c 693d 80be
000002c0: f35a 0dbd 17ce 1bbe 44a2 a03e a18c 27be
000002d0: 91e8 8e3d 8de0 4b3e 5fbf 74bd 8e2f a73e
000002e0: da53 853a 938c 7c3e e0cc 423e 1384 cbbe
000002f0: fbaa 803e 1667 0ebf 93ef 6b3e a314 04be
00000300: 90e1 f73c 810a 1cbe 3e0f ab3e ef4f 2dbe
00000310: c363 3a3e 690c a33e 476e c3ba 405a 993e
00000320: c382 5ebe b7bd eabd abe9 97be b5c4 1bbe
00000330: f9e1 7abe db0b 8d3d 7dcf da3e 659e f53d
00000340: 2cee d73d 0165 8cbd 006c 523c 94e3 a93d
00000350: 2527 253c a38c 0d3e 5e56 9c3d a16c 83be
00000360: f145 453b 1d60 2c3e 20dc 83be ba41 283e
00000370: 0276 3f3e 89ee 99be 0f69 28bd 5e7b e63e
00000380: 0b1d 04bd 2701 d2be eb15 66bc da2f 963d
00000390: 75e6 153d 95db 773b b800 38bd 046f 09be
000003a0: 1cb5 703d 0f2b c3bd 442f bbbd 85a7 b8be
000003b0: 4439 fdbc 5a6d 173e 1f72 393e 8550 36be
000003c0: d3d3 983e 30e3 753e f7b4 49be c086 393d
000003d0: bce6 e3bd 9c4a b93d c8dc cb3d 0b1c 42bb
000003e0: 1f43 8cbd de6f 9b3d 4366 2b3e a69b 803d
000003f0: e2ea 33be 2e8a 95be ca84 efba bbe8 dabd
-0.12883125 0.06948373 -0.2731376 0.08360192 -0.16822155 -0.23597123 -0.09352639 0.15814658
0.046567835 0.11675118 -0.058858693 -0.30566677 -0.27366194 -0.26870698 -0.05988848 0.07715393
0.18212323 -0.057790797 -0.09307972 -0.2526512 -0.44532222 -0.014984951 -0.06574472 0.15242672
-0.160034 0.14583324 0.106164254 0.07329673 -0.009647407 0.11362342 0.22068258 -0.14947751
0.115394846 0.15010887 0.09849821 0.22613165 -0.0064885677 0.06174268 -0.22884005 -0.26384884
0.21158262 0.29573092 -0.047902554 -0.001269859 -0.05085149 -0.16213253 -0.15603876 -0.23910953
-0.24447428 0.32559213 0.07834765 -0.09214931 -0.0050101015 0.18939453 0.12006555 -0.16682841
0.05538721 0.04668416 -0.23240484 -0.0052253744 0.2396783 0.34626773 -0.15969792 -0.009800891
-0.1314354 -0.05686682 -0.5051487 -0.097215906 0.07057804 0.062436603 -0.16284741 0.20398043
-0.5317163 0.22827798 0.35972685 -0.030770587 0.1751121 -0.059225325 -0.015952311 0.26467603
-0.08872652 -0.21851674 0.0816113 0.1054548 0.044800535 0.012431383 0.15097865 -0.22073108
0.1194801 0.0580042 -0.06053081 -0.1262295 -0.4086207 0.103510804 -0.17232692 -0.25589395
0.22596164 -0.17053163 0.15628974 -0.096159525 -0.17779432 -0.03333331 -0.12408851 0.2023448
0.24061473 -0.036046196 0.0387808 -0.05079668 0.036954075 0.16717643 -0.13347368 0.23878075
0.116133235 0.0854397 -0.24676964 -0.05162545 0.07183326 -0.13983653 0.12531535 -0.056070685
0.1951247 0.0616323 -0.10426686 -0.22043315 -0.27375242 -0.1064502 -0.18860279 0.30573526
0.004528929 -0.2050199 -0.28258315 -0.17497969 -0.016567783 -0.6208532 0.027720865 -0.068601206
0.0510282 -0.32762432 0.06201014 -0.02485558 -0.15372778 0.015761938 0.14058731 -0.24866244
-0.02341324 0.014561739 -0.014674173 0.15636036 0.29201803 0.41666025 -0.07209579 0.1061888
0.17590468 0.13771096 0.14126347 -0.24304573 -0.26689366 0.014795372 0.20706056 -0.0776363
-0.13795729 0.14625071 0.025228463 0.1009232 0.2973501 0.11029206 -0.103460684 0.020503622
-0.18911773 -0.08629954 0.13330707 0.14398932 0.11180831 0.1556953 0.016722845 -0.25046852
-0.034510564 -0.15215336 0.313738 -0.1636224 0.06977952 0.19909878 -0.05975282 0.3265347
0.0010172084 0.24663 0.19023466 -0.39749202 0.25130448 -0.55626047 0.23040609 -0.12898497
0.030258924 -0.15238382 0.33410066 -0.16925023 0.18202119 0.31845406 -0.0014910185 0.29951668
-0.21729569 -0.114619665 -0.29670462 -0.15211757 -0.24500264 0.06887027 0.42736426 0.11993102
0.105434746 -0.068552025 0.012843132 0.0829536 0.010080134 0.1382318 0.07633661 -0.25668815
0.0030101503 0.1683354 -0.2575388 0.16431323 0.1869736 -0.300648 -0.041115817 0.45015997
-0.03225426 -0.41016504 -0.014043312 0.07333346 0.036596734 0.003782009 -0.04492256 -0.13421255
0.05876647 -0.09529697 -0.091398746 -0.36065307 -0.030911095 0.14787808 0.1810994 -0.17804153
0.2984911 0.24012446 -0.19697939 0.045294523 -0.111279935 0.09047434 0.0995422 -0.0029618766
-0.0684874 0.07589696 0.16738228 0.062796876 -0.1757007 -0.29206985 -0.0018273827 -0.10688921

actor_mean.0.bias f4 [64]
00000000: cbf2 363c 4d44 f63b 76b6 933b a10a 853c
00000010: 8a49 6bba b656 4237 ee92 8a3b be79 013c
00000020: 9fb5 68bb 0fb1 98bd 4b9b 9e3b 5608 0abb
00000030: 7158 013b ea9a 8abd 2f26 07bc 3d76 bbbb
00000040: cd80 5b3b 75fb 2dba a50c 3a3c 62d7 24bd
00000050: a694 af3a d3c0 8b3d 97c7 61bb 75b6 edbc
00000060: 1f5e ef3c 4ad8 dd3a 0d4d 0ebb df1b a8b9
00000070: 1b37 c6b9 76eb 173c 5541 82bc 1b33 ddb9
00000080: e6d3 75bb 5dba 55bd dbed d7bc 3e36 c9bb
00000090: a5dc ec3a a3d5 62bd 2463 813b 0b67 f839
000000a0: 6345 4f3c c53a 163c 45ce 463d 042d 0ebb
000000b0: 699f ef3b 4ce7 223c 86b2 c63d a760 09bd
000000c0: db79 39bc c53a 013d 79b3 4cbc 54a1 a23b
000000d0: c967 de3b 884a d33a fdab f2bc 81b2 4c38
000000e0: 200d 393d 757b 053c c1c1 2dbc c651 85bb
000000f0: a8b4 293c 8ea9 ce3b 5e7d a43b 9c80 d3ba
0.011166285 0.0075154663 0.004507835 0.01624042 -0.0008975497 1.158349e-05 0.004228941 0.007902561
-0.0035508645 -0.07455646 0.0048402897 -0.0021062098 0.0019736553 -0.06767829 -0.00824885 -0.005720882
0.003349352 -0.0006636896 0.011355554 -0.040244468 0.0013395741 0.06823888 -0.003445124 -0.029017666
0.029219685 0.0016925421 -0.0021713406 -0.00032064223 -0.0003780656 0.009272447 -0.015900293 -0.0004219048
-0.0037510335 -0.052179683 -0.026358536 -0.0061404994 0.0018071128 -0.05537952 0.003948586 0.0004737902
0.01265082 0.009169285 0.048536558 -0.0021694312 0.0073127043 0.009942841 0.097020194 -0.03353944
-0.0113205565 0.031550188 -0.0124939615 0.0049630795 0.0067872745 0.0016120235 -0.029623026 4.8803635e-05
0.045178533 0.00814711 -0.010605277 -0.004068586 0.010358013 0.0063068336 0.0050198277 -0.0016136351

actor_mean.2.weight f4 [64, 64]
00000000: f35b 703e 6e93 b33c de31 683e 6b9d d3bc
00000010: 5a7b 7dbe f31a 1d3c db13 27bd a56b db3d
00000020: 6ff1 d13e 98d1 28be 82c9 723e 53bb 13bd
00000030: 7783 d4bd 0901 6bbd a431 a83d c106 8e3e
00000040: 4b59 b0be d89d e2bd 577d 8f3e 07ab b7be
00000050: d571 02bd 5472 99bd 8bcf 8d3d 29c9 5bbd
00000060: 5ecb cb3e e3a9 8e3c 5f11 803e 4c75 e3bd
00000070: 7989 a1bc 014d 9ebd 367d 503b 49f4 85be
00000080: d80a 6a3e 4d51 d7bd e133 cb3c 9d0f e5bd
00000090: fef0 96bd 30f4 4a3e 995e 31bd f284 73bd
000000a0: 37d9 febd 7c3f f7bd 01fc 243e 7e6b 85be
000000b0: 5f69 353e 249a 6abe 457b cfbc 042a e0bd
000000c0: 2d46 38be 02ca 16bd fa86 b2bc 03a4 94bd
000000d0: cb76 033e 0cc3 91be 99c1 d33d bf33 fc3d
000000e0: 5a45 8d3b c089 a2bd 4c49 ec3e 66a6 8cbd
000000f0: 1634 5b3e 6254 bd3d e20a 87be 49b7 6abc
00000100: a32b 4e3e 3fab e63d c6a7 ba3e 97fc 783d
00000110: ea8a af3e deee 263e 9ddc 1e3e 962a 41be
00000120: 35c8 fc3c 0efe 2fbd 94cd 083e bfd2 0abe
00000130: e3f0 983d 77ec 8b3e e95c 1abe 85e8 cc3c
00000140: 3810 12be b124 87bd 019a 3f3e afb2 8bbd
00000150: 3345 823d 82fc 363d 7043 76bb 45f0 18be
00000160: 508f 8fbe 53ff 6c3e 9e35 d1bc 0057 7bbe
00000170: 4056 853e a797 00bd 5aee f4bd 1b84 e9be
00000180: fce5 423b 350f b63e 2883 9bbe 06fa 46be
00000190: d0b1 c3bd 2ba4 dbbe f949 c7bd aee8 01be
000001a0: 5a8e 673e 3511 c23c 17a8 8e3e 514a 38be
000001b0: 0399 fe3d 4745 7f3d 66d8 18be abbc c6be
000001c0: afac 303e e7fe 193e 910d 213e 36a6 783d
000001d0: 5910 9cbe 2ef5 8b3e d764 0b3e d876 d5bc
000001e0: b102 22be 05b7 2a3c 057a 9abe a2d5 6c3d
000001f0: 6ab2 3cbe e0ee 1c3d acc0 003e 7290 01be
00000200: b8d8 4ebd 8173 d0be 02f0 8d3d 841b 4a3e
00000210: a9cb 943e 70da c8bd 17b1 913d 7af7 813e
00000220: d7fe c53c 92be 00be 90fc 263e 347c d7bd
00000230: bb56 2dbd 1478 64bd ec60 c43e 05d7 0c3d
00000240: e7e8 69bd ff51 853e fa4b 763c 9370 9fbd
00000250: 6e76 a2bd 2c01 62be 2f1c cebd 09e2 0cbe
00000260: 90c2 b73e 2082 a23e 48f1 1a3e 555d 0e3e
00000270: 7f57 253e 5d33 cd3e 7b7a 533e 46c2 a0be
00000280: e4ea f4bd 6260 a1be 3014 553e c054 523c
00000290: 184b bebc 8073 263e 5dea ba3d 99ec 643e
000002a0: ce9e b93c 3315 963e 8f01 07be 4b39 b93e
000002b0: eea7 e53d 4bcb 4d3b f333 77bd abb0 a3bc
000002c0: 7069 91be 7d52 50bd b773 653e ce5b 5d3e
000002d0: 7274 5e3d 853d 673d 105b 32be 259f ad38
000002e0: cb7a d23d 2790 2dbe 480d 963d 0e8f 73bd
000002f0: f5e5 28be a2d9 03bd 2706 ae3e 1477 1b3e
00000300: 67ad 3fbe d48e d7bd 5d89 943d 205b 3b3e
00000310: 383f 2b3e c7f2 eb3c 323d 763d 0217 423e
00000320: a286 a0bd e090 95be 2427 03bd 9703 873c
00000330: d26c 3bbe 2a58 1e3e 39de 83be 4f3e 183d
00000340: 29a5 96be ae20 12be f6f2 013e dd49 8b3c
00000350: 38c1 193e 57cd ae3e 2f1c 35be 4380 4c3e
00000360: 94ce a7be 5e02 81bb daf8 c0bd 4084 d13d
00000370: 7ac6 3cbe c94c 9abe 04f5 b7bd aa10 2ebe
00000380: 2901 5abe 32d1 48be 2347 2bbe 6335 9a3d
00000390: 9b7c 32bd 7e11 873d b59d e5be d278 81bd
000003a0: 7c83 d8be 3373 4b3e c85b 563e 2554 903d
000003b0: 6459 bb3e 3242 973e a177 943d bb9c c63d
000003c0: 8a00 0abd 491d 8e3d 78ca 9f3d 1b80 c33d
000003d0: 527d 743e 95c9 debd 41a6 39be 90d7 933e
000003e0: f815 ee3d 084b 42be e421 d0bd 1087 51be
000003f0: f564 45bd 15dc 81bd 4935 92bc d829 e8bd
0.23472576 0.021920886 0.22675273 -0.025831899 -0.24754086 0.009588945 -0.04079042 0.10713891
0.41004512 -0.16486204 0.23709682 -0.03606732 -0.103766374 -0.057374034 0.08212593 0.27739528
-0.34443125 -0.110652626 0.28025314 -0.3587267 -0.03184684 -0.074925095 0.06924351 -0.05365864
0.39803594 0.017414993 0.25013253 -0.11106357 -0.019718872 -0.07729531 0.0031812913 -0.26162937
0.22855699 -0.10513554 0.024805011 -0.111846186 -0.07370184 0.19819713 -0.043303106 -0.05945296
-0.12443774 -0.120726556 0.16111757 -0.26058573 0.17715977 -0.22910362 -0.025327334 -0.10945514
-0.1799552 -0.036813743 -0.021792877 -0.07257845 0.12838285 -0.2846912 0.1033966 0.12314557
0.004311246 -0.0793643 0.4614967 -0.068676755 0.21406588 0.0924461 -0.2637549 -0.014325925
0.20133834 0.11263131 0.36456126 0.060787763 0.3428567 0.16302058 0.15513845 -0.18863901
0.030857185 -0.042966895 0.13359672 -0.13556956 0.074678205 0.27328846 -0.15074505 0.025013218
-0.14264 -0.06598795 0.18711092 -0.068211906 0.06360855 0.044674404 -0.0037576817 -0.14935406
-0.28039026 0.23144273 -0.025538262 -0.24544907 0.26042366 -0.031394627 -0.119595245 -0.456086
0.0029739132 0.35558477 -0.30373502 -0.19431314 -0.095553994 -0.42898688 -0.09730906 -0.12686417
0.22612897 0.023689846 0.27862617 -0.179971 0.124315284 0.062321927 -0.149263 -0.38815817
0.17253374 0.15038644 0.15727831 0.060705386 -0.30481222 0.27335495 0.13612686 -0.026057646
-0.15821339 0.010419612 -0.3017122 0.057820924 -0.18427435 0.038313746 0.12573498 -0.12652758
-0.050499648 -0.40713122 0.069305435 0.19737059 0.2906163 -0.09807289 0.07113855 0.25384122
0.024169369 -0.12572697 0.16307282 -0.10521737 -0.04231904 -0.055778578 0.38355196 0.034384746
-0.05710688 0.2603912 0.015032763 -0.07785144 -0.07932745 -0.2207076 -0.10063969 -0.137581
0.35890627 0.31739902 0.15131104 0.13902791 0.16146658 0.4007825 0.20652191 -0.3139822
-0.11958864 -0.31518847 0.20808482 0.012837589 -0.023229167 0.16254997 0.091267325 0.2235588
0.022658732 0.2931305 -0.13184188 0.36176524 0.11213671 0.003140169 -0.060352277 -0.019981703
-0.28400755 -0.050859917 0.22407423 0.21617052 0.05431027 0.056455154 -0.1741755 8.278926e-05
0.10277327 -0.16949521 0.07326752 -0.0594626 -0.16493972 -0.032189973 0.3398907 0.15182143
-0.18718491 -0.10525289 0.072527625 0.1829648 0.16723335 0.028802289 0.060116954 0.1895409
-0.07838179 -0.29212093 -0.03201975 0.016481204 -0.1830323 0.1546332 -0.2575548 0.037168797
-0.29422882 -0.14270279 0.12690338 0.017002994 0.15015113 0.34141037 -0.17686532 0.19970803
-0.32774794 -0.00393705 -0.09422465 0.10230303 -0.18435088 -0.30136707 -0.0898228 -0.16998544
-0.21289505 -0.19611052 -0.16726355 0.07529714 -0.043575864 0.06595133 -0.44846883 -0.06321873
-0.42287815 0.19868164 0.2093345 0.07047299 0.36591637 0.2954269 0.0724938 0.09697863
-0.03369192 0.069391795 0.0780229 0.095459186 0.23875931 -0.108782925 -0.18129827 0.288754
0.11625284 -0.18973935 -0.10162714 -0.20461679 -0.048191983 -0.063408054 -0.017847674 -0.11336106

actor_mean.2.bias f4 [64]
00000000: 0853 adbb 6dcd ec3c aa1b f33b e8c8 c03b
00000010: d805 50bc c24f c43c 4d75 ecba ff6e fabb
00000020: 2a33 4b3c 02ea 8abc 9bd6 0e3d 7cd4 003d
00000030: cbad 83bc cc2a 003b a30e e8bc 424e 52bc
00000040: 4d1c 773c b981 9abc 43ae 36bc 5dcd 49bc
00000050: 93df b0bb f779 cf3c 9187 2e3d 4843 0b3c
00000060: 2618 b43b 8f35 6ebc e85c 93bc a6e6 113b
00000070: d156 c03c 7eac 8fb9 8548 113c 5c45 e63b
00000080: b2cb cb3c 9f28 8e3b 296d 413c bd9e b63b
00000090: 4f00 e73c 55c6 e13c 005f 053c c9a7 36bc
000000a0: f6ad 99ba 1518 743d 7c0e 20bc 1605 c1bc
000000b0: 7a92 16bc 5ce1 583b 3f82 67bc 696c a2bc
000000c0: 933e 57bd cce1 2c3d 12e5 783c f18f 8e3c
000000d0: b390 6a3d 8fd3 4abc a417 a9bc 8f43 0b3c
000000e0: aa0e d93c 3d18 2ebc 470b f1bc 3bc1 1b3d
000000f0: bc8d aa3c 1867 a6bc fc4a b1bc c3ea 453b
-0.005289439 0.028906548 0.0074190693 0.005883325 -0.012696706 0.023963813 -0.001804033 -0.0076426263
0.012402335 -0.016957287 0.034872632 0.03145264 -0.016074082 0.001955676 -0.028327292 -0.012836041
0.015082431 -0.018860685 -0.011149946 -0.012317029 -0.005397746 0.025326712 0.042609755 0.008499928
0.005496043 -0.014539137 -0.017988637 0.0022262721 0.023478897 -0.00027403602 0.008867388 0.0070273113
0.024877403 0.0043383385 0.011805811 0.0055731223 0.02819839 0.027560392 0.008140326 -0.011148402
-0.0011724818 0.05959328 -0.009769078 -0.023561995 -0.009190196 0.003309331 -0.014130174 -0.019827085
-0.05254991 0.042207524 0.015191333 0.017402621 0.057266902 -0.012379541 -0.020641156 0.008499994
0.02649625 -0.010625896 -0.029424323 0.038026076 0.020819537 -0.02031283 -0.0216422 0.0030199743

actor_mean.4.weight f4 [2, 64]
00000000: 70fd d9bc 251f 4b3e 2860 27be a176 003d
00000010: 1985 dd3d 3e1d 4abc a209 80bc cef3 b6bd
00000020: 8183 6e3d b248 2ebe d22e b4bc b744 ac3d
00000030: cddc c43d c035 843d a748 e93d fca5 d53a
00000040: 377f 0d3e d74f 0ebe 444c 6d3c a27f c6bd
00000050: 3a89 e6bd 24d9 38bd 0c5a 313c 4188 763a
00000060: 0c78 febc c82c 93bd 0745 83bb fa2d 343e
00000070: b888 ed3c 08ae fcbc be8d ecbc 5939 7d3d
00000080: 7635 893b a58b 4fbb 9dc8 ae3b 22f6 f7bd
00000090: 14c4 03bc 5eb7 f43d 1ac4 043e a763 7bbd
000000a0: 8fdb f93c 335b 853c 53cc dd3d a871 44bd
000000b0: 53cd a5bd da6e ecbd 1c20 bf3c f28b 14bc
000000c0: 85f7 9ebd 1b0d 073e 8f79 c73d c0af 5fb9
000000d0: 8704 cb3d 8049 d8bd 13ac 273e a8fc 133e
000000e0: 1600 c13d deb2 53bd feb4 89bd a441 95bc
000000f0: 431c 9d3d a520 1d3e 8e11 563d e1d0 9c3c
00000100: 07f0 02bd 69b0 f3bc 00e7 b3bd 4b3e aebd
00000110: 9db1 2fbd cfc4 bb3d 12fe 9fbd c963 c0bd
00000120: 8362 203c a49d a8bd 2490 733d a869 313d
00000130: 9a59 d2bd a3d9 9c3d f34a 02bd 8458 1a3a
00000140: a9fb a1bc 1423 e5bd 5bf6 2d3d 0b16 60bc
00000150: 73d4 c0bd 22cc 9fbd 5ab0 fe3a eadf b4bd
00000160: fd7f 4d3e 3d2a e1bd 11f3 5b3b da63 963d
00000170: fbd5 0e3e 7008 113b 884a ac3d 2ac7 f83d
00000180: 28dd bebd 2d2b 39be f2b6 0a3b 8da2 c13d
00000190: 21dc 8b3d a335 d63c 0558 1cba 5b6a 213e
000001a0: f92c 233e a744 633d 0070 8f3d 85d8 413b
000001b0: 8058 043e 235c b83d 409c 3a3b a7f1 28bc
000001c0: 3ac5 07bc 835a 8abd e0c4 36be 8c13 c3b9
000001d0: ca31 793d 155b af3d ebb5 05be 4920 b53d
000001e0: 976a 33bd 0663 643d 03e4 71ba 558c 52bd
000001f0: 60cb 47bd c9c0 74bd 67d3 0d3e c274 3c3b
-0.026610106 0.198361 -0.16345274 0.031363133 0.10816402 -0.012336073 -0.015629593 -0.08933221
0.05823088 -0.17019919 -0.021994982 0.08411544 0.09612427 0.064555645 0.113908105 0.0016300078
0.1381806 -0.13897644 0.014483515 -0.09692313 -0.11256643 -0.045128956 0.0108246915 0.00094044587
-0.031063102 -0.07186276 -0.0040060314 0.17595664 0.028995857 -0.030844703 -0.028876182 0.06182227
0.0041872812 -0.0031668928 0.0053339736 -0.12107493 -0.008042354 0.11949037 0.12965432 -0.061374333
0.030500202 0.016278839 0.108299874 -0.047959954 -0.08095803 -0.11544581 0.02333074 -0.009066569
-0.07762054 0.13188593 0.09739982 -0.00021332409 0.09912973 -0.10560894 0.16374235 0.1445185
0.094238445 -0.051684253 -0.06723975 -0.018219776 0.07671406 0.15344484 0.052262835 0.01914257
-0.03196719 -0.029747205 -0.08784294 -0.08507975 -0.042893995 0.09168398 -0.07812132 -0.093940325
0.009789112 -0.082331926 0.059463635 0.043313652 -0.102709964 0.076586984 -0.03180976 0.00058878236
-0.019773321 -0.11188331 0.04247127 -0.01367713 -0.094155215 -0.07802607 0.0019431219 -0.08831771
0.20068355 -0.109943844 0.0033561627 0.07343264 0.13948815 0.0022130273 0.08412653 0.121473625
-0.09319526 -0.18082877 0.0021166173 0.09454832 0.06829096 0.026148623 -0.00059640437 0.15763228
0.15935124 0.055485394 0.07003784 0.0029578519 0.12924385 0.09001949 0.002847448 -0.010311521
-0.008286769 -0.06755545 -0.1784854 -0.00037207862 0.0608385 0.085622944 -0.13057677 0.088440485
-0.043802824 0.0557585 -0.0009227397 -0.051403362 -0.048777938 -0.059754167 0.13850175 0.0028756117

actor_mean.4.bias f4 [2]
00000000: 4748 9abb 0f8f d738
-0.004708323 0.00010278646

critic.0.weight f4 [64, 14]
00000000: f6bd 3abe 9549 81be 8ea1 dc3c fa8f 943b
00000010: bc44 00be 56f3 09be 70de cdbd 8d46 433e
00000020: 8fd3 02be 0f9b 813e 5e54 26be 993d 2dbd
00000030: a0da d83c 5d9f c53d 8942 ba3e b57e a3bd
00000040: 22c0 403e 70ec 463e fe08 1dbe 70ca 653e
00000050: 11b8 373e 6c1f 3b3e 0ca7 4bbe 0ef4 b53d
00000060: 7b9a f53d cb6f e73b d22a 3fbe 2b96 2e3e
00000070: 35bb 8b3d da3c 853e 5fdd ae3e 87db 9ebe
00000080: a48d 54be 5030 6e3c 1e63 43bb f037 44be
00000090: e0fe ae3e c46d bf3e bf5f f1bd 85a8 a1be
000000a0: d98a 32be d54a 91be 4412 0f3e 9666 253d
000000b0: 8d29 cd3c 4f91 123e baa5 b7be efbc 453e
000000c0: 0d51 023c 57c6 a23c abde 063e a8ef 153d
000000d0: f477 cfbd c9ad dfbd debc 053d 2439 503e
000000e0: dc42 003e c67c a9be 8188 70be c44f edbd
000000f0: 7e5f 0f3e 6e61 793e 866d 1dbe 1ce0 c3bd
00000100: bb4e c2bc 3c71 3cbd 57c9 e7bd 9ff8 423e
00000110: be3a 8bbd 82f2 84be 6b58 a33d 5f7b 523e
00000120: 3352 8e3b c535 5bbd 7b81 8dbc d7c2 30bd
00000130: b55b bfbe 1e7d 3d3e 0cc5 fd3c 032c 59be
00000140: 43e7 6b3d ed89 29bc 38a3 8bbd fa64 933e
00000150: 2e0e 85bc 24c3 d6bd 07e3 bbbe d3b1 0bbe
00000160: 65d3 2d3e eb00 e7bd d821 213e fb24 2b3d
00000170: 400a 9dbc 0d3d 133e e684 efbd 6006 10be
00000180: d8c3 3dbe 4699 b63d 52e2 133e facc 9bbe
00000190: 6e94 1dbc a670 57be 0713 89bd 306f 51be
000001a0: 7e2d fc3c beca 83bd 240e f93d 07fb da3d
000001b0: 439d bb3d 2156 f13d 7869 a13a 302b c13d
000001c0: 04d5 60be d89c 43be 6c13 be3d 4511 8cbe
000001d0: a8cc 0ebe 2ae2 d0be 638f fc3d f9fe 44be
000001e0: 0748 5bbe f6cf 22be 476e b93d c1b1 993c
000001f0: 4195 6ebe 8887 bcbd cba0 453e bd11 433e
00000200: 2e5b 94be 2644 e8be 3261 a33e 2e0a b03d
00000210: 75fc 193e e29e c33d df7b b73d fac6 5abe
00000220: d3a3 303e 70e6 a0bd 87e5 2abd 8635 783d
00000230: e821 ee3e c7d8 173e fd53 29bc be67 ff3d
00000240: 6839 12bd f620 cb3d 8e06 313c 6ad7 943e
00000250: 22cf d4be 7d36 5bbe 6c57 6abc 4732 45bd
00000260: c7e1 10bf 0fb5 7dbe 1d6a 283d bfd9 723e
00000270: 69b4 87bd 2f19 9f3d 06be a9bc 243b 88b9
00000280: e1fe 74be 8dc7 5f3e 805c bd3e ec0a bb3d
00000290: 9870 4dbe b0d7 943e d6d6 0b3e 8133 8dbe
000002a0: c20e 893e 85e6 093e 0ec9 603e c938 28be
000002b0: 8c7b e13d ecde b83c a076 9c3e c0c8 103a
000002c0: 8393 323e 8c6d a6be 75b0 533d 90bd 093d
000002d0: 9c7e 69bd 09bb 2b3e 4afc a23e 0dcb 793e
000002e0: b59a 68be 3af2 08bd 70a6 173d 6096 503d
000002f0: d7f5 173e 8a81 f0bc 58ca 97be 3b91 c13d
00000300: d04d 0c3e 6f9c dbbb ed20 4b3e d3a6 22be
00000310: 1a9f 083d 215c 363d fe92 803e a91b b6be
00000320: 9e71 183c f1a6 853e 855b 47be bbde a33e
00000330: d392 c7be 3277 443c c2cc 883d 52d9 af3d
00000340: ec7e 66be f876 05bd a5cc c43d 3132 c53d
00000350: 3138 fd3d 882b 113e 09dd 47be 63e4 993d
00000360: c340 62bd ff6e 8f3e 92c3 8c3d 288f bd3a
00000370: c739 633d 6438 113e 7b63 18be 819a 8abe
00000380: 2196 c13d 9793 3fbd d90f d9be e538 d5bd
00000390: 4d24 94be 4fcd 613e 701c 563e 44b2 3f3c
000003a0: 18fe 5f3d 0b81 b13d 37d8 72bd 67f4 0abe
000003b0: ece2 133e e723 883d 0702 a53e 2ea2 4e3e
000003c0: 783c 60bd 5f6e 1c3e 9d20 2bbe 30d7 583e
000003d0: 936c 29be c531 943d d409 cbbd ef3e cc3d
000003e0: a79d 66be 35c8 e5bc a028 13be 37b8 493e
000003f0: 4ff7 463d 270e 1abc 82f3 9dbe 93bd 3f3d
-0.18236527 -0.2525145 0.026932504 0.004533765 -0.1252622 -0.13471732 -0.10052192 0.19069882
-0.12776016 0.25313613 -0.16243121 -0.042295072 0.026471436 0.09649537 0.36378887 -0.07983152
0.18823293 0.19426131 -0.15335461 0.22440505 0.1794131 0.18273705 -0.19887942 0.0888444
0.119923554 0.0070628873 -0.18668678 0.17049472 0.06822816 0.2602299 0.34153268 -0.3102686
-0.20757157 0.014537886 -0.0029813717 -0.19161963 0.3417883 0.37388432 -0.1178584 -0.31573883
-0.17435779 -0.28377405 0.13971812 0.040381037 0.025044227 0.14313243 -0.35868627 0.19310354
0.007953894 0.019869966 0.13170879 0.036605507 -0.10130301 -0.10921819 0.03265082 0.20334297
0.12525505 -0.33103007 -0.23489572 -0.1158748 0.14001271 0.24353573 -0.15373811 -0.0956423
-0.023719182 -0.046006426 -0.113176994 0.19040154 -0.067983136 -0.2596627 0.07975849 0.20554875
0.004343295 -0.053518075 -0.017273655 -0.043154564 -0.37374654 0.1850476 0.030977748 -0.21208195
0.057593595 -0.0103478255 -0.06818241 0.28787977 -0.016242113 -0.10486439 -0.36696646 -0.13642053
0.16975172 -0.11279472 0.15735567 0.041783314 -0.019169927 0.14378758 -0.1169527 -0.14064932
-0.1853174 0.08915953 0.14441803 -0.30429822 -0.009617908 -0.21039066 -0.06693082 -0.20452571
0.030783411 -0.064351544 0.121609 0.10692411 0.09160855 0.11784006 0.0012314757 0.094320655
-0.21956259 -0.191028 0.09281048 -0.27356926 -0.13945258 -0.4079755 0.12332036 -0.1923789
-0.21414195 -0.15899643 0.09054237 0.018761517 -0.23299123 -0.09205538 0.19299619 0.19049735
-0.28975815 -0.45364493 0.31910092 0.085956916 0.15037711 0.09551789 0.089591734 -0.21364966
0.17249994 -0.078564525 -0.0417228 0.06059792 0.46510243 0.14828788 -0.010334966 0.12470959
-0.035699278 0.09918396 0.010804785 0.29070598 -0.4156428 -0.21407504 -0.01430307 -0.04814365
-0.5659451 -0.247761 0.041116823 0.23715876 -0.066262074 0.07768475 -0.020720493 -0.00025984005
-0.23925354 0.21853466 0.36984634 0.091329426 -0.20062482 0.29070807 0.13656172 -0.27578357
0.26769072 0.13466842 0.21951696 -0.16427912 0.11009893 0.022567235 0.30559254 0.0005523078
0.17439084 -0.32505453 0.051681954 0.033628047 -0.05700551 0.16770567 0.31833106 0.24393864
-0.22715266 -0.03343413 0.03702396 0.05092466 0.14839874 -0.029358644 -0.29646564 0.09451529
0.13701558 -0.006701998 0.19836779 -0.15883951 0.033354856 0.044521455 0.25112146 -0.35567978
0.009304432 0.2610393 -0.19468506 0.32005867 -0.38979205 0.011991309 0.066796795 0.085863724
-0.22509354 -0.03258416 0.09609345 0.09628714 0.12364233 0.14176762 -0.19517912 0.075142644
-0.055237543 0.2801437 0.068732396 0.001446222 0.055475023 0.14181668 -0.14881699 -0.27071002
0.09452463 -0.046771612 -0.42394903 -0.104112424 -0.28933945 0.22050975 0.20909286 0.011700217
0.054685682 0.08667191 -0.05928823 -0.13569795 0.14442033 0.06647473 0.3222811 0.20179054
-0.054745167 0.15276478 -0.1671166 0.21175838 -0.16545324 0.07236055 -0.09913984 0.09972941
-0.22521077 -0.028049568 -0.14370966 0.19699179 0.048575696 -0.009402788 -0.30849844 0.04681165

critic.0.bias f4 [64]
00000000: 66df 3a3c 869a 893b 24b5 b3b9 7030 a4bc
00000010: 1d6f a6b8 c5fb d8bd db4d abb9 b8ad b03d
00000020: 6baa 013d e6ee 8f38 7ad7 a73a f83c 913a
00000030: a97a ea3a b2fa 63b9 b2c4 baba 7687 363a
00000040: b1f0 4b38 aa26 10bc 3fd2 15b9 0318 1a3a
00000050: d82c 1e3b 5f9f 97b9 8905 f73b 7a4b c6ba
00000060: ae01 e5bd 0c1c b43b b510 88bb 3629 dfba
00000070: 9048 f93d f236 3cbb 5fef db3b 4971 a23c
00000080: b5dd b2bd bbca e43b 32e5 89b5 c346 c63d
00000090: 11f6 3b3a 2fbb 7dbc aa84 6d3c f356 0fbb
000000a0: 81d4 ac3b 6fa7 083a fc49 583d 5321 05b9
000000b0: 946d eb3c ee96 2dbd 25bc 853d 0758 0bba
000000c0: a919 c43c 3525 66bd 40cf 743d 2f4e a8bb
000000d0: 3e2e d93c df04 0cbc 71e8 9739 f716 f33a
000000e0: 4f57 023c 9f83 7bbd be39 01be 311f 7db9
000000f0: a86f e0bb 50ee 99bd 4246 803d 61c1 243d
0.011405801 0.004199329 -0.000342765 -0.020042628 -7.936193e-05 -0.10594896 -0.00032673668 0.08626884
0.031656664 6.86327e-05 0.0012805306 0.0011080792 0.0017889339 -0.00021741798 -0.0014249294 0.0006962934
4.8623133e-05 -0.008798281 -0.0001428807 0.0005878212 0.0024135616 -0.00028919705 0.0075385016 -0.0015128695
-0.11181961 0.0054965075 -0.0041523823 -0.0017025832 0.12172043 -0.0028719273 0.006711885 0.01982941
-0.087336935 0.006982175 -1.0274e-06 0.096814655 0.00071701506 -0.015486523 0.014496962 -0.0021871894
0.005274356 0.0005212938 0.052804932 -0.00012696283 0.028738774 -0.042380266 0.06530026 -0.00053155463
0.023938017 -0.056187827 0.05976796 -0.0051362733 0.026511308 -0.008546083 0.00028974147 0.0018546273
0.007955386 -0.06140482 -0.12619683 -0.0002413958 -0.006849248 -0.075161576 0.062634006 0.040223483

critic.2.weight f4 [64, 64]
00000000: 34b9 e739 f17e 123d 9034 86be 06bd bcbe
00000010: effb 7b3d 11ce 353e 9264 24bc e337 30be
00000020: b594 d13e f405 2d3d b9e3 86be 4784 963d
00000030: b3d8 96be 881e eebc abd9 1bbd 25f4 77bd
00000040: 51eb 15bd 1a98 c5bd 9041 2cbe 503f 643e
00000050: cd3f 4b3e 75a0 04be 0734 07be 0805 b0be
00000060: fe06 3cbe 1e2c bb3d b75f 813e 0a5f 633e
00000070: a21d dd3d 3e71 ccbd 6e95 7f3d 3fcb d43d
00000080: b88d 1039 588a b53c b09b aa3d cc52 893e
00000090: 3948 233e 24f0 8cbd 0391 b13d fda4 d93c
000000a0: da6e 28be 2351 92bd 4082 b53d 474f f03d
000000b0: 2171 203e 8c42 d43e 863e c6bb 3241 623e
000000c0: 9b4e 2b3b 83ff 783e f56c 423e a32f fd3c
000000d0: a5d6 7bbd cfd5 7fbe 15ee b43e 471b 6e3e
000000e0: ebba 02bd 78a2 f1bd da6b 4abd 84d8 8dbe
000000f0: ce0a 98be 4033 7bbb 059d 58be 4f03 163e
00000100: e5fb 123e aa73 f0bd 8b9f 043f 1846 ea3d
00000110: 3e56 e0bd 3256 233d 07e8 993d d2b4 91bd
00000120: 1157 7b3e 8812 e4ba 1d6d a73d 2450 f13d
00000130: 7407 d7be ba4f 813b 8092 f53b 1c54 6cbd
00000140: b300 7b3d cfc0 f8bd 9f68 fcbd 8422 c2be
00000150: 0543 e4bd 6784 593d 20d6 f33d aaed 393e
00000160: 8db2 2f3e 5865 693e 8505 4c3e 4db8 97bc
00000170: e5fc 81bd ccda 1a3e e91e bf3b 4439 57bd
00000180: 7ef4 18bd a59c 3ebe 6b45 fdbd a8a7 dabd
00000190: 3e0b 963e 2f6e 07be f5c4 1d3e c388 333e
000001a0: 220c 14be 766f 91be 7a3a debb b466 a7be
000001b0: e9b8 863e 75f2 31be 41ef 803e bab4 64bc
000001c0: 1c76 bcbd f183 313c eb15 c53b 5fb5 353e
000001d0: d8b9 7dbb 317c ae3d 8709 47bd 239e 163e
000001e0: 7c43 973e 4618 d43e fca5 69be 8e52 053e
000001f0: 3218 4dbe 8eac 313e 9b39 babd b1c1 bebc
00000200: 11a4 a13e 2608 1b3d 6d18 05be 69f4 83bb
00000210: 6bfb e33d 16b1 793e d45e b53c b912 3f3e
00000220: c9da 42be c9c6 6bbe 1eff 22be 02f8 903e
00000230: 6c7c 213e ccdc c0bd d2a9 d53d 91c2 2ebe
00000240: b5f4 293e c46b babc 01e3 3dbe 7acd 23be
00000250: e0fa 1d3d fa53 5dbd f14c 50be 73f5 efbd
00000260: 2036 453e dd74 413e 00d9 603e 5aa3 a3be
00000270: d4ea 8bbe 4a96 babd b443 7bbc 6d81 62be
00000280: 1548 4b3e a037 0f3e 0bdb 91be 9988 93bd
00000290: 4855 173d 1b0e dd3e 6465 c6bd fbdf 02bd
000002a0: b3cf 473c 4dff f83d 3901 8d3d 466c e03d
000002b0: e88d 873d b5fa a03d a32d 1a3e 307e 9a3e
000002c0: ae4b acbc 1265 59bc b93a 29bd e206 c43c
000002d0: 0003 86be 0442 20be e013 463c abbe ce3d
000002e0: 5f48 453d e88d 99bd 40a9 3dbe d339 0f3c
000002f0: 3957 d03e 1e08 b03e d00c 60bd cccd 24bd
00000300: 1712 e9bd 5872 9abe 7fe4 203e 0c60 9e3d
00000310: d3d5 fc3c 789a 6d3c 56dc cebc 1ebd 383e
00000320: b144 a0be f8a8 84be 2126 87be 3cc5 903d
00000330: 4825 ebbe 8b37 7b3e 264a 11bd 28a1 cc3c
00000340: bc0e d5bc c5d6 d4bd 9ae1 dabd 8e8d 643e
00000350: e848 3d3c 80b9 4ebd 3850 863d d61c febd
00000360: 390d f6bc a6e4 923e 2091 91be b117 d93d
00000370: fcdb 9e3c 9532 fb3c 94b5 973d bb31 2a3e
00000380: 4a57 bcbd 4718 7ebd fe65 91be 3369 353e
00000390: 2824 a9be b516 1d3e c1ed 77be 8034 553e
000003a0: 289d ff3d 9974 f43d 3679 a7bd f7a1 99bd
000003b0: 8c9d 9fbd 8af8 af3b 4aee 79bd e440 9abd
000003c0: 14ec c53e aef5 97be 9d2a 6d3c 3aa0 613d
000003d0: 001b 2b3e 985b 183c f075 a43e cd52 d13e
000003e0: 35ae 073e ca42 05be 00d8 463d fc5b 29be
000003f0: d931 3abc 2088 fd3c f5e3 853c c0fd 63be
0.0004419774 0.035765592 -0.26211977 -0.36862963 0.06151956 0.1775439 -0.010033743 -0.17208819
0.40933767 0.042242005 -0.26345614 0.07349449 -0.29462203 -0.029067293 -0.03804938 -0.06053557
-0.03660137 -0.09648152 -0.16821885 0.22289777 0.19848557 -0.12951834 -0.1320344 -0.3437884
-0.18362042 0.09139274 0.25268337 0.22204223 0.10796668 -0.09982537 0.062398367 0.103903286
0.00013785705 0.022160694 0.08330476 0.26820982 0.1594552 -0.06881741 0.08670237 0.02656793
-0.16448537 -0.07144382 0.08862734 0.11733871 0.15668155 0.4145702 -0.006049934 0.22095183
0.0026139382 0.2431622 0.18986876 0.030906504 -0.061483998 -0.24983905 0.35337892 0.23252593
-0.03191654 -0.117985666 -0.04941926 -0.2770425 -0.29695743 -0.0038330108 -0.21153648 0.146497
0.14353903 -0.11740811 0.51805943 0.114391506 -0.109539494 0.039877124 0.07514959 -0.07114567
0.24544932 -0.0017400542 0.081751086 0.11782864 -0.41997874 0.0039462717 0.007494271 -0.0576974
0.061279964 -0.1214615 -0.123246424 -0.37916958 -0.111455955 0.053104784 0.119060755 0.18157068
0.17157955 0.22792566 0.1992398 -0.018520499 -0.06347064 0.15122527 0.005832542 -0.052544847
-0.03734254 -0.18614443 -0.12366756 -0.10676509 0.29305452 -0.13225625 0.15407164 0.17532639
-0.14457753 -0.2840535 -0.0067818733 -0.32695544 0.2631295 -0.17377646 0.25182536 -0.013959104
-0.09202215 0.01083468 0.0060145757 0.17744969 -0.0038715508 0.085197814 -0.04859307 0.14708762
0.29543674 0.4142477 -0.22817224 0.13019773 -0.20028761 0.1735098 -0.090930186 -0.023285719
0.31570485 0.037849568 -0.12997599 -0.0040269387 0.111319385 0.24383959 0.022139944 0.18659486
-0.19028772 -0.2302505 -0.15917632 0.28314215 0.1577012 -0.09417114 0.10432781 -0.17066409
0.16597255 -0.022756465 -0.18543626 -0.15996352 0.03856933 -0.054035164 -0.20341851 -0.117167376
0.19258928 0.18892236 0.21957779 -0.31960565 -0.27327597 -0.091106966 -0.015335966 -0.22119685
0.19851716 0.13986063 -0.2848743 -0.07203788 0.036946565 0.43174824 -0.096873075 -0.031951886
0.012195515 0.1215807 0.06884999 0.109581515 0.06618863 0.078603186 0.15056472 0.30174398
-0.02103218 -0.013268726 -0.041315768 0.023929063 -0.26174164 -0.15650183 0.0120896995 0.10094961
0.04816472 -0.074977696 -0.18521595 0.008741814 0.40691546 0.34381193 -0.05469972 -0.040235326
-0.113804035 -0.30165362 0.15712164 0.07733163 0.030863678 0.01450216 -0.025251549 0.18040892
-0.31302407 -0.25910163 -0.26396278 0.070688695 -0.4592688 0.24532907 -0.035471104 0.024979189
-0.026008002 -0.103925265 -0.10687561 0.22319624 0.011553027 -0.050469875 0.06558269 -0.12407844
-0.030035602 0.2869007 -0.28431034 0.10600222 0.019392006 0.030663768 0.0740768 0.16620533
-0.091963366 -0.06203487 -0.28398126 0.17715912 -0.33035398 0.15340693 -0.2421179 0.20820808
0.12481147 0.11936302 -0.08177416 -0.075015955 -0.077937216 0.0053702043 -0.061018266 -0.07531908
0.38656676 -0.29679626 0.014475492 0.055084445 0.16709518 0.009299181 0.3212123 0.40883484
0.13250048 -0.1301376 0.048545837 -0.16538996 -0.011364424 0.030948699 0.01634405 -0.22264767

critic.2.bias f4 [64]
00000000: 2b9f f4bc 5e71 643c 6ac0 b4bc 2040 2fbc
00000010: bf86 a4bc d5ae 80bb d645 d3bc 91e7 d2bb
00000020: 4fee b5bc 0999 9bbc fb3d 8bbb a0c0 a43b
00000030: 3b4e 82ba 0ace b5b9 6ecc bfbc cb7d 60bc
00000040: 60d4 4cbb 131b 66bb 958f dabb b2e7 75bb
00000050: ad1d eebb 9ff2 e4bc be32 9c3c 016f c83b
00000060: 7c87 323c 4196 853c b359 9cbc 5060 45bc
00000070: 3f12 2ebc 00e0 cebc ccc5 483c 4de2 cd3c
00000080: 88e3 4e3b 78d7 a7bb 89be bb3a deff 12bd
00000090: a8fa 6f3c 29e0 d8ba e249 8d3b 6428 243c
000000a0: 96e9 bd3c fc7e 81bc 2c56 55bc 5bec 993b
000000b0: c50f 70bc 5e7e 0bbc b12a 85bc dde3 ab3b
000000c0: 78b0 e83c b570 f1bc 24ad debc bcc5 46bc
000000d0: 3930 0a3c 989c a73b 5737 9e3b 5dcd 22bb
000000e0: 9f52 11bd 6db8 e03b da7f 34bc b457 953c
000000f0: c3a9 41bd 6521 9ebc eac4 d7bc 4042 b3ba
-0.029861053 0.0139430445 -0.022064406 -0.010696441 -0.020083783 -0.0039270916 -0.025790136 -0.0064362963
-0.022208361 -0.018993871 -0.004249332 0.0050278455 -0.0009941527 -0.0003467652 -0.02341291 -0.013701866
-0.0031254515 -0.0035111352 -0.0066699483 -0.0037522134 -0.007266721 -0.027947722 0.019067165 0.0061167483
0.01089656 0.016306998 -0.01908574 -0.0120468885 -0.010624467 -0.025253296 0.01225419 0.025132323
0.0031568725 -0.0051221214 0.0014323752 -0.035888545 0.014647163 -0.0016546297 0.004311786 0.0100193955
0.023182672 -0.015807621 -0.013021033 0.004697365 -0.014652197 -0.008514015 -0.016255708 0.0052456693
0.02840446 -0.029472688 -0.02718217 -0.0121321045 0.008434349 0.005115103 0.0048283744 -0.0024841644
-0.035479184 0.0068579228 -0.01101681 0.018230297 -0.047281038 -0.019303033 -0.026339013 -0.001367636

critic.4.weight f4 [1, 64]
00000000: 6c8c e13d 770c 52bd b157 133d 998a 4f3e
00000010: 69aa 733d 0455 033e f2af 633e 7467 8e3e
00000020: af74 f33d 6f0e 1d3e 73bc 753e b4cf 22bd
00000030: 17bd 87be 3a10 973d 6599 e83d cf09 f53d
00000040: eb48 b1bd afb5 283d 6d0f a13e 3747 d33d
00000050: 794d 4f3e 9cbf 213e b246 65bc 6366 d83d
00000060: 0415 32be ceb2 eebd c43c d03d a321 50bc
00000070: 1cfd 16be a001 d73d 8b58 8cbc 46c4 2fbe
00000080: 7283 073e 0fda 7ebd 2a05 2fbd e54a 3f3d
00000090: cc6c 14bd 78e3 81bd 866f 6aba ba6e c53d
000000a0: b1bd d2bd dc1e 933e 3161 963d 6921 653d
000000b0: 14ac 613e 5274 9a3e 010e a33d 08b2 9abd
000000c0: c45c 76bd 01e1 1a3e 8637 103e a696 76bd
000000d0: 0f39 81bd df1c 2cbe be50 93bd 749a ed3d
000000e0: f071 953d 41a8 e53c 12d1 253e 328d df3d
000000f0: 54d3 4c3c 277a 2e3d f5f9 0b3e 7bde eabd
0.110131115 -0.05128142 0.0359723 0.20267715 0.059488688 0.128254 0.22235087 0.27813303
0.1188749 0.15337537 0.23997669 -0.039748862 -0.26511452 0.07376142 0.11357383 0.119647615
-0.08656486 0.041188892 0.3145708 0.103163175 0.20244397 0.1579575 -0.013993906 0.10566404
-0.1739083 -0.11655198 0.1016784 -0.012703332 -0.14744991 0.10498357 -0.017132064 -0.17164716
0.13233736 -0.062219676 -0.042729534 0.046702284 -0.03623657 -0.06342214 -0.000894301 0.0964026
-0.10290087 0.2873448 0.073427565 0.055940066 0.22038299 0.3016687 0.079616554 -0.07553488
-0.060147062 0.15124895 0.1408368 -0.060202263 -0.06309711 -0.16807888 -0.07193135 0.11601725
0.072971225 0.028034331 0.16193035 0.10915603 0.012501556 0.042596962 0.1366957 -0.11468216
