fw_flightcontrol/models/icinco/ppo/gustonly/ppo_bohn_caps_nohist_easymedrefs_gustsonly_2989_06-06_14:43:46.pt (torch, 47159 bytes, 12 tensors)

actor_logstd f4 [1, 2]
000000 3b be a0 3d d8 f5 bd 3d
       0.078487836 0.092754066

actor_mean.0.weight f4 [64, 14]
000000 fc 2c e9 bd 95 1b 6d be 65 39 8a ba 95 3c e9 3c
       -0.11385533 -0.23155053 -0.0010545669 0.02847127
000010 0f c6 8a be e0 52 5c 3e aa 99 68 be 48 58 b6 3e
       -0.27104232 0.2151599 -0.22714868 0.35614228
000020 88 87 6f be ff df ea 3d f0 c4 22 3e c3 0d 84 3d
       -0.23391545 0.11468505 0.15895438 0.06447937
000030 b0 b8 50 3e 23 3c c2 3d 73 37 63 3e 8b 27 b3 3d
       0.20382953 0.094841264 0.22189121 0.087477766
000040 e8 e8 99 3d 9a 84 fe bd 53 56 87 bd fe db ab be
       0.075151265 -0.124276355 -0.06608262 -0.33566278
000050 b7 db 15 3e 7e 17 f4 3d 05 9c 5e be 6e b5 39 3d
       0.14634596 0.11918543 -0.21739204 0.04533904
000060 03 01 43 3e 92 b8 e5 be 03 fb 85 3e d2 8f fa 3c
       0.19043355 -0.44867378 0.2616807 0.030586157
000070 9f 94 a6 be f9 4f 7d be bf 58 d1 3c 0c dc e4 3d
       -0.32535264 -0.24737538 0.025555013 0.11174783
000080 32 ef e2 3e 74 e5 85 3d a0 11 bf 3d 15 85 a0 3d
       0.44323117 0.06537905 0.093295336 0.078378834
000090 cb 49 b4 3d f5 69 02 be b5 03 54 be 2f f2 78 bd
       0.088031374 -0.12735732 -0.20704539 -0.06077784
0000a0 49 9d 6b be fb 90 3c be 3a da 0a 3e 24 df 64 be
       -0.23009218 -0.1841468 0.1355981 -0.22350746
0000b0 e0 58 2a 3e bb 54 b3 3d 5c f8 e7 bd cb 1a a4 bd
       0.16635466 0.087563954 -0.11326668 -0.08012923
0000c0 1b 13 81 be e7 0f f8 bc 9a c8 cf bd ca 8d a0 bd
       -0.2520989 -0.03028102 -0.101456836 -0.07839544
0000d0 98 f6 2c be 0c 5f c9 3d 88 b8 fb 3d 39 b9 a3 bd
       -0.16890943 0.09832582 0.12291056 -0.07994313
0000e0 18 67 e6 3d 3d f7 94 be ac ac af ba a9 ae 0a 3e
       0.11250132 -0.29094878 -0.0013402901 0.1354319
0000f0 0b a1 86 be 60 7d 41 3d 02 ba 2c bf 56 11 f2 3e
       -0.2629474 0.047238708 -0.67471325 0.4727885
000100 3e 5e a7 3e 5f 2a c9 be f2 0f 53 3d ff c9 7d 3c
       0.3268909 -0.3929014 0.05152888 0.015490054
000110 c3 fb ae be a8 f6 80 3d 1f 92 27 bd 6d 88 06 3e
       -0.34176454 0.06297046 -0.040910836 0.1313798
000120 64 5b 8b be bb 90 27 3e 05 99 6e be 57 9e a2 be
       -0.27218163 0.16363804 -0.2330056 -0.3176143
000130 44 b6 30 be ee bf 0e bb d6 58 74 3b 86 51 a7 3d
       -0.17257029 -0.002178188 0.0037284396 0.08169846
000140 c0 91 ba 3c 74 22 9b 3c 27 cc 6a bd 69 58 1e be
       0.022774577 0.018937327 -0.0573236 -0.15463413
000150 0f 7d 21 3c 4f 0d 76 3e e4 cc cc be fe 36 f6 bd
       0.009856476 0.24028514 -0.4000007 -0.12022208
000160 55 c0 fc 3d 85 11 9a bd b1 92 39 bd f2 15 b4 3d
       0.12341372 -0.07522873 -0.04530591 0.08793248
000170 0c b1 d9 3d 2f d8 c2 3e 0e f9 f7 3d eb 57 c6 bd
       0.10629472 0.3805556 0.1210805 -0.09684738
000180 46 0c 17 be 5b 4f 5d 3d d4 07 6c bd 5a 21 af 3c
       -0.14750776 0.054030757 -0.057624653 0.021378208
000190 46 7c 32 ba 43 d4 05 be f0 0a 6f be fb b4 1f 3d
       -0.00068086793 -0.13069253 -0.23344016 0.038990956
0001a0 45 e1 1d be 6f 84 f0 3e 26 e9 bf 3c 7b ed 8e be
       -0.15417965 0.4697604 0.023426604 -0.27915558
0001b0 24 7a 8c 3c 48 45 10 3d ff ae 35 be c7 4d 33 3f
       0.017148085 0.03522232 -0.17742537 0.70040554
0001c0 f1 14 87 be 4a e3 3a 3b 5d c0 e1 3c 5f 1d ac 3e
       -0.26383165 0.0028516822 0.027557546 0.33616158
0001d0 cf 2d 67 3e 80 49 93 3e ab 7c d1 bd 83 49 37 3d
       0.22576068 0.28767014 -0.10228857 0.04474784
0001e0 87 b4 88 bc 7b 9f 17 3e 7a 27 a3 3e 40 30 ef 3b
       -0.016687645 0.1480693 0.31866056 0.007299453
0001f0 8a b3 0b be 57 02 9c be 3d 1e 46 bd 27 a7 08 3e
       -0.13642707 -0.30470535 -0.04836868 0.13345014
000200 25 d6 67 be 25 8a 1f be 1e da 9b 3e db 2c 11 3e
       -0.22640283 -0.15580042 0.30439848 0.14177267
000210 ef 75 b3 3d 02 3e c3 be a4 22 45 3e 0e 12 43 bd
       0.087627284 -0.38133246 0.19251496 -0.04762464
000220 c3 51 84 3e 40 eb 65 be f5 19 8b bd e1 0f e9 3d
       0.2584363 -0.22453022 -0.0679206 0.11379982
000230 b1 94 ae bd 48 47 19 be 8e 3b 3c bd 8f ff 1b be
       -0.085244544 -0.14968598 -0.045955233 -0.15234207
000240 25 10 ab be d2 d8 b8 3e ba 1b 08 bf 86 26 e7 3c
       -0.33410755 0.3610292 -0.5316731 0.028216612
000250 1e 4d 82 3e 30 80 ed 3d db 20 b7 bd c9 77 5e be
       0.2544946 0.115967155 -0.089418136 -0.21725382
000260 8d 15 a3 3d 64 89 71 3e f3 c0 ba bd 49 26 16 be
       0.07963095 0.23587567 -0.091188334 -0.14663042
000270 18 49 d7 bd a6 ef 95 bd dd 9a 35 be 96 89 b5 bd
       -0.105119884 -0.073211 -0.17734857 -0.08864133
000280 f5 b2 c6 3e 0c b2 87 3e 65 5f 35 3e 47 95 43 3e
       0.38808408 0.26503026 0.17712171 0.19099914
000290 07 05 84 bd b0 05 6b bd f8 0d 1c 3e 6c a8 55 bc
       -0.064462714 -0.05737847 0.15239704 -0.013040643
0002a0 1a 20 6e be 68 af 8f 3d d2 90 14 3e a1 f6 e8 be
       -0.23254433 0.07015878 0.1450837 -0.45500663
0002b0 d1 18 bc be d8 f0 5e 3c 72 80 b6 bd 94 78 36 be
       -0.36737683 0.013607226 -0.08911218 -0.17819434
0002c0 a3 28 f3 bd 51 5b 60 3e 5b bb 1a bd d8 e7 75 bc
       -0.11872985 0.21909834 -0.037776332 -0.015008889
0002d0 69 08 38 bd 8f e0 45 3e 02 af c0 3e e0 dd f3 bd
       -0.044929896 0.19323944 0.3763352 -0.11907554
0002e0 44 d6 e6 bc f6 76 34 bd 68 de ec be 98 48 c4 3d
       -0.028178342 -0.044058762 -0.46263433 0.09584159
0002f0 dc 9f a0 bd e8 d6 61 bd 81 a9 b8 bc d5 e4 b9 bc
       -0.07842991 -0.05513659 -0.022541763 -0.022692123
000300 b7 f1 9e 3d d1 20 37 3e b0 a6 cc 3d 61 8f 92 be
       0.07760947 0.17883612 0.099927306 -0.28625014
000310 1f 5a e7 bd 24 58 2d 3e 60 ee 02 be 98 7e b3 3e
       -0.11296486 0.16928154 -0.12786245 0.3505752
000320 92 e2 fc 3d 7c b0 97 3e 59 bd 98 bd 42 12 4d 3c
       0.12347902 0.29626834 -0.0745799 0.01251656
000330 f8 84 9f 3e 52 3c 47 be fe 37 68 bd 65 20 1e be
       0.31156135 -0.19456604 -0.056694023 -0.15442045
000340 4b c4 e9 3d 88 4a 35 3e 8b 0c 8a be c2 11 5d be
       0.11414393 0.17704213 -0.26962695 -0.21588805
000350 fa 96 95 bd d0 63 99 bd eb 82 28 3e c5 15 69 bd
       -0.07304187 -0.07489741 0.16456191 -0.056905527
000360 59 61 1b be 00 19 a6 bd b0 8c 5a be ed 40 d2 3c
       -0.15173854 -0.08110237 -0.2134273 0.025665725
000370 dd 6a 86 bd 6f c6 6a 3e d5 c2 a9 3e 28 35 80 3d
       -0.06563351 0.22927259 0.33156458 0.06260139
000380 bb d2 16 3e 0d 60 85 3d 17 6e 32 3e 1c f2 b6 3e
       0.14728825 0.06512461 0.17424808 0.3573159
000390 1f ca db bd d4 9d 30 3d f1 64 10 bd 41 ad a6 be
       -0.10731911 0.043119267 -0.035252515 -0.32554057
0003a0 66 3f a0 3d 50 70 c2 bd de 82 fc bd 94 27 60 be
       0.07824592 -0.09494078 -0.123296484 -0.21890098
0003b0 65 1b 6b 3e 62 06 8e 3c 08 2e d6 be 33 eb 87 be
       0.22959669 0.017337028 -0.41831994 -0.2654663
0003c0 ba bb 9a bd ef dc 90 bd fc f3 8f 3e 69 70 b5 3d
       -0.07555337 -0.0707339 0.28115833 0.08859331
0003d0 81 79 28 bd b8 46 4f bc 16 6f 94 3c 7d 86 b5 3d
       -0.0411315 -0.012651138 0.018119376 0.08863542
0003e0 c7 02 84 be 1d f5 ed 3c ae 6e 28 3e 4b 20 b8 bc
       -0.2578337 0.029047543 0.16448471 -0.022476336
0003f0 66 a6 8f 3e bf f3 0b 3e 5b 66 1e bd 88 3b 2d 3d
       0.2805664 0.136672 -0.038671833 0.0422931

actor_mean.0.bias f4 [64]
000000 0e d6 96 3c 55 10 95 bb bb 58 28 bd 1b 52 c2 bc
       0.018412616 -0.004549066 -0.041100245 -0.023720792
000010 fe f2 6e bb c2 f4 2c 39 18 86 73 37 b7 db d3 3d
       -0.0036460753 0.00016494378 1.451515e-05 0.10344642
000020 81 b5 9a bd 13 4e bb 3c c6 da c1 3c bd 75 99 3c
       -0.075541504 0.022864377 0.02366389 0.0187329
000030 1b fe 1d 3c 98 04 0f 3d 1f c6 e6 bb 75 1d ef 3c
       0.009643103 0.03491649 -0.007042661 0.02918885
000040 f3 20 d3 b9 e7 f3 27 3c be 06 61 3c da 19 95 bd
       -0.00040269605 0.010251022 0.013734518 -0.072803214
000050 10 3c 1c b8 f8 fe 70 3b d5 38 19 3e 61 fe 93 3b
       -3.7249236e-05 0.0036773067 0.14963086 0.0045164083
000060 fd e4 14 bc a7 4d c0 ba 0e 66 c2 3c 4e ad 5e ba
       -0.009087798 -0.001467158 0.023730304 -0.00084944523
000070 c0 28 26 3c 74 34 ea bc 00 7c b1 3d 33 35 04 bb
       0.0101415515 -0.028589465 0.08666229 -0.002017331
000080 9d 1c 98 bd d0 4b c2 bc 40 c8 9d bc 50 71 04 3c
       -0.074273326 -0.02371779 -0.019260526 0.008083656
000090 e0 60 1f ba bc 4b 93 b8 09 0d 5f 3c 3e 8e 1d 37
       -0.0006079804 -7.023613e-05 0.013613948 9.391048e-06
0000a0 5e 5a e9 bc 55 4e 57 bc f6 cb 3c bb 8a 49 09 bd
       -0.028485473 -0.013141234 -0.0028808094 -0.033517398
0000b0 b2 e6 65 bd e3 5d 14 3b 99 fe 3f bd 63 b6 69 bc
       -0.05612821 0.0022638969 -0.046873663 -0.014264676
0000c0 77 cb c7 bc f7 ec 33 3a 03 6d 82 3c 00 1e 24 3c
       -0.024389012 0.00068636186 0.015921121 0.010016918
0000d0 32 1a 3c ba 78 a8 05 3d 48 c3 f6 3c e8 ec d2 39
       -0.0007175534 0.032631367 0.030122414 0.0004023083
0000e0 65 ac 86 bb cf ba 38 3b 64 eb 00 3c b0 93 b8 3d
       -0.0041099065 0.0028187518 0.0078686215 0.09012544
0000f0 54 e3 9b ba 7c 79 95 3b c4 e3 ad bc c7 52 e1 b9
       -0.0011893311 0.004561601 -0.021226771 -0.00042977018

actor_mean.2.weight f4 [64, 64]
000000 37 0f c8 3d 57 9c 26 3e 57 4f e6 bd 07 04 ae 3c
       0.09768527 0.16270576 -0.112456016 0.021242155
000010 d3 a9 6f bd c2 53 a9 3c d2 f5 36 be 51 7f 23 3e
       -0.058511566 0.020669822 -0.1786721 0.15966536
000020 a9 a0 d8 ba 2f c0 49 be db 64 91 3e 60 07 b2 be
       -0.0016527373 -0.19702218 0.2839726 -0.34771252
000030 cf 37 b9 bd 40 aa 5f be 64 97 29 3e 78 90 a9 3d
       -0.09043848 -0.21842289 0.16561657 0.08279508
000040 ad ff b2 3d 60 3e 9d be 0e 68 b0 3e 33 da 12 bf
       0.087401725 -0.3071165 0.34454387 -0.57364196
000050 71 df 46 3d 47 83 24 bc 1b 6d 05 3e b3 04 a1 3d
       0.048552934 -0.010041065 0.13029902 0.078622244
000060 ce 1d c7 bc 27 72 cc bd 3f 36 6c 3e 11 f1 74 3e
       -0.024306204 -0.0998271 0.23067568 0.23920085
000070 f6 57 67 be 90 87 46 3e 4b c8 b4 3d 0a 31 40 bc
       -0.22592148 0.1938765 0.08827265 -0.011730442
000080 e5 82 af 3d 92 37 17 3e 78 1f c7 3c 22 85 e3 bc
       0.08569888 0.14767292 0.024306998 -0.027773444
000090 40 db 10 3e dc ac ec bd 83 2c b0 be 86 93 e5 3d
       0.14146137 -0.11556408 -0.3440896 0.112097785
0000a0 92 c9 d3 3d 5e 1d a0 3d d3 8f 34 3c 54 0c a3 3e
       0.10341181 0.07818101 0.0110206185 0.31845343
0000b0 8a 35 bc 3c bb 2e 03 3e 60 7f fb bd 4c d9 0a bd
       0.022974748 0.12810795 -0.12280154 -0.033898637
0000c0 e1 5f 89 3e 80 8c 3e bd e3 6c 7a be f9 16 f5 bd
       0.26830962 -0.04652071 -0.244556 -0.11967272
0000d0 47 5d cb 3e 23 04 6f 3d 54 a8 0c 3d c4 cf 92 bd
       0.39719602 0.058353554 0.034340218 -0.071685344
0000e0 a4 e5 e5 bb b4 7a bd 39 50 46 73 3e 10 6f 81 3e
       -0.0070159007 0.0003614031 0.23757291 0.25280046
0000f0 f0 da 0a 3d 57 ac e1 bd fd 78 cd bd df ea 81 3e
       0.0339002 -0.11019199 -0.10032842 0.25374505
000100 00 3b 78 3c f5 05 d1 3e 12 d0 d5 3d 80 6c 97 3d
       0.015150785 0.40824857 0.10440077 0.073937416
000110 5d ce 7c be b0 6f a0 be a3 a4 ec bb 50 35 02 3e
       -0.24688096 -0.3133521 -0.0072217747 0.1271565
000120 1e c1 27 be 50 c2 9b be 61 c8 37 be a1 5a 92 bd
       -0.16382262 -0.30421686 -0.17947532 -0.07146192
000130 16 57 eb 3e 57 a1 8b bd 96 08 6e 3e 52 90 38 3e
       0.4596488 -0.068178825 0.23245463 0.18023804
000140 83 b7 6e be 1e 56 ac bd 30 f8 8c bb 23 7b 07 be
       -0.23312192 -0.08414863 -0.004302047 -0.13230567
000150 63 ea e3 bd 92 a2 01 3c d1 2a c3 3e ee 34 10 3e
       -0.1112869 0.007912295 0.38118604 0.14082691
000160 a1 41 c4 3e d2 07 6d 3e ed 5e 06 be 5f b0 5e be
       0.3833132 0.23147514 -0.13122149 -0.21746968
000170 dd e6 9e bb 55 70 c2 be cb 22 be bd e8 7d a2 3d
       -0.0048492984 -0.37976328 -0.0928398 0.07934171
000180 36 91 a1 3e 29 e5 43 3d c1 1f 7d bd 23 01 12 3e
       0.315561 0.047825966 -0.06179786 0.14258246
000190 4a 2d 87 3c ae 93 10 3e 71 65 17 3e a3 83 8c 3d
       0.016501088 0.14118835 0.1478479 0.06861045
0001a0 df 06 29 be 59 f0 49 be 16 96 3f 3e a6 5e ab be
       -0.16506527 -0.19720592 0.18709597 -0.3347065
0001b0 03 ef 19 be 26 d5 59 3d c1 d6 86 3e fd ab 3f be
       -0.15032582 0.05318179 0.2633572 -0.18717952
0001c0 9a 63 55 bc d3 ca 03 bd 8c 88 af be 45 14 36 be
       -0.013024235 -0.03217585 -0.34283864 -0.1778117
0001d0 42 9a f7 bd b2 86 2e be 79 f4 ac be 75 4d a3 3d
       -0.12089969 -0.1704357 -0.33780268 0.07973758
0001e0 69 b0 4a 3d d4 95 9d bc 85 23 61 3c 05 07 8d 3a
       0.049484644 -0.019236483 0.013741379 0.0010759538
0001f0 72 09 15 3e 7c 8c fe 3d 97 18 66 be 23 84 11 3e
       0.14554384 0.12429139 -0.22470318 0.14210562
000200 03 30 b5 bd 8b 45 4a bd 78 71 63 be 4d c3 ab bd
       -0.08847048 -0.049382728 -0.22211254 -0.0838686
000210 4f fb ba 3b 54 5a ee bd 77 1e 89 3e e4 4c 32 be
       0.005706228 -0.116383225 0.26781055 -0.17412144
000220 4b f7 a8 bc e6 3f b4 bc 0d 3b b0 3e 48 46 d7 bd
       -0.020625731 -0.022003125 0.34420052 -0.10511452
000230 b6 2e 19 3d ae eb c9 3c 57 22 8c bd d6 90 82 be
       0.037398063 0.024648514 -0.06842487 -0.25501126
000240 65 02 1c bd a5 60 cc 3d 4a b9 46 3e ca 23 5b 3e
       -0.03808822 0.09979371 0.1940662 0.21400371
000250 d9 3b 36 be ad 9e 0c 3e 74 0f 83 be 0c bb 18 3d
       -0.17796268 0.13732405 -0.25597727 0.037287757
000260 b8 35 98 3d d0 a4 8d be c8 25 75 be a1 40 fa bd
       0.07432121 -0.27664804 -0.23940194 -0.12219358
000270 a2 07 b7 3d c8 65 19 be ac 96 57 3d ac c5 56 3d
       0.08937003 -0.14980233 0.052633926 0.05243461
000280 62 eb ac 3e 72 14 0a be 46 38 02 bc 0c fd 0c bd
       0.33773333 -0.13484362 -0.007947987 -0.03442101
000290 ed 24 12 be 6c 10 bd 3e 47 1d 90 be 6e 72 ed bd
       -0.14271899 0.3692659 -0.28147337 -0.11594091
0002a0 4a 4b 97 bc da 1f f9 bd 38 b9 98 3e c3 5e 54 3e
       -0.018468518 -0.12164278 0.2982881 0.20739274
0002b0 08 8e df 3e 8c ca 08 be 44 cf b9 3e c9 da bb 3d
       0.4366305 -0.13358516 0.36290944 0.09172589
0002c0 1f 37 9b 3a 86 31 ee 3e 6b f8 b7 bd 8e 60 06 be
       0.0011841989 0.46522158 -0.08982929 -0.1312277
0002d0 f4 7e d4 bc 62 67 63 bd 05 63 82 3e 54 0f 94 3d
       -0.025939442 -0.055518515 0.2546617 0.07229486
0002e0 a9 ee 07 3e bc 3e ff 3d e7 65 8f be be 72 85 3b
       0.13274635 0.124631375 -0.28007433 0.004072516
0002f0 f0 b5 00 be 0e 3c 82 be c0 98 94 be 9c b9 1a 3e
       -0.12569404 -0.25436443 -0.2902279 0.15109867
000300 e5 a2 28 be 78 61 1c bd 74 68 47 3e 5a a7 f9 bd
       -0.1646839 -0.03817889 0.1947344 -0.12190123
000310 7f ca b5 3c 9f f4 1e 3e be 48 08 3e 01 cd 8d 3e
       0.022191284 0.15523003 0.13308999 0.27695468
000320 92 3e 3e 3d b5 f0 3b 3c 3a d2 65 3e 89 04 17 be
       0.04644639 0.011470963 0.22443476 -0.14747824
000330 a7 d2 ff 3c 20 00 ee 3d 55 12 ac bc ab 47 75 3e
       0.031228377 0.116211176 -0.021004835 0.2395312
000340 e6 e5 37 3d 32 17 5d be d7 16 9b 3d d4 67 b7 bd
       0.044896983 -0.2159088 0.07572716 -0.089553505
000350 57 61 07 be 6d 50 89 3d b6 e8 c3 bd 87 ac 48 be
       -0.13220726 0.06704793 -0.095658705 -0.19597064
000360 64 fc 3d be 14 ed b7 3e ef a6 d1 3d 71 d6 4e be
       -0.1855331 0.35923064 0.10236918 -0.2019899
000370 af 0a 27 be 36 20 18 3e ed 34 a9 bd 7a 12 17 be
       -0.16312669 0.14856037 -0.08262048 -0.14753142
000380 53 c6 b6 be 26 25 d3 bd 81 fa 00 3d ee d2 79 3e
       -0.35698184 -0.1030982 0.0314889 0.2439687
000390 b4 69 64 bd 8a 7a cd 3d 49 1b 8c 3e 21 88 0d 3e
       -0.05576487 0.10033138 0.27364567 0.1382146
0003a0 7b 91 2b be 5b 51 4a 3e 21 59 ec 3d af 56 ca 3e
       -0.16754715 0.19757597 0.115404375 0.3951926
0003b0 2c 99 52 3e 54 ce 7d be d9 e2 e6 bd 70 79 c7 3d
       0.20566243 -0.24785739 -0.112737365 0.09739959
0003c0 f7 61 89 bc 36 73 51 be 57 58 50 3e 40 b9 79 be
       -0.016770346 -0.20454106 0.20346199 -0.24387074
0003d0 f3 72 0f be 3f 5e 4e 3e 72 cb 54 3d 42 3e cb 3e
       -0.14008693 0.2015314 0.051951833 0.39695936
0003e0 f6 f8 35 3d 0c 26 99 bd f4 ad fa 3d 67 18 2c 3e
       0.04442688 -0.0747796 0.1224021 0.16806184
0003f0 ac 7e c4 be 0c 4d 82 be bc 73 9a be a4 42 ea be
       -0.38377893 -0.25449407 -0.30166423 -0.45753968

actor_mean.2.bias f4 [64]
000000 0f ca 16 3c 8f fb fe bc 4b 34 97 bc 70 67 b6 bc
       0.009203448 -0.031125812 -0.018457552 -0.02226612
000010 df ae d1 bb 28 a0 95 3c 52 40 93 3c f6 8b 57 bc
       -0.00639902 0.018264845 0.017975006 -0.013155928
000020 fe 65 ef bc b8 71 8f bc 08 47 2a 3c 60 2f 0c 3d
       -0.029223438 -0.01751028 0.010392912 0.034224868
000030 7f 88 26 3c 32 0f 78 3d b7 f1 51 bd 1f d8 15 3d
       0.010164379 0.060561366 -0.051255908 0.036583062
000040 ee f8 f1 bc 8f 8a 5c 3c 9d 46 f6 3c 7b 4a 05 3c
       -0.029537644 0.013460769 0.030062968 0.008135433
000050 2f b7 0f bc f1 5a b0 bc 43 23 78 3c ee be 52 3c
       -0.008771702 -0.02152774 0.015145126 0.012862904
000060 1f b5 b4 bc 6c 39 96 bb 4b 51 83 3c 8b f5 51 3b
       -0.022059022 -0.004584482 0.016029974 0.0032037224
000070 b9 f2 81 3c d9 09 93 ba 94 8d ab 3c 5f fc 47 bc
       0.01586281 -0.0011218145 0.020941533 -0.012206166
000080 95 c0 77 bc b4 57 d5 bc a5 c7 80 bb 73 55 45 3b
       -0.015121599 -0.026042797 -0.0039300495 0.0030110746
000090 e4 de 18 bc 32 5c 0a 3d cf c8 2b 3d 20 b6 b1 bc
       -0.009330485 0.03377933 0.041939553 -0.02169329
0000a0 e7 7b 2a bc 0b 2b 06 bd ea 0c 46 bc 92 41 f2 bc
       -0.010405517 -0.032755893 -0.01208804 -0.029572282
0000b0 af f1 51 3d ed 08 d7 3b 18 de a0 bb a7 76 0c 3b
       0.051255878 0.0065623433 -0.004909288 0.0021433027
0000c0 10 f8 1e bd 9c a1 90 3a 2f 27 7e 3b bc ae 1a 3d
       -0.03881079 0.0011034491 0.003878068 0.037764296
0000d0 1d 5c a5 bc fc 25 1c bc 0c c3 09 bc a4 8b bb 39
       -0.020185525 -0.009530541 -0.008408319 0.0003577146
0000e0 b6 2b 9a bb 00 34 ca 3c a3 8c cc 3c 81 0c 58 3b
       -0.004704918 0.024682999 0.024969405 0.0032966437
0000f0 c4 3c b0 3c 66 04 23 bd c3 5b e2 bc 27 42 ff 3c
       0.02151335 -0.039799117 -0.027631646 0.031159474

actor_mean.4.weight f4 [2, 64]
000000 40 7c 68 39 6f ed 51 3e da 5c 73 3c c0 90 18 be
       0.00022171531 0.2050073 0.0148536805 -0.14898968
000010 fd 54 83 bd 03 63 0f be 89 ee 2c bc 36 9f 2c 3d
       -0.064126946 -0.14002614 -0.010554918 0.042144023
000020 ad 2e 18 be eb a9 c1 bc 2d dd 57 3d 0b f0 3b 3b
       -0.14861555 -0.023640594 0.052701164 0.0028677012
000030 3a ba ac bd 0e 1b 13 be 16 91 0c 3d ec ca 26 bd
       -0.084339574 -0.1436579 0.034318052 -0.040720865
000040 58 71 d0 bd f5 81 75 bd dc 16 79 3c 25 25 96 bd
       -0.101778686 -0.05993839 0.015203204 -0.073313035
000050 81 33 30 3e aa d0 55 bd 5f 4e 19 3e 8e c8 5a 3b
       0.17207147 -0.05220095 0.14971302 0.00333837
000060 89 7e a5 3d 29 83 3b bc e8 2a 87 3c fd 7c 9a 3d
       0.08080775 -0.011444845 0.016499951 0.07543371
000070 01 72 28 be 45 cf c0 bc ee 0a 69 bc d2 f5 84 bd
       -0.16449739 -0.023536334 -0.014223797 -0.06492199
000080 98 60 56 bd 6b 54 cb 3d b3 05 e7 3d d7 99 00 be
       -0.052338213 0.09928211 0.11280384 -0.12558685
000090 55 db a9 3d d1 aa 11 3c 94 07 94 bd a6 48 c8 3d
       0.082937874 0.008890823 -0.07228008 0.097794816
0000a0 ff 1e 36 3d 6e 53 82 bc 4d 61 d3 3d 3d 43 08 be
       0.044463154 -0.015908923 0.10321293 -0.133069
0000b0 4f 30 46 3d f1 b2 40 be 67 37 25 bd f2 e8 d8 bd
       0.048385914 -0.1881826 -0.04033604 -0.10591306
0000c0 cb 2d 31 be 69 f5 86 3b c6 65 95 bd 62 ce 00 3e
       -0.17302625 0.0041186106 -0.07294802 0.12578729
0000d0 2b 41 41 be c6 29 db 3d 87 40 9f b9 a6 6b d1 3d
       -0.18872516 0.10701327 -0.0003037492 0.102256104
0000e0 0d cb 80 3b bc 18 f7 3c 6f fb 9d 3c 8c 04 11 3e
       0.0039304555 0.030163161 0.019284932 0.14161891
0000f0 97 21 fb 3d cf 98 d2 3c 1f e6 d7 3a 7e d2 0b 3e
       0.12262266 0.02570763 0.001647178 0.13654515
000100 94 a0 5e bd c9 e5 7d bc 79 a4 09 3e 4a 9c aa bc
       -0.054352358 -0.01549668 0.13441648 -0.020826478
000110 97 e2 c9 3d eb 17 42 3c 78 cf b1 bb d2 cf 6a be
       0.09857672 0.011846523 -0.0054263435 -0.2293084
000120 c8 8d e6 3d fe af ae bd 32 b1 1c bd 64 03 60 bc
       0.112575114 -0.085296616 -0.038254924 -0.013672683
000130 17 25 d0 bd d8 1d cd bd 36 d5 ba 3d 33 9b 12 3e
       -0.10163324 -0.10015458 0.09122698 0.14317016
000140 2a b1 cf 3d 8b 2e ef 3c d7 fd 87 bd 40 ff d2 bd
       0.10141213 0.029196998 -0.06640213 -0.10302591
000150 8b d6 a6 bc e0 ea 42 3e 7e e0 94 3c d0 cf a3 bd
       -0.020365974 0.1903491 0.018173452 -0.079986215
000160 a3 11 86 3d 90 77 26 3d 04 8a a3 3d dc 14 2d 3d
       0.06546333 0.040641367 0.07985309 0.04225622
000170 a4 5a 5e 3c 06 c1 b7 3d ea c8 2e be 67 72 e7 3d
       0.013571415 0.08972363 -0.1706883 0.113011174
000180 3e a3 66 3d fa ac be 3d 83 d7 f2 3c f4 cc aa bd
       0.056308024 0.093103364 0.02964378 -0.08339873
000190 32 26 51 3b e9 ac 6b bc a4 dd 62 bd fc 5c 44 3b
       0.0031913635 -0.014384487 -0.055387154 0.002996265
0001a0 f8 ec ed bd 4b 07 0a 3e 16 17 b8 3d 7e 0e ce 3c
       -0.11617464 0.13479345 0.08988778 0.025153395
0001b0 86 c7 4a bd e1 65 2a bd 6e 71 3a 3e 2b 30 37 3d
       -0.049506687 -0.041601066 0.18207332 0.04472367
0001c0 ff 92 9d 3d 7e b3 43 be 9d 1d ae bd 23 95 c9 3c
       0.07694053 -0.1911144 -0.08501742 0.024607247
0001d0 c0 d8 05 be 4f b8 51 3d a4 9b 45 3c c4 c4 72 bd
       -0.13070965 0.05120116 0.012061033 -0.05926968
0001e0 51 d7 0f 3c 07 36 4f 3b e8 5e 39 be 55 68 e2 bd
       0.008779363 0.0031617896 -0.1810261 -0.11055056
0001f0 26 ec 51 bd 19 ff bf 3d 0f 39 1e 3a ed b9 1f bd
       -0.0512506 0.09374828 0.0006035724 -0.038995672

actor_mean.4.bias f4 [2]
000000 d1 bc 41 3b 41 c2 35 3c
       0.0029562006 0.011093677

critic.0.weight f4 [64, 14]
000000 07 fc c7 3d 89 f8 d7 bd 95 da 56 3c 58 9e 11 be
       0.09764867 -0.10545451 0.013113637 -0.1422056
000010 2f 99 4c 3a ff 68 19 be cd 42 8d 3e a6 93 2a 3e
       0.00078048086 -0.14981459 0.27590027 0.16657886
000020 11 a4 9e 3d 5b f1 5d 3e 61 45 6b bd 25 76 c5 bc
       0.07746137 0.21674101 -0.05743921 -0.024104187
000030 58 ac d6 bd 91 be 42 be 58 50 c6 bd 91 4c a2 3e
       -0.10482091 -0.19018008 -0.09683293 0.3169904
000040 37 b8 20 3c e1 2d 12 3e dd 3a ff 3a c9 42 25 3e
       0.009809545 0.14275314 0.0019472499 0.16138758
000050 6d 31 77 3c 0b 58 68 bc 37 b1 e6 3d 62 9b 98 bd
       0.015087468 -0.014181147 0.1126427 -0.07451512
000060 3a 45 91 3c c1 cc 95 3b 68 c8 2e be f8 ca 25 3d
       0.017733205 0.0045715277 -0.17068636 0.04047677
000070 cd 4e 7f be 0f c8 6c be d1 ae 6d be 1f d7 44 bd
       -0.24932404 -0.23123191 -0.23211218 -0.048056718
000080 8f fd 52 3c fc 41 09 be d4 c7 14 3e 3c 23 b0 be
       0.012877836 -0.13404077 0.14529353 -0.34401882
000090 d9 e7 56 3e 9a 64 68 3d d7 75 5f 3d 31 41 f9 bb
       0.2098688 0.056736566 0.05455574 -0.0076066484
0000a0 a6 b8 ec bd 47 4a 92 3e b3 f8 c9 3d 41 8c b0 be
       -0.115586564 0.28572294 0.09861889 -0.34482005
0000b0 2f 72 31 be 79 c2 10 be 3e 39 ca bd 8e cc d4 3d
       -0.17328714 -0.14136685 -0.09874199 0.10390578
0000c0 4f ce 36 be bb 75 73 3e c7 65 37 be 71 0c 4d be
       -0.17852138 0.2377538 -0.17909919 -0.20024277
0000d0 b1 f6 b1 3e 62 1c b4 bc 7e 36 1f bd fb ae 29 3d
       0.34758523 -0.02198619 -0.038870327 0.04142664
0000e0 f9 f1 d1 bd a9 41 32 bc 17 f9 06 be 22 8e 55 3d
       -0.10251231 -0.010879912 -0.13180958 0.0521375
0000f0 83 14 25 be d6 97 fb bd f6 a7 13 be 44 c2 85 bc
       -0.16121106 -0.1228482 -0.14419541 -0.016327985
000100 f6 f4 da 3d 52 a6 5d 3e 81 8a 84 bd e5 00 b5 bb
       0.10691254 0.21645477 -0.0647173 -0.0055237883
000110 fe 56 b5 3e f1 1e 41 3d b3 39 d2 be b3 31 b9 be
       0.35417932 0.04714865 -0.41059646 -0.3617073
000120 9d 26 82 bc f0 94 5b bd fe d3 1e bd d7 f7 ff bc
       -0.015887553 -0.053608835 -0.03877639 -0.031246109
000130 3e 0a 9c 3f 64 28 2a 3f ae c8 13 3f 5b 77 73 3f
       1.2190626 0.6646788 0.5772809 0.95103997
000140 da 27 b0 3c 14 0d b5 3c dd 6a 4f 3e fc 4f d7 bc
       0.021503378 0.022100963 0.20255609 -0.026283257
000150 b5 15 74 be f7 09 55 3e f9 cc 27 be e7 a5 9c bd
       -0.23836406 0.20804583 -0.16386785 -0.07648831
000160 9e 1d 6c 3e 43 35 3a be 48 5c 8b bc fe b0 79 3d
       0.23058173 -0.1818438 -0.017011777 0.06095981
000170 fc af a5 bd f1 59 c5 3d 19 0d 6b 3e a5 85 a2 3d
       -0.08090207 0.096362956 0.22954215 0.07935647
000180 eb 6f 9b bd 7c 27 31 3e a8 68 8c 3c e6 98 30 ba
       -0.07589706 0.17300218 0.017139748 -0.0006736651
000190 2c 2e f4 bd 1b 57 5b 3e 5f b4 02 bd 3f cd ba bd
       -0.11922869 0.21419947 -0.031910297 -0.09121179
0001a0 f6 f4 05 be e0 dc 6a 3d e5 42 9d be 7c 2c d3 3e
       -0.13081726 0.05733955 -0.307151 0.41244876
0001b0 f4 66 97 bc 95 b8 69 bd 27 ca 2e 3e d7 af 49 3e
       -0.018481709 -0.057060797 0.17069302 0.19695984
0001c0 cb 62 97 bd 84 6c 4c be c7 ef 9c bc cf 92 14 3d
       -0.0739189 -0.1996327 -0.019157303 0.03627282
0001d0 6d 55 b2 bd a7 e9 78 3d f1 59 f9 bd e7 74 3d 3e
       -0.087077 0.060769703 -0.12175358 0.18501626
0001e0 da 32 e6 3d 43 7c 47 bc ee bf cc 3e b4 ba 97 3e
       0.11240168 -0.012175622 0.3999018 0.2963463
0001f0 73 56 3c be 23 5e 40 be 05 8d f6 3d fc b4 5a 3e
       -0.18392353 -0.1878591 0.12038616 0.21358103
000200 8c b8 c6 3e e1 7a c2 bc 38 18 da 3d 67 4b d5 3d
       0.38812673 -0.023740234 0.106491506 0.104147725
000210 8d 10 41 be ea 8b 03 be 49 dc d3 3c 01 d4 85 3d
       -0.1885397 -0.12846342 0.025861876 0.06534577
000220 f7 a6 5e be 99 f3 43 be ac a6 c1 3d 00 63 36 be
       -0.2174338 -0.19135894 0.09455618 -0.17811203
000230 59 7d 1b be ed 42 02 be 32 60 58 be 93 15 78 bd
       -0.15184535 -0.12720843 -0.21130446 -0.06056745
000240 34 d7 d3 3e f7 4f 90 bd 73 d1 1a be a0 3e e4 3d
       0.41375124 -0.07046502 -0.15118961 0.11144757
000250 dd b9 74 3d c0 e9 30 3e fd 2a fd bb c4 d6 a0 bd
       0.059747566 0.17276669 -0.007726072 -0.07853463
000260 18 39 4d 3e 3d 0d f3 bd 31 57 63 3e b8 93 0a bf
       0.20041311 -0.118677594 0.2220123 -0.5413165
000270 1d 21 ae 3b 24 5b 8b 3e 3a ce 56 be a6 44 89 3e
       0.005314006 0.27217972 -0.20977107 0.26810187
000280 53 6a 5f 3e 35 d3 f3 3e 1b 99 21 3f df 38 4c 3d
       0.21817903 0.47622076 0.63124245 0.049858924
000290 f6 df 3c bc f4 db 08 3d 1f 3d 67 3e 99 1f 0b 3e
       -0.011528006 0.03341289 0.2258191 0.13586272
0002a0 ed 23 01 bd 9a 54 11 bf c4 8b 0f bc 3f f6 40 3d
       -0.031528402 -0.56769717 -0.00876135 0.04710984
0002b0 1b a2 43 3d f8 31 c9 bd 19 07 37 bc b6 a0 91 3e
       0.047762018 -0.09823984 -0.011171126 0.28442925
0002c0 7e 7f 93 bd 6c b7 1a 3e be f4 9a 3c 48 1a 44 bd
       -0.072020516 0.15109032 0.01891553 -0.047876626
0002d0 83 6e a6 be 27 2b f1 3d 13 f8 5a 3e 80 90 c0 3d
       -0.3250619 0.11775809 0.21383695 0.09402561
0002e0 50 c8 c7 3e a9 2f b3 bd 6e 52 2e 3b e2 1d a0 bd
       0.39020014 -0.08749325 0.0026599425 -0.078182
0002f0 75 96 fd 3d a8 c3 4b be 11 d0 36 3e 30 6d 8f be
       0.12382213 -0.19898856 0.17852809 -0.2801299
000300 ad 6f 9c 3e 66 22 c5 3c a5 5e 45 3e 69 47 ae 3d
       0.30553952 0.024064254 0.19274385 0.08509714
000310 cf 77 b6 bc 39 45 65 3e 50 c9 4b be a1 da 6c 3d
       -0.022273926 0.22389688 -0.19901013 0.05782569
000320 c4 e5 09 be c4 4a c7 3d ec 35 5d 3b 22 36 87 3d
       -0.13466555 0.09731057 0.0033754064 0.06602122
000330 d9 0e 92 bd 03 ce 92 3d 6f ba 4b 3a e4 d1 20 bd
       -0.07131738 0.071682 0.0007771616 -0.039262667
000340 c5 96 b5 bd 70 b4 85 3e 5a 8b d2 bb 61 fe ec 3e
       -0.08866648 0.26114225 -0.0064253034 0.46287826
000350 9e eb 8b bc 2f 82 0e 3d 56 48 ad 3c 62 0b e2 3d
       -0.017080124 0.03479212 0.021152657 0.11037327
000360 ec 8c 87 3f b1 8d e7 bc eb 1f b6 be cb 90 c1 3e
       1.0589881 -0.028265806 -0.35571226 0.3780578
000370 f7 5f 14 3d c3 13 21 3d 64 1a a6 3e c7 ac 84 be
       0.03622433 0.039325487 0.3244201 -0.2591307
000380 05 0c f1 3d fe 1f 0b bd 50 23 85 3e 99 d5 39 be
       0.11769871 -0.033966057 0.26003504 -0.18147887
000390 58 31 99 3e 96 2b 9c 3e 0d 66 77 3d 03 b6 eb 3d
       0.2992046 0.30502003 0.060400058 0.11509325
0003a0 1a f2 9e bd ba 47 f0 3d 8c d9 42 be 1a f5 24 3e
       -0.07761021 0.11732431 -0.190283 0.16109124
0003b0 8b 44 c6 bd e5 2c be 3e 49 2f fb 3d 83 eb 95 3d
       -0.09681042 0.37143627 0.12264878 0.07320311
0003c0 a9 2f 74 be 46 ee 9b 3d 5e 96 a4 3d a3 ef 7c be
       -0.23846306 0.076138064 0.08036493 -0.24700789
0003d0 13 a3 a0 bc 31 d3 8d 3d ca 80 a0 bd 78 c1 28 be
       -0.01960901 0.06925047 -0.078370646 -0.16480052
0003e0 bb 25 a1 be 9f 8b 8d 3e 07 e2 c3 3d 13 a4 ff bc
       -0.314741 0.27645585 0.09564596 -0.031206166
0003f0 88 95 50 be a9 3d d9 bc 79 59 8d 3b a0 74 00 bd
       -0.20369542 -0.02651866 0.0043136445 -0.031361222

critic.0.bias f4 [64]
000000 de cc 8b bd 82 be 6c bd b6 72 23 bb f3 1d bb bb
       -0.06826185 -0.05779887 -0.00249402 -0.0057103573
000010 d3 48 0c bc 22 76 ee bc 67 6e 06 bd 26 78 2c bd
       -0.0085622845 -0.029109064 -0.03282013 -0.04210677
000020 aa 04 bb 3c c4 4c e6 37 10 90 19 bd 57 c9 a5 3d
       0.022829372 2.7453883e-05 -0.037490904 0.08095043
000030 a7 33 c3 3c 93 ff 71 b7 80 00 9e ba 6d bf ae bb
       0.02382834 -1.4424225e-05 -0.0012054592 -0.0053328783
000040 b9 65 b4 b9 22 6a a6 b9 15 29 6a 3d c2 22 8f 3d
       -0.00034408065 -0.00031741062 0.057168085 0.069890514
000050 4b 5f 33 39 fe 9f 52 3d a8 4e d4 bc ae ca 9f 3c
       0.0001710627 0.05142211 -0.025916412 0.019505825
000060 89 ad 66 bd a7 4e 3f 3d 80 22 1b bb cc af 64 3d
       -0.05631784 0.046705868 -0.0023671687 0.055831715
000070 b8 08 9d b9 8d 09 8f 3d 4a 0d 85 3d 27 d7 90 3d
       -0.0002995187 0.069842435 0.06496675 0.07072287
000080 ef ac 9f bc 9d 0f 85 3b 34 f3 9f 3a 93 87 ef 3c
       -0.01949164 0.004060699 0.0012203217 0.029239452
000090 f1 d4 ad bd 76 fe 9b 3b b9 d3 5d b9 03 6d 72 3b
       -0.08487881 0.0047605587 -0.00021155075 0.0036991246
0000a0 59 68 46 bd f6 03 9c 3d 8c 1d 90 39 8b 44 91 3d
       -0.048439357 0.07617943 0.00027487834 0.07093152
0000b0 6c 68 4a 3c 51 46 22 bd 4f 7d e2 bc e7 4f 76 39
       0.012353998 -0.03961784 -0.027647642 0.00023490154
0000c0 62 5d 0e 3c 47 08 8a 37 b3 df 8f bc 70 a0 b0 bb
       0.008689256 1.6454736e-05 -0.017562723 -0.0053902194
0000d0 f0 1d 47 3c 0f 64 0a 3c dd c2 a5 bb 4e 62 16 3d
       0.012153134 0.008446707 -0.00505863 0.036714844
0000e0 66 10 7a 3c a3 5a 68 3b b2 f7 0b bb b2 63 f2 3b
       0.015262699 0.0035454414 -0.0021357355 0.0073971385
0000f0 4e f1 9d 34 32 7c 98 3b 12 49 4c bc e8 5f 8e 3a
       2.94191e-07 0.004653477 -0.012468593 0.0010862323

critic.2.weight f4 [64, 64]
000000 20 de 02 be 21 23 90 3d 8e 02 c4 3e c7 9c 84 be
       -0.12780046 0.0703795 0.382832 -0.25900862
000010 35 16 ff 3c 88 68 fc bd 90 70 51 3e 93 4c 7a be
       0.031138519 -0.12324625 0.20453095 -0.24443273
000020 46 9c 01 3b 9b a3 b8 be 89 83 13 3e 46 b1 4d be
       0.0019776984 -0.3606232 0.14405645 -0.20087156
000030 9a 97 3f 3e e4 79 61 3d 62 21 06 3b 61 e6 1e bd
       0.18710175 0.055047885 0.0020466675 -0.038793925
000040 a4 87 0f 3d d6 66 00 be 67 70 18 be 76 2f a6 3e
       0.035041466 -0.12539229 -0.14886628 0.32458085
000050 58 07 d0 bd 83 d3 fb bc cd 75 e4 bd 09 4f 16 bd
       -0.10157651 -0.030740505 -0.11155281 -0.036696468
000060 fd 07 80 3e 0e 3a 8f be 90 70 05 3d 81 94 85 bd
       0.25006095 -0.2797398 0.03257805 -0.065224655
000070 5e c9 35 be 91 e8 1f 3e 31 55 f4 bd 41 0e 79 3e
       -0.17752597 0.15616061 -0.119303115 0.24321844
000080 86 9d 82 3e 13 f5 ae be 0b b0 8f 3e 22 d5 7a be
       0.25510806 -0.34171352 0.28063998 -0.24495366
000090 ff 9b bc bd 27 64 92 3d 69 98 b1 3d 26 1b 60 3d
       -0.092094414 0.07148009 0.08671648 0.05471339
0000a0 11 e4 0f 3d 40 ff 63 bc 2d ca b3 3c 21 67 fc bd
       0.03512961 -0.013915837 0.02194699 -0.12324358
0000b0 f9 3a ee 3d ca 9d 20 bc 85 3a f4 bb fb d3 99 3e
       0.11632342 -0.009803245 -0.007453265 0.3004454
0000c0 2c 59 7d be bb 19 27 bd 1e 6c 6c bd 0e 02 60 bb
       -0.24741048 -0.040796023 -0.057720296 -0.0034180912
0000d0 59 2d 35 be ff b6 90 3e 9c 68 f3 3d d4 91 4f 3c
       -0.1769308 0.28264615 0.11885187 0.0126690455
0000e0 eb fd 2a be 27 1c dd be 2d 3a 0b be 5c 1b bb 3d
       -0.16698425 -0.4318554 -0.13596411 0.09136078
0000f0 3c 30 23 3e 50 43 2d 3e 31 41 a5 bd 57 f3 0f 3e
       0.15936369 0.16920209 -0.08069075 0.1405767
000100 b0 93 91 be da 2e bc 3e e4 82 5c bd cb 4f 03 3e
       -0.2843299 0.36754495 -0.053835765 0.12823407
000110 7e 29 57 3e 39 4b e0 3e 92 4d 40 3e 40 b6 12 be
       0.21011922 0.4380739 0.1877959 -0.14327335
000120 d3 88 3e bc 30 a4 d5 3c ec 54 67 3e bf 39 fe bd
       -0.011629301 0.026079267 0.22590989 -0.12413358
000130 0b ff 65 be be e9 3c 3d 93 a4 21 be 8c 78 40 be
       -0.22460572 0.04612135 -0.15785436 -0.18795985
000140 f8 16 1f be 3a 91 e5 3c d6 75 2b be f3 60 14 be
       -0.15536106 0.028023351 -0.1674417 -0.14490108
000150 8c 80 cf bd 23 26 89 3e 0e 92 dd bd a3 21 1b 3e
       -0.1013194 0.26786909 -0.10818873 0.1514955
000160 de 51 1f be 9d 22 6d be 20 16 fa bd bd 78 d5 bc
       -0.15558574 -0.23157735 -0.12211251 -0.026058549
000170 1f b4 cd bc d9 7b 6e 3e e1 15 82 bc 07 10 ab 3d
       -0.025110302 0.23289432 -0.015879573 0.08352666
000180 c6 78 19 3e 36 97 0f 3d bd bb 76 be 42 f5 9c 3d
       0.14987478 0.035056315 -0.24095054 0.07663967
000190 f4 93 91 be 2e 45 51 3e cc 9c 32 be d2 f7 9b 3e
       -0.28433192 0.20436546 -0.17442626 0.3046251
0001a0 29 cc 5f 3e c0 41 ff bc ee b8 6e be 71 aa 3a be
       0.21855225 -0.031159282 -0.23312733 -0.1822908
0001b0 ed bc 27 3e 8d c4 a9 bd 19 9c 1a 3e 08 18 38 be
       0.16380663 -0.08289442 0.15098609 -0.17977917
0001c0 20 55 9e bd 94 6a 4a 3d 6a f7 82 3d 85 c8 1e bc
       -0.0773108 0.049418047 0.06394847 -0.009691362
0001d0 a3 f1 c3 bd e7 aa fd 3b fd 33 26 3e 42 49 df bd
       -0.09567573 0.0077413204 0.1623077 -0.10902645
0001e0 d2 e9 65 3d 16 f8 8e 3e 64 3e a2 be 40 4f 98 3e
       0.05613119 0.2792365 -0.31688225 0.29747963
0001f0 50 c6 0e be c3 c1 96 be ef 9a b5 bd 06 58 c4 3c
       -0.13942838 -0.29444703 -0.08867442 0.023967754
000200 b1 a7 13 3d 07 38 e2 bc be 42 86 3e 6c 4a 31 3e
       0.036048595 -0.027614607 0.26222795 0.17313546
000210 1d 18 4d be 8f 27 18 3e 8d 8a 8e 3d 7a a9 a7 3e
       -0.2002873 0.1485884 0.0696002 0.32746488
000220 ae 12 60 3e f3 8b 46 3e c8 e5 81 be f7 f5 89 3c
       0.21882126 0.19389324 -0.25370622 0.016840918
000230 35 56 e3 3b 7a 08 8a be be a7 79 3e b2 c4 63 3d
       0.006937767 -0.26959592 0.24380395 0.055607505
000240 4e db a3 3d 6b e4 88 3c f5 dc 5c 3e a4 1f d3 bd
       0.080008134 0.01671048 0.21568663 -0.10308769
000250 38 de e7 bd e2 31 2b 3e 94 a6 28 bd 1b a8 8d bd
       -0.11321682 0.16718248 -0.041174486 -0.06916829
000260 f4 46 3c 3e 0e 70 bf 3c 50 eb 61 bd 63 ca be 3e
       0.18386441 0.023368862 -0.055156052 0.37263784
000270 90 42 12 3e f3 6d 65 bc 95 34 7d 3e 0c be 4e 3e
       0.14283204 -0.014003265 0.2472709 0.20189685
000280 f1 95 6a 3e 4a 5a 1b 3e 58 77 50 3e 69 cd 22 be
       0.2290876 0.15171161 0.20358026 -0.1589867
000290 48 3d 17 3d 1a 2f 5b 3e 53 c6 fc 3d cc de f1 3d
       0.036923677 0.21404687 0.12342515 0.11810073
0002a0 9d 32 08 be 70 31 16 3a 0c ef dd bd 4d 04 12 3d
       -0.13300557 0.00057294127 -0.1083661 0.035648633
0002b0 c3 e2 59 3e 4d b9 26 3e 13 4c 93 be 02 e8 04 3d
       0.21277909 0.16281624 -0.28768978 0.032447822
0002c0 d7 d2 dd 3d 4d cb 09 be ed 6c 81 3d 62 c4 14 3e
       0.1083123 -0.1345646 0.06319604 0.14528039
0002d0 cb 49 54 bd af 39 86 3e b2 a1 c7 3e 42 6f 84 be
       -0.051828187 0.26215884 0.3899055 -0.25866133
0002e0 e6 7e 48 3e 17 ad 3b be 7d 17 d5 bb 9d 7f 92 3e
       0.19579658 -0.18327747 -0.006503044 0.28612986
0002f0 c8 2b 89 bd ea 0a 5c be 3d 14 a7 3d 5e 33 b0 be
       -0.06697804 -0.21488538 0.08158157 -0.3441419
000300 a5 7a e7 bc e3 f1 5a bd 1b 9e b8 bd 67 92 1c be
       -0.028256724 -0.053453337 -0.09014531 -0.15290223
000310 47 41 ee 3d 10 7d 66 be 97 4e be 3d 4a 86 1e 3d
       0.116335444 -0.22508645 0.092923336 0.038702287
000320 6e 36 dc bc c7 f0 b3 be 9c f2 d4 be 6d 99 de be
       -0.026881423 -0.35144636 -0.41591346 -0.4347643
000330 73 2f 77 3d d6 01 a8 3b 7c fc 80 3e 9f a3 b0 bd
       0.060347985 0.005127172 0.2519263 -0.08624958
000340 c7 d7 db 3e a6 e4 a4 bd 56 53 6c 3d 5d 96 0f be
       0.42938063 -0.08051424 0.057696663 -0.14022203
000350 44 9c 07 be 05 e0 d3 bd f1 73 95 3c 3d 16 0e 3e
       -0.13243204 -0.10345463 0.018243762 0.1387567
000360 6c 80 a1 3d 61 bd 65 be b6 c2 b8 bc 44 aa da bc
       0.07885823 -0.22435524 -0.022553783 -0.026692517
000370 ea 83 53 3e e1 48 38 3e 50 0c 67 3c 74 3f 91 bc
       0.2065579 0.17996551 0.014102057 -0.017730452
000380 5d ef 23 3e 46 3f d7 3d 45 f6 a2 be 89 43 69 be
       0.16009279 0.10510115 -0.31828514 -0.22779669
000390 4e ac 1c be f2 dd f2 3c e9 7c 69 3b a8 81 bd bd
       -0.15300104 0.029646847 0.003562743 -0.092532456
0003a0 66 c2 46 be 68 bc a7 bc 5b 5c 40 3d 1f 64 61 3e
       -0.19410095 -0.020475581 0.046963077 0.2201085
0003b0 31 40 c9 bc 76 c5 92 3e ae 4d b8 3e 2b f4 c0 bd
       -0.024566742 0.28666276 0.35996765 -0.09421571
0003c0 45 7e 6f bd 1d 6b ae bd e0 78 22 bd fc 9d 1e 3e
       -0.05847003 -0.08516524 -0.039666057 0.15489954
0003d0 75 5e b6 3e fb 62 9b be c4 f6 80 3d fa cf 5b be
       0.3561894 -0.30348954 0.06297067 -0.21466056
0003e0 37 72 bd bd 98 51 be bc 70 19 05 be 32 d0 b1 3c
       -0.092503004 -0.023232266 -0.12997985 0.02170572
0003f0 30 c3 2c be 71 19 3a 3a ad c2 5d bd 2a 45 70 3e
       -0.16871333 0.0007099128 -0.054140735 0.23463884

critic.2.bias f4 [64]
000000 ad 60 41 3c 42 11 4e bc 2d 0f 0f bd 96 7c 03 bd
       0.011802834 -0.012577357 -0.034926582 -0.032101236
000010 cf 84 70 bc 2b 49 f0 bc 95 71 5e 3c 19 c4 55 bb
       -0.014680102 -0.029331764 0.013576885 -0.0032618104
000020 94 d2 a4 3b e1 b6 9d 3c e8 0a 97 bc d5 f4 b5 bc
       0.0050299857 0.019252243 -0.018437818 -0.022211472
000030 a6 c2 1b 3d ae ca 2c bd 02 ad f5 3c 0f c6 0c bc
       0.038027428 -0.042185478 0.029989723 -0.008592143
000040 f3 10 54 bc a6 48 28 bc 74 91 fc ba 12 39 9c bc
       -0.012943494 -0.010271227 -0.0019269423 -0.019070182
000050 1f 50 10 3c 7d eb 06 bd a2 72 27 bd 02 b1 55 ba
       0.008808165 -0.032939423 -0.040880807 -0.00081516814
000060 78 97 c9 3c cc cb 16 3d 4a 2b 85 3c 11 37 9a bc
       0.024608359 0.03681545 0.016255993 -0.018825086
000070 a4 72 9f bc 7b 5d ba 3c d8 40 b9 3b 37 1c e9 bc
       -0.019463845 0.022749653 0.005653482 -0.028455837
000080 5b e9 46 bb 05 da 0b bc 81 0d 69 bc 1e ca e1 bb
       -0.0030351493 -0.008535867 -0.014224411 -0.0068905493
000090 d3 1c 82 bc d3 ab 52 3c 35 d1 90 3c cf 1d 14 bb
       -0.015882885 0.012858349 0.017677883 -0.0022600775
0000a0 35 63 a2 3c c3 0e 51 bc 44 eb 24 3b 60 83 68 bb
       0.019822696 -0.012759867 0.0025164643 -0.0035478696
0000b0 7c 0b bb 3b ca d5 bb 3c cd 8c e3 bb 90 b1 3c bc
       0.005708156 0.022929091 -0.006944275 -0.011516944
0000c0 ea 4a 81 bc ca cd 46 bb ed 22 22 bb e8 15 95 bc
       -0.015782792 -0.0030335062 -0.0024740056 -0.018198922
0000d0 e9 da 03 bd bd 3f 45 bc 5c 4c ab 3b 8c 71 f2 bc
       -0.03219119 -0.012039122 0.0052276086 -0.029595159
0000e0 3a 70 8e bc d6 d0 2e 3c 53 e6 3e 39 b6 11 41 39
       -0.017387498 0.010669908 0.00018205614 0.00018412512
0000f0 5e bb 81 bc c7 15 13 bc 16 61 26 bb 6a 21 31 3b
       -0.015836414 -0.00897736 -0.0025387458 0.0027027973

critic.4.weight f4 [1, 64]
000000 07 3f c0 3b 56 24 45 be a5 cc e9 3d 4a bf 1e 3e
       0.0058668884 -0.19252142 0.11415986 0.15502658
000010 17 b4 4e 3d a5 51 a9 3d 64 dd 31 3e 1c 80 19 3d
       0.050464716 0.082675256 0.1736961 0.03747569
000020 62 36 49 bd 10 6d 0a be b4 99 44 be fe 27 9a 3d
       -0.04912413 -0.13518167 -0.19199258 0.07527159
000030 5e bd 9f bd 7f 12 6b 3e 99 8c 7c bd 97 81 01 3e
       -0.07799791 0.22956274 -0.061657522 0.12647091
000040 71 80 97 3c 11 fe 7d bd 11 35 c5 3e 80 4e 39 3e
       0.018493863 -0.062009875 0.3851705 0.18096352
000050 1c 65 28 3e 01 d3 fc 3d 0c 47 94 3d d9 d4 82 be
       0.1644482 0.12344933 0.072401136 -0.25553015
000060 51 15 cf bd e2 82 39 be 85 e3 34 bd fe 86 5a 3d
       -0.10111488 -0.18116334 -0.044162292 0.053351395
000070 4c e1 14 be a1 49 d1 bd c9 04 8b be 3e bf b2 3d
       -0.14539069 -0.10219122 -0.27152088 0.08727883
000080 42 fe 91 3e 9f a5 72 3e 00 26 82 3d 56 f5 bd 3d
       0.28514296 0.23695992 0.06354904 0.0927531
000090 25 b7 6c 3c 85 f3 94 3d fc aa 13 be 6b 6a 5e be
       0.014447962 0.0727301 -0.14420694 -0.21720283
0000a0 85 b3 9c be d6 d3 a0 bd 50 79 2a 3e 51 c6 28 bc
       -0.30605713 -0.078529045 0.1664784 -0.010301189
0000b0 97 f5 95 3c 87 84 e6 3d 7a 5e a2 3e f3 d2 8c be
       0.018305583 0.11255746 0.31712705 -0.2750469
0000c0 89 ca 18 3e 0a cc 5c bd ca 6e 0f 3d 4c 68 5e 3e
       0.14921011 -0.053905524 0.035017766 0.21719474
0000d0 74 75 ad 3d 24 4c 75 3c a4 9c 08 be 26 1a 0d be
       0.08469668 0.014971767 -0.13341004 -0.13779506
0000e0 27 44 f6 bd 6b a7 e6 bc ef b2 15 be b2 1d 76 be
       -0.12024718 -0.028156003 -0.14619039 -0.24034765
0000f0 1f 7f e4 bc 60 57 60 be 55 b4 db 3d 25 d2 0c 3e
       -0.027892647 -0.21908331 0.10727755 0.13752039
