fw_flightcontrol/models/icinco/ppo/gustonly/ppo_bohn_caps_nohist_easymedrefs_gustsonly_6930_06-06_14:43:15.pt (torch, 47159 bytes, 12 tensors)

actor_logstd f4 [1, 2]
0.002603217 0.05018969
00000000: bc9a 2a3b b493 4d3d

actor_mean.0.weight f4 [64, 14]
0.064080685 0.3542261 0.00056476134 -0.09345393 0.19414152 -0.30009308 0.5907924 -0.14473742
0.117898844 0.2660306 -0.2710274 -0.346913 0.30155784 0.30070463 0.06342226 0.056942485
-0.33002743 -0.11627536 -0.17464419 -0.12367528 0.049248904 0.12952384 0.0750366 0.064221635
-0.11688008 -0.07913136 -0.0983574 -0.119559206 -0.15779053 -0.12558858 0.20882191 -0.03547824
0.010111982 -0.0022129796 0.37482512 0.19488224 0.10025938 -0.19944295 -0.089158155 -0.025829192
0.083001144 0.038209163 0.019113518 -0.2594292 0.1305015 0.14946884 -0.24513389 -0.07793836
-0.14105819 -0.17657347 0.33166632 0.05557097 0.15884216 -0.44805014 0.19087161 -0.19888774
-0.27811334 0.12434362 0.23033059 0.31729755 -0.13807283 0.17546886 -0.019563414 -0.21548615
-0.08644572 0.005110925 0.23127092 -0.0067339097 0.11144428 -0.09301626 -0.06621456 0.21119285
0.22165768 -0.23916622 0.40273008 -0.103818335 -0.011643634 0.10025709 0.30082437 0.30730107
0.25301972 0.009612318 0.2240668 -0.062306713 0.25712216 0.21336257 0.03969867 0.1024798
-0.25470364 -0.008080149 -0.41568315 0.17672275 -0.088721834 0.14966854 -0.24587098 -0.040524717
0.4374437 0.3712466 0.100579575 -0.3060113 0.2230624 -0.09475999 0.023527464 0.042472634
0.047729157 -0.21098243 0.025391802 -0.079516634 -0.019549765 0.11012881 -0.10144849 0.3230915
-0.07738065 0.38623422 0.003144287 -0.36804637 0.06734411 -0.10754688 0.21279973 -0.5288822
-0.15905139 -0.040857445 0.12568675 0.2685408 0.33550376 -0.34606478 0.3233799 -0.08379421
-0.13380243 0.26922172 0.22050492 0.22876726 -0.065155886 -0.0839063 0.060062945 -0.34786388
-0.27491152 -0.20282757 0.095162466 0.1502948 0.020919276 0.02952156 0.17206831 0.08984605
-0.118852176 0.23443772 0.21751587 -0.10421861 0.30937284 -0.12669468 -0.004193565 -0.23839737
-0.0024302988 -0.043203905 0.041409742 -0.13149965 0.045405243 -0.14034636 -0.4264288 0.15869106
-0.10194556 0.13417615 0.1772136 -0.31874967 -0.19900532 -0.071915105 -0.0055922447 -0.36114693
0.14632066 0.042383127 0.002814919 0.041426867 0.07889125 -0.1545969 -0.4673818 0.10612145
-0.17922491 -0.38040596 -0.012689263 -0.28412023 -0.23448518 0.19624475 0.2498461 -0.005378338
0.23718911 -0.33480063 -0.13805978 0.11244946 -0.056899484 -0.035051703 -0.08999555 0.025819378
0.1292867 -0.29756966 0.23263903 -0.05427842 0.20304228 0.052070517 -0.19030544 -0.011521632
0.007286731 0.22871363 -0.22278003 0.007992684 0.32869202 0.035641506 0.27213737 -0.06421355
-0.23434907 -0.060734414 0.23945418 -0.029789733 -0.04370673 0.10228573 0.18602608 -0.13836321
0.116779886 -0.050895426 -0.40779394 0.03533353 0.054391377 -0.16931215 0.11336818 -0.36728257
-0.012510248 -0.28006482 0.14954112 0.037185453 -0.2154496 -0.2568164 -0.15829964 -0.13035361
0.12650058 -0.016106438 -0.10806681 0.24668376 -0.27823696 -0.0023830684 0.018723957 0.14848563
0.068525374 0.20370607 0.19480203 0.11613489 -0.47883812 -0.024737496 0.16448307 -0.07801604
0.026333366 0.23512481 -0.060074273 -0.09843578 -0.06214891 -0.034474697 0.35802153 0.04076232
00000000: bc3c 833d 205d b53e 7e0c 143a c664 bfbd
00000010: 09cd 463e cda5 99be 2c3e 173f 0c36 14be
00000020: f374 f13d 2a35 883e 1ac4 8abe 959e b1be
00000030: ca65 9a3e f5f5 993e 88e3 813d 863c 693d
00000040: 5bf9 a8be c721 eebd edd5 32be 7749 fdbd
00000050: 38b9 493d e6a1 043e caac 993d a286 833d
00000060: d35e efbd 9f0f a2bd 9b6f c9bd 75db f4bd
00000070: d793 21be 4b9a 00be 69d5 553e a251 11bd
00000080: baac 253c a307 11bb 14e9 bf3e 368f 473e
00000090: ca54 cd3d c63a 4cbe 8d98 b6bd be97 d3bc
000000a0: 81fc a93d 3681 1c3d f493 9c3c e7d3 84be
000000b0: 2fa2 053e 5c0e 193e 6104 7bbe 269e 9fbd
000000c0: 8f71 10be adcf 34be 2bd0 a93e 639e 633d
000000d0: 85a7 223e d466 e5be d973 433e 3aa9 4bbe
000000e0: df64 8ebe dea7 fe3d c8db 6b3e d374 a23e
000000f0: f762 0dbe 1cae 333e 7443 a0bc 67a8 5cbe
00000100: 740a b1bd 8c79 a73b 49d2 6c3e 21a8 dcbb
00000110: e63c e43d 4f7f bebd 809b 87bd f042 583e
00000120: 3bfa 623e fde7 74be a332 ce3e b59e d4bd
00000130: f1c4 3ebc 9753 cd3d a705 9a3e 9156 9d3e
00000140: cd8b 813e fc7c 1d3c c471 653e 5335 7fbd
00000150: 84a5 833e b87b 5a3e 139b 223d eee0 d13d
00000160: 8468 82be 9a62 04bc 6cd4 d4be cff6 343e
00000170: cbb3 b5bd b642 193e 9ac5 7bbe 3ffd 25bd
00000180: 9ff8 df3e 0914 be3e aafc cd3d 83ad 9cbe
00000190: 786a 643e 8711 c2bd abbc c03c c9f7 2d3d
000001a0: a67f 433d c70b 58be 7802 d03c 9ed9 a2bd
000001b0: d426 a0bc 378b e13d 3ac4 cfbd 406c a53e
000001c0: bf79 9ebd 7ec0 c53e 6210 4e3b 9370 bcbe
000001d0: b5eb 893d 8a41 dcbd 2ce8 593e d364 07bf
000001e0: 5ede 22be 235a 27bd 07b4 003e 2e7e 893e
000001f0: 26c7 ab3e 672f b1be 0d92 a53e 4c9c abbd
00000200: 8103 09be 6ed7 893e 0bcc 613e f741 6a3e
00000210: 7370 85bd 11d7 abbd 9004 763d 371b b2be
00000220: 34c1 8cbe 08b2 4fbe 8ae4 c23d e1e6 193e
00000230: e75e ab3c 33d7 f13c ad32 303e 3501 b83d
00000240: c568 f3bd 7110 703e 7bbc 5e3e 9170 d5bd
00000250: 1e66 9e3e 40bc 01be 2c6a 89bb 711e 74be
00000260: a645 1fbb 94f6 30bd 439d 293d d8a7 06be
00000270: d9fa 393d f5b6 0fbe e054 dabe e97f 223e
00000280: d5c8 d0bd 7965 093e 7b77 353e 2833 a3be
00000290: 0dc8 4bbe 3a48 93bd 263f b7bb 40e8 b8be
000002a0: 15d5 153e ee99 2d3d 817a 383b 38af 293d
000002b0: bc91 a13d a64e 1ebe ab4c efbe 3456 d93d
000002c0: bc86 37be 92c4 c2be a0e6 4fbc 3578 91be
000002d0: e21c 70be 62f4 483e a8d7 7f3e c53c b0bb
000002e0: b4e1 723e fd6a abbe 8b5f 0dbe e74b e63d
000002f0: 6f0f 69bd 6092 0fbd 964f b8bd 2983 d33c
00000300: bc63 043e 0d5b 98be ed38 6e3e 0c53 5ebd
00000310: 51ea 4f3e e547 553d 6edf 42be 3ac5 3cbc
00000320: 88c5 ee3b e833 6a3e 7320 64be bff3 023c
00000330: 524a a83e d4fc 113d 9755 8b3e 6582 83bd
00000340: 34f9 6fbe a6c4 78bd 7a33 753e 9909 f4bc
00000350: d405 33bd 2e7b d13d 9f7d 3e3e 16af 0dbe
00000360: 4b2a ef3d b977 50bd 5eca d0be e4b9 103d
00000370: 7ec9 5e3d 2a60 2dbe 942d e83d 760c bcbe
00000380: c9f7 4cbc a864 8fbe 4f21 193e c64f 183d
00000390: d29e 5cbe 707d 83be 4d19 22be 6b7b 05be
000003a0: 5e89 013e a6f1 83bc 2252 ddbd ab9a 7c3e
000003b0: 1375 8ebe 412d 1cbb fc62 993c 9e0c 183e
000003c0: 0857 8c3d 5398 503e 2f7a 473e 21d8 ed3d
000003d0: 452a f5be 4aa6 cabc 406e 283e e0c6 9fbd
000003e0: 12b9 d73c 8fc4 703e 7110 76bd b398 c9bd
000003f0: db8f 7ebd 5735 0dbd 994e b73e 64f6 263d

actor_mean.0.bias f4 [64]
-0.038482957 3.7698093e-05 -0.00033840048 0.005036827 -0.00025289564 4.174172e-05 -0.017350804 0.00033372274
0.03293408 0.015463456 0.012089323 -0.091303945 -0.025528692 1.4307499e-05 -0.0011470034 0.026259292
-0.021874147 -0.01921047 -7.838406e-06 0.0044773873 -0.018436741 -0.016299425 -0.0007985698 7.154472e-05
0.002638987 0.0012083568 -0.034723014 -4.0839943e-05 0.022135256 -0.00090713525 -0.0054972693 0.014054551
-0.023499597 -0.013661869 -0.026995681 -9.8978286e-05 0.0007881456 0.00058052945 0.0014179944 0.064951845
-0.0017051655 -0.044192042 -0.00831555 -5.335793e-05 -0.001813317 0.0113778785 -0.00053988345 0.005093917
-0.0023733776 -0.016624594 -0.00022412038 0.004859973 0.0008991522 0.004000277 0.0024771614 -4.5844772e-05
-0.019356236 -0.042674635 0.018577475 0.0040231915 0.00012661683 -0.009933043 7.1045265e-06 0.030824874
00000000: 4ea0 1dbd 051e 1e38 586b b1b9 f80b a53b
00000010: 1497 84b9 d513 2f38 4623 8ebc 82f7 ae39
00000020: e3e5 063d 6f5a 7d3c 4c12 463c 90fd babd
00000030: 8c21 d1bc 3e0a 7037 0c57 96ba ba1d d73c
00000040: 6931 b3bc 475f 9dbc b381 03b7 0cb7 923b
00000050: a608 97bc 5f86 85bc 1d57 51ba 470a 9638
00000060: dbf2 2c3b ba61 9e3a b839 0ebd 8e4b 2bb8
00000070: ff54 b53c d1cc 6dba 7022 b4bb 0f45 663c
00000080: 3a82 c0bc 08d6 5fbc 0c26 ddbc 9092 cfb8
00000090: 8e9b 4e3a ac2e 183a ffdb b93a 7905 853d
000000a0: dc7f dfba b702 35bd f23d 08bc a4cc 5fb8
000000b0: d2ac edba 486a 3a3c f786 0dba dfea a63b
000000c0: ab8a 1bbb 4d30 88bc db01 6bb9 6940 9f3b
000000d0: 15b5 6b3a c114 833b df57 223b 7349 40b8
000000e0: f890 9ebc 99cb 2ebd ca2f 983c fad4 833b
000000f0: 72c4 0439 34be 22bc 6b63 ee36 7284 fc3c

actor_mean.2.weight f4 [64, 64]
0.05285164 0.15100136 -0.112729065 0.32943663 -0.32778177 -0.0847833 -0.0013393963 0.33560744
0.061440323 0.079351425 0.09867499 0.0065428005 0.061655495 -0.16584378 0.15790877 0.05744512
0.14231211 -0.036470417 0.16751885 0.06715695 0.4892226 -0.18336055 -0.2118412 0.05311176
0.34209394 -0.49622878 0.19009069 -0.251932 0.15759076 -0.033901334 -0.001388904 0.22424279
0.30164087 0.19358116 0.27773005 0.03488152 0.099693775 0.031794276 0.078064874 -0.10485068
-0.17371935 -0.11130552 -0.02752948 0.106576025 -0.063298605 -0.033565834 0.106584504 0.025611393
0.014255887 -0.3995661 0.33301574 -0.28089127 0.05795306 0.10063304 0.02760865 -0.171616
0.28006887 0.09117787 -0.08698998 0.30588397 0.10231859 -0.040835693 -0.0036975688 0.026673323
-0.24015787 0.22309256 0.026468538 -0.12195692 -0.09026978 -0.16952765 0.074608624 -0.08656317
-0.053432576 0.07150918 -0.20172705 0.01494619 0.21139921 0.18396868 -0.05223245 0.2193485
-0.10257198 -0.5354494 -0.0120475255 -0.04981838 0.15636076 0.33400035 0.12010592 -0.3776614
0.18546902 0.44813102 0.25555596 0.09185371 -0.13502733 -0.12141487 0.159784 -0.22817507
-0.1023093 0.07325264 -0.259011 -0.24051744 0.045839183 0.09586951 0.19686992 -0.082320444
0.046295155 -0.027588006 -0.055113822 0.051554304 -0.043163102 -0.028793657 -0.001696945 0.059124917
0.22329672 0.018554207 -0.028383685 0.2233015 0.011417848 0.11012866 -0.054447718 -0.49656194
0.0047855363 -0.18673034 0.15910248 0.2809722 0.11818602 -0.09176867 -0.30826283 -0.24075985
-0.20527476 -0.32385093 0.14028032 -0.24554203 -0.26682088 -0.08160201 0.017815873 0.038261656
-0.22976324 -0.2108591 -0.040249743 0.111266784 -0.18110761 -0.15547876 0.08982107 -0.10500772
0.11112722 0.106480636 0.07399694 -0.6344079 -0.030208888 -0.094414644 -0.29340658 -0.1548525
0.17959929 -0.08336686 0.068772644 0.007668865 -0.31650522 -0.19239672 -0.0897236 -0.15373
0.13774335 0.08290296 -0.29252768 0.2087316 -0.09450192 0.041140534 0.25343555 0.18921594
-0.05807459 -0.124834254 -0.25529692 0.2529237 0.16232143 0.04039866 -0.24905331 -0.035973024
-0.083281405 -0.018032061 -0.2041535 0.19372115 0.2259111 0.19908006 0.1626058 0.1581466
0.19141309 -0.40397912 0.07720351 0.118395135 -0.117401466 0.0895792 0.26459676 -0.010936824
0.09903113 0.2058154 0.06959404 0.036722206 -0.10271473 -0.116981275 -0.05906357 -0.13974082
-0.22874628 -0.010938284 0.10869596 0.21468195 0.33589068 -0.30917335 -0.2171383 0.2600419
-0.17193104 0.08037147 0.07187654 -0.2374487 -0.29326305 0.20883654 -0.05380024 -0.380384
0.110242255 -0.2825162 -0.2640552 0.18352382 0.3461541 0.16913855 -0.3148879 -0.035745062
-0.011514751 -0.0555315 -0.16549984 -0.068845734 -0.028375557 0.014200564 0.09230718 0.08321748
0.19788034 -0.07951016 -0.09097149 0.0115948925 -0.07397599 0.31333882 0.1557843 0.21904203
-0.2322945 0.055684894 -0.23509966 -0.16662188 0.034671023 -0.15728456 0.19406134 0.02862517
0.1104485 -0.09754476 -0.025201572 0.065882795 0.52681166 -0.065261476 0.12053312 0.022431564
00000000: f67a 583d 1aa0 1a3e 7fde e6bd ebab a83e
00000010: 03d3 a7be dea2 adbd af8e afba bdd4 ab3e
00000020: d9a8 7b3d 0083 a23d 1d16 ca3d fd64 d63b
00000030: 798a 7c3d f4d2 29be d6b2 213e 934b 6b3d
00000040: 44ba 113e 0162 15bd 108a 2b3e 9589 893d
00000050: 627b fa3e dec2 3bbe e6ec 58be b88b 593d
00000060: f026 af3e b311 febe 22a7 423e 3bfd 80be
00000070: 795f 213e 20dc 0abd e30b b6ba e79f 653e
00000080: ac70 9a3e 243a 463e a232 8e3e eddf 0e3d
00000090: 402c cc3d b73a 023d 7ae0 9f3d f4bb d6bd
000000a0: 7ce3 31be 26f4 e3bd 8185 e1bc 8844 da3d
000000b0: b3a2 81bd 547c 09bd fa48 da3d fcce d13c
000000c0: 8691 693c ee93 ccbe 0a81 aa3e fbd0 8fbe
000000d0: 3060 6d3d b218 ce3d 892b e23c 1bbc 2fbe
000000e0: 3065 8f3e 77bb ba3d cd27 b2bd d39c 9c3e
000000f0: 698c d13d 5443 27bd e952 72bb 0382 da3c
00000100: f2eb 75be 6072 643e 8cd4 d83c 8dc4 f9bd
00000110: 5ddf b8bd a898 2dbe 68cc 983d 0848 b1bd
00000120: 1edc 5abd 6873 923d 8991 4ebe dde0 743c
00000130: 0979 583e 4962 3c3e b2f1 55bd e59c 603e
00000140: 4211 d2bd 3613 09bf fc62 45bc 5c0e 4cbd
00000150: 091d 203e 1802 ab3e 18fa f53d d65c c1be
00000160: 97eb 3d3e 6e71 e53e 3bd8 823e cc1d bc3d
00000170: 9b44 0abe 5ca8 f8bd 6b9e 233e baa6 69be
00000180: 8a87 d1bd 7b05 963d 179d 84be 344a 76be
00000190: dec1 3b3d 3c57 c43d 4598 493e 9f97 a8bd
000001a0: fd9f 3d3d 3e00 e2bc 08bf 61bd 9b2a 533d
000001b0: cbcb 30bd ade0 ebbc 076c deba f82c 723d
000001c0: e5a7 643e fefe 973c e784 e8bc 26a9 643e
000001d0: ed11 3b3c 238b e13d 9204 5fbd 5e3d febe
000001e0: fdcf 9c3b 3d36 3fbe c3eb 223e 97db 8f3e
000001f0: 830b f23d 36f1 bbbd a0d4 9dbe c089 76be
00000200: 8c33 52be cacf a5be a5a5 0f3e 5f6f 7bbe
00000210: bf9c 88be f41e a7bd 98f2 913c 41b8 1c3d
00000220: 0e47 6bbe 73eb 57be eadc 24bd d7df e33d
00000230: 4674 39be d335 1fbe 1cf4 b73d 4a0e d7bd
00000240: ab96 e33d 8512 da3d b58b 973d 8e68 22bf
00000250: a178 f7bc 775c c1bd 6339 96be a791 1ebe
00000260: e0e8 373e 3fbc aabd acd8 8c3d 1a4b fb3b
00000270: f90c a2be a503 45be 02c1 b7bd 666b 1dbe
00000280: 980c 0d3e 07c9 a93d 30c6 95be bdbd 553e
00000290: 398a c1bd fa82 283d 4ec2 813e d3c1 413e
000002a0: 9fdf 6dbd 1aa9 ffbd 47b6 82be 377f 813e
000002b0: 9737 263e 1179 253d d507 7fbe 7358 13bd
000002c0: 718f aabd f9b7 93bc 9d0d 51be d65e 463e
000002d0: 3d55 673e a5db 4b3e 2382 263e 2ff1 213e
000002e0: cb01 443e 5ad6 cebe e01c 9e3d 2679 f23d
000002f0: 2e70 f0bd 4d75 b73d 3a79 873e 5d30 33bc
00000300: d5d0 ca3d 46c1 523e 5287 8e3d 066a 163d
00000310: 1a5c d2bd e193 efbd a4ec 71bd 3818 0fbe
00000320: 773c 6abe 7d36 33bc fd9b de3d 96d5 5b3e
00000330: ddf9 ab3e f84b 9ebe 8159 5ebe 3624 853e
00000340: b10e 30be cc99 a43d 0234 933d c125 73be
00000350: 9326 96be 3fd9 553e a45d 5cbd b1c1 c2be
00000360: b1c6 e13d f7a5 90be 3e32 87be abed 3b3e
00000370: 1c3b b13e a832 2d3e fd38 a1be 6a69 12bd
00000380: 5ea8 3cbc 0075 63bd ca78 29be fefe 8cbd
00000390: db73 e8bc 7ba9 683c 8c0b bd3d ed6d aa3d
000003a0: 25a1 4a3e 39d6 a2bd 434f babd 81f8 3d3c
000003b0: b980 97bd f26d a03e eb85 1f3e 8e4c 603e
000003c0: 9cde 6dbe d815 643d f7bd 70be ed9e 2abe
000003d0: 3403 0e3d 340f 21be 04b8 463e 557f ea3c
000003e0: d332 e23d 8cc5 c7bd 8773 cebc 8fed 863d
000003f0: 21dd 063f cfa7 85bd 12da f63d 66c2 b73c

actor_mean.2.bias f4 [64]
-0.006341999 0.03038142 0.025397616 0.014027957 -0.031847134 0.03228588 0.027235009 -0.020994127
0.0067660348 0.02079809 -0.0043774573 -0.0053973757 0.003910293 0.0075978246 0.0045071943 0.0115425
-0.0036271908 0.020576043 -0.016364956 -0.043453302 -0.02041486 0.0019200419 -0.0015556702 -0.007084806
0.028876657 -0.048402503 0.013041041 -0.06373791 -0.028665857 -0.020677784 0.039529484 -0.0143600665
0.037560824 -0.0019182288 -0.027300777 -0.021513224 0.046083383 0.009939032 0.034454297 0.036305703
-0.0007362325 -0.0052606757 -0.008835483 -0.01381707 -0.0028164145 -0.0023772442 -0.025219984 0.016797101
0.029719863 0.015514819 0.0015685724 0.022154342 -0.0031700684 0.0012663858 -0.03698342 -0.0107579725
-0.015356867 -0.0011498402 -0.005860933 0.009328503 0.02439028 0.008316037 0.0025597753 -0.012899404
00000000: 8bd0 cfbb 75e2 f83c a90e d03c 84d5 653c
00000010: 2472 02bd 333e 043d f41b df3c e0fb abbc
00000020: 9db5 dd3b c260 aa3c c670 8fbb 78dc b0bb
00000030: ea21 803b 2cf7 f83b 16b1 933b c11c 3d3c
00000040: 2ab6 6dbb 178f a83c cd0f 86bc 17fc 31bd
00000050: 113d a7bc eaa9 fb3a a1e7 cbba a927 e8bb
00000060: bd8e ec3c b441 46bd 17aa 553c 0589 82bd
00000070: a9d4 eabc 7564 a9bc abe9 213d 7c46 6bbc
00000080: 61d9 193d 146d fbba e1a5 dfbc 803c b0bc
00000090: eec1 3c3d 52d7 223c f31f 0d3d 4ab5 143d
000000a0: baff 40ba bf61 acbb b4c2 10bc fe60 62bc
000000b0: 9893 38bb 8acb 1bbb 249a cebc 139a 893c
000000c0: 1277 f33c de31 7e3c 8e98 cd3a 067d b53c
000000d0: ecc0 4fbb dbfc a53a ed7b 17bd 3542 30bc
000000e0: 5e9b 7bbc 3cb6 96ba 120d c0bb 94d6 183c
000000f0: 20ce c73c fd3f 083c e7c1 273b 0658 53bc

actor_mean.4.weight f4 [2, 64]
0.114078894 -0.15273435 -0.07714478 -0.05175739 0.045673277 0.23559624 -0.11773455 0.11940765
-0.054752942 0.09436838 0.022313934 -0.15003297 -0.10255376 -8.513472e-05 -0.117719784 0.0012387593
0.16471209 0.082290486 -0.0025761314 -0.093464114 0.047074497 -0.0016336214 0.11128543 -0.04248396
0.025811391 0.006392634 -0.019341761 -0.01969818 -0.052932974 -0.21799786 0.01876049 0.14151518
0.2112456 0.18399335 0.037565466 0.038150866 0.0924523 0.012249851 -0.0415617 0.0024787483
0.11544014 -0.25101528 0.14997007 0.09868144 -0.044971894 0.013484275 -0.11173898 -0.04478429
-0.09214193 -0.0073051937 0.20756161 -0.041088052 -0.0030015002 0.007584114 0.07772509 0.1051122
-0.15875381 0.22487919 0.002160804 0.11843614 0.041810915 -0.06569744 0.046488296 -0.0415283
-0.056952413 0.03738465 -0.1222947 -0.08593698 0.029516341 0.1212469 0.057351544 -0.011381059
-0.04423791 0.013425298 0.16395609 -0.10942806 0.10322175 0.002272066 0.08791915 -0.0025366652
-0.060593896 -0.050000936 -0.001711723 0.08459557 -0.11991916 0.15320596 0.06084334 0.14278372
-0.04658605 0.027407905 -0.143603 0.04608804 0.17765878 -0.016517406 0.088112265 -0.11503397
0.03496328 0.0049074 0.0025938153 0.17518468 0.03319924 -0.16149448 -0.0073468327 -0.10632351
-0.16123278 -0.10172667 0.076435715 0.13919917 0.23856649 0.013912299 -0.06266257 0.11670325
-0.045048233 -0.15947776 0.026251886 -0.16935451 -0.004140313 0.10913726 0.227052 0.08788419
0.08286218 0.017865216 0.14972793 0.045661237 -0.10226402 -0.15383711 -0.16532303 -0.08042386
00000000: 32a2 e93d 6566 1cbe 15fe 9dbd 8fff 53bd
00000010: e713 3b3d 2440 713e d01e f1bd ff8b f43d
00000020: 9f44 60bd 3644 c13d b6cb b63c 3ea2 19be
00000030: b507 d2bd 5b8a b2b8 1217 f1bd dd5d a23a
00000040: 49aa 283e ea87 a83d 50d4 28bb 1d6a bfbd
00000050: 30d1 403d 3d1f d6ba 9ee9 e33d a903 2ebd
00000060: 6972 d33c 4d79 d13b 9d72 9ebc 145e a1bc
00000070: 3fd0 58bd d53a 5fbe 99af 993c 5be9 103e
00000080: c450 583e c168 3c3e 3fde 193d 1544 1c3d
00000090: a257 bd3d 99b3 483c 9a3c 2abd 7f72 223b
000000a0: e16b ec3d 1385 80be c191 193e 7f19 ca3d
000000b0: 7334 38bd 26ed 5c3c 68d7 e4bd bb6f 37bd
000000c0: e8b4 bcbd 6860 efbb 088b 543e f24b 28bd
000000d0: d1b4 44bb 2984 f83b 552e 9f3d 1145 d73d
000000e0: 5c90 22be bb46 663e 479c 0d3b a68e f23d
000000f0: ec41 2b3d 618c 86bd 836a 3e3d 9419 2abd
00000100: ef46 69bd a620 193d a575 fabd baff afbd
00000110: 41cc f13c 4b50 f83d 74e9 6a3d 9f77 3abc
00000120: d032 35bd c8f5 5b3c 1be4 273e d21b e0bd
00000130: ed65 d33d f1e6 143b f50e b43d 2e3e 26bb
00000140: 4e31 78bd c8cd 4cbd e55b e0ba 7140 ad3d
00000150: 2d98 f5bd 06e2 1c3e de36 793d e535 123e
00000160: 04d1 3ebd 8b86 e03c aa0c 13be d0c6 3c3d
00000170: 2fec 353e 834f 87bc 3474 b43d ee96 ebbd
00000180: a835 0f3d 41ce a03b 00fd 293b 9d63 333e
00000190: edfb 073d cf5e 25be b3bd f0bb 24c0 d9bd
000001a0: 351a 25be 1356 d0bd 548a 9c3d 3a8a 0e3e
000001b0: c64a 743e 69f0 633c 3c55 80bd 1d02 ef3d
000001c0: 7f84 38bd 234e 23be 320e d73c 456b 2dbe
000001d0: 76ab 87bb 5b83 df3d 5280 683e a0fc b33d
000001e0: a6b3 a93d 135a 923c 4752 193e 4707 3b3d
000001f0: cc6f d1bd 7a87 1dbe 714a 29be 44b5 a4bd

actor_mean.4.bias f4 [2]
-0.0039987075 -0.0017591036
00000000: 9707 83bb b991 e6ba

critic.0.weight f4 [64, 14]
0.033629302 -0.35742307 0.01275442 0.052689277 -0.14992541 0.04764718 -0.03842398 1.4022373
0.15769373 0.057500117 -0.009068964 -0.02340859 -0.046687663 0.23621443 -0.08684709 0.09744726
0.14122131 -0.06951199 0.07900954 -0.14834148 -0.13514121 0.059857693 -0.054578494 0.07637384
0.21253137 0.037016716 0.19352198 0.21231203 0.11977718 -0.054212842 -0.3534639 0.12445675
-0.013134103 -0.018372837 0.33041745 -0.06259551 0.047271296 0.29671967 0.050128795 0.1815225
0.05757461 -0.00089260295 -0.3164382 0.17896631 -0.07464634 -0.00392562 0.1537682 -0.039669827
0.010907956 0.1827296 -0.109542124 -0.028534325 -0.18786316 0.085988805 0.21094933 0.07059733
-0.11109888 0.10543205 0.07586933 -0.13985145 -0.086778134 -0.29513586 0.13102087 0.123780064
0.058771625 0.12624276 0.033589132 0.047556933 -0.39228883 0.29095942 -0.3116279 0.22254695
0.0013881428 0.06865878 -0.035139386 0.12029423 0.56629723 0.21044338 0.10486464 0.3987082
0.0063453536 0.03848027 -0.02994347 0.19458134 -0.23505628 -0.11706457 -0.008990358 0.06319564
0.06820372 0.06923258 0.07281419 0.03878176 0.14757912 0.035132483 0.04089158 0.014777317
0.24452947 -0.058862336 -0.2856716 -0.029613404 0.023085114 -0.17913696 -0.39825875 -0.14261107
0.23736198 -0.3985602 0.20276299 0.3201813 0.008215289 -0.01548401 0.24999152 0.10703843
0.4622425 0.28657487 -0.026351158 0.24159305 -0.3259371 0.14541039 -0.44260964 -0.38113764
0.041974925 0.009475556 -0.04385988 0.07002322 0.0254617 0.02845141 -0.15570301 0.08602005
0.07408941 -0.07500252 0.0964893 -0.016330436 0.43170786 -0.11407849 0.25640395 0.14441034
0.051267847 -0.07055248 -0.15841165 -0.019082544 -0.116028085 -0.24311402 -0.100177914 -0.16995792
-0.0031950092 0.084785745 -0.15136635 0.031113826 -0.33336443 0.38104266 0.04863601 -0.35711244
-0.047423523 -0.19443507 0.39016145 -0.2489186 -0.011909103 0.067420155 0.012338748 0.053899303
-1.1326705 0.45004746 0.2863315 -0.528332 -0.000779323 -0.059087846 -0.19621436 -0.023370543
-0.010255826 -0.032856338 0.007998046 0.14256664 -0.04742664 0.12954341 -0.28435537 -0.106985986
0.025277166 -0.19204988 0.011126241 -0.13942614 0.016929362 0.002348382 0.10037292 0.067634024
-0.20876017 0.013423932 -0.08812113 0.30160066 0.21887657 0.23244956 0.0038285984 -0.11360253
-0.32385916 0.0036576402 -0.08316799 0.004129825 -0.21699034 0.05454573 0.20857407 0.53617674
-0.05644964 -0.0013332621 -0.06472606 0.09250818 0.23934864 0.025201669 0.11886053 0.1377256
0.32462853 -0.051623438 0.14869161 0.07163279 0.3888342 0.13129818 -0.36712834 0.19590862
-0.1903477 -0.20851575 0.014551434 0.11516334 0.13467583 0.017752344 0.15234011 -0.3010095
0.23950227 -0.023231668 -0.21497251 -0.13437505 -0.19011834 0.10143176 -0.002699776 -0.28337428
0.11139278 -0.25568175 -0.21140017 -0.058156826 0.09904362 0.104459554 -0.08099487 0.10579936
0.12859802 -0.25706223 -0.007246856 0.038376596 0.10605916 -0.27922204 -0.32870516 -0.0109822545
-0.093757264 0.08656663 0.23771906 0.13573828 -0.22522908 -0.058777396 0.0012937756 0.0056594466
00000000: e1be 093d 2800 b7be eaf7 503c b6d0 573d
00000010: 0c86 19be b029 433d 7762 1dbd 837c b33f
00000020: 777a 213e 3e85 6b3d fe95 14bc 5fc3 bfbc
00000030: 903b 3fbd 32e2 713e e3dc b1bd 6e92 c73d
00000040: 529c 103e 4d5c 8ebd c1cf a13d d4e6 17be
00000050: 7562 0abe 572d 753d b38d 5fbd e369 9c3d
00000060: d3a1 593e d79e 173d a02a 463e 5368 593e
00000070: bd4d f53d 490e 5ebd 38f9 b4be 2ee3 fe3d
00000080: 6c30 57bc a282 96bc 7a2c a93e 1332 80bd
00000090: 8c9f 413d a4eb 973e da53 4d3d 09e1 393e
000000a0: 5bd3 6b3d 92fd 69ba 3004 a2be f242 373e
000000b0: 2ee0 98bd 7da2 80bb 6975 1d3e d47c 22bd
000000c0: 49b7 323c 781d 3b3e 9f57 e0bd d1c0 e9bc
000000d0: 335f 40be e61a b03d 1a03 583e 5595 903d
000000e0: cf87 e3bd c2ec d73d 6161 9b3d 3835 0fbe
000000f0: bcb8 b1bd 0c1c 97be 562a 063e 6780 fd3d
00000100: 84ba 703d c845 013e c294 093d 0fcb 423d
00000110: 15da c8be a2f8 943e b18d 9fbe 59e3 633e
00000120: 58f2 b53a f99c 8c3d 51ee 0fbd d25c f63d
00000130: dbf8 103f 787e 573e 46c3 d63d 7b23 cc3e
00000140: afec cf3b 7d9d 1d3d 024c f5bc 5540 473e
00000150: 98b2 70be 8dbf efbd 4b4c 13bc b76c 813d
00000160: 64ae 8b3d d0c9 8d3d 9b1f 953d 9fd9 1e3d
00000170: fb1e 173e 14e7 0f3d ee7d 273d 8f1c 723c
00000180: ef65 7a3e a219 71bd 8c43 92be cf97 f2bc
00000190: fe1c bd3c ae6f 37be 92e8 cbbe a308 12be
000001a0: 050f 733e 1510 ccbe 1aa1 4f3e ceee a33e
000001b0: 6b99 063c a5b0 7dbc c7fd 7f3e f736 db3d
000001c0: 0dab ec3e f1b9 923e 62de d7bc 2b64 773e
000001d0: 3ae1 a6be 76e6 143e bb9d e2be 7924 c3be
000001e0: e6ed 2b3d 5d3f 1b3c 6ba6 33bd 5568 8f3d
000001f0: 0e95 d03c ee12 e93c 9c70 1fbe 482b b03d
00000200: 30bc 973d ec9a 99bd 2f9c c53d 68c7 85bc
00000210: d008 dd3e fca1 e9bd 6147 833e 4ee0 133e
00000220: 3cfe 513d d27d 90bd aa36 22be ff52 9cbc
00000230: 22a0 edbd e2f2 78be 142a cdbd 7309 2ebe
00000240: 5c63 51bb 26a4 ad3d c8ff 1abe 6ce2 fe3c
00000250: beae aabe 0618 c33e 8e36 473d 71d7 b6be
00000260: 2b3f 42bd fd19 47be 3ec3 c73e 84e4 7ebe
00000270: 661e 43bc 9413 8a3d 7628 4a3c 84c5 5c3d
00000280: 59fb 90bf 9f6c e63e 0b9a 923e c440 07bf
00000290: 7b4b 4cba 1906 72bd 6bec 48be 9573 bfbc
000002a0: 0d08 28bc 5e94 06bd 3d0a 033c fdfc 113e
000002b0: 7042 42bd 07a7 043e 0797 91be 781b dbbd
000002c0: 0f12 cf3c b9a8 44be d64a 363c bac5 0ebe
000002d0: 72af 8a3c 50e7 193b 5190 cd3d b583 8a3d
000002e0: 3ac5 55be 0df0 5b3c da78 b4bd 676b 9a3e
000002f0: 2e21 603e 4207 6e3e 39e9 7a3b 71a8 e8bd
00000300: ded0 a5be 05b5 6f3b fb53 aabd 7c53 873b
00000310: b732 5ebe 586b 5f3d 7194 553e e142 093f
00000320: bd37 67bd dac0 aeba 198f 84bd ee74 bd3d
00000330: cf17 753e bb73 ce3c 266d f33d f107 0d3e
00000340: b635 a63e 1973 53bd 9d42 183e 36b4 923d
00000350: 4715 c73e 0873 063e 3ff8 bbbe 459c 483e
00000360: 82ea 42be 2785 55be 2369 6e3c c2da eb3d
00000370: 76e8 093e 5d6d 913c 0cff 1b3e eb1d 9abe
00000380: 1540 753e 5750 bebc c121 5cbe 9d99 09be
00000390: 62ae 42be 74bb cf3d baee 30bb 6f16 91be
000003a0: e621 e43d b8e8 82be 4979 58be da35 6ebd
000003b0: 62d7 ca3d e4ee d53d a3e0 a5bd 56ad d83d
000003c0: 33af 033e a99d 83be 0977 edbb c730 1d3d
000003d0: 8b35 d93d 31f6 8ebe 0b4c a8be eaee 33bc
000003e0: cf03 c0bd d849 b13d a06c 733e fafe 0a3e
000003f0: 74a2 66be 91c0 70bd e893 a93a e172 b93b

critic.0.bias f4 [64]
0.014808744 8.9569285e-06 -7.695499e-06 0.004908441 0.043207847 -0.098104104 0.04603864 -0.038149685
0.053450953 0.02906941 -0.004905731 0.009493826 -0.07236587 -3.85296e-06 0.00078770233 1.2368786e-06
0.00012685914 -0.002810681 -0.054883383 -0.011329604 -0.0002071037 -0.014024267 0.013200434 -0.028207973
-0.03219063 -0.02096582 3.7311625e-07 0.14747518 -0.016252762 -1.20768e-05 4.4164553e-05 0.01053319
-0.019245332 -4.0341707e-05 -1.18907344e-07 0.033665147 0.11673139 3.549888e-05 -0.0044662664 0.02700522
-0.031932626 -0.013036361 -0.03559384 0.043495614 0.0295403 0.011694049 1.777943e-06 2.5384039e-05
0.012844035 -0.00011941441 -0.00023869556 -0.027097883 -0.00432646 -0.0012124851 1.2746088e-05 -1.7296275e-05
-0.0025916314 0.078175075 0.009575262 -0.088652946 -5.900418e-07 0.0053021787 -0.0028734566 -0.015078486
00000000: 60a0 723c b745 1637 eb1b 01b7 fdd6 a03b
00000010: b6fa 303d ceea c8bd 0393 3c3d d842 1cbd
00000020: 63ef 5a3d f922 ee3c 41c0 a0bb fe8b 1b3c
00000030: 8f34 94bd ad48 81b6 cf7d 4e3a d302 a635
00000040: 7e05 0539 6733 38bb 66cd 60bd ce9f 39bc
00000050: fa29 59b9 0ac6 65bc a246 583c 6814 e7bc
00000060: 52da 03bd 83c0 abbc b550 c834 bc03 173e
00000070: 8324 85bc 769d 4ab7 543d 3938 6793 2c3c
00000080: 63a8 9dbc 9434 29b8 015a ffb3 77e4 093d
00000090: de10 ef3d a2e4 1438 c259 92bb 0d3a dd3c
000000a0: c9cb 02bd 7696 55bc d9ca 11bd 7528 323d
000000b0: 80fe f13c 6698 3f3c a8a1 ee35 cfef d437
000000c0: ca6f 523c 206e fab8 5a4a 7ab9 61fc ddbc
000000d0: fac4 8dbb 40ec 9eba 08d8 5537 7817 91b7
000000e0: 5cd8 29bb 411a a03d 8fe1 1c3c ad8f b5bd
000000f0: 5d63 1eb5 e6bd ad3b 9a50 3cbb c10b 77bc

critic.2.weight f4 [64, 64]
-0.051768202 -0.053635668 -0.03819828 -0.10239259 -0.15461142 -0.005440435 -0.27311307 0.12851612
-0.19845203 -0.13032506 -0.07163736 -0.33037633 -0.35906026 0.16505176 -0.44752234 -0.20643082
-0.15504465 0.053788297 -0.13590966 0.36912003 -0.025667747 0.15923047 0.11377611 0.11115535
0.20583533 0.020600146 0.16659121 0.06261269 0.34480938 -0.33431527 -0.05629267 0.28350803
0.105534986 -0.10572197 -0.11169694 -0.009033678 0.09143457 0.0006893948 0.1236666 0.13881603
-0.1679648 -0.09129382 -0.11434861 -0.18339187 -0.09218583 0.023489375 -0.17354047 -0.030612996
0.060295623 -0.13700332 0.010466649 0.23705225 0.16309752 -0.08721409 0.08506599 -0.13297744
-0.035309125 0.14561045 0.2869065 -0.04525317 -0.28495577 -0.40311518 0.007904302 0.23894532
-0.027205858 0.017625283 0.27274483 -0.0032949108 -0.16780154 -0.16118369 -0.007222849 -0.49405944
0.21419737 0.108313456 -0.07298026 0.12791578 0.025450312 -0.22303925 -0.00011146035 0.09626925
0.032996345 0.077424906 -0.00998772 -0.14979185 0.33402395 0.11346372 0.1366679 0.0027902494
-0.07197006 -0.11993135 -0.27929765 0.29863018 0.11120998 0.2769806 -0.2530972 0.055678885
0.1833638 -0.22967203 0.1578239 -0.10415777 0.05201699 0.082404725 0.20681392 -0.24061884
-0.108266674 -0.4398936 0.005059273 -0.32787198 -0.049766187 -0.30452892 -0.33793092 -0.22110027
0.093985066 -0.13870196 0.06250935 0.17543271 0.016741259 0.28015146 -0.05435405 0.002255878
0.21306174 0.12067751 0.023027921 -0.21846853 -0.051739853 -0.020584807 -0.22255947 -0.1727808
-0.29389685 -0.007554302 0.13443063 -0.20669603 0.28650305 0.3026616 0.19414492 0.10796735
0.067913525 -0.28467312 -0.090318 0.087307125 0.25729573 -0.08353899 -0.032632258 0.008637865
-0.037831716 0.34979004 -0.0674707 -0.0096281795 -0.022028444 0.2541287 0.21835369 0.016295282
-0.26648578 -0.068680935 -0.19492996 -0.14890312 0.24354607 -0.27069893 -0.120240055 0.0015533249
0.010250832 0.072812475 -0.08512124 -0.09843266 -0.38313016 0.18904549 -0.27219978 -0.015136367
-0.12980705 0.083350345 0.2924055 0.08458017 0.030574292 0.03382912 0.13722648 -0.2767409
0.33037305 0.2037062 -0.17458282 0.14535841 0.24724789 -0.10054621 -0.12690105 -0.07400533
0.022040933 0.09777671 -0.050171554 -0.32123232 0.14240107 0.04395816 -0.19349812 0.0017511138
0.27751988 -0.065929085 0.09309661 -0.074718006 0.1962291 -0.19669287 -0.0025773598 -0.012935305
0.033002675 0.071773686 -0.022087812 -0.087598346 0.11326844 0.18190497 -0.12115084 0.15290712
0.13515572 -0.025850711 0.2581279 0.4502164 0.30669114 -0.05066538 -0.13519041 -0.21491507
0.29297978 0.067569815 -0.12219654 -0.2003684 -0.060924053 0.0724453 -0.2988233 -0.016106611
0.08292358 0.1687488 0.05273459 -0.14014934 -0.0015423833 -0.1402143 0.076985 0.09675002
0.4313974 0.30108222 0.009636026 -0.007333382 0.19375871 -0.096394695 -0.024226002 -0.1090177
0.17162998 0.042578757 -0.3034635 0.16963367 -0.18253638 0.25895333 -0.1422432 0.23080625
-0.260303 0.19949208 0.060636554 -0.33185032 0.1586775 -0.19507208 -0.08042906 0.022005824
00000000: e50a 54bd 13b1 5bbd cd75 1cbd 35b3 d1bd
00000010: 7552 1ebe ad45 b2bb 7ad5 8bbe bb99 033e
00000020: 0237 4bbe ef73 05be 9cb6 92bd 1627 a9be
00000030: bfd6 b7be 5403 293e a621 e5be 9a62 53be
00000040: 06c4 1ebe 1e51 5c3d e72b 0bbe 4dfd bc3e
00000050: 2b45 d2bc 500d 233e 7303 e93d 6ba5 e33d
00000060: 7fc6 523e a3c1 a83c e396 2a3e 153b 803d
00000070: db8a b03e 5f2b abbe 2593 66bd f727 913e
00000080: ba22 d83d c384 d8bd 5ec1 e4bd fe01 14bc
00000090: 0c42 bb3d 80b8 343a ea44 fd3d ca25 0e3e
000000a0: f7fe 2bbe 41f8 babd 9b2f eabd 14cb 3bbe
000000b0: edcb bcbd ca6c c03c 98b4 31be 1bc8 fabc
000000c0: 8bf8 763d 994a 0cbe 4f7c 2b3c d3bd 723e
000000d0: 0903 273e 4d9d b2bd 1437 ae3d 3d2b 08be
000000e0: 4da0 10bd e81a 153e 69e5 923e 635b 39bd
000000f0: b9e5 91be 1d65 cebe 0c81 013c 15ae 743e
00000100: d2de debc e662 903c 36a5 8b3e 6eef 57bb
00000110: 2bd4 2bbe 560d 25be a6ad ecbb 5cf5 fcbe
00000120: 8e56 5b3e 72d3 dd3d ad76 95bd 5bfc 023e
00000130: 2c7d d03c 6764 64be d2bf e9b8 d028 c53d
00000140: 2d27 073d f390 9e3d 89a3 23bc 0963 19be
00000150: 3005 ab3e ab5f e83d acf2 0b3e 9edc 363b
00000160: 0a65 93bd 919e f5bd 1a00 8fbe 0ee6 983e
00000170: 0fc2 e33d 67d0 8d3e f595 81be 8b0f 643d
00000180: b8c3 3b3e 252f 6bbe 979c 213e ab50 d5bd
00000190: c40f 553d cfc3 a83d 07c7 533e c964 76be
000001a0: ebba ddbd bc39 e1be 42c8 a53b d6de a7be
000001b0: a1d7 4bbd 37eb 9bbe 4805 adbe 1c68 62be
000001c0: 3e7b c03d e307 0ebe e704 803d a2a4 333e
000001d0: f724 893c 0370 8f3e 5aa2 5ebd 5ad7 133b
000001e0: db2c 5a3e c525 f73d 0da5 bc3c 37b6 5fbe
000001f0: 2bed 53bd 78a1 a8bc a1e6 63be 73ed 30be
00000200: a679 96be 148a f7bb 2fa8 093e 20a8 53be
00000210: 87b0 923e 76f6 9a3e edcd 463e fc1d dd3d
00000220: 3f16 8b3d adc0 91be a5f8 b8bd 14ce b23d
00000230: 44bc 833e 7d16 abbd 67a9 05bd d585 0d3c
00000240: 6ef5 1abd ae17 b33e 142e 8abd 83bf 1dbc
00000250: ff74 b4bc 281d 823e 1c98 5f3e af7d 853c
00000260: d370 88be 97a8 8cbd b89b 47be 0f7a 18be
00000270: 2464 793e 0d99 8abe 6b40 f6bd ef98 cb3a
00000280: 1bf3 273c b51e 953d 0b54 aebd 1097 c9bd
00000290: a329 c4be 2495 413e c55d 8bbe 86fe 77bc
000002a0: 24ec 04be 96b3 aa3d 2cb6 953e 5e38 ad3d
000002b0: f076 fa3c 6790 0a3d 1985 0c3e fcb0 8dbe
000002c0: a826 a93e 5c98 503e d7c5 32be d6d8 143e
000002d0: 8d2e 7d3e 2ceb cdbd 59f2 01be 1b90 97bd
000002e0: 308f b43c 283f c83d b080 4dbd 9078 a4be
000002f0: 96d1 113e 790d 343d 5f24 46be a185 e53a
00000300: 1617 8e3e d405 87bd 6fa9 be3d c105 99bd
00000310: 48f0 483e db69 49be ece8 28bb 9aee 53bc
00000320: d02d 073d 15fe 923d 80f1 b4bc c366 b3bd
00000330: 49f9 e73d 4c45 3a3e ee1d f8bd af93 1c3e
00000340: 4366 0a3e dfc4 d3bc 5729 843e c482 e63e
00000350: 9f06 9d3e 8086 4fbd 5b6f 0abe b212 5cbe
00000360: 7201 963e 0b62 8a3d 2e42 fabd 602d 4dbe
00000370: 808b 79bd 345e 943d 5eff 98be 03f2 83bc
00000380: d7d3 a93d 7ccc 2c3e 3a00 583d 4f83 0fbe
00000390: cc29 caba 5694 0fbe 50aa 9d3d e024 c63d
000003a0: 1fe0 dc3e 7327 9a3e 6ce0 1d3c de4c f0bb
000003b0: af68 463e 956a c5bd 9c75 c6bc ac44 dfbd
000003c0: c5bf 2f3e 1067 2e3d 915f 9bbe 73b4 2d3e
000003d0: d1ea 3abe 8895 843e 34a8 11be 7958 6c3e
000003e0: 6f46 85be a747 4c3e 095e 783d 49e8 a9be
000003f0: 5b7c 223e fac0 47be feb7 a4bd 8f45 b43c

critic.2.bias f4 [64]
0.0038998136 -0.0032132436 -0.016329275 -0.005237223 0.0025212157 -0.025180472 0.0036742082 -0.0051036235
-0.03249555 -0.024916094 0.0037419058 0.001154466 -0.008203949 0.0010821034 -0.012211542 0.011223774
0.0036553647 0.014675663 0.009077392 -0.010485001 -0.018867783 0.0063519804 0.012680018 -0.014274053
-0.009099174 0.0019041838 0.0077562174 0.01741991 -0.024555786 0.014203322 0.014630491 -0.013725145
0.012336761 -0.0277912 0.0053592985 0.0001504244 -0.018046753 0.00030974322 0.006106486 -0.00096852845
0.008535207 0.025349718 -0.019479956 0.004083908 0.03343514 0.004397554 0.009045626 -0.002120443
0.003619022 0.0024419783 -0.015107181 0.025476037 -0.026667308 0.009370828 0.012451142 -0.0034847835
-0.0068063037 -0.0034005619 -0.024894835 -0.034981284 0.0021166096 0.00459504 0.004630533 0.012624866
00000000: 0494 7f3b 4895 52bb f9c4 85bc 039d abbb
00000010: fb3a 253b 4747 cebc fcca 703b 4c3c a7bb
00000020: 0e1a 05bd d61c ccbc c33a 753b 7351 973a
00000030: db69 06bc 5dd5 8d3a eb12 48bc ece3 373c
00000040: d88e 6f3b 3172 703c 57b9 143c 48c9 2bbc
00000050: 9c90 9abc 4624 d03b dabf 4f3c b8dd 69bc
00000060: b414 15bc ce95 f93a de27 fe3b 33b4 8e3c
00000070: 3729 c9bc 0db5 683c bab4 6f3c 6edf 60bc
00000080: 2020 4a3c 5faa e3bc 0e9d af3b 3ebb 1d39
00000090: c9d6 93bc 0865 a239 eb18 c83b d8e4 7dba
000000a0: 41d7 0b3c 36aa cf3c 6e94 9fbc 4ed2 853b
000000b0: 49f3 083d 5b19 903b 1b34 143c 21f7 0abb
000000c0: 1d2d 6d3b 9909 203b 1c84 77bc 1fb3 d03c
000000d0: 6675 dabc 1a88 193c e0ff 4b3c f760 64bb
000000e0: 6a07 dfbb f6db 5ebb 41f0 cbbc 8948 0fbd
000000f0: d1b6 0a3b fd91 963b babb 973b 87d8 4e3c

critic.4.weight f4 [1, 64]
0.21599776 -0.19928183 -0.38769677 0.064458445 0.13279203 0.030358106 0.13466106 -0.09214406
0.2057744 0.049988266 -0.05138408 0.11564203 0.103856355 -0.08705421 0.10686353 -0.054354083
0.22325876 -0.038429413 -0.09518453 0.1385511 0.121780425 0.30253795 0.09658899 0.25263023
-0.16713229 -0.026197122 -0.16449763 -0.10727609 0.21873668 -0.048795525 -0.047733147 0.065124
-0.017857037 0.16424802 0.14662546 -0.09985305 0.19489843 -0.16875131 0.059446976 0.032478444
-0.009985833 -0.0091797 0.026789661 -0.01510038 -0.03280771 -0.10468221 0.016784152 0.069273874
-0.19933158 0.15007196 0.094838575 -0.09983165 0.06686242 -0.13077067 0.13779308 0.31138268
-0.044982705 0.25351295 0.028097553 0.12268496 -0.24218704 0.09657979 -0.04136904 -0.11161484
00000000: 842e 5d3e 8910 4cbe 3180 c6be ca02 843d
00000010: a2fa 073e 90b1 f83c 97e4 093e 06b6 bcbd
00000020: 86b6 523e 7fc0 4c3d 1d78 52bd bbd5 ec3d
00000030: a4b2 d43d 7a49 b2bd 44db da3d 63a2 5ebd
00000040: f29d 643e 2968 1dbd 1bf0 c2bd 57e0 0d3e
00000050: 0468 f93d 41e6 9a3e 73d0 c53d c058 813e
00000060: ba24 2bbe 599b d6bc 1172 28be 91b3 dbbd
00000070: 82fc 5f3e d1dd 47bd d583 43bd bb5f 853d
00000080: ec48 92bc a230 283e fc24 163e c27f ccbd
00000090: 7493 473e 25cd 2cbe ac7e 733d 1e08 053d
000000a0: 9f9b 23bc 7466 16bc fe75 db3c 9667 77bc
000000b0: 6161 06bd a063 d6bd eb7e 893c 76df 8d3d
000000c0: 941d 4cbe 77ac 193e ba3a c23d 8974 ccbd
000000d0: 2aef 883d bfe8 05be a119 0d3e 8d6d 9f3e
000000e0: c93f 38bd 73cc 813e d72c e63c 4142 fb3d
000000f0: e1ff 77be a0cb c53d 9572 29bd 5296 e4bd
