fw_flightcontrol/models/icinco/sac/turbonly/sac_bohn_caps_nohist_easymedrefs_turbonly_2164_04-06_22:48:49.pt (torch, 854003 bytes, 20 tensors)

action_scale f4 [1, 2]
0	0x3f800000	1.0
1	0x3f800000	1.0

action_bias f4 [1, 2]
0	0x00000000	0.0
1	0x00000000	0.0

fc1.weight f4 [256, 14]
0	0x3ddae271	0.106877215
1	0xbdea5743	-0.11442425
2	0xbe3b8852	-0.18313721
3	0x3db56b5b	0.08858367
4	0x3e7b9718	0.24569356
5	0xbe6036f4	-0.21895963
6	0x3dd798a7	0.10527163
7	0xbc40840b	-0.0117502315
8	0xbe7a21e8	-0.24426997
9	0xbe2c52c6	-0.1682845
10	0xbe299a80	-0.16562843
11	0x3cf7da39	0.030255424
12	0x3d01fc32	0.031734653
13	0x3d8a993c	0.067675084
14	0xbfa6890a	-1.3010571
15	0x3feae686	1.83516
16	0xbba980f6	-0.005172844
17	0x3fd57e10	1.6679096
18	0x3da08c70	0.07839286
19	0x3fb87901	1.4411927
20	0xc0789f38	-3.884718
21	0xc094af52	-4.6464014
22	0xbec6a8d9	-0.38800696
23	0xbf935fb1	-1.1513578
24	0x3bcdca7f	0.006280243
25	0xbc9216f0	-0.017833203
26	0xbebcd016	-0.36877507
27	0xbf476eb5	-0.779033
28	0x3df0ea1b	0.11763402
29	0x3d990a4b	0.07472666
30	0xbe0e9bf4	-0.13926679
31	0x3e62f9a8	0.22165549
32	0x3c0340c0	0.008011043
33	0x3e24092a	0.16019121
34	0xbca7c615	-0.020480195
35	0x3db9ed64	0.09078482
36	0xbe0f346a	-0.13984838
37	0xbd87af0f	-0.06625187
38	0xbe58137c	-0.21101183
39	0xbd83bc65	-0.06432418
40	0x3e1aef8e	0.15130445
41	0x3e372f63	0.1788917
42	0xc03d0b13	-2.953801
43	0x40385148	2.879961
44	0xbad7533a	-0.0016428002
45	0xbfa024ec	-1.2511268
46	0xbcfc0b79	-0.03076719
47	0xbf7f764b	-0.99789876
48	0x3feebc60	1.8651237
49	0x3f876181	1.0576631
50	0x3f7afde4	0.98043656
51	0x3f1ed785	0.62047607
52	0xbba4d3c0	-0.0050301254
53	0xbd12d112	-0.035843916
54	0x3eae71fd	0.3407134
55	0x3e587391	0.21137835
56	0xc04b22ab	-3.173991
57	0xbf790597	-0.97274154
58	0xbcc0e7af	-0.023547975
59	0x3f7e7620	0.99398994
60	0x3e298287	0.16553698
61	0x3f86c8a5	1.0529982
62	0xc0068c05	-2.102296
63	0x3e6394bc	0.22224706
64	0xbffe62fd	-1.9873959
65	0x3f85d7a6	1.0456436
66	0xbc6af32c	-0.014340203
67	0xbc8e51e3	-0.017373031
68	0x3e81d104	0.2535478
69	0xbfa62f95	-1.2983271
70	0x3e72c9ae	0.23709747
71	0x3e2efb34	0.17088014
72	0xbe4cc094	-0.19995338
73	0x3c35f86f	0.0111065945
74	0x3e5d56a4	0.21615082
75	0xbe6dc389	-0.23219122
76	0x3e53c486	0.20680436
77	0x3e6a7415	0.22895844
78	0xbe853690	-0.2601819
79	0xbe8574b5	-0.26065603
80	0xbd800b64	-0.062521726
81	0xbd6c2ade	-0.05765807
82	0x3e6e33ed	0.23261996
83	0x3e5bff9e	0.21484229
84	0xbfa29031	-1.2700254
85	0xbf9b5be1	-1.2137414
86	0xbd2a1d76	-0.041532002
87	0xbfab19da	-1.3367264
88	0xbcfa2911	-0.03053716
89	0xbf8ef38d	-1.1168076
90	0x3fa61b4d	1.2977082
91	0x3f3183b6	0.693416
92	0x3e35b46b	0.17744605
93	0x3fa2c8d2	1.2717535
94	0x3b4a3009	0.0030851385
95	0x3c7e97cd	0.015539122
96	0x3f5524da	0.83259356
97	0x3f0c723c	0.5486181
98	0xbe9a6d0b	-0.30161318
99	0xc0d1ffb4	-6.5624638
100	0xbc0a1119	-0.008426928
101	0xbd71db6a	-0.05904714
102	0xbccd18ae	-0.025036182
103	0xbd8fbb85	-0.070181884
104	0xbcdfaa1a	-0.02730279
105	0xc0db4786	-6.852481
106	0x3ed00ea8	0.40636182
107	0xbdc8b563	-0.09800222
108	0xbbd4d2d8	-0.006494861
109	0xbc2f5d55	-0.010703404
110	0xbefaadbb	-0.4896067
111	0xbe23306d	-0.15936442
112	0xbfa9ae1b	-1.3256258
113	0x3e81d5a2	0.253583
114	0xbc694396	-0.014237305
115	0xbe826cd8	-0.25473666
116	0xbbd2aabe	-0.0064290455
117	0xbe2f970f	-0.17147468
118	0x403ec743	2.980912
119	0xbf85229f	-1.040119
120	0xc021bf4a	-2.5273004
121	0x3f91476a	1.1349919
122	0xbc846c95	-0.016165057
123	0xbc5aa1db	-0.013344253
124	0x3e998aab	0.29988608
125	0x3f7f3f59	0.99706036
126	0xbda6d737	-0.08146518
127	0x403eff38	2.9843273
128	0xbbbaf4e5	-0.0057054632
129	0x3f8ff96f	1.1247996
130	0x3e1f505c	0.15557998
131	0x3f6ba0d7	0.920423
132	0xc09aa67a	-4.832822
133	0xbf9b38b7	-1.2126683
134	0xc031881c	-2.7739325
135	0xbe7c56bc	-0.24642462
136	0x3d02296b	0.03177778
137	0xbc96668d	-0.018359447
138	0x3edc181a	0.42987138
139	0xbdaf6674	-0.08564463
140	0x3f4ab94b	0.79188985
141	0xbfc2a4c8	-1.5206537
142	0xbe498697	-0.19680248
143	0x3e3f9c81	0.18712045
144	0xbdeb0e71	-0.11477364
145	0xbe1f882a	-0.15579286
146	0x3f447759	0.7674461
147	0xbf7d9487	-0.9905476
148	0x3ff01f6f	1.8759593
149	0x403076ed	2.7572587
150	0xbe49528d	-0.19660397
151	0xbd231b7b	-0.03982113
152	0xbdc8eb38	-0.098104894
153	0x3eb5d755	0.35515848
154	0xc02ec910	-2.731022
155	0x3f38078d	0.7188652
156	0xba200324	-0.00061039836
157	0xbe27a233	-0.16370468
158	0x3e200933	0.15628509
159	0x3c98eaa3	0.018666571
160	0xbe07fefb	-0.13280861
161	0xc0f20522	-7.5631266
162	0xc0b166b7	-5.5437884
163	0x3fe3413c	1.7754283
164	0xbd0413c2	-0.032245405
165	0xbc2521c4	-0.010078851
166	0xbd0b29e0	-0.033975482
167	0xbe4227fc	-0.18960565
168	0xbe553cd3	-0.20823984
169	0x3e4c1cf4	0.1993292
170	0x3d026121	0.03183091
171	0x3e41073a	0.18850413
172	0x3eff6b1a	0.498864
173	0x3d910061	0.070801504
174	0xbea6e652	-0.32597595
175	0xc15eb904	-13.92017
176	0xc09555a8	-4.666706
177	0xbf149ed4	-0.5805485
178	0x3c88c35a	0.016694713
179	0xbca4d82b	-0.020122608
180	0x3e0ffbf1	0.14060952
181	0xbeb8941e	-0.36050504
182	0x3e3c66e0	0.18398619
183	0xbd88363e	-0.06650971
184	0xbe4b64c5	-0.1986266
185	0xbe81a453	-0.25320682
186	0x3cfeedda	0.031119276
187	0x3bfbd65c	0.0076854657
188	0xbe0acef6	-0.13555512
189	0xbe746592	-0.23866871
190	0xbe5eb585	-0.21748932
191	0x3de812ab	0.11331686
192	0x3dd471fa	0.10373302
193	0xbe50bdb3	-0.20384865
194	0x3e7b63d0	0.24549794
195	0x3a59d386	0.00083094125
196	0x3f8f0870	1.117445
197	0x3f1e8975	0.6192849
198	0xbe48bee3	-0.19604068
199	0xbab51b6d	-0.0013817378
200	0x3eb8aeda	0.360709
201	0x3cd9d869	0.02659245
202	0xbfab8f62	-1.3403132
203	0xbf0ba8ef	-0.5455465
204	0x3f655687	0.89585155
205	0x3e842ad3	0.25813922
206	0xbd43b0f6	-0.047776185
207	0xbcd5fd2c	-0.026121698
208	0xbe26ab75	-0.16276343
209	0xbf4364b9	-0.76325566
210	0x3f918f1c	1.1371799
211	0xc0329497	-2.7903192
212	0x3cee1f7a	0.029067744
213	0xbf1687af	-0.58800787
214	0x3dc69354	0.09696069
215	0xbef8cc89	-0.48593548
216	0x3f1eeb5e	0.6207789
217	0xc040f1e9	-3.014765
218	0xbf17ce7e	-0.5929946
219	0xbf0af7ef	-0.54284567
220	0xbcf6e6b7	-0.03013931
221	0xbc048259	-0.008087718
222	0x3ed512f3	0.4161602
223	0xbfcb5cc8	-1.588769
224	0x3fcbfc5f	1.5936393
225	0xbe0272ef	-0.12739156
226	0xbca0a786	-0.019611131
227	0x400e0848	2.2192554
228	0x3d1f7114	0.0389262
229	0x400b912b	2.1807353
230	0xbf51faab	-0.82023114
231	0x3fe58cfa	1.7933648
232	0x3f655b77	0.8959269
233	0xbf5fa9ac	-0.87368274
234	0xbd049e71	-0.032377664
235	0xbcb3779f	-0.021907626
236	0xbe311ad4	-0.1729539
237	0x3e83ea85	0.25764862
238	0x3e7dfa96	0.24802622
239	0xbd039635	-0.03212567
240	0xbdd809ce	-0.10548745
241	0xbd93d42d	-0.07218204
242	0x3e220778	0.15823162
243	0xbe72f1d8	-0.23725069
244	0x3e0920f9	0.13391484
245	0xbe4b9a8e	-0.19883177
246	0x3e02cf6c	0.12774438
247	0xbcdb5170	-0.02677223
248	0xbe4eb986	-0.20187959
249	0x3d8f889d	0.07008479
250	0x3e062483	0.13099866
251	0x3db071e3	0.08615472
252	0x3e2a6355	0.16639455
253	0x3defb2ff	0.11704063
254	0xbe09ffb6	-0.13476452
255	0xbd24a71b	-0.040198427

fc1.bias f4 [256]
0	0xbdd44dee	-0.103664264
1	0x3f0c8854	0.5489552
2	0x3e1b96ad	0.15194197
3	0xbeb60db1	-0.3555732
4	0x3e607313	0.21918897
5	0xbe30c21c	-0.17261547
6	0x3bedfea1	0.00726302
7	0x3cb93b5e	0.022611316
8	0x3ed2e6b7	0.41191646
9	0x3ea802f7	0.32814762
10	0x3f37b059	0.7175346
11	0x3dcb27ee	0.09919725
12	0xbed28c23	-0.4112254
13	0x3e42a606	0.19008645
14	0xbe98fd41	-0.29880717
15	0xbfb7d2db	-1.4361223
16	0x3f12738a	0.5720755
17	0x3e84761a	0.25871354
18	0xbd06f084	-0.032944217
19	0x3ec9d0f7	0.3941724
20	0xbe838925	-0.2569057
21	0x3da6ddb7	0.081477575
22	0x3eabdf35	0.3356873
23	0xbe315ed9	-0.17321338
24	0x3f0d519f	0.5520267
25	0xbefe7432	-0.49698025
26	0xbe415603	-0.18880467
27	0x3e0c5d4b	0.13707463
28	0x3e8872e1	0.26650146
29	0x3f952c44	1.1654134
30	0x3e57ede3	0.2108684
31	0xbd3b80a5	-0.04577698
32	0x3e3bd855	0.18344243
33	0x3ced4130	0.028961748
34	0xbca6e852	-0.02037445
35	0x400fc0c5	2.2461407
36	0xbd043c68	-0.03228417
37	0xbe814059	-0.25244406
38	0x3d53dbb9	0.051723216
39	0x3e765ada	0.24058095
40	0x3ec660ca	0.3874572
41	0xbe4a430d	-0.1975214
42	0x3dd5856f	0.10425841
43	0x3dc2a8dd	0.09504864
44	0xbf7a62a7	-0.9780678
45	0x3f902a80	1.126297
46	0x3cd5958b	0.026072284
47	0xbecea4a7	-0.40359995
48	0x3f3de9f2	0.741851
49	0xbf9002f4	-1.1250901
50	0xbf059704	-0.52183557
51	0xbf47a5c8	-0.7798734
52	0xbe5a4ef2	-0.21319178
53	0x3f09dd93	0.5385372
54	0xbe101a27	-0.14072476
55	0xbcd8e687	-0.026477112
56	0xbd530a06	-0.05152323
57	0xbe2aec8c	-0.16691798
58	0xbf2299cd	-0.6351593
59	0x3e4b3266	0.19843444
60	0x3e77efaf	0.24212526
61	0xbc67750e	-0.014127029
62	0x3e6e3cf0	0.23265433
63	0x3f5444d4	0.82917523
64	0xbf4873c7	-0.7830166
65	0xbe3041b7	-0.17212568
66	0xbd8e9082	-0.069611564
67	0x3eb4fa49	0.35347202
68	0xbe826193	-0.25465068
69	0x3e9703c5	0.29495063
70	0x3f99e905	1.2024237
71	0x3e7cb69e	0.24679038
72	0xbf0c6dce	-0.5485505
73	0xbdac7440	-0.084206104
74	0x3f2be615	0.6714795
75	0xbd16062d	-0.036626983
76	0x3eb0be48	0.34520173
77	0xbfe8565f	-1.8151358
78	0x3da7068d	0.08155546
79	0xbf99f788	-1.2028666
80	0xbe54b034	-0.20770341
81	0xbf651983	-0.8949205
82	0x3d2556cc	0.04036598
83	0xbc5628c4	-0.013071243
84	0xc006bf65	-2.1054318
85	0xbf8cfcf3	-1.1014694
86	0x3f9758c0	1.1823959
87	0x3ebd658e	0.36991543
88	0x3ebdeebb	0.370962
89	0x3e5bde05	0.21471412
90	0xbcd60786	-0.026126634
91	0x3c481459	0.0122118825
92	0x3e1a8160	0.15088415
93	0xbe265d3f	-0.16246508
94	0xbe4ad9e9	-0.19809689
95	0xbe7e351a	-0.24824944
96	0xbe2e0ab6	-0.16996273
97	0xbcacd03c	-0.021095388
98	0x3e331919	0.17490043
99	0xbf1319f4	-0.57461476
100	0x3fa44fb0	1.2836819
101	0xbe818d31	-0.25303033
102	0xbdb2c1bf	-0.087283604
103	0xbe8c66dc	-0.27422225
104	0x3cf08ef7	0.029365046
105	0x3e18c915	0.14920457
106	0xbcb0d82f	-0.02158746
107	0x3f053f8f	0.5205011
108	0xbe175ee7	-0.14782296
109	0x3e007444	0.12544352
110	0xbe1734fd	-0.14766307
111	0x3f0da7d8	0.55334234
112	0x3e272647	0.16323195
113	0xbe3512fa	-0.1768302
114	0x3e819939	0.25312212
115	0xbd3bf6f3	-0.045889806
116	0x3e41b3a9	0.18916191
117	0xbe8b5cdb	-0.2721928
118	0x3f560560	0.8360195
119	0x3e9c4716	0.30522984
120	0x3eef5592	0.46744972
121	0xbe31abd1	-0.17350699
122	0xbe393204	-0.18085486
123	0x3fb78cd5	1.4339854
124	0x3ce351e4	0.02774901
125	0x3b6f6fd5	0.0036535163
126	0xbd9be317	-0.07611673
127	0xbe0152f0	-0.12629294
128	0x3e34870c	0.17629641
129	0xbddf6dc4	-0.10909608
130	0x3e817b7a	0.25289518
131	0xbde97e4c	-0.11401042
132	0x3ef143c6	0.4712202
133	0x3e727ea6	0.23681125
134	0x3e3864af	0.18007158
135	0x3f2f7339	0.6853519
136	0x3e341780	0.1758709
137	0xbf147e71	-0.58005434
138	0x3e73a5c1	0.23793699
139	0xbcd6dee1	-0.026229324
140	0x3e7ad4a9	0.24495186
141	0xbe8c00ed	-0.27344456
142	0xbeb5bfc7	-0.35497877
143	0xbedc85e9	-0.43070915
144	0xbfb669cd	-1.4251038
145	0xbc8c47c4	-0.017124064
146	0x3f5c898b	0.86147374
147	0xbdee3113	-0.11630454
148	0x3f24b1c7	0.64333767
149	0xbf025aff	-0.509201
150	0x3f81d998	1.0144529
151	0xbe276b3f	-0.16349505
152	0x3f2f55a7	0.6849007
153	0x3cba0100	0.022705555
154	0x3e5569e0	0.2084117
155	0xbe80bee8	-0.2514565
156	0xbea83388	-0.32851815
157	0xbdda0e8a	-0.10647304
158	0x3d6249e9	0.055246267
159	0xbe86c8da	-0.26325113
160	0xbebb8632	-0.3662582
161	0x3ed3e521	0.4138575
162	0xbff4fa12	-1.9138815
163	0xbde16bd9	-0.110068984
164	0xbefe09c4	-0.49616826
165	0xc02ee299	-2.7325804
166	0x3f0b1865	0.543341
167	0x3dbbf37a	0.09177299
168	0xbded7a44	-0.11595586
169	0x3dc59037	0.096466474
170	0x3dd599aa	0.104297
171	0xbe94005a	-0.28906518
172	0xbfa3b17a	-1.2788537
173	0x3e991bcf	0.2990403
174	0x3e1572ce	0.14594576
175	0xbe535138	-0.20636451
176	0x3d36e9dd	0.044656623
177	0xbd3ffc4e	-0.046871476
178	0x3d1f0f4a	0.03883294
179	0xbe4d24fb	-0.20033638
180	0xbf0647bb	-0.524532
181	0xbf291e19	-0.6606155
182	0x3e2e901a	0.17047158
183	0xbf96d3c3	-1.1783375
184	0xbdbab3fc	-0.091163605
185	0x3f56563d	0.8372534
186	0xbdbf22be	-0.093327984
187	0x3d136529	0.035985146
188	0xbd46273a	-0.048377253
189	0x3e84590c	0.25849187
190	0x3eee0eb7	0.46495602
191	0xbeb8b2fd	-0.36074057
192	0xbf5cc76e	-0.86241806
193	0x3d7b0acd	0.061289597
194	0x3f5f1012	0.87133896
195	0xbfa35be8	-1.2762423
196	0xbeed70d4	-0.46375144
197	0x3f624223	0.88382167
198	0x3ec5c3c0	0.38625908
199	0x3f28ce5f	0.659399
200	0xbf00d213	-0.5032055
201	0xbf31735d	-0.69316655
202	0xbdd60c56	-0.10451572
203	0xbe777ff0	-0.24169898
204	0x3da19de8	0.07891446
205	0x3f074890	0.52845097
206	0xbe5112e7	-0.20417367
207	0x3d678465	0.056522746
208	0x3d108423	0.035282265
209	0xbcefdee1	-0.029281082
210	0x3ef6dab1	0.48213723
211	0x3f38632b	0.7202632
212	0x3e6585d0	0.22414327
213	0xbf77b705	-0.9676364
214	0xbd7338f4	-0.059380487
215	0x3f1f77ae	0.6229199
216	0x3eb06cb6	0.3445794
217	0xbda76006	-0.08172612
218	0xbe34e034	-0.17663652
219	0x3e540f57	0.20708977
220	0xbdc7a3c4	-0.09748033
221	0x3f7dffb1	0.9921828
222	0xbe050ac1	-0.12992384
223	0x3d5e54f9	0.054280255
224	0xbf1c4dea	-0.6105639
225	0xbe4f1420	-0.20222521
226	0xbe1b46cb	-0.15163724
227	0xbdf4adaa	-0.11947186
228	0x3dea8f45	0.11453108
229	0xbedc3b99	-0.4301422
230	0x3e1e98fe	0.1548805
231	0x3c539f97	0.012916467
232	0x3f8d064b	1.1017545
233	0xbe75324b	-0.23944966
234	0xbe8660b0	-0.26245642
235	0xbfa31726	-1.2741439
236	0x3bed3317	0.0072387564
237	0x3d09d4ee	0.03365033
238	0xbe731003	-0.23736577
239	0x3cfa7280	0.030572176
240	0x3e948820	0.29010105
241	0xbe317dbb	-0.17333119
242	0x3bcd778c	0.0062703546
243	0x3d1ff395	0.039050657
244	0xbe5cd7cf	-0.215667
245	0xbf63ca68	-0.8898072
246	0xbe50ae8a	-0.20379081
247	0xbe38c2bc	-0.18043035
248	0xbf0b6238	-0.54446745
249	0xbe175521	-0.14778568
250	0x3f2e8b25	0.6818107
251	0xbe2f03a0	-0.17091227
252	0xbe68cabd	-0.22733589
253	0xbea45549	-0.32096317
254	0x3e2b9d21	0.16759159
255	0xbc8fdcbb	-0.017561307

fc2.weight f4 [256, 256]
0	0xbd0ab89a	-0.033867456
1	0x3cc21152	0.0236899
2	0xbcbcb880	-0.023037195
3	0xbb87dc4f	-0.004146136
4	0x3cd6cf88	0.026222005
5	0x3c2416a0	0.01001516
6	0xbc30e9c8	-0.010797925
7	0xbcdfc980	-0.027317762
8	0x3d18e9e4	0.03733243
9	0x3ca0404f	0.019561915
10	0xbcc864ad	-0.024462068
11	0xbc0a66c1	-0.00844735
12	0xbd2f6227	-0.042818215
13	0xbd45fd96	-0.04833754
14	0xbd460dfc	-0.04835318
15	0xbd0742b7	-0.03302261
16	0x3bc7abc2	0.006093473
17	0xbc20b210	-0.009808078
18	0x3d3ffba8	0.046870857
19	0xbd51562f	-0.05110758
20	0xbb787c14	-0.0037915753
21	0xbd3f5b82	-0.046718128
22	0x3d4214d1	0.047383133
23	0x3c7740d8	0.015091144
24	0xbcf2bd26	-0.029631209
25	0xbd22980a	-0.039695777
26	0xbc90b12c	-0.017662607
27	0x3c9ffbb0	0.019529194
28	0xbda94c53	-0.08266511
29	0xbd78c488	-0.0607343
30	0x3c418c96	0.011813303
31	0xbd1e553a	-0.038655497
32	0xbd7aece6	-0.06126108
33	0x3c758e60	0.014987558
34	0x3d4d4a44	0.050119653
35	0xbc0743e0	-0.008255929
36	0xbd14bfec	-0.036315843
37	0x3c10e170	0.008842811
38	0xbcdae164	-0.026718803
39	0xbce18e4c	-0.027533673
40	0x3cca10c8	0.024666205
41	0x3d67e588	0.056615382
42	0xbd2aa4bf	-0.04166102
43	0x3d3c8820	0.046028256
44	0xbd23d7ee	-0.04000085
45	0x3af36c3c	0.0018571685
46	0x3c021b28	0.007941045
47	0x3c9bc80f	0.019016294
48	0xbd927d9e	-0.07152866
49	0x3ae97b45	0.0017813226
50	0xbcc8928c	-0.024483941
51	0x3cee1f62	0.029067699
52	0xbd5b4daa	-0.053540863
53	0xbd34bd3f	-0.04412579
54	0x3c106cd0	0.008815005
55	0x3cb5c940	0.02219069
56	0xbd3a217c	-0.04544209
57	0xb7db4e01	-2.6143158e-05
58	0xbd5de4a6	-0.054173134
59	0x3d7321dc	0.059358463
60	0xbd418cb1	-0.047253314
61	0xbba6c6a6	-0.0050895987
62	0xbd326278	-0.04355094
63	0xbd98b46d	-0.074562885
64	0xbaba50f4	-0.00142148
65	0xbcb7ef78	-0.022453055
66	0xbd3917c0	-0.045188665
67	0xbccf24cc	-0.0252861
68	0xbcd2b24c	-0.025719784
69	0xbd7db6ef	-0.061942037
70	0xbd331508	-0.04372123
71	0xb99c7e00	-0.00029848516
72	0xbd04003b	-0.032226782
73	0x3d0dc712	0.034613676
74	0xbd2e49f6	-0.042551003
75	0xbd4a715a	-0.049424507
76	0xbad97753	-0.0016591348
77	0x3b93a00a	0.004505162
78	0xbd1a733f	-0.037707563
79	0xbd5ef1a0	-0.05442965
80	0xbcaa6b7a	-0.020803202
81	0x3cad7034	0.021171667
82	0xbd6eecfa	-0.058331467
83	0xbcca0548	-0.024660721
84	0xb9ac5229	-0.0003286761
85	0x3c6926f3	0.014230478
86	0xbda29b3b	-0.07939764
87	0x3c0d3c37	0.008620313
88	0xbd4b1c78	-0.049587697
89	0xbce331d0	-0.027733713
90	0xbcc72fb2	-0.024314735
91	0xbd5fa542	-0.05460096
92	0x3ba30c70	0.004975848
93	0x3cbd143c	0.023080938
94	0xbd34e086	-0.044159435
95	0xbcbd56fc	-0.023112766
96	0xbd161390	-0.03663975
97	0xbdb2203e	-0.08697556
98	0xbc48bd98	-0.012252234
99	0x3c9b3065	0.018943975
100	0xbd380588	-0.04492715
101	0x3d02b756	0.031913124
102	0xbd020ee3	-0.03175248
103	0xbd39152b	-0.045186203
104	0xbccbdc7d	-0.02488541
105	0x3cd1aae4	0.025594182
106	0x3d770806	0.060310386
107	0xbd2dfa60	-0.042475104
108	0x3bdb297f	0.0066882963
109	0xbd07245a	-0.032993652
110	0x3c05f84e	0.008176876
111	0x3d332467	0.043735888
112	0x3d16d4d0	0.036824048
113	0x3d082544	0.033238664
114	0xbb2785e5	-0.0025561985
115	0x3d6aaf7e	0.05729627
116	0x3d5d698c	0.054055735
117	0xbd2e6fd6	-0.042587124
118	0xbd3860f2	-0.04501433
119	0x3d4b0594	0.049565867
120	0xbd92b7ed	-0.07163987
121	0x3c0052a8	0.007832207
122	0x3c161210	0.00915958
123	0xb95a3527	-0.00020809901
124	0xbd54d056	-0.051956497
125	0xbd4daff2	-0.050216623
126	0x3d32d93c	0.043664202
127	0xb8e3e800	-0.00010867417
128	0xbd8318e9	-0.064012356
129	0xbcd367c5	-0.025806317
130	0xbd76d6ac	-0.06026332
131	0x3ac3c140	0.0014934912
132	0xbdaee1fb	-0.08539196
133	0x3c1aece8	0.009455897
134	0xbc954374	-0.01822064
135	0x3cb33ede	0.021880563
136	0x3ca8e6b4	0.02061782
137	0xbd311ec1	-0.04324222
138	0xbd00e0cd	-0.031464387
139	0x3cf8a375	0.03035138
140	0x3cf109b8	0.02942358
141	0x3d710376	0.05884119
142	0x3c6df7d2	0.014524417
143	0x3c544933	0.012956905
144	0x3d3205dd	0.043462623
145	0xbc54a1d1	-0.012978033
146	0xbd93aece	-0.07211076
147	0xbc24f818	-0.010068916
148	0x3c31f408	0.010861404
149	0xbd6c8acf	-0.057749566
150	0xbd51a316	-0.05118092
151	0xbd336ce0	-0.043805003
152	0x3b0cddb5	0.0021494452
153	0x3d49414c	0.049134538
154	0x3d0e5862	0.034752257
155	0x3d55d428	0.05220428
156	0xbd55b083	-0.052170288
157	0xbd0e282c	-0.03470628
158	0xbd60f706	-0.05492308
159	0x3d4bff3e	0.049803965
160	0x3cbd8fe9	0.02313991
161	0xbbe9e12c	-0.0071374383
162	0x3d37c8b2	0.044869132
163	0xbc3a8760	-0.011384815
164	0xbd8eef73	-0.06979265
165	0xbd12d599	-0.035848234
166	0xbd798b8c	-0.060924098
167	0xbc82d36c	-0.015969954
168	0xbd94af8e	-0.07260047
169	0xbba717f0	-0.005099289
170	0x3b252400	0.002519846
171	0x3c36e027	0.0111618405
172	0xbd5e8b84	-0.05433227
173	0x3c28b6e1	0.010297508
174	0xbca93e24	-0.020659514
175	0x3d14ec0c	0.036357924
176	0xbd16b330	-0.03679198
177	0xbc8014fc	-0.015635006
178	0xbc8d5d10	-0.01725629
179	0x3cbaac02	0.022787098
180	0xbc373c87	-0.011183864
181	0x3ca5a2f9	0.020219313
182	0xbd0e465f	-0.03473508
183	0x39f4046c	0.000465426
184	0x3caf3b5e	0.021390613
185	0x3c8d5bb1	0.017255636
186	0xbd0130df	-0.031540748
187	0xbd468f0a	-0.048476256
188	0xbd3f6f73	-0.046737146
189	0xbd2ff9d8	-0.04296288
190	0xbdabaf38	-0.0838303
191	0xbd41e03c	-0.047332987
192	0xbb2c6333	-0.0026304245
193	0xbd576931	-0.052590553
194	0xbd2cacd5	-0.042157013
195	0xbc87cbdd	-0.016576702
196	0x3c99ea62	0.01878852
197	0xbd451094	-0.048111513
198	0xbd89712f	-0.06711041
199	0xbd769d9e	-0.06020891
200	0xbd99e678	-0.075146616
201	0xbd8641c2	-0.06555511
202	0x3cc541a0	0.024079144
203	0x3a90d9c0	0.0011051223
204	0xbd620a18	-0.055185407
205	0xbd81dbd6	-0.063407585
206	0xbc84ac3c	-0.016195409
207	0x3d00f171	0.031480256
208	0xbccbcdbc	-0.024878375
209	0xba9417c0	-0.0011298582
210	0xbd023a51	-0.031793896
211	0xbd2ad61f	-0.041708108
212	0xbced4f05	-0.028968344
213	0x3cf86717	0.030322595
214	0xbc90277c	-0.017596953
215	0x3b62d48c	0.003461155
216	0xbd09ab04	-0.03361036
217	0xbd53b7c0	-0.05168891
218	0xbc72b940	-0.014814675
219	0x3ced6e40	0.028983235
220	0xbd84294b	-0.064531885
221	0xbd24b4df	-0.040211555
222	0xbd179aa2	-0.037012704
223	0xbd99cf81	-0.07510281
224	0x3d14b7c1	0.036308054
225	0xbcc95b60	-0.024579704
226	0x3d27c3c4	0.04095818
227	0xbcf66d9c	-0.030081563
228	0xbd560a24	-0.052255765
229	0x3d34e4ee	0.044163637
230	0xbbc76fd0	-0.006086327
231	0xba094480	-0.00052363425
232	0x3b4058d2	0.0029349816
233	0x3d584dd6	0.052808605
234	0x3cf664cf	0.030077366
235	0xbc4a1fe2	-0.012336703
236	0x3d0319ae	0.032006912
237	0xbcfbb358	-0.030725166
238	0xbc16e97f	-0.009210943
239	0x3bdb2f30	0.006688975
240	0x3c61ac2e	0.013773961
241	0xbcb599dc	-0.022168092
242	0xbd3ada51	-0.04561836
243	0x3cb06ccb	0.021536252
244	0x3ce71c40	0.028211713
245	0xbd8a3080	-0.06747532
246	0xbd550450	-0.052006066
247	0x3ce9f6e0	0.028560102
248	0x3d259971	0.040429536
249	0x3c9fe1fc	0.019516937
250	0xbd9d9d2c	-0.07695994
251	0xbd2bc7de	-0.041938655
252	0xbd5b8a4a	-0.05359868
253	0xbd276475	-0.040867288
254	0x3c2eada0	0.010661513
255	0xbd13e636	-0.036108218

fc2.bias f4 [256]
0	0xbdc47d2f	-0.095941894
1	0xbcc93ff7	-0.024566634
2	0x3eafb16f	0.3431506
3	0xbd536840	-0.051613092
4	0x3bb6c3b8	0.0055775307
5	0x3b8d22ac	0.0043071117
6	0xbcf09c57	-0.029371424
7	0x3e84a7ab	0.2590917
8	0xbd7b51f5	-0.061357457
9	0xbd288f9f	-0.041152593
10	0xbe596e06	-0.21233377
11	0x3d58d675	0.052938897
12	0xbd868e51	-0.065701135
13	0x3e0756c2	0.13216689
14	0xbe80a99b	-0.251294
15	0x3f734ade	0.95036113
16	0xbe0b70aa	-0.13617197
17	0x3adb74c4	0.0016743173
18	0x3cfce6d7	0.030871792
19	0xbde604d0	-0.11231387
20	0x3f2bac5c	0.67059875
21	0x3c30e510	0.0107968
22	0xbd752923	-0.059853684
23	0xbf307ca8	-0.6894021
24	0xbd26fe35	-0.040769774
25	0xbdfd75ad	-0.123759605
26	0xbeab45cd	-0.3345169
27	0xbdf4dc14	-0.11956039
28	0xbe37be2e	-0.17943642
29	0xbe27feeb	-0.16405837
30	0xbe79e9a3	-0.24405532
31	0x3cf37946	0.029720914
32	0x3efdd891	0.4957929
33	0xbddd11a9	-0.10794384
34	0xbc8bbf4a	-0.017058987
35	0xbd8458ad	-0.06462226
36	0xbe3e7109	-0.18597807
37	0x3e8bda6b	0.27315077
38	0xbd995477	-0.074868135
39	0xbd01b248	-0.031664163
40	0xbe06270a	-0.1310083
41	0x3efbccb3	0.4917961
42	0x3cc43a4d	0.023953581
43	0x3e5b29a6	0.21402606
44	0xbe796694	-0.24355537
45	0x3ba4e019	0.0050315973
46	0xbbad9390	-0.005297132
47	0xbf2cdb68	-0.6752229
48	0x3cbd2c15	0.023092309
49	0x3e67f25d	0.22651048
50	0x3ebd7925	0.37006488
51	0x3c83696d	0.016041482
52	0xbe6d8093	-0.23193578
53	0x3ec1bbfb	0.3783873
54	0xbebdd8d7	-0.37079498
55	0x3e9d6bb5	0.30746236
56	0x3e414faa	0.18878046
57	0x3de0e301	0.109807976
58	0xbd515580	-0.05110693
59	0x3eac077e	0.33599466
60	0x3dd800d9	0.10547037
61	0x3dee2b55	0.11629359
62	0x3d9b39aa	0.07579358
63	0xbcdb2b0d	-0.026753927
64	0x3f36cb42	0.71403897
65	0x3d6f0295	0.05835207
66	0xbd81d662	-0.063397184
67	0x3f3efbc1	0.74602896
68	0x3f149787	0.5804371
69	0xbe52644b	-0.20546071
70	0xbe54fa07	-0.20798503
71	0xbd26f2e6	-0.04075899
72	0xbe9a8a3f	-0.30183598
73	0x3e8fbdaa	0.2807439
74	0xbc71cabf	-0.014757811
75	0xbdc082ff	-0.093999855
76	0xbd619c5f	-0.055080768
77	0xbc1f5aae	-0.00972621
78	0x3d892c05	0.06697849
79	0x3eaa547b	0.33267578
80	0x3b7d28eb	0.0038629125
81	0x3edc0251	0.42970517
82	0x3e829a6b	0.25508437
83	0x3e9289bb	0.28620705
84	0xbf6808b4	-0.9063828
85	0xbe181192	-0.14850453
86	0x3ad2a8a3	0.0016071986
87	0xbe3000d8	-0.17187822
88	0xbe593987	-0.21213351
89	0x3bd13460	0.0063844174
90	0x3e1ea255	0.15491612
91	0xbd484d3a	-0.048901774
92	0x3e1c474f	0.15261577
93	0xbd147282	-0.036242016
94	0x3e577efb	0.21044533
95	0x3e98d6f2	0.2985149
96	0xbd4c65ba	-0.0499017
97	0xbd8e4cb5	-0.069482245
98	0x3f1554a9	0.58332306
99	0xbccf9250	-0.025338322
100	0xbf24702a	-0.6423365
101	0xbda74a23	-0.08168437
102	0x3e30c56f	0.17262815
103	0xbd8fb70d	-0.07017336
104	0xbd9b99e9	-0.075977154
105	0xbd96555d	-0.073405005
106	0xbdac93ba	-0.08426614
107	0x3d768fb3	0.060195636
108	0x3e9e4e68	0.30919194
109	0x3f1af7df	0.6053447
110	0xbda2c18e	-0.07947074
111	0x3ef4f261	0.4784117
112	0x3e837716	0.25676793
113	0x3e4261be	0.18982598
114	0x3d0c6478	0.034275502
115	0xbdd07854	-0.10179201
116	0xbd873a9f	-0.06602978
117	0xbd0b142d	-0.033954788
118	0x3ec3d394	0.3824736
119	0x3e5607fd	0.20901485
120	0xbd939ce1	-0.07207657
121	0x3e9b4ad0	0.30330515
122	0xbcf0df7c	-0.02940344
123	0xbd05911c	-0.03260909
124	0xbd31b508	-0.043385535
125	0xbd1e7ced	-0.038693357
126	0xbc5ce0b8	-0.0134813115
127	0x3ca36ff7	0.01995085
128	0xbf249f2e	-0.6430539
129	0x3e72e419	0.23719825
130	0x3e591824	0.21200615
131	0x3f62603a	0.8842808
132	0xbda0cb4c	-0.07851276
133	0x3c9a4590	0.018831998
134	0x3e919163	0.28431234
135	0xbf8a68c5	-1.0813223
136	0xbf146a96	-0.5797514
137	0xbd9f88ea	-0.07789786
138	0x3e8aca83	0.2710763
139	0xbdcb74e4	-0.099344045
140	0x3ed5db34	0.417688
141	0x3f1b1056	0.605718
142	0x3f5af544	0.85530496
143	0xbf0913cf	-0.5354585
144	0xbda38ef5	-0.07986251
145	0xbef18f5c	-0.47179687
146	0x3f10d171	0.5656958
147	0x3f47dbad	0.78069574
148	0x3c293a47	0.010328836
149	0xbec9d719	-0.3942192
150	0xbb5de2ba	-0.0033857063
151	0xbd8decbf	-0.06929921
152	0x3e837c13	0.256806
153	0x3ebac586	0.36478823
154	0x3cf650bd	0.030067796
155	0xbea650fc	-0.3248366
156	0xbefffcd4	-0.4999758
157	0xbdc340c8	-0.095338404
158	0xbdb7b8ee	-0.089708194
159	0xbea082d5	-0.31349817
160	0x3edc4967	0.43024752
161	0xbd7c929f	-0.061663266
162	0xbebe42ea	-0.37160426
163	0xbd716377	-0.058932748
164	0xbe82f516	-0.2557761
165	0x3d19049e	0.03735792
166	0x3e0e7c84	0.13914686
167	0xbda4d4a2	-0.08048369
168	0xbeba1896	-0.36346883
169	0xbe08a3b7	-0.13343702
170	0xbd61798f	-0.055047568
171	0xbe89e035	-0.2692887
172	0xbeb30230	-0.34962606
173	0x3e23b029	0.15985169
174	0x3faca4f5	1.3487841
175	0xbd4d9d84	-0.050199047
176	0xbe7dad61	-0.2477317
177	0xbcb0894c	-0.021549843
178	0x3e8979d8	0.26850772
179	0xbec5ce13	-0.38633785
180	0x3d066325	0.032809395
181	0xbdba5e42	-0.091000095
182	0x3e8044f9	0.25052622
183	0xbebdf02d	-0.37097302
184	0x3eb803b1	0.35940316
185	0xbe97bc3f	-0.29635808
186	0x3cedfebb	0.029052129
187	0xbe34af01	-0.17644884
188	0xbdfd9985	-0.12382797
189	0xbd0ecb75	-0.034862
190	0xbd205aaa	-0.039148964
191	0x3e20902e	0.1568
192	0xbd532527	-0.051549103
193	0x3efbcce9	0.49179772
194	0x3d99c214	0.075077206
195	0xbce5d196	-0.02805404
196	0xbde61d45	-0.112360515
197	0x3bc900b4	0.006134117
198	0x3d79a3f4	0.060947374
199	0xbced248d	-0.028948093
200	0xbf028859	-0.509893
201	0x3d9b5c0d	0.07585917
202	0xbd20211b	-0.03909407
203	0xbd72b4f3	-0.059254598
204	0xbf468cb7	-0.77558464
205	0x3e7b150f	0.24519752
206	0x3c5cdfd6	0.013481101
207	0x3f037ce6	0.51362455
208	0xbd4d0d23	-0.050061356
209	0xbd734a2f	-0.05939692
210	0xbd9d6911	-0.076860555
211	0xbd306876	-0.04306837
212	0x3e332976	0.17496285
213	0x3edc2202	0.42994696
214	0x3eb45b33	0.3522583
215	0xbe83c09e	-0.25732893
216	0x3ed76d20	0.42075443
217	0xbdc6c11a	-0.097048
218	0xbe7c6eb2	-0.24651602
219	0xbdd6cf63	-0.104887746
220	0xbd6ec81e	-0.058296315
221	0xbdad23af	-0.08454072
222	0x3f84e65d	1.0382801
223	0x3f0b3ad8	0.54386663
224	0x3f1d85d2	0.6153232
225	0x3c6ac037	0.014328054
226	0x3f57821a	0.84182894
227	0x3ca617c7	0.02027501
228	0x3ce8e2de	0.028428491
229	0x3cb43ce5	0.022001693
230	0x3f0ec04b	0.55762166
231	0xbd411ed3	-0.047148537
232	0xbdd28fe4	-0.10281351
233	0xbee13b21	-0.43990424
234	0x3f7725d5	0.965421
235	0xbdc11af7	-0.09428971
236	0xbdafbbf7	-0.08580773
237	0xbc41b94b	-0.011823962
238	0x3e48edec	0.1962201
239	0xbda97c08	-0.0827561
240	0xbd8d6e52	-0.069058076
241	0x3f6ca9ba	0.9244648
242	0x3d0edf32	0.034880824
243	0xba42bbac	-0.0007428478
244	0xbcb6c465	-0.022310445
245	0xbda85323	-0.08218982
246	0xbe1c83ee	-0.15284702
247	0xbd5db08b	-0.054123443
248	0xbd8968a1	-0.067094095
249	0xbd8706ef	-0.06593119
250	0xbf713ecd	-0.9423645
251	0xbe246de7	-0.1605755
252	0x3ea7affc	0.32751453
253	0x3d8bf787	0.068343215
254	0xbe72a03f	-0.23693942
255	0xbd498d08	-0.049206764

fc_mean.weight f4 [2, 256]
0	0xbd518d97	-0.05116042
1	0x3d92843f	0.0715413
2	0xbe049e7b	-0.1295108
3	0x3d4acb5a	0.049510337
4	0xbda32ec4	-0.07967904
5	0x3d7aa01a	0.06118784
6	0xbcf5310e	-0.029930618
7	0xbe8a3553	-0.26993808
8	0x3bf296ba	0.007403222
9	0x3cb60b25	0.022222111
10	0x3e2c0649	0.16799273
11	0x3e2d2756	0.16909537
12	0x3c1175a2	0.0088781435
13	0xbeeb6084	-0.45972073
14	0xbee41fe4	-0.4455558
15	0xbd9aaf10	-0.07552922
16	0xbf55be5c	-0.8349359
17	0x3e6d4a9a	0.2317299
18	0xbe16b9b0	-0.14719272
19	0xbcca4ad7	-0.02469389
20	0x3eaca49b	0.33719334
21	0x3d2b8fdd	0.041885246
22	0xbc07909c	-0.008274224
23	0xbdca2ed5	-0.09872214
24	0x3ca06043	0.019577151
25	0x3bf028fd	0.007329105
26	0xbd5f9a2b	-0.054590385
27	0xb9a9a865	-0.00032359656
28	0xbc7cf507	-0.015439278
29	0x3e49ab66	0.1969429
30	0xbe3ca46d	-0.18422098
31	0xbe15a89e	-0.14615104
32	0xbe65a01c	-0.22424358
33	0xbb86d4ff	-0.0041147466
34	0x3cabe26f	0.020981995
35	0x3cf5ebe2	0.030019704
36	0x3ebd7cb6	0.3700921
37	0xbe832f7b	-0.25622162
38	0x3d0889c3	0.033334505
39	0xbc98c48e	-0.018648412
40	0xbce8a56b	-0.02839919
41	0x3ecfe2a8	0.40602612
42	0xbd345a54	-0.044031456
43	0xbec43479	-0.38321283
44	0xbea37c7a	-0.31930906
45	0x3d1d8062	0.038452514
46	0xbaf69431	-0.0018812475
47	0x3eca52da	0.39516336
48	0x3d4ec83c	0.050483927
49	0x3e3d2ad5	0.1847337
50	0x3e04aa14	0.12955505
51	0xbd4d086c	-0.05005686
52	0x3dcd9f97	0.10040205
53	0x3dac58c4	0.08415368
54	0xbe39a7b8	-0.18130386
55	0x3e2c6b37	0.16837774
56	0x3f2e90a4	0.68189454
57	0x3d4d4fae	0.050124817
58	0x3c0d33fd	0.008618352
59	0x3e3524ce	0.17689821
60	0x3e34e3ed	0.17665072
61	0x3d805813	0.06266799
62	0x3d98f064	0.07467726
63	0x3d030b90	0.03199345
64	0x3eb668dd	0.3562688
65	0xbcf25a3c	-0.029584043
66	0xbd1c83e5	-0.038211722
67	0xbd80c8df	-0.06288313
68	0x3cc2abff	0.023763655
69	0x3e9795b6	0.29606408
70	0xbe836f15	-0.25670686
71	0xbee6f3e6	-0.45107955
72	0xbd16506a	-0.036697783
73	0x3e31a849	0.17349352
74	0xbbdff2b4	-0.0068343524
75	0xbd2a5360	-0.04158342
76	0x3cf28eee	0.02960917
77	0xbbee8935	-0.00727954
78	0x3e8ea1bb	0.27857766
79	0x3e256df2	0.16155222
80	0x3cbe03b9	0.023195134
81	0xbe637f05	-0.22216423
82	0xbf17aa34	-0.59244084
83	0xbdf0d7b1	-0.1175989
84	0x3ed89f69	0.4230912
85	0xbd10a9a3	-0.03531803
86	0x3df57d3a	0.11986776
87	0xbcfe6583	-0.031054264
88	0xbe8a3bfa	-0.26998883
89	0x3d02fda6	0.03198018
90	0x3e8bec07	0.27328512
91	0x3d04c25e	0.032411925
92	0xbdd4f625	-0.10398511
93	0x3cf9f409	0.030511873
94	0x3e73437a	0.23756209
95	0x3e591d21	0.21202518
96	0x3d0746cc	0.0330265
97	0x3f2994a2	0.6624242
98	0x3ec3aab5	0.38216177
99	0x3d51f60f	0.05126005
100	0x3e81c9d9	0.2534931
101	0xbe4cd390	-0.2000258
102	0xbb1aae81	-0.0023602548
103	0x3c8ee7a1	0.017444434
104	0x3cb1db1c	0.021710925
105	0xbcb281ed	-0.021790469
106	0xbc8a509d	-0.016884143
107	0x3ca6370a	0.020289917
108	0xbe7181af	-0.23584627
109	0xbceae6f8	-0.028674588
110	0x3d3c2d96	0.04594191
111	0xbe798601	-0.24367525
112	0x3e4dd7ba	0.20101824
113	0x3e5d85ab	0.21633022
114	0x3d65f9ea	0.05614654
115	0xbea684b9	-0.32523134
116	0xbdd49c35	-0.103813566
117	0x3e1f18f1	0.15536858
118	0x3e266e34	0.16252977
119	0x3dd42b17	0.10359781
120	0x3d480f4e	0.04884272
121	0x3e06d230	0.13166118
122	0x3c72b2f3	0.014813173
123	0xbd1968d1	-0.037453476
124	0xbc75cfb6	-0.015003135
125	0xbce1e76e	-0.027576175
126	0x3d1a8551	0.037724797
127	0x3ac412be	0.0014959199
128	0xbe6cd51b	-0.23128168
129	0x3f0efe5f	0.5585689
130	0x3e4f75ae	0.20259735
131	0x3e20597c	0.15659136
132	0xbd203779	-0.039115403
133	0x3cf3e83d	0.029773826
134	0x3eb2b5ff	0.34904477
135	0x3f05678e	0.52111137
136	0xbe58dee2	-0.21178773
137	0xbd6ad50b	-0.05733208
138	0x3f34e494	0.7066128
139	0x3a115e83	0.00055453944
140	0x3e4ade13	0.19811277
141	0xbe565ad0	-0.2093308
142	0xbe3909f5	-0.18070205
143	0xbeedd973	-0.46454963
144	0xbcabc50a	-0.020967979
145	0x3efb5c59	0.49093893
146	0xbe18262c	-0.14858311
147	0x3e4255f3	0.189781
148	0x3d757b3e	0.059931986
149	0x3d34de0b	0.04415707
150	0x3c77e2e5	0.015129779
151	0xbd004be6	-0.031322382
152	0x3a8be1e1	0.0010672176
153	0xbe4fa042	-0.20275977
154	0xbaa860a2	-0.0012846182
155	0x3ea88bea	0.32919246
156	0xbcb907b7	-0.022586687
157	0xbe3d5a96	-0.18491587
158	0x3cbaf02f	0.022819607
159	0x3eb32a1f	0.34993073
160	0xbeab05ed	-0.3340296
161	0x3e0bf896	0.13669047
162	0xbed144d3	-0.4087282
163	0xbc959489	-0.018259304
164	0xbe097f81	-0.13427545
165	0xbd05899d	-0.03260194
166	0x3dc9242f	0.098213546
167	0xbcf7cafd	-0.03024816
168	0x3e7b4c0d	0.2454073
169	0x3c013185	0.0078853415
170	0xbd5335e8	-0.05156508
171	0x3d071683	0.032980453
172	0x3e4be6ef	0.19912313
173	0x3ecb6b01	0.39730075
174	0xbe10ea91	-0.1415198
175	0x3d1d1662	0.038351424
176	0x3e52cb7b	0.20585434
177	0x3d4b5a1f	0.049646493
178	0x3ddd5da4	0.10808876
179	0xbe7e5b46	-0.24839506
180	0xbdafbef3	-0.085813425
181	0x3b89a074	0.0042000357
182	0xbe9d3551	-0.3070474
183	0xbe1389cc	-0.14408034
184	0xbebc0f55	-0.36730447
185	0xbe03436b	-0.12818687
186	0x3bebe3fb	0.0071988082
187	0xbd84f38e	-0.06491767
188	0x3d8cb85f	0.068711035
189	0x3caf5b43	0.021405822
190	0x3b9a6398	0.0047115795
191	0x3f47e99d	0.7809084
192	0xbd792045	-0.06082179
193	0x3cf45e70	0.029830188
194	0xbe705bf3	-0.23472576
195	0x3d4c3e4e	0.049864106
196	0xbe9c07e6	-0.30474776
197	0x3c5446c1	0.012956322
198	0xbd8b65bd	-0.068065144
199	0x3da31fce	0.07965051
200	0xbec333eb	-0.38125548
201	0x3e347821	0.1762395
202	0xbd10a2f9	-0.035311673
203	0x3e897601	0.26847842
204	0xbeb49d70	-0.35276365
205	0x3ef02fab	0.46911368
206	0xbc1f09d2	-0.009706931
207	0xbdd383d5	-0.10327879
208	0x3df712d6	0.120641395
209	0xbdfa03dc	-0.12207767
210	0xbcbc378e	-0.02297571
211	0x3dbc3056	0.09188907
212	0xbf1b9eea	-0.6078936
213	0xbe41cd79	-0.18926038
214	0x3db1e668	0.08686525
215	0xbf245a33	-0.64200133
216	0x3e83475e	0.25640386
217	0xbce333fc	-0.027734749
218	0xbe1baa20	-0.15201616
219	0xbd84b33b	-0.06479498
220	0x3d0ce635	0.03439923
221	0xbd0c3248	-0.03422764
222	0xbb1b877e	-0.0023731883
223	0xbe3711cb	-0.17877881
224	0x3dbad013	0.09121718
225	0xbd6e1c28	-0.05813232
226	0x3e2ee1bd	0.170783
227	0x3d18de18	0.03732118
228	0x3eb3cf31	0.35119012
229	0xbc036cfa	-0.0080215875
230	0xbdc18166	-0.09448509
231	0x3d3fbee1	0.046812896
232	0xbcdc9e4e	-0.026930954
233	0xbf1c5a96	-0.61075723
234	0xbe5640fb	-0.20923226
235	0x3b7df268	0.0038749222
236	0x3e8ba4af	0.2727408
237	0x3db04510	0.086069226
238	0xbe11e491	-0.14247347
239	0xbce30655	-0.02771298
240	0x3cad3f38	0.02114831
241	0x3d187a13	0.037225794
242	0x3d6a73f9	0.057239506
243	0x3d21face	0.039545827
244	0x3d15bd84	0.03655769
245	0xbd396aa1	-0.045267705
246	0xbc827157	-0.015923185
247	0x3cb8ee55	0.022574583
248	0xbcf9d02a	-0.030494768
249	0x3ca90fa9	0.02063735
250	0xbdef0124	-0.116701394
251	0x3cf9bb7f	0.030484913
252	0x3e812bb9	0.2522867
253	0xbdef35e8	-0.11680204
254	0xbec1c3fc	-0.37844837
255	0x3d033b71	0.03203911

fc_mean.bias f4 [2]
0	0xbe8a4588	-0.27006173
1	0x3beb0aca	0.007172917

fc_logstd.weight f4 [2, 256]
0	0xbc582dde	-0.013194529
1	0xbc42c262	-0.011887165
2	0x3b34043d	0.0027468347
3	0xbd2e2e0d	-0.042524386
4	0x3d0cfd28	0.034421116
5	0xbbb1f78f	-0.0054311226
6	0xbd0a50c6	-0.033768438
7	0x3b9ec49f	0.0048452164
8	0x3a2f3a21	0.0006684382
9	0xbc8521e8	-0.01625152
10	0x3bdc4406	0.006721976
11	0x3c80b5b0	0.015711635
12	0x3d3bd64f	0.045858677
13	0xbcfcd960	-0.030865371
14	0xbbb0840c	-0.005386835
15	0x3b114ec9	0.0022172204
16	0x3e2a4257	0.16626869
17	0x3be39a79	0.006945905
18	0x3c9ff6c2	0.019526843
19	0xbaac1836	-0.0013129774
20	0xbd8debb0	-0.069297194
21	0x3d07f863	0.033195864
22	0x3ced7cdf	0.028990207
23	0x3b3f6301	0.0029203298
24	0xbbf9f16f	-0.007627658
25	0x3b98249a	0.004643035
26	0x3c2c92d3	0.0105330525
27	0x3c3bf131	0.011471079
28	0x3d195833	0.03743763
29	0x3ca1059e	0.019655999
30	0xbc8dcda5	-0.017309973
31	0xbc6023b1	-0.0136803845
32	0x3c82d51d	0.015970761
33	0xbd0c1296	-0.034197412
34	0xbd25a7ed	-0.04044335
35	0xbd01e640	-0.031713724
36	0xbd8173e0	-0.063209295
37	0x3cadb849	0.021206038
38	0x3bbed40b	0.0058236173
39	0x3b3ecfe4	0.0029115612
40	0xba97d04d	-0.0011582464
41	0xbcb184f6	-0.021669846
42	0x3bc037bc	0.005866019
43	0x3cdff17c	0.027336828
44	0xbc21c5ac	-0.009873789
45	0x3d61924d	0.055071164
46	0x3bea9915	0.007159362
47	0x3c1bbb16	0.009505054
48	0x3ca5f7d0	0.020259768
49	0xbb4ac63e	-0.0030940915
50	0x3cb94923	0.022617882
51	0x3d940acd	0.072286226
52	0x3bd7573d	0.006571679
53	0x3bd3efef	0.0064678113
54	0x3d6f57e6	0.058433436
55	0x3c92513f	0.017861007
56	0x3c291e22	0.010322126
57	0x3bc3842d	0.0059666843
58	0x3ce934a5	0.028467486
59	0xbd2c3acf	-0.04204827
60	0x3c091d50	0.008368805
61	0x3ada27ff	0.0016644
62	0xbc1edaa7	-0.0096956855
63	0x3c9fad70	0.019491881
64	0xbbf9885b	-0.007615132
65	0xbb37e239	-0.0028058423
66	0xbb2aa1c4	-0.0026036361
67	0x3c2209bd	0.009890017
68	0xbb225682	-0.00247708
69	0xbcb93103	-0.022606378
70	0x3d8c351d	0.06846068
71	0x3cab2152	0.020889912
72	0x3d26618d	0.040620375
73	0x3c1bc778	0.009508006
74	0x3cf98a20	0.030461371
75	0x3adc6f58	0.0016817851
76	0x3cc04643	0.023471003
77	0x3d0370af	0.032089885
78	0x3c607daf	0.01370184
79	0xbb1e8327	-0.002418706
80	0xbd08ca28	-0.033395916
81	0x3b34cace	0.0027586701
82	0xbce929df	-0.028462349
83	0x3c1c6a30	0.009546801
84	0x3d16ed2c	0.03684728
85	0xbcec6c43	-0.028860217
86	0x3baa6523	0.0052000447
87	0xbd2e8415	-0.042606432
88	0x3d213305	0.039355297
89	0xbd296c87	-0.041363265
90	0xbc886b05	-0.016652593
91	0xbd06a12f	-0.03286856
92	0xbc32aece	-0.0109059345
93	0xbd260e52	-0.040541
94	0x3b979910	0.004626401
95	0x3d462909	0.048378978
96	0xbc7c4db1	-0.015399382
97	0x3de3aa00	0.11116409
98	0xbc2c5bc9	-0.01051993
99	0xbd1aa155	-0.037751514
100	0xbc4fa5d3	-0.012673813
101	0x3d0f4264	0.034975424
102	0x3cd640e7	0.026153995
103	0x3d2bf6b4	0.04198332
104	0xbc95989a	-0.018261243
105	0xbd281a73	-0.04104085
106	0x3caeb66a	0.021327216
107	0xbc53f738	-0.0129373595
108	0xbc27d684	-0.010244016
109	0x3b5618ff	0.0032668707
110	0xbd1a76b0	-0.037710845
111	0x3c84c174	0.016205527
112	0xbc34929a	-0.011021281
113	0xba164ebe	-0.00057337794
114	0xbc979325	-0.018502781
115	0x3bf4aca7	0.007466871
116	0xbb4fc39d	-0.0031702288
117	0xbc8142d2	-0.015778933
118	0x3c13bf23	0.0090177385
119	0xbda130c3	-0.07870629
120	0xbcfe8a47	-0.031071795
121	0xbc20eb99	-0.009821796
122	0x3c738ca4	0.014865074
123	0x3d2610ca	0.040543355
124	0x3d433b9f	0.04766428
125	0x3c0dd60a	0.008656988
126	0x3c6adaba	0.014334375
127	0x3bfdf91e	0.0077506443
128	0x3e9fb08c	0.31189382
129	0x3dc2caa3	0.09511306
130	0xbb994958	-0.0046779327
131	0xbc46746b	-0.012112717
132	0xbc4e577f	-0.012594103
133	0xbd5f4778	-0.054511517
134	0x3c524100	0.01283288
135	0x3eae594b	0.340525
136	0xbc91c9ba	-0.017796386
137	0x3d58396f	0.052789148
138	0x3d0d47b0	0.034492195
139	0x3c5f8978	0.013643615
140	0x3c0475af	0.008084699
141	0x3bbf6acc	0.0058415886
142	0x3b4e9267	0.0031520368
143	0x3def9894	0.11699024
144	0xbba1c9da	-0.0049373927
145	0xbc2cfb59	-0.010557973
146	0x3cceb050	0.025230557
147	0xbc7b3aac	-0.015333813
148	0x3a7a7126	0.00095536036
149	0x3d5f3dbe	0.05450224
150	0x3b4fa9a4	0.0031686807
151	0x3c4bc9c3	0.01243824
152	0xbc0d7ec9	-0.008636185
153	0x3ae78bd9	0.0017665579
154	0x3cd10df3	0.025519347
155	0x3baf1485	0.0053430223
156	0x3b89e9b9	0.00420877
157	0xbc6f949c	-0.014622834
158	0x3d410c27	0.04713073
159	0x3bbd8f55	0.005784909
160	0x3d46d45d	0.04854237
161	0xba730d3e	-0.00092716876
162	0xbd0c9db8	-0.0343301
163	0xbd05d09c	-0.03266965
164	0x3bc5917b	0.0060293055
165	0xbc3b517f	-0.011433004
166	0xbca254fe	-0.019815918
167	0xbcb09950	-0.02155748
168	0x3bf4925c	0.0074637365
169	0xbc8da196	-0.017288964
170	0x3c176d1e	0.009242324
171	0xbb9ba352	-0.004749694
172	0x3cea13d0	0.0285739
173	0xbcb4649d	-0.022020632
174	0x3b742a40	0.0037256628
175	0x3b44662e	0.002996813
176	0x3c53e379	0.012932652
177	0xbd3627c5	-0.04447152
178	0x3c984237	0.018586261
179	0x3c851130	0.016243547
180	0x3c004826	0.0078297015
181	0x3cfd2bb5	0.03090463
182	0x3cdb04b3	0.02673564
183	0xbcabab9f	-0.020955859
184	0xbbaab5be	-0.0052096536
185	0x3d5863e6	0.052829646
186	0x3bf98749	0.007615004
187	0x3d32d671	0.04366154
188	0x3cb8ab82	0.022542719
189	0xbbd816d5	-0.0065945187
190	0x3c7401a2	0.014892967
191	0x3cab5dfd	0.02091884
192	0xba182056	-0.0005803158
193	0x39aac7f3	0.000325739
194	0x3bcb32b5	0.006201113
195	0x3c2e4c64	0.01063833
196	0x3cdb5f8d	0.02677896
197	0x3d524b19	0.05134115
198	0x3b3d510d	0.0028887421
199	0x3db317e8	0.08744794
200	0xbc909ff4	-0.017654397
201	0xbca821bb	-0.020523896
202	0xbd2e6335	-0.04257508
203	0x3b72a709	0.003702583
204	0x3cbd66ca	0.023120303
205	0xbdb6cdd2	-0.08925976
206	0x3c673688	0.014112122
207	0x3c6a4da5	0.014300738
208	0x3c17a599	0.00925579
209	0x3d2cdf1c	0.04220496
210	0xbb620734	-0.0034489157
211	0xbc116a60	-0.008875459
212	0xbd036e31	-0.03208751
213	0x3dcd57e4	0.100265294
214	0xbbaf02c2	-0.005340905
215	0x3cbbe743	0.022937423
216	0xbcb40697	-0.021975799
217	0x3b222dc3	0.0024746514
218	0x3c9a210b	0.018814584
219	0xbc50b39b	-0.012738134
220	0x3a6736f0	0.0008820137
221	0xbbd6da6d	-0.0065568
222	0x3a10f705	0.0005529973
223	0x3c517446	0.012784069
224	0x3d0f4d47	0.034985807
225	0x3bd3ad0a	0.006459837
226	0xbb111064	-0.0022135014
227	0x3d5d6350	0.05404979
228	0x3d616fb9	0.055038188
229	0x3d3fe9f3	0.04685397
230	0x37bf154c	2.2778891e-05
231	0x3d644b23	0.05573572
232	0x3be2d3c3	0.0069222166
233	0x3bb2d985	0.0054580593
234	0x3ccefbba	0.025266517
235	0xbbeec3d3	-0.0072865277
236	0xb9c243f3	-0.0003705319
237	0xbbeea703	-0.007283093
238	0x3c46fb33	0.0121448515
239	0x3c80cd2b	0.015722832
240	0xbce6d5d3	-0.028178131
241	0x3bfd72f5	0.007734651
242	0xbcadd8ae	-0.021221485
243	0xbc6e3b5b	-0.014540519
244	0x3cdaf0a2	0.02672607
245	0xbb8405f9	-0.0040290323
246	0x3bb24f0b	0.0054415516
247	0xbbca9383	-0.0061821355
248	0x3d632b4b	0.05546121
249	0x3cb0ed94	0.021597661
250	0xbc98f87b	-0.018673172
251	0xbd3d7e96	-0.0462633
252	0xbc0e21db	-0.008675064
253	0x3c8056a5	0.015666315
254	0xbca065d3	-0.019579804
255	0x3c0a3348	0.008435078

fc_logstd.bias f4 [2]
0	0x3ca8283d	0.020527
1	0xbc4892d8	-0.0122420415

fc1.weight f4 [256, 16]
0	0x3f120d24	0.570513
1	0xbf819e26	-1.0126388
2	0xbd38cc73	-0.045116853
3	0x3dbfe087	0.09368997
4	0x3f5190db	0.81861657
5	0xbd556cc2	-0.052105673
6	0xc00ad687	-2.1693437
7	0xc118c10f	-9.547133
8	0xc0725058	-3.7861538
9	0x3cddbd3d	0.027067775
10	0xbced27c3	-0.028949624
11	0x3ca7e8d1	0.020496758
12	0xbdceace5	-0.10091571
13	0xbf0b3357	-0.54375213
14	0x3a6ebe55	0.0009107341
15	0xbc05ce81	-0.00816691
16	0xbfb67596	-1.4254634
17	0x3f9b409c	1.2129092
18	0xbe4846eb	-0.19558303
19	0xbfdb6b34	-1.7142091
20	0x3e961bed	0.2931818
21	0xbf97a1fc	-1.1846309
22	0xbfa6a2dd	-1.3018452
23	0x3ea198f0	0.31561995
24	0x40ba3dbd	5.8200364
25	0x3f7c9bc3	0.98675174
26	0xbedde2e2	-0.4333716
27	0x3c066035	0.0082016485
28	0x3e6edc82	0.23326305
29	0x3ede620d	0.43434182
30	0x3dda5f51	0.106627114
31	0x3d17644c	0.036960885
32	0x3df9b320	0.121923685
33	0xbdde5a9c	-0.10857126
34	0xbe741c64	-0.23838955
35	0x3e38bcfc	0.18040842
36	0x3e424c2e	0.18974373
37	0x3e473a46	0.19455823
38	0x3e3cc3c2	0.1843405
39	0x3ce7d7c0	0.02830112
40	0xbe2806dc	-0.16408867
41	0x3d998b34	0.07497254
42	0xbd21c310	-0.039492667
43	0x3e639ee8	0.22228587
44	0x3e0a4f18	0.13506734
45	0x3e7ab750	0.2448399
46	0xbe4ee11a	-0.20203057
47	0xbe146e5a	-0.14495221
48	0x3e66a914	0.22525436
49	0xbd1e60b8	-0.038666457
50	0xbdfd3c38	-0.123650014
51	0x3e1e4fee	0.15460178
52	0xbe798934	-0.24368745
53	0xbdefe6c8	-0.1171394
54	0x3d705230	0.05867213
55	0x3e1c587c	0.15268129
56	0x3e0fcf34	0.14043885
57	0x3e560fb0	0.20904422
58	0x3e461d0c	0.19347018
59	0x3dc6f284	0.09714225
60	0xbd7200d0	-0.059082806
61	0xbe565002	-0.20928958
62	0x3db3e690	0.08784211
63	0x3e42f0ea	0.19037214
64	0x3da6e438	0.08148998
65	0x3cd5f1a0	0.026116192
66	0xbe4c39ce	-0.19943926
67	0x3e2a39ae	0.16623566
68	0x3e196840	0.14981174
69	0x3dbf789c	0.09349176
70	0xbdb9d254	-0.0907332
71	0x3e09bcca	0.13450924
72	0x3e15d8de	0.1463351
73	0xbdd65f48	-0.10467392
74	0xbe0195b8	-0.1265477
75	0x3dd20ea0	0.10256696
76	0x3e26daea	0.16294447
77	0x3d9ecfd8	0.07754487
78	0xbdddc8f4	-0.108293444
79	0x3d7347d8	0.059394687
80	0x3e01fe40	0.12694645
81	0x3e4fce2d	0.20293494
82	0xbdd62330	-0.1045593
83	0xbd82ac2a	-0.06380494
84	0x3d820b0a	0.06349762
85	0x3c3860f6	0.011253586
86	0xbd901640	-0.07035494
87	0xbe815feb	-0.25268492
88	0x3db9dd7c	0.09075448
89	0x3ccf1c39	0.025282012
90	0x3d9057b7	0.0704798
91	0x3dc80711	0.09766973
92	0x3e1b61ea	0.1517407
93	0x3df3eda9	0.119105645
94	0x3defb40d	0.11704264
95	0xbe5cdfbe	-0.21569726
96	0x3da938bd	0.08262775
97	0xbe22c290	-0.15894532
98	0xbd19accb	-0.037518304
99	0x3e63335e	0.22187564
100	0x3e60dd7a	0.21959487
101	0xbe21ebca	-0.15812603
102	0x3e4411ef	0.19147466
103	0xbe8a2c9d	-0.26987162
104	0x3bb91f5b	0.00564949
105	0xbe79d889	-0.24399008
106	0x3e3010bb	0.17193882
107	0xbd571cca	-0.05251769
108	0x3d1f6b55	0.03892072
109	0xbd046256	-0.032320343
110	0xbe1e528b	-0.15461175
111	0xbe4b22fb	-0.19837563
112	0x3cc6c1a0	0.02426225
113	0x3e24ebc6	0.16105565
114	0xbe6ee59e	-0.2332978
115	0xbd0fbe50	-0.035093606
116	0xbe5ba33c	-0.21448988
117	0x3e615b0c	0.22007388
118	0xbe326792	-0.17422321
119	0xbdca5bf8	-0.09880823
120	0x3e2c57e6	0.16830406
121	0xbd5a16c8	-0.053244382
122	0x3df6a91c	0.12043974
123	0x3ccdfc70	0.025144786
124	0x3e265dd8	0.16246736
125	0xbe22535a	-0.15852109
126	0xbc690760	-0.01422295
127	0xbe3d0b28	-0.18461287
128	0x401e9a7e	2.4781795
129	0x3f820185	1.0156714
130	0x3d1c6575	0.038182694
131	0xbfb9eaa1	-1.4524728
132	0x3ebdf999	0.3710449
133	0xbf9e46a8	-1.2365313
134	0x3fd7e783	1.6867527
135	0xc0af4869	-5.477589
136	0xc0028241	-2.0392
137	0xbfa66509	-1.2999583
138	0xbd68bf7a	-0.05682323
139	0xbd82a6b0	-0.06379449
140	0x3d8efae8	0.0698145
141	0xbec5b51e	-0.38614744
142	0xbd57c87d	-0.052681435
143	0xbb59a235	-0.0033208255
144	0x3f02f6e3	0.5115797
145	0x3fa0242c	1.2511039
146	0xbe882ef7	-0.2659833
147	0xbf919ebb	-1.1376566
148	0x3eea5609	0.45768765
149	0x3f0e2d7b	0.5553815
150	0x3f577b29	0.841723
151	0xbd4bf39e	-0.04979288
152	0x3f7e5006	0.99340856
153	0xbf1ff72e	-0.6248654
154	0x3f07526a	0.5286013
155	0x3f0e09d6	0.5548376
156	0xbe6a517b	-0.22882645
157	0x3d90dbfd	0.070732094
158	0x3f96824f	1.1758517
159	0xbefbdfee	-0.49194282
160	0x3b7f6c7c	0.0038974574
161	0x3f8ea8bf	1.1145247
162	0x3d03c9f9	0.032175038
163	0xbfce0437	-1.6095036
164	0xbe68807c	-0.22705263
165	0xbfc49000	-1.5356445
166	0x3f0959bc	0.5365255
167	0xbf782c6a	-0.9694277
168	0xc03c5ab1	-2.9430354
169	0x3f35c9dc	0.7101114
170	0xbd94a226	-0.0725749
171	0x3dcb48c4	0.09925988
172	0xbf33661c	-0.7007768
173	0x3f27c610	0.65536594
174	0xbe01a48b	-0.12660424
175	0xbd9818bb	-0.07426592
176	0xbb10d880	-0.00221017
177	0xbdf9e174	-0.12201205
178	0xbdec9c98	-0.115533054
179	0x3cea43e0	0.028596818
180	0x3e2c8972	0.16849306
181	0xbe0f34a6	-0.13984928
182	0x3e4601e4	0.19336659
183	0xbe0bb80c	-0.13644427
184	0xbdca0f00	-0.09866142
185	0x3d36ad18	0.04459867
186	0xbe141cdc	-0.14464134
187	0xbe30f356	-0.17280325
188	0x3d7f15e8	0.06227675
189	0xbe214472	-0.15748766
190	0xbc543d80	-0.012954116
191	0xbcf5eff0	-0.030021638
192	0xbd0e0248	-0.034670144
193	0xbce61720	-0.028087199
194	0xbd90fae0	-0.070791006
195	0x3d633d20	0.055478215
196	0x3c50da00	0.012747288
197	0xbe43101a	-0.19049111
198	0xbe56ffd6	-0.20996031
199	0xbd845f68	-0.0646351
200	0x3db3d6d4	0.087812096
201	0x3d2b1908	0.04177192
202	0xbe5c4fee	-0.21514866
203	0xbdbfc450	-0.093636155
204	0xbd104c60	-0.035229087
205	0xbcc1e1b0	-0.023667186
206	0x3d963e64	0.07336119
207	0xbdbdabe0	-0.09261298
208	0xbe5c3aec	-0.21506852
209	0xbe682fca	-0.2267448
210	0xbdc234a8	-0.094827
211	0x3e67adb4	0.22624856
212	0xbe743c56	-0.23851141
213	0x3e6e4d84	0.23271757
214	0x3e7bde8e	0.24596617
215	0x3e314f14	0.17315322
216	0xbdf1b678	-0.11802381
217	0xbe26d3ee	-0.16291782
218	0xbddd4d60	-0.10805774
219	0x3c57a3e0	0.013161629
220	0x3d86fe94	0.06591526
221	0xbe7f6514	-0.24940902
222	0xbe7ab030	-0.24481273
223	0xbd8f557c	-0.06998727
224	0xc0355622	-2.8333821
225	0xbd216ce3	-0.039410483
226	0xbbd00d96	-0.006349276
227	0x3db44318	0.088018596
228	0x3e9a8dad	0.30186215
229	0x3e6d7f30	0.2319305
230	0xc0a1fc89	-5.062077
231	0xc0cdbb9d	-6.429152
232	0xbec0fbf4	-0.37692225
233	0x3ffc59f4	1.9714952
234	0xbd58e1ba	-0.052949645
235	0xbd6f08fd	-0.05835818
236	0xbd00d460	-0.031452537
237	0x3dc3ceee	0.09560953
238	0xbda503f2	-0.08057393
239	0x3a8ff81e	0.0010983979
240	0x3e8df7a5	0.27728
241	0x3eebfbda	0.46090585
242	0x3bdad911	0.0066787084
243	0xbe360424	-0.17775017
244	0xbef619b8	-0.48066497
245	0xbe6d0b6f	-0.23148893
246	0xbf95a989	-1.1692363
247	0x3fc523bb	1.5401529
248	0x4088e5ce	4.2780523
249	0x40645d40	3.5681915
250	0x3d053184	0.032517925
251	0x3e1b441b	0.15162699
252	0xbd82f35c	-0.06394073
253	0xbe10a8ef	-0.14126943
254	0xbca1839f	-0.019716082
255	0x3ec044b9	0.3755243
