fw_flightcontrol/models/icinco/sac/turbonly/sac_bohn_caps_nohist_easymedrefs_turbonly_1_04-06_22:48:47.pt (torch, 853931 bytes, 20 tensors)

action_scale f4 [1, 2]
0	0x3f800000	1.0
1	0x3f800000	1.0

action_bias f4 [1, 2]
0	0x00000000	0.0
1	0x00000000	0.0

fc1.weight f4 [256, 14]
0	0x3e0d03d2	0.13770989
1	0xbdf196bd	-0.11796329
2	0xbd543877	-0.05181166
3	0x3e00746d	0.12544413
4	0xbe80d2f9	-0.2516096
5	0x3e2420c0	0.16028118
6	0xbd61353a	-0.0549824
7	0x3e0b3b12	0.13596752
8	0x3d182ea3	0.03715385
9	0xbd060a34	-0.032724574
10	0x3d97d054	0.07412782
11	0x3c5803b1	0.013184474
12	0x3dc7e873	0.09761133
13	0xbdd54da1	-0.10415197
14	0xbf99eb0a	-1.2024853
15	0xc032cb62	-2.7936635
16	0x3d15937e	0.036517613
17	0xbdb40fa2	-0.08792044
18	0x3d5e30a7	0.054245617
19	0xbcbd151c	-0.023081355
20	0x3f22fc82	0.63666546
21	0xbfca836f	-1.582136
22	0x3fb7810a	1.4336255
23	0x3f3a56bb	0.7278859
24	0xbcd4ab44	-0.025960572
25	0x3cee6a95	0.029103557
26	0x3f569ee0	0.83836174
27	0x3d7fdd19	0.062466715
28	0xbf00b9d3	-0.50283545
29	0x3f155eb8	0.58347654
30	0xbdf0db16	-0.11760537
31	0x3d29f99b	0.041497808
32	0x3e92c4e6	0.28665847
33	0x3dde38ca	0.108506754
34	0xbed1584e	-0.40887684
35	0xbf97f71c	-1.1872287
36	0xbf377bbc	-0.7167318
37	0xbec61047	-0.38684294
38	0xbd015edc	-0.031584606
39	0x3cfde865	0.030994603
40	0x3eadaede	0.33922476
41	0x3d0c8d8e	0.034314685
42	0x3e4d3c6d	0.20042582
43	0x3b4f68ca	0.0031648153
44	0xbe102d52	-0.14079788
45	0x3e0cac5c	0.13737625
46	0xbe1145c0	-0.14186764
47	0x3da0fa7f	0.07860278
48	0xbd9e0d32	-0.077173606
49	0xbcf008b4	-0.029301025
50	0xbe838ddf	-0.25694177
51	0xbe027bc5	-0.12742527
52	0x3e148171	0.14502503
53	0xbd850c71	-0.06496514
54	0x3e884c14	0.26620543
55	0x3e5b6008	0.21423352
56	0xbf5142ba	-0.8174244
57	0x3ef422a4	0.4768268
58	0xbe005c5e	-0.12535235
59	0xbdc55704	-0.096357375
60	0x3dcc733d	0.099829175
61	0x3dfb74fc	0.122781724
62	0x3f924f81	1.1430513
63	0x3ef64b8a	0.48104507
64	0x3e5c97c2	0.21542266
65	0x40179df0	2.3690147
66	0x3d1af43e	0.037830584
67	0xbcb1c2c9	-0.021699326
68	0xbe0d33e6	-0.13789329
69	0xbcf82186	-0.030289423
70	0x3e0e65ab	0.13905971
71	0xbcab1454	-0.020883717
72	0xbd710a9a	-0.058848
73	0xbd3faea4	-0.04679741
74	0xbec107d2	-0.3770128
75	0xba0b2ecd	-0.0005309403
76	0x3e918f98	0.28429866
77	0x3e4a361d	0.19747205
78	0x3f119ef4	0.5688317
79	0x40229c96	2.5408072
80	0xbda6c083	-0.081421874
81	0xbc60868b	-0.013703953
82	0xbd8a6aac	-0.06758627
83	0xbdbacddd	-0.091212966
84	0x3e20bc78	0.15696895
85	0xbe1e7ec8	-0.1547805
86	0xbe734ae7	-0.23759042
87	0x3e472c28	0.19450438
88	0xbd22530c	-0.03962998
89	0x3e19ee46	0.150323
90	0x3daff704	0.08592036
91	0xbe4d38f6	-0.2004126
92	0x3d5bec7c	0.053692326
93	0x3d8378cb	0.06419524
94	0xbe373de7	-0.17894708
95	0xbe01d9f8	-0.12680805
96	0x3dbaa224	0.09112957
97	0x3d4415f9	0.047872517
98	0xc0014303	-2.019715
99	0x3f00fd21	0.50386244
100	0x3c03ff31	0.008056448
101	0x3fac6de3	1.3471035
102	0xbe315c8b	-0.17320459
103	0x3fa3a3e1	1.2784387
104	0xc073fd67	-3.8123415
105	0x3fda7967	1.7068299
106	0xc0076590	-2.115574
107	0x3e67dc5c	0.22642654
108	0x3ca1ac74	0.019735552
109	0x3da25b09	0.0792752
110	0x3f0f616c	0.5600803
111	0x3e57f126	0.21088085
112	0x400e823a	2.2266984
113	0xbf4b35cf	-0.7937898
114	0xbc267061	-0.010158629
115	0x3f5839ad	0.84463006
116	0x3f066972	0.52504647
117	0x3f3ee84a	0.74573195
118	0xc0407f65	-3.0077755
119	0xc05a0363	-3.4064567
120	0xbf336f7d	-0.7009199
121	0xc02dcc11	-2.7155802
122	0x3c7760be	0.015098749
123	0xbd2aed8c	-0.04173045
124	0xbf58795c	-0.8456018
125	0xbf35de2e	-0.71042144
126	0xbfbf8860	-1.4963493
127	0x3fa5ead3	1.2962288
128	0xbccc1239	-0.024911033
129	0xbe7847f6	-0.24246201
130	0x3cb16732	0.021655653
131	0xbd8d1f3e	-0.068907246
132	0x40118d06	2.2742324
133	0x3e8d9c80	0.27658463
134	0x40197b6b	2.3981578
135	0x40281ed1	2.626881
136	0xbcd395de	-0.025828298
137	0x3d1aee69	0.037825022
138	0x3f572494	0.8404019
139	0x3e6b9d4b	0.23009221
140	0xbdfaceb9	-0.122464605
141	0xbcfef277	-0.031121476
142	0xbe27c001	-0.16381837
143	0x3dc84019	0.09777851
144	0x3da96602	0.082714096
145	0xbd77e112	-0.06051738
146	0x3dd25e8b	0.10271939
147	0x3db0e53f	0.08637475
148	0x3e2716ed	0.16317339
149	0x3e384e17	0.17998539
150	0xbdb95ca6	-0.090508744
151	0x3e85b1a9	0.26112106
152	0xbcfd1caf	-0.030897466
153	0xbc167036	-0.009182027
154	0xbe81288f	-0.25226256
155	0xbe302459	-0.17201366
156	0xbe1fe1d7	-0.15613495
157	0xbdea1d55	-0.11431376
158	0x3e429330	0.1900146
159	0xbdb2dd2b	-0.08733591
160	0xbe4c8337	-0.1997193
161	0x3dd297df	0.10282873
162	0x3daf3ec1	0.08556891
163	0x3e3141cf	0.1731026
164	0xbe0d9e94	-0.13830024
165	0x3d6d590a	0.057946242
166	0xbdc74373	-0.09729662
167	0xbd75f3ad	-0.06004684
168	0xbe5a18d8	-0.2129854
169	0xbdf97613	-0.12180724
170	0xbda7a167	-0.08185082
171	0x3dea110e	0.11429034
172	0x3d47fd91	0.048825804
173	0x3d873467	0.06601792
174	0x3e889417	0.26675484
175	0x3e855da7	0.26048014
176	0x3e3aa8db	0.18228476
177	0x3c0b6fd0	0.008510545
178	0xbe3d538d	-0.18488903
179	0x3e55e14b	0.20886724
180	0xbd88df5a	-0.06683226
181	0xbcb100ce	-0.021606829
182	0xbe6bc56b	-0.23024528
183	0xbd583c26	-0.052791737
184	0xbe308472	-0.17238024
185	0x3e7b7b68	0.24558794
186	0xbe6c9926	-0.23105296
187	0xbe555349	-0.20832552
188	0xbc14b026	-0.0090752
189	0xbe13fb07	-0.14451228
190	0x3dc3d93d	0.09562919
191	0xbdd2b07e	-0.102875695
192	0xbe008ac0	-0.12552929
193	0x3c780160	0.015137047
194	0x3e461cf6	0.19346985
195	0xbe408285	-0.18799789
196	0x4088ad47	4.271152
197	0x3fb9b740	1.4509048
198	0x3bb149e3	0.0054104193
199	0xbeb1fcbd	-0.34763137
200	0x3e5b44a5	0.21412905
201	0xbe8033d3	-0.2503954
202	0x40791888	3.8921223
203	0xc00eb319	-2.2296813
204	0xbeb9a639	-0.3625963
205	0xbf9162e6	-1.1358306
206	0xbb020f05	-0.0019845378
207	0x3c0241b7	0.007950238
208	0x3dc38a08	0.09547812
209	0x3d467a10	0.04845625
210	0x3d2f9175	0.042863328
211	0x3da6f8dc	0.08152935
212	0xbe762d89	-0.24040808
213	0x3e476203	0.19470982
214	0x3e6e9b9a	0.23301545
215	0x3e6238c5	0.22091968
216	0x3e4a4ea0	0.19756556
217	0xbe457e2b	-0.1928641
218	0xbdcae72c	-0.09907374
219	0x3e714e7f	0.235651
220	0xbe507282	-0.20356181
221	0x3e7848c3	0.24246506
222	0xbe573ea5	-0.2101999
223	0xbe40c784	-0.18826109
224	0x3e062776	0.1310099
225	0xbe44f261	-0.19233085
226	0xbd8a143f	-0.06742143
227	0x3e4775b4	0.19478494
228	0x3e58b9b5	0.21164592
229	0x3e817496	0.2528426
230	0xbd5f7e11	-0.054563586
231	0xbe544db0	-0.2073276
232	0x3e86b791	0.26311925
233	0xbd690df6	-0.05689808
234	0xbde08f88	-0.109648764
235	0x3d84c8e3	0.064836286
236	0xbe3b1867	-0.18271028
237	0x3e34f587	0.17671786
238	0x3e2b857a	0.16750136
239	0xbe592808	-0.21206677
240	0xbe60ca1d	-0.219521
241	0xbcbfc8b1	-0.023411127
242	0x3de5e6c0	0.11225653
243	0xbbfda3a7	-0.007740456
244	0xbe0ac654	-0.13552219
245	0x3bc8386e	0.0061102426
246	0xbe809e43	-0.25120744
247	0xbe416c55	-0.18888982
248	0xbe362ed1	-0.17791297
249	0x3e61614d	0.22009774
250	0x3e713f1f	0.23559235
251	0xbdb9eabc	-0.09077975
252	0xbe9cf485	-0.30655304
253	0xc0374368	-2.8634892
254	0xbaa1826d	-0.0012322195
255	0x3e809249	0.25111607

fc1.bias f4 [256]
0	0xbe541020	-0.20709276
1	0xc01da0cf	-2.46294
2	0xbe0ad145	-0.13556392
3	0x3d704121	0.05865586
4	0x3ecff229	0.4061444
5	0x3e1bff3e	0.15234086
6	0xbcbab321	-0.022790493
7	0xbd18bc47	-0.03728893
8	0xbf68984e	-0.908574
9	0x3e72debc	0.23717779
10	0x3d5bfc9f	0.053707715
11	0x3d9b3156	0.075777695
12	0xbdb6df37	-0.089292936
13	0x3cf5bde3	0.029997772
14	0xbf38ce8c	-0.72190166
15	0xbc83c6d9	-0.016086029
16	0xbdb2ee7e	-0.08736895
17	0xbe78da60	-0.24302053
18	0xbf65927d	-0.8967665
19	0x3ed6f31b	0.4198235
20	0x3f699be9	0.91253525
21	0xbe59a447	-0.21254073
22	0xbdfe722d	-0.12424121
23	0x3f405ec7	0.7514462
24	0xbf55db23	-0.835375
25	0x3e36095b	0.17777006
26	0xbbe2ff6a	-0.0069274204
27	0xbe13a152	-0.14417008
28	0x3dd7eff9	0.10543818
29	0x3e4ba0d3	0.19885568
30	0xbecf574f	-0.404963
31	0xbcc6dbc6	-0.024274718
32	0x3e6afc7d	0.22947879
33	0xbe95cafd	-0.2925643
34	0x3e4893f6	0.19587693
35	0x3f051b69	0.5199495
36	0x3e59ac0b	0.21257035
37	0xbe2528b6	-0.16128811
38	0xbda7fe7b	-0.08202835
39	0x3e06b027	0.13153134
40	0x3d288e1f	0.041151162
41	0x3f5ee8b5	0.8707383
42	0xbdcac6a9	-0.09901173
43	0x3d407694	0.046988085
44	0x3f1c3b40	0.6102791
45	0x3f20b49d	0.62775594
46	0x3d8d6b82	0.06905271
47	0xbe20a92f	-0.15689538
48	0x3dc505ff	0.09620284
49	0xbdf1f8db	-0.118150435
50	0x3d0807a3	0.033210408
51	0xbe882249	-0.26588657
52	0x3e525e60	0.20543814
53	0x3e4759e7	0.19467889
54	0x3d0336dd	0.032034744
55	0x3cc5bd8d	0.024138236
56	0xbdd22ad8	-0.10262078
57	0xbf0759bf	-0.52871317
58	0x3e4d1fbf	0.20031641
59	0xbe3af52b	-0.18257587
60	0x3e45f5e9	0.19332089
61	0xbe1d0354	-0.15333301
62	0x3e606c59	0.21916331
63	0xbe6fff64	-0.23437268
64	0xbf249e76	-0.6430429
65	0x3ed26959	0.41096
66	0x3edd48f7	0.4321973
67	0xbe11ae76	-0.14226708
68	0xbe1ef3da	-0.1552271
69	0xbdf2b013	-0.1184999
70	0xbe2a8cc3	-0.16655259
71	0x3c1bd1be	0.009510456
72	0xbf353e10	-0.70797825
73	0x3ea657f4	0.32488978
74	0x3e730aa0	0.23734522
75	0x3f234bc8	0.6378751
76	0x3e235e94	0.15954047
77	0xbe103d24	-0.14085823
78	0xbf0d8267	-0.55277103
79	0x3e02a23c	0.127572
80	0xbedc2dbf	-0.43003651
81	0xbebe0fef	-0.3712153
82	0xbe86270a	-0.2620166
83	0x3dc51f8c	0.09625158
84	0xbe603992	-0.21896961
85	0xbe8f6838	-0.280092
86	0xbdd15ba6	-0.10222559
87	0x3e1e1eb5	0.15441401
88	0x3e44004d	0.1914074
89	0xbe611611	-0.21981074
90	0x3e0fe737	0.14053045
91	0xbd8b3857	-0.06797855
92	0x3e5b814d	0.21436043
93	0xbeb9231b	-0.36159596
94	0xbe2ad4f0	-0.16682792
95	0x3e808e26	0.2510845
96	0xbe28d929	-0.1648909
97	0xbc23138c	-0.009953391
98	0xbf0673b9	-0.5252033
99	0xbfb2cf02	-1.3969424
100	0xbe3160e2	-0.17322114
101	0xbea41637	-0.320482
102	0x3ec709d5	0.3887469
103	0x3d638bcb	0.05555324
104	0x3d97b734	0.0740799
105	0xbf2fb6f3	-0.68638533
106	0xbc1b9ea1	-0.009498269
107	0x3d8ed011	0.06973279
108	0x3ddbf744	0.107405216
109	0xbe93da92	-0.28877693
110	0x3e6e4fb9	0.232726
111	0x3e3a06a5	0.18166597
112	0x3e76986f	0.24081586
113	0xbf1362c7	-0.575726
114	0x3c15774f	0.009122684
115	0x3e2b36d9	0.16720141
116	0x3ffc5a63	1.9715084
117	0x3cd46239	0.025925742
118	0xbdfd498d	-0.12367544
119	0xbeb86406	-0.36013812
120	0x3e326d41	0.1742449
121	0xbf1b51e8	-0.60671854
122	0xbe6e97fe	-0.23300168
123	0x3f09c3a9	0.5381418
124	0x3f93c39c	1.154407
125	0xbdc398e2	-0.095506445
126	0x3e3559a8	0.17709982
127	0x3f9b7cd5	1.2147471
128	0xbed089e6	-0.40730208
129	0xbdebdee6	-0.11517124
130	0x3e0ea9bc	0.13931936
131	0xbfb388bd	-1.4026104
132	0x3e379146	0.17926511
133	0xbc11d199	-0.00890007
134	0xbf231aea	-0.6371294
135	0xbda74550	-0.08167517
136	0xbd999a5d	-0.075001456
137	0xbe6f9390	-0.23396134
138	0xbc62679c	-0.013818648
139	0x3e84725e	0.25868505
140	0xbd320102	-0.043457992
141	0x3ee6f480	0.45108414
142	0xbe3c0f4e	-0.18365213
143	0x3e539998	0.2066406
144	0x3faecf46	1.3657005
145	0xbf01235f	-0.50444597
146	0xbe3b4339	-0.18287362
147	0xbd67a2e3	-0.056551825
148	0xbe1e3d69	-0.15453114
149	0xc00ac7c5	-2.168443
150	0xbf383be7	-0.71966404
151	0x3f575892	0.8411952
152	0xbd88b9b3	-0.06676044
153	0x3e4fb900	0.20285416
154	0x3dd58604	0.10425952
155	0xbc9dd47d	-0.019266361
156	0x3e895988	0.2682612
157	0x3e3b9979	0.18320264
158	0xbdf21bb1	-0.11821688
159	0x3f0a821c	0.5410478
160	0x3ef3f20b	0.47645602
161	0xbe0c4ab7	-0.13700376
162	0x3e01e1a1	0.12683727
163	0x3d922be1	0.071372755
164	0xbed29a79	-0.41133478
165	0xbe036ddc	-0.12834877
166	0xbe96884d	-0.29400864
167	0x3c0a1e65	0.008430098
168	0xbfbcbb02	-1.474457
169	0xbfce1366	-1.609967
170	0xbca9dc92	-0.020735059
171	0xbec10901	-0.37702182
172	0xbf21da99	-0.6322418
173	0xbdda9c74	-0.10674372
174	0xbdb63d93	-0.08898463
175	0x3e793bb1	0.24339177
176	0x3ec8aac1	0.39192775
177	0x3e47e16d	0.19519587
178	0xbe2f5584	-0.17122465
179	0xbe33cc84	-0.17558485
180	0xbd94a45f	-0.07257914
181	0xbe48b71c	-0.196011
182	0xbc085df4	-0.008323181
183	0x3e0ecc5c	0.13945144
184	0x3e7f962e	0.24959633
185	0x3e9a640e	0.3015446
186	0xbe545997	-0.20737301
187	0x3de46978	0.11152929
188	0x3e5ab352	0.21357468
189	0x3d1ba81b	0.038002115
190	0xbecb250c	-0.39676702
191	0x3f33994e	0.701558
192	0xbe91516c	-0.28382432
193	0x3e4414a8	0.19148505
194	0xbe0a225f	-0.13489674
195	0x3e78e849	0.2430736
196	0x3f5182e5	0.81840354
197	0xbf16c623	-0.5889608
198	0xbe2341f8	-0.15943134
199	0x3f4d892b	0.80287427
200	0x3ce19c5a	0.027540375
201	0x3f35642d	0.7085598
202	0xbe5e6a0d	-0.21720143
203	0x3dba117c	0.09085366
204	0xbdc04e29	-0.09389908
205	0xbd20652e	-0.039158992
206	0xbcad50c6	-0.02115668
207	0xbece3c46	-0.4028036
208	0x3f94286d	1.1574837
209	0xbf5ad5f9	-0.85482746
210	0x3e49af4f	0.19695781
211	0xbe0a3fc3	-0.13500886
212	0x3e92ed00	0.28696442
213	0x3d9b6fcf	0.07589685
214	0x3f21871b	0.6309678
215	0xbcde6396	-0.027147096
216	0xbe0b8bd4	-0.13627559
217	0xbdd4335e	-0.1036136
218	0x3f888a9a	1.0667298
219	0x3d81c226	0.06335859
220	0xbdf9c8ce	-0.121965036
221	0xbeff5107	-0.49866506
222	0xbd72e2d4	-0.05929835
223	0xbf3677e8	-0.7127671
224	0x3ef3dbe6	0.47628707
225	0x3e51559d	0.20442815
226	0xbdafecaf	-0.08590066
227	0x3e87bf82	0.26513296
228	0x3e62fbd0	0.22166371
229	0xbe229fde	-0.15881297
230	0x3df2b683	0.118512176
231	0xc020354a	-2.5032525
232	0x3cb699c4	0.022290118
233	0xbf700d8e	-0.9377068
234	0xbe31c2aa	-0.17359415
235	0x3da18389	0.078864165
236	0xbec31836	-0.3810441
237	0xbf65e394	-0.8980038
238	0x3e713aa4	0.23557526
239	0x3f1c972c	0.6116817
240	0xbe830be5	-0.25595012
241	0x3c2badc6	0.010478443
242	0xbf0a3514	-0.5398724
243	0xbcb056cf	-0.021525769
244	0x3fabbc3b	1.3416818
245	0xbf16e371	-0.589408
246	0xbdf149f8	-0.117816865
247	0xbe2503d6	-0.16114745
248	0x3e84db0d	0.25948372
249	0x3dc436b2	0.09580745
250	0xbe5345fe	-0.20632169
251	0xbf88cfb0	-1.0688381
252	0x3e5cbd60	0.21556616
253	0xbe83872d	-0.25689068
254	0xbe2495aa	-0.16072717
255	0xbf2d0586	-0.67586553

fc2.weight f4 [256, 256]
0	0xbd411626	-0.047140263
1	0xbca1d1cf	-0.019753365
2	0x3b9c9cea	0.004779448
3	0xbd7d52a6	-0.061846398
4	0xbd82f86b	-0.06395038
5	0xbd8c2f2a	-0.06844933
6	0xbc53eab8	-0.012934379
7	0xbd35a3cc	-0.044345662
8	0x3c8b2c27	0.016988827
9	0xbb2bd657	-0.0026220286
10	0xbc04f0c0	-0.00811404
11	0xbd5fc784	-0.054633632
12	0x3aebe280	0.0017996579
13	0xbd7840c6	-0.060608648
14	0xbd9cf9c7	-0.07664829
15	0x3cd14a94	0.025548257
16	0xbd7ea33e	-0.0621674
17	0x3b404da0	0.0029343143
18	0xbb70fb9e	-0.003677107
19	0xbce0e72d	-0.027453983
20	0x3cf02f33	0.029319381
21	0xbc5f3e50	-0.013625696
22	0x3d31fc9a	0.04345379
23	0xbd829209	-0.0637551
24	0xbd84b371	-0.06479538
25	0xbd28826e	-0.041140012
26	0x3d0bc388	0.03412202
27	0x3bb926c0	0.0056503713
28	0xbc872718	-0.016498134
29	0xbc977797	-0.018489642
30	0xbd3dd7ca	-0.04634837
31	0x3b672859	0.0035271852
32	0xbca57136	-0.020195585
33	0xbbd78990	-0.006577678
34	0xbd1a9675	-0.037741143
35	0xbd820463	-0.06348493
36	0x3c03e100	0.00804925
37	0x3b723ba0	0.0036961809
38	0xbd61d0e4	-0.055130854
39	0x3d5e603c	0.054290995
40	0x3ce7d698	0.028300568
41	0x3c249159	0.010044419
42	0x3c867633	0.016413784
43	0xbc8954a4	-0.016763993
44	0x3bb774a9	0.005598624
45	0x3c8e0a1a	0.017338801
46	0x3cc90e00	0.024542809
47	0xbca5f56c	-0.020258628
48	0xbd8d599b	-0.069018565
49	0xbb14c300	-0.0022699237
50	0x3d4a4154	0.049378708
51	0xbd0bb386	-0.034106754
52	0xbd17fd9f	-0.037107106
53	0xbcfd3a00	-0.030911446
54	0xbd5606a6	-0.052252434
55	0x3cc57948	0.024105683
56	0xbc134110	-0.00898768
57	0xbcd2768c	-0.025691293
58	0x3d79ae8c	0.060957476
59	0x3c227f00	0.0099179745
60	0x3d4781e2	0.04870785
61	0x3c2559a8	0.0100921765
62	0xbbd9e890	-0.006650038
63	0x3c740c9e	0.014895586
64	0xbbcf9e8a	-0.006336038
65	0xbcfab091	-0.030601772
66	0xbcaf2c69	-0.021383481
67	0xbcf90b64	-0.03040094
68	0xbba38e80	-0.0049913526
69	0x3c91d3fe	0.017801281
70	0x3d054fb9	0.032546733
71	0x3cf1cc86	0.02951647
72	0xbd8b277f	-0.06794643
73	0x3b709615	0.003671055
74	0x3ccd6074	0.025070406
75	0x3c61af3e	0.013774691
76	0xbcd9b05e	-0.026573356
77	0xbd8de509	-0.069284506
78	0xbb27e122	-0.0025616367
79	0xbd68594d	-0.05672579
80	0x3cb9cbe2	0.022680227
81	0xbd6818fa	-0.056664445
82	0x3cfc1d3c	0.030775659
83	0xbc9db5e4	-0.019251771
84	0xbd526c98	-0.051373094
85	0xbd7999ee	-0.060937814
86	0x3cde6060	0.027145565
87	0xbc9c2334	-0.019059755
88	0xbd65d7ba	-0.056113936
89	0x3d7ca2b6	0.06167861
90	0x3d1624e6	0.036656283
91	0x3d288e96	0.041151606
92	0xbd50507b	-0.050858002
93	0xbb74a350	-0.0037328787
94	0xbcc68009	-0.024230974
95	0xbbebad80	-0.0071923137
96	0x3cf5fc30	0.030027479
97	0xbcbf8dbd	-0.023383016
98	0xbd0b82e9	-0.034060393
99	0xbcc2919e	-0.023751076
100	0xbcc98200	-0.024598122
101	0xbd45b68b	-0.04826979
102	0xbce953b8	-0.028482303
103	0xbcb72dc0	-0.022360682
104	0xbca1cc24	-0.019750662
105	0xbd4b593d	-0.04964565
106	0x3ced1644	0.028941281
107	0xbc266a28	-0.010157146
108	0x3c97b1e0	0.018517435
109	0xbbc43a15	-0.005988369
110	0xbcaa6824	-0.020801611
111	0x3d7d3816	0.061821066
112	0xbc9ff76c	-0.01952716
113	0xbd46eb71	-0.04856438
114	0x3c657b58	0.014006458
115	0xbd11d122	-0.035599835
116	0x3cab6037	0.020919902
117	0x3d44314e	0.047898583
118	0xbd2ffa62	-0.042963393
119	0xbd1b1ff9	-0.03787229
120	0x3bced855	0.00631241
121	0x3cc77e8a	0.02435233
122	0x3d071f5b	0.032988887
123	0xbc3c412c	-0.011490148
124	0xbc08ce05	-0.0083499
125	0x3d08e342	0.033419855
126	0x3c6cc980	0.014452338
127	0xbd816470	-0.06317985
128	0xbcfb74af	-0.030695288
129	0x3b597789	0.003318282
130	0x3cae2aec	0.021260701
131	0xbda8b7b6	-0.08238165
132	0xbdae9c0b	-0.085258566
133	0xbc7b7a2d	-0.015348953
134	0x3b009809	0.001962187
135	0x3d2dafaa	0.042403854
136	0xbd5541a0	-0.052064538
137	0x3cd43044	0.025901921
138	0x3b55dcc0	0.0032632798
139	0x3cf93fee	0.030425992
140	0xbd0ee7a0	-0.034888864
141	0xbd2fd30a	-0.042925872
142	0x3ca60330	0.020265192
143	0xbd73da0c	-0.059534118
144	0x3c3601ad	0.011108798
145	0xbd62d3e0	-0.05537784
146	0x3c48b610	0.012250438
147	0xbd1fb61a	-0.038992025
148	0x3d4d63ac	0.050143883
149	0xbc5f35ad	-0.013623637
150	0xbc3b5ee5	-0.011436199
151	0xbd361ed9	-0.044463012
152	0xbd3a0864	-0.04541816
153	0x3ba26e20	0.0049569756
154	0xbd657a51	-0.056024853
155	0xbb2bb160	-0.0026198253
156	0x3d7f046d	0.06226008
157	0x3c9005ec	0.017580949
158	0xbcde6484	-0.027147539
159	0xbd2fb088	-0.042892963
160	0x3c98b3ea	0.018640477
161	0xbd4d4c02	-0.050121315
162	0xbd4d0c36	-0.050060473
163	0xbba728b0	-0.005101286
164	0x3c84c80b	0.01620867
165	0xbd0fd5b8	-0.035115927
166	0xbc79e451	-0.015252189
167	0xbce7e9f4	-0.0283098
168	0x3bffcd86	0.0078064827
169	0xbd4ec20e	-0.050478034
170	0xbc821f8d	-0.015884185
171	0x3cba252b	0.022722801
172	0xbcd7d9ee	-0.026349034
173	0x3d755360	0.059893966
174	0xbd09cafa	-0.03364084
175	0xbcaf9aa0	-0.021436036
176	0x3b8b3390	0.00424809
177	0xbcf0e3c0	-0.029405475
178	0xbda550e5	-0.0807207
179	0xbd421982	-0.047387607
180	0xbd668f54	-0.056289032
181	0x3d65182a	0.055931248
182	0xbbe34882	-0.006936134
183	0xbcfc677c	-0.030811064
184	0x3cbfd578	0.02341722
185	0xbb6fa2c8	-0.003656553
186	0xbd11473d	-0.03546833
187	0x3d1b0908	0.03785041
188	0xbd267372	-0.04063744
189	0xbd334f36	-0.043776713
190	0x3c7cd189	0.015430816
191	0x3c1e7469	0.009671309
192	0x3bb55b2d	0.0055345506
193	0x3b9bbaf2	0.00475251
194	0xbcd713d0	-0.026254565
195	0xbd9e672e	-0.07734524
196	0xbb22bac8	-0.0024830569
197	0x3c05a3f6	0.008156767
198	0x3d277c5c	0.040890083
199	0xbcb92bc3	-0.022603875
200	0xbd57e68b	-0.052710097
201	0xbc7ca527	-0.015420235
202	0x3d4891ba	0.0489671
203	0xbb52e640	-0.0032180697
204	0x3d126947	0.03574493
205	0xbcfbd4a6	-0.030741047
206	0x3c7099d0	0.014685109
207	0xbd716fed	-0.05894463
208	0xbba0d12b	-0.0049077473
209	0x3cb8b5eb	0.022547683
210	0xbd7b0338	-0.061282367
211	0x3d602c3c	0.054729685
212	0x3c2c9c47	0.010535306
213	0x3d43bdc0	0.04778838
214	0xbd41ff8e	-0.047362857
215	0x3d2f830c	0.042849585
216	0x3c1503b0	0.009095117
217	0xbd21192a	-0.03933064
218	0x3d1a8fe9	0.0377349
219	0xbd7f416c	-0.06231825
220	0x3d62a046	0.05532863
221	0xbb454679	-0.003010182
222	0x3d271492	0.0407911
223	0x3c66295b	0.014047946
224	0xbd84d44f	-0.06485807
225	0x3cd1d2e0	0.025613248
226	0xbd81ac92	-0.06331743
227	0xbcc57874	-0.024105288
228	0xbc6fe9e8	-0.01464317
229	0xbd0ce19e	-0.034394853
230	0xbc28be18	-0.010299228
231	0x3d153d85	0.036435623
232	0x3d0439c4	0.032281652
233	0xbd7d0c3e	-0.061779253
234	0x3d269baa	0.040675797
235	0x3c50d6b8	0.012746505
236	0x3b3f835d	0.0029222586
237	0xbc682c0a	-0.014170656
238	0xbd7ecfdc	-0.06220995
239	0xbd85abe7	-0.065269284
240	0x3c6ab8a8	0.014326252
241	0x3d5d872a	0.05408398
242	0xbd4047b0	-0.046943367
243	0x3d469802	0.04848481
244	0x3ca17472	0.019708846
245	0x3cb66115	0.02226309
246	0x3d1c5704	0.038168922
247	0x3d22b2de	0.039721362
248	0x3c030540	0.007996857
249	0xbcf64868	-0.030063823
250	0xbd13b90c	-0.036065146
251	0xbd8a3288	-0.06747919
252	0x3b40a560	0.0029395446
253	0x3c05d298	0.008167885
254	0xbc93a1c8	-0.01802148
255	0xbd6d9382	-0.058002003

fc2.bias f4 [256]
0	0xbce7d5e0	-0.028300226
1	0xbcc35258	-0.023842975
2	0xbdc0a1f7	-0.09405892
3	0x3e088154	0.13330585
4	0xbf04a936	-0.51820695
5	0xbd8f325d	-0.06992028
6	0xbd91d4aa	-0.071206406
7	0xbe107575	-0.14107306
8	0xbf4337c4	-0.76256967
9	0xbe1677f4	-0.14694196
10	0x3e071cd2	0.13194588
11	0xbe911370	-0.28335142
12	0x3f353d87	0.7079701
13	0xbe8944ef	-0.26810405
14	0xbe7c66d0	-0.24648595
15	0xbd8b7aa9	-0.06810505
16	0x3f3e1be3	0.742613
17	0xbd8dd1db	-0.069247924
18	0x3ea7e168	0.3278916
19	0xbd0f45cb	-0.03497867
20	0xbd08e09a	-0.03341732
21	0x3ef6288b	0.48077807
22	0xbf0c48e4	-0.5479872
23	0xbcece8da	-0.028919626
24	0xbdd152ab	-0.10220846
25	0x3ba0b557	0.00490443
26	0x3ae15ed0	0.0017194394
27	0xbed5b105	-0.41736618
28	0x3b9f37d2	0.004858949
29	0x3f0ccdad	0.55001336
30	0xbc630ec1	-0.013858498
31	0x3ef6ec9a	0.48227388
32	0xbd3b3233	-0.04570217
33	0x3eead77d	0.4586753
34	0xbe2aa6e9	-0.16665234
35	0xbdca2b2c	-0.09871516
36	0x3d606931	0.05478782
37	0xbd5c8e2f	-0.053846534
38	0xbc5cc425	-0.013474499
39	0x3f2bcc10	0.6710825
40	0x3e22fac9	0.1591598
41	0x3f67d377	0.90557045
42	0xbdac3c0a	-0.08409889
43	0x3d1706a2	0.03687156
44	0xbd45a3e4	-0.048252
45	0x3e99ed19	0.30063704
46	0xbd8b6a99	-0.06807441
47	0xbe40cf30	-0.18829036
48	0xbe019874	-0.12655813
49	0x3f29be63	0.6630613
50	0x3e6221ca	0.22083202
51	0x3ebe478a	0.37163955
52	0xbda1fb64	-0.07909277
53	0x3aca45c4	0.0015432169
54	0xbc7301ec	-0.014832001
55	0xbd4698eb	-0.048485678
56	0xbd831392	-0.06400217
57	0x3f04a4be	0.51813877
58	0xbcf80d49	-0.030279772
59	0x3f3cdbe5	0.7377303
60	0x3f417f28	0.7558465
61	0x3b83add4	0.0040185247
62	0x3f0e55ac	0.55599475
63	0xbd9ff100	-0.07809639
64	0xbf339ff9	-0.70165974
65	0xbcbe08d3	-0.023197567
66	0xbd3b6019	-0.045745943
67	0x3e2a6411	0.16639735
68	0xbd1eb83a	-0.03874991
69	0xbe3e2a05	-0.18570717
70	0xbcf22374	-0.029557921
71	0x3e8f4e22	0.27989298
72	0x3cd76fa7	0.026298357
73	0xbe34698d	-0.1761839
74	0x3d8edfb2	0.0697626
75	0xbc3602b2	-0.011109041
76	0xbb16b2f9	-0.002299486
77	0x3e23c3d1	0.15992667
78	0xbd966710	-0.07343876
79	0x3f48c8a5	0.7843116
80	0x3ebb6062	0.36596972
81	0x3ebc4182	0.36768728
82	0xbeebbc11	-0.4604192
83	0x3f16cb29	0.5890375
84	0xbe52f2a2	-0.2060037
85	0x3ea7e04a	0.32788306
86	0xbdbac80f	-0.091201894
87	0xbce7dbfd	-0.02830314
88	0x3ea65604	0.324875
89	0x3e7dd65d	0.24788804
90	0xbd709013	-0.05873115
91	0x3e9db832	0.30804592
92	0xbe8b1714	-0.27166045
93	0xbec82bf2	-0.39096028
94	0x3cca04af	0.024660436
95	0xbd8e5630	-0.06950033
96	0xbd14d3e2	-0.03633488
97	0x3d213c5a	0.039364196
98	0x3e2ae8a2	0.16690305
99	0xbdf34182	-0.11877729
100	0x3f266e04	0.6501162
101	0xbf2c0528	-0.6719537
102	0x3ecd84e8	0.40140462
103	0x3e667f1d	0.22509427
104	0xbed30f8a	-0.41222793
105	0xbe0a3cc0	-0.13499737
106	0xbdbec738	-0.09315342
107	0x3e54dec8	0.2078811
108	0xbe32f7f9	-0.17477407
109	0xbe8ea455	-0.2785975
110	0xbf3d1443	-0.7385904
111	0x3e510d25	0.2041517
112	0xbf3e3547	-0.74300045
113	0xbe3f2156	-0.1866506
114	0xbef8f1c7	-0.4862196
115	0x3c49dffa	0.012321467
116	0xbe3d34f3	-0.1847723
117	0x3ed56f9b	0.4168671
118	0x3d43e504	0.04782583
119	0xbc964090	-0.018341333
120	0x3d8ca363	0.06867101
121	0x3f2217a9	0.6331735
122	0x3e6fb987	0.23410617
123	0x3f04f487	0.5193562
124	0x3ef4fafc	0.47847736
125	0x3ce7969b	0.028270056
126	0xbf345484	-0.7044146
127	0xbd8ef885	-0.06980995
128	0xbdaaa848	-0.08332878
129	0x3ee5c44c	0.44876325
130	0xbec23d14	-0.37937224
131	0xbd965c45	-0.07341818
132	0x3f1fb805	0.62390167
133	0x3cabbb56	0.020963352
134	0xbc57fcb2	-0.013182806
135	0xbdd73b75	-0.105093874
136	0x3beafdce	0.007171369
137	0x3c31f24e	0.010860993
138	0xbcf51ea4	-0.029921837
139	0xbe31076a	-0.17287984
140	0x3e8c202f	0.27368304
141	0xbf773aec	-0.9657428
142	0xbdc08089	-0.09399516
143	0xbd19fb87	-0.03759339
144	0x3c96088d	0.018314624
145	0xbd6cd6b9	-0.057821963
146	0xbc79a8f8	-0.015238039
147	0xbc520608	-0.012818821
148	0x3ccd0e83	0.025031334
149	0xbb90ee0e	-0.0044229096
150	0xbe95e0a6	-0.29272956
151	0xbdef5f9f	-0.1168816
152	0xbda8960c	-0.08231744
153	0xbeadb26f	-0.33925197
154	0x3cae2f34	0.021262743
155	0x3f072715	0.5279401
156	0x3d0de614	0.034643248
157	0xbe5d6d8a	-0.21623817
158	0x3f58a4f6	0.8462671
159	0xbd6f54a4	-0.05843033
160	0x3d0fffb9	0.035155986
161	0x3d50ed0f	0.051007327
162	0x3d6c4fd4	0.057693318
163	0x392363f5	0.00015582128
164	0x3f4da6b7	0.8033251
165	0x39faedf8	0.00047861016
166	0x3f075557	0.52864593
167	0xbda3897c	-0.079852074
168	0x3eaaadaa	0.3333562
169	0xbcc7c724	-0.02438695
170	0x3cce6285	0.025193462
171	0xbd200a03	-0.039072048
172	0x3f38f3b0	0.7224684
173	0xbeabbb35	-0.33541265
174	0x3efdf5c3	0.49601564
175	0x3cce863c	0.025210492
176	0xbd6cff52	-0.05786068
177	0xbd94aa8c	-0.07259092
178	0xbd534e71	-0.05158848
179	0xbdf14cab	-0.117822014
180	0xbd3ba9bb	-0.045816164
181	0xbe0ce021	-0.13757373
182	0xbd4f8dc2	-0.0506723
183	0xbda0f985	-0.07860092
184	0xbc10a52e	-0.008828444
185	0x3dc06b1b	0.09395429
186	0xbd89ef9f	-0.06735157
187	0xbd7ba200	-0.061433792
188	0xbe13dd23	-0.14439826
189	0xbd2819a5	-0.04104008
190	0xbe7e96e1	-0.24862243
191	0x3f45b2ed	0.77226144
192	0x3d409a67	0.04702225
193	0xbe3aa3fc	-0.18226618
194	0xb8e935be	-0.00011120316
195	0xbf0fd320	-0.56181526
196	0xbe35248b	-0.17689721
197	0x3f63690b	0.8883216
198	0x3ec4a7cb	0.38409266
199	0xbc993461	-0.018701734
200	0xbde2b262	-0.1106918
201	0xbd8a06e6	-0.06739597
202	0x3d8429ee	0.0645331
203	0x3ea92040	0.33032417
204	0x3f1c7749	0.61119515
205	0xbebbeca7	-0.3670399
206	0xbdc01773	-0.093794726
207	0xbef178e1	-0.47162536
208	0xbcbfd80e	-0.023418453
209	0xbd09e9ac	-0.033670112
210	0x3c7c7228	0.015408076
211	0xbd0f686d	-0.035011698
212	0x3c3b534e	0.011433436
213	0xbcb4e447	-0.022081507
214	0x3e9d9db9	0.30784395
215	0xbe061fba	-0.1309804
216	0xbcaaaab1	-0.020833345
217	0xbda9748c	-0.08274183
218	0xbdb5ee3e	-0.08883332
219	0x3b9c9c97	0.004779409
220	0x3d0ea508	0.034825355
221	0xbee0b76b	-0.43889937
222	0xbcc59196	-0.024117272
223	0x3e61217d	0.21985431
224	0xbda581b4	-0.080813795
225	0xbe6c4a65	-0.23075254
226	0xbd3c3b4b	-0.045954984
227	0xbce868dd	-0.028370315
228	0xbd87da1c	-0.06633398
229	0x3c585b9e	0.013205437
230	0xbd719ff9	-0.058990452
231	0xbd890b7c	-0.066916436
232	0xbd86a44c	-0.06574306
233	0x3e043669	0.12911381
234	0xbd3edf4c	-0.04659967
235	0x3f05c20e	0.5224923
236	0x3c0917b9	0.008367472
237	0xbdacb252	-0.084324494
238	0x3ea61c86	0.32443637
239	0xbc8ffd50	-0.017576844
240	0xbd17b6ea	-0.037039675
241	0xbea72b09	-0.3265002
242	0xbed28bd7	-0.41122314
243	0x3e1ed35b	0.15510313
244	0xbdbadb57	-0.09123867
245	0x3ec16cfc	0.3777846
246	0x3e82afe0	0.25524807
247	0xbe7f3f69	-0.24926533
248	0xbdb9d959	-0.09074659
249	0x3eb28ad4	0.34871542
250	0xbb85e3eb	-0.004086008
251	0xbf69cd7f	-0.9132919
252	0x3ed8ec90	0.42367983
253	0x3f015f69	0.5053621
254	0xbdf9fbf8	-0.12206262
255	0xbadff615	-0.0017086888

fc_mean.weight f4 [2, 256]
0	0xbd3258ff	-0.043541905
1	0x3d5a2e1a	0.053266622
2	0x3c8b8620	0.01703173
3	0xbe9bdd93	-0.30442485
4	0xbc2550c4	-0.010090057
5	0x3d7d7880	0.061882496
6	0x3d98eea9	0.07467396
7	0x3e288cfb	0.1646003
8	0x3d9d8e69	0.07693178
9	0x3ea8a0e3	0.32935247
10	0x3e8e2b92	0.27767617
11	0x3df182e0	0.117925406
12	0x3d1ea24f	0.03872901
13	0x3ec7affe	0.3900146
14	0x3e9725eb	0.29521117
15	0x3de0f0bc	0.109834164
16	0xbeb9dcf8	-0.36301398
17	0xbca51f45	-0.020156512
18	0x3f189690	0.5960474
19	0x3c9b5d44	0.018965371
20	0xbc86ebd9	-0.016469883
21	0xbe1d3925	-0.1535383
22	0x3e878794	0.26470625
23	0x3d8f4f9a	0.06997605
24	0x3c3fb481	0.01170075
25	0x3c30e20e	0.010796083
26	0xbc3b3a7a	-0.011427516
27	0xbe762a32	-0.24039534
28	0xbc4ea495	-0.012612482
29	0xbe1a179d	-0.1504807
30	0x3b1687a6	0.0022969036
31	0xbd388dd7	-0.045057144
32	0x3d741f0d	0.059599925
33	0x3c4f05cd	0.01263566
34	0x3c07918d	0.008274448
35	0x3e8e3e81	0.27782062
36	0x3ea1a1dd	0.31568804
37	0x3cdb661b	0.026782086
38	0xbcd8c9d4	-0.026463427
39	0xbcb559f3	-0.022137618
40	0x3e7847f3	0.24246196
41	0x3dd4eb00	0.10396385
42	0xba12373b	-0.0005577688
43	0x3c36d5d0	0.011159375
44	0xbc20d102	-0.009815456
45	0xbe1c0196	-0.1523498
46	0xbd3a2b46	-0.045451425
47	0x3ee1bf92	0.4409147
48	0x3ee3618f	0.4441037
49	0xbef59d1f	-0.47971436
50	0x3f92e43e	1.1475904
51	0xbe53bbd6	-0.20677122
52	0x3bcd0197	0.006256293
53	0xbc6f88fa	-0.01462006
54	0x3d316c94	0.04331644
55	0x3cf31d7a	0.029677141
56	0xbd435b7f	-0.04769468
57	0x3e37e271	0.17957474
58	0x3e85632b	0.26052222
59	0x3f1dff46	0.6171764
60	0x3d8e0dfe	0.069362625
61	0x3cf63090	0.030052453
62	0xbd2d60ab	-0.042328518
63	0x3cf7fe82	0.030272726
64	0xbe7e4a6f	-0.24833082
65	0xbd0bde59	-0.034147594
66	0x3d552ab3	0.052042674
67	0x3d85f9bd	0.065417744
68	0xbd46bd78	-0.048520535
69	0x3d8a243a	0.06745191
70	0x3ce2a5f0	0.027667016
71	0x3e0666f2	0.13125208
72	0x3e04609a	0.12927476
73	0xbf0f8a05	-0.56069976
74	0xbbc109fa	-0.005891082
75	0x3cb5dd1d	0.022200162
76	0xbcfe8e82	-0.031073812
77	0xbec6df72	-0.3884235
78	0x3cfc2fce	0.030784514
79	0xbdb74d46	-0.089502856
80	0x3e071d1f	0.13194703
81	0x3d1ca108	0.03823951
82	0x3de4a8d8	0.11165017
83	0xbbdd901f	-0.0067615653
84	0xbdde9b5f	-0.108694784
85	0xbb2477db	-0.0025095853
86	0x3c56b548	0.013104744
87	0x3d10a8e6	0.035317324
88	0x3da0b085	0.078461684
89	0x3d945a34	0.072437674
90	0x3b0b1681	0.002122313
91	0xbf1413f3	-0.5784294
92	0xbe981832	-0.2970596
93	0x3e553f15	0.20824845
94	0x3b9d8bb1	0.0048079123
95	0x3d48c3fe	0.049015038
96	0xbc9d189e	-0.019176777
97	0xbc4a0a53	-0.012331563
98	0xbca8d7c5	-0.0206107
99	0xbdb6dd69	-0.089289494
100	0x3df916d2	0.12162556
101	0x3e67354f	0.2257893
102	0xbf227e22	-0.63473713
103	0x3d220e2d	0.0395643
104	0x3e1b0798	0.15139616
105	0x3c8fc487	0.017549766
106	0x3d161249	0.03663853
107	0xbf053cf1	-0.52046114
108	0xbe75e05a	-0.24011365
109	0x3f0ff2f1	0.56230074
110	0xbe8e7dea	-0.2783044
111	0xbe844778	-0.25835776
112	0x3f243ee7	0.6415848
113	0x3d1bb1d6	0.038011394
114	0x3d2a68dc	0.041603908
115	0xbb6e535f	-0.003636561
116	0x3e313071	0.17303635
117	0x3e5a8228	0.21338713
118	0xbd3c667c	-0.045996174
119	0x3c961204	0.018319137
120	0xbd7e3ea5	-0.06207146
121	0x3d843d7b	0.06457039
122	0xbd340634	-0.04395123
123	0x3d6da42f	0.058017906
124	0xbe897ac1	-0.26851466
125	0xbc7819ba	-0.015142852
126	0xbf6f85c1	-0.9356347
127	0xbd021d92	-0.03176648
128	0x3d48a59f	0.048986074
129	0xbda3bb13	-0.07994666
130	0xbca88671	-0.02057192
131	0xbc54cd51	-0.012988404
132	0x3e25884e	0.16165277
133	0xbd3211ee	-0.04347413
134	0x3d2b7dbd	0.04186796
135	0x3cc175b5	0.023615697
136	0xbd67fe0f	-0.056638774
137	0x3dbc21be	0.09186123
138	0xbcd39567	-0.025828077
139	0xbe80a97a	-0.251293
140	0x3b46a6bd	0.0030311786
141	0x3ce9e449	0.028551238
142	0x3d08d38a	0.033404864
143	0x3d4d29f5	0.05008884
144	0xbf0af35c	-0.54277587
145	0xbd859a8f	-0.0652362
146	0xbd3e8420	-0.046512723
147	0x3cd183f5	0.025575617
148	0x3ca587ce	0.020206358
149	0x3ca0c5b5	0.019625524
150	0x3dea2b79	0.11434073
151	0xbd14b8f1	-0.036309186
152	0xbcb1362b	-0.021632275
153	0xbe6c012d	-0.23047324
154	0x3d829879	0.06376738
155	0xbdcbb791	-0.09947122
156	0xbc61acc6	-0.013774103
157	0xbced5845	-0.028972754
158	0xbd84ccf3	-0.064844035
159	0xbc93e868	-0.018055156
160	0xbd080ac6	-0.0332134
161	0xbd9949d6	-0.07484786
162	0xbc8e30f7	-0.017357333
163	0xbd614ef4	-0.055006936
164	0x3e81e853	0.25372562
165	0xbc8a8c7d	-0.016912693
166	0xbe8fec03	-0.2810975
167	0xbe1ccd3e	-0.15312669
168	0xbd57680f	-0.052589472
169	0xbd463c53	-0.048397373
170	0xbde044c0	-0.10950613
171	0x3c5f4763	0.01362786
172	0x3ebdae90	0.37047243
173	0x3d303bf5	0.04302593
174	0xbebb527a	-0.36586362
175	0x3ae47f3d	0.001743294
176	0x3cb62940	0.022236466
177	0x3ce9ada7	0.028525187
178	0x3f81c948	1.0139551
179	0xbec0df53	-0.37670383
180	0x3da6623a	0.08124204
181	0xbd23f87a	-0.040031888
182	0xbd005256	-0.03132852
183	0x3d617c14	0.05504997
184	0xbd4afaf6	-0.04955574
185	0x3d8b9d37	0.06817096
186	0xbd54bc12	-0.05193717
187	0x3cfe6fc1	0.031059148
188	0x3eccbfda	0.3999012
189	0xbd7d34d1	-0.061817948
190	0x3eddd99b	0.43330082
191	0xbc078c22	-0.008273156
192	0xbd94140e	-0.07230388
193	0xbe177159	-0.14789332
194	0xbc97f2fb	-0.01854848
195	0xbdeec166	-0.116579816
196	0xbc46d584	-0.012135867
197	0xbb8e7175	-0.004347021
198	0x3d7eaae1	0.06217468
199	0xbec2e979	-0.3806875
200	0xbdd0c302	-0.10193445
201	0x3bdb3790	0.006689973
202	0xbe9d2a5a	-0.30696374
203	0x3d39a8fd	0.045327175
204	0x3e0e556c	0.13899773
205	0xbe3f6782	-0.18691829
206	0x3dac9ba8	0.084281266
207	0xbeaeb074	-0.34118998
208	0xbd4dd9bc	-0.050256476
209	0xbb17c65d	-0.0023159005
210	0x3cb6b06f	0.022300927
211	0x3c5dbe53	0.013534146
212	0xbd890af5	-0.06691543
213	0x3d539353	0.05165417
214	0xbe3e679a	-0.18594208
215	0xbd6141d7	-0.05499443
216	0xbc8d27c6	-0.01723088
217	0x3d6550a1	0.055985097
218	0xbcef2eaf	-0.029197065
219	0x3d75b6bf	0.059988733
220	0xbcdc6848	-0.026905194
221	0xbe1226e2	-0.14272645
222	0x3c932204	0.017960556
223	0x3e2db164	0.169622
224	0x3d5ebf9e	0.05438196
225	0x3e001042	0.12506202
226	0x3a75ae29	0.000937196
227	0x3d5db12a	0.054124035
228	0x3c649870	0.01395236
229	0x3c931ef8	0.017959103
230	0x3cd889de	0.026432928
231	0xbd61f4e6	-0.055165194
232	0xbcee1b2e	-0.029065695
233	0xbdcaecee	-0.09908472
234	0xbcf77a7b	-0.03020977
235	0x3d890dcb	0.06692084
236	0xbee26c35	-0.4422318
237	0xbd9dae36	-0.07699244
238	0xbd1ea08b	-0.038727324
239	0xbf7ef7d2	-0.99596894
240	0x3d21e9e4	0.039529696
241	0x3e2bf6d3	0.16793375
242	0x3ddfd7a5	0.10929803
243	0x3e93587b	0.28778443
244	0xbe343e85	-0.17601974
245	0xbd2ea3cc	-0.042636678
246	0x3e0f1fd7	0.1397699
247	0xbe7859ec	-0.24253052
248	0xbbbb0965	-0.005707907
249	0x3e07e802	0.13272098
250	0x3d2d45dd	0.042302955
251	0x3d87be71	0.06628121
252	0x3c7c1fbf	0.015388428
253	0x3e8673f6	0.26260346
254	0xbe3fdb4a	-0.18735996
255	0x3d61376c	0.054984495

fc_mean.bias f4 [2]
0	0x3dd5d635	0.104412474
1	0x3cd81e37	0.026381595

fc_logstd.weight f4 [2, 256]
0	0x3cd4633c	0.025926225
1	0x3d01031a	0.0314971
2	0xbc250bb7	-0.010073594
3	0xbc9c6ba0	-0.019094288
4	0xbbce691e	-0.006299152
5	0xbcec680f	-0.028858213
6	0x3d293f6b	0.041320246
7	0xbc2fdb9f	-0.010733514
8	0xbb84e9c0	-0.0040561855
9	0x3cf81515	0.03028349
10	0x3d09182f	0.03347033
11	0xbc933adf	-0.017972408
12	0x3bbfd9d5	0.005854825
13	0x3b7da953	0.0038705661
14	0xbb757ae6	-0.0037457286
15	0x3c9b982f	0.018993465
16	0xbcbff807	-0.023433698
17	0xbc7373f6	-0.01485919
18	0x3dceebda	0.10103579
19	0x3ce452a9	0.027871447
20	0xbb118b21	-0.0022208171
21	0xbd452652	-0.04813225
22	0xbc20e864	-0.009821031
23	0x3ceada60	0.028668582
24	0xbc931698	-0.01795511
25	0xbd59e573	-0.053197335
26	0x3c2c86d0	0.010530189
27	0xbc8f5ba3	-0.01749975
28	0xbd2192e9	-0.039446745
29	0xbc56f5c4	-0.0131201185
30	0x3b6a90a0	0.003579177
31	0x3c1b0a90	0.0094629675
32	0x3c836961	0.01604146
33	0xbc32e016	-0.010917684
34	0xbdc0b9b0	-0.09410417
35	0x3c180854	0.009279329
36	0xbca473d3	-0.02007476
37	0x3c0719e9	0.008245924
38	0x3c172553	0.009225207
39	0xbac8e217	-0.0015326169
40	0x3d0cd35a	0.034381248
41	0x3cea8f10	0.02863267
42	0xbce30435	-0.027711967
43	0x3d4873e1	0.048938636
44	0xbcc5bd48	-0.024138108
45	0x3bfe1725	0.007754224
46	0x38542f12	5.0588576e-05
47	0x3d1b7e31	0.037962142
48	0xbb39bd3d	-0.0028341555
49	0xbcc464cc	-0.023973845
50	0xbc9ac828	-0.01889427
51	0x3c7f5ee1	0.015586586
52	0x3ce7a478	0.028276667
53	0x3d024755	0.03180631
54	0x3cf1c5fc	0.029513352
55	0xbbce5b66	-0.0062975166
56	0xbc8babd2	-0.017049704
57	0x3c6a79ab	0.0143112345
58	0x3c00439b	0.007828618
59	0xbd98398c	-0.07432851
60	0x3c0261f8	0.007957928
61	0x3ad2249d	0.001603264
62	0xbb8584e8	-0.0040746816
63	0x3d0276aa	0.031851448
64	0x3d32f645	0.043691892
65	0x3cd4afe6	0.025962781
66	0xbb63b4f4	-0.0034745308
67	0xbbaf934c	-0.0053581353
68	0x3c2b5d71	0.01045929
69	0x3d8b2dad	0.06795821
70	0xbb86c4e0	-0.004112825
71	0xbd2aac1d	-0.041668046
72	0xbcfb1287	-0.030648483
73	0x3df010a0	0.11721921
74	0x3cde44a3	0.027132338
75	0x3cba4052	0.022735748
76	0x3d441573	0.047872018
77	0x3d5a393d	0.053277243
78	0xbbb455cb	-0.0055033914
79	0x3ba4ad8e	0.005025572
80	0x3c8cc4bf	0.01718366
81	0x3b270c7d	0.0025489621
82	0x3c305376	0.010762086
83	0x3bf52a52	0.0074818516
84	0xbc02251c	-0.007943418
85	0xbd3d8da1	-0.046277646
86	0xbcd9705e	-0.026542839
87	0x3cb1366d	0.021632398
88	0x3c2dbe45	0.010604446
89	0x3d69031f	0.056887742
90	0x3c8260de	0.01591533
91	0x3e9bd620	0.30436802
92	0xbd477336	-0.048693858
93	0x3bc47f03	0.0059965863
94	0x3ce13199	0.02748947
95	0x3c492bf4	0.012278546
96	0x3c8d577d	0.017253632
97	0xbcbd0ec3	-0.023078328
98	0x3b097a5e	0.0020977478
99	0xbb0543cb	-0.0020334597
100	0x3b0b746a	0.0021279105
101	0x3cdfee97	0.027335448
102	0xbdd7a5d5	-0.10529677
103	0x3b3887e4	0.002815717
104	0xbc95521a	-0.018227626
105	0xbd3a1449	-0.0454295
106	0xbd0dc202	-0.03460885
107	0x3dbbaac9	0.09163434
108	0x3b3e0ec5	0.0029000503
109	0x3bb8dc8b	0.005641525
110	0x3d92b7a3	0.07163932
111	0xbd911161	-0.07083393
112	0x3df20e3d	0.11819122
113	0x3b0635cf	0.002047885
114	0xbc36d57d	-0.011159298
115	0x38cb404e	9.691772e-05
116	0x3c3692c2	0.011143388
117	0xbb340834	-0.002747071
118	0x3cbb7b4f	0.022885947
119	0x3b04f984	0.0020290324
120	0xb9aaa29f	-0.0003254609
121	0x388329d4	6.254358e-05
122	0x3b136c3b	0.002249493
123	0x3cb3734b	0.021905562
124	0xbba28a4f	-0.0049603353
125	0x3cd91d68	0.02650328
126	0xbdb6e31f	-0.08930039
127	0xbbe38b5b	-0.0069441027
128	0x3c00141f	0.007817297
129	0xbb2bae30	-0.0026196353
130	0xbb946fea	-0.0045299428
131	0x3c5fd17a	0.013660783
132	0x3d06d634	0.032919124
133	0x3c62ed94	0.013850588
134	0x3cb2492e	0.02176341
135	0x3cbbf937	0.022945983
136	0xbb4656c5	-0.003026412
137	0x3cdd4352	0.02700964
138	0x3c8d4902	0.017246727
139	0xb98ca575	-0.00026826156
140	0x3afe18df	0.0019386074
141	0x3dd0aa0f	0.10188686
142	0x3d586ab9	0.052836154
143	0x3caa6a32	0.020802591
144	0x3c95e242	0.018296365
145	0x3c839f79	0.016067253
146	0xbc7d3142	-0.0154536385
147	0xbcf1f340	-0.029534936
148	0x3b386fb1	0.0028142745
149	0x3d06a955	0.03287633
150	0x3c9fc5f8	0.019503579
151	0x3c367239	0.011135631
152	0xbc879fe5	-0.016555736
153	0x3d60874c	0.05481653
154	0xbbab5037	-0.005228068
155	0x3c36c203	0.011154654
156	0x3d352196	0.044221483
157	0x3c9ab892	0.018886838
158	0xbc020857	-0.007936559
159	0xbd4d12a0	-0.05006659
160	0x3cd3cdf9	0.025855051
161	0xb9e6b8cf	-0.00044006712
162	0xbbfa290b	-0.0076342872
163	0xbbf7be76	-0.0075605465
164	0x3cafb8ff	0.021450518
165	0x3d6c1c8b	0.05764441
166	0xbd7661c4	-0.06015183
167	0x3d01c837	0.03168508
168	0xbb5c22ad	-0.0033590004
169	0xbd7a510d	-0.061112452
170	0x3d204b44	0.03913428
171	0x3c644035	0.013931324
172	0x3ce642ab	0.028107962
173	0x3d4f9eac	0.05068843
174	0x3d81700d	0.063202
175	0xbcf0baf3	-0.02938602
176	0xbd3a61ce	-0.04550343
177	0x3d36033a	0.04443667
178	0x3e0a842f	0.13526987
179	0x3d061a54	0.032739952
180	0x3be4ce8b	0.0069826297
181	0xbc0e568d	-0.0086876275
182	0xbc00021e	-0.007813005
183	0xbc8456ac	-0.01615461
184	0x3c820945	0.01587356
185	0x3cd28df0	0.025702447
186	0x3c94328b	0.018090507
187	0x3d6c3d6a	0.057675757
188	0x3cf8fbb6	0.030393463
189	0x3d363f6a	0.04449407
190	0xbd57f1f9	-0.052720997
191	0xbc289d2c	-0.010291379
192	0x3b81e3b7	0.0039639133
193	0x3d1dfc45	0.03857066
194	0xbd19c1d7	-0.037538376
195	0x3c6cf779	0.014463299
196	0x3b3e3a75	0.0029026542
197	0x3ba2476d	0.0049523623
198	0xbacc87e8	-0.0015604468
199	0xbd0ea201	-0.034822468
200	0x3cbd1b0f	0.023084192
201	0xbb8bf93b	-0.004271654
202	0x3ce3186a	0.027721602
203	0x3ba913d1	0.005159833
204	0xbd3ccd2a	-0.046094097
205	0x3b482f51	0.003054578
206	0x3d0abb04	0.03386976
207	0x3cc6333a	0.024194349
208	0x3c92ab92	0.017904077
209	0x3ca2836e	0.019838061
210	0x3c906e28	0.017630652
211	0x3c909fe8	0.017654374
212	0x3bd95007	0.0066318545
213	0xbbaa3ebc	-0.005195467
214	0x3d32d790	0.043662608
215	0x3c7750a3	0.015094909
216	0x3b198ae1	0.0023428726
217	0xbd376f09	-0.044783626
218	0x3ca71ce5	0.02039952
219	0x3baed4d1	0.0053354283
220	0xbd29c3bf	-0.041446444
221	0xbc895246	-0.016762864
222	0xbcac3c9f	-0.021025
223	0x3c3af70d	0.011411441
224	0xbc77bec7	-0.015121168
225	0xbcff13f6	-0.031137448
226	0x3c470b0f	0.012148633
227	0xbd2a61be	-0.04159712
228	0xbb9cdb0d	-0.004786855
229	0xbd403fdd	-0.046935905
230	0xbcccf258	-0.025017902
231	0x3bc14288	0.0058978237
232	0x3ba77bd2	0.005111196
233	0x3aa243c2	0.0012379813
234	0x3b5f246b	0.0034048806
235	0x3c82dc08	0.01597406
236	0xbb8fc8ca	-0.0043879496
237	0xbcc3789a	-0.023861218
238	0x3a52a731	0.0008035778
239	0x3de62101	0.11236764
240	0xbcd0420e	-0.025422122
241	0x3ca7375e	0.020412143
242	0x3b6beca5	0.0035999205
243	0x3bbb8541	0.005722672
244	0xbce06628	-0.027392462
245	0x3bf80458	0.007568877
246	0x3d01547e	0.03157472
247	0x3bafae99	0.00536139
248	0x3b86958b	0.0041071824
249	0x3c11aafa	0.008890862
250	0xbd1dfe6a	-0.038572706
251	0x3cdfb041	0.027305724
252	0xbc6bc1fc	-0.014389511
253	0x3ce90fb9	0.02844988
254	0x3bd00bc8	0.0063490607
255	0x3c46bb18	0.012129568

fc_logstd.bias f4 [2]
0	0xbdb82b89	-0.08992679
1	0xbdec66b8	-0.115430295

fc1.weight f4 [256, 16]
0	0xbe701baa	-0.23448053
1	0xbe7818f6	-0.24228272
2	0xbe675044	-0.22589213
3	0x3e7e989c	0.24862903
4	0xbd0cb9b8	-0.034356803
5	0xbe74bebe	-0.23900887
6	0x3e0feba2	0.1405473
7	0x3d7cad58	0.06168875
8	0x3e46af7e	0.19402882
9	0xbd8f095c	-0.06984207
10	0x3da7b7f8	0.08189386
11	0xbd6cca08	-0.05780986
12	0xbe02e620	-0.12783098
13	0xbe226376	-0.15858254
14	0x3cd08580	0.025454283
15	0x3df432d4	0.11923757
16	0x3b3a3980	0.002841562
17	0xbe47be10	-0.19506097
18	0xbe6b961e	-0.23006484
19	0xbd7ad098	-0.061234087
20	0xbe3c6280	-0.1839695
21	0xbe71b192	-0.23602894
22	0xbd92a588	-0.07160479
23	0x393b0000	0.0001783371
24	0x3df6df70	0.12054336
25	0x3e79da4a	0.24399677
26	0xbd56a250	-0.052400887
27	0x3d8a9790	0.067671895
28	0xbe7431fa	-0.2384719
29	0xbe45af4a	-0.19305149
30	0x3e0baae6	0.13639411
31	0xbe551e52	-0.20812348
32	0x3da0bb5b	0.07848235
33	0x3db15619	0.08659
34	0xbdffe218	-0.12494296
35	0x3e07f839	0.13278283
36	0x3e4ff1e2	0.20307115
37	0x3ca975bb	0.020686021
38	0x3da1b421	0.07895685
39	0x3d880c97	0.06643026
40	0xbda80143	-0.08203366
41	0x3da66044	0.0812383
42	0x3db8f6f7	0.0903148
43	0xbd5f1de4	-0.054471865
44	0xbe4bec69	-0.19914402
45	0xbd669257	-0.056291904
46	0x3df2e262	0.11859585
47	0xbd306d7d	-0.043073166
48	0x3e1dfbaa	0.15428033
49	0x3dd257d8	0.10270661
50	0xbe72b33a	-0.23701182
51	0x3bce39c0	0.0062935054
52	0x3d915ac8	0.07097393
53	0x3e4b4e74	0.19854146
54	0x3db80768	0.08985788
55	0xbe3e5e80	-0.18590736
56	0x39b0d000	0.00033724308
57	0xbd100228	-0.035158306
58	0x3dec46e8	0.11536962
59	0xbda5c548	-0.08094269
60	0x3cf3d3b0	0.029764026
61	0x3e66e7b4	0.22549325
62	0xbba9a500	-0.0051771402
63	0xbd6e5328	-0.058184773
64	0xc0236a3e	-2.5533595
65	0x3ea1aaba	0.31575567
66	0xbe1e97f4	-0.15487653
67	0xbe43ce82	-0.19121745
68	0x3fd5352a	1.6656849
69	0xbe745586	-0.2386075
70	0x40256c8f	2.584751
71	0xbf8db40f	-1.1070575
72	0xc09c5e1d	-4.8864884
73	0x3f9fb981	1.2478486
74	0xbd89fa0d	-0.067371465
75	0x3e86c5de	0.26322836
76	0xbe55b1c5	-0.20868595
77	0x3c7e698c	0.015528094
78	0xbd282a70	-0.041056097
79	0x3e5ac9b8	0.21366012
80	0x3e8104ea	0.25199062
81	0xbce819aa	-0.02833255
82	0xbe974c7a	-0.29550534
83	0xbfd99e01	-1.7001344
84	0x3fca0da3	1.5785412
85	0xbfa2672f	-1.2687739
86	0x3e595044	0.21222025
87	0xc0571211	-3.3604777
88	0xbfe4ed5b	-1.7884935
89	0xbfa4e2f6	-1.2881763
90	0xbe4ba9cd	-0.19888993
91	0x3efdfaeb	0.49605498
92	0xbee26792	-0.44219643
93	0x3ec1efef	0.37878367
94	0xbe6605d8	-0.22463167
95	0xbe2d3b66	-0.1691719
96	0x3dcb4759	0.09925718
97	0x3e341d7e	0.17589375
98	0xbd7bd93a	-0.06148646
99	0xbd51980e	-0.0511704
100	0x38e792da	0.000110422916
101	0x3986b22b	0.00025691217
102	0xbd2a456d	-0.041570116
103	0x3de62d63	0.112391256
104	0x3dae1989	0.08500964
105	0x3e70dfe1	0.23522903
106	0x3a1e1a60	0.0006031152
107	0x3e3f75ca	0.18697277
108	0x3cc32d2c	0.02382525
109	0x3e12059e	0.14259955
110	0xbd4867ce	-0.04892712
111	0xbda9472d	-0.08265529
112	0x3c91d130	0.017799944
113	0x3d88d690	0.066815495
114	0xbe5a16d2	-0.21297768
115	0xbe5de3e2	-0.21668962
116	0x3e632476	0.22181877
117	0xbe4ed344	-0.20197779
118	0x3e2d3624	0.16915184
119	0xbe0321ca	-0.12805858
120	0x3cc50100	0.024048328
121	0x3e711eea	0.23546949
122	0xbd98883c	-0.0744786
123	0x3d445fe8	0.047943026
124	0xbdf4a0ac	-0.11944708
125	0x3e4974c4	0.19673449
126	0x3d841960	0.064501524
127	0xbc5f66c0	-0.013635337
128	0x3ee1ef10	0.44127703
129	0x3f9eeda5	1.2416273
130	0xbdaf8d4a	-0.085718706
131	0x3f0420aa	0.5161234
132	0x3dd3c614	0.10340515
133	0x3ecf97fc	0.40545642
134	0xbf50b2bd	-0.8152273
135	0xbfcced2b	-1.6009878
136	0xbf7f4749	-0.9971815
137	0xbf82b644	-1.0211873
138	0x3d887da7	0.06664591
139	0xbca86c8c	-0.020559572
140	0x3aeb84dd	0.0017968673
141	0x3e9edf73	0.31029853
142	0x3d956150	0.072939515
143	0xbcb01f5c	-0.021499328
144	0x3d8a2b04	0.06746486
145	0xbd81d16c	-0.06338772
146	0xbdcbf0e0	-0.09958053
147	0x3dbdc070	0.0926522
148	0xbe48dd76	-0.1961573
149	0xbe6cdca8	-0.23131049
150	0xbd95a934	-0.073076636
151	0x3e15319e	0.14569709
152	0xbe67a112	-0.22620037
153	0x3d0e5b80	0.03475523
154	0xbe280af6	-0.16410431
155	0x3c7ffce0	0.015624255
156	0x3e373330	0.1789062
157	0x3e2ddb34	0.1697815
158	0xbc145ea0	-0.0090557635
159	0xbdd3caa8	-0.10341388
160	0x3e5bebab	0.21476619
161	0xbe47ba3c	-0.19504637
162	0xbda7bfd5	-0.08190886
163	0x3e5057a4	0.20345932
164	0xbdc6ceb5	-0.09707395
165	0x3d4ac76a	0.049506582
166	0xbe7c7bb8	-0.2465657
167	0xbe1a1866	-0.1504837
168	0xbd647ae7	-0.05578127
169	0x3e81021a	0.25196916
170	0x3e0ba927	0.13638745
171	0x3e4b9f7b	0.19885056
172	0x3e44f28b	0.19233148
173	0xbd0d22cc	-0.034457013
174	0x3e3cdc8d	0.18443508
175	0x3e34d208	0.17658246
176	0xbfa433d6	-1.2828319
177	0x3ff0738c	1.8785262
178	0xbe740f09	-0.2383386
179	0xbf171989	-0.5902334
180	0x3fd1d510	1.6393147
181	0x3eb314b9	0.34976748
182	0xbe4f1633	-0.20223312
183	0xbfd1f05e	-1.6401479
184	0xc08c5807	-4.3857455
185	0xbedfb9d6	-0.4369647
186	0x3d0e461d	0.034734834
187	0x3e124d06	0.14287195
188	0x3ce72e61	0.028220357
189	0xbe77817e	-0.24170491
190	0x3dd99824	0.10624722
191	0xbd2b2f76	-0.04179331
192	0xbdf3c214	-0.11902252
193	0x3dc86d4c	0.09786472
194	0xbe1898f8	-0.14902103
195	0xbe2356b2	-0.1595104
196	0xbd3c1f90	-0.045928538
197	0x3d0e7660	0.03478086
198	0x3e08c94e	0.13358042
199	0xbcf4f150	-0.029900223
200	0x3d455b80	0.048182964
201	0x3dd4cf94	0.10391155
202	0x3cc709b0	0.024296612
203	0xbe26628e	-0.16248533
204	0xbd20f580	-0.039296627
205	0x3e541cea	0.20714155
206	0xbe71a8e8	-0.23599589
207	0xbe7443aa	-0.23853937
208	0x3f16fe90	0.5898218
209	0x3f3f0ef4	0.7463219
210	0xbdfb9fbd	-0.12286327
211	0x3f891217	1.0708646
212	0x3e7ed4d3	0.24885873
213	0x3db45b6d	0.088065006
214	0xbd50353c	-0.05083202
215	0x3ed60ffd	0.41809073
216	0x400049ef	2.0045125
217	0x40ab4c65	5.3530755
218	0x3e4191db	0.18903296
219	0xbe07a45c	-0.13246292
220	0x3e7d507d	0.24737735
221	0xbe6e4931	-0.23270108
222	0x3d2f5ff6	0.042816125
223	0xbdc5cf17	-0.0965864
224	0xbe3d1bda	-0.18467656
225	0xbe0fbd86	-0.14037141
226	0xbe0286dc	-0.12746757
227	0xbe583030	-0.21112132
228	0xbe48bd8a	-0.19603553
229	0xbdec41bc	-0.11535975
230	0x3d2d1918	0.04226026
231	0x3dcaa0c4	0.09893945
232	0xbcbb3df0	-0.022856683
233	0x3e73fbfc	0.23826593
234	0xbd33cc70	-0.04389614
235	0x3e1ce4e2	0.15321687
236	0x3e6d8dde	0.2319865
237	0x3c953a10	0.018216163
238	0x3ddfe6fc	0.10932729
239	0xbc406020	-0.011741668
240	0xbd1886b0	-0.037237823
241	0xbe51d016	-0.20489535
242	0xbe077230	-0.13227153
243	0xbe2ff3d0	-0.17182851
244	0x3e4e5974	0.20151311
245	0x3d89429c	0.06702158
246	0xbcb62420	-0.022234023
247	0x3e0c4226	0.13697109
248	0x3d935654	0.071942
249	0x3d41de00	0.047330856
250	0xbe2d5c1e	-0.16929671
251	0x3e7421f6	0.2384108
252	0x3cbdd660	0.023173511
253	0x3e518de8	0.20464289
254	0x3ce4e7b0	0.027942508
255	0xbdca2430	-0.098701835
