fw_flightcontrol/models/icinco/sac/turbonly/sac_bohn_caps_nohist_easymedrefs_turbonly_4508_04-06_22:49:02.pt (torch, 854003 bytes, 20 tensors)

action_scale f4 [1, 2]
0	0x3f800000	1.0
1	0x3f800000	1.0

action_bias f4 [1, 2]
0	0x00000000	0.0
1	0x00000000	0.0

fc1.weight f4 [256, 14]
0	0xbdecb191	-0.115573056
1	0xbe837a4e	-0.2567925
2	0xbe17139e	-0.14753577
3	0xbe6ff782	-0.2343426
4	0x3dea9168	0.11453515
5	0x3e87902b	0.2647718
6	0xbe6e3cd7	-0.23265396
7	0xbe83e645	-0.2576162
8	0x3e58979f	0.21151589
9	0xbd9d9e62	-0.07696225
10	0xbe76cf52	-0.24102524
11	0x3e46e710	0.19424081
12	0xbe258f46	-0.16167936
13	0x3debf488	0.1152125
14	0xbe9fe84d	-0.3123192
15	0x3f267889	0.6502767
16	0xbcb8a7e1	-0.022540988
17	0x3fbe649b	1.4874452
18	0x3ed62481	0.41824725
19	0x3fa84c50	1.3148289
20	0x3fef38c0	1.8689194
21	0xbfe60209	-1.7969371
22	0xbd30d092	-0.04316766
23	0xc03f77fe	-2.9916987
24	0xbb0b7890	-0.0021281578
25	0xbd0549e9	-0.03254119
26	0x3e5622ae	0.20911667
27	0x40005078	2.0049114
28	0x40501909	3.251528
29	0x3fb813c9	1.4381038
30	0x3b95e2ab	0.00457414
31	0x3f2f8975	0.6856912
32	0xbeca9404	-0.39566052
33	0x3f262d28	0.6491265
34	0xc058131f	-3.376167
35	0x408a3a5f	4.3196254
36	0xbe334dd6	-0.17510161
37	0xc03d7128	-2.9600315
38	0x3d1d2c6c	0.038372442
39	0x3c078918	0.008272432
40	0x3d06fa77	0.032953706
41	0xbee070ee	-0.4383616
42	0xbe87d6f2	-0.26531178
43	0xbc43a25a	-0.011940563
44	0xbe2ca7ee	-0.16860935
45	0x3d1f1b3f	0.038844343
46	0x3dcea9ae	0.100909576
47	0xbde8cb43	-0.11366894
48	0xbdfff620	-0.124981165
49	0xbe5a096d	-0.21292658
50	0x3e743449	0.2384807
51	0x3d3118ba	0.04323647
52	0xbe576ca5	-0.21037538
53	0x3e1964c3	0.14979844
54	0x3e5cdbfc	0.21568292
55	0xbd8ac2ad	-0.06775413
56	0xbfa974c0	-1.3238754
57	0xc0289188	-2.6338825
58	0xbc499e93	-0.012305873
59	0xbd1cef93	-0.038314413
60	0xbe7e6ce7	-0.2484623
61	0xbe01cb65	-0.12675245
62	0xbee592eb	-0.44838652
63	0xbfafaf59	-1.3725387
64	0xbfe41352	-1.7818396
65	0xbfce2e67	-1.6107911
66	0x3c36e678	0.0111633465
67	0xbc848371	-0.016175957
68	0xbff03139	-1.8765022
69	0xbc43e727	-0.0119569665
70	0x3d8a6f7e	0.06759547
71	0xbd0eba5a	-0.034845687
72	0xbd8b3224	-0.06796673
73	0xbe2860a5	-0.16443117
74	0x3c9386d2	0.018008623
75	0xbddc838e	-0.107672796
76	0x3e877d1e	0.26462644
77	0x3cf911fc	0.030404083
78	0xbd271b2b	-0.040797394
79	0xbe4e8915	-0.2016948
80	0x3d8e84eb	0.06958946
81	0xbdbe8467	-0.093025975
82	0xbdd025cb	-0.101634584
83	0x3e545657	0.20736061
84	0xbfc60b59	-1.5472213
85	0x3f13186b	0.57459134
86	0xbdadc593	-0.0848495
87	0xbf87ce8c	-1.0609908
88	0x3ecd8127	0.40137598
89	0xbf2ea50f	-0.6822061
90	0x3ff3f86e	1.906019
91	0xbf2b3449	-0.66876656
92	0xbf8f42af	-1.1192225
93	0x3f649f22	0.8930532
94	0xbcc5d26b	-0.024148187
95	0xbbeaa784	-0.0071610827
96	0x3f98289b	1.1887392
97	0xbf2207f8	-0.6329341
98	0x3c7ad3c9	0.015309283
99	0xbd355714	-0.044272497
100	0xbe84d1c5	-0.2594129
101	0x3d271808	0.040794402
102	0xbe1a61ea	-0.15076414
103	0xbd3e9492	-0.046528406
104	0xbdc256bf	-0.09489202
105	0xbe7b1065	-0.24517973
106	0x3e53450e	0.20631811
107	0xbd88b7c3	-0.06675675
108	0xbda8c7d7	-0.082412414
109	0xbe3c05c4	-0.18361574
110	0xbe5e6a94	-0.21720344
111	0x3e63fb1f	0.22263764
112	0xbddcec8e	-0.10787307
113	0x3d573dc0	0.052549124
114	0xbe1d21ae	-0.15344879
115	0xbd94939e	-0.07254718
116	0xbe014ff2	-0.12628153
117	0xbbdc6d45	-0.006726893
118	0x3e7e04c5	0.24806507
119	0xbe753a01	-0.23947908
120	0x3d11d463	0.03560294
121	0x3e01fb9a	0.12693635
122	0x3e5f0ac9	0.21781458
123	0xbc100a91	-0.008791582
124	0xbe499331	-0.19685055
125	0xbddb1d24	-0.106989175
126	0xbeeb73cd	-0.45986786
127	0x3fcfffae	1.6249902
128	0xbcd23fb4	-0.025665142
129	0xbdb5ca7b	-0.08876511
130	0xc029ca5f	-2.6529768
131	0x3f0605a5	0.5235236
132	0xbf8f289b	-1.1184267
133	0xbfed961e	-1.8561437
134	0x3f74ae1e	0.9557818
135	0xbf16bd52	-0.5888263
136	0xbe69015e	-0.22754428
137	0x3eaa49db	0.33259472
138	0x3f4200eb	0.7578265
139	0x3eba56ef	0.3639445
140	0xbe27f0d2	-0.1640046
141	0xbe0e6268	-0.13904727
142	0xbe1cf6f4	-0.1532858
143	0xbe292381	-0.1651745
144	0xbe587f8f	-0.2114241
145	0x3e35ef8a	0.17767158
146	0xbe5d19db	-0.21591894
147	0xbdc8f8b1	-0.09813059
148	0xbe52430a	-0.20533386
149	0xbd659d70	-0.056058347
150	0x3dae6fa1	0.08517385
151	0x3ce0565d	0.027384931
152	0xbc7425fb	-0.014901633
153	0xbdc7cf6e	-0.09756361
154	0x3e3e09ca	0.18558422
155	0x3dc37433	0.095436476
156	0xbe734e80	-0.23760414
157	0xbe66f5d8	-0.2255472
158	0xbd103b24	-0.03521265
159	0x3e36e275	0.17859824
160	0x3e805c9c	0.25070655
161	0xbe84ce07	-0.25938436
162	0xbe080eea	-0.1328694
163	0x3e6ec27c	0.23316377
164	0xbe00a5eb	-0.12563293
165	0xbe38a5d8	-0.18032014
166	0x3e621d09	0.22081389
167	0xbe08ca99	-0.13358535
168	0x3dcaa82b	0.09895357
169	0x3a373300	0.00069884956
170	0xbd66ed73	-0.056378793
171	0x3db98211	0.09058011
172	0xbccc2522	-0.02492005
173	0x3d54b625	0.05193152
174	0x3d65bead	0.056090046
175	0x3da01976	0.07817356
176	0xbdc4e11c	-0.09613249
177	0xbbcd3858	-0.00626282
178	0xbdbb8ff4	-0.09158316
179	0x3d216f57	0.039412823
180	0x3e098351	0.13429
181	0x3bd7e7c3	0.0065889074
182	0x4026e6d0	2.6078377
183	0x3fb34791	1.4006215
184	0xbc2c10f6	-0.010502091
185	0xbfc37a93	-1.5271782
186	0x3e725449	0.23664965
187	0xbf99ab88	-1.2005472
188	0xbebf0d1f	-0.37314698
189	0x3fc0c947	1.5061425
190	0x3ff2a99c	1.8958011
191	0xbfca2ca5	-1.5794874
192	0xbd7d00b0	-0.061768234
193	0xbcb1b5a0	-0.02169305
194	0x3f8c3d73	1.0956253
195	0xbf72c1ad	-0.94826776
196	0xbf0eff79	-0.5585857
197	0x3bbbc63c	0.0057304185
198	0xbd8e9014	-0.069610745
199	0xbf4e9061	-0.80689055
200	0xbe823f31	-0.25438836
201	0xbf05daa4	-0.52286744
202	0x3ec98c4e	0.39364856
203	0xbe8bcef0	-0.27306318
204	0xbf94dbd6	-1.1629589
205	0x3fc190bc	1.5122294
206	0x3be6f955	0.0070487657
207	0xbd1a04e2	-0.037602313
208	0x3e2dd384	0.16975218
209	0x3e038439	0.12843408
210	0x3d78635d	0.060641635
211	0x3e1e59da	0.15463963
212	0xbe595b7f	-0.21226309
213	0xbe2cac39	-0.16862573
214	0x3e521d57	0.20519005
215	0x3e403b2a	0.1877257
216	0x3e5e01dd	0.21680398
217	0x3d967bc5	0.07347826
218	0xbe473d38	-0.19456947
219	0xbe0beae5	-0.13663824
220	0x3e727d76	0.23680672
221	0x3ddd04ed	0.10791955
222	0x3e5bdd6d	0.21471186
223	0x3e6d75a1	0.23189403
224	0x3f54b74e	0.830922
225	0xbe9d47ec	-0.30718935
226	0xbd418dde	-0.047254436
227	0x3e0fb813	0.14035062
228	0xbf443db0	-0.7665663
229	0x3ec6e33f	0.3884525
230	0xbfbe56c1	-1.4870225
231	0xbec7da40	-0.390337
232	0x3f44d34d	0.7688492
233	0xbfb4c00f	-1.4121112
234	0xbded66f7	-0.115919046
235	0x3ded8d69	0.115992375
236	0xbf9825bd	-1.1886517
237	0x3f9598f4	1.1687303
238	0x3e82a579	0.2551687
239	0xbe39b067	-0.18133698
240	0xbdfd61ec	-0.12372193
241	0xbd883e4f	-0.066525094
242	0xbd96750e	-0.07346545
243	0x3db9e4f8	0.090768754
244	0xbe76d860	-0.24105978
245	0x3e58bbba	0.21165362
246	0xbd642846	-0.05570247
247	0x3e5a85dc	0.21340126
248	0x3b3f1bc6	0.0029160841
249	0xbdfb0ad3	-0.12257924
250	0xbdaa9549	-0.08329255
251	0xbd1e271b	-0.038611513
252	0x3e71e1d7	0.23621307
253	0x3e57c99d	0.21073003
254	0xbe805a8b	-0.2506908
255	0xbd642b36	-0.05570527

fc1.bias f4 [256]
0	0xbdbd1afb	-0.09233662
1	0x3e4fbcbe	0.20286843
2	0x3f1d86ee	0.6153401
3	0x3e42a606	0.19008645
4	0xbd9b7b4d	-0.07591877
5	0xbd44f96a	-0.048089422
6	0xbe569fc8	-0.20959389
7	0xbe730b2f	-0.23734735
8	0x3e749936	0.2388657
9	0x3f1ce795	0.61290866
10	0xbe88540e	-0.2662663
11	0xbcd4ecdd	-0.025991851
12	0xbc23811e	-0.009979514
13	0xbcd95bb1	-0.02653298
14	0xbcdc248b	-0.026872894
15	0x3dcdff09	0.1005841
16	0x3da8f1fc	0.0824928
17	0x3d5481ba	0.05188153
18	0xbe4fa3ce	-0.2027733
19	0x3e361f98	0.1778549
20	0xbc86515d	-0.016396219
21	0xbe7c117d	-0.24616046
22	0xbcb76ede	-0.022391733
23	0x3cf20009	0.029541032
24	0xbf509e19	-0.8149124
25	0xbea02cc9	-0.31284168
26	0xbe61e61f	-0.2206044
27	0x3de9e5aa	0.11420758
28	0x3d9341de	0.071902975
29	0x3e8be1c2	0.27320677
30	0xbdc0df5c	-0.094176024
31	0x3e4cf20a	0.20014206
32	0xc002f32f	-2.0460927
33	0xbf6df053	-0.9294483
34	0xc02dd347	-2.7160203
35	0xbf358fe3	-0.7092268
36	0xbe5ee292	-0.21766117
37	0xbee4fe79	-0.44725397
38	0x3d95f9b2	0.07323016
39	0x3e25b65e	0.16182849
40	0x3e4fc856	0.20291266
41	0xbff6f18c	-1.9292464
42	0x3f5a6b75	0.85320216
43	0xbfbc5afd	-1.4715267
44	0xbf2af30c	-0.6677711
45	0x3eeba578	0.4602468
46	0x3e844fec	0.25842226
47	0xbef6a304	-0.48171246
48	0xbf6546d8	-0.89561224
49	0x3d95dad6	0.0731713
50	0x3d3b96b4	0.04579802
51	0xbe271fb4	-0.16320688
52	0x3f652a4b	0.8951766
53	0xbe7afe69	-0.24511112
54	0xbf8f71be	-1.1206586
55	0xbe87d5cc	-0.26530302
56	0xbe07fa9e	-0.13279197
57	0xbd8e8dda	-0.0696065
58	0xbea470b0	-0.32117224
59	0x3dc2dd36	0.09514849
60	0x3f83747a	1.0269921
61	0x3feb152b	1.8365835
62	0x3f481f2e	0.78172576
63	0x3e1f2fe9	0.1554562
64	0x3e74d63d	0.2390985
65	0x3cb94953	0.022617972
66	0x3df4d798	0.11955184
67	0x3f03474a	0.51280653
68	0xbe7a2013	-0.24426298
69	0x3e3ef641	0.18648626
70	0x3da2be55	0.07946459
71	0xbdea018e	-0.11426078
72	0x3f165b45	0.58733016
73	0x3f1c7cfa	0.611282
74	0xbdde9fb9	-0.108703084
75	0x3edb2c14	0.42807066
76	0xbee493f8	-0.4464414
77	0x3e840d68	0.25791478
78	0xbcdc82b8	-0.0269178
79	0xbfad38e7	-1.353299
80	0x3e6717b8	0.22567642
81	0x3da378fc	0.0798206
82	0xbd7f5551	-0.062337223
83	0xbe0f1a95	-0.13974984
84	0x3ea3bf83	0.3198205
85	0xbd12a462	-0.0358013
86	0x3e4f3e3d	0.20238586
87	0xbd42f488	-0.047596484
88	0x3a777e05	0.00094410806
89	0xbdacc50c	-0.08436021
90	0x3eb8b5d8	0.36076236
91	0xbed3daa6	-0.41377753
92	0x3eeb5bcf	0.45968482
93	0xbe82dd3f	-0.25559422
94	0xbe45a549	-0.19301333
95	0xbe294f91	-0.16534258
96	0xbfb59d36	-1.4188602
97	0xbdc4b2c5	-0.0960441
98	0xbe60f062	-0.21966699
99	0xbe30a713	-0.17251234
100	0xbd7c56fa	-0.061606385
101	0x3dafdce3	0.08587053
102	0xbe074de6	-0.1321331
103	0x3d9700bb	0.07373186
104	0x3f936926	1.1516464
105	0x3bffe601	0.007809401
106	0x3e43487a	0.19070616
107	0xbf4e3625	-0.8055137
108	0xbc09c780	-0.008409381
109	0x3e66c71b	0.2253689
110	0x3f462b93	0.7741024
111	0x3e91b347	0.2845709
112	0xbd37b0c8	-0.044846326
113	0xbe2d4c7a	-0.16923705
114	0x3e01fa3e	0.12693116
115	0x3f8a323a	1.0796578
116	0xbd75f11a	-0.060044385
117	0x3ed055c0	0.40690422
118	0xbb8b63eb	-0.0042538545
119	0xbfa24777	-1.2678059
120	0xbde35097	-0.11099356
121	0xbe9aa23d	-0.30201903
122	0xbe18fc5d	-0.14940019
123	0x3f84f410	1.0386982
124	0x3ef68e3d	0.48155394
125	0xbab3dbc4	-0.0013722111
126	0x3e5b2428	0.21400511
127	0xbed8538e	-0.42251247
128	0x3f34558b	0.7044303
129	0x3eb5db71	0.35518983
130	0xbf612f81	-0.8796311
131	0x3e60f860	0.21969748
132	0xbe123ccd	-0.14281006
133	0xbf68f0d5	-0.9099248
134	0x3e6c273a	0.23061839
135	0xbe8841ee	-0.266128
136	0xbe4ff250	-0.20307279
137	0xbebb1008	-0.36535668
138	0x3cce20f8	0.025162205
139	0x3f9dca0a	1.2327282
140	0x3e5cfdd7	0.21581207
141	0x3e0e2c85	0.1388417
142	0xbed7995a	-0.42109185
143	0xbe42c66b	-0.19021003
144	0x3d087051	0.03331024
145	0xbe8385da	-0.25688058
146	0x3e03ee34	0.12883836
147	0xbea25f54	-0.31713355
148	0xbed7b755	-0.4213206
149	0x3de53042	0.11190845
150	0xbf9d9842	-1.231209
151	0x3ef8997e	0.48554605
152	0x3e0e82f3	0.1391714
153	0x3e5aaf34	0.21355897
154	0x3f576292	0.8413478
155	0x3b4ff427	0.003173122
156	0x3df361aa	0.11883862
157	0xbe849e9a	-0.25902253
158	0x3dfbe1f9	0.1229896
159	0xbf1484c9	-0.58015114
160	0x3e87c647	0.2651846
161	0x3b1e34bf	0.0024140326
162	0xbf1d8002	-0.6152345
163	0xbe52bd87	-0.20580111
164	0x3e630993	0.22171621
165	0xbd9cc281	-0.07654286
166	0x3c1eca1c	0.009691741
167	0xbe43b306	-0.19111261
168	0x3f1b8ace	0.60758674
169	0x3e81f3e5	0.2538139
170	0x3f75e39b	0.96050423
171	0x3e7419c7	0.23837958
172	0xbc11328f	-0.008862152
173	0xc03fcbf2	-2.9968228
174	0xbf194e5d	-0.598852
175	0x3da608c4	0.08107141
176	0xbeed2e31	-0.46324304
177	0x3cda0580	0.02661395
178	0x3f2e2a01	0.6803284
179	0xbd3b1891	-0.045677725
180	0x3e281ff7	0.16418444
181	0x3f85e67c	1.0460963
182	0xbeea4206	-0.45753497
183	0x3e47a33a	0.1949586
184	0x3d66e79b	0.05637322
185	0x3cb794cd	0.02240982
186	0xbe2c4af3	-0.16825466
187	0xbe67f1f9	-0.22650899
188	0xbe9e9c05	-0.30978408
189	0xbe660111	-0.22461344
190	0xbe7e4b8e	-0.2483351
191	0xbeec0ad3	-0.46102008
192	0xc03d3299	-2.9562132
193	0x3e6808f4	0.22659665
194	0xbe450a4d	-0.1924221
195	0xbdd2a5e7	-0.102855496
196	0x3e73d2ab	0.23810832
197	0x3ca38a9b	0.019963553
198	0x3d263b6d	0.040584017
199	0x3cad050c	0.02112057
200	0x3e514c0f	0.2043917
201	0xbf7a9bb9	-0.97893864
202	0xbe6f30c4	-0.23358446
203	0xbf3fee9d	-0.7497347
204	0xbe84648d	-0.25857964
205	0x3e1d6daf	0.15373872
206	0xbdefa5ef	-0.11701571
207	0x3f2feabe	0.68717563
208	0xb7b5bcd6	-2.1664815e-05
209	0xbeccdf58	-0.40014148
210	0x3e12309c	0.14276356
211	0x3e9d0c30	0.3067336
212	0x3f0903a6	0.5352119
213	0xbdbc9575	-0.09208194
214	0xbed52679	-0.41630915
215	0x3e13baa5	0.14426668
216	0x3e74b199	0.23895873
217	0xbf35fdee	-0.7109059
218	0x3dd0dc11	0.10198224
219	0x3e116d53	0.1420186
220	0x3f6586cb	0.896588
221	0xbdbbb371	-0.09165085
222	0x3f4bfe35	0.79684764
223	0x3f5a4381	0.8525925
224	0xbd693a7f	-0.05694055
225	0x3f624992	0.8839351
226	0xbe77fd1a	-0.24217644
227	0x3ee2da1f	0.44307038
228	0x3f6e151e	0.9300097
229	0x3eee213e	0.46509737
230	0x3f20dcfc	0.62837195
231	0x3e427736	0.18990788
232	0xbf1db599	-0.6160522
233	0xbe1a9f92	-0.15099934
234	0xbe66fba0	-0.22556925
235	0xbe5c8a1e	-0.21537063
236	0x3f8e2bce	1.1107118
237	0x3e092e2f	0.13396524
238	0x3f7d9633	0.9905731
239	0x3d151e9d	0.03640615
240	0xbe55c6fe	-0.20876691
241	0xbf17d91e	-0.5931567
242	0x3e420d6a	0.1895043
243	0x3e8d3e4e	0.27586597
244	0x3e2b88a5	0.16751345
245	0xbf07016c	-0.52736545
246	0x3fa22fc9	1.2670833
247	0xbe694eb9	-0.22783937
248	0xbf1517c9	-0.5823942
249	0xbe0d0e49	-0.1377498
250	0x3dc67e7b	0.09692093
251	0xbf3ea29c	-0.7446687
252	0x3e27418a	0.16333595
253	0xbc4ceb3d	-0.012507257
254	0x3d128cff	0.035778996
255	0x3cb5605d	0.022140676

fc2.weight f4 [256, 256]
0	0x3cf87128	0.030327395
1	0xbeba40bb	-0.3637751
2	0xbce406e3	-0.027835315
3	0xbca821ac	-0.020523869
4	0xbd02a5f9	-0.031896565
5	0x3b219700	0.0024656653
6	0xbe8aa52c	-0.2707914
7	0xbcc10bc8	-0.023565188
8	0xbd7aab96	-0.061198793
9	0x3d709336	0.05873414
10	0xbd3696a6	-0.044577263
11	0x3d1aee78	0.037825078
12	0xbc26f9e8	-0.010191418
13	0x3d814462	0.06311871
14	0x3c00d346	0.0078628715
15	0x3bd5c2b0	0.0065234527
16	0xbf39f41d	-0.7263811
17	0x3baa7650	0.005202092
18	0xbc8d82c0	-0.01727426
19	0x3bb70fcb	0.0055865995
20	0x3ca597a4	0.02021391
21	0xbf050938	-0.5196719
22	0x3d70380c	0.0586472
23	0xbe126b4f	-0.14298747
24	0xbdea849c	-0.114510745
25	0xbe0b49e1	-0.13602401
26	0x3c70cb80	0.014696956
27	0x3ea00a81	0.31258014
28	0xbd0ab2b6	-0.03386184
29	0xbf374b8a	-0.7159964
30	0x3c59df68	0.013297893
31	0xbcf48332	-0.029847715
32	0xbdf1c346	-0.118048236
33	0xbdab51b2	-0.083651915
34	0x3e1c332b	0.15253894
35	0xbccdcf56	-0.02512328
36	0x3d4c79ca	0.049920835
37	0xbe6b5c78	-0.22984493
38	0xbc886b10	-0.016652614
39	0x3d3bb376	0.045825444
40	0x3caf08f8	0.021366581
41	0xbf0da8bf	-0.5533561
42	0xbe8a1a7f	-0.2697334
43	0xbd8feec8	-0.07027966
44	0xbe4e8268	-0.20166934
45	0xbf346a98	-0.7047515
46	0xbe643d57	-0.22289024
47	0x3c21fbee	0.009886725
48	0xbe0545f2	-0.13014963
49	0x3cabed64	0.02098722
50	0x3d6bfaf9	0.057612393
51	0xbd26a2f2	-0.04068274
52	0xbd01a4af	-0.031651195
53	0xbeaa3692	-0.3324476
54	0x3d1820d8	0.037140697
55	0x3d0aeef0	0.033919275
56	0xbe9decc2	-0.30844694
57	0xbdc9d6dd	-0.09855435
58	0xbeb1e2c9	-0.34743336
59	0x3d17dd9c	0.037076578
60	0xbef676dd	-0.4813756
61	0xbf29d126	-0.6633476
62	0xbe3f6fc0	-0.18694973
63	0x3c015410	0.007893577
64	0xbbd70060	-0.006561324
65	0xbd04effe	-0.032455437
66	0xbc96fe64	-0.01843185
67	0xbe2ce345	-0.16883571
68	0xbcc21ed4	-0.02369634
69	0xbe46ee37	-0.19426809
70	0xbcfc5703	-0.03080321
71	0xbcf6722c	-0.030083738
72	0x3e0a9473	0.13533191
73	0xbd813d61	-0.06310535
74	0xbcd71c8c	-0.02625873
75	0x3cdfaece	0.027305033
76	0xbda75ae2	-0.081716314
77	0x3c331658	0.01093062
78	0x3d4b4c92	0.04963357
79	0xbc64a584	-0.013955478
80	0xbef3873c	-0.47564113
81	0xbd4de2fe	-0.050265305
82	0x3c7a5218	0.015278362
83	0xbe684792	-0.22683552
84	0xbee39e38	-0.4445665
85	0x3d46173e	0.04836201
86	0x3c29db20	0.010367185
87	0xbd01915e	-0.031632774
88	0x3d25909a	0.040421106
89	0xbd1ace48	-0.03779438
90	0xbef6601c	-0.481202
91	0xbe8e2cc0	-0.27768517
92	0xbf11a9c2	-0.56899655
93	0xbdefa4f9	-0.11701388
94	0xbd53a637	-0.051672187
95	0xbd3cdbaa	-0.046107925
96	0xbe9a6917	-0.30158302
97	0xbe550f39	-0.20806588
98	0xbc7da3b0	-0.015480921
99	0xbd19d9e0	-0.037561297
100	0xbdb88de5	-0.09011439
101	0xbbbaf7cb	-0.0057058088
102	0xbc808f50	-0.015693337
103	0xbc186710	-0.009301916
104	0xbf029710	-0.51011753
105	0x3cb4fd34	0.022093393
106	0x3ab25340	0.0013605133
107	0xbe34d29f	-0.1765847
108	0x3d6511e0	0.05592525
109	0xbd4f9968	-0.05068341
110	0xbe16c4e0	-0.1472354
111	0xbe8332cc	-0.25624692
112	0xbd2f2bc2	-0.04276634
113	0x3b03ef9b	0.002013183
114	0xbbc63a90	-0.0060494617
115	0x3de536a4	0.111920625
116	0x3c8661a4	0.01640398
117	0xbec257e4	-0.3795768
118	0x3c9ca6c0	0.019122481
119	0xbf07bf9f	-0.53026766
120	0x3d2a1c3a	0.041530825
121	0x3db30035	0.08740274
122	0xbd73b86c	-0.05950205
123	0xbea6fb52	-0.32613617
124	0xba4847e8	-0.00076401094
125	0x3d3cc784	0.04608871
126	0xbc9557dc	-0.018230371
127	0xbb947478	-0.0045304857
128	0xbf96ed97	-1.1791257
129	0xbeca6b89	-0.39535168
130	0xbdf30ba1	-0.118674524
131	0xbe1909c6	-0.14945135
132	0xbd29497a	-0.04132984
133	0xbd959819	-0.07304401
134	0xbcac7604	-0.021052368
135	0xbc1f8c40	-0.009738028
136	0xbcd188ec	-0.025577985
137	0xbdbe5656	-0.09293811
138	0x3d16c7e7	0.036811735
139	0xbe894508	-0.2681048
140	0xbed4377e	-0.41448587
141	0xbd87b6c6	-0.06626658
142	0xbd77bc4b	-0.060482305
143	0xbbedf680	-0.007262051
144	0xbdb6ab18	-0.08919352
145	0xbe7fe9ef	-0.24991582
146	0x3d39482c	0.045234844
147	0xbeab914d	-0.33509293
148	0x3d6302dc	0.05542265
149	0xbd106acf	-0.03525811
150	0xbe869520	-0.26285648
151	0xbdf076c9	-0.117414065
152	0x3cefa7cd	0.029254818
153	0x3cfbff28	0.030761316
154	0x3e12f6dc	0.14351982
155	0x3cb60b94	0.022222318
156	0x3d57b340	0.05266118
157	0xbdc43af2	-0.095815554
158	0xbf0d5230	-0.55203533
159	0xbe81d728	-0.25359464
160	0xbce476bc	-0.027888648
161	0xbe238f2c	-0.15972584
162	0xbe06cb7f	-0.13163565
163	0x3d27ba62	0.040949233
164	0x3eb958d8	0.36200595
165	0x3cc5bbbc	0.02413737
166	0xbe5cea67	-0.21573792
167	0x3e31d388	0.17365849
168	0xbedc7c16	-0.4306342
169	0x3cc50b5c	0.024053268
170	0xbe529c16	-0.20567355
171	0xbd092002	-0.03347779
172	0xbc054cb0	-0.0081359595
173	0xbe4cc0f3	-0.1999548
174	0x3dece9a0	0.11567998
175	0xbcd83749	-0.02639355
176	0x3ec537b7	0.3851907
177	0xb80ba000	-3.3289194e-05
178	0xbf4160d3	-0.7553837
179	0x3d4950cd	0.049149323
180	0xbae7dac0	-0.0017689094
181	0xbf2ef3e4	-0.683409
182	0xbdd485d9	-0.10377092
183	0xbe8b9aa4	-0.2726642
184	0xbceb70a4	-0.028740235
185	0x3c436df6	0.011928072
186	0xbc8b6016	-0.01701359
187	0x3d238ac6	0.039927267
188	0xbe92dd83	-0.28684625
189	0xbc4a9718	-0.012365125
190	0xbe1d6e7c	-0.15374178
191	0xbd1c1b85	-0.038112182
192	0xbdb3ffc5	-0.087890185
193	0xbe6ac70a	-0.2292749
194	0xba1a8600	-0.00058946013
195	0xbcaaf8a8	-0.020870522
196	0x3e9c28e4	0.30499947
197	0xbcc8c238	-0.024506673
198	0xbdca926e	-0.098912105
199	0xbd01a91e	-0.031655423
200	0x3c2cae18	0.010539554
201	0xbc6cb9c7	-0.01444859
202	0xbc9d8cc0	-0.019232154
203	0xbd124a05	-0.03571512
204	0xbb7f3400	-0.0038940907
205	0xbc6cb580	-0.01444757
206	0x3d6edb2a	0.05831448
207	0xbe2b1853	-0.16708498
208	0x3d27c1a0	0.04095614
209	0xbe651309	-0.22370543
210	0x3d0ca9b8	0.034341544
211	0xbda2e136	-0.07953112
212	0x3e2ac817	0.1667789
213	0x3e624dfd	0.22100063
214	0xbd8cc698	-0.06873816
215	0x3cc4c904	0.024021633
216	0xbc535c48	-0.0129004195
217	0xbe5529ac	-0.20816678
218	0x3d6b388c	0.057426974
219	0x3cb0f64c	0.021601819
220	0xbe2d9cb6	-0.16954312
221	0xbcb16d9c	-0.021658711
222	0xbe92a75b	-0.28643307
223	0xbbdd161b	-0.00674702
224	0xbcc40a40	-0.023930669
225	0xbd4ee451	-0.05051071
226	0x3d3a2f0a	0.045455016
227	0xbd1ba8a2	-0.038002618
228	0xbcb6a699	-0.022296237
229	0xbf657193	-0.89626426
230	0xbe567b01	-0.2094536
231	0xbc8c45c0	-0.017123103
232	0xbe80d158	-0.25159717
233	0xbcb4a95c	-0.022053413
234	0xbccc1410	-0.02491191
235	0x3c7e94d8	0.015538417
236	0xbdb8f4db	-0.090310775
237	0xbccd13fc	-0.025033943
238	0xbe1799bb	-0.14804737
239	0x3e10e267	0.14148866
240	0xbef80e07	-0.48448202
241	0xbe296209	-0.16541304
242	0xbd80336b	-0.06259807
243	0xbd79bc4a	-0.060970582
244	0x3ea02e9a	0.31285554
245	0xbd086077	-0.03329512
246	0xbc344f95	-0.011005302
247	0xbc7db938	-0.015486054
248	0xbd46834c	-0.04846506
249	0xbd03c960	-0.032174468
250	0xbd5f36b4	-0.05449553
251	0xbe831bad	-0.25607052
252	0x3baa2740	0.0051926672
253	0xbd767e38	-0.060178965
254	0x3d3e53f2	0.046466775
255	0x3bdbf400	0.0067124367

fc2.bias f4 [256]
0	0xbe887d2e	-0.26658005
1	0xbea11597	-0.31461784
2	0x3d2521c1	0.040315393
3	0xbdf7e768	-0.12104684
4	0x3e6cd32a	0.23127428
5	0x3ebdd9c3	0.37080202
6	0xbdb0cb14	-0.08632484
7	0xbba6777f	-0.005080163
8	0x3f6bcdba	0.9211079
9	0xbe6bdf2e	-0.23034355
10	0xbe2d1e89	-0.1690618
11	0x3bb03bef	0.0053782384
12	0xbca066c4	-0.019580252
13	0xbeacac24	-0.33725083
14	0xbdf1b51b	-0.11802121
15	0xbc98e0e6	-0.018661927
16	0x3f7b0234	0.98050237
17	0xbbfc5a08	-0.0077011622
18	0x3f116fae	0.56811035
19	0xbec0faa3	-0.3769122
20	0xbf0c4dd3	-0.5480625
21	0xbcac1618	-0.021006629
22	0xbf7f3431	-0.9968901
23	0xbf37e707	-0.71836895
24	0x3e2b400e	0.16723654
25	0xbd935068	-0.07193071
26	0xbd0baade	-0.0340985
27	0x3e9d3ee9	0.3071206
28	0xbe62258c	-0.22084635
29	0xbdaff854	-0.08592287
30	0xbc10e83c	-0.0088444315
31	0xbe34ffc0	-0.17675686
32	0xbddbfb15	-0.107412495
33	0x3cb29802	0.021800999
34	0xbd1a8f9c	-0.037734613
35	0xbcf921e2	-0.030411664
36	0x3cbbd99a	0.022930909
37	0x3f36738f	0.7127008
38	0xbe644d14	-0.22295028
39	0x3ed0e527	0.4079983
40	0x3f617c59	0.88080364
41	0x3e982b58	0.2972057
42	0xbe5566af	-0.20839952
43	0xbd357254	-0.044298485
44	0x3f4324c0	0.7622795
45	0xbca4da7f	-0.020123718
46	0xbcf70b3a	-0.03015672
47	0xbd15bd24	-0.03655733
48	0xbead091f	-0.3379602
49	0x3ec5e13b	0.386484
50	0xbcb8254c	-0.022478722
51	0xbdc8fb5d	-0.09813569
52	0xbf1fcd6c	-0.62422824
53	0xbcb73c92	-0.02236775
54	0xbc965bcb	-0.018354317
55	0xbdc560d8	-0.09637612
56	0xbdc91498	-0.09818381
57	0xbcc3fdfe	-0.023924824
58	0xbd352e5b	-0.04423366
59	0x3d9f3518	0.07773799
60	0xbef170eb	-0.47156462
61	0xbd80b26b	-0.062840305
62	0x3f177800	0.5916748
63	0x3cc940c8	0.024567023
64	0x3c070ba5	0.008242522
65	0xbde5a7f9	-0.11213679
66	0xbcf3b2dc	-0.029748373
67	0xbec1273a	-0.3772524
68	0xbc626eb0	-0.013820335
69	0xbf0eafb0	-0.5573683
70	0x3dce10fb	0.100618325
71	0xbf86962e	-1.0514581
72	0x3f102dff	0.56320184
73	0xbdb97fe8	-0.09057599
74	0x3d3700f9	0.044678662
75	0x3e7b5d54	0.2454732
76	0xbd473b4e	-0.04864054
77	0xbdb48745	-0.08814863
78	0xbd5cb265	-0.053881068
79	0xbd6cbc0d	-0.057796527
80	0x3f06d804	0.52673364
81	0xbd9969a9	-0.07490856
82	0xbea1499d	-0.31501475
83	0x3ef6604a	0.48120338
84	0x3f9fc04b	1.2480558
85	0x3d80df1e	0.06292556
86	0x3d051a92	0.032496043
87	0x3dd63c27	0.10460692
88	0xbd8ed6ca	-0.069745615
89	0x3cfaa402	0.030595783
90	0xbd8bbf3f	-0.06823587
91	0xbe981555	-0.29703775
92	0x3d183b30	0.03716582
93	0x3b3d89df	0.002892129
94	0x3cef6ad3	0.029225742
95	0xbcc97394	-0.024591245
96	0x3d65e291	0.056124274
97	0x3f28c3dd	0.65923864
98	0xbc4b645b	-0.012414063
99	0xbeb04c7f	-0.34433362
100	0xbd93d02b	-0.07217439
101	0xbdab2bb0	-0.08357942
102	0xbd190013	-0.037353586
103	0xbe1a6beb	-0.1508023
104	0x3c13ef8f	0.009029283
105	0x3e69e530	0.22841334
106	0xbdce4551	-0.10071815
107	0xbdb9066a	-0.090344265
108	0x3ef645dc	0.48100173
109	0x3e5e43bf	0.2170553
110	0xbeb5be24	-0.35496628
111	0xbc3a1b6a	-0.011359075
112	0xbf099a85	-0.53751403
113	0xbd423e0f	-0.047422465
114	0xbe33b893	-0.17550878
115	0x3cd95e56	0.02653424
116	0x3ef4a39a	0.47781068
117	0x3e8f6e5f	0.28013894
118	0xbd3a3ba3	-0.04546703
119	0xbddd6e9f	-0.10812115
120	0xbe0b1d3d	-0.13585372
121	0xbdae0cf1	-0.08498562
122	0xbe42efe9	-0.19036831
123	0x3e930e75	0.28721967
124	0x3bfc923e	0.007707863
125	0xb942fad3	-0.00018594721
126	0xbe48ff7c	-0.1962871
127	0xbf236f61	-0.63841826
128	0x3e49dd33	0.19713287
129	0xbe9b90e1	-0.3038397
130	0x3b6cf49f	0.0036156548
131	0x3afe1177	0.0019383867
132	0xbec3711b	-0.3817223
133	0x3efc5214	0.4928137
134	0xbd517d21	-0.051144723
135	0xbd144c87	-0.036205795
136	0x3c7aa86d	0.015298945
137	0x3e538ded	0.20659609
138	0x3f4eb580	0.807457
139	0x3e94114b	0.28919443
140	0xbe5a51c4	-0.21320254
141	0xbd2d5bfd	-0.042324055
142	0x3e17db56	0.14829764
143	0xbd8327b5	-0.06404058
144	0xbe7184b3	-0.23585777
145	0x3f86f389	1.0543071
146	0x3f58e96d	0.8473118
147	0xbc9544fb	-0.018221369
148	0x3c82613b	0.015915504
149	0x3f4bfa82	0.7967912
150	0xbd79f32f	-0.061022934
151	0xbdba3534	-0.09092179
152	0xbe33ad77	-0.1754664
153	0xbf4c3810	-0.79773045
154	0xbd1bf392	-0.038074084
155	0x3b4f7691	0.0031656364
156	0xbd31f6bd	-0.0434482
157	0xbd67e99b	-0.056619268
158	0x3f39d034	0.7258332
159	0xbd2c7d8a	-0.04211191
160	0xbcf52098	-0.029922768
161	0xbdf2ba97	-0.118519954
162	0xbdd65801	-0.10466004
163	0x3ec309fd	0.38093558
164	0xbd254a46	-0.040354036
165	0xbd60ba37	-0.05486509
166	0xbd6858bf	-0.05672526
167	0xbd9a2f0a	-0.07528503
168	0xbf4280e7	-0.7597794
169	0x3eec704e	0.46179432
170	0xbf1c5b22	-0.6107656
171	0xbce5d6e9	-0.028056579
172	0xbe0b28fe	-0.13589856
173	0xbde8c87b	-0.113663636
174	0xbda2e421	-0.079536684
175	0x3c8030ce	0.015648272
176	0xbc9a5434	-0.01883898
177	0x3efce6dd	0.49394885
178	0x3b29676a	0.0025848993
179	0x3ce62065	0.028091619
180	0x3baa1970	0.0051910207
181	0x3c857c9e	0.016294774
182	0xbeb330fd	-0.34998313
183	0x3f3034a5	0.6883033
184	0xbdaf05c6	-0.08546023
185	0xbca43612	-0.020045314
186	0xbe6f24b9	-0.23353852
187	0xbd81afbf	-0.06332349
188	0xbd875da7	-0.0660966
189	0x3f9f056d	1.2423531
190	0x3edc1d72	0.42991215
191	0xbd1cbbbc	-0.038264975
192	0xbd006452	-0.031345673
193	0xbdba9a80	-0.091115
194	0xbd485628	-0.04891029
195	0x3d16632e	0.03671568
196	0x3f0c3534	0.5476868
197	0xbf67c462	-0.9053403
198	0xbf175e90	-0.59128666
199	0xbdd434b9	-0.103616185
200	0x3e6158b3	0.22006492
201	0xbe719afd	-0.2359428
202	0xbede274f	-0.43389365
203	0xbe9a963e	-0.3019275
204	0xbdb8c51d	-0.090219714
205	0xbdc89fb6	-0.097960874
206	0xbd31f660	-0.043447852
207	0x3e2e112e	0.16998741
208	0xbe0d7ffc	-0.13818353
209	0xbc548245	-0.012970512
210	0x3f160e15	0.5861524
211	0xbef6dadb	-0.48213848
212	0xbd8a9492	-0.06766619
213	0x3e1245b1	0.14284398
214	0xbe34d65b	-0.17659895
215	0xbf02fd1f	-0.5116748
216	0xbf1ebf01	-0.620102
217	0xbd8a727a	-0.06760116
218	0xbcfb06d3	-0.030642902
219	0x3f39eb92	0.72625077
220	0xbe9ac5ad	-0.3022894
221	0xbd8b6112	-0.06805624
222	0xbd939837	-0.07206767
223	0xbd32f225	-0.04368796
224	0x3e73a206	0.23792276
225	0xbe5d0557	-0.21584068
226	0x3f724829	0.9464136
227	0xbf12ae29	-0.57297
228	0x3d88fea7	0.06689196
229	0x3fa7195c	1.3054614
230	0xbd09a6cf	-0.033606347
231	0xbd5d2eb6	-0.053999625
232	0xbd6941c7	-0.056947496
233	0xbc612511	-0.0137417475
234	0xbcaa9d3a	-0.020826925
235	0xbd8612a0	-0.06546521
236	0xbb36dc16	-0.0027902178
237	0xbe0dc834	-0.13845903
238	0xbdadac14	-0.08480087
239	0xbdb66236	-0.08905451
240	0xbdb221c7	-0.08697849
241	0x3f2eb253	0.6824085
242	0x3f7110b7	0.9416613
243	0xbc424172	-0.011856424
244	0xbdab2d1f	-0.083582155
245	0xbe102a8e	-0.14078733
246	0xbd868c93	-0.06569781
247	0x3ebf3442	0.37344557
248	0xbed6da63	-0.4196349
249	0x3fa7d735	1.3112551
250	0xbc89cb7e	-0.016820665
251	0xbd3cc117	-0.046082582
252	0x3f2275d4	0.6346104
253	0xbd895ca0	-0.0670712
254	0x3e4b2c1f	0.1984105
255	0xbe903fdd	-0.28173724

fc_mean.weight f4 [2, 256]
0	0xbeb897fd	-0.36053458
1	0xbd229794	-0.039695337
2	0x3c4a8d70	0.012362823
3	0x3e0f43d2	0.13990715
4	0xbe3b0da2	-0.1826692
5	0x3da0a798	0.07844466
6	0xbe101330	-0.1406982
7	0xba7726cb	-0.0009428083
8	0x3ddbcd40	0.10732508
9	0xbee5c266	-0.44874877
10	0xbb90a675	-0.0044143745
11	0xbd28ead8	-0.04123959
12	0x3d0a4695	0.03375872
13	0xbe36268d	-0.17788143
14	0xbcc650c6	-0.024208438
15	0xbd31b1fa	-0.043382622
16	0xbd2958e8	-0.041344553
17	0x3d446ea5	0.04795708
18	0xbcb2a7d9	-0.021808552
19	0x3cf3d4e2	0.029764596
20	0x3ed8fa60	0.4237852
21	0x3baf7a39	0.0053551462
22	0xbe3c841b	-0.18409769
23	0x3f132a97	0.5748686
24	0xbc354a33	-0.011065054
25	0x3d2835af	0.04106682
26	0xbca6b0bc	-0.020347945
27	0xbdbdc3d3	-0.09265866
28	0x3ebac258	0.36476398
29	0x3ea6b463	0.325595
30	0xbd1ef2f9	-0.038805936
31	0x3e5a304e	0.2130749
32	0xbcd9c25b	-0.026581934
33	0x3c2fc342	0.010727705
34	0xbd1c88fd	-0.03821658
35	0x3ba0a48a	0.004902427
36	0x3cdc37fa	0.02688216
37	0x3da5e3b9	0.08100075
38	0xbdec27d4	-0.11531034
39	0xbd58678a	-0.052833118
40	0x3d7c371b	0.06157599
41	0x3e1de828	0.15420592
42	0xbe1a75a8	-0.15083945
43	0xb9cf24fa	-0.00039509666
44	0x3da6a71e	0.08137344
45	0x3d71af51	0.059005085
46	0xbb2b118a	-0.0026102983
47	0xbd2b2d4f	-0.041791257
48	0xbd71e644	-0.05905749
49	0x3c9d89a0	0.019230664
50	0xbd3138c2	-0.04326702
51	0xbcb8aa60	-0.022542179
52	0x3da6429a	0.08118172
53	0x3eefd064	0.46838677
54	0x3b8a50d8	0.004221063
55	0x3d07ea9c	0.033182725
56	0x3b1458d7	0.002263596
57	0x3cafa93e	0.021443006
58	0x3d1df5da	0.03856454
59	0x3f0d10b1	0.55103594
60	0xbc920d71	-0.017828675
61	0xbd5d75a6	-0.054067276
62	0xbeebca50	-0.4605279
63	0x3d66e4a6	0.0563704
64	0xbc14fa1a	-0.009092832
65	0xbe3450d2	-0.17608956
66	0xbc47322d	-0.012157959
67	0x3ddd3166	0.10800438
68	0x3dc25a99	0.094899364
69	0xbd2862aa	-0.04110972
70	0xbd8adcca	-0.067803934
71	0x3c911128	0.017708376
72	0x3dd80d99	0.105494685
73	0xbe026ee1	-0.1273761
74	0x3d4ed678	0.050497502
75	0xbda02108	-0.078188
76	0x3e9cea95	0.30647722
77	0xbc374afe	-0.011187313
78	0xbbb1a138	-0.00542083
79	0xbd5a5773	-0.053306054
80	0xbd0664a4	-0.032810822
81	0x3c705f70	0.014671192
82	0x3e34095c	0.17581695
83	0x3d8827ff	0.06648254
84	0x3d7dc527	0.061955597
85	0xbf0f7d0e	-0.56050193
86	0x3cd98a55	0.02655522
87	0x3f05846b	0.5215518
88	0xbd034731	-0.032050315
89	0x3c1d464f	0.009599282
90	0xbb96141d	-0.0045800344
91	0xbda7835f	-0.08179354
92	0xbdaf60f2	-0.08563413
93	0x3c8ac9fe	0.01694202
94	0xbee4641a	-0.4460762
95	0x3d0ad1d7	0.033891525
96	0x3d159fb0	0.036529243
97	0x3d8311d5	0.063998856
98	0xbc1109bb	-0.008852418
99	0x3e6e7cd3	0.23289804
100	0xbd843600	-0.06455612
101	0x39f8be29	0.00047443926
102	0xbdab7c49	-0.08373315
103	0xbe082b22	-0.13297704
104	0xbd05bc86	-0.032650493
105	0xbe08fe0d	-0.13378163
106	0xbd135e07	-0.035978343
107	0x3baeaede	0.0053309044
108	0xbe24898a	-0.16068092
109	0x3e418f10	0.1890223
110	0x3f04346c	0.5164249
111	0x3c93e8d2	0.018055353
112	0xbe1e8378	-0.15479839
113	0x3d0de5e8	0.034643084
114	0x3ea3ec0b	0.32016024
115	0xbccc40ae	-0.024933185
116	0x3e156e0b	0.1459276
117	0x3d4b7591	0.049672667
118	0xbba0e161	-0.0049096798
119	0x3d35e27a	0.044405438
120	0xbc844a32	-0.01614866
121	0xbd3e5bf7	-0.046474423
122	0x3f56dc93	0.8393032
123	0x3d63b0a0	0.055588365
124	0x3d295477	0.041340318
125	0xbd1a6744	-0.037696138
126	0xbd1c6f29	-0.038191948
127	0x3d8e5898	0.06950492
128	0x3d14372a	0.03618542
129	0x3e22d583	0.15901761
130	0x3cbca842	0.02302945
131	0x3c9e45e8	0.019320443
132	0x3c336a05	0.01095057
133	0xbe135c06	-0.14390573
134	0xbc3bff06	-0.011474377
135	0xbb968acc	-0.0045941826
136	0xbd6c702d	-0.057724167
137	0x3ec3b17e	0.38221353
138	0xbe4731d9	-0.19452609
139	0x3d9142ae	0.07092796
140	0xbea66335	-0.32497564
141	0xbcb53b25	-0.022122929
142	0xbf994b3d	-1.1976086
143	0xbb806274	-0.0039179865
144	0xbdcd44a0	-0.10022855
145	0x3d90998b	0.07060536
146	0xbe05033c	-0.12989515
147	0xbc53ae06	-0.012919908
148	0xbcd178c2	-0.025570277
149	0x3d6b530b	0.057452243
150	0xbcfab3b2	-0.030603264
151	0x3c9a5494	0.018839158
152	0x3f15d23a	0.58523905
153	0x3d456172	0.048188634
154	0xbcd000d0	-0.025391012
155	0x3cb9db1e	0.022687491
156	0xbd3b0330	-0.045657337
157	0xbda7aed8	-0.08187646
158	0xbe8cf1e7	-0.27528307
159	0xbda3eb66	-0.08003883
160	0x3d065a77	0.032801118
161	0xbecf9261	-0.40541366
162	0xbd2eb842	-0.04265619
163	0x3f0b4e3d	0.5441626
164	0xbb48c289	-0.003063353
165	0xbbfbe56b	-0.007687261
166	0x3d22d3ff	0.039752956
167	0xbd982866	-0.074295804
168	0xbd70a060	-0.058746696
169	0xbdb3ed01	-0.08785439
170	0x3f01a0d5	0.50636035
171	0x3ce692d8	0.028146192
172	0x3c5143ed	0.012772542
173	0xbbd3bd93	-0.006461808
174	0xbcd4f8e1	-0.025997581
175	0x3ee054db	0.4381474
176	0x3d197d9b	0.037473302
177	0x3e67d71b	0.2264065
178	0xbc639d2e	-0.013892455
179	0x3d2cd6d8	0.04219708
180	0x3d1e9250	0.038713753
181	0xbd35e3fb	-0.044406872
182	0xbe986ee6	-0.2977211
183	0x3f04daa6	0.5189613
184	0x3ea3eac3	0.32015046
185	0x3d61799f	0.055047628
186	0x3ec81e66	0.39085692
187	0xbd10fd1d	-0.035397638
188	0xbf0795ae	-0.5296277
189	0x3e10b2d5	0.14130719
190	0x3e0602d2	0.13087013
191	0x3e93b907	0.28852102
192	0x3d63911e	0.055558316
193	0x3c504070	0.012710676
194	0x3c529cbd	0.012854752
195	0x3d0f3380	0.034961224
196	0x3e00b58f	0.12569259
197	0x3e02a795	0.1275924
198	0xbf075676	-0.52866304
199	0x3da2757e	0.07932566
200	0xbe85f91f	-0.26166627
201	0x3dee6578	0.116404474
202	0xbe732993	-0.23746328
203	0x3e906fc0	0.28210258
204	0x3c86e85a	0.016468216
205	0xbd2a5e7e	-0.04159402
206	0x3d69f077	0.05711409
207	0x3cfc0118	0.03076224
208	0x3d7aa911	0.06119639
209	0xbbe2ffef	-0.0069274823
210	0x3e28830f	0.16456245
211	0xbe45a808	-0.1930238
212	0xbd6c3129	-0.05766407
213	0xbe01f865	-0.12692411
214	0x3d57705b	0.052597385
215	0x3d10a60b	0.0353146
216	0x3d9d4a5f	0.07680201
217	0x3d71aa5b	0.059000354
218	0x3d56025a	0.052248336
219	0xbe02d94a	-0.12778202
220	0x3c68a456	0.014199337
221	0xbb677dd2	-0.0035322797
222	0x3c98a006	0.018630993
223	0x3d265d16	0.040616117
224	0xbe846390	-0.2585721
225	0xbf66b270	-0.90116024
226	0x3d55cd41	0.0521977
227	0xbe657d8f	-0.22411178
228	0xbeb29a45	-0.34883323
229	0xbc77c1d2	-0.015121894
230	0xbf98f6db	-1.1950334
231	0xbd1b3435	-0.037891585
232	0x3ca25f8f	0.019820957
233	0x3b29562d	0.0025838718
234	0xbc3fa17f	-0.0116962185
235	0x3d8ada44	0.06779912
236	0x3b4b4a03	0.0031019456
237	0xbc4cd876	-0.01250278
238	0x3cfd26c0	0.030902267
239	0xbe37111e	-0.17877623
240	0x3d17010b	0.03686623
241	0xbee7d281	-0.4527779
242	0x3dad10e8	0.0845049
243	0xbe55309a	-0.20819321
244	0xbd702463	-0.05862845
245	0x3e7aad21	0.24480106
246	0xbd0a3d77	-0.033750024
247	0x3ed8177e	0.42205423
248	0xbdcab109	-0.09897048
249	0x3e23a3b6	0.1598042
250	0xbca8b80f	-0.020595578
251	0xbb945847	-0.004527125
252	0x3df65376	0.12027638
253	0xbc0557ff	-0.008138656
254	0x3e30b921	0.17258121
255	0x3d7e8e1c	0.062147245

fc_mean.bias f4 [2]
0	0xbd298fe3	-0.041396987
1	0xbe2d3f1a	-0.16918603

fc_logstd.weight f4 [2, 256]
0	0x3cd818be	0.026378985
1	0x3c7c236b	0.015389304
2	0x3c70cc45	0.014697139
3	0xbb7c46fc	-0.0038494458
4	0x3dc85cc9	0.09783322
5	0xbb42f862	-0.0029750098
6	0xbc2efeb1	-0.01068084
7	0x3caeb8e8	0.021328405
8	0xbc1fc262	-0.009750934
9	0x3c82fda6	0.01599009
10	0xbc552539	-0.013009363
11	0x3bcfba88	0.006339375
12	0x3c7adf8d	0.015312088
13	0x3bd792cc	0.006578779
14	0xbd1040dd	-0.03521811
15	0x3d1c4b2c	0.038157627
16	0xbcbacf36	-0.022803884
17	0x3c92ce70	0.017920703
18	0x3c296ab6	0.010340383
19	0x3b2bf414	0.0026238011
20	0x3eaa47b8	0.33257842
21	0x3d509e2c	0.050932094
22	0x3b0d1590	0.0021527745
23	0x3e137842	0.14401343
24	0xba7adf9f	-0.00095700653
25	0xbd0b02b1	-0.033938114
26	0x3c7b1b99	0.015326404
27	0xbbde29de	-0.0067798933
28	0x3cc607a6	0.024173569
29	0xbce11eda	-0.027480531
30	0x3c354d21	0.011065752
31	0x3ae9d87b	0.0017841005
32	0xbcd7225c	-0.026261501
33	0x3cc529e1	0.024067821
34	0x3d11f56e	0.03563445
35	0x3b8b2c6e	0.00424724
36	0x3c87eacf	0.016591458
37	0x3ce3c500	0.027803898
38	0x3bbcfb21	0.0057672416
39	0x3c365af8	0.011130087
40	0x3c554842	0.013017716
41	0x3c729d48	0.014808007
42	0xbc5d4569	-0.013505318
43	0x3cc17d29	0.023619251
44	0x3c94a8fe	0.018146988
45	0xbc1afe79	-0.009460085
46	0xbd07cc2d	-0.0331537
47	0x3b86da39	0.0041153696
48	0xba2ec228	-0.0006666505
49	0xbb0013eb	-0.0019543122
50	0x3c430789	0.011903652
51	0xbcc79142	-0.024361257
52	0x3b1b1860	0.0023665652
53	0x3cd0430c	0.025422595
54	0x3d015234	0.031572536
55	0x3d7295b4	0.0592248
56	0xbca051f8	-0.019570336
57	0x3cdb8926	0.026798796
58	0xbcb0854e	-0.02154794
59	0x3deb71bb	0.11496302
60	0x3bab63f0	0.0052304193
61	0x3cb4c625	0.022067139
62	0xbc7fd405	-0.015614514
63	0x3c967a4c	0.018368863
64	0x3c82da33	0.015973186
65	0x3d12c7f3	0.035835218
66	0xbc02769a	-0.007962847
67	0x3c2faa6e	0.010721786
68	0x3c7440a5	0.014907991
69	0x3b2f3aa3	0.002673783
70	0xbc605144	-0.01369125
71	0xbbbf4725	-0.0058373385
72	0x3df125ce	0.11774789
73	0xbb26616f	-0.0025387665
74	0xbd3b4780	-0.045722485
75	0x3c6e58ea	0.014547566
76	0x3d6f6b4e	0.058451943
77	0xbcf2a5be	-0.029620048
78	0xbd430234	-0.047609523
79	0x3a81c599	0.0009900808
80	0x3c5b24c4	0.013375465
81	0xbc6dedf9	-0.014522069
82	0x3da1d03e	0.07901047
83	0xbc0c3121	-0.008556635
84	0xbaad3c8d	-0.0013216898
85	0x3dcc7369	0.0998295
86	0x3ce6f953	0.028195059
87	0x3da83272	0.08212747
88	0x3c24266c	0.010018926
89	0x3c58005d	0.01318368
90	0xbd31d804	-0.0434189
91	0xbbc3f322	-0.0059799114
92	0x3da7fffa	0.082031205
93	0xbbb82b4f	-0.005620397
94	0x3e4c454a	0.19948307
95	0x3c80e3ca	0.015733618
96	0x3bba55af	0.005686484
97	0x3d272fa6	0.040816925
98	0xbcddd487	-0.02707888
99	0xbc81c230	-0.015839666
100	0x3c858c19	0.016302155
101	0x3d10ead9	0.03538022
102	0x3cecd80c	0.028911613
103	0xbc91095f	-0.017704664
104	0x3cc267b9	0.0237311
105	0xbca2e46d	-0.019884313
106	0xbccf5f80	-0.025314093
107	0x3c100cd8	0.008792125
108	0xbac8c802	-0.0015318396
109	0x3ccd946e	0.02509519
110	0x3cf0b89e	0.029384907
111	0x3bec10e3	0.0072041615
112	0x3d471967	0.04860821
113	0xbcbc39ce	-0.022976782
114	0x3d380aee	0.0449323
115	0x3ce35a15	0.027752915
116	0x3c842012	0.016128574
117	0x3c36f580	0.01116693
118	0xbbdcb1fb	-0.006735084
119	0x3bfb17f6	0.0076627685
120	0x3cf29d53	0.029616034
121	0x3d44b668	0.04802552
122	0x3d71bfbb	0.05902074
123	0xbd268925	-0.040658135
124	0xb9821f8f	-0.00024819045
125	0xbc583b84	-0.013197783
126	0x390d9e6a	0.00013505822
127	0x3c31c6f2	0.010850655
128	0xbc37d47b	-0.011220093
129	0x3cb84de7	0.022498084
130	0x3d1a9c4e	0.03774672
131	0x3c8d4563	0.017245
132	0x3c0aa4b3	0.008462119
133	0xbbf79e66	-0.0075567244
134	0x3d1c8693	0.038214277
135	0x3cd2a41b	0.025713017
136	0x3b33464b	0.002735513
137	0xbbe6ac93	-0.0070396154
138	0xbce3d275	-0.027810315
139	0xbb994311	-0.0046771844
140	0xbc1b5adc	-0.009482112
141	0xbca6d2ed	-0.02036425
142	0x3da4496b	0.08021816
143	0xba5b3662	-0.00083622907
144	0xbd2dc919	-0.04242811
145	0x3c28c4c5	0.01030082
146	0xbc0e5f1d	-0.008689669
147	0x3c96cca0	0.01840812
148	0x3cd52135	0.02601681
149	0x3c0eeddf	0.008723705
150	0xbce5872d	-0.028018558
151	0x3cd241ce	0.025666144
152	0x3d8c23fe	0.068428025
153	0x3c60eaba	0.013727838
154	0x3d0622b1	0.032747928
155	0xbaa68efc	-0.0012707408
156	0x3c047bf4	0.008086193
157	0x3b9ec5de	0.004845365
158	0x3cb5a198	0.02217178
159	0x3cfb94a5	0.030710528
160	0xba0d0fc1	-0.00053810707
161	0xbce07d23	-0.02740342
162	0x3bcf95b3	0.006334984
163	0xba4a24e9	-0.00077111885
164	0xbb43bac2	-0.0029865955
165	0xbd26538d	-0.040607024
166	0x3c42257c	0.011849757
167	0x3d2d3cd2	0.04229433
168	0xbbfd38ed	-0.0077277333
169	0xbccb8fff	-0.024848936
170	0x3cceef1a	0.025260497
171	0x3cdb8813	0.026798284
172	0xbc048126	-0.008087432
173	0x3df50759	0.11964292
174	0xb9522349	-0.00020040305
175	0xbcf6f00c	-0.03014376
176	0xbcba9648	-0.022776738
177	0x3da6199b	0.081103526
178	0x3d0d979e	0.03456842
179	0xbce105a0	-0.027468503
180	0xbacb0b0f	-0.0015490967
181	0xbc96f0f2	-0.018425439
182	0xbcf4d283	-0.029885536
183	0xbdb557ec	-0.088546604
184	0x3e24a8f7	0.1608008
185	0x3c0c4fdd	0.008563963
186	0x3d79f810	0.061027586
187	0x3cb001fc	0.021485321
188	0x3ddfb6fb	0.10923573
189	0x3cb18511	0.021669896
190	0x3c57a3a8	0.013161577
191	0x3c01ca35	0.007921745
192	0x3bc491ac	0.0059988108
193	0x3d365580	0.044515133
194	0xbc7e3319	-0.015515112
195	0x3c431516	0.011906883
196	0x3ca9e21a	0.020737696
197	0x3bf5f0bc	0.0075055044
198	0xbc9e9eff	-0.019362925
199	0x3cf8870f	0.030337838
200	0x3d1a3518	0.03764829
201	0x3c20ef99	0.0098227495
202	0xbc99a63c	-0.018756025
203	0x38986460	7.266621e-05
204	0xbd3e7565	-0.046498675
205	0x3ccfec29	0.025381165
206	0x3bc93db9	0.006141391
207	0x3b3a06a7	0.0028385313
208	0x3af3bf8d	0.0018596515
209	0xbc9711ae	-0.018441048
210	0x3d27eafb	0.04099558
211	0xbc7d9310	-0.015476957
212	0x3c9b5584	0.018961675
213	0x3a6c92fa	0.0009024587
214	0x3caac4c8	0.020845786
215	0x3c3441ca	0.011002013
216	0x3c3d0727	0.01153735
217	0xbd61c365	-0.055117983
218	0xbbea689b	-0.007153583
219	0x3cb86706	0.022510063
220	0x3dba074f	0.09083425
221	0xbc70f252	-0.014706211
222	0x3c910a5d	0.017705137
223	0x3c3e9df2	0.011634337
224	0x3cb4733d	0.022027606
225	0x3d2ffd6c	0.04296629
226	0xba0b08de	-0.00053037505
227	0xbd0f8ac8	-0.03504446
228	0x3d2764ba	0.040867545
229	0x39152faa	0.00014227504
230	0x3da7351c	0.08164427
231	0x3c4d7103	0.012539151
232	0x3ca40770	0.020023078
233	0xbd11bab8	-0.03557846
234	0xbc544d20	-0.012957841
235	0xbb19ab12	-0.0023447913
236	0xbc549c0c	-0.012976658
237	0xbca9b981	-0.020718338
238	0xbcdaafb6	-0.026695114
239	0x3cef9346	0.02924503
240	0x3c47800a	0.012176523
241	0x3e1dda74	0.15415365
242	0x3cce43e3	0.025178855
243	0x3c276ea4	0.01021925
244	0xbc956706	-0.018237602
245	0x3dd90075	0.1059579
246	0xbc8b062e	-0.01697072
247	0x3decc2e0	0.11560607
248	0x3aa73b1a	0.0012758703
249	0x3c81d8de	0.01585048
250	0xbc041bb9	-0.00806325
251	0xbca62cf1	-0.020285102
252	0x3c8e6b36	0.017385107
253	0x3c1181a8	0.00888101
254	0x3c2ca1f9	0.010536664
255	0x3cacf35b	0.021112135

fc_logstd.bias f4 [2]
0	0xbdc41cb9	-0.09575791
1	0xbd679be0	-0.05654514

fc1.weight f4 [256, 16]
0	0xbe6fa498	-0.23402631
1	0xbe4e2a50	-0.20133328
2	0xbdc0a448	-0.09406334
3	0x3e449b14	0.19199783
4	0x3cadd9c0	0.021221995
5	0x3c92c1c0	0.017914653
6	0x3e4a1ada	0.19736806
7	0xbe474080	-0.19458199
8	0x3b852000	0.0040626526
9	0x3d2f9db0	0.042874992
10	0xbe3a6c1a	-0.182053
11	0xbe20cc0c	-0.15702838
12	0xbdf816d0	-0.12113726
13	0x3dc90bdc	0.09816715
14	0x3de1c488	0.110238135
15	0x3e3f79f2	0.18698862
16	0x3cca45a0	0.024691403
17	0x3da5d908	0.08098036
18	0xbd703d38	-0.058652133
19	0xbdeacc18	-0.11464709
20	0xbe57a498	-0.21058881
21	0xbe1ef190	-0.15521836
22	0xbca54cd0	-0.020178229
23	0xbe6b7fa6	-0.22997913
24	0x3e4d58f0	0.20053458
25	0x3e4b7aa8	0.19871008
26	0x3d03b6f0	0.032156885
27	0x3e5f9c94	0.21837074
28	0x3d27f1d0	0.041002095
29	0x3e3ea454	0.18617374
30	0xbe66467c	-0.22487825
31	0x3d8e7b8c	0.069571584
32	0xbf460fd1	-0.77367884
33	0xbd2ea857	-0.04264101
34	0x3cdf75d0	0.027277857
35	0xbe29c7f2	-0.1658018
36	0xbe2db173	-0.16962223
37	0x3d909dd0	0.0706135
38	0x40b81c06	5.753421
39	0x400ae85c	2.170432
40	0x3fd5891d	1.6682469
41	0x3f19b224	0.60037446
42	0xbdc6c31a	-0.097051814
43	0x3d4e9452	0.050434418
44	0x3fb40175	1.4062945
45	0x3eb7652b	0.35819373
46	0xbd3f5802	-0.04671479
47	0x3bdd6017	0.0067558396
48	0xbf25a57a	-0.6470562
49	0x3ff2823e	1.8945997
50	0xbdb2f938	-0.08738941
51	0xbd9d9c34	-0.07695809
52	0x3fb55217	1.4165677
53	0xbe9fb50f	-0.31192824
54	0xc09b9b5e	-4.8627157
55	0xc02f803e	-2.7422023
56	0xbe8515e5	-0.25993267
57	0x3fbd5d1c	1.479404
58	0xbe1da9c6	-0.15396795
59	0xbe498ea4	-0.1968332
60	0x3e449695	0.19198067
61	0x3fae0b2f	1.3597163
62	0xbe2ee8c7	-0.17080985
63	0xbe83523f	-0.25648686
64	0xbd346d58	-0.04404959
65	0xbd773fd0	-0.06036359
66	0xbe393dec	-0.18090028
67	0xbca99bc0	-0.02070415
68	0x3e721a10	0.23642755
69	0xbd5530b0	-0.052048385
70	0x3e0ea454	0.13929874
71	0x3c6ef620	0.014585048
72	0xbd2558e0	-0.04036796
73	0xbd8c45bc	-0.06849238
74	0xbe2ad34c	-0.16682166
75	0x3e3cb302	0.18427661
76	0x3e16e86c	0.147371
77	0xbdd6b438	-0.10483593
78	0x3ddef128	0.10885841
79	0xbde972dc	-0.11398861
80	0xbde533f5	-0.11191551
81	0x3f75dddf	0.96041673
82	0x3996c4f6	0.00028756977
83	0xbebea2f8	-0.3723371
84	0x3ea45693	0.320973
85	0xbe8e3ed9	-0.27782324
86	0x401ce160	2.4512558
87	0xc07a02c0	-3.9064178
88	0xc0b8e90b	-5.7784476
89	0x405dfb95	3.4684803
90	0xbd5d7846	-0.05406978
91	0xbd963cfb	-0.0733585
92	0x3bd3e037	0.0064659375
93	0x3ddba3f2	0.107246295
94	0xbd6449f5	-0.055734593
95	0xbdd7b8ad	-0.10533271
96	0xbfdb086c	-1.7111945
97	0xbf9d8e8d	-1.2309128
98	0xbb1ddc52	-0.002408762
99	0xbf31f8f0	-0.69520473
100	0xbd4a4e2a	-0.04939095
101	0xbedaff97	-0.42773125
102	0xbf74f22b	-0.9568202
103	0xbe91199a	-0.28339845
104	0x3f25592f	0.6458921
105	0xbe803dae	-0.25047058
106	0xbd68eaea	-0.056864657
107	0xbd2f333a	-0.042773463
108	0x402bcba7	2.684305
109	0x3e51e7f7	0.20498644
110	0x3c94cde7	0.018164588
111	0xbd2c4c8a	-0.04206518
112	0xbe6bd2ef	-0.23029684
113	0xbef580e4	-0.47949898
114	0xbd95f0f0	-0.07321346
115	0xbe100c20	-0.14067125
116	0xbec62c5d	-0.38705721
117	0xbe06e68c	-0.13173884
118	0xbec0f34c	-0.3768562
119	0x3d70d115	0.058793146
120	0xbf83c755	-1.0295206
121	0xbfb5356f	-1.4156932
122	0x3c7541bf	0.014969288
123	0xbd3eb21a	-0.04655657
124	0x3bd3f63d	0.006468563
125	0x3ce741c1	0.028229596
126	0xbe153270	-0.14570022
127	0xbdfce5cd	-0.123485185
128	0x3e68bf4a	0.22729221
129	0x3da27be8	0.079337895
130	0xbe745a9e	-0.23862693
131	0x3d5f8118	0.054566473
132	0xbe3132ba	-0.17304507
133	0x3e5fad6c	0.21843499
134	0xbdc6ea08	-0.09712607
135	0xbd7b03d8	-0.061282963
136	0xbd467988	-0.048455745
137	0xbdf6e39c	-0.12055132
138	0xbe767e86	-0.24071702
139	0x3d05f268	0.03270188
140	0xbe6d2472	-0.23158434
141	0xbc9ba850	-0.019001156
142	0xbe3f9a20	-0.18711138
143	0x3e7994dc	0.24373192
144	0xbf1a8ff9	-0.60375935
145	0x3b78d475	0.003796843
146	0xbcd97455	-0.02654473
147	0xbee9567d	-0.45573798
148	0x3eeb3170	0.45936155
149	0x3f41a9c2	0.75649655
150	0xbfdbb31c	-1.7164035
151	0xbf1abb2e	-0.60441864
152	0xbfd6bd96	-1.6776607
153	0xc108d274	-8.55138
154	0x3d2d1f05	0.04226591
155	0xbe81344f	-0.2523522
156	0x3f773e60	0.9657955
157	0x3fddf208	1.7339487
158	0xbd29c3bf	-0.041446444
159	0x3dc87e1e	0.0978968
160	0x3fa22d89	1.2670146
161	0xc02c2d1f	-2.690254
162	0x3d0fa8be	0.035073034
163	0x3f884b17	1.0647916
164	0x3dd4fc4b	0.103996836
165	0x3f6dd4f7	0.92903084
166	0x3f224590	0.63387394
167	0xc0a2786d	-5.0772004
168	0xbd950546	-0.072763965
169	0x3f2b96f2	0.670272
170	0x3c95ae75	0.018271664
171	0xbccc93ac	-0.02497276
172	0xbeedb2ce	-0.4642548
173	0x3f70b9dc	0.940336
174	0x3c9c33ba	0.019067634
175	0xbcd8f411	-0.026483567
176	0xc0236745	-2.553178
177	0xc10a137b	-8.629756
178	0x3af6e2d0	0.0018835906
179	0x3f39ddd2	0.72604096
180	0xbec43968	-0.38325047
181	0x3f9ee888	1.2414713
182	0xc01afd4d	-2.4217103
183	0xbfa1b99b	-1.2634767
184	0x3da419ca	0.080127314
185	0xbf048f58	-0.51781225
186	0xbf2a82c5	-0.6660579
187	0xbe5489cc	-0.2075569
188	0xbec1c345	-0.3784429
189	0xbe1eef57	-0.15520988
190	0xbe821838	-0.25409102
191	0xbe0bbf94	-0.136473
192	0x404bd267	3.184717
193	0xbfc0bf97	-1.5058469
194	0x3c8bde49	0.017073767
195	0xbf58816a	-0.8457247
196	0x3a7618b5	0.0009387837
197	0xbf592c94	-0.84833646
198	0x3edd5e26	0.43235892
199	0xbe01e485	-0.1268483
200	0x404ae4d8	3.1702175
201	0x3fc9bb76	1.5760334
202	0x3da3ce54	0.07998338
203	0xbb265dd0	-0.0025385506
204	0xbf14b730	-0.5809202
205	0x3de70469	0.11280138
206	0x3da1e463	0.079048894
207	0x3db248c7	0.087052874
208	0x3d810290	0.06299317
209	0x3e587e85	0.21142013
210	0xbdfdb74d	-0.123884775
211	0x3e2584d7	0.16163956
212	0xbd7e7e03	-0.062131893
213	0x3e5aa84e	0.21353266
214	0x3db0691c	0.08613798
215	0xbcbf528a	-0.023354787
216	0xbe58cb21	-0.21171238
217	0x3df5317d	0.1197233
218	0xbdb6ae89	-0.08920009
219	0xbdc2a287	-0.09503656
220	0x3df0997a	0.11748023
221	0xbe6a3696	-0.22872385
222	0x3e42696c	0.18985528
223	0x3e682370	0.22669768
224	0x3d76597f	0.060143944
225	0xbf8df44c	-1.1090178
226	0xbd47c340	-0.04877019
227	0xbf878719	-1.0588104
228	0xbe30c27b	-0.17261688
229	0xbf5a918a	-0.85378325
230	0x3f83ab49	1.0286647
231	0x406bb1cb	3.6827266
232	0x409285d5	4.578837
233	0x3fc631ba	1.5483925
234	0xbc76273b	-0.015024002
235	0x3d302890	0.043007433
236	0x3eb4ecf3	0.35337028
237	0x4080ccdd	4.0250077
238	0xbc22f31f	-0.00994566
239	0x3b281d72	0.0025652316
240	0x3e8fbb25	0.28072467
241	0x3ebc3d96	0.36765736
242	0xbe04ba88	-0.12961781
243	0x3e87b920	0.26508427
244	0xbe83eb29	-0.2576535
245	0xbf86f1ac	-1.0542502
246	0x3f184fa0	0.594965
247	0xbfc9fb3e	-1.5779798
248	0xc0943b3b	-4.6322303
249	0x40ffc2f9	7.9925504
250	0x3d901bbd	0.07036541
251	0xbe4c1690	-0.19930482
252	0xbe6bb579	-0.23018445
253	0x3f1bf553	0.6092121
254	0xbf9594a1	-1.1685983
255	0x3fa53a91	1.2908498
