fw_flightcontrol/models/icinco/sac/actreg/actvar/sac_bohn_actvarR1_nohist_noatmo_1_03-06_14:48:07.pt (torch, 853691 bytes, 20 tensors)

action_scale f4 [1, 2]
00000000: 0000 803f 0000 803f
1.0 1.0

action_bias f4 [1, 2]
00000000: 0000 0000 0000 0000
0.0 0.0

fc1.weight f4 [256, 14]
00000000: d203 0d3e bd96 f1bd 7738 54bd 6d74 003e
00000010: f9d2 80be c020 243e 3a35 61bd 123b 0b3e
00000020: a32e 183d 340a 06bd 54d0 973d b103 583c
00000030: 73e8 c73d a14d d5bd bad0 34bf c931 9c3e
00000040: 777d 77bc 1cc3 8c3d 0e02 253e 41a4 0b3d
00000050: e974 55c0 5876 3bbf dfad c6be 19f7 6dc0
00000060: f532 723c 0be3 21be 2e72 623e 9bff 0a3f
00000070: 1676 b9bf 2726 5c40 e187 14bd 4c09 1a3f
00000080: 355f fe3d 104b cb3e 91f6 9bbf 697f 623f
00000090: 444c 7fbf d129 c4be 0ebf b03c 6357 22be
000000a0: c1a1 0d3b 85e9 e4be 6d3c 4d3e ca68 4f3b
000000b0: 522d 10be 5cac 0c3e c045 11be 7ffa a03d
000000c0: 320d 9ebd b408 f0bc df8d 83be c57b 02be
000000d0: 7181 143e 710c 85bd 144c 883e 0860 5b3e
000000e0: 53c6 85be b4b0 6abf 929a a7bc e583 55be
000000f0: ac18 58be 84ba 773e 2fc4 b33f 40e8 323e
00000100: 285b d8bf 4ac6 1dc0 734a 09bf 9b09 043f
00000110: 56b4 77be fab5 06bf fca7 a93e 730e 963f
00000120: a8c2 90bb bda5 c1be 851a 5fbf ce0e f9be
00000130: 7290 cc3f e898 e03f 7df5 c83f e0c4 1240
00000140: 7d17 2cbf 4ecb e53f ecd0 e63e 5d38 dc3e
00000150: 78bc 203e c87e 1ebe e74a 73be 282c 473e
00000160: 0c53 22bd 46ee 193e 04f7 af3d f638 4dbe
00000170: 7cec 5b3d cb78 833d e73d 37be f8d9 01be
00000180: 24a2 ba3d f915 443d 3fee 0f3f 74b7 193f
00000190: e349 13bd e31a bf3e 177a a83d 9b6f 5938
000001a0: d840 22c0 657b 09c0 29a4 1f3f 4a27 0c40
000001b0: e55f e63e f115 88be 531f 843e b9ad eb3e
000001c0: cb94 4540 7141 303f ef7e 4dbc 4e71 563f
000001d0: 3369 6a3d 1026 0c3f 5044 87bf 71c2 62bf
000001e0: 8b53 82bf 5392 bf3f 0627 663e 2ef5 963d
000001f0: c5b1 653d 8c01 8ebe d4e7 86bf 8508 7ebf
00000200: e1ca 89ba 66a9 213f 0b7b 56be c922 fe3e
00000210: 6307 1b40 59d9 4740 599b 2f3f fa75 9240
00000220: dbbb 673e edd1 e93e 58fe 5c3f 85ee 073d
00000230: b9ce fabd 77f2 febc 01c0 27be 1940 c83d
00000240: 0266 a93d 12e1 77bd 8b5e d23d 3fe5 b03d
00000250: ed16 273e 174e 383e a65c b9bd a9b1 853e
00000260: af1c fdbc 3670 16bc 8f28 81be 5924 30be
00000270: d7e1 1fbe 551d eabd 3093 423e 2bdd b2bd
00000280: 3783 4cbe df97 d23d c13e af3d cf41 313e
00000290: 949e 0dbe 0a59 6d3d 7343 c7bd adf3 75bd
000002a0: d818 5abe 1376 f9bd 67a1 a7bd 0e11 ea3d
000002b0: 91fd 473d 6734 873d 1794 883e a75d 853e
000002c0: dba8 3a3e d06f 0b3c 8d53 3dbe 4be1 553e
000002d0: 5adf 88bd ce00 b1bc 6bc5 6bbe 263c 58bd
000002e0: 7284 30be 687b 7b3e 2699 6cbe 4953 55be
000002f0: 26b0 14bc 07fb 13be 3dd9 c33d 7eb0 d2bd
00000300: c08a 00be 6001 783c f61c 463e 8582 40be
00000310: dbde db3e 4def 1c40 4352 cebc a4ef eabf
00000320: 7777 1f3e 984d cfbf 1f68 2f40 eb31 04bf
00000330: ebb9 a0bf b423 a53f 80c7 e63d c64c 4abe
00000340: bf94 093d e313 0c3f 7591 2f3d dcf8 a63d
00000350: 892d 76be 0362 473e 9a9b 6e3e c538 623e
00000360: a04e 4a3e 2b7e 45be 2ce7 cabd 7f4e 713e
00000370: 8272 50be c348 783e a53e 57be 84c7 40be
00000380: 3b86 ea3d 2b8b 3bbe 91ca b8bd dc66 313e
00000390: 48a0 433e 4d12 753e 63f5 20bd 73c1 63be
000003a0: bfb7 833e a6fa 5cbd 14af fcbd 6152 8c3d
000003b0: 9e18 24be 1c8e 173e 7a85 2b3e 0828 59be
000003c0: 1dca 60be b1c8 bfbc c0e6 e53d a7a3 fdbb
000003d0: 54c6 0abe 6e38 c83b 439e 80be 556c 41be
000003e0: d12e 36be 4d61 613e 1f3f 713e bcea b9bd
000003f0: 8f2e 133f fc56 023f 01d9 eebc 43a9 56bf
0.13770989 -0.11796329 -0.05181166 0.12544413 -0.2516096 0.16028118 -0.0549824 0.13596752
0.03715385 -0.032724574 0.07412782 0.013184474 0.09761133 -0.10415197 -0.7063099 0.30506733
-0.015105597 0.06873152 0.16114065 0.03409219 -3.3352606 -0.73227453 -0.38804528 -3.7182066
0.014782657 -0.15809266 0.22113869 0.54296273 -1.4489162 3.4398286 -0.036262397 0.60170436
0.12420503 0.39705706 -1.2184621 0.8847566 -0.9972575 -0.38313153 0.021575477 -0.15853648
0.0021611305 -0.4470941 0.20042582 0.0031648153 -0.14079788 0.13737625 -0.14186764 0.07860278
-0.077173606 -0.029301025 -0.25694177 -0.12742527 0.14502503 -0.06496514 0.26620543 0.21423352
-0.26127872 -0.9167588 -0.020459447 -0.20851095 -0.21103162 0.24192244 1.4044245 0.17471409
-1.6902819 -2.4652276 -0.53629225 0.51577157 -0.24189886 -0.52621424 0.33135974 1.172316
-0.004417736 -0.3782176 -0.8714984 -0.48644108 1.5981581 1.7546663 1.5699917 2.2932663
-0.6722334 1.7952669 0.4508127 0.43011752 0.15696895 -0.1547805 -0.23759042 0.19450438
-0.03962998 0.150323 0.08592036 -0.2004126 0.053692326 0.06419524 -0.17894708 -0.12680805
0.09112957 0.047872517 0.5622291 0.6004555 -0.035959136 0.373252 0.08226412 5.1840772e-05
-2.5352077 -2.1481564 0.62359864 2.189898 0.44995037 -0.2657924 0.25805148 0.46030977
3.0872066 0.68849856 -0.01254247 0.8376664 0.057229232 0.5474558 -1.0567722 -0.88577944
-1.0181745 1.496653 0.22475824 0.07370983 0.056077737 -0.27735555 -1.0539498 -0.9923175
-0.0010512733 0.63149107 -0.20945375 0.49635914 2.4223258 3.1226408 0.68596417 4.5769014
0.22630255 0.45667973 0.863256 0.033186454 -0.122464605 -0.031121476 -0.16381837 0.09777851
0.082714096 -0.06051738 0.10271939 0.08637475 0.16317339 0.17998539 -0.090508744 0.26112106
-0.030897466 -0.009182027 -0.25226256 -0.17201366 -0.15613495 -0.11431376 0.1900146 -0.08733591
-0.1997193 0.10282873 0.08556891 0.1731026 -0.13830024 0.057946242 -0.09729662 -0.06004684
-0.2129854 -0.12180724 -0.08185082 0.11429034 0.048825804 0.06601792 0.26675484 0.26048014
0.18228476 0.008510545 -0.18488903 0.20886724 -0.06683226 -0.021606829 -0.23024528 -0.052791737
-0.17238024 0.24558794 -0.23105296 -0.20832552 -0.0090752 -0.14451228 0.09562919 -0.102875695
-0.12552929 0.015137047 0.19346985 -0.18799789 0.42943463 2.4521058 -0.02518571 -1.8354383
0.15572916 -1.6195555 2.74073 -0.5163867 -1.2556738 1.2901521 0.1126852 -0.19755849
0.03358912 0.54717845 0.042863328 0.08152935 -0.24040808 0.19470982 0.23301545 0.22091968
0.19756556 -0.1928641 -0.09907374 0.235651 -0.20356181 0.24246506 -0.2101999 -0.18826109
0.11451384 -0.18314807 -0.090230115 0.17324394 0.19104111 0.23932762 -0.03929652 -0.22241764
0.25726125 -0.053949974 -0.12338081 0.0685165 -0.16025016 0.14800304 0.16750136 -0.21206677
-0.219521 -0.023411127 0.11225653 -0.007740456 -0.13552219 0.0061102426 -0.25120744 -0.18888982
-0.17791297 0.22009774 0.23559235 -0.09077975 0.5749292 0.5091398 -0.02915621 -0.8385202

fc1.bias f4 [256]
00000000: 2010 54be d514 263e f8c2 e03e 2141 703d
00000010: 3743 0a3f 9543 273d 21b3 babc ce12 063f
00000020: f80b 71be 9580 67bf 9ffc 5b3d 5631 9b3d
00000030: 37df b6bd e3bd f53c 5429 843e d9c6 83bc
00000040: 0cbf cebd 60da 78be 2f2b 08bf 060d d5bf
00000050: a0a7 f9be 47a4 59be 79f2 f5bd 8f3d 673e
00000060: 5fe0 673e 5b09 363e 6aff e2bb 1beb 1abe
00000070: 1f1b 2c3e ca40 973f c525 7ebe c0a1 8a3c
00000080: 8fe6 45bd d822 87bf 8cff 6e3e f47b d0be
00000090: 6021 953d b628 25be 4501 b6bd 1cbc 063e
000000a0: 2db7 0a3f c5f7 123f 45a7 4ebc 9476 403d
000000b0: 6fbd 1dbe 72a0 9c3d 826b 8d3d 2fa9 20be
000000c0: 8c28 513d dbf8 f1bd a307 083d 4922 88be
000000d0: 46d4 3cbe e759 473e dd36 033d 8dbd c53c
000000e0: d82a d2bd 682b 18be c4cf 443e 2bf5 3abe
000000f0: e9f5 453e 5403 1dbe 596c 603e 148f 4d3e
00000100: 926e fd3e 812c 0f3f 9d66 973e 76ae 11be
00000110: daf3 1ebe 9b8b 4a3e 1adf c23e 7b1c b03f
00000120: 03a7 f9be 0215 d23c a00a 733e 6b05 0ebf
00000130: e220 9ebc 13d7 793e 36cc 3abf d659 c83e
00000140: 6b95 15bf 9020 ae3e 0a27 86be da56 b83d
00000150: e750 46be 7ad8 55bf a65b d1bd 24cf ec3d
00000160: ddc7 d03d 1116 61be 37e7 0f3e 5738 8bbd
00000170: a358 5dbd 4265 24bf 1e39 833e 268e 803e
00000180: 29d9 28be a588 0a3e dd15 72bf db83 88bf
00000190: 30b5 0cbd a27f 843e 14d3 a0be cb8b 633d
000001a0: 34b7 973d 6050 703e a19e 1bbc 11d0 8e3d
000001b0: 438b aebf 005e 2f3d b94f 6e3e 24e4 3b3f
000001c0: 6f98 763e a02c debf febb ffbe 100f d93e
000001d0: 3238 7bbd 3962 d43c 1736 f03d ff24 a63e
000001e0: c4d9 4cbe a013 d3be 70fe f0bc ba69 813f
000001f0: 5270 f43e c2a8 373d a859 353e 3b4e 133f
00000200: 231a 18bf 1ad3 853d bca9 0e3e 1bf6 84bf
00000210: a178 63be c96c a1bd 4a40 0ebe 5045 a7bd
00000220: 5d9a 99bd 8e7e 7abe 9c67 62bc 0dc8 f7bd
00000230: 0201 32bd b2c1 c338 df25 42be 9c36 aa3e
00000240: b2c1 923f 1f37 653e 3943 3bbe e3a2 67bd
00000250: 693d 1ebe 7a84 5bbf 514d 0fbf 5b86 663d
00000260: b3b9 88bd 00b9 4f3e a483 1e3f 7dd4 9dbc
00000270: 912d a2bf 7999 3b3e 2bc8 133e f983 1bbf
00000280: f083 063f 3924 683e a1e1 013e e12b 923d
00000290: 7a6e 9bbe dc6d 03be 6ac8 55bf 651e 0a3c
000002a0: 070a babc 0357 13bf f513 8ebd 5762 24bf
000002b0: 34e7 3c3f 749c dabd 933d b6bd b13b 793e
000002c0: 669f af3e 6de1 473e c405 493f 84cc 33be
000002d0: 5fa4 94bd 1cb7 48be f176 6ebe 5ccc 0e3e
000002e0: 2e96 7f3e be6d 80bf d34c 223e f879 f8bd
000002f0: 0ad2 503e 66d3 683d 1870 93bf 9931 043f
00000300: 6c19 38bf 79ee 71bf 5f22 0abe 0478 ba3d
00000310: de26 3bbf 4f10 d5bf f841 23be ffd4 9f3e
00000320: f76a 5c3e 857d 7cbd 0d6a 5ebe 7c11 ba3d
00000330: 3397 27bd 13c7 fcbe c650 adbc 3f91 d0bf
00000340: fadb 33bf 7d50 0fbf 4343 d33c c33f 0abe
00000350: 48b9 a23d cf6f 9b3d e25b 023f 9663 debc
00000360: d9d1 6abf 5e33 d4bd b5a7 96be 26c2 813d
00000370: cec8 f9bd 79f2 4fbf d4e2 72bd 5ee7 f0bd
00000380: f093 96bf 55fe ab3e 7255 a4bf 82bf 873e
00000390: d0fb 623e de9f 22be 83b6 f23d 4527 933d
000003a0: 7bb9 df3c e6bc bdbf aac2 31be 8983 a13d
000003b0: bb57 72bf 8767 c4be e7f2 14bf 7a53 e4be
000003c0: e50b 83be c6ad 2b3c b166 bfbe b551 9cbe
000003d0: 30f6 0a3f d995 92bf f849 f1bd e97c 6dbd
000003e0: 0ddb 843e b236 c43d fe45 53be 3425 cfbe
000003f0: fddf 4d3e 2d87 83be c1dd 393f dfa6 0ebf
-0.20709276 0.16218884 0.4389875 0.05865586 0.5400881 0.040835936 -0.022790493 0.52372444
-0.23539722 -0.90430576 0.053707715 0.075777695 -0.089292936 0.029997772 0.2581278 -0.016086029
-0.10095033 -0.24302053 -0.5319089 -1.66446 -0.487607 -0.21254073 -0.120091386 0.22582076
0.22644185 0.17777006 -0.0069274204 -0.15128748 0.16807221 1.1816647 -0.24819095 0.016922832
-0.04831558 -1.0557508 0.23339671 -0.4071957 0.072817564 -0.16128811 -0.08886961 0.13157696
0.54185754 0.57409316 -0.012613122 0.046988085 -0.15404294 0.0764779 0.06905271 -0.15689538
0.05106406 -0.118150435 0.033210408 -0.26588657 -0.18440351 0.19467889 0.032034744 0.024138236
-0.10262078 -0.14860308 0.19219881 -0.18257587 0.19332089 -0.15333301 0.21916331 0.20074111
0.4949842 0.5592728 0.29570475 -0.14226708 -0.1552271 0.19779818 0.38060838 1.3758692
-0.48760232 0.025644783 0.23734522 -0.5547702 -0.01930279 0.2439845 -0.7296785 0.3913104
-0.5843112 0.34009218 -0.2620166 0.090009406 -0.193668 -0.8353344 -0.10222559 0.115629464
0.10194371 -0.21981074 0.14053045 -0.06797855 -0.05403961 -0.6421701 0.25629514 0.2510845
-0.1648909 0.13528688 -0.9456461 -1.0665239 -0.03435248 0.25878626 -0.3141104 0.05555324
0.0740799 0.2346816 -0.009498269 0.06973279 -1.3636249 0.042814255 0.232726 0.7339499
0.24081586 -1.7357368 -0.49948114 0.42394304 -0.06133289 0.025925742 0.11729067 0.324501
-0.20004946 -0.4122591 -0.0294182 1.011039 0.47741944 0.044838674 0.17709982 0.57541245
-0.5941488 0.06534405 0.13931936 -1.0387605 -0.22213985 -0.07882077 -0.13891712 -0.08167517
-0.075001456 -0.2446234 -0.013818648 -0.120987035 -0.043457992 9.334403e-05 -0.18959759 0.3324479
1.1465361 0.22384308 -0.18287362 -0.056551825 -0.15453114 -0.8574902 -0.5597735 0.056280475
-0.06676044 0.20285416 0.6191962 -0.019266361 -1.2670156 0.18320264 0.14431827 -0.6074825
0.5254507 0.22670068 0.12683727 0.071372755 -0.30357724 -0.12834877 -0.8350893 0.008430098
-0.02270986 -0.57554644 -0.069374 -0.64212555 0.7379029 -0.10674372 -0.08898463 0.24339177
0.343013 0.19519587 0.7852442 -0.17558485 -0.07257914 -0.196011 -0.2328756 0.13945144
0.24959633 -1.0033491 0.15849619 -0.12132639 0.20392624 0.05684223 -1.1518583 0.5163818
-0.7191379 -0.94504505 -0.13489674 0.091049224 -0.7310618 -1.6645602 -0.15943134 0.3121719
0.21525179 -0.061643142 -0.21720143 0.09085366 -0.04091568 -0.49370632 -0.02115668 -1.6294326
-0.7025753 -0.5598219 0.025788909 -0.13500886 0.07945496 0.07589685 0.5092145 -0.027147096
-0.9172645 -0.1036136 -0.29424825 0.06335859 -0.121965036 -0.8122936 -0.05929835 -0.1176288
-1.1763897 0.33592477 -1.2838576 0.26513296 0.22166371 -0.15881297 0.118512176 0.071852244
0.027310124 -1.4823272 -0.17359415 0.078864165 -0.94665116 -0.38360235 -0.5818314 -0.44594938
-0.25595012 0.010478443 -0.37383035 -0.30531088 0.542819 -1.145198 -0.117816865 -0.05798045
0.25948372 0.09580745 -0.20632169 -0.4045807 0.20104976 -0.25689068 0.72603995 -0.55723375

fc2.weight f4 [256, 256]
00000000: 2616 41bd 894d e63d 4da3 12bf a652 7dbd
00000010: 9aea 213e 4193 133e b8ea 53bc 7210 c43d
00000020: df58 22bf e57a d4be c0f0 04bc 84c7 5fbd
00000030: 80e2 eb3a c640 78bd 83dc 54bd 944a d13c
00000040: 3ea3 7ebd a04d 403b 382a 22bd 8753 85bd
00000050: b9a8 9ebe 503e 5fbc 9afc 313d 2f60 8a3c
00000060: 9dab 34bd 6e82 28bd 88c3 0b3d c026 b93b
00000070: 103c 83bd 0849 033e 1988 1fbf 9877 e3bc
00000080: 6085 253d 4618 a4be 441e 9bbe 52dd 8ebd
00000090: 4556 edbe a03b 723b e4d0 61bd 3c60 5e3d
000000a0: a315 dc3c d399 1e3e 8015 973c a454 89bc
000000b0: ceb6 2ebf d43f 07be 000e c93c 6cf5 a5bc
000000c0: 30bf 5bbe 00c3 14bb 5441 4a3d 86b3 0bbd
000000d0: 958d a9bd 003a fdbc a606 56bd 4879 c53c
000000e0: 1041 13bc c764 0d3d 8cae 793d 007f 223c
000000f0: e281 473d a859 253c 90e8 d9bb 4b2b 6f3d
00000100: c758 54bf 380c 4fbf 9064 f1be 640b f9bc
00000110: 808e a3bb edfe b2be 515a 95bf 3bcd ec3e
00000120: 3a4b 1dbd 8eab 5abd 7460 cd3c 5366 23bd
00000130: 7f27 5abe 6188 b8bf b317 cdbe 2bef ebbe
00000140: a7f9 9fbe 851d a13e 3c1d fc3c e4b5 9dbc
00000150: 986c 52bd dd3c 243d 6060 de3c 03ba 07be
00000160: f03f 09be b6a2 7c3d e624 163d 968e 283d
00000170: dda9 8fbe 89ac a03d a339 febd 80ad ebbb
00000180: 30fc f53c cd53 4bbe c2f0 c33d b6c4 803d
00000190: 488c 89bd b865 223e fe42 923d c02d b7bc
000001a0: 24cc a1bc 63c8 46be 4416 ed3c 286a 26bc
000001b0: 2cda ad3d a1c7 0bbd 2468 aabc c530 293e
000001c0: 6cf7 9fbc 1969 223e 2e62 5c3e 89ee c9be
000001d0: e932 0e3e 4e31 443d c1ff 9d3e 2a81 42be
000001e0: ed6c 933e 0928 ef3d a42a 0ebe ceb8 133e
000001f0: dddf 443d 70b1 c63e 80c9 6c3c d7d0 aebe
00000200: 2fcb 9fbe 248f 82bd ec2a ae3c ba8c 95be
00000210: 1b96 bebe 9d16 9cbe 8677 b6bd aaaf 2d3d
00000220: a041 55bd 4430 d43c c0dc 553b f5bc fd3c
00000230: a0e7 0ebd e6af dc3b 3003 a63c 0454 aebe
00000240: cca9 40be 2566 2a3e 10b6 483c 1ab6 1fbd
00000250: ac63 4d3d 9adc a5be c3e3 10bf 9949 103e
00000260: 6408 3abd 206e a23b c5e6 08bf 60b1 2bbb
00000270: ddc0 d2be ec05 903c bc02 06bf cdf7 f1be
00000280: ceff 09bf c377 bd3c 360c 4dbd b028 a7bb
00000290: 35b1 a4be b8d5 0fbd faac 88bf f4e9 e7bc
000002a0: 67aa 93be eebd e2be 6818 13bc f1da 3a3d
000002b0: 68ec f43d 6053 753d faca 09bd a09a afbc
000002c0: 8e19 f3bd c0e3 f0bc af2e 13bf 8219 42bd
000002d0: 548f 66bd 2a18 653d 2507 1a3e 7c67 fcbc
000002e0: 78d5 bf3c 63d1 a33e f082 fabc 4ca9 273d
000002f0: 7273 26bd 364f 33bd e221 28be adda fabe
00000300: 47d1 31be e91b 22bf d013 d7bc 5f54 c4be
00000310: 08f5 d4be ad56 08bf 5c7c 273d 12db 04be
00000320: 9965 0abe 18a4 89be ba91 483d 40e6 52bb
00000330: 427b 6f3c 989f 833c d099 703c 5806 ccbe
00000340: c1a5 7b3e c302 86bf bea8 95bf 3c2c 603d
00000350: 049f cabe c0bd 433d 5025 973d 0c83 2f3d
00000360: 9713 a7be 2a19 21bd 1098 e4bb 6c41 7fbd
00000370: 46a0 623d a0ea c3bd 9214 273d 98c6 a23c
00000380: b123 45bf d0d1 02c0 e6be 303c 7478 c5bc
00000390: e8e9 6fbc 9ee1 0cbd 18be 28bc addb c23c
000003a0: c439 043d 1ee5 06be aa9b 263d b8d6 503c
000003b0: 294a 55be 82f6 07bf 71f6 21bf 77ed b4be
000003c0: a8b8 6a3c 2a87 5d3d ea26 96bc dae8 a9be
000003d0: a69c 2abf dabb 963d 0457 1c3d e2ad 36bf
000003e0: 4005 033c 6848 f6bc 0cb9 13bd e115 21bf
000003f0: 60a5 403b 98d2 053c e87f 39bd ea10 60bf
-0.047140263 0.112452574 -0.5728043 -0.061846398 0.1581215 0.14411642 -0.012934379 0.09573449
-0.63416857 -0.4150001 -0.00811404 -0.054633632 0.0017996579 -0.060608648 -0.05196811 0.025548257
-0.0621674 0.0029343143 -0.039591044 -0.06510072 -0.309881 -0.013625696 0.04345379 0.016891567
-0.044108976 -0.041140012 0.03412202 0.0056503713 -0.064079404 0.12820828 -0.62317044 -0.027766988
0.0404104 -0.3204977 -0.30296528 -0.06975807 -0.4635488 0.0036961809 -0.055130854 0.054290995
0.026865786 0.15488367 0.01844287 -0.016763993 -0.6824769 -0.13207942 0.024542809 -0.020258628
-0.21459651 -0.0022699237 0.049378708 -0.034106754 -0.08278958 -0.030911446 -0.052252434 0.024105683
-0.00898768 0.034519937 0.060957476 0.0099179745 0.04870785 0.0100921765 -0.006650038 0.058390897
-0.82947963 -0.8087802 -0.47147036 -0.03040094 -0.0049913526 -0.34960118 -1.1668187 0.46250328
-0.03840182 -0.053386264 0.025070406 -0.039892506 -0.21304129 -1.441662 -0.40057144 -0.46080908
-0.31245157 0.31467834 0.030775659 -0.019251771 -0.051373094 0.040097106 0.027145565 -0.13254552
-0.13403296 0.06167861 0.036656283 0.041151606 -0.28059283 0.078454085 -0.12413337 -0.0071923137
0.030027479 -0.19856186 0.09567405 0.0628752 -0.0671621 0.15859115 0.07141684 -0.022360682
-0.019750662 -0.19412379 0.028941281 -0.010157146 0.084888786 -0.034125928 -0.020801611 0.1652251
-0.01952716 0.15860404 0.21521828 -0.394398 0.13886608 0.047898583 0.30859187 -0.18994585
0.2879404 0.11677558 -0.13883454 0.14425966 0.048065055 0.3880725 0.014452338 -0.34143707
-0.31209704 -0.06374958 0.021260701 -0.29208928 -0.37223896 -0.30486003 -0.08909516 0.042403854
-0.052064538 0.025901921 0.0032632798 0.03097389 -0.034888864 0.006734836 0.020265192 -0.34048474
-0.18814772 0.16640528 0.012250438 -0.038992025 0.050143883 -0.32394868 -0.56597537 0.14090575
-0.04541816 0.0049569756 -0.53477126 -0.0026198253 -0.41162768 0.017580949 -0.5234792 -0.4725937
-0.5390595 0.023128396 -0.050060473 -0.005101286 -0.32166448 -0.035115927 -1.0677788 -0.0283098
-0.28840944 -0.4428553 -0.008977987 0.045618955 0.119591534 0.059893966 -0.03364084 -0.021436036
-0.118701085 -0.029405475 -0.5749311 -0.047387607 -0.056289032 0.055931248 0.15041788 -0.030811064
0.02341722 0.31995687 -0.030580014 0.04093294 -0.04063744 -0.043776713 -0.16419175 -0.4899496
-0.17364989 -0.6332384 -0.026254565 -0.3834562 -0.41593194 -0.53257257 0.040890083 -0.12974194
-0.13515319 -0.26883006 0.0489671 -0.0032180697 0.014616789 0.016067311 0.014685109 -0.3984859
0.24574949 -1.0469593 -1.1692121 0.054729685 -0.39574444 0.04778838 0.07380164 0.042849585
-0.32632133 -0.03933064 -0.006976135 -0.06231825 0.05532863 -0.095662355 0.0407911 0.019870088
-0.77007586 -2.044056 0.010787701 -0.024105288 -0.01464317 -0.034394853 -0.010299228 0.02378639
0.032281652 -0.13173339 0.040675797 0.012746505 -0.20829071 -0.53110516 -0.63266665 -0.3533742
0.014326252 0.05408398 -0.018329103 -0.33185464 -0.66645277 0.073600486 0.038168922 -0.71359074
0.007996857 -0.030063823 -0.036065146 -0.6292401 0.0029395446 0.008167885 -0.045287997 -0.8752581

fc2.bias f4 [256]
00000000: 831c ec3d a1ff 813e 51ab c2bd 32a7 8abe
00000010: 1fb9 12be ee43 e5be a44e 52bd 4916 08be
00000020: c3ed cdbd b4c9 453e 1f39 583c a19b 1a3e
00000030: 8700 8b3c c073 92bd 3492 e1be 0fde 23bd
00000040: 8d36 4dbc a234 233e 99c0 36be 61c9 66be
00000050: 3148 54be 0fc6 d43e 7c4d 7fbc c280 443c
00000060: bcf1 00be 2358 3bbd 6e00 6e3b 0363 9abe
00000070: aa8c 233c cb18 0e3d 1ea0 80be 15de c83c
00000080: f004 42bd f419 a33d 4904 c2bd 6b86 2f3e
00000090: 114e cfbe 4e72 4ebd a1b8 403e 3ede 99bb
000000a0: eefd 67be 5955 27bf 9388 48bd 9b66 bc3c
000000b0: 14a1 93bd 5876 cfbd 59d2 3fbe d718 76bc
000000c0: 75bf 40be 09f9 433e 9ebb 6dbf 042b 023f
000000d0: c449 80bd 995f 3abe 35c0 c1bc b5c1 f9ba
000000e0: 761a abbd 7d67 a3bd 2e63 533e 723f df3c
000000f0: c5d0 21be d954 9bbc d5b5 35bc ef69 97bd
00000100: 8f2e 143d 4d73 04bb d3e3 093f d733 e0bd
00000110: 6edc a2be 0441 053f 94ee d6bc 21d3 6bbd
00000120: 9b1b 7abd 7f46 463d a37d 03be 36d2 e3bd
00000130: 3df5 df39 daec 50bd e8f0 cdbe 621a 6ebd
00000140: 3c86 1cbd 20a1 ffbe 7557 b4bd 1f9f c73c
00000150: 6525 413e ab11 69bc c993 c9bd 4381 b9bc
00000160: 9b0c 02be aa3d 273e cd31 e9be 189f 463b
00000170: 9f6b 583f 97ed 80bd 5405 e13c 6cd3 6abd
00000180: 0235 dabd 8832 153d 172a 8a3e 18da a33c
00000190: 66ad 3e3e c30a 033d 901d 7b3c 69fd 4fbe
000001a0: 7605 29be 2073 0b3c 507d 683d 75c3 5ebf
000001b0: 4ec5 7dbc 84a9 cdbe 02ce e53a cbe6 83bd
000001c0: 86cf 87be 9e5b bfbd 3a8b bf3c ec02 103d
000001d0: f639 1abe 1b65 72bd 0698 363f 3707 07bf
000001e0: 3fb8 e9bc 517c 20bf d64a 123e 1b60 443e
000001f0: 25f5 a8bd 1f29 f2bd fb30 c0bd 7ca0 83bd
00000200: 4ebb a6bd e300 06bd eb4a 0dbd b25c 1ebe
00000210: 953d 6abd 7453 8f3b b15f a9bc 1a51 e43c
00000220: 9f69 2d3e c9c8 c9bc 1caa dfbe b0d3 e1be
00000230: 265a 22be 9a6d 7fbf b332 82be d853 bcbc
00000240: 3651 a8bc 564a a4be 0c14 c8bc c894 9dbc
00000250: 453a 6dbe f9e8 25bd 44b8 b8bd b17e 5ebe
00000260: e608 a3bd 3afb 11bc 8a50 71bd 902d fcbc
00000270: 2d43 8a3c 3afd 793e 4c94 e6bc d3d8 643e
00000280: abe1 1d3d 2ff6 763c 2413 84be 22fb 5fbe
00000290: 892e 913e db14 523e 4544 8c3e 4fd9 b9bd
000002a0: 903d 8abd e622 f9bc 8b11 2cbb 4e13 eabc
000002b0: e480 b2be ad0e 763e 1a09 853c 66fb 833c
000002c0: d8d2 b4bd 7d31 40be b092 45be 2552 d2bc
000002d0: 4142 28bd ddd7 88bd 9cf9 62bd ee72 28be
000002e0: 1b36 063e f1be 25be 97fd 42bd 637b 7bbf
000002f0: d889 41bc 2be3 1cbd 65c6 2f3e 01d6 b73e
00000300: d185 1ebf 6bbe 6c3e c4dc f33b 24c3 143c
00000310: 6d3b 1cbd 1a7f 803c cf65 2bbe d3dc 333d
00000320: 2f53 36be dd57 83bd a11d 253e 4359 51bd
00000330: ccf6 f9be faca 00bd ef82 7ebf 50cc 8dbe
00000340: b4c6 90bc fe90 bdba bc3f bbbd 98e1 53bc
00000350: 9ceb ecbc 35a8 1ebd 4160 ca3e 479a 8cbc
00000360: fee9 98bc d1a7 c9bd e6dc c9bd f0eb 26be
00000370: 2ed0 8e3c 3532 0c3d d1a2 2e3e 5f3e ebbc
00000380: 0f92 2fbd 98e1 e8bb 4cce 23bd 9d24 c5bc
00000390: 8c67 92be 5c17 0abe b36c 1cbc 9c0f a8bd
000003a0: 5757 93be c6e0 1dbd dc70 88bd 1f22 d83c
000003b0: 1de3 b7bc a3f6 a1bd 327c 453c 2b3c 9e3d
000003c0: d827 80bc 77ec 1d3b a038 d5bc c5e5 dd3b
000003d0: 9cb1 98be 3d4e aabd e494 b23e 22a1 a63d
000003e0: ff44 8bbd 9d9b 46bd 4750 3dbd ec09 09bf
000003f0: 3bf5 41bd 9d39 e33c d73a d53e 1969 1eba
0.11528876 0.25390342 -0.09505332 -0.27080685 -0.1432843 -0.4477839 -0.05134453 -0.13289751
-0.10055115 0.19315225 0.0131972125 0.1509843 0.016968025 -0.07150984 -0.44056857 -0.040006693
-0.012525213 0.15938047 -0.17846908 -0.22537757 -0.20730664 0.41557357 -0.015582439 0.011993589
-0.12592214 -0.04573835 0.0036316174 -0.30153665 0.009982267 0.034691613 -0.2512216 0.02451996
-0.04736799 0.079639345 -0.094734736 0.1714112 -0.40489247 -0.05040198 0.1882043 -0.004695683
-0.2265546 -0.65364605 -0.048958372 0.022998145 -0.072084576 -0.10129994 -0.18732585 -0.015020571
-0.18823035 0.19137968 -0.92864406 0.50846887 -0.0626407 -0.1820053 -0.023651222 -0.0019054922
-0.083546564 -0.07978723 0.20643303 0.027251933 -0.15802296 -0.018961357 -0.011090715 -0.07393252
0.036177214 -0.0020210326 0.5386326 -0.10947388 -0.318088 0.5205233 -0.02623681 -0.057574395
-0.061061483 0.048407074 -0.12840895 -0.11124079 0.0004271659 -0.05100713 -0.4022286 -0.05813063
-0.038213953 -0.49927616 -0.088057436 0.024367867 0.18861921 -0.014225404 -0.09842641 -0.022644645
-0.12700121 0.16332117 -0.45545807 0.003030723 0.84539217 -0.06295317 0.027468361 -0.057330534
-0.10654642 0.036425143 0.26985237 0.020001456 0.18620834 0.031992685 0.0153268725 -0.20311512
-0.1650599 0.008511335 0.056760132 -0.87016994 -0.015488936 -0.40168393 0.0017532709 -0.06440505
-0.26525515 -0.093436465 0.023381818 0.035159037 -0.15061173 -0.059178453 0.7132572 -0.52745384
-0.028530238 -0.6268969 0.1428636 0.19177286 -0.082498826 -0.118242495 -0.09384342 -0.06427094
-0.08141194 -0.03271569 -0.034495275 -0.15465048 -0.057187635 0.004373962 -0.020675512 0.027870703
0.16934822 -0.024631875 -0.4368447 -0.44106817 -0.15854701 -0.99776614 -0.25429305 -0.022989199
-0.020546537 -0.32087964 -0.024423622 -0.019235983 -0.2316676 -0.040505383 -0.09019521 -0.21728016
-0.079606816 -0.008909995 -0.0589147 -0.030783445 0.016877735 0.24413005 -0.028146885 0.22348337
0.038545292 0.015073343 -0.25795853 -0.21873143 0.28355816 0.20515768 0.27395836 -0.090746514
-0.06750023 -0.030412149 -0.0026255574 -0.028573658 -0.3486396 0.24029036 0.016239692 0.016111087
-0.08829278 -0.18768878 -0.19294238 -0.025673935 -0.04107881 -0.06681798 -0.055413827 -0.16450092
0.13106577 -0.1618612 -0.047605123 -0.9823515 -0.01181265 -0.03830258 0.17165525 0.3590546
-0.6192294 0.23119514 0.007442089 0.009079728 -0.03814261 0.015685607 -0.16738056 0.043911766
-0.1780517 -0.06413243 0.16124584 -0.051110517 -0.48821104 -0.031443574 -0.9941854 -0.2769494
-0.017672874 -0.0014462767 -0.09143016 -0.012932204 -0.028920941 -0.038734633 0.3952656 -0.017163409
-0.018666264 -0.098464616 -0.09856586 -0.1630094 0.017433252 0.03422757 0.17054297 -0.028716264
-0.0428639 -0.007106971 -0.039991662 -0.02406531 -0.28594625 -0.13485473 -0.0095474 -0.08206102
-0.28777573 -0.03854444 -0.06662151 0.026383458 -0.022447163 -0.0790837 0.012053536 0.0772632
-0.015643999 0.0024097243 -0.026027977 0.0067717754 -0.29823005 -0.08315704 0.3487922 0.081362024
-0.06800269 -0.04848825 -0.046219137 -0.53530765 -0.04735301 0.027737433 0.41646454 -0.00060428825

fc_mean.weight f4 [2, 256]
00000000: b3f6 39bf d7d7 493e 8e2d 0d3c 67f5 843e
00000010: 58d0 e6bd d12f 08be 065a 34bd 539d cd3c
00000020: 749c a13a 7e5e 37bb 3bbe b43d ded0 f73c
00000030: 4b5c 4a3c 9d26 8dbe 1305 e83c 8c4d e03c
00000040: ae78 72bd f201 8dbe ce0d 813c 7c2b 943f
00000050: 688f 02bc 82bf b1bf 4c0c 80bc cd68 8e3d
00000060: 7578 8e3f 9f2d 903e aa07 29bd 7683 b6bd
00000070: 345c a03b 3f3b 303d 1e80 0cbf e3a6 0bbd
00000080: 1795 b13c 41cd e6bd 4e37 8e3b 1239 393e
00000090: 4738 4d3e ec8d 243d 67a8 4ebd cf5d af38
000000a0: 76ad 89be e065 f6bb f6c8 5f3d 8287 923e
000000b0: a2ba 8abf fc12 bfbd e32e 19bf 6d8d 1fbd
000000c0: 2b76 a7be 563a 7b3d 8e4a ae3d f119 60be
000000d0: 0d19 bdbc c2ba af3d 35c4 8a3d afab 503d
000000e0: 84d9 b33c bc6b 1c3e 7d8b 64bc abcc 2d3d
000000f0: f4ce a73d 0b26 69bc 213e e73b b821 173c
00000100: f69f 97bd d663 6a3b 75ff 0e3d dc65 c9bf
00000110: 87d4 8cbe f4bd 5b3d dfc1 a53d accc 24bb
00000120: 3607 8abc 9767 99bd 1ff7 30bf ec35 72bd
00000130: ff74 24bd ae05 a13f 3b06 033f 662a 0bbd
00000140: 8429 da3a e630 a53b 2b40 313d 8690 04bc
00000150: 4b0a 473e f526 c6bc 66bd f23c 88f9 133d
00000160: 7549 d33c 4dce ccbe e401 27be 904e bbbc
00000170: 3798 bbbb b3ff 9d3c cbf1 4cbb 39d7 4c3c
00000180: 328c 13bf b7f6 683c 258a ca3d ed6f 103d
00000190: b11f 93be f5cc fc3c d5cb 01bc 0edf 4ebc
000001a0: 99c0 d33e d4a1 40bd 6433 4f3b b7e1 943b
000001b0: b81c 4fbd 8c63 a23d 1345 063d c07a 233d
000001c0: ce96 203e 2cf8 a7bd 54f1 6ebe 2bb1 38bd
000001d0: c6e2 87be 9077 933d 268a a2bf 5fb8 03bd
000001e0: 9784 bd3c dcd8 b43b 9f73 c93b d00b 60bb
000001f0: 604c d8ba 8560 1e3d 22be 883b 9cd5 8fbb
00000200: a43a df3c 2797 c7bc c05e 57bb 10fa c93e
00000210: 63fc d83d d12f 48bd 236c 093d a68b d4bb
00000220: 4034 3bbd b368 d8bb d928 113d 4a55 6b3b
00000230: d5f7 9ebd 1bca b43d a183 31bc 00d4 bfbc
00000240: f85f 4bbb ef2d a8be b841 34bc 0584 dd3b
00000250: d287 52be a817 37be 9ecd c7bb 3867 50be
00000260: 4504 303d 17fc 92bc f7e1 e13c 1e3e 02bd
00000270: 88c1 c0be 5c5c 243e cbcf b43b ee5f 78be
00000280: c260 bcbc d131 0dbe 3952 d93b 630a 87be
00000290: a139 5dbd 110e 46bf 3cbf f63b c997 45b9
000002a0: 476f 8f3c 90d3 c9bc 0d53 0dbd c44b 85bd
000002b0: eae8 08be 4fca 12ba ded9 afbd 7fdd 09bf
000002c0: 0f71 243d 14a5 4f3e 17ac 223e 2c65 b73d
000002d0: fd5a 003d 4a30 e8ba dc12 b8bc 4ada 803e
000002e0: 60ea 3d3d 0e9f bb3a 3afe 0cbd 9e5b a43d
000002f0: b136 123d 57c2 38bd 26b3 6c3c b631 4bbd
00000300: 262a c4bc 8bd0 a4bd 296a 4cbd 5e56 05be
00000310: a045 f5bb 46d4 42bd 1aa1 7ebf 54c9 db3d
00000320: cb10 e73d ac3a 1c3d 8590 493e a891 1b3d
00000330: b606 903e de4d bf38 4240 253e c222 f73d
00000340: 8ca8 33bd 27a3 38bd 0e16 113c 638b 973c
00000350: d1f3 06bc c94b ed3c 3bf2 b4bd ce97 fc3a
00000360: 7e61 b7bc f0bd 433d bcc6 5abd 9225 b23e
00000370: e48b 80bc 3017 9f3c b5d9 733d e63d 3f3d
00000380: 21a2 173c eea3 bfbc e62d 03bc b9b1 573d
00000390: da34 50bd 7c86 103d 1067 71bd aefa e4bd
000003a0: cb94 013f 0746 2ebd 989c bebc 5030 183b
000003b0: 174f a73e 531a 1bbd e5ae 613c 9165 a2be
000003c0: 1f36 98ba 4e7c ff3c ebc3 27bf a084 c53b
000003d0: 1752 903e 8cc9 f23d 4f41 17bf 357f a3be
000003e0: 0643 9b3b 1987 e43c cb74 e43d 4ba7 743e
000003f0: caaa 0bbe 0690 2f3c 91df 18bd 93fa 043d
-0.7264206 0.19711243 0.008616818 0.25968477 -0.11270207 -0.1329949 -0.044031166 0.025099432
0.0012329952 -0.0027979906 0.08825346 0.030250963 0.012351106 -0.27568522 0.028322732 0.027380727
-0.05919712 -0.27540547 0.015753653 1.157577 -0.007968761 -1.3886569 -0.015630864 0.06953583
1.113051 0.28159806 -0.041267075 -0.08911793 0.004893804 0.04302525 -0.5488299 -0.034094702
0.021677537 -0.11269618 0.004340089 0.18088177 0.20041 0.04017441 -0.05045357 8.3621235e-05
-0.26890153 -0.0075194687 0.05463501 0.2861901 -1.0838206 -0.09329793 -0.5983717 -0.038953234
-0.32707343 0.06133493 0.08510314 -0.21884896 -0.023083234 0.08580543 0.06775705 0.05094498
0.021954305 0.15275472 -0.013949272 0.042431515 0.0819377 -0.014230262 0.007056967 0.009224348
-0.07403557 0.0035765073 0.03491159 -1.573421 -0.27505895 0.05364795 0.080936186 -0.0025146408
-0.016849142 -0.07490461 -0.69127077 -0.059133455 -0.04015064 1.2579858 0.5118138 -0.03397598
0.0016644453 0.0050412295 0.043274086 -0.008091098 0.1943752 -0.024188498 0.029631328 0.036126643
0.025791863 -0.40001145 -0.16309315 -0.02286461 -0.0057249325 0.019286966 -0.003127205 0.012502485
-0.57635796 0.014218978 0.0988963 0.03526299 -0.28735116 0.03085945 -0.0079221325 -0.012626423
0.41357878 -0.04702933 0.0031616325 0.004543509 -0.050564498 0.07929143 0.032780718 0.039911985
0.15682527 -0.08201632 -0.23334247 -0.045090836 -0.26540202 0.07200539 -1.269841 -0.03215825
0.023134513 0.0055190157 0.0061478163 -0.0034186728 -0.0016502254 0.038666267 0.004173056 -0.004389478
0.027249642 -0.024364067 -0.0032862872 0.39448595 0.10595014 -0.048873726 0.033550393 -0.006486374
-0.045704126 -0.006604278 0.035439346 0.003590899 -0.07762114 0.08827611 -0.010834605 -0.02341652
-0.0031032544 -0.32847545 -0.011001997 0.0067601227 -0.20559624 -0.17880118 -0.0060975095 -0.20351875
0.04297282 -0.017942471 0.027573569 -0.03179752 -0.37647653 0.16050857 0.005517935 -0.24255344
-0.022995356 -0.13788535 0.006632116 -0.26375112 -0.054010037 -0.77365214 0.007530121 -0.00018843928
0.017509116 -0.024637014 -0.03450303 -0.06508592 -0.133701 -0.00055996043 -0.08586477 -0.538536
0.040146884 0.20277816 0.1588596 0.08954844 0.031336773 -0.0017714587 -0.02246993 0.2516654
0.046366096 0.001431437 -0.034422137 0.08025287 0.03569669 -0.045107212 0.014447009 -0.049607955
-0.02394588 -0.08047589 -0.04990593 -0.13021228 -0.0074851066 -0.04756572 -0.9946457 0.1073176
0.112825 0.03814189 0.19684036 0.037980705 0.2813012 9.1220936e-05 0.16137794 0.120671764
-0.04386191 -0.04507747 0.008855356 0.018499082 -0.008236841 0.028966801 -0.08835264 0.0019271316
-0.022385355 0.04778856 -0.053412184 0.3479429 -0.015691705 0.019420236 0.059533793 0.04668989
0.009254963 -0.023393597 -0.0080065485 0.052659724 -0.050831653 0.035284504 -0.05893618 -0.11180626
0.50617665 -0.042547252 -0.02326803 0.0023222156 0.32677528 -0.0378669 0.013774608 -0.31718114
-0.0011612809 0.031187203 -0.6553332 0.006027773 0.2818763 0.11854848 -0.5908403 -0.3193299
0.0047382144 0.02789645 0.11155089 0.23891942 -0.1363937 0.01071549 -0.037322585 0.03246553

fc_mean.bias f4 [2]
00000000: 7e45 2b3d 0795 8c3d
0.04181432 0.06864362

fc_logstd.weight f4 [2, 256]
00000000: bbe5 023e 8407 a5bd 7374 7c3b 0df6 133e
00000010: 9c0c 813c 91ac 943b e53e 313d 6ecd 8ebb
00000020: 0c12 71bc 6786 96b8 b2c2 86bc f308 703c
00000030: 3ccc b03c 99c5 973d 1862 463c 1053 14bd
00000040: 8521 5bbd b698 5c3b bac0 793b 229d a93e
00000050: 1ea4 a9bb c511 113f 1f5b 833c 03a3 5fbb
00000060: 9184 e53e faa2 71bd ff01 f5bc cfba 2b3d
00000070: 266c 36bd 3418 91bc 983b 863d 1b33 453d
00000080: 3f6c f93b 61b9 f23d 196a 1a3d ea43 743d
00000090: d927 cd3d 9441 a93c 46ae 9c3c dbaa e53c
000000a0: abf8 c73b 6601 2fbb 7f44 32bd 2663 d2bb
000000b0: bce9 493e e051 82bd e806 ab3d 1cce bcbb
000000c0: 06f0 313d 56d9 a9bb 2c92 fd3c b4da 423d
000000d0: 73b5 353d f09f 0d3d 6f5d 9f3c b07f 573e
000000e0: 8f10 0bbd ae23 9b3d 7da6 663b e9fb d33c
000000f0: 07b9 8ebc 31b0 c43c cfb2 acbc 9ab9 4b3d
00000100: bb79 d23c a636 023d eb91 e4bc cefc aa3e
00000110: 1f49 c73d 31cc 073e 235d af3d dea8 2a3d
00000120: ef31 9d3c 77d2 723c 6f6e 20bd 2521 ee3b
00000130: 24cf 5d3d 119a b33e 0406 bd3d 887c 5438
00000140: a81e 193d c274 ee3b 03e6 c53a 8bf5 fcbc
00000150: db84 003e d645 92bc 6f2d 27b9 df75 8bba
00000160: b4fc e23a 5ad5 e93d 0265 493d 7ca8 333d
00000170: df13 34bd 7e29 1b3d 7117 8bbb 2a8c 5f3c
00000180: 2437 f43d 9deb 423b f037 a3bc aaae 03bc
00000190: 8f4d 103d b8aa dc3c b50f 74bc c1e8 583c
000001a0: 8b2e 0e3e 15e7 d7bb af81 3dbc 9f49 ae3b
000001b0: 0d98 fa3c 65b8 153e 0c18 f3bc f7da b83a
000001c0: e223 483d 84cd 1f3b 387e ad3d 82de 9bbb
000001d0: 5ce6 4f3d f2a9 a63c 9584 4e3e 0946 903c
000001e0: d4c3 e23c 222d a33a 6b51 bbbb 6469 82b8
000001f0: 3fe5 c93a 8d14 623c 2e97 a9bc 24e5 bfbc
00000200: ab43 423d 6c25 14bc 2390 273d 786e 183e
00000210: 4ff6 8a3d 500a ca3c fc77 a23c ff35 babc
00000220: 0916 0a3b 3094 173d 9325 b03b c1b0 a7bb
00000230: aab3 cf3d c177 5a3c b76a 6a3b 1f5c 9e3c
00000240: fca2 183d cb49 a43d 7a21 c03b 4cb2 d9bc
00000250: cc02 3f3e 660b cf3a 8728 ee39 4604 60bc
00000260: 2d6b 93bc 6d3e 3a3d 9736 543b d472 053c
00000270: a18e 2d3d df0a 75bd 677e 36bd 1b57 8f3c
00000280: 19a2 313d 0ef5 1d3d d291 123c 04cc b93d
00000290: 658a 3f3c 6459 d03d 8883 173c b3f9 103c
000002a0: bf2a 203b 466c 28bd 39a2 2b3d 0783 2abd
000002b0: b5c7 7abd bb3e 15bb 8aac de3b 3eb3 623d
000002c0: 2521 b6bc 68c9 acb9 d619 463d 56a8 633c
000002d0: dd68 df3c 0c8b e43b 36b3 e53b 8c32 9d3e
000002e0: d0b2 88bd 6d8f f6b9 da30 1f3d 707b 033d
000002f0: 063c 323d d1c6 883d 5786 453b bb47 a4bc
00000300: 0fb9 d53c 30e5 343d dfaf 97bc a96c ef3d
00000310: aaf3 54bc 9c47 253c e258 2c3e 928b b23c
00000320: 5b31 683c c493 b83c 4d19 923c 15f7 933d
00000330: 4786 743d 5875 013c e1f8 103d 017d 47bd
00000340: fd2f a33b 355a a6bb a4dc 81bc 8731 443c
00000350: 849b 153d a89d 6d3c 862a 2b3e 8125 513c
00000360: 0351 573c fab6 09bd 7d78 f73c 9ce1 023e
00000370: 12b7 bdbc a54a b4bc 86ca 283d 5805 a53d
00000380: be89 b4bc 4102 9e3c f50c 373d f1af 803a
00000390: e470 dbbc 2823 7a3c 3e56 b43c 7797 af3d
000003a0: 271b bb3d c7a5 443d c6c6 783c 99a9 cbbc
000003b0: 87eb 403d c21a ebbc 364f 28bc 7cab fa3d
000003c0: e38f 09bd 1fac e6bc fd9f 8f3e 481d 5abc
000003d0: eef8 8a3b 1f43 753d 4390 ee3d 5eaa c93d
000003e0: 2ba2 c9bc 5e10 fc3c f039 483d 3f72 e93c
000003f0: c0de 0d3e 64c7 623c 0a90 bb3c 772d c23c
0.12782948 -0.08058074 0.0038521558 0.1444933 0.015753083 0.004537173 0.04327287 -0.004357985
-0.014713775 -7.177592e-05 -0.01645026 0.014650571 0.021581762 0.07410736 0.012108348 -0.036212027
-0.053498764 0.0033660359 0.0038109259 0.33127695 -0.005177035 0.5666774 0.01603466 -0.0034124262
0.44827703 -0.058993317 -0.029908178 0.0419262 -0.044536732 -0.017711736 0.06554335 0.04814444
0.007611781 0.118517645 0.03769884 0.05963508 0.10017366 0.020661153 0.019126069 0.028035572
0.0061026416 -0.0026703714 -0.043522354 -0.006420511 0.19718069 -0.06363273 0.08350927 -0.005761875
0.043441795 -0.005183379 0.03095349 0.047571853 0.044362497 0.034576356 0.019453732 0.21044803
-0.03395134 0.07575165 0.003519445 0.025876956 -0.017422212 0.024009796 -0.021081356 0.04973755
0.025692811 0.031790398 -0.02790161 0.33396 0.097307436 0.13261487 0.08562686 0.04166495
0.01918885 0.014820687 -0.039167818 0.0072671347 0.054152623 0.3507848 0.09229663 5.0660718e-05
0.03738275 0.007277102 0.0015098456 -0.030878803 0.1255068 -0.017855566 -0.00015943286 -0.0010639987
0.0017317743 0.11417647 0.049168594 0.04386185 -0.043964263 0.037881367 -0.004244738 0.013644258
0.1192458 0.0029742487 -0.019924134 -0.008037249 0.035230216 0.026936874 -0.014896323 0.013239087
0.13884942 -0.0065888264 -0.0115665635 0.005318835 0.030590082 0.14621122 -0.029674552 0.0014103343
0.048862346 0.0024383971 0.0847134 -0.0047567496 0.050756797 0.020344708 0.20167764 0.01761152
0.027681269 0.0012449364 -0.005716493 -6.2185136e-05 0.0015403404 0.013798845 -0.02070197 -0.023424692
0.047427814 -0.009042125 0.040908944 0.1488589 0.06785261 0.02466312 0.019832604 -0.022730825
0.0021070263 0.037006557 0.005375573 -0.0051175063 0.1014169 0.013334216 0.0035769173 0.019331036
0.03726481 0.080218874 0.0058633657 -0.026574276 0.1865341 0.0015796244 0.00045425093 -0.013672894
-0.017995441 0.04546969 0.003238117 0.008145053 0.04237235 -0.05982482 -0.04455414 0.01749759
0.04336748 0.03856378 0.008945899 0.09072116 0.011690711 0.101733 0.009247668 0.008848595
0.002443954 -0.041118883 0.041902754 -0.041628864 -0.06122561 -0.0022772986 0.0067954706 0.05534672
-0.022232601 -0.00032956456 0.048364483 0.013895115 0.027271682 0.0069745835 0.007009889 0.30702627
-0.06674731 -0.00047027637 0.038864948 0.03210014 0.043514274 0.06678546 0.0030139887 -0.020053735
0.02608922 0.044163883 -0.018516479 0.11690647 -0.012997547 0.010087874 0.16830781 0.021795068
0.0141719235 0.022531398 0.01783433 0.072248615 0.05969837 0.007901512 0.0353936 -0.048703197
0.004980086 -0.0050766715 -0.01585228 0.011974699 0.036525264 0.01450292 0.1671544 0.012765289
0.013141873 -0.033621766 0.03020882 0.12781376 -0.023158584 -0.02200825 0.041208766 0.0805766
-0.022038337 0.019288184 0.04469009 0.000981806 -0.026787229 0.015267171 0.02201378 0.085738115
0.09136038 0.04800966 0.01518411 -0.024861144 0.047099616 -0.028699283 -0.010272792 0.12239739
-0.033584487 -0.028158246 0.2805175 -0.013312645 0.0042411005 0.059878465 0.116486095 0.09846948
-0.02461346 0.030769523 0.04888338 0.02849686 0.13854504 0.013841484 0.022895832 0.02370332

fc_logstd.bias f4 [2]
00000000: c6d2 90be 5af3 5ebe
-0.28285807 -0.21772519

fc1.weight f4 [256, 16]
00000000: aa1b 70be f618 78be 4450 67be 9c98 7e3e
00000010: b8b9 0cbd bebe 74be a2eb 0f3e 58ad 7c3d
00000020: 7eaf 463e 5c09 8fbd f8b7 a73d 08ca 6cbd
00000030: 20e6 02be 7663 22be 8085 d03c d432 f43d
00000040: 8039 3a3b 10be 47be 1e96 6bbe 98d0 7abd
00000050: 8062 3cbe 92b1 71be 88a5 92bd 0000 3b39
00000060: 70df f63d 4ada 793e 50a2 56bd 9097 8a3d
00000070: fa31 74be 4aaf 45be e6aa 0b3e 521e 55be
00000080: 8cb6 9f3d 97c5 263d 816d 01be 0842 e23d
00000090: 0430 203e 6a3e 193d f3c4 9c3d ded8 ad3d
000000a0: 7d60 7ebd 9b56 883d 9a5b 463d 7702 eebd
000000b0: 8964 4ebe 5cbb 7bbd bf47 363e 8157 d1bd
000000c0: aafb 1d3e d857 d23d 3ab3 72be c039 ce3b
000000d0: c85a 913d 744e 4b3e 6807 b83d 805e 3ebe
000000e0: 00d0 b039 2802 10bd e846 ec3d 48c5 a5bd
000000f0: b0d3 f33c b4e7 663e 00a5 a9bb 2853 6ebd
00000100: 909d 923c 70a6 22be 840a cdbd 7c2a 7d3e
00000110: 941e 4dbe 8047 d6bb 92a9 313e d0c3 66be
00000120: d074 3e3d daa2 31be 80bf 233d 2297 6ebe
00000130: 74d7 34be 2067 bdbc 980f 82bd 7497 043e
00000140: ef85 c93c 9913 203e a6e0 7fbd 9efc 7fbc
00000150: 32d2 1b3e de95 58be 93ec 6f3e 5977 70bd
00000160: 7e32 45be b851 85be f853 eabd 44ac be3c
00000170: 01dc eabd 7d79 1d3c 03d4 183e d1f8 06be
00000180: 7e91 5d3d 2d11 6d3e 5bce 3cbd 1733 13bb
00000190: 6a79 1d3d 0e78 f4bd 2e5a d9bc eeaa 113e
000001a0: 3a83 1b3e 8679 783e 060f a6bd d1eb 4f3e
000001b0: 4d1e 673d bf38 103e 18ad b7bd 99e6 efbd
000001c0: 30d1 913c 90d6 883d d216 5abe e2e3 5dbe
000001d0: 7624 633e 44d3 4ebe 2436 2d3e ca21 03be
000001e0: 0001 c53c ea1e 713e 3c88 98bd e85f 443d
000001f0: aca0 f4bd c474 493e 6019 843d c066 5fbc
00000200: f342 5fbf e031 0140 d0e9 d1bc 86a6 01c0
00000210: 3dcf 343f d1ee eebf cc8e d5ba 2dfc 1dc0
00000220: 91f5 d5c0 8a04 ee40 2220 8f3d 98b4 463d
00000230: d187 e93e 0f2d 0d3f f68c 64bd e234 babd
00000240: 042b 8a3d 6cd1 81bd e0f0 cbbd 70c0 bd3d
00000250: 76dd 48be a8dc 6cbe 34a9 95bd 9e31 153e
00000260: 12a1 67be 805b 0e3d f60a 28be e0fc 7f3c
00000270: 3033 373e 34db 2d3e a05e 14bc a8ca d3bd
00000280: e6a0 503e 6f28 5fbe 9121 98bd 0e5b 593e
00000290: e5ce bfbd ade0 043d 6a94 81be 023d ddbd
000002a0: 18c0 86bd 9b1f 6e3e 7a12 bc3d bceb 243e
000002b0: ab97 4c3e add2 e73c 474b 353e ce28 463e
000002c0: 80af a43f 995d fc3f 6cdf 22be b8a3 5dbf
000002d0: 20bc 38be d763 6fbf 6bf5 7bbe 5600 203e
000002e0: 1edf d2bf 3e3f 33c0 1499 7e3e 73f0 cfbd
000002f0: a03d 61be 65d5 a33f 249e 2ebd 4fbc 43bd
00000300: 14c2 f3bd 4c6d c83d f898 18be b256 23be
00000310: 901f 3cbd 6076 0e3d 4ec9 083e 50f1 f4bc
00000320: 805b 453d 94cf d43d b009 c73c 8e62 26be
00000330: 80f5 20bd ea1c 543e e8a8 71be aa43 74be
00000340: e860 3140 d727 1e3e 1b9a 50bd ee9d e2be
00000350: 2b24 8d3e f756 d2bf 3610 da3e 7140 62c0
00000360: 091a f53f b11f f93f ac44 e43e ca81 a3be
00000370: c929 d43e a856 993e 1212 a53e 792b 32bd
00000380: da1b 3dbe 86bd 0fbe dc86 02be 3030 58be
00000390: 8abd 48be bc41 ecbd 1819 2d3d c4a0 ca3d
000003a0: f03d bbbc fcfb 733e 70cc 33bd e2e4 1c3e
000003b0: de8d 6d3e 103a 953c fce6 df3d 2060 40bc
000003c0: b086 18bd 16d0 51be 3072 07be d0f3 2fbe
000003d0: 7459 4e3e 9c42 893d 2024 b6bc 2642 0c3e
000003e0: 5456 933d 00de 413d 1e5c 2dbe f621 743e
000003f0: 60d6 bd3c e88d 513e b0e7 e43c 3024 cabd
-0.23448053 -0.24228272 -0.22589213 0.24862903 -0.034356803 -0.23900887 0.1405473 0.06168875
0.19402882 -0.06984207 0.08189386 -0.05780986 -0.12783098 -0.15858254 0.025454283 0.11923757
0.002841562 -0.19506097 -0.23006484 -0.061234087 -0.1839695 -0.23602894 -0.07160479 0.0001783371
0.12054336 0.24399677 -0.052400887 0.067671895 -0.2384719 -0.19305149 0.13639411 -0.20812348
0.0779849 0.04071578 -0.12639429 0.11047751 0.15643317 0.03741304 0.076547526 0.0848863
-0.062103737 0.06657144 0.0484272 -0.11621564 -0.20155539 -0.061457977 0.17800806 -0.10221768
0.15428033 0.10270661 -0.23701182 0.0062935054 0.07097393 0.19854146 0.08985788 -0.18590736
0.00033724308 -0.035158306 0.11536962 -0.08094269 0.029764026 0.22549325 -0.0051771402 -0.058184773
0.017897397 -0.15883803 -0.10011771 0.24723238 -0.20031196 -0.006539285 0.17349842 -0.22535634
0.04649812 -0.17347279 0.03997755 -0.2329984 -0.17660314 -0.023120463 -0.063506305 0.129484
0.024599997 0.15632476 -0.0624701 -0.0156241935 0.15216902 -0.2115092 0.2343009 -0.05870757
-0.19257542 -0.2603891 -0.11441797 0.023275502 -0.11467744 0.009611485 0.14924626 -0.13180853
0.05409383 0.23151083 -0.046095233 -0.0022460872 0.038445868 -0.11936961 -0.026532259 0.14225361
0.15186778 0.24265108 -0.08108334 0.203048 0.05642538 0.14084147 -0.08968562 -0.11713905
0.017799944 0.066815495 -0.21297768 -0.21668962 0.22181877 -0.20197779 0.16915184 -0.12805858
0.024048328 0.23546949 -0.0744786 0.047943026 -0.11944708 0.19673449 0.064501524 -0.013635337
-0.8721153 2.0186691 -0.025624186 -2.0257888 0.7062872 -1.8666631 -0.0016293167 -2.4685166
-6.6862264 7.438054 0.06988551 0.04851207 0.45611432 0.5514688 -0.055798493 -0.09092118
0.06746486 -0.06338772 -0.09958053 0.0926522 -0.1961573 -0.23131049 -0.073076636 0.14569709
-0.22620037 0.03475523 -0.16410431 0.015624255 0.1789062 0.1697815 -0.0090557635 -0.10341388
0.20373878 -0.21792768 -0.07428277 0.21226141 -0.09365634 0.03244083 -0.25308543 -0.10802652
-0.06579608 0.23254244 0.091832116 0.1610555 0.19979732 0.0282987 0.17704497 0.19351503
1.2866058 1.9716064 -0.15905541 -0.8657794 -0.18040514 -0.9351172 -0.24605338 0.15625128
-1.647434 -2.800735 0.24863082 -0.10153284 -0.21996164 1.2799498 -0.042631283 -0.047787007
-0.11902252 0.09786472 -0.14902103 -0.1595104 -0.045928538 0.03478086 0.13358042 -0.029900223
0.048182964 0.10391155 0.024296612 -0.16248533 -0.039296627 0.20714155 -0.23599589 -0.23853937
2.7715397 0.15444885 -0.050928216 -0.44261116 0.27566656 -1.643279 0.42590493 -3.5351832
1.914857 1.9462796 0.44583642 -0.3193496 0.4143813 0.29948926 0.3224035 -0.04349849
-0.18467656 -0.14037141 -0.12746757 -0.21112132 -0.19603553 -0.11535975 0.04226026 0.09893945
-0.022856683 0.23826593 -0.04389614 0.15321687 0.2319865 0.018216163 0.10932729 -0.011741668
-0.037237823 -0.20489535 -0.13227153 -0.17182851 0.20151311 0.06702158 -0.022234023 0.13697109
0.071942 0.047330856 -0.16929671 0.2384108 0.023173511 0.20464289 0.027942508 -0.098701835

fc1.bias f4 [256]
00000000: b434 eb3d 40fa 1cbc 1b33 cb3d 96e6 7abe
00000010: 282f 7b3e 7e36 5dbe bdb7 0f3d fcd2 b83d
00000020: e406 213f dc93 ba3d aa8d 583e b6bb af3f
00000030: 0a6e 12be 8993 0bbf a4be e1bd a8a1 003d
00000040: 0012 94ba 1ba6 573f 9879 ec3d 8830 10be
00000050: e0ad 7dbf c825 95bb c0f2 1e3d 4ac1 8c3f
00000060: 663b 453e db76 993c 80d2 1cbe fd1f 23bf
00000070: b801 ca3e a3be f8bf 483a 8cbe 501c 563e
00000080: 4d6a 5ebf 7c09 b93f 2f2b 17c0 3081 c2bd
00000090: 2051 37bc bac3 863f 60ad 2a3d 41b8 6e3e
000000a0: 1624 aabf e198 debe 965a 303e 8f40 10c0
000000b0: f1b5 4f3d 14cc 6bbe 002b 0abe 3abb 8fbd
000000c0: 24ec ca3d 1f0d 833e 008a e83d 6c65 b8bd
000000d0: 58ce c3be 5ca5 8e3d 9a22 683f 05c3 21c0
000000e0: 6fd7 31be 073d 2cbe 121b a5be ad05 893f
000000f0: f151 5bc0 58d7 43bd b003 6a3d 1a84 2cbd
00000100: 4e79 8a3e 65b7 99c0 1a41 4d3e 502d babd
00000110: 6f1e fabd 53c5 353f 2ba0 ed3f 78af 473d
00000120: 4dbc 62bf cc42 2e3e 05a4 0cbe a48a 173e
00000130: e11a 3bbf 384c 04c0 1186 033d 02c9 0ac0
00000140: 5830 8dbd 7fa2 453f 836d c73e 1672 203e
00000150: f066 ee3d c8fe b7bf d244 26be 40a0 1fbc
00000160: f06e 5c3e b32f 1cbe c0d3 03be 800e e8bd
00000170: d027 ab3e c0f3 c0bc 844c a8bf 1bcb b23f
00000180: 4db4 0dbe a141 01c0 606a 0d3e c94e 8c3e
00000190: de04 32be 9a8d 5d3e edd9 8fbe fece 633e
000001a0: 093b 193e 895b 2cbf e023 0a3f d477 ba3d
000001b0: 9c2c dabd eb67 59be c2bd b43f 9459 7f3e
000001c0: fe00 37be 16c7 04be 1b5d 5f3f b7ba 38bf
000001d0: 5ee1 35be 2570 443e e41c adbd 9af5 08bf
000001e0: 8c46 163e b0e0 75bd 3421 0f3f 2428 f4be
000001f0: e167 77bf 686c 963d 3c96 d7bd 0abc 27bf
00000200: 0c21 ddbd d80d 793e f682 393e a343 26be
00000210: 5292 76be 7e86 d23e ee6c 873f b20b 343e
00000220: b446 d9bf 7b5f cc3c a500 993f 046a d6bd
00000230: 3eaf 663e 96ec 98bf 4810 12bd 6cf2 c8bf
00000240: a232 23c0 6043 063f d2e1 523e 4e16 c9bc
00000250: b3b1 61bf 183e 1b3d dc0f bbbf 4b7b b33f
00000260: 7467 843f ecb7 21bf 214a 813f 5f6f c8bf
00000270: d2b5 53c0 8c43 10bf 80dd c9bc 2e30 d5be
00000280: 32d9 7ebe babd 263f 34b2 ddbe 9dc2 dbbf
00000290: cd04 c4bf 94a3 823e d247 953c b148 40be
000002a0: 7e15 4a3e 6e38 29be 27a5 813f 3904 53bf
000002b0: 0268 7c3e 953a 3d3e 405b c1bb b4c0 fcbd
000002c0: 3ef8 e13f 6010 0cc0 9a8f 0d3e 61b8 debe
000002d0: aca6 d7be 00e3 4b3b a824 afbf 16ce 68be
000002e0: c33b 233c 4643 343d 1070 edbf e526 dcbf
000002f0: a473 213e 665a 81bf 3a28 093e e469 2fc0
00000300: f48c db3d 6324 05bf c7d8 d7bf fe5f 61be
00000310: 3819 bcbf da9e bfbc c3a2 48bf 30eb babc
00000320: 64cf aabd 87fe 9dbf 546c a93f 6ea8 0f3f
00000330: a85f e7bf 9c61 aa3f 6c9a 593e 89d0 363f
00000340: ae00 1ebf 6909 2a3f d421 29be f8f0 2abf
00000350: 4895 bbbd d2d7 3f3e 5012 7cbe 6ba0 b7be
00000360: 7c1d babf 7ae2 243f 9326 35bf 8692 1a3e
00000370: d44d 14be 5462 da3d b2ea ba3e 3f10 54bf
00000380: c089 e53d 1879 583e 417a 983e 74fa f03e
00000390: 1970 94bf f4bd b5bf 9ef7 3f3c a684 58be
000003a0: dc46 6fbe 781d 7e3d 60a7 6f3c 769b 8fbe
000003b0: 2351 073f 787a 04bd fc48 923f 070e 653f
000003c0: d6cc 4ac0 3e41 ee3e 4e2f 66bf 841c 29c0
000003d0: 17e2 ab3f 6110 a93e 1f63 963f 84a0 9cbd
000003e0: bcd7 7a3e 8274 bc3e c72b be3d b85a 453f
000003f0: 8428 833d 8bdd 0cbe 3e08 8a3e d29e 723e
0.11484662 -0.009581149 0.09921857 -0.24502024 0.24529707 -0.21602818 0.035087336 0.09024617
0.6290114 0.09110233 0.2114779 1.372916 -0.14299789 -0.54521996 -0.1102269 0.031404167
-0.0011296868 0.8423783 0.1154663 -0.14081013 -0.9909344 -0.004551623 0.038805723 1.0996487
0.1926094 0.018733433 -0.15314674 -0.63720685 0.39454436 -1.9433178 -0.27388215 0.20909238
-0.8688095 1.4456019 -2.3620107 -0.09497297 -0.011188775 1.0528481 0.04166925 0.23312475
-1.3292263 -0.43476012 0.17222056 -2.2539403 0.050710622 -0.23027068 -0.13492966 -0.070181325
0.099083215 0.25595948 0.113544464 -0.0900372 -0.38243365 0.069651335 0.906778 -2.527528
-0.17367338 -0.16820155 -0.32247216 1.0704857 -3.4268763 -0.04781279 0.057132423 -0.04211817
0.27045673 -4.803637 0.20044366 -0.09090674 -0.12212836 0.7100422 1.8564504 0.048751324
-0.88568574 0.17017668 -0.13734443 0.14798981 -0.7308789 -2.067152 0.032110278 -2.1685185
-0.068939865 0.77201074 0.38950738 0.1566852 0.116407275 -1.4374628 -0.1623719 -0.009742796
0.21526694 -0.15252571 -0.12873745 -0.11330891 0.33428812 -0.023553729 -1.3148351 1.3968233
-0.1383831 -2.0196307 0.1381011 0.27403858 -0.17384669 0.21636048 -0.28095952 0.2224693
0.14963926 -0.6732717 0.5396099 0.09104887 -0.1065304 -0.21231048 1.412041 0.24936515
-0.17871472 -0.1296657 0.8725144 -0.72159904 -0.17761752 0.19183405 -0.08452776 -0.5349976
0.14675349 -0.06002873 0.5591004 -0.47686875 -0.9664288 0.073448956 -0.10526702 -0.655213
-0.10797319 0.24321687 0.18116364 -0.16236739 -0.24079254 0.41118234 1.0580118 0.17582586
-1.6974702 0.024947872 1.1953322 -0.104694396 0.22527787 -1.19472 -0.03566006 -1.5698981
-2.5499654 0.52446556 0.20593956 -0.024546769 -0.8816177 0.037901014 -1.4614215 1.4022001
1.0344071 -0.6317127 1.0100747 -1.5658988 -3.3079724 -0.5635307 -0.024641752 -0.4163832
-0.24887541 0.6513325 -0.4330002 -1.7168766 -1.5313965 0.25515425 0.018222723 -0.1877773
0.19734761 -0.16525432 1.0128525 -0.8242832 0.24649051 0.18479379 -0.0059007704 -0.12341443
1.7653883 -2.1884995 0.13824311 -0.43500045 -0.42119348 0.0031110644 -1.3683062 -0.22734866
0.009962979 0.04400947 -1.8549824 -1.719937 0.1576677 -1.0105712 0.13394251 -2.740838
0.10720244 -0.52008647 -1.686303 -0.22009274 -1.4695196 -0.023391176 -0.78373355 -0.022817224
-0.08340338 -1.23433 1.3236184 0.5611638 -1.8076067 1.3311038 0.21250314 0.7141195
-0.6171979 0.6642061 -0.1651681 -0.6677394 -0.091593325 0.18734673 -0.2461636 -0.35864577
-1.4540248 0.64408076 -0.70761985 0.15094957 -0.14482814 0.10663286 0.36507183 -0.8283729
0.11207914 0.21139944 0.29780772 0.4706608 -1.159671 -1.4198594 0.011716751 -0.21144351
-0.23366874 0.062039822 0.014627308 -0.28048295 0.5285818 -0.032343358 1.1428523 0.8947453
-3.1687522 0.4653415 -0.8991593 -2.6423655 1.3428372 0.3302031 1.1748999 -0.076478034
0.24496359 0.36807638 0.092856936 0.7709155 0.06404212 -0.13756387 0.26959413 0.23693398
