fw_flightcontrol/models/icinco/sac/actreg/actvar/sac_bohn_actvarR1_nohist_noatmo_4508_03-06_14:48:32.pt (torch, 853763 bytes, 20 tensors)

action_scale f4 [1, 2]
1.0 1.0
00000000: 0000 803f 0000 803f

action_bias f4 [1, 2]
0.0 0.0
00000000: 0000 0000 0000 0000

fc1.weight f4 [256, 14]
-0.115573056 -0.2567925 -0.14753577 -0.2343426 0.11453515 0.2647718 -0.23265396 -0.2576162
0.21151589 -0.07696225 -0.24102524 0.19424081 -0.16167936 0.1152125 -0.37198895 0.3885809
-0.020465493 0.6555136 0.03752881 0.603275 1.8643806 -2.408308 0.55932295 -4.184192
0.1268518 -0.15974131 -0.22374164 0.31052974 -1.162541 1.2530782 -0.0675791 -0.05443492
0.11842324 0.1703031 0.8494567 -0.8027596 -0.5030933 -3.1860743 -0.5358346 0.5222219
0.57407725 -0.06803394 -0.26531178 -0.011940563 -0.16860935 0.038844343 0.100909576 -0.11366894
-0.124981165 -0.21292658 0.2384807 0.04323647 -0.21037538 0.14979844 0.21568292 -0.06775413
0.32828712 -0.011845357 -0.010462957 -0.27253398 0.011289699 -0.23773813 0.005292694 0.22186628
0.27961493 -1.2423297 4.1361265 0.19329332 -0.04215865 -0.0007646159 0.060472593 -0.021812128
-0.09098154 -0.18183564 0.009088488 -0.12174209 0.27819315 0.015752455 -0.048447896 -0.20173803
0.057110682 -0.08090473 -0.07839147 0.18390267 -0.9946622 1.3263052 0.019001583 -0.9094847
0.31361145 -0.42009404 2.2545469 0.36291066 -0.48501182 1.3088459 0.2759464 -0.0869934
0.092620224 0.16699734 0.015309283 -0.044272497 -0.2594129 0.040794402 -0.15076414 -0.046528406
-0.09489202 -0.24517973 0.20631811 -0.06675675 -0.082412414 -0.18361574 -0.21720344 0.22263764
-0.10787307 0.052549124 -0.15344879 -0.07254718 -0.12628153 -0.006726893 0.24806507 -0.23947908
0.03560294 0.12693635 0.21781458 -0.008791582 -0.19685055 -0.106989175 -0.35270295 2.1893942
-0.049806487 0.3670458 -0.5301017 -0.0462117 -2.0430486 -0.27452743 0.1874534 0.81729376
0.22265628 0.6423439 -0.48824126 -0.55231386 -0.1640046 -0.13904727 -0.1532858 -0.1651745
-0.2114241 0.17767158 -0.21591894 -0.09813059 -0.20533386 -0.056058347 0.08517385 0.027384931
-0.014901633 -0.09756361 0.18558422 0.095436476 -0.23760414 -0.2255472 -0.03521265 0.17859824
0.25070655 -0.25938436 -0.1328694 0.23316377 -0.12563293 -0.18032014 0.22081389 -0.13358535
0.09895357 0.00069884956 -0.056378793 0.09058011 -0.02492005 0.05193152 0.056090046 0.07817356
-0.09613249 -0.00626282 -0.09158316 0.039412823 0.13429 0.0065889074 0.64563066 0.25112218
-0.089905344 0.9447655 -0.20386998 0.92499435 0.114925064 2.0599234 -0.03165084 1.6192886
0.6459859 -0.2309855 0.7702023 0.67574394 -0.38452142 -0.41288418 -0.038821403 0.22924532
-0.40303245 -0.3421052 -0.52469903 0.4561365 -0.7032168 3.933156 1.9734344 0.7004972
0.15096503 -0.26690257 0.060641635 0.15463963 -0.21226309 -0.16862573 0.20519005 0.1877257
0.21680398 0.07347826 -0.19456947 -0.13663824 0.23680672 0.10791955 0.21471186 0.23189403
1.5904981 -1.1395756 -0.023235928 -0.7187716 0.101455435 -0.7892946 -1.9090108 -0.46712148
1.8161927 0.46429205 0.17915988 0.026539741 -0.118077196 -0.9442514 0.2551687 -0.18133698
-0.12372193 -0.066525094 -0.07346545 0.090768754 -0.24105978 0.21165362 -0.05570247 0.21340126
0.0029160841 -0.12257924 -0.08329255 -0.038611513 0.23621307 0.21073003 -0.2506908 -0.05570527
00000000: 91b1 ecbd 4e7a 83be 9e13 17be 82f7 6fbe
00000010: 6891 ea3d 2b90 873e d73c 6ebe 45e6 83be
00000020: 9f97 583e 629e 9dbd 52cf 76be 10e7 463e
00000030: 468f 25be 88f4 eb3d 5675 bebe 13f4 c63e
00000040: 40a7 a7bc bdcf 273f cfb7 193d 3b70 1a3f
00000050: 06a4 ee3f b821 1ac0 ca2f 0f3f e7e4 85c0
00000060: 70e5 013e 3a93 23be 871c 65be c1fd 9e3e
00000070: 25ce 94bf de64 a03f e966 8abd 27f7 5ebd
00000080: e287 f23d f063 2e3e ff75 593f a781 4dbf
00000090: b9ca 00bf a4e8 4bc0 752c 09bf 56b0 053f
000000a0: baf6 123f 6155 8bbd f2d6 87be 5aa2 43bc
000000b0: eea7 2cbe 3f1b 1f3d aea9 ce3d 43cb e8bd
000000c0: 20f6 ffbd 6d09 5abe 4934 743e ba18 313d
000000d0: a56c 57be c364 193e fcdb 5c3e adc2 8abd
000000e0: 4015 a83e 0713 42bc d36c 2bbc 9389 8bbe
000000f0: 6ef8 383c a071 73be 566e ad3b ea30 633e
00000100: b029 8f3e a904 9fbf 265b 8440 afee 453e
00000110: 8cae 2cbd 8170 48ba 1cb2 773d 59af b2bc
00000120: 8854 babd 1f33 3abe e2e7 143c eb53 f9bd
00000130: 556f 8e3e 4b0b 813c 4d71 46bd 6a94 4ebe
00000140: e4ec 693d 61b1 a5bd b58b a0bd fb50 3c3e
00000150: 2fa2 7ebf 5ec4 a93f 35a9 9b3c fdd3 68bf
00000160: ae91 a03e 9116 d7be 7f4a 1040 6dcf b93e
00000170: 7853 f8be 4388 a73f d948 8d3e 9829 b2bd
00000180: acaf bd3d 5a01 2b3e c9d3 7a3c 1457 35bd
00000190: c5d1 84be 0818 273d ea61 1abe 9294 3ebd
000001a0: bf56 c2bd 6510 7bbe 0e45 533e c3b7 88bd
000001b0: d7c7 a8bd c405 3cbe 946a 5ebe 1ffb 633e
000001c0: 8eec dcbd c03d 573d ae21 1dbe 9e93 94bd
000001d0: f24f 01be 456d dcbb c504 7e3e 013a 75be
000001e0: 63d4 113d 9afb 013e c90a 5f3e 910a 10bc
000001f0: 3193 49be 241d dbbd 7b95 b4be 091f 0c40
00000200: e301 4cbd 6ded bb3e bfb4 07bf 7b48 3dbd
00000210: 4fc1 02c0 dc8e 8cbe c9f3 3f3e 2a3a 513f
00000220: 0200 643e a670 243f c2fa f9be 7164 0dbf
00000230: d2f0 27be 6862 0ebe f4f6 1cbe 8123 29be
00000240: 8f7f 58be 8aef 353e db19 5dbe b1f8 c8bd
00000250: 0a43 52be 709d 65bd a16f ae3d 5d56 e03c
00000260: fb25 74bc 6ecf c7bd ca09 3e3e 3374 c33d
00000270: 804e 73be d8f5 66be 243b 10bd 75e2 363e
00000280: 9c5c 803e 07ce 84be ea0e 08be 7cc2 6e3e
00000290: eba5 00be d8a5 38be 091d 623e 99ca 08be
000002a0: 2ba8 ca3d 0033 373a 73ed 66bd 1182 b93d
000002b0: 2225 ccbc 25b6 543d adbe 653d 7619 a03d
000002c0: 1ce1 c4bd 5838 cdbb f48f bbbd 576f 213d
000002d0: 5183 093e c3e7 d73b 0d48 253f 1693 803e
000002e0: 4b20 b8bd 27dc 713f 4bc3 50be 6ecc 6c3f
000002f0: d55d eb3d c9d5 0340 50a4 01bd d944 cf3f
00000300: 555f 253f 7787 6cbe fa2b 453f 8efd 2c3f
00000310: fedf c4be 8e65 d3be 3103 1fbd 49bf 6a3e
00000320: 455a cebe 6a28 afbe ad52 06bf b98a e93e
00000330: 0406 34bf d4b8 7b40 8099 fc3f c953 333f
00000340: 9496 1a3e 74a7 88be 5d63 783d da59 1e3e
00000350: 7f5b 59be 39ac 2cbe 571d 523e 2a3b 403e
00000360: dd01 5e3e c57b 963d 383d 47be e5ea 0bbe
00000370: 767d 723e ed04 dd3d 6ddd 5b3e a175 6d3e
00000380: 7195 cb3f 9ddd 91bf 4659 bebc 6a01 38bf
00000390: dec7 cf3d 360f 4abf 775a f4bf 8c2a efbe
000003a0: 0179 e83f b0b7 ed3e b075 373e df69 d93c
000003b0: 75d2 f1bd 76ba 71bf 79a5 823e 67b0 39be
000003c0: ec61 fdbd 4f3e 88bd 0e75 96bd f8e4 b93d
000003d0: 60d8 76be babb 583e 4628 64bd dc85 5a3e
000003e0: c61b 3f3b d30a fbbd 4995 aabd 1b27 1ebd
000003f0: d7e1 713e 9dc9 573e 8b5a 80be 362b 64bd

fc1.bias f4 [256]
-0.09233662 0.6318105 0.21073093 0.19008645 -0.18272887 -0.0606258 -0.30671558 -0.23734735
0.2388657 0.4174068 -0.2662663 -0.025991851 -0.009979514 -0.2522959 -0.37696895 0.1005841
-0.61502373 0.05188153 -0.2027733 0.16156259 -0.016396219 -0.7212462 -0.022391733 -0.22803599
-0.21855241 -0.12980822 -0.2206044 0.010551231 0.071902975 0.27800253 -0.094176024 0.20020255
-0.6976801 -0.054357987 -0.2868236 -0.11483483 -0.21766117 -0.7662827 0.07323016 0.16182849
0.19865637 -0.25589058 -0.46101063 -0.84276026 -0.32614616 0.38626388 -0.16560414 -0.92194474
0.35773495 0.09020433 0.05864034 -0.16320688 0.42378834 -0.32170364 0.13877001 -0.26530302
0.24682641 -0.0012516617 -0.18217272 0.09514849 -0.5806036 0.42318213 -0.22363402 0.1554562
0.2390985 0.020805592 0.11955184 0.57430196 -0.24426298 0.43893966 0.13156876 -0.11426078
0.34089145 0.10467539 -0.108703084 0.1715439 -0.2350661 0.25791478 -0.0269178 -0.34956703
0.02479723 0.0798206 -0.062337223 -0.07627315 -0.50317115 -0.0358013 0.20238586 -0.047596484
0.00094410806 -0.08436021 0.615766 -1.3872604 0.15103294 -0.18298832 -0.73594964 -0.16534258
-0.3591159 0.12857403 -0.21966699 -0.17251234 -0.33218294 -1.4607652 -0.1321331 0.07373186
0.037035316 0.007809401 0.19070616 -0.5349429 0.17577563 0.2253689 0.4942631 -0.27228728
-0.044846326 -0.15651666 0.12693116 0.43202898 -0.060044385 0.13171516 -0.0042538545 -0.16892976
-0.42673317 -1.5575511 -0.14940019 0.2411539 0.15881991 -0.0013722111 0.21400511 -0.30095455
0.18940824 1.0183245 -0.07005306 -0.84497887 -0.14281006 -0.43381795 0.23061839 -0.2746375
-0.20307279 -0.018150982 0.047673713 0.13948826 -0.23664811 -0.067342445 0.31164062 -0.19021003
-0.039909035 -0.25739735 0.12883836 -0.37069136 -1.3852745 0.31855744 -0.2938889 0.37037385
0.17311218 0.21355897 -0.043065872 -0.008231216 -0.2964054 0.26308894 -0.28907007 -0.13574715
0.2651846 0.09004206 -1.2755857 -0.20580111 0.5269155 -0.21756954 -0.47171265 -0.6720168
0.54571795 0.2538139 0.13689236 0.23837958 -0.008862152 -0.12943646 -0.79578644 -0.16412492
-0.34077165 0.02661395 0.04566007 -0.120186634 0.16418444 -0.72547483 -0.1532664 -0.3889278
0.05637322 -0.10921358 0.5566588 -0.22650899 0.16942933 -0.22461344 -0.14427915 -0.1582322
-0.076049656 0.32744026 -0.1924221 -0.102855496 0.114925414 0.019963553 0.5887748 0.13392915
0.2043917 -0.31246558 -0.23358446 -0.2014396 -0.25857964 0.15373872 -0.11701571 -0.24449159
-2.1664815e-05 -0.095830165 0.14276356 -0.2116463 0.30081606 0.01380408 -0.39351758 0.111945845
0.23895873 -0.011244284 0.10198224 0.1420186 0.42729428 0.14779833 0.056551516 -0.105647
-0.05694055 -0.44043913 -0.24217644 -0.49444693 -0.020718595 0.00086326036 -0.27077514 0.18990788
-0.410702 -0.15099934 -0.22556925 -0.21537063 0.17469834 0.13396524 0.08988394 0.01639384
-0.13702701 -0.046584066 0.1271769 0.062288713 -0.11354102 0.113051385 0.22123668 -0.22783937
-0.04152622 -0.1377498 0.09692093 0.06448746 0.16333595 -0.012507257 0.035778996 0.022140676
00000000: fb1a bdbd 55be 213f d9c9 573e 06a6 423e
00000010: 471d 3bbe c252 78bd d309 9dbe 2f0b 73be
00000020: 3699 743e 58b6 d53e 0e54 88be ddec d4bc
00000030: 1e81 23bc ee2c 81be 1302 c1be 09ff cd3d
00000040: 3272 1dbf ba81 543d cea3 4fbe aa70 253e
00000050: 5d51 86bc 97a3 38bf de6e b7bc 4482 69be
00000060: 34cc 5fbe 72ec 04be 1fe6 61be 12df 2c3c
00000070: de41 933d 5956 8e3e 5cdf c0bd e601 4d3e
00000080: 2a9b 32bf 7ba6 5ebd 8bda 92be 862e ebbd
00000090: 92e2 5ebe 1a2b 44bf b2f9 953d 5eb6 253e
000000a0: 936c 4b3e 1704 83be 9609 ecbe 23bf 57bf
000000b0: a1fc a6be 61c4 c53e 2294 29be 9204 6cbf
000000c0: 0929 b73e 0cbd b83d da30 703d b41f 27be
000000d0: c9fa d83e 57b6 a4be ba19 0e3e ccd5 87be
000000e0: 10c0 7c3e cc0e a4ba 7c8b 3abe 36dd c23d
000000f0: 70a2 14bf 54ab d83e 5100 65be e92f 1f3e
00000100: 3dd6 743e 7d70 aa3c 98d7 f43d 7405 133f
00000110: 1320 7abe b3bc e03e f6b9 063e 8e01 eabd
00000120: 5389 ae3e 0d60 d63d b99f debd 34a9 2f3e
00000130: 2bb5 70be 680d 843e b882 dcbc 73fa b2be
00000140: 8f23 cb3c fc78 a33d 5155 7fbd 1935 9cbd
00000150: d3cf 00bf 62a4 12bd 3d3e 4f3e 88f4 42bd
00000160: 057e 773a 0cc5 acbd d7a2 1d3f c091 b1bf
00000170: 61a8 1a3e 4a61 3bbe 3267 3cbf 914f 29be
00000180: 0ade b7be e9a8 033e 62f0 60be 13a7 30be
00000190: e213 aabe 5bfa babf e64d 07be bb00 973d
000001a0: 58b2 173d 01e6 ff3b 7a48 433e 05f2 08bf
000001b0: 87fe 333e 1bc7 663e 0e10 fd3e 3d69 8bbe
000001c0: c8b0 37bd e745 20be 3efa 013e e732 dd3e
000001d0: 1af1 75bd 57e0 063e eb63 8bbb ecfb 2cbe
000001e0: c57c dabe d65d c7bf 5dfc 18be 0cf1 763e
000001f0: b0a1 223e c4db b3ba 2824 5b3e b716 9abe
00000200: 3cf4 413e 7558 823f fb77 8fbd 8950 58bf
00000210: cd3c 12be 631d debe 3a27 6c3e 499d 8cbe
00000220: 50f2 4fbe 5eb1 94bc 8345 433d 03d6 0e3e
00000230: e253 72be d6ea 89bd 5c8f 9f3e 6bc6 42be
00000240: a877 23bd 96c9 83be 34ee 033e 42cb bdbe
00000250: ad50 b1bf f619 a33e 9b78 96be a4a1 bd3e
00000260: 5244 313e 34af 5a3e d765 30bd 39dc 06bc
00000270: 73c2 97be 98b3 863e fe00 94be 4d01 0bbe
00000280: 47c6 873e f967 b83d 6446 a3bf 87bd 52be
00000290: efe3 063f 8dca 5ebe 5284 f1be 4b09 2cbf
000002a0: 2cb4 0b3f e5f3 813e 832d 0c3e c719 743e
000002b0: 8f32 11bc fe8a 04be a9b8 4bbf 5d10 28be
000002c0: 9f79 aebe 8005 da3c 0e06 3b3d 6924 f6bd
000002d0: f71f 283e b8b8 39bf def1 1cbe 8b21 c7be
000002e0: 9be7 663d 5fab dfbd 3181 0e3f f9f1 67be
000002f0: e27e 2d3e 1101 66be eabd 13be 9f07 22be
00000300: ecbf 9bbd 40a6 a73e 4d0a 45be e7a5 d2bd
00000310: 045e eb3d 9b8a a33c f2b9 163f b924 093e
00000320: 0f4c 513e 7dfb 9fbe c430 6fbe 2f46 4ebe
00000330: 8d64 84be af6d 1d3e efa5 efbd 015c 7abe
00000340: d6bc b5b7 9b42 c4bd 9c30 123e cfb9 58be
00000350: 9004 9a3e 822a 623c 237b c9be dd43 e53d
00000360: 99b1 743e f239 38bc 11dc d03d 536d 113e
00000370: 51c6 da3e 7258 173e 90a2 673d 745d d8bd
00000380: 7f3a 69bd 3d81 e1be 1afd 77be 2628 fdbe
00000390: 0bba a9bc 6c4c 623a 0aa3 8abe 3677 423e
000003a0: 8847 d2be 929f 1abe a0fb 66be 1e8a 5cbe
000003b0: 1fe4 323e 2f2e 093e 1215 b83d 604c 863c
000003c0: cf50 0cbe efce 3ebd a93a 023e 7322 7f3d
000003d0: 3288 e8bd 7c87 e73d de8b 623e b94e 69be
000003e0: 6617 2abd 490e 0dbe 7b7e c63d 0012 843d
000003f0: 8a41 273e 3deb 4cbc ff8c 123d 5d60 b53c

fc2.weight f4 [256, 256]
0.030327395 -0.2615321 0.09106088 -0.020523869 0.005174904 0.001516831 -0.99826705 -0.023565188
-0.061198793 0.16173565 -0.044577263 0.037825078 -0.010191418 -0.13622661 0.06699143 0.0065234527
-0.086673826 0.005202092 -0.01727426 0.037210837 0.02021391 -0.16008087 0.0586472 -0.7862545
-0.39232704 0.020100523 0.014696956 -0.22047852 -0.03386184 0.054584164 0.013297893 -0.029903606
0.018951835 0.25907883 0.16736054 -0.042285383 0.049920835 -0.06932288 -0.016652614 0.045825444
0.024010455 -0.27507487 -1.7316499 -0.45505226 -0.08645413 0.14472245 -0.025676398 -0.059259884
-0.6498566 0.023716956 0.054154303 -0.04068274 -0.11808793 0.17363478 -0.35582915 0.033919275
-0.7738293 -0.056263763 -0.13168961 0.037076578 -0.3508587 -0.29387367 0.03256679 0.007893577
-0.006561324 -0.032391097 -0.01843185 -0.2540302 -0.02369634 -0.10522418 0.11756549 -0.030083738
-0.1051671 -0.9528303 -0.02625873 -0.3122293 -0.26722845 0.01093062 0.04963357 -0.42402726
-0.022826687 -0.050265305 0.015278362 -0.22909947 -0.37945405 0.04836201 0.010367185 -0.031632774
0.040421106 -0.03779438 0.0079330355 -0.3901667 -0.014873265 -0.38365385 -0.07554918 -0.046107925
0.17296614 -0.73417056 -0.015480921 -0.037561297 -0.114159346 -0.5167512 -0.015693337 -0.009301916
-0.120405 0.022093393 0.0013605133 0.10510882 -0.67966616 -0.05068341 0.23875998 -0.009231879
-0.04276634 0.011863187 -0.0060494617 -1.0409342 0.01640398 -0.28284773 0.019122481 -0.4585705
-0.1598142 -0.9804816 -0.05950205 0.09735739 0.27782232 0.04608871 -0.018230371 0.03958748
-0.1414372 -0.6222892 -0.10387288 0.0060685487 -0.04132984 -0.0920396 -0.021052368 -0.012985706
-0.025577985 -0.61207247 0.048839517 -0.13582484 -0.24103655 0.040768 0.0965143 -0.007262051
-0.23777759 0.09330194 0.045234844 0.44804597 -0.0868991 -0.5503525 -0.51971054 0.3537096
-0.12783666 0.030761316 -0.11222238 0.03445886 0.32992226 -0.037279397 -0.015002493 -0.017126188
-0.027888648 -0.17596827 0.2630077 0.040949233 0.027041176 0.12731111 -0.032362662 0.15896092
0.23819065 0.024053268 0.07685061 -0.03347779 -0.0081359595 0.012079241 0.02779048 -0.08671671
-0.13142635 -3.3289194e-05 -0.112469964 0.31091395 -0.0017689094 -0.5879378 0.17252088 0.20154724
-0.028740235 0.07069082 -0.16277383 0.039927267 0.13673134 -0.012365125 0.06708381 -0.14545286
-0.5800308 -0.44308972 -0.00058946013 -0.020870522 0.042890485 -0.024506673 -0.48963347 -0.9014405
0.010539554 0.09167799 -0.019232154 0.032765146 -0.0038940907 -0.01444757 0.05831448 -0.113902465
0.04095614 0.05455518 0.034341544 0.08521778 -0.29653367 0.09255047 0.14373048 0.04659526
-0.0129004195 0.04034655 0.057426974 0.021601819 -0.7542992 -1.0016295 -0.11023414 -0.09443334
-0.023930669 0.073175505 0.045455016 0.32761106 0.101013795 0.29554215 0.10100997 -0.017123103
0.05803261 -0.022053413 -0.02491191 0.015538417 0.3884254 -0.025033943 -0.15029708 -0.04645586
0.017579773 0.0439263 0.19550227 -0.4105648 -0.030553102 -1.1049025 -0.021513026 -0.015486054
-0.11863106 -0.032174468 -0.05449553 0.19364853 0.0051926672 -0.060178965 0.046466775 0.0067124367
00000000: 2871 f83c 89e7 85be 207e ba3d ac21 a8bc
00000010: 3e92 a93b 67d0 c63a 6e8e 7fbf c80b c1bc
00000020: 96ab 7abd 089e 253e a696 36bd 78ee 1a3d
00000030: e8f9 26bc fd7e 0bbe ce32 893d b0c2 d53b
00000040: 0c82 b1bd 5076 aa3b c082 8dbc 646a 183d
00000050: a497 a53c 3dec 23be 0c38 703d fa47 49bf
00000060: 17df c8be daa9 a43c 80cb 703c 1fc5 61be
00000070: b6b2 0abd a593 5f3d 68df 593c 68f8 f4bc
00000080: e140 9b3c fba5 843e 9060 2b3e 7033 2dbd
00000090: ca79 4c3d 27f9 8dbd 106b 88bc 76b3 3b3d
000000a0: 93b1 c43c 9dd6 8cbe b4a6 ddbf 9cfc e8be
000000b0: dd0e b1bd 1f32 143e 4f57 d2bc 7eba 72bd
000000c0: 015d 26bf 104a c23c e7d0 5d3d f2a2 26bd
000000d0: 16d8 f1bd 51cd 313e 3d2f b6be f0ee 0a3d
000000e0: ad19 46bf d574 66bd a4d9 06be 9cdd 173d
000000f0: c0a3 b3be 9c76 96be c164 053d 1054 013c
00000100: 6000 d7bb 87ac 04bd 64fe 96bc 3f10 82be
00000110: d41e c2bc c67f d7bd 2dc6 f03d 2c72 f6bc
00000120: d961 d7bd b0ec 73bf 8c1c d7bc 85dc 9fbe
00000130: 2bd2 88be 5816 333c 924c 4b3d 1a1a d9be
00000140: 08ff babc fee2 4dbd 1852 7a3c 0d99 6abe
00000150: cd47 c2be 3e17 463d 20db 293c 5e91 01bd
00000160: 9a90 253d 48ce 1abd 90f9 013c eec3 c7be
00000170: ffae 73bc 476e c4be 87b9 9abd aadb 3cbd
00000180: 091e 313e 9af2 3bbf b0a3 7dbc e0d9 19bd
00000190: 60cc e9bd cf49 04bf 508f 80bc 1067 18bc
000001a0: e696 f6bd 34fd b43c 4053 b23a 4b43 d73d
000001b0: 9afe 2dbf 6899 4fbd 7f7d 743e 4f41 17bc
000001c0: c22b 2fbd d05d 423c 903a c6bb 553d 85bf
000001d0: a461 863c 6bd1 90be c0a6 9c3c c1c9 eabe
000001e0: 55a6 23be d800 7bbf 6cb8 73bd 5063 c73d
000001f0: ba3e 8e3e 84c7 3c3d dc57 95bc 7b26 223d
00000200: ead4 10be 584e 1fbf 4ebb d4bd adda c63b
00000210: 7a49 29bd 427f bcbd 0476 acbc 00c2 54bc
00000220: ec88 d1bc c8b0 1cbf f20b 483d ab15 0bbe
00000230: 49d2 76be 59fc 263d 4aa9 c53d 80f6 edbb
00000240: f87b 73be 1615 bf3d 2c48 393d 4866 e53e
00000250: 28f8 b1bd e7e3 0cbf c00b 05bf 6d19 b53e
00000260: 9de7 02be 28ff fb3c d9d4 e5bd bc24 0d3d
00000270: 92eb a83e 48b2 18bd 04cd 75bc 384c 8cbc
00000280: bc76 e4bc 0731 34be f2a8 863e 62ba 273d
00000290: 7585 dd3c d85d 023e b68e 04bd a7c6 223e
000002a0: 40e8 733e 5c0b c53c da63 9d3d 0220 09bd
000002b0: b04c 05bc 02e8 453c dca8 e33c 8898 b1bd
000002c0: a194 06be 00a0 0bb8 a756 e6bd 1d30 9f3e
000002d0: c0da e7ba 1783 16bf 50a9 303e 6662 4e3e
000002e0: a470 ebbc 59c6 903d 2fae 26be c68a 233d
000002f0: 4d03 0c3e 1897 4abc 3d63 893d 98f1 14be
00000300: e67c 14bf a8dc e2be 0086 1aba a8f8 aabc
00000310: efad 2f3d 38c2 c8bc 3db1 fabe cec4 66bf
00000320: 18ae 2c3c acc1 bb3d c08c 9dbc bf34 063d
00000330: 0034 7fbb 80b5 6cbc 2adb 6e3d b245 e9bd
00000340: a0c1 273d 4175 5f3d b8a9 0c3d a986 ae3d
00000350: 43d3 97be 1a8b bd3d 152e 133e acda 3e3d
00000360: 485c 53bc 6d42 253d 8c38 6b3d 4cf6 b03c
00000370: c119 41bf 6535 80bf 70c2 e1bd 4466 c1bd
00000380: 400a c4bc 0add 953d 0a2f 3a3d a3bc a73e
00000390: 52e0 ce3d 4d51 973e 51de ce3d c045 8cbc
000003a0: 9ab3 6d3d 5ca9 b4bc 1014 ccbc d894 7e3c
000003b0: b2df c63e fc13 cdbc 7ae7 19be 8048 3ebd
000003c0: 7503 903c 10ec 333d bf31 483e 8d35 d2be
000003d0: 804a fabc 726d 8dbf 163c b0bc 38b9 7dbc
000003e0: d7f4 f2bd 60c9 03bd b436 5fbd cd4b 463e
000003f0: 4027 aa3b 387e 76bd f253 3e3d 00f4 db3b

fc2.bias f4 [256]
-0.31671366 -0.05625275 0.02069336 0.018956617 0.20010062 -0.25834 -0.02264719 0.007225197
0.020421669 0.038721487 -0.014014285 0.0026164937 -0.027412618 0.29049098 -0.12916459 -0.020878343
-0.26635954 -0.23633341 -0.45645738 -0.0027592988 -0.064580984 -0.013983909 -0.333215 -0.18765898
-0.048709534 -0.07076962 -0.037943225 0.02387791 -0.026026864 -0.019299235 0.011943203 -0.04913246
-1.5666524 0.135874 -0.020274393 0.21178392 -0.22036296 -0.06814021 -0.053180527 0.22425851
-0.19834913 -0.006651166 0.069101684 -0.05743768 0.07036271 -0.019768069 -0.25278708 -0.33347118
0.29236484 -0.01378247 -0.012108523 0.8804027 0.20786837 -0.3009345 -0.15597156 -0.098461896
-0.029490193 0.3040838 -0.2235572 0.03107744 -0.03039293 -0.048911892 -0.41232783 -0.000604625
-0.027528081 -0.08235167 -0.28002745 -0.26599678 0.14708245 -0.026480068 0.026647333 0.08504052
-0.1285422 0.0046680737 0.7559513 -0.39499006 -0.07745912 -0.38445532 -0.046872843 -0.5545735
-0.04236918 0.039544366 0.15421164 -0.021117557 0.10711119 -0.085918665 -0.93026733 -0.69794196
-0.08104421 0.110586025 -0.07938716 -0.111747615 0.009450744 -0.00021104385 -0.3075642 -0.037506152
-0.0005820262 -0.36071426 -0.013978762 -0.062669955 0.012766966 -0.10266703 -0.30454993 -0.07189253
0.0057170233 -0.06318024 -0.08762097 -0.17966686 0.13062799 -0.1274141 -0.36930874 -0.014798503
-0.41679615 -0.07195096 -0.11434375 0.0071418537 -0.35968125 -0.40274784 -0.35583404 0.098273985
-0.10805238 -0.18518022 -0.10810618 -0.596118 -0.105665624 0.028182795 -0.0704414 -0.075422406
-0.040826473 -0.0102058025 0.003794086 0.23365651 -0.07231773 0.011147233 -0.053749286 -0.3171395
-0.091469325 -0.006567069 0.021164339 -0.013293405 -0.08562745 -0.052112248 -0.0014173903 -0.008641575
0.112334535 -0.07261897 0.52752525 -0.0049223537 0.12165952 0.18617783 -0.052487083 0.1845307
-0.08247916 -0.43713558 -0.10362811 -0.82673174 -0.022536483 -0.2861487 -0.041981924 -0.04418031
-0.026810678 -0.59070367 -0.16311356 -0.08799234 -0.052935954 -0.062380668 -0.29022723 -0.06355215
-0.62803286 0.09715823 -0.18120888 -0.012251064 -0.07959124 -0.090412065 0.10029468 -0.0145404795
-0.14687088 -0.1304677 0.17339435 0.032107305 0.053664196 0.02884772 -0.01975829 0.20485564
-0.08895428 0.013372026 0.23246847 -0.033578523 -0.00867815 -2.1449428 -0.40446618 -0.014831356
-0.21522002 -0.08887555 -0.15123242 0.016949723 -0.07554053 -0.21434487 0.05588452 -0.09024288
-0.03462925 0.029946094 -0.05477971 -0.048110187 0.14699002 -0.08684974 -0.16915518 0.05563632
-0.012175746 -0.026827395 -0.02149947 0.0885925 -0.059182 -0.0021972829 -0.40963823 -0.074825905
-0.04575466 -0.057086144 -0.030492451 0.098278254 -0.09820173 -0.051017266 -0.07726726 -0.027121725
-0.06620001 -0.081633404 -0.47587612 -0.22611232 -0.028858367 -0.37785912 -0.01158318 -0.04670487
0.0519042 -0.30348638 -0.04193318 -0.06879575 -0.32108 0.15359022 -0.091024004 0.21143301
-0.16680223 -0.03663872 -0.048185643 -0.0577163 -0.08216083 -0.22801632 -0.05043882 -0.0799582
0.2958528 -0.021137148 -0.44319484 -0.034224186 0.1528668 -0.31380668 -0.044133835 0.019946761
00000000: 4b28 a2be 4969 66bd 1f85 a93c e84a 9b3c
00000010: 2de7 4c3e 2445 84be 9a86 b9bc 58c1 ec3b
00000020: 584b a73c 6c9a 1e3d 2c9c 65bc 7b79 2b3b
00000030: 6d90 e0bc 3cbb 943e b943 04be 0f09 abbc
00000040: 4760 88be 6301 72be c8b4 e9be 5ad5 34bb
00000050: 0943 84bd c41c 65bc 289b aabe ad29 40be
00000060: a683 47bd aaef 90bd 5b6a 1bbd 9b9b c33c
00000070: 4a36 d5bc 6e19 9ebc 6dad 433c 1e3f 49bd
00000080: 1188 c8bf 8e22 0b3e 7c16 a6bc e2dd 583e
00000090: d4a6 61be 188d 8bbd d3d3 59bd 06a4 653e
000000a0: 091c 4bbe 06f2 d9bb 2f85 8d3d c643 6bbd
000000b0: 531a 903d a5f0 a1bc 4f6d 81be bcbc aabe
000000c0: d8b0 953e decf 61bc d462 46bc 1262 613f
000000d0: 72db 543e 1614 9abe 02b7 1fbe 64a6 c9bd
000000e0: 6b95 f1bc dfb0 9b3e 2eec 64be 1e96 fe3c
000000f0: 98fa f8bc d657 48bd a21c d3be b27f 1eba
00000100: 9282 e1bc fea7 a8bd c25f 8fbe bb30 88be
00000110: c89c 163e baec d8bc 824b da3c b929 ae3d
00000120: 91a0 03be a4f6 983b 0686 413f 233c cabe
00000130: e3a2 9ebd 54d7 c4be bdfd 3fbd 87f8 0dbf
00000140: 4e8b 2dbd 46f9 213d a8e9 1d3e bafe acbc
00000150: 1d5d db3d 20f6 afbd 0026 6ebf 53ac 32bf
00000160: 82fa a5bd ed7a e23d bc95 a2bd efdb e4bd
00000170: 4bd7 1a3c a74b 5db9 0e79 9dbe 0da0 19bd
00000180: 1e93 18ba 8aaf b8be 2d07 65bc 1b59 80bd
00000190: 892c 513c 1843 d2bd f8ed 9bbe 643c 93bd
000001a0: de55 bb3b a464 81bd a072 b3bd 97fa 37be
000001b0: 58c3 053e d878 02be 0916 bdbe 6c75 72bc
000001c0: 4e66 d5be 065b 93bd 0e2d eabd 3606 ea3b
000001d0: 2428 b8be f734 cebe e12f b6be df43 c93d
000001e0: 914a ddbd e29f 3dbe c666 ddbd 309b 18bf
000001f0: 3867 d8bd 9bdf e63c 9543 90bd 1077 9abd
00000200: a939 27bd 3d36 27bc 33a6 783b a743 6f3e
00000210: 511b 94bd e2a2 363c 3628 5cbd 1c60 a2be
00000220: 4554 bbbd 9130 d7bb d660 ad3c 95cc 59bc
00000230: 725d afbd a773 55bd bac7 b9ba 6595 0dbc
00000240: a60f e63d 41b9 94bd e50b 073f b24b a1bb
00000250: a028 f93d 67a5 3e3e b2fc 56bd 9ef5 3c3e
00000260: d5ea a8bd 3cd0 dfbe f93a d4bd b1a4 53bf
00000270: 6e9e b8bc 1582 92be 3df5 2bbd 6af6 34bd
00000280: 11a2 dbbc 5b38 17bf 3e07 27be 5435 b4bd
00000290: 5fd3 58bd df82 7fbd aa98 94be a127 82bd
000002a0: c3c6 20bf e5fa c63d d28e 39be b0b8 48bc
000002b0: bb00 a3bd f629 b9bd 4c67 cd3d 313b 6ebc
000002c0: 5265 16be 5399 05be 4a8e 313e f382 033d
000002d0: fdce 5b3d 0e52 ec3c 23dc a1bc adc5 513e
000002e0: a92d b6bd 5816 5b3c 370c 6e3e a289 09bd
000002f0: cd2e 0ebc be46 09c0 3116 cfbe 37ff 72bc
00000300: a362 5cbe 6204 b6bd acdc 1abe 25da 8a3c
00000310: feb4 9abd 397d 5bbe 2be7 643d 42d1 b8bd
00000320: 67d7 0dbd 8351 f53c b060 60bd 300f 45bd
00000330: 8d84 163e 47de b1bd 0437 2dbe e9e2 633d
00000340: c87c 47bc 20c5 dbbc a81f b0bc fc6f b53d
00000350: d368 72bd 4a00 10bb 1abc d1be 533e 99bd
00000360: 3d69 3bbd 29d3 69bd 4ecb f9bc 1c46 c93d
00000370: fd1d c9bd 7bf7 50bd 4c3e 9ebd 612e debc
00000380: df93 87bd 6a2f a7bd 09a6 f3be fd89 67be
00000390: 6268 ecbc c076 c1be 61c7 3dbc 9b4d 3fbd
000003a0: 8099 543d 9162 9bbe 20c2 2bbd c9e4 8cbd
000003b0: 9964 a4be c146 1d3e cb6a babd e581 583e
000003c0: 34ce 2abe 7c12 16bd 4f5e 45bd ed67 6cbd
000003d0: f043 a8bd 1c7d 69be f098 4ebd 20c1 a3bd
000003e0: 057a 973e d027 adbc 6fea e2be a92e 0cbd
000003f0: 1d89 1c3e 45ab a0be aec5 34bd 6467 a33c

fc_mean.weight f4 [2, 256]
0.099512935 0.004080483 -0.01826568 0.0064772787 -0.016369106 -0.74755406 -0.049712047 0.02442633
-0.4616447 0.026126169 0.028959759 -0.044833623 0.04860501 0.005740348 -0.03201247 0.002472507
-0.34720087 -0.30246583 -0.0940655 -0.10113503 0.009516604 -0.018149035 -0.019564405 0.02288273
0.023798589 0.035295706 -0.043349657 0.10624639 0.0020492882 0.013358186 -0.0035098656 0.069453426
-0.004089346 0.90734464 0.0022853569 0.07926508 0.0073973695 0.010620526 0.00014220532 -0.05201473
-0.6714105 0.026965106 -0.10025185 0.0041920478 0.03412572 0.0580902 -0.42514902 0.014491691
0.027632305 -0.006093759 -0.032950073 -0.056066025 -0.6026568 -0.058475696 -0.27344885 0.060751524
-0.018558525 0.21902265 -0.011187896 -0.6369948 -0.0020525877 -0.07029794 0.008909915 0.03757405
-0.19792745 -0.0012917123 -0.19713876 -0.5248874 0.29854456 -0.041664783 -0.04235493 -0.030979957
0.038417656 -0.033420954 -0.041859016 -0.070032425 0.006342717 -0.23152325 -0.02446442 -0.070618115
-0.25384757 -0.052869722 0.26318792 -0.03518431 -0.039212395 0.03411387 0.21404266 0.038597804
-0.022813223 -0.13591203 -0.008095361 0.016482899 0.029490152 0.013747272 -0.12583205 0.042931005
0.09155991 0.048331503 -0.019198125 0.059536763 -0.61051273 0.40570888 -0.016217291 0.023336621
0.019111793 -0.07322634 -0.03579935 -0.21961297 0.31766066 0.07079691 0.11220914 -0.0040632877
-0.023251774 0.022194365 -0.08103647 -0.02847412 -0.41551247 0.26935047 -0.328015 0.5555139
-0.09168844 -0.28880808 0.1732298 -0.0037522602 -0.2179159 -0.010237737 0.26247853 -0.012104045
0.007883313 -0.05491428 -0.025719076 -0.13277759 0.0175322 -0.94796956 0.108537965 -0.035619203
0.017929029 0.015524578 -0.00079585635 0.035336208 -0.03914401 -0.042544607 -0.016865045 -0.007656301
-0.064544246 0.038392406 -0.26679927 -0.029874388 0.13011163 -0.815838 -0.016085654 0.022846743
0.31037393 0.0051158476 -0.08718485 -0.11124436 -0.03593641 0.32093656 -0.029371353 -0.048378535
-0.016738705 0.14455506 -0.14363931 0.010423066 -0.0062789214 -0.04422811 0.00703153 -0.015890237
-0.16754891 -0.15218249 0.0104937665 0.029924234 -0.010035105 -0.013288172 -0.041837685 -0.39400056
-0.19647862 -1.3443427 0.32111022 0.060778067 0.39780876 -0.053285312 -0.006057805 0.006070822
-0.009820325 -0.047765654 0.17845973 0.009451302 0.00044244935 0.009259946 0.09762262 -0.68818456
0.18620658 0.0028534438 -0.5440515 0.04387231 0.029926296 -0.12344482 -0.031641446 0.03314319
0.022270165 0.057037264 -0.0040586293 0.01948658 -0.0800743 -0.027582482 0.026970793 1.7852395
0.09113623 0.0033649062 -0.001606582 -0.45600027 -0.05559894 0.11592056 -0.2561304 -0.03674203
0.14294417 0.04928962 0.018251562 -0.018399566 -0.24864414 -0.012558482 -0.0039081285 7.1593066e-05
0.013325454 -1.1788768 0.06441574 0.24093255 -0.008484605 0.18590969 0.003287725 -0.04401336
0.45635322 -0.111067146 -0.03256205 0.01313546 -0.20160608 0.47501174 0.05395609 0.26560003
-0.23717397 -0.044379707 0.0026107235 -0.035766844 -0.051030677 -0.016710136 -0.007352611 0.0026355658
-0.01689871 0.100923665 -0.31011888 -0.018444119 -0.24992183 -0.18623012 -0.013290769 0.16283228
00000000: 70cd cb3d 93b5 853b e8a1 95bc 5a3f d43b
00000010: 8118 86bc b45f 3fbf dc9e 4bbd ba19 c83c
00000020: b25c ecbe 8c06 d63c 043d ed3c 76a3 37bd
00000030: 0c16 473d 8719 bc3b 821f 03bd c909 223b
00000040: 50c4 b1be cddc 9abe 6aa5 c0bd e21f cfbd
00000050: 88eb 1b3c 49ad 94bc 8845 a0bc 9074 bb3c
00000060: 42f5 c23c 3b92 103d 698f 31bd b597 d93d
00000070: 5a4d 063b 4bdc 5a3c c605 66bb 993d 8e3d
00000080: ecff 85bb bd47 683f edc5 153b bb55 a23d
00000090: a265 f23b b701 2e3c f31c 1539 660d 55bd
000000a0: 8fe1 2bbf ede5 dc3c d850 cdbd 725d 893b
000000b0: 69c7 0b3d fdef 6d3d 22ad d9be 8f6e 6d3c
000000c0: 255d e23c 28ae c7bb a8f6 06bd 7da5 65bd
000000d0: b747 1abf 3684 6fbd 7d01 8cbe 97d6 783d
000000e0: 0c08 98bc 7947 603e 704d 37bc 1712 23bf
000000f0: b584 06bb 5ef8 8fbd e4fa 113c 3fe7 193d
00000100: 7ead 4abe ac4e a9ba bede 49be 055f 06bf
00000110: d5da 983e b1a8 2abd 5d7c 2dbd aec9 fdbc
00000120: d55b 1d3d 69e4 08bd 5c74 2bbd 296d 8fbd
00000130: 91d6 cf3b 6e14 6dbe 9b69 c8bc 3ba0 90bd
00000140: 4ff8 81be ec8d 58bd 91c0 863e 6c1d 10bd
00000150: 2d9d 20bd fcba 0b3d 002e 5b3e bb18 1e3d
00000160: cce2 babc 862c 0bbe 68a2 04bc 2507 873c
00000170: 5595 f13c 3d3c 613c 1eda 00be 6cd8 2f3d
00000180: c383 bb3d 41f7 453d 6345 9dbc d2dc 733d
00000190: 904a 1cbf 13b9 cf3e 20da 84bc 712c bf3c
000001a0: 5690 9c3c b1f7 95bd 57a2 12bd 39e2 60be
000001b0: 6ba4 a23e f8fd 903d e8cd e53d 5425 85bb
000001c0: 817a bebc f5d0 b53c 73f6 a5bd 8f42 e9bc
000001d0: 0dbe d4be 4ee8 893e 95f1 a7be 2936 0e3f
000001e0: 26c7 bbbd a7de 93be 2763 313e 7be8 75bb
000001f0: 5825 5fbe 2ebc 27bc 9663 863e 0b50 46bc
00000200: 0329 013c cced 60bd d0b0 d2bc d9f6 07be
00000210: b09f 8f3c 22ae 72bf 2749 de3d 71e5 11bd
00000220: e6df 923c cd5a 7e3c 04a1 50ba b3bc 103d
00000230: 7855 20bd 4143 2ebd 9028 8abc b5e1 fabb
00000240: c62f 84bd 5b41 1d3d ea99 88be 22bb f4bc
00000250: fc3b 053e c2da 50bf 10c6 83bc 1829 bb3c
00000260: 55e9 9e3e d7a2 a73b f88d b2bd 15d4 e3bd
00000270: 0f32 13bd cc51 a43e 319c f0bc 9228 46bd
00000280: 9c1f 89bc 3e06 143e 2f16 13be 82c5 2a3c
00000290: 69bf cdbb 8928 35bd c068 e63b 3e2c 82bc
000002a0: f191 2bbe bad5 1bbe 0cee 2b3c ab23 f53c
000002b0: 486a 24bc a2b6 59bc fe5d 2bbd 71ba c9be
000002c0: b131 49be 6c13 acbf 8f68 a43e 6cf2 783d
000002d0: 97ad cb3e b341 5abd 8d80 c6bb bfed c63b
000002e0: 6ee5 20bc eba5 43bd 26be 363e a2d9 1a3c
000002f0: 8cf8 e739 07b7 173c 5eee c73d dd2c 30bf
00000300: f0ac 3e3e d800 3b3b f646 0bbf 74b3 333d
00000310: fe27 f53c a3d0 fcbd 769a 01bd 27c1 073d
00000320: ec6f b63c e89f 693d 40fe 84bb 52a2 9f3c
00000330: fffd a3bd a8f4 e1bc daf1 dc3c ba82 e43f
00000340: a2a5 ba3d c285 5c3b f293 d2ba de78 e9be
00000350: b7bb 63bd c267 ed3d 8623 83be d07e 16bd
00000360: f55f 123e eae3 493d 4d84 953c b0ba 96bc
00000370: 929c 7ebe 17c2 4dbc c20f 80bb 3c24 9638
00000380: 0153 5a3c 6fe5 96bf 66ec 833d 06b7 763e
00000390: 0303 0bbc 1c5f 3e3e df76 573b 5a47 34bd
000003a0: 21a7 e93e 2c77 e3bd c95f 05bd 1d36 573c
000003b0: d371 4ebe bd34 f33e 1001 5d3d bafc 873e
000003c0: bcdd 72be 7fc7 35bd ac18 2b3b 4180 12bd
000003d0: 8b05 51bd b2e3 88bc 2cee f0bb 75b9 2c3b
000003e0: 2a6f 8abc 11b1 ce3d e7c7 9ebe 1f18 97bc
000003f0: 82eb 7fbe 1cb3 3ebe 87c1 59bc 81bd 263e

fc_mean.bias f4 [2]
0.085685305 0.01818827
00000000: c77b af3d 91ff 943c

fc_logstd.weight f4 [2, 256]
0.24260426 0.030119304 0.039803095 0.04287702 0.0070708264 0.27885476 -0.01237913 0.034721408
0.0686127 0.0067612138 -0.064932816 -0.009798979 0.005846135 -0.0015202058 -0.021769315 0.027609995
0.11657854 -0.02629153 0.013829804 0.016575703 0.0045391517 0.035490308 0.0176377 -0.009427286
0.009105647 -0.020036906 0.034602404 -0.031070268 -0.021087622 0.021257522 0.015683033 0.00022934694
-0.0013736422 0.038391612 -0.0393656 0.017701276 0.0013567936 -0.014628466 0.007342653 -0.19566268
0.08983625 -0.012243492 0.018262936 0.033360563 0.0054830867 -0.028877068 -0.0014077817 -0.0089190155
-0.04109097 -0.034227584 0.006509078 -0.010101424 0.07292542 0.21849053 0.1247161 0.011646826
0.0042405995 0.040815998 -0.0069560534 0.18088411 0.026566532 0.053350434 -0.0047089173 -0.0076038847
0.053150464 0.008829318 0.033981774 0.07533543 0.053554434 -0.034214824 0.0090801725 0.00810036
0.27593583 0.06414532 -0.036063403 0.025577307 0.011747452 0.06865622 -0.03246144 0.017558413
0.07247266 0.011319673 -0.04685503 -0.0039780377 0.052564066 0.040387336 0.053388845 0.04183792
-0.009603963 0.023414776 0.005752257 -0.0011117519 0.029338602 -0.0026510947 0.0652331 0.006690378
0.02028582 0.011473039 -0.022770237 0.0117273955 0.20042463 0.05574235 -0.007896393 0.017274663
0.033987433 0.07628067 -0.030717501 0.0823511 0.12404278 0.0018669021 -0.0081959395 0.03704642
0.0072215265 0.06584323 0.0034811124 0.027134059 -0.0056619537 0.06219075 -0.016393656 0.18301739
-0.008017482 0.044408094 -0.065810025 -0.014822514 0.12836075 -0.00028897563 0.1183689 0.04752459
0.024980966 0.01222242 0.06041474 0.027255578 0.055763245 0.20686309 0.16973896 0.015613938
0.0289607 0.032615546 0.030090429 -0.0075929184 0.04326806 -0.010575854 -0.021006268 0.001825804
0.055958502 -0.030841151 0.024022514 0.060065553 0.017591922 0.3214658 -0.013784333 0.0044751605
0.0062570823 -0.010576109 -0.025300935 0.005560849 0.038601987 0.020265255 -0.0148423845 0.009997888
0.0020925757 0.02939121 -0.04207821 0.024866117 -0.0054308977 -0.036580734 -0.022413928 -0.01769354
0.09398554 0.097547606 -0.03836175 0.02694668 -0.0053691505 0.020410948 0.2825782 0.20104638
0.09390049 0.3349681 0.16896838 -0.05911745 0.05621432 -0.046537075 0.041352034 0.0042320667
0.0042097126 0.0014160153 -0.097262606 0.04377186 0.03841402 -0.007202998 0.02776342 -0.027668443
0.1101709 0.022705607 0.041249353 -0.007994094 0.013569785 0.0040384065 0.013738957 0.012233812
-0.011409528 0.0318276 0.017981892 -0.013744853 -0.012491082 0.038568873 -0.0056393407 0.39945635
0.020119939 -0.032426294 0.017057976 0.04339773 0.017989963 0.016974095 -0.010308966 0.08762715
-0.018402018 -0.0453904 0.02286719 -0.00844049 0.031352405 -0.012543373 -0.008236909 -0.010779203
0.02757169 0.5517451 0.0061464813 0.04322914 -0.007231248 0.11339559 0.039360043 -0.018642742
0.35456434 0.11224576 -0.047065128 0.043169495 0.027371299 0.202587 -0.030574728 0.06168167
0.21099955 -0.050241645 0.008915634 0.029650653 -0.016270887 -0.0047765165 -0.022054736 0.014894885
-0.022255888 0.024808025 0.078395635 0.02501143 0.022366518 0.062228438 0.0146509465 0.04547606
00000000: 406d 783e c2bc f63c 9208 233d d09f 2f3d
00000010: 64b2 e73b 0dc6 8e3e d6d1 4abc 0938 0e3d
00000020: d184 8c3d 2c8d dd3b 7ffb 84bd e68b 20bc
00000030: ef90 bf3b a441 c7ba 9055 b2bc 5b2e e23c
00000040: bbc0 ee3d 5661 d7bc 6796 623c c5c9 873c
00000050: 2abd 943b 495e 113d f07c 903c e774 1abc
00000060: da2f 153c 7024 a4bc 40bb 0d3d 1387 febc
00000070: f3bf acbc 4124 ae3c b479 803c da7c 7039
00000080: c90b b4ba 8640 1d3d d33d 21bd 4402 913c
00000090: 70d6 b13a 3cac 6fbc a39a f03b cc5b 48be
000000a0: 11fc b73d ed98 48bc 279c 953c 16a5 083d
000000b0: 77ab b33b 9a8f ecbc 5185 b8ba 1021 12bc
000000c0: 014f 28bd 3932 0cbd 1b4a d53b 7180 25bc
000000d0: ec59 953d fbbb 5f3e 286b ff3d 54d2 3e3c
000000e0: baf4 8a3b ad2e 273d 9bef e3bb af39 393e
000000f0: 0ea2 d93c fc85 5a3d 434d 9abb 022a f9bb
00000100: 4db4 593d d8a8 103c 7930 0b3d 7649 9a3d
00000110: e55b 5b3d d824 0cbd 01c5 143c 5fb7 043c
00000120: 7647 8d3e 9f5e 833d 38b7 13bd 8087 d13c
00000130: 6378 403c a29b 8c3d 49f6 04bd a9d6 8f3c
00000140: 8c6c 943d 2676 393c 0feb 3fbd 335a 82bb
00000150: 6b4d 573d 316d 253d 43ae 5a3d 3d5e 2b3d
00000160: f159 1dbc 58d0 bf3c 6e7d bc3b 34b8 91ba
00000170: 8257 f03c fdbd 2dbb ee98 853d f53a db3b
00000180: 732e a63c 6af9 3b3c a688 babc 4324 403c
00000190: 1d3c 4d3e 1752 643d df5f 01bc 9883 8d3c
000001a0: 6836 0b3d 0a39 9c3d 45a3 fbbc b2a7 a83d
000001b0: 240a fe3d d7b2 f43a 4348 06bc fdbd 173d
000001c0: 8ea2 ec3b d1d8 863d 6023 643b 3f48 de3c
000001d0: e987 b9bb babb 7e3d fd4b 86bc e968 3b3e
000001e0: c25b 03bc 43e5 353d 68c7 86bd 21da 72bc
000001f0: 0071 033e a781 97b9 656b f23d 25a9 423d
00000200: e2a4 cc3c 8c40 483c 7275 773d 1747 df3c
00000210: 0068 643d ebd3 533e 0dd0 2d3e 9ad1 7f3c
00000220: fd3e ed3c e197 053d 3480 f63c 04ce f8bb
00000230: d939 313d 5946 2dbc 5615 acbc d14f ef3a
00000240: be34 653d 95a6 fcbc ddca c43c 4c07 763d
00000250: ef1c 903c 2a97 a43e afd7 61bc 5ea4 923b
00000260: 3608 cd3b 6b47 2dbc e843 cfbc c837 b63b
00000270: 1e1d 1e3d 5203 a63c 792d 73bc 2ece 233c
00000280: 9823 093b d6c5 f03c 335a 2cbd 07b4 cb3c
00000290: acf5 b1bb aed5 15bd 6a9d b7bc 0bf2 90bc
000002a0: 7e7b c03d 0ac7 c73d 3621 1dbd 49bf dc3c
000002b0: b3ef afbb dc34 a73c 17ae 903e 1adf 4d3e
000002c0: e64e c03d f080 ab3e 0c06 2d3e 2425 72bd
000002d0: fd40 663d a99d 3ebd c060 293d 26ad 8a3b
000002e0: a1f1 893b 9799 b93a 9e31 c7bd 1f4a 333d
000002f0: 0558 1d3d 2007 ecbb 1d70 e33c eea8 e2bc
00000300: 48a1 e13d 1c01 ba3c 15f5 283d a9f9 02bc
00000310: ce53 5e3c 9c54 843b 5d19 613c 5470 483c
00000320: 07ef 3abc a85d 023d c34e 933c 1832 61bc
00000330: 65a7 4cbc 65fa 1d3d 38ca b8bb 8b85 cc3e
00000340: 92d2 a43c 6fd1 04bd 2bbd 8b3c d1c1 313d
00000350: b05f 933c 420d 8b3c f0e6 28bc dd75 b33d
00000360: d4bf 96bc 49eb 39bd f953 bb3c fb49 0abc
00000370: 616b 003d b882 4dbc 1af4 06bc 419b 30bc
00000380: 06de e13c 2b3f 0d3f 6c68 c93b 0a11 313d
00000390: 1bf4 ecbb f23b e83d ff37 213d aab8 98bc
000003a0: 7589 b53e 1be1 e53d 5dc7 40bd 7fd2 303d
000003b0: c639 e03c f772 4f3e da77 fabc eba5 7c3d
000003c0: 4410 583e 2fca 4dbd e112 123c ede5 f23c
000003d0: 864a 85bc 5384 9cbb 22ac b4bc ad09 743c
000003e0: fb51 b6bc 333a cb3c e48d a03d c5e4 cc3c
000003f0: fd39 b73c 3fe3 7e3d 860a 703c 1b45 3a3d

fc_logstd.bias f4 [2]
-0.302514 -0.38001156
00000000: 1de3 9abe e090 c2be

fc1.weight f4 [256, 16]
-0.23402631 -0.20133328 -0.09406334 0.19199783 0.021221995 0.017914653 0.19736806 -0.19458199
0.0040626526 0.042874992 -0.182053 -0.15702838 -0.12113726 0.09816715 0.110238135 0.18698862
0.029891945 0.089121446 -0.08930792 -0.09681129 -0.20055796 -0.15200137 -0.027062155 -0.2390008
0.19513288 0.19763024 0.03985935 0.22718914 0.015080223 0.1582865 -0.22274682 0.077981524
-0.69188756 2.2439306 -0.023909062 -1.6822983 -0.02044009 -0.82964903 0.7258058 1.9575962
1.7375858 1.3190541 -0.026454026 -0.1127065 0.9505903 -0.36534244 -0.07095027 -0.03102687
0.84361935 -5.6144266 -0.029831948 1.8315679 -0.22463207 1.9817911 -0.33501178 0.31254897
0.82971627 -4.0642757 0.14659296 0.10329876 0.7152756 -0.72700346 0.17128961 0.038229052
-0.04404959 -0.06036359 -0.18090028 -0.02070415 0.23642755 -0.052048385 0.13929874 0.014585048
-0.04036796 -0.06849238 -0.16682166 0.18427661 0.147371 -0.10483593 0.10885841 -0.11398861
0.07599443 0.0179649 0.00078333385 -0.12572382 0.04704732 -0.022572435 0.06609493 -0.3239355
-0.22850165 -0.24978155 -3.706413 0.08918788 0.025890706 0.047087267 3.883581 -0.1765456
-1.4358827 1.5369142 -0.21561775 -0.44536188 0.12984742 -0.061340887 0.06673496 0.29256433
-2.578973 2.580158 0.03187985 -0.1774256 1.4509733 0.4507073 0.0440291 -0.06321629
0.22949642 2.511825 -0.019519098 1.3946819 0.03221817 1.4235569 -2.4940338 4.12111
3.1145675 -3.814506 -0.003952725 0.01565033 0.048487686 -0.5580086 -0.27650282 -0.09011715
0.22729221 0.079337895 -0.23862693 0.054566473 -0.17304507 0.21843499 -0.09712607 -0.061282963
-0.048455745 -0.12055132 -0.24071702 0.03270188 -0.23158434 -0.019001156 -0.18711138 0.24373192
2.3622568 -3.120915 -0.1945147 0.34424555 0.60304856 0.64010364 0.4860439 2.0458078
-0.22904441 1.8387123 0.017145643 0.14445226 0.27397412 -0.025283635 -0.06407421 0.15425386
-0.28500023 -2.6947618 0.022145787 1.0791484 0.45404932 0.8140322 -1.880411 -1.3628608
2.0984159 -6.477299 0.0348747 0.0152327 -0.49000618 0.22733615 0.0056341905 0.0032855098
-1.8598616 -1.1924976 -0.04626652 0.17197005 -0.5783245 -0.3230524 -0.6972088 -1.5511614
0.22721246 7.1698937 2.2495074 1.5661515 0.3313797 -0.08474499 1.8848226 0.86148405
-2.6554139 0.062319003 -0.23826154 -0.78810495 -1.8525788 -0.48377967 1.8952245 -0.067633495
4.079314 0.0724718 -0.16869189 -0.1068105 -0.0719289 0.3529926 -0.43903944 -0.029410787
0.07870701 0.22783732 -0.10811633 0.13647473 -0.043990284 0.22463122 0.07042712 -0.039571792
-0.18521526 0.13035768 -0.114218086 -0.062208116 0.10192901 -0.24442491 0.1476438 0.18322697
0.29384127 -2.1732755 -0.035371415 0.42648822 0.2681419 1.4242558 -0.95284665 0.07675515
-4.2788234 -6.756294 -1.2561715 -0.42780712 -0.12134379 -0.2013884 -1.6322237 -1.0563544
1.048081 0.72004014 -0.12846361 -0.050899725 -0.010087944 -0.66968477 2.7239726 0.51671743
3.137957 2.3078437 0.35243845 -0.13720797 0.0928581 0.12740625 1.0904857 0.086058825
00000000: 98a4 6fbe 502a 4ebe 48a4 c0bd 149b 443e
00000010: c0d9 ad3c c0c1 923c da1a 4a3e 8040 47be
00000020: 0020 853b b09d 2f3d 1a6c 3abe 0ccc 20be
00000030: d016 f8bd dc0b c93d 88c4 e13d f279 3f3e
00000040: f4df f43c 4e85 b63d 12e7 b6bd ff44 c6bd
00000050: 115f 4dbe 3fa6 1bbe 74b1 ddbc a0bc 74be
00000060: ead0 473e 955f 4a3e 8f43 233d 45a4 683e
00000070: 0a13 773c db15 223e be17 64be c7b4 9f3d
00000080: 8b1f 31bf 8f9c 0f40 f0dc c3bc 8d55 d7bf
00000090: fa71 a7bc e163 54bf 69ce 393f 8392 fa3f
000000a0: 3669 de3f c4d6 a83f 1db6 d8bc aad2 e6bd
000000b0: e359 733f 2a0e bbbe 604e 91bd 102c febc
000000c0: 70f7 573f 62a9 b3c0 2162 f4bc d170 ea3f
000000d0: f305 66be 55ab fd3f aa86 abbe 6b06 a03e
000000e0: 4968 543f 8c0e 82c0 771c 163e 4d8e d33d
000000f0: 4d1c 373f e61c 3abf 8b66 2f3e 1196 1c3d
00000100: 586d 34bd d03f 77bd ec3d 39be c09b a9bc
00000110: 101a 723e b030 55bd 54a4 0e3e 20f6 6e3c
00000120: e058 25bd bc45 8cbd 4cd3 2abe 02b3 3c3e
00000130: 6ce8 163e 38b4 d6bd 28f1 de3d dc72 e9bd
00000140: f8a2 9b3d 202b 933c a558 4d3a bfbd 00be
00000150: b1b4 403d d4e9 b8bc c75c 873d e0da a5be
00000160: 56fc 69be bcc6 7fbe df35 6dc0 23a8 b63d
00000170: bf18 d43c 94de 403d 978c 7840 5fc8 34be
00000180: 01cb b7bf 9bb9 c43f e6ca 5cbe 7906 e4be
00000190: b9f6 043e 9540 7bbd 57ac 883d feca 953e
000001a0: e50d 25c0 4f21 2540 7294 023d 0eaf 35be
000001b0: 7eb9 b93f 1bc3 e63e dc57 343d 8b77 81bd
000001c0: 1c01 6b3e bec1 2040 84e6 9fbc f084 b23f
000001d0: 33f7 033d 1d37 b63f 409e 1fc0 22e0 8340
000001e0: 1355 4740 de20 74c0 dc85 81bb 1f35 803c
000001f0: 069b 463d a7d9 0ebf c791 8dbe 578f b8bd
00000200: 4abf 683e e87b a23d 9e5a 74be 1881 5f3d
00000210: ba32 31be 6cad 5f3e 08ea c6bd d803 7bbd
00000220: 8879 46bd 9ce3 f6bd 867e 76be 68f2 053d
00000230: 7224 6dbe 50a8 9bbc 209a 3fbe dc94 793e
00000240: 372f 1740 12bd 47c0 dd2e 47be f440 b03e
00000250: 6461 1a3f d5dd 233f bfda f83e 84ee 0240
00000260: 9e8a 6abe ed5a eb3f 0575 8c3c 4beb 133e
00000270: 5646 8c3e a01f cfbc 5739 83bd b9f4 1d3e
00000280: 8deb 91be fa76 2cc0 156b b53c 8921 8a3f
00000290: 2779 e83e 6a64 503f 4fb1 f0bf 3972 aebf
000002a0: 724c 0640 0946 cfc0 c6d8 0e3d 9392 793c
000002b0: 17e2 fabe cfca 683e 049f b83b b551 573b
000002c0: f20f eebf c3a3 98bf f681 3dbd eb18 303e
000002d0: 130d 14bf 2067 a5be 477c 32bf 758c c6bf
000002e0: 62aa 683e c56f e540 eef7 0f40 a777 c83f
000002f0: 9aaa a93e c88e adbd de41 f13f 388a 5c3f
00000300: 4df2 29c0 3642 7f3d d5fa 73be 3fc1 49bf
00000310: 4d21 edbf f8b1 f7be b796 f23f 6e83 8abd
00000320: be89 8240 186c 943d 91bd 2cbe 77bf dabd
00000330: 764f 93bd 72bb b43e c7c9 e0be e4ee f0bc
00000340: 2431 a13d 304e 693e 186c ddbd 08c0 0b3e
00000350: 282f 34bd ba05 663e 183c 903d 0816 22bd
00000360: 12a9 3dbe 7c7c 053e 2ceb e9bd f0cd 7ebd
00000370: 28c0 d03d 864a 7abe f02f 173e da9f 3b3e
00000380: 5d72 963e f216 0bc0 9ee1 10bd aa5c da3e
00000390: e549 893e 044e b63f c2ed 73bf ce31 9d3d
000003a0: 1fec 88c0 8f33 d8c0 3aca a0bf 8909 dbbe
000003b0: 1883 f8bd c338 4ebe b5ec d0bf 9f36 87bf
000003c0: 8527 863f 8d54 383f f78b 03be 3b7c 50bd
000003d0: e747 25bc 7670 2bbf 9155 2e40 9847 043f
000003e0: 4ad4 4840 b6b3 1340 d072 b43e 3f80 0cbe
000003f0: 632c be3d c976 023e 0995 8b3f 9c3f b03d

fc1.bias f4 [256]
0.2357812 0.05406099 -0.41197702 -0.9882585 -0.12779209 -0.31192237 -0.47202846 0.027269706
-0.08850065 -0.5034199 1.0198208 -1.941259 0.15625475 -0.10022643 0.33437076 -0.2069324
-0.02062729 -0.17585832 0.037774354 -0.5842637 -0.86003935 0.065368034 -0.050168745 -0.8251636
0.14465389 -0.0066739023 0.10169353 -0.03157334 0.0979929 -0.430555 -0.2813556 0.22568238
-0.2770838 0.124295175 0.011813313 0.5252818 -0.39065427 0.12791318 -0.24149683 -1.1566033
-0.5523558 -0.18577835 0.3006673 0.14721152 0.58631974 0.07353333 0.030999597 -0.3756786
-0.0654901 -0.16835359 -0.28043795 0.060545415 -0.016137727 -0.20475301 0.22732991 -0.0822888
-0.33639398 0.13667752 0.38870585 -0.22202668 0.18237095 0.3592843 0.06991012 -0.25666595
0.064135075 -0.15006503 0.3523199 0.12482967 -1.3489757 0.12761128 0.37399796 -0.299763
0.10728839 0.23448756 1.2818855 -0.15934533 0.15842405 0.15106493 0.6090146 -0.2751325
0.09734148 0.44923413 -0.1528189 1.0522009 0.12843633 -0.87741065 -0.047665417 -0.054450434
0.08516179 -0.45591334 -0.2422804 -0.70411205 -0.25873727 -0.44016042 0.24680239 -0.17503121
-0.2385056 -0.8878479 -0.47098103 0.0030306876 0.34307012 0.04361096 0.27242917 0.016435891
0.04577312 0.15614413 0.056414872 0.23666275 -0.10129416 -0.09432033 -0.11225483 0.15391704
0.9104651 -0.18728407 0.47335646 -0.0072981794 0.2327607 0.06415796 -0.22239271 -3.274221
-1.1804388 -0.32327858 -0.03096506 -0.43391624 -0.6884037 0.50102496 0.47392637 -0.44489297
0.5030668 -1.4229941 0.55443615 0.7310183 -0.20784464 0.1470389 -0.08950612 0.3151118
0.017002365 0.2899252 -0.024366707 -0.41931105 0.3053409 -0.07479066 0.6300596 -1.5589821
-0.12908441 -0.07060349 0.0038649142 0.21137607 -0.15638563 -0.14517906 -0.2541149 0.41694427
0.1573526 0.07785429 -0.65047604 -0.16148645 -0.23550346 -0.1558172 -0.13370943 -0.06492918
0.23589408 -0.04480046 0.115974605 -0.05377 -0.08673198 0.02627492 -0.065031484 0.021204501
-0.11748949 0.20037156 -0.49639815 1.0633329 -0.8326961 0.22581753 -0.6018166 -0.1855053
-0.43426955 0.264935 -0.7561017 0.24336445 -0.027672589 0.907991 -0.8467879 -0.0632405
-0.04948652 0.00049114675 -0.24503079 0.21662173 -0.0057383305 0.19747385 -0.14953023 0.6992005
0.23364207 -0.0036052167 -0.030067503 -0.17168134 -0.13455674 -0.33687073 -0.33373708 0.14331535
-0.77422464 0.607313 0.09934184 0.061135024 0.15586808 0.35579997 0.014674185 0.015504122
0.01895985 0.14770906 0.41122857 0.051324397 -0.13163589 -0.12927218 0.24989644 0.025406362
0.17005531 -0.21424353 0.0822336 -0.19549578 0.07924895 -0.87165123 -0.120630614 -0.24319011
0.56162965 0.17942108 0.23237228 -0.05904612 -0.18390721 0.25994122 0.09901859 -0.24230286
0.009396613 0.12659591 -2.4774606 -0.110975385 0.5260295 0.7452458 -0.08077537 -1.1281164
-0.10716933 0.090075284 -0.079357885 -1.0979915 0.32663754 0.09645295 -0.16594543 0.43332833
-0.77466196 -0.22207227 0.23718873 -0.82835215 0.117203124 0.0051752925 -0.7736775 0.049081236
00000000: a070 713e 0f6f 5d3d a7ee d2be 82fe 7cbf
00000010: eedb 02be 4ab4 9fbe b7ad f1be b864 df3c
00000020: d43f b5bd 20e0 00bf 7d89 823f 2d7b f8bf
00000030: 3f01 203e 8443 cdbd a532 ab3e 16e6 53be
00000040: 90fa a8bc 3414 34be 48b9 1a3d 4e92 15bf
00000050: 8a2b 5cbf addf 853d be7d 4dbd ec3d 53bf
00000060: 2620 143e c0b0 dabb b344 d03d 0c53 01bd
00000070: 80b0 c83d b471 dcbe d70d 90be 4819 673e
00000080: eedd 8dbe 788e fe3d a08c 413c de78 063f
00000090: d603 c8be acfb 023e f24a 77be 940b 94bf
000000a0: 3167 0dbf ae3c 3ebe 10f1 993e 9ebe 163e
000000b0: 0d19 163f a498 963d def2 fd3c f258 c0be
000000c0: ac1f 86bd e264 2cbe 9095 8fbe 78fe 773d
000000d0: 4433 84bc c6aa 51be 2cc9 683e 0887 a8bd
000000e0: d53b acbe 31f5 0b3e 7404 c73e f65a 63be
000000f0: 73bf 3a3e 1df4 b73e 092d 8f3d b869 83be
00000100: 4059 833d a6aa 19be 4663 b43e b3a6 ff3d
00000110: 3cab acbf 88ac 023e a97c bf3e 897a 99be
00000120: 04ba db3d 821d 703e d314 a43f 6c2b 23be
00000130: ea39 223e c4b0 1a3e 61e8 1b3f 2bde 8cbe
00000140: f85a c73d 0402 e63e 8f7c 1cbe 85ae 863f
00000150: d084 033e fc9d 60bf d03c 43bd 6b07 5fbd
00000160: 4e69 ae3d 796d e9be 5a18 78be b040 34bf
00000170: 3679 84be b55c e1be c4b9 7c3e 623b 33be
00000180: d03a 74be 004a 63bf 6d24 f1be 809e 463b
00000190: e3a6 af3e 68a1 323d d67b 8b3e 90a4 863c
000001a0: 987c 3b3d 3fe4 1f3e 4813 673d b857 723e
000001b0: 5073 cfbd 042b c1bd dce5 e5bd 6e9c 1d3e
000001c0: 3e14 693f 65c7 3fbe c75b f23e 9125 efbb
000001d0: d258 6e3e 4065 833d eaba 63be d68c 51c0
000001e0: 9e18 97bf c584 a5be 70aa fdbc 452a debe
000001f0: 3a3b 30bf 2c43 003f 7aa6 f23e 03c9 e3be
00000200: fcc8 003f ac24 b6bf 87ef 0d3f 0424 3b3f
00000210: 3ad5 54be 5e91 163e fc4e b7bd 5556 a13e
00000220: 8b48 8b3c 1371 943e b09c c7bc f0af d6be
00000230: a455 9c3e d82b 99bd 964b 213f ba8c c7bf
00000240: b42e 04be 9098 90bd 804a 7d3b f872 583e
00000250: 8e23 20be d2a9 14be 591b 82be b879 d53e
00000260: 0a21 213e 1272 9f3d 9985 26bf b45c 25be
00000270: d227 71be 8b8e 1fbe 20eb 08be 97f9 84bd
00000280: 388e 713e b080 37bd 1884 ed3d ee3d 5cbd
00000290: 89a0 b1bd 803e d73c 3a2f 85bd 10b5 ad3c
000002a0: 549e f0bd 342e 4d3e e627 febe 4b1b 883f
000002b0: 922b 55bf b63c 673e a710 1abf 1af5 3dbe
000002c0: 9458 debe 8fa5 873e e28f 41bf 8834 793e
000002d0: a0b1 e2bc 1972 683f 18c7 58bf 3c84 81bd
000002e0: 61b2 4abd 4dc0 003a 5ae9 7abe 16d2 5d3e
000002f0: 9b08 bcbb 9636 4a3e 741e 19be cefe 323f
00000300: de3f 6f3e 8045 6cbb 2050 f6bc 3ccd 2fbe
00000310: 3ec9 09be 527a acbe 96df aabe 42c1 123e
00000320: 9633 46bf dd78 1b3f bc73 cb3d b868 7a3d
00000330: e29b 1f3e 6a2b b63e fe6b 703c 0005 7e3c
00000340: b051 9b3c 0b41 173e 8d8c d23e 8839 523d
00000350: 8fcb 06be ed5f 04be dae4 7f3e 0121 d03c
00000360: fb22 2e3e a862 5bbe 176a a83d 0c30 48be
00000370: 464d a23d 8924 5fbf 2f0d f7bd d406 79be
00000380: f6c6 0f3f 29ba 373e 00f3 6d3e 58da 71bd
00000390: 2c52 3cbe 0417 853e 42ca ca3d 3e1e 78be
000003a0: 40f4 193c 5ca2 013e b78e 1ec0 1047 e3bd
000003b0: dfa9 063f 6ec8 3e3f 8f6d a5bd 1e66 90bf
000003c0: 987b dbbd 6479 b83d 6386 a2bd fc8a 8cbf
000003d0: 093d a73e 2089 c53d 99ed 29be 36dd dd3e
000003e0: 3f50 46bf ea66 63be 9ae1 723e e30e 54bf
000003f0: 3108 f03d 8095 a93b bb0f 46bf 6809 493d
