fw_flightcontrol/models/icinco/sac/actreg/actvar/sac_bohn_actvarR1_nohist_noatmo_2164_03-06_14:48:16.pt (torch, 853763 bytes, 20 tensors)

action_scale f4 [1, 2]
0	0x3f800000	1.0
1	0x3f800000	1.0

action_bias f4 [1, 2]
0	0x00000000	0.0
1	0x00000000	0.0

fc1.weight f4 [256, 14]
0	0x3ddae271	0.106877215
1	0xbdea5743	-0.11442425
2	0xbe3b8852	-0.18313721
3	0x3db56b5b	0.08858367
4	0x3e7b9718	0.24569356
5	0xbe6036f4	-0.21895963
6	0x3dd798a7	0.10527163
7	0xbc40840b	-0.0117502315
8	0xbe7a21e8	-0.24426997
9	0xbe2c52c6	-0.1682845
10	0xbe299a80	-0.16562843
11	0x3cf7da39	0.030255424
12	0x3d01fc32	0.031734653
13	0x3d8a993c	0.067675084
14	0x3e2a4721	0.16628696
15	0x3f6f0bfc	0.9337766
16	0x3ccf307e	0.025291678
17	0x3fd2355d	1.6422535
18	0x3d007efd	0.031371105
19	0x3f7741e7	0.96584934
20	0xc0b38c79	-5.6108975
21	0xbeb3acb1	-0.3509269
22	0xc0049aed	-2.071956
23	0xbe48de66	-0.19616088
24	0xbf7cc79c	-0.9874208
25	0x3f0a1fa6	0.5395454
26	0xbaf7d727	-0.0018908725
27	0xbe9a2f7d	-0.30114356
28	0x3df0ea1b	0.11763402
29	0x3d990a4b	0.07472666
30	0xbe0e9bf4	-0.13926679
31	0x3e62f9a8	0.22165549
32	0x3c0340c0	0.008011043
33	0x3e24092a	0.16019121
34	0xbca7c615	-0.020480195
35	0x3db9ed64	0.09078482
36	0xbe0f346a	-0.13984838
37	0xbd87af0f	-0.06625187
38	0xbe58137c	-0.21101183
39	0xbd83bc65	-0.06432418
40	0x3e1aef8e	0.15130445
41	0x3e372f63	0.1788917
42	0xbdca6c3f	-0.098839276
43	0xbf53ec80	-0.82782745
44	0xbbf9b6af	-0.0076206545
45	0x3e1bdfe1	0.15222122
46	0xbf8cc501	-1.0997621
47	0x3e95d911	0.2926717
48	0xbd015d38	-0.03158304
49	0x3f5eb66b	0.869971
50	0x408524e0	4.1607513
51	0x3fb6a817	1.4270047
52	0xbe05d455	-0.1306928
53	0x402fa020	2.7441483
54	0xbcd8137b	-0.026376477
55	0x3d22318b	0.03959803
56	0xbe7b5c8c	-0.24547023
57	0x3e21ec4c	0.15812796
58	0xbbf7a0b8	-0.007557001
59	0x3edfa9a6	0.4368412
60	0x3bf6e865	0.007535028
61	0x3ec39b9f	0.38204667
62	0xbff5291e	-1.9153173
63	0x3ea6f1c5	0.3260633
64	0xbefb6b45	-0.49105278
65	0xbe0bf2f4	-0.13666898
66	0xc0526a8a	-3.2877526
67	0x3e3addbb	0.18248646
68	0x3d035b08	0.032069236
69	0xbda68bc1	-0.08132125
70	0x3e72c9ae	0.23709747
71	0x3e2efb34	0.17088014
72	0xbe4cc094	-0.19995338
73	0x3c35f86f	0.0111065945
74	0x3e5d56a4	0.21615082
75	0xbe6dc389	-0.23219122
76	0x3e53c486	0.20680436
77	0x3e6a7415	0.22895844
78	0xbe853690	-0.2601819
79	0xbe8574b5	-0.26065603
80	0xbd800b64	-0.062521726
81	0xbd6c2ade	-0.05765807
82	0x3e6e33ed	0.23261996
83	0x3e5bff9e	0.21484229
84	0x3d90f323	0.07077625
85	0x3d9a8d9c	0.07546541
86	0xbe29facd	-0.16599579
87	0xbdc1a3b0	-0.09455049
88	0x3e68cc11	0.22734095
89	0x3d8352a2	0.06412245
90	0x3e2a9c76	0.16661248
91	0xbe139f62	-0.14416268
92	0x3e2893db	0.16462652
93	0xbd5707fb	-0.052497845
94	0x3be3b5cc	0.006949162
95	0x3e61bf99	0.22045745
96	0x3e63757a	0.22212783
97	0x3e310105	0.17285545
98	0x3e80820e	0.25099224
99	0xbf6e7b7a	-0.9315716
100	0xbc9a7e69	-0.018859105
101	0xbf29f203	-0.66384906
102	0x3d692ed2	0.056929417
103	0xbf16d051	-0.58911616
104	0xc09c4287	-4.883121
105	0xbfd13052	-1.6342871
106	0xbd1a5533	-0.03767891
107	0xc04d756b	-3.2102916
108	0xbaa13817	-0.0012300041
109	0x3d0b9716	0.034079634
110	0x3d178cff	0.0369997
111	0xbd447b6f	-0.047969278
112	0xbf79ad70	-0.9753027
113	0x3f627b86	0.8846973
114	0xbe3f9110	-0.1870768
115	0xbee3f776	-0.44524735
116	0xbe0ff8e9	-0.14059795
117	0xbed673b5	-0.41885152
118	0x3fb3b2b7	1.4038914
119	0x3ed3069d	0.41215983
120	0x401c8ea4	2.446206
121	0x3f54445e	0.8291682
122	0xbe5e7ee8	-0.21728098
123	0xbf07dc27	-0.530703
124	0xbf0d3fdd	-0.5517557
125	0xbf1248b3	-0.5714218
126	0xbe37be34	-0.1794365
127	0x3f6e588a	0.9310385
128	0x3c64d083	0.013965729
129	0xbe11889e	-0.14212272
130	0x3f771995	0.9652341
131	0xbea36d12	-0.31919152
132	0xbdc573f3	-0.09641256
133	0xc02306c4	-2.547288
134	0xc079bb8a	-3.9020715
135	0xbf392e83	-0.72336596
136	0x3f977556	1.1832683
137	0x4063cb11	3.5592692
138	0x3db6d9c8	0.08928257
139	0x3e1a063c	0.1504144
140	0xbf52b4b4	-0.8230698
141	0xbff77631	-1.9332944
142	0x3cc2584e	0.023723748
143	0x3e7abe8a	0.24486747
144	0x3e5188d9	0.2046236
145	0x3e91dd82	0.2848931
146	0xbea522b0	-0.32253027
147	0xbe4902a0	-0.19629908
148	0xc04ae5db	-3.1702793
149	0x3f0b0249	0.5430036
150	0x3f5dd073	0.86646193
151	0x3e114213	0.14185362
152	0x3d73e6d2	0.0595463
153	0xbe46227d	-0.19349094
154	0xbfce0b19	-1.6097137
155	0x3fde47e9	1.7365695
156	0xbd968cc0	-0.07351065
157	0xbf341537	-0.7034487
158	0x3e0d8fc3	0.13824372
159	0x3e00fd60	0.12596655
160	0x3fed2d21	1.8529397
161	0xbfbb6fc6	-1.4643486
162	0xbf8a2085	-1.0791174
163	0x3fe05218	1.7525053
164	0xbe3ebc19	-0.18626441
165	0x3e0bbe3a	0.13646784
166	0xbee13792	-0.4398771
167	0xbe2488df	-0.16067837
168	0x3fab4af5	1.338225
169	0x3eef802a	0.4677747
170	0xbce409bc	-0.027836673
171	0x3f1a9f5f	0.6039943
172	0xbda2efe9	-0.079559155
173	0x3ee46b26	0.44612998
174	0x3f645daa	0.8920542
175	0xbf8038c5	-1.0017325
176	0x3f5068e6	0.8141006
177	0xbf9ea39e	-1.2393682
178	0xbd01eb81	-0.031718735
179	0xbe851594	-0.25993025
180	0x3f9678dd	1.1755635
181	0xbd5ba953	-0.053628277
182	0x3e3c66e0	0.18398619
183	0xbd88363e	-0.06650971
184	0xbe4b64c5	-0.1986266
185	0xbe81a453	-0.25320682
186	0x3cfeedda	0.031119276
187	0x3bfbd65c	0.0076854657
188	0xbe0acef6	-0.13555512
189	0xbe746592	-0.23866871
190	0xbe5eb585	-0.21748932
191	0x3de812ab	0.11331686
192	0x3dd471fa	0.10373302
193	0xbe50bdb3	-0.20384865
194	0x3e7b63d0	0.24549794
195	0x3a59d386	0.00083094125
196	0xbfbc2802	-1.469971
197	0x3f07368c	0.52817607
198	0x3c108972	0.008821832
199	0xbee8f63a	-0.45500356
200	0x3e953cf8	0.29148078
201	0xbe5f5c20	-0.21812487
202	0xbf7a9a0a	-0.97891295
203	0xc03472aa	-2.8194985
204	0xc0853c14	-4.1635838
205	0x3efda6ad	0.49541226
206	0x3ddf8e9a	0.10915871
207	0xbf12238b	-0.57085484
208	0x3ecbc3d6	0.39797848
209	0x3cf55edf	0.029952465
210	0xbf6221a7	-0.883326
211	0xbd4be5a3	-0.049779546
212	0xbcf57f84	-0.02996803
213	0xbf98d9cc	-1.1941466
214	0x3de248d5	0.11049048
215	0xbfab2ab8	-1.3372412
216	0xbf88e5c8	-1.0695124
217	0x405bc171	3.4336817
218	0x3f79876a	0.9747225
219	0xbf56cb79	-0.83904225
220	0x3dcad620	0.09904122
221	0x3e6a3204	0.22870642
222	0xbd9ba489	-0.07599742
223	0xbeab85a0	-0.33500385
224	0xbf3a59b3	-0.7279312
225	0x3e8c811a	0.27442247
226	0xbe937717	-0.28801796
227	0xbd87228f	-0.065983884
228	0xbde1ce9e	-0.11025737
229	0xbddc8171	-0.107668765
230	0x3f9764de	1.1827657
231	0xbef2c903	-0.47418985
232	0x3f143ae8	0.57902384
233	0xbfd15619	-1.63544
234	0xbead79ba	-0.33881932
235	0xbaf5bb95	-0.001874792
236	0x3f1d2349	0.61381966
237	0x3eeb40f4	0.45947993
238	0x3e7dfa96	0.24802622
239	0xbd039635	-0.03212567
240	0xbdd809ce	-0.10548745
241	0xbd93d42d	-0.07218204
242	0x3e220778	0.15823162
243	0xbe72f1d8	-0.23725069
244	0x3e0920f9	0.13391484
245	0xbe4b9a8e	-0.19883177
246	0x3e02cf6c	0.12774438
247	0xbcdb5170	-0.02677223
248	0xbe4eb986	-0.20187959
249	0x3d8f889d	0.07008479
250	0x3e062483	0.13099866
251	0x3db071e3	0.08615472
252	0x3e2a6355	0.16639455
253	0x3defb2ff	0.11704063
254	0xbe09ffb6	-0.13476452
255	0xbd24a71b	-0.040198427

fc1.bias f4 [256]
0	0xbdd44dee	-0.103664264
1	0x3f6f1815	0.9339612
2	0x3e1b96ad	0.15194197
3	0xbed06e74	-0.4070927
4	0xbde8efa8	-0.11373836
5	0xbe30c21c	-0.17261547
6	0x3e2d132d	0.16901846
7	0x3ea6fe9f	0.32616135
8	0x3ee23178	0.44178367
9	0xbd651f2d	-0.055937935
10	0xbfde80c1	-1.7383043
11	0xbebdbd23	-0.37058362
12	0x3e0e0488	0.13868916
13	0x3e42a606	0.19008645
14	0xbf5100b7	-0.81641716
15	0xbe166629	-0.14687409
16	0xbd6ffeb8	-0.058592528
17	0x3e84761a	0.25871354
18	0xbd06f084	-0.032944217
19	0x3e2ee8ce	0.17080995
20	0xbd2fa41d	-0.04288112
21	0x3da6ddb7	0.081477575
22	0x3dd3b3ae	0.103370056
23	0xbe1d551f	-0.15364502
24	0x3e8ba431	0.27273706
25	0x3dbbe9cb	0.09175452
26	0xbe4817ce	-0.19540331
27	0x3f3d8d65	0.74043876
28	0x3e83eb30	0.2576537
29	0x3e947883	0.28998193
30	0x3f00e78c	0.5035331
31	0x3e601120	0.21881533
32	0x3e3bd855	0.18344243
33	0x3ced4130	0.028961748
34	0x3d7cfbb5	0.061763484
35	0xbf02d5cb	-0.5110747
36	0x3e846c0b	0.2586368
37	0xbf058ffe	-0.5217284
38	0x3d53dbb9	0.051723216
39	0x3e765ada	0.24058095
40	0x3e68ab24	0.22721535
41	0xbe4a430d	-0.1975214
42	0x3c9d6860	0.019214809
43	0x3dc2a8dd	0.09504864
44	0xbe987f7e	-0.2978477
45	0xbd07f66d	-0.033193994
46	0x3d426d5f	0.047467586
47	0x3f060b2d	0.523608
48	0xbaa9293a	-0.0012905963
49	0x3d2f59e1	0.042810325
50	0xbe8c7d70	-0.2743945
51	0xbec1dac1	-0.37862208
52	0xbebeadb8	-0.37241912
53	0x3e28ce02	0.16484836
54	0xbe101a27	-0.14072476
55	0xbcd8e687	-0.026477112
56	0xbd530a06	-0.05152323
57	0x3ea838b6	0.32855767
58	0xbf420730	-0.7579222
59	0x3e4b3266	0.19843444
60	0xbe4eb4ea	-0.201862
61	0xbf4307d5	-0.76183826
62	0x3e6e3cf0	0.23265433
63	0x3ee70634	0.4512192
64	0xbf3981ad	-0.72463495
65	0xbe79219f	-0.24329232
66	0xbd8e9082	-0.069611564
67	0xbe2ff84b	-0.1718456
68	0xbe826193	-0.25465068
69	0x3d910605	0.07081226
70	0xbf47787a	-0.7791821
71	0x3e7cb69e	0.24679038
72	0x3e9d1a59	0.30684164
73	0xbdac7440	-0.084206104
74	0x3e272080	0.16320992
75	0xbbe568b4	-0.007001007
76	0x3e3bfe84	0.18358809
77	0xbee08f6c	-0.43859422
78	0x3ed9d240	0.4254322
79	0xbe9d2684	-0.30693448
80	0xbf09b17f	-0.5378646
81	0x3e6f372a	0.23360887
82	0x3d07513e	0.033036463
83	0xbc5628c4	-0.013071243
84	0xbf00f79e	-0.50377834
85	0xbf0ff1a9	-0.5622812
86	0xbdd023e3	-0.10163095
87	0x3dce1953	0.10063424
88	0x3e6fb218	0.23407781
89	0x3e5bde05	0.21471412
90	0xbe38a3bb	-0.18031208
91	0x3c481459	0.0122118825
92	0x3e1a8160	0.15088415
93	0xbe265d3f	-0.16246508
94	0xbe4ad9e9	-0.19809689
95	0xbe7e351a	-0.24824944
96	0xbf0f3923	-0.5594656
97	0xbf6dca57	-0.9288687
98	0x3e331919	0.17490043
99	0xbdc9d7e5	-0.09855632
100	0x3e73c474	0.2380541
101	0xbe818d31	-0.25303033
102	0xbe426c02	-0.18986514
103	0x3e0bcd17	0.13652454
104	0x3f857a2b	1.0427908
105	0x3e18c915	0.14920457
106	0xbcb0d82f	-0.02158746
107	0x3e3ceb2b	0.18449084
108	0x3e282226	0.16419277
109	0x3e007444	0.12544352
110	0x3f0ac2e1	0.5420361
111	0x3ed9d3d7	0.42544433
112	0x3e272647	0.16323195
113	0xbe3512fa	-0.1768302
114	0xbe5cd26b	-0.21564643
115	0xbd3bf6f3	-0.045889806
116	0x3e41b3a9	0.18916191
117	0x3e26cab9	0.1628827
118	0xbf0f446a	-0.55963767
119	0x3d561d28	0.0522739
120	0xbe2144ec	-0.15748948
121	0xbe2eae30	-0.17058635
122	0xbe393204	-0.18085486
123	0x3fa94acd	1.3225952
124	0x3ec10b5b	0.37703976
125	0x3b6f6fd5	0.0036535163
126	0x3e11db8d	0.14243908
127	0xbe0152f0	-0.12629294
128	0xbf9d3bd8	-1.2283888
129	0xbf0c617a	-0.5483624
130	0x3e817b7a	0.25289518
131	0xbde97e4c	-0.11401042
132	0xbf027fdb	-0.5097634
133	0x3e727ea6	0.23681125
134	0x3db56479	0.08857054
135	0x3f90ec62	1.1322138
136	0x3e341780	0.1758709
137	0xbfacf2b8	-1.3511572
138	0xbe6ef099	-0.23333968
139	0xbceb8019	-0.028747605
140	0x3e7ad4a9	0.24495186
141	0xbfa79377	-1.3091878
142	0xbf8a553a	-1.0807259
143	0xbdb633bd	-0.08896587
144	0xbfae86f7	-1.3634938
145	0xbe56115b	-0.20905058
146	0x3ed80df4	0.42198145
147	0xbde104f8	-0.10987276
148	0x3e5293f3	0.2056425
149	0x3e9054f3	0.2818981
150	0xbe4dc06f	-0.20092939
151	0xbe86d70f	-0.26335952
152	0xbfa75a73	-1.3074478
153	0x3cba0100	0.022705555
154	0x3e5569e0	0.2084117
155	0xbe80bee8	-0.2514565
156	0xbe906f6a	-0.28210002
157	0xbe89e76b	-0.2693437
158	0xbef37c02	-0.47555548
159	0xbe86c8da	-0.26325113
160	0xbe4c7d37	-0.1996964
161	0x3e273265	0.16327818
162	0x3cc582d9	0.024110245
163	0xbde16bd9	-0.110068984
164	0x3beede5d	0.0072896914
165	0xbee98396	-0.45608205
166	0xbd332e50	-0.04374534
167	0x3dbbf37a	0.09177299
168	0x3e9d8009	0.30761746
169	0x3dc59037	0.096466474
170	0x3dd599aa	0.104297
171	0xbf0d5f11	-0.55223185
172	0xbf615d0b	-0.880326
173	0xbe22c286	-0.15894517
174	0x3dc160a4	0.09442261
175	0xbe4b64e2	-0.19862702
176	0x3e63257b	0.22182266
177	0xbd3ffc4e	-0.046871476
178	0x3ec72336	0.3889405
179	0x3c722e0a	0.014781484
180	0xbd31a229	-0.04336754
181	0xbee11b17	-0.4396598
182	0x3e87dc3a	0.26535207
183	0xbf4ea3b4	-0.8071854
184	0xbe12f844	-0.14352518
185	0x3ebf2b52	0.37337738
186	0x3d8736d4	0.066022545
187	0x3ee0c8cc	0.43903196
188	0xbf1cc101	-0.61232
189	0x3e84590c	0.25849187
190	0xbd514ef5	-0.05110069
191	0x3efc34c9	0.49259022
192	0x3e12a862	0.14322045
193	0xbf02ce0f	-0.5109567
194	0x3ed34a46	0.41267604
195	0xbf6b711c	-0.91969466
196	0x3d27fd38	0.041012973
197	0x3d2a5264	0.04158248
198	0x3df247ad	0.11830077
199	0x3b133664	0.002246284
200	0xbf514cdd	-0.8175791
201	0xbe6754b5	-0.22590907
202	0x3e29751b	0.16548578
203	0xbe777ff0	-0.24169898
204	0x3ee6dc62	0.45090014
205	0xbf0b93be	-0.5452231
206	0xbe4ce9cc	-0.20011061
207	0x3e07c2d2	0.13257912
208	0x3d108423	0.035282265
209	0xbcefdee1	-0.029281082
210	0xbcfc17ff	-0.030773161
211	0x3d5fe6c2	0.054663427
212	0xbc8baf91	-0.01705149
213	0xbe9ff4fd	-0.312416
214	0xbd7338f4	-0.059380487
215	0x3e775346	0.2415286
216	0x3ea135f2	0.3148647
217	0xbda76006	-0.08172612
218	0xbe34e034	-0.17663652
219	0x3e540f57	0.20708977
220	0xbf49eadf	-0.7887401
221	0xbe891cbd	-0.26779738
222	0xbe050ac1	-0.12992384
223	0xbe6d54eb	-0.23176925
224	0x3ec33802	0.38128668
225	0x3d8dcae2	0.069234625
226	0xbe1b46cb	-0.15163724
227	0xbdf4adaa	-0.11947186
228	0x3dea8f45	0.11453108
229	0xbef000fc	-0.4687575
230	0x3e1e98fe	0.1548805
231	0x3c539f97	0.012916467
232	0x3e7b43ce	0.24537584
233	0xbe87402a	-0.2641614
234	0xbeb31159	-0.34974173
235	0xbdf95bd9	-0.12175722
236	0x3bed3317	0.0072387564
237	0x3d09d4ee	0.03365033
238	0xbf0c97f3	-0.54919356
239	0x3cfa7280	0.030572176
240	0xbf10b88f	-0.56531614
241	0xbf3e5456	-0.74347436
242	0x3e84dad3	0.259482
243	0xbf4603d1	-0.77349573
244	0xbe5cd7cf	-0.215667
245	0xbf6efacc	-0.93351436
246	0xbe50ae8a	-0.20379081
247	0xbe38c2bc	-0.18043035
248	0xbf078248	-0.5293317
249	0xbe175521	-0.14778568
250	0x3f048a78	0.51773787
251	0xbe2f03a0	-0.17091227
252	0xbe68cabd	-0.22733589
253	0xbdf465c7	-0.11933475
254	0x3e22895c	0.15872711
255	0xbc8fdcbb	-0.017561307

fc2.weight f4 [256, 256]
0	0xbd0ab89a	-0.033867456
1	0x3c703667	0.014661408
2	0xbcbcb880	-0.023037195
3	0xbd019788	-0.031638652
4	0x3b99ad2e	0.004689834
5	0x3c2416a0	0.01001516
6	0x3bf4f4a0	0.0074754506
7	0xbd085c06	-0.033290885
8	0x3d16e5da	0.036840297
9	0x3ca01107	0.01953937
10	0xbd3de612	-0.04636199
11	0xbbce791d	-0.006301059
12	0xbd26f162	-0.040757544
13	0xbd45fd96	-0.04833754
14	0xbd610dc5	-0.054944772
15	0xbd669105	-0.056290645
16	0x3d0d2446	0.03445842
17	0xbc20b210	-0.009808078
18	0x3d3ffba8	0.046870857
19	0xbda124b2	-0.07868327
20	0xbcffc082	-0.031219725
21	0xbd3f5b82	-0.046718128
22	0x3ca9ae8b	0.020713111
23	0x3c7740d8	0.015091144
24	0xbd7e8852	-0.062141724
25	0xbd53d54a	-0.05171708
26	0xbc90b12c	-0.017662607
27	0x3be46d2f	0.0069710235
28	0xbdae44bc	-0.08509204
29	0xbd3f8cb6	-0.04676505
30	0xbc9329e5	-0.017964313
31	0xbd71d169	-0.0590376
32	0xbd7aece6	-0.06126108
33	0x3c758e60	0.014987558
34	0x3cda87b5	0.026676038
35	0xbcac3842	-0.02102292
36	0xbd2dcb45	-0.04243018
37	0x3d3d4f1f	0.046218034
38	0xbcdae164	-0.026718803
39	0xbce18e4c	-0.027533673
40	0x3c093431	0.00837426
41	0x3d67e588	0.056615382
42	0xbcbfe054	-0.023422398
43	0x3d3c8820	0.046028256
44	0xbd8343dd	-0.06409428
45	0xbc0547f8	-0.0081348345
46	0x3c92e6b2	0.01793227
47	0xbc9e1fb9	-0.019302236
48	0xbd9ba669	-0.076000996
49	0xbbfd8ad1	-0.0077374955
50	0xbcd5cfbb	-0.02610003
51	0x3d127215	0.03575333
52	0xbdaaa8d7	-0.08332985
53	0xbd083b3f	-0.033259626
54	0x3c106cd0	0.008815005
55	0x3cb5c940	0.02219069
56	0xbd3a217c	-0.04544209
57	0xbc956ce0	-0.018240392
58	0xbd867f35	-0.065672316
59	0x3d7321dc	0.059358463
60	0xbd827789	-0.06370456
61	0xbcf0c8bf	-0.029392598
62	0xbd326278	-0.04355094
63	0xbc837e0d	-0.016051317
64	0x3ac1924b	0.001476833
65	0xbc2e2470	-0.010628805
66	0xbd3917c0	-0.045188665
67	0x3b695070	0.0035600923
68	0xbcd2b24c	-0.025719784
69	0xbd9c0b8f	-0.07619392
70	0xbd7679a6	-0.060174607
71	0xb99c7e00	-0.00029848516
72	0xbd0af7e4	-0.033927813
73	0x3d0dc712	0.034613676
74	0xbd09b2af	-0.03361767
75	0xbd41c88c	-0.047310397
76	0xbca61d41	-0.020277621
77	0x3c89989a	0.016796399
78	0xbd023608	-0.03178981
79	0xbd67432f	-0.056460556
80	0xbd2bab98	-0.04191169
81	0x3bf4242f	0.0074506025
82	0xbd6eecfa	-0.058331467
83	0xbcca0548	-0.024660721
84	0x3aad8013	0.0013237022
85	0x3a8800ea	0.0010376249
86	0xbdaeca33	-0.0853466
87	0x3c1ceb46	0.009577578
88	0xbd93297e	-0.071856484
89	0xbce331d0	-0.027733713
90	0xbd071a80	-0.032984257
91	0xbd5fa542	-0.05460096
92	0x3ba30c70	0.004975848
93	0x3cbd143c	0.023080938
94	0xbd34e086	-0.044159435
95	0xbcbd56fc	-0.023112766
96	0xbda04acd	-0.07826767
97	0xbdcc342c	-0.099708885
98	0xbc48bd98	-0.012252234
99	0xbcc02e32	-0.023459528
100	0xbd75076c	-0.05982153
101	0x3d02b756	0.031913124
102	0xbd056711	-0.032568995
103	0xbd5f91d8	-0.054582447
104	0xbcbe7ad5	-0.02325193
105	0x3cd1aae4	0.025594182
106	0x3d770806	0.060310386
107	0xbd5c721b	-0.053819757
108	0x3cc2ff7c	0.023803465
109	0xbd07245a	-0.032993652
110	0x3c1c2a0d	0.00953151
111	0x3ce493f2	0.027902577
112	0x3d16d4d0	0.036824048
113	0x3d082544	0.033238664
114	0xbcafb857	-0.021450205
115	0x3d6aaf7e	0.05729627
116	0x3d5d698c	0.054055735
117	0xbd7d1a31	-0.061792556
118	0xbd352faa	-0.04423491
119	0x3d1089ff	0.035287853
120	0xbd95d118	-0.07315272
121	0x3c0052a8	0.007832207
122	0x3c161210	0.00915958
123	0xbca0de5f	-0.019637285
124	0xbd6c4be1	-0.05768955
125	0xbd4daff2	-0.050216623
126	0x3d43e75e	0.04782807
127	0xb8e3e800	-0.00010867417
128	0xbd41de86	-0.047331356
129	0xbd0b3a8a	-0.033991374
130	0xbd76d6ac	-0.06026332
131	0x3ac3c140	0.0014934912
132	0xbdc45b29	-0.095877
133	0x3c1aece8	0.009455897
134	0xbb8ff6bb	-0.0043934262
135	0x3bb1f6de	0.00543104
136	0x3ca8e6b4	0.02061782
137	0xbd05d777	-0.032676186
138	0xbc8c490e	-0.017124679
139	0x3c7988b8	0.01523035
140	0x3cf109b8	0.02942358
141	0x3cf4d7b9	0.02988802
142	0x3c92a9b4	0.017903186
143	0x3c897148	0.01677765
144	0x3c1bd4d5	0.009511192
145	0xbc9f5509	-0.019449728
146	0xbd665fa1	-0.056243543
147	0xbc24f818	-0.010068916
148	0x3d132e13	0.03593261
149	0xbd2e9165	-0.042619128
150	0xbd1ba012	-0.03799445
151	0xbd04b268	-0.032396704
152	0x3c7b4cd7	0.015338144
153	0x3d49414c	0.049134538
154	0x3d0e5862	0.034752257
155	0x3d55d428	0.05220428
156	0xbdb17444	-0.08664754
157	0xbd347322	-0.04405511
158	0xbda68665	-0.081311025
159	0x3d4bff3e	0.049803965
160	0x3d30f2bf	0.04320025
161	0x3b077c4c	0.0020673452
162	0xbb466ef7	-0.0030278543
163	0xbc3a8760	-0.011384815
164	0xbd994f25	-0.07485799
165	0xbd6c56b8	-0.05769989
166	0xbd65987a	-0.056053616
167	0xbc82d36c	-0.015969954
168	0xbd6e1655	-0.058126766
169	0xbba717f0	-0.005099289
170	0x3b252400	0.002519846
171	0xbc6d2331	-0.014473722
172	0xbda0cfbd	-0.07852123
173	0x3cbe286f	0.02321264
174	0xbca93e24	-0.020659514
175	0x3d14ec0c	0.036357924
176	0xbce605a8	-0.028078869
177	0xbc8014fc	-0.015635006
178	0xbd19a97b	-0.037515145
179	0x3c6fd032	0.01463704
180	0xbb7aadf2	-0.0038250652
181	0x3aa9e7ba	0.0012962737
182	0xbd64a12d	-0.05581777
183	0xbb08bcc0	-0.0020864457
184	0x3cf33f2e	0.029693212
185	0xb91a6faa	-0.00014728183
186	0xbcb7eeee	-0.022452798
187	0xbd68fd9a	-0.05688248
188	0xbd0db121	-0.03459275
189	0xbd2ff9d8	-0.04296288
190	0xbd975412	-0.07389082
191	0xbd4c71a7	-0.049913075
192	0xbcc40349	-0.023927348
193	0xbd604245	-0.0547507
194	0xbdad0fca	-0.08450277
195	0xbb29eaac	-0.002592723
196	0x3cdadb95	0.026716033
197	0xbd72eec1	-0.059309725
198	0xbdc2a1a1	-0.095034845
199	0xbd68def5	-0.056853253
200	0xbd8f2994	-0.06990352
201	0xbd81d14d	-0.06338749
202	0x3ce95578	0.028483137
203	0x3a90d9c0	0.0011051223
204	0xbdb4304a	-0.08798273
205	0xbd8d931e	-0.06912826
206	0xbc84ac3c	-0.016195409
207	0x3c992af9	0.018697249
208	0xbccbcdbc	-0.024878375
209	0xba9417c0	-0.0011298582
210	0xbb83ebc5	-0.0040259087
211	0x3bd0ab51	0.0063680788
212	0xbd0fca36	-0.035104953
213	0x3ca124ef	0.019670932
214	0xbc90277c	-0.017596953
215	0xbc47c190	-0.012192145
216	0xbccadd9a	-0.024763871
217	0xbd53b7c0	-0.05168891
218	0xbc72b940	-0.014814675
219	0x3ced6e40	0.028983235
220	0xbda6f642	-0.08152439
221	0xbc6d349b	-0.014477874
222	0xbd179aa2	-0.037012704
223	0xbdb2f2cd	-0.08737717
224	0x3cc09266	0.023507308
225	0xbb703b56	-0.003665646
226	0x3d27c3c4	0.04095818
227	0xbcf66d9c	-0.030081563
228	0xbd560a24	-0.052255765
229	0x3d09c10f	0.03363138
230	0xbbc76fd0	-0.006086327
231	0xba094480	-0.00052363425
232	0xbb5090fd	-0.00318247
233	0x3d584dd6	0.052808605
234	0x3a0c2158	0.0005345545
235	0xbc399f46	-0.011329478
236	0x3d0319ae	0.032006912
237	0xbcfbb358	-0.030725166
238	0xbc8e593c	-0.017376535
239	0x3bdb2f30	0.006688975
240	0x3c46d6bc	0.012136158
241	0xbcf05b2e	-0.029340353
242	0xbc8c83f0	-0.017152756
243	0x3d01120f	0.031511363
244	0x3ce71c40	0.028211713
245	0xbc8dd284	-0.017312296
246	0xbd550450	-0.052006066
247	0x3ce9f6e0	0.028560102
248	0x3ca5cca9	0.020239191
249	0x3c9fe1fc	0.019516937
250	0xbdd1e83c	-0.10249373
251	0xbd2bc7de	-0.041938655
252	0xbd5b8a4a	-0.05359868
253	0xbd84b60f	-0.064800374
254	0x3c2eada0	0.010661513
255	0xbd13e636	-0.036108218

fc2.bias f4 [256]
0	0xbdc5525f	-0.09634852
1	0xbaba85fe	-0.0014230607
2	0xbca1b388	-0.019738927
3	0xbd2efa26	-0.04271903
4	0x3c0fc7d3	0.008775669
5	0x3d24cbbc	0.04023336
6	0x3cb2d928	0.021832064
7	0xbb8f8d37	-0.004380848
8	0xbde1047b	-0.10987183
9	0xbd31327c	-0.043261036
10	0xbcddf849	-0.02709593
11	0x3c6d6163	0.014488551
12	0xbe3591b0	-0.17731357
13	0xbdb33858	-0.08750981
14	0xbd87571b	-0.06608411
15	0x3ec4173a	0.3829897
16	0xbe8fcd7d	-0.28086463
17	0xbd8ca520	-0.068674326
18	0xbf14209a	-0.57862246
19	0xbbdc92ce	-0.0067313677
20	0x3d0ad16c	0.033891127
21	0x3d15dc91	0.0365873
22	0xbdc9d710	-0.09855473
23	0xbfb2f05d	-1.3979603
24	0xbd17e296	-0.037081324
25	0xbe1c0cd8	-0.15239275
26	0xbde59ddf	-0.11211752
27	0xbeadb00e	-0.33923382
28	0x3c9d0980	0.019169569
29	0xbdab5077	-0.08364957
30	0xbd08236e	-0.033236913
31	0xbcb3a2d0	-0.021928221
32	0xbf34cf8a	-0.7062918
33	0xbd8230d3	-0.06356969
34	0xbdd5d0fa	-0.1044025
35	0xbd720990	-0.05909115
36	0xbcc93da2	-0.024565522
37	0xbda64a6f	-0.08119666
38	0xbd803545	-0.0626016
39	0xbd39279b	-0.045203786
40	0xbdf47b80	-0.11937618
41	0x3eac9dd2	0.33714157
42	0x3d054251	0.032533947
43	0xbd282036	-0.041046344
44	0xbd91504c	-0.070953935
45	0x3b824fc5	0.0039767944
46	0xbdcb09c4	-0.09913972
47	0x3f139279	0.57645375
48	0xbc816f03	-0.015800005
49	0x3c50608f	0.012718334
50	0xbe79ecb4	-0.24406701
51	0xbd212db1	-0.039350215
52	0xbf0cad72	-0.54952157
53	0x3c1b9dac	0.009498041
54	0xbc341a68	-0.010992624
55	0xbe6ff2fd	-0.23432536
56	0x3de79ba1	0.11308981
57	0xbd8ead49	-0.06966645
58	0xbd317739	-0.04332659
59	0xbda1bf5e	-0.078978285
60	0xbdc5cf0d	-0.096586324
61	0x3c4a6219	0.01235249
62	0xbe927a35	-0.28608862
63	0xbeb1d739	-0.34734514
64	0x3d26530a	0.040606536
65	0x3c9d4cc9	0.019201653
66	0xbd866e72	-0.065640345
67	0xbcdf8ada	-0.02728789
68	0xbeaeac0a	-0.3411563
69	0xbe20e5a1	-0.15712596
70	0x3f2d8f3e	0.67796695
71	0x3d8e7234	0.06955376
72	0xbeb6c96e	-0.35700554
73	0xbf070bea	-0.52752554
74	0x3c73da64	0.014883611
75	0xbdb10ec4	-0.086453944
76	0xbf05e04c	-0.52295375
77	0x3e327e5f	0.17431019
78	0x3c8f0e6a	0.017462928
79	0xbf1c414a	-0.61037123
80	0x3997e85d	0.00028974088
81	0xbd0d37f4	-0.03447719
82	0xbcd30a6a	-0.025761802
83	0x3b12c044	0.0022392431
84	0x3e043436	0.12910542
85	0x3ddcd62b	0.10783037
86	0x3e858f31	0.2608581
87	0xbe926cf7	-0.2859876
88	0xbdc88058	-0.09790105
89	0xbb8125b6	-0.003941263
90	0xbeceab7d	-0.4036521
91	0xbc99c463	-0.018770402
92	0xbf7ffd9d	-0.9999636
93	0xbd1c605e	-0.03817784
94	0xbddaaab0	-0.10677087
95	0xbe2f0eae	-0.17095444
96	0xbb280744	-0.0025639096
97	0x3e200112	0.15625408
98	0xbc9b036d	-0.018922532
99	0xbd1d33c0	-0.03837943
100	0x3d0c49f6	0.034250222
101	0xbef2bfb1	-0.47411874
102	0x3f0db89f	0.55359834
103	0xbda60402	-0.08106233
104	0xbe461826	-0.1934515
105	0xbcd72e24	-0.026267119
106	0xbe2b002d	-0.16699286
107	0x3c6d18f6	0.014471283
108	0x3d414eff	0.047194477
109	0xbb3efbe8	-0.0029141847
110	0xbd61d09d	-0.05513059
111	0xbd4410eb	-0.047867697
112	0xbdd1a702	-0.10236932
113	0xbd08d35e	-0.0334047
114	0xbf5d6ca6	-0.8649391
115	0xbc388123	-0.011261257
116	0xbce960e6	-0.028488588
117	0xbe55ca38	-0.20877922
118	0x3c1f0a41	0.009707035
119	0x3cdd8f8a	0.027045984
120	0xbdb21e12	-0.08697142
121	0x3cf3fd51	0.029783877
122	0xbd0ac01b	-0.033874612
123	0xbcd091b2	-0.025460098
124	0xbc93f27d	-0.018059963
125	0xbccdb5ea	-0.025111157
126	0x3ed2e905	0.41193405
127	0xbe836ebf	-0.2567043
128	0x3d116d0c	0.035504386
129	0x3cddfccd	0.027098084
130	0x3ca5317e	0.020165201
131	0xbe1a81d0	-0.15088582
132	0xbd987602	-0.07444383
133	0x3cdaad8c	0.026694082
134	0xbccc4ba4	-0.024938412
135	0x3f149e9c	0.5805452
136	0xbd5d4c20	-0.054027677
137	0xbdc03d8a	-0.09386738
138	0x3d6d7461	0.057972316
139	0xbe1229aa	-0.14273706
140	0xbf0e6163	-0.5561735
141	0xbda2551c	-0.079263896
142	0xbde47639	-0.11155362
143	0xbcfea508	-0.031084552
144	0xbd9825a4	-0.074290544
145	0x3c67bf11	0.014144675
146	0xbfbe37d1	-1.4860784
147	0xbcc43c64	-0.023954578
148	0x3b91283a	0.004429844
149	0xbe4bc006	-0.1989747
150	0xbd6e6921	-0.058205727
151	0xbd721c02	-0.05910874
152	0xbce6f6d3	-0.028193867
153	0x3bad3ae7	0.0052865627
154	0x3cf35a13	0.029706037
155	0xbd1905d6	-0.03735908
156	0xbd997f6a	-0.074950054
157	0xbc1536f5	-0.009107341
158	0xbe66ffbd	-0.22558494
159	0xbf22e2a5	-0.6362708
160	0xbed025a8	-0.4065373
161	0x3c65d7ed	0.0140285315
162	0xbd0b7b77	-0.034053292
163	0xbd51aefb	-0.051192265
164	0xbdbeda78	-0.09319013
165	0xbdfbab9f	-0.122885935
166	0xba9d6931	-0.0012009499
167	0xbd9f3efc	-0.07775685
168	0x3ea328e3	0.31867132
169	0xbdce58b1	-0.1007551
170	0x3e51ea70	0.20499587
171	0xbdda1ab4	-0.106496245
172	0x3e946b75	0.28988233
173	0xbc4ecc59	-0.012621962
174	0xbec558df	-0.38544366
175	0xbd276d0c	-0.04087548
176	0xbd706a7c	-0.0586953
177	0xbca84012	-0.020538364
178	0x3caf9c66	0.021436881
179	0xbcb5bfe7	-0.022186233
180	0xbf55a547	-0.8345532
181	0xbdbd5749	-0.09245164
182	0xbd1df850	-0.038566887
183	0xbed64cae	-0.41855377
184	0xbc07b640	-0.008283198
185	0x3f31bf4c	0.6943252
186	0xbc8538d5	-0.016262451
187	0xbc95fc5a	-0.018308807
188	0xbdbe5aec	-0.09294686
189	0xbe170086	-0.14746293
190	0xbd2536ba	-0.040335394
191	0x3c2f7c37	0.0107107675
192	0xbe9dbb50	-0.3080697
193	0xbcd905e8	-0.026492074
194	0xbd17569a	-0.036947824
195	0x3cd5779f	0.026058016
196	0xbdb1e857	-0.086868934
197	0x3ce4f799	0.027950095
198	0xbda81423	-0.08206966
199	0x3e62b810	0.22140527
200	0xbd8b1a7e	-0.06792162
201	0xbe277065	-0.16351469
202	0xbd427386	-0.047473453
203	0x3c0d819a	0.008636856
204	0xbe77b50f	-0.24190162
205	0xbcafb1f0	-0.021447152
206	0x3c8a05fa	0.016848553
207	0xbea267e8	-0.317199
208	0xbd4d178f	-0.050071295
209	0xbcf9d1e5	-0.030495593
210	0x3d72d239	0.059282515
211	0xbcfc3355	-0.030786196
212	0xbcc97c57	-0.024595423
213	0xbd20fd9c	-0.03930436
214	0xbdb36b3d	-0.087606885
215	0xbe904fe0	-0.2818594
216	0xbb69383f	-0.0035586504
217	0xbd9f9117	-0.077913456
218	0xbd08d613	-0.033407282
219	0xbc87f58e	-0.016596582
220	0xbec92119	-0.39283064
221	0xbc4ea5e9	-0.012612798
222	0xbe02c70b	-0.12771241
223	0xbd3d330c	-0.04619126
224	0xbe87507a	-0.26428586
225	0x3d8b1897	0.067917995
226	0xbfb62b7a	-1.4232018
227	0x3cda39cf	0.026638893
228	0x3eaca10e	0.33716625
229	0x3cb9f924	0.022701807
230	0xbd7bb776	-0.06145426
231	0xbd028ebb	-0.0318744
232	0xbcc3cfe7	-0.023902847
233	0xbe95fb18	-0.29293132
234	0xbd42f83f	-0.047600027
235	0xbd7b31df	-0.061326858
236	0xbd988614	-0.074474484
237	0xba141c60	-0.000564998
238	0xbec422ad	-0.38307706
239	0xbdb0ba01	-0.086292274
240	0xbd970e74	-0.073758036
241	0xbed6e5fd	-0.41972342
242	0xbd43cf32	-0.04780502
243	0x3bde817e	0.006790339
244	0xbc6ecf25	-0.014575754
245	0x3eb9db30	0.3630004
246	0xbd77f55a	-0.06053672
247	0xbd50ead5	-0.051005203
248	0xbd92b9e3	-0.07164361
249	0xbda15b69	-0.07878763
250	0x3f5a2fd5	0.85229236
251	0xbe396ff3	-0.18109111
252	0xbd889cf0	-0.066705585
253	0xbe595401	-0.21223451
254	0x3e6e6ec5	0.23284443
255	0x3b3d4544	0.0028880397

fc_mean.weight f4 [2, 256]
0	0x3b36327f	0.0027801094
1	0x3cf6888b	0.030094406
2	0x3c2ea6a5	0.010659848
3	0x3d10e046	0.035370134
4	0x3cb6907e	0.022285696
5	0x3c93d015	0.018043557
6	0x3cd67bf2	0.026182149
7	0xbd2e657c	-0.04257725
8	0x3e6e3e9c	0.23266071
9	0x3ca2d702	0.019877914
10	0x3bc0b6c2	0.0058811614
11	0x3e46b491	0.19404818
12	0x3c6e4c9b	0.014544631
13	0xbd689088	-0.05677846
14	0x3cc0934b	0.023507735
15	0x3dc6e7af	0.09712159
16	0xbe87c265	-0.265155
17	0x3d3a06fb	0.045416813
18	0xbe87c079	-0.26514032
19	0xbd01d239	-0.031694625
20	0xbb2b40ea	-0.002613122
21	0x3e01c2cf	0.1267197
22	0xbbaab6f0	-0.005209796
23	0xbdd14c8f	-0.102196805
24	0x3ce1a5c8	0.027544871
25	0xb782f7d5	-1.5612613e-05
26	0x3d42c11a	0.047547437
27	0x3e22676c	0.15859765
28	0x3d799e34	0.06094189
29	0x3d16f5d6	0.03685554
30	0x3c7867a9	0.015161433
31	0xbad1b67f	-0.0015999823
32	0xbe8ca6e0	-0.27471066
33	0x3cd90ef5	0.02649639
34	0x3cc2bfb9	0.023773061
35	0x3cba9563	0.022776311
36	0xbc08bd1f	-0.008345871
37	0xbd4739cc	-0.048639104
38	0x3d12b1bb	0.03581403
39	0xbce91c8e	-0.028455999
40	0x3e713a55	0.23557408
41	0x3e81f99c	0.2538575
42	0x3d1ebafd	0.038752545
43	0xbd3a6af9	-0.045512173
44	0xbd193020	-0.03739941
45	0x39958d52	0.00028524786
46	0xbeb3d432	-0.3512283
47	0xbeb81949	-0.3595679
48	0x3cb12cbe	0.02162778
49	0x3d14c7cb	0.03632335
50	0xbd49be12	-0.04925353
51	0xbafd794c	-0.0019338517
52	0x3e5011f6	0.20319352
53	0xbb2a074b	-0.0025944288
54	0x3cf6bca6	0.030119251
55	0xbe496f6b	-0.19671409
56	0x3cb84319	0.022492932
57	0xbc5f59ad	-0.01363222
58	0x3c7bb0eb	0.015362005
59	0x3c783928	0.015150346
60	0x3d263853	0.04058106
61	0x3cbda85f	0.023151575
62	0x3e66ff1e	0.22558257
63	0x3d14452a	0.036198772
64	0x3cf1b2d5	0.02950422
65	0x3cb63165	0.02224035
66	0xbc69ae28	-0.0142627135
67	0x3d0af817	0.033928003
68	0xbdc0b474	-0.09409419
69	0x3ecabb05	0.3959581
70	0x3e66b261	0.22528984
71	0xbc687ee6	-0.014190411
72	0xbde018f8	-0.109422624
73	0x3cf100bb	0.029419294
74	0xbd5e0615	-0.05420502
75	0xbd0cd49e	-0.034382455
76	0x3e7546e7	0.23952828
77	0xbe95f521	-0.2928858
78	0x3c0f7974	0.008756984
79	0x3ec772c4	0.38954747
80	0x3d2ff22f	0.042955574
81	0xbd4c4d1b	-0.04987822
82	0xbce3c032	-0.027801607
83	0xbb492caa	-0.0030696788
84	0x3c0d5ed8	0.00862857
85	0xbfa19fef	-1.2626933
86	0x3e47e1de	0.19519755
87	0xbee4ac48	-0.4466269
88	0x3c941615	0.018076936
89	0x3c048226	0.00808767
90	0xbe8e81c5	-0.2783338
91	0x3d0b29a7	0.03397527
92	0xbeb1c915	-0.34723726
93	0x3cea746a	0.028619964
94	0x3d435def	0.047697004
95	0x3c2bac74	0.010478128
96	0x3c8ea98a	0.017414827
97	0xbd3023e0	-0.043002963
98	0xbcb3ed81	-0.021963837
99	0x3da7a21b	0.08185216
100	0xbbf4242b	-0.0074506006
101	0xbe3bbe4e	-0.18334314
102	0x3e5af399	0.21381988
103	0xbba1d9d2	-0.0049392963
104	0xbbc95c2f	-0.0061450223
105	0x3bc59686	0.0060299067
106	0xbe05e6a2	-0.1307626
107	0x3c9aeb8d	0.018911147
108	0x3e81cdcc	0.25352323
109	0x3c97dc9e	0.018537816
110	0x3d83898e	0.06422721
111	0xbcfa1bec	-0.030530892
112	0x3ee25e5a	0.4421261
113	0x3c8432bf	0.016137479
114	0xbe21e354	-0.15809375
115	0xbd482bb9	-0.048869822
116	0xbad48f80	-0.0016217083
117	0x3b40c7b4	0.0029415907
118	0x3d3d13e4	0.046161547
119	0x3ae7e0f4	0.0017690943
120	0x3c07a298	0.008278511
121	0x3ce67709	0.028132932
122	0x39f38b0e	0.00046452176
123	0xbce93972	-0.028469775
124	0xbbb7be6e	-0.005607418
125	0xb9dbbdee	-0.00041912444
126	0x3dd7bf29	0.10534508
127	0x3e09d51b	0.134602
128	0x3edf7379	0.43642786
129	0xbe5fb85d	-0.21847673
130	0x3d1c2838	0.038124293
131	0xbc1e17e5	-0.009649252
132	0xbc0fdd0e	-0.008780731
133	0x3c3a8f1d	0.01138666
134	0xbd427b91	-0.047481123
135	0x3e56bc1c	0.20970196
136	0x391e38ab	0.00015089165
137	0xbd235b25	-0.039881844
138	0x3e2c613a	0.16833964
139	0xbeaf27bc	-0.34210002
140	0x3e8e8828	0.27838254
141	0xbc305bf6	-0.010764113
142	0xbe06620f	-0.13123344
143	0xbcf23f59	-0.029571222
144	0xbb9c02f4	-0.004761094
145	0x3efcedb3	0.494001
146	0x3b433689	0.0029787144
147	0xbc2090c9	-0.0098001445
148	0x3ce90289	0.028443592
149	0x3db246c6	0.08704905
150	0x3eb9def2	0.36302906
151	0xbd41c09c	-0.047302827
152	0x3d4ae2f5	0.04953285
153	0xbd2be271	-0.041964
154	0xbcb14522	-0.02163941
155	0x3d419100	0.047257423
156	0x3d859f99	0.065245815
157	0xbbf62adb	-0.007512433
158	0xbe89a0c6	-0.26880473
159	0xbde75a7b	-0.11296555
160	0xbec3ef89	-0.38268688
161	0xbd89a44e	-0.06720792
162	0xbc900485	-0.01758028
163	0xbceb3942	-0.028713826
164	0x3d5453bf	0.05183768
165	0xbb68e21b	-0.003553516
166	0x3ce5c3f3	0.028047537
167	0xbcf0b38d	-0.029382491
168	0xbeb1a36c	-0.34694993
169	0xbac2df3f	-0.0014867558
170	0x3de03e32	0.10949363
171	0xbcfce16a	-0.030869205
172	0xbc7fdb18	-0.015616201
173	0xbc9da9fa	-0.01924609
174	0xbe7e29b9	-0.24820603
175	0x3d28a8a7	0.041176464
176	0x3c15e8a7	0.009149707
177	0x3d2e0d35	0.042493064
178	0x3defb852	0.11705078
179	0xb99f069c	-0.00030331768
180	0x3c88fbcc	0.016721629
181	0xbaa7c9e8	-0.0012801262
182	0xbd07a5a8	-0.033116966
183	0xbeb113e9	-0.34585503
184	0xbcf19b01	-0.029492857
185	0xbc564803	-0.013078692
186	0xbc5e6b9c	-0.013575461
187	0xbd7e4c5f	-0.062084552
188	0x3d349954	0.044091538
189	0xbb9af3f1	-0.004728787
190	0xbd051a4b	-0.032495778
191	0xbe465487	-0.19368182
192	0xbcae3ef8	-0.02127026
193	0xbdf94fc6	-0.12173419
194	0xbd124d6a	-0.03571836
195	0xbc6c4a50	-0.014422014
196	0xbd02634f	-0.03183299
197	0xbcaa4d6e	-0.020788874
198	0x3bfe4dfc	0.0077607613
199	0xbddea6b8	-0.10871643
200	0x3d2ee20f	0.042696055
201	0xbd8d23aa	-0.06891568
202	0x3bd95593	0.0066325157
203	0xbdaf7aa0	-0.08568311
204	0x3e75fd7c	0.24022478
205	0x3c6221e0	0.013802022
206	0x3adcbfe8	0.001684186
207	0x3cc80450	0.024416119
208	0x3c79d27f	0.01524794
209	0x3d0d9bfa	0.03457258
210	0x3dd79d70	0.10528076
211	0xbd471393	-0.04860265
212	0x3d015f1c	0.031584844
213	0x3bfd4d20	0.0077301413
214	0xbde072f4	-0.109594256
215	0xbd9a3265	-0.07529143
216	0x3d86761f	0.065654986
217	0xbd009c32	-0.03139896
218	0xbb9002bd	-0.0043948577
219	0xbd8edff4	-0.069763094
220	0x3e6a3202	0.22870639
221	0x3b8b0fcf	0.004243828
222	0xbab905b7	-0.0014116083
223	0xbca196ab	-0.019725164
224	0xbcfe4b75	-0.03104184
225	0xbc1bafc7	-0.009502358
226	0x3bc15f76	0.0059012724
227	0x3c20b64d	0.009809089
228	0xbfdecf19	-1.7406951
229	0x3afaa892	0.0019123724
230	0xbd6d7258	-0.057970375
231	0x3c5c6d5b	0.013453807
232	0x3d2ae781	0.041724686
233	0xbe07c133	-0.13257293
234	0x3e0da21b	0.1383137
235	0xbbfd152e	-0.007723472
236	0xbd0e3639	-0.03471968
237	0xbcdf4d71	-0.027258607
238	0x3cde37bc	0.027126186
239	0x3b30745c	0.0026924824
240	0xbbf4a76b	-0.007466247
241	0x3cf46191	0.02983168
242	0xbd1f9c54	-0.038967445
243	0x3c6fd1da	0.014637435
244	0x3d1913aa	0.03737227
245	0xbd2d2075	-0.04226728
246	0x3e653624	0.22383934
247	0x3c9ff306	0.019525062
248	0xbcb81d51	-0.022474917
249	0x3ca2fc0a	0.019895572
250	0x3e3039ea	0.17209592
251	0xbdcca077	-0.09991544
252	0x3d1dbcb4	0.03851004
253	0xbc71dae4	-0.01476166
254	0x3998e359	0.00029161086
255	0xb80ccf91	-3.3571912e-05

fc_mean.bias f4 [2]
0	0x3d9d2834	0.07673684
1	0x3d2c1871	0.042015497

fc_logstd.weight f4 [2, 256]
0	0xbb96db47	-0.0046037766
1	0xbbf3fa33	-0.0074455976
2	0x3c9211ad	0.017830694
3	0xbd480c4b	-0.04883985
4	0x3ba33fd2	0.004981973
5	0xbb9a6411	-0.004711636
6	0xbbdcbf9b	-0.0067367083
7	0x3ba7fc5a	0.005126518
8	0x3d204a82	0.039133556
9	0xbd0e6139	-0.034760688
10	0xbd3386e3	-0.04382981
11	0x3cf8a6ba	0.030352939
12	0xbafdfa4b	-0.0019376961
13	0xbc9b299a	-0.018940736
14	0x3ceb6ec0	0.028739333
15	0x3c84ba57	0.016202135
16	0x3d9c4833	0.076309584
17	0xbd1551f2	-0.036455102
18	0x3d5fe6b2	0.054663368
19	0x3c0d9989	0.008642563
20	0xbbb4bc7a	-0.005515632
21	0x3d088815	0.033332903
22	0x3a8f6689	0.0010940592
23	0x3cbf9c3b	0.023389926
24	0x3c6f61dc	0.014610734
25	0xbc8cc27f	-0.017182587
26	0x3982a725	0.00024920065
27	0x3cd4eb37	0.025991065
28	0x3c648fe3	0.013950321
29	0x3cbb8dbf	0.022894738
30	0xbb57c8dd	-0.003292612
31	0xbc8692f0	-0.016427487
32	0x3c7f9828	0.015600242
33	0xbd4e177e	-0.050315373
34	0x3c8d439a	0.017244149
35	0xbd5a84ed	-0.053349424
36	0xbc5511d2	-0.013004737
37	0x3a6f3017	0.00091242924
38	0xbc3f0c33	-0.011660623
39	0x3cb4dd75	0.022078255
40	0x3d150399	0.036380384
41	0x3c655a2f	0.013998552
42	0xbb346736	-0.0027527339
43	0x3b0d46ce	0.0021557095
44	0x3ca9ec6e	0.020742621
45	0x3cb8fbd5	0.02258102
46	0x3c6c1357	0.014408908
47	0xbd834758	-0.06410092
48	0x3d79c3f8	0.060977906
49	0x3d1c1793	0.03810842
50	0xbc05de9d	-0.008170751
51	0x3bd6bcc6	0.0065532653
52	0x3e1627cf	0.14663623
53	0x3cd81f5e	0.026382145
54	0x3cb0a63a	0.021563638
55	0xbbd0398e	-0.0063545173
56	0xba6bf239	-0.00090006326
57	0x3d04b094	0.03239496
58	0x3cad6038	0.021164045
59	0xb988bab7	-0.00026079055
60	0x3c908dae	0.017645683
61	0x3cb664f5	0.022264937
62	0x3b74c814	0.0037350701
63	0x3cf7e0ae	0.030258503
64	0x3bfacb67	0.007653642
65	0x3c56ff2d	0.013122362
66	0x3b4f4825	0.0031628695
67	0xbbefe122	-0.007320539
68	0xbd4bd70d	-0.049765635
69	0x3e070612	0.1318591
70	0x3d307728	0.043082386
71	0xbc9fa6a5	-0.019488642
72	0x3cdf540a	0.027261753
73	0xbc34730f	-0.01101376
74	0x3d348225	0.044069428
75	0x3d09bdd9	0.03362832
76	0x3d0ab1da	0.03386102
77	0x3d53c07f	0.05169725
78	0xbd4560bd	-0.04818796
79	0x3d9d5389	0.07681949
80	0xbc2ddacb	-0.010611246
81	0xbc1618b0	-0.009161159
82	0x3c888e49	0.01666941
83	0xbbb1df9e	-0.0054282686
84	0x3b10d13c	0.002209737
85	0x3e68c590	0.22731614
86	0x3b814c38	0.0039458536
87	0xbd717ddf	-0.05895793
88	0x3c52e89d	0.012872842
89	0xbd1b4ced	-0.03791516
90	0x3d58913a	0.052872874
91	0xbc8e8a32	-0.017399881
92	0x3d1a1527	0.03761783
93	0xbd3d2869	-0.046181116
94	0x3c6720d2	0.014106946
95	0x3b657ad5	0.003501584
96	0xbc98408d	-0.018585468
97	0xbcef6f86	-0.029227983
98	0x3cf2dc76	0.02964614
99	0xbb5963a5	-0.0033170965
100	0xbc806e00	-0.015677452
101	0x3ca019c6	0.01954354
102	0x3c88b4e1	0.016687812
103	0x3af7ae8a	0.0018896621
104	0x3d9ba9fb	0.076007806
105	0xbb6e19ef	-0.0036331376
106	0x3c97196b	0.018444737
107	0x3c7560c6	0.014976686
108	0x3d29e9b2	0.041482635
109	0x3d399dcf	0.045316514
110	0xbce77fd9	-0.028259205
111	0x3d1a4846	0.03766658
112	0x3db90741	0.09034587
113	0xbbc17117	-0.005903374
114	0x3c72b389	0.014813312
115	0xbd4c1a79	-0.049829934
116	0xbd1f2034	-0.03884907
117	0xbc0c80b0	-0.008575603
118	0xbb57e817	-0.0032944733
119	0x3c45d764	0.012075279
120	0xbc8bb475	-0.017053822
121	0x3cae0ef8	0.021247372
122	0x3cdf3bfb	0.02725028
123	0x3ce80a67	0.028325273
124	0x3b68b6b4	0.003550929
125	0x3d045cfa	0.03231523
126	0x3e10fe84	0.1415959
127	0x3ca4fdbb	0.02014052
128	0x3e18f89f	0.14938591
129	0xbd2284bb	-0.039677363
130	0x3c3bf47c	0.011471864
131	0xbb672a84	-0.0035273144
132	0xbc8f5bb6	-0.017499786
133	0xbcfa4e3e	-0.030554887
134	0xbbe5fe46	-0.007018837
135	0x3ca34b49	0.01993336
136	0xbbb89032	-0.005632424
137	0x3d4586de	0.048224322
138	0x3ce9fd9f	0.028563319
139	0x3ad5416e	0.001627011
140	0x3cc1d1c2	0.02365959
141	0x3dd11184	0.10208419
142	0x3ce95caa	0.028486568
143	0x3b95f589	0.004576389
144	0xbb2d8a92	-0.00264803
145	0x3d3c1338	0.045916766
146	0x3bf0221a	0.007328284
147	0x3cf283be	0.029603835
148	0x3ca15285	0.019692669
149	0x3c414ef1	0.011798606
150	0x3d9da1eb	0.07696899
151	0x3cc5f455	0.024164358
152	0x3d4afc3d	0.04955696
153	0x3c9ae8eb	0.018909892
154	0x3d87984c	0.06620845
155	0xbcfd9aa0	-0.03095752
156	0x3c857497	0.016290946
157	0x3c01768a	0.007901797
158	0x3d2defe8	0.04246512
159	0xbd585f53	-0.052825283
160	0x3da6ca38	0.08144039
161	0x3cabc100	0.020966053
162	0x3d1613bf	0.036639925
163	0xbc905fc7	-0.017623795
164	0x3ce36624	0.027758665
165	0x3bb755a3	0.0055949255
166	0xbce6f606	-0.028193485
167	0xbca09839	-0.019603835
168	0x3d0b4689	0.034002814
169	0xbd295018	-0.04133615
170	0xbb93d336	-0.0045112623
171	0x3c316239	0.010826641
172	0x3ce536cc	0.02798023
173	0xbca49dac	-0.020094715
174	0x3d39b2c5	0.045336504
175	0xbcaa72ea	-0.020806748
176	0x3bce2c9c	0.006291939
177	0x3cddd099	0.027077006
178	0x3c192c1a	0.009348894
179	0x3c4b9a6d	0.012426955
180	0x3db45dc3	0.08806946
181	0x3c06467f	0.0081955185
182	0x3d6578ab	0.05602328
183	0x3daa9fe6	0.083312795
184	0x3d452a9d	0.048136342
185	0xbe2b14b4	-0.16707116
186	0x399f7a31	0.00030417883
187	0xbc17f6f4	-0.009275187
188	0x3cc5a99d	0.02412873
189	0x3a9494d5	0.0011335859
190	0x3cb3c03a	0.021942247
191	0x3b840a01	0.004029513
192	0xbbcd33fd	-0.006262301
193	0x3cd0a074	0.025467135
194	0xbcd80c6f	-0.026373116
195	0x3d2b53f8	0.041828126
196	0xbd20a822	-0.039222844
197	0x3d343486	0.043995403
198	0xbc0b62eb	-0.008507471
199	0x3c6129ba	0.013742859
200	0xbaa105b8	-0.001228503
201	0xbc34af10	-0.011028066
202	0xbd1d29e3	-0.038370024
203	0x3ce3208a	0.027725477
204	0x3d4a321f	0.049364205
205	0xbcb22fd4	-0.021751322
206	0x3d03aac3	0.032145273
207	0x3c794c3e	0.015215931
208	0xbd47beae	-0.04876583
209	0x3c8f717a	0.017510165
210	0x3d0ea607	0.034826305
211	0xbc9ccb2f	-0.019139854
212	0xbc87d020	-0.016578734
213	0xbcb45e1b	-0.02201753
214	0x3d5478e8	0.051873118
215	0x3c9c5318	0.019082591
216	0x3af7529f	0.0018869227
217	0x3bee3d0c	0.007270461
218	0xb842ab8a	-4.6412963e-05
219	0xbc782705	-0.015146022
220	0x3c87b36b	0.016565045
221	0x3c56ee41	0.013118328
222	0x3bc3ce76	0.00597554
223	0x3cd954b0	0.02652964
224	0x3b88ee3b	0.00417879
225	0x3b8e0e48	0.0043351986
226	0xbb1a2688	-0.0023521502
227	0x3d0c949e	0.03432142
228	0x3f139494	0.5764859
229	0xbb1f39dd	-0.0024295964
230	0xbd764d7f	-0.0601325
231	0x3b8bd085	0.004266801
232	0xbac563a5	-0.0015059604
233	0x3c06b4e9	0.008221843
234	0x3dbda017	0.0925905
235	0xbba241dc	-0.0049516987
236	0x3cf5a77d	0.029987091
237	0x3d03e212	0.03219802
238	0xbafddf9b	-0.0019369008
239	0xbbdd92d9	-0.0067618904
240	0xbcd06a75	-0.025441388
241	0x3b9f8501	0.00486815
242	0x3d12c85b	0.035835605
243	0x3c26c01e	0.01017764
244	0x3cb7809e	0.022400197
245	0xbd957f72	-0.07299699
246	0x3d3bf4aa	0.045887627
247	0x3bbcd188	0.0057622828
248	0x3d75bc95	0.0599943
249	0x3c8d1221	0.017220559
250	0x3cef60cc	0.029220961
251	0x39a0f7fb	0.00030702338
252	0x3d03dc5d	0.032192577
253	0xbb0de3a9	-0.0021650589
254	0xbc3f4777	-0.011674753
255	0x3b9542c2	0.0045550773

fc_logstd.bias f4 [2]
0	0xbe13d281	-0.1443577
1	0xbe92a908	-0.28644586

fc1.weight f4 [256, 16]
0	0x40037b69	2.0544074
1	0x3fb79365	1.4341856
2	0xbd55063c	-0.0520079
3	0xbf9bcc92	-1.2171805
4	0x3d28e4e0	0.041233897
5	0xbf7c18bc	-0.9847524
6	0x404a2922	3.1587605
7	0xc0429b9e	-3.0407481
8	0xbe3837b7	-0.17990004
9	0xbfbdef5b	-1.483867
10	0xbe1de277	-0.1541842
11	0xbd44b0d9	-0.048020218
12	0x3e9c8eb6	0.3057763
13	0xbe55d9c3	-0.20883851
14	0xbe120fcc	-0.14263839
15	0x3da32bea	0.0796736
16	0xbf49915f	-0.78737444
17	0x400a449a	2.160437
18	0x3ce4069e	0.027835187
19	0x3ff9d4d3	1.9518074
20	0xbdbdf0f1	-0.092744716
21	0x3fcea02d	1.6142632
22	0xc007c475	-2.1213658
23	0x3eebf833	0.46087798
24	0xbedafe86	-0.4277231
25	0xbf886fa6	-1.0659072
26	0xbc419ff2	-0.011817919
27	0xbaa0ca95	-0.0012267405
28	0xbe830954	-0.25593054
29	0x3fdbf5a9	1.7184345
30	0x3e165141	0.14679433
31	0x3bf97f9c	0.007614089
32	0x3df9b320	0.121923685
33	0xbdde5a9c	-0.10857126
34	0xbe741c64	-0.23838955
35	0x3e38bcfc	0.18040842
36	0x3e424c2e	0.18974373
37	0x3e473a46	0.19455823
38	0x3e3cc3c2	0.1843405
39	0x3ce7d7c0	0.02830112
40	0xbe2806dc	-0.16408867
41	0x3d998b34	0.07497254
42	0xbd21c310	-0.039492667
43	0x3e639ee8	0.22228587
44	0x3e0a4f18	0.13506734
45	0x3e7ab750	0.2448399
46	0xbe4ee11a	-0.20203057
47	0xbe146e5a	-0.14495221
48	0x3e66a914	0.22525436
49	0xbd1e60b8	-0.038666457
50	0xbdfd3c38	-0.123650014
51	0x3e1e4fee	0.15460178
52	0xbe798934	-0.24368745
53	0xbdefe6c8	-0.1171394
54	0x3d705230	0.05867213
55	0x3e1c587c	0.15268129
56	0x3e0fcf34	0.14043885
57	0x3e560fb0	0.20904422
58	0x3e461d0c	0.19347018
59	0x3dc6f284	0.09714225
60	0xbd7200d0	-0.059082806
61	0xbe565002	-0.20928958
62	0x3db3e690	0.08784211
63	0x3e42f0ea	0.19037214
64	0x3da6e438	0.08148998
65	0x3cd5f1a0	0.026116192
66	0xbe4c39ce	-0.19943926
67	0x3e2a39ae	0.16623566
68	0x3e196840	0.14981174
69	0x3dbf789c	0.09349176
70	0xbdb9d254	-0.0907332
71	0x3e09bcca	0.13450924
72	0x3e15d8de	0.1463351
73	0xbdd65f48	-0.10467392
74	0xbe0195b8	-0.1265477
75	0x3dd20ea0	0.10256696
76	0x3e26daea	0.16294447
77	0x3d9ecfd8	0.07754487
78	0xbdddc8f4	-0.108293444
79	0x3d7347d8	0.059394687
80	0x3fa2e800	1.2727051
81	0xbf03fba1	-0.5155583
82	0xbd69a4ab	-0.057041805
83	0xbf0b6dbe	-0.5446433
84	0x3b05cf62	0.00204178
85	0xbee253b1	-0.44204476
86	0xbe9100a8	-0.28320813
87	0x3c1a4a4a	0.009417126
88	0xbf9f1fb4	-1.243155
89	0xbf1a5b47	-0.6029553
90	0x3af9d1d0	0.0019059721
91	0x3c90b9fe	0.017666813
92	0x3f3b0296	0.7305082
93	0x3fa1568c	1.2604537
94	0xbd8ab251	-0.067722924
95	0x3d25153a	0.040303446
96	0x3d8332c0	0.06406164
97	0xbd8a174c	-0.06742725
98	0xbd53d1de	-0.051713817
99	0x3e145e7b	0.14489166
100	0x3e221cb5	0.15831263
101	0xbdd9092f	-0.10597455
102	0x3e4cd877	0.2000445
103	0xbeab92da	-0.33510476
104	0xbcec3078	-0.028831705
105	0xbeea680b	-0.45782503
106	0x3e8391b7	0.2569711
107	0x3c28c7a6	0.010301506
108	0x3d60ca32	0.05488033
109	0x3c393deb	0.011306266
110	0xbe95250f	-0.29129836
111	0xbe003a69	-0.12522282
112	0x3cc6c1a0	0.02426225
113	0x3e24ebc6	0.16105565
114	0xbe6ee59e	-0.2332978
115	0xbd0fbe50	-0.035093606
116	0xbe5ba33c	-0.21448988
117	0x3e615b0c	0.22007388
118	0xbe326792	-0.17422321
119	0xbdca5bf8	-0.09880823
120	0x3e2c57e6	0.16830406
121	0xbd5a16c8	-0.053244382
122	0x3df6a91c	0.12043974
123	0x3ccdfc70	0.025144786
124	0x3e265dd8	0.16246736
125	0xbe22535a	-0.15852109
126	0xbc690760	-0.01422295
127	0xbe3d0b28	-0.18461287
128	0x3d72f815	0.05931862
129	0xc064f819	-3.5776427
130	0xbdc340b1	-0.09533823
131	0x3dd529f3	0.10408392
132	0x3e9666c3	0.29375276
133	0x3f7159f9	0.9427791
134	0xbfc7c798	-1.5607786
135	0xc0a2d1a4	-5.088091
136	0x3fbb0d91	1.4613515
137	0xbfa52470	-1.2901745
138	0xbef3443d	-0.47513
139	0x3f4f0b14	0.8087628
140	0x3e67c00c	0.22631854
141	0x3ec1504b	0.3775657
142	0xbfb453e2	-1.4088099
143	0x3f80c0d0	1.0058842
144	0xbd9d84d1	-0.07691348
145	0xbf1a9001	-0.6037598
146	0x3b8aa5cd	0.004231191
147	0x3e5d2cfa	0.21599188
148	0xbe4c8822	-0.19973806
149	0x3e29b0a8	0.16571295
150	0x3ec795ee	0.38981575
151	0xbf85de75	-1.0458513
152	0x40ef4e50	7.4783096
153	0xbe64b76a	-0.22335592
154	0xbf877d98	-1.0585203
155	0xbfc06911	-1.5032064
156	0xbb34cdc7	-0.0027588473
157	0xbd5c02c6	-0.053713582
158	0x3f66c38a	0.9014212
159	0x40140162	2.3125844
160	0x3fe9b3f5	1.8258044
161	0xc07cf5b7	-3.9524972
162	0xbaddade7	-0.0016912789
163	0xbeb8a461	-0.3606291
164	0xbe26296b	-0.16226737
165	0xbe8256ee	-0.25456947
166	0x3fc741e3	1.5566982
167	0xbff845bb	-1.939628
168	0x3f7c478d	0.9854668
169	0xbff827dd	-1.9387165
170	0xbd90f4ac	-0.070779175
171	0x3d519e39	0.051176284
172	0xbf9e0b63	-1.2347225
173	0x3f405658	0.7513175
174	0xbc9974ee	-0.018732514
175	0x3dbbe680	0.09174824
176	0xbb10d880	-0.00221017
177	0xbdf9e174	-0.12201205
178	0xbdec9c98	-0.115533054
179	0x3cea43e0	0.028596818
180	0x3e2c8972	0.16849306
181	0xbe0f34a6	-0.13984928
182	0x3e4601e4	0.19336659
183	0xbe0bb80c	-0.13644427
184	0xbdca0f00	-0.09866142
185	0x3d36ad18	0.04459867
186	0xbe141cdc	-0.14464134
187	0xbe30f356	-0.17280325
188	0x3d7f15e8	0.06227675
189	0xbe214472	-0.15748766
190	0xbc543d80	-0.012954116
191	0xbcf5eff0	-0.030021638
192	0xbd0e0248	-0.034670144
193	0xbce61720	-0.028087199
194	0xbd90fae0	-0.070791006
195	0x3d633d20	0.055478215
196	0x3c50da00	0.012747288
197	0xbe43101a	-0.19049111
198	0xbe56ffd6	-0.20996031
199	0xbd845f68	-0.0646351
200	0x3db3d6d4	0.087812096
201	0x3d2b1908	0.04177192
202	0xbe5c4fee	-0.21514866
203	0xbdbfc450	-0.093636155
204	0xbd104c60	-0.035229087
205	0xbcc1e1b0	-0.023667186
206	0x3d963e64	0.07336119
207	0xbdbdabe0	-0.09261298
208	0xbe5c3aec	-0.21506852
209	0xbe682fca	-0.2267448
210	0xbdc234a8	-0.094827
211	0x3e67adb4	0.22624856
212	0xbe743c56	-0.23851141
213	0x3e6e4d84	0.23271757
214	0x3e7bde8e	0.24596617
215	0x3e314f14	0.17315322
216	0xbdf1b678	-0.11802381
217	0xbe26d3ee	-0.16291782
218	0xbddd4d60	-0.10805774
219	0x3c57a3e0	0.013161629
220	0x3d86fe94	0.06591526
221	0xbe7f6514	-0.24940902
222	0xbe7ab030	-0.24481273
223	0xbd8f557c	-0.06998727
224	0x3f8b128b	1.0865034
225	0x3c1cfbc5	0.009581511
226	0x3d82c614	0.06385437
227	0x3fcbe518	1.5929289
228	0x3e0ea137	0.13928686
229	0x3fb20661	1.3908197
230	0xc066bcc1	-3.6052706
231	0xc0355cc2	-2.8337865
232	0xbfd24485	-1.642716
233	0xc061c353	-3.5275466
234	0x3d424808	0.047431976
235	0xbc4e18d8	-0.012579165
236	0x3e2b403d	0.16723724
237	0x3d977cce	0.073968515
238	0xbae73369	-0.0017639223
239	0xbd0e7d89	-0.03478769
240	0xbfed0f92	-1.8520377
241	0x4020fc6d	2.5154068
242	0xbde41f62	-0.11138798
243	0xbe54f89e	-0.20797965
244	0x3e8b1519	0.27164534
245	0x3f22e430	0.63629436
246	0xbedb449f	-0.4282579
247	0xbfb05272	-1.377516
248	0x4035cb24	2.8405237
249	0xc118f104	-9.558842
250	0xbecb9983	-0.39765558
251	0x3e2c2916	0.16812548
252	0xbe474174	-0.19458562
253	0x3f0601a8	0.5234628
254	0xbedf8b7b	-0.43661103
255	0x3e33c602	0.17556003
